contrastive_save_archive/contrastive_weights_epoch_21.pt (torch, 749116 bytes, 8 tensors)

conv1.weight f4 [64, 3, 3, 3]
000000 22 6c 1c 3e 37 73 e8 3d b9 b6 30 3e 1e fd 4c 3c
       0.15275624 0.113501005 0.17257203 0.01251152
000010 4d 88 d2 bd e0 af c5 3c c2 b5 31 3e 57 20 d6 bd
       -0.102799036 0.024131715 0.17354491 -0.10455387
000020 a9 26 3c be 9d 3c da 3d a1 be 0b be 0c 7c c7 bd
       -0.18374123 0.10656092 -0.13646938 -0.09740457
000030 d5 ef d6 bc 28 04 1a 3e a2 13 35 be 19 a3 e0 3c
       -0.026237408 0.15040648 -0.1768327 0.027421521
000040 b4 7f a0 bb 50 07 1c be c1 d9 cd bb a3 75 30 3e
       -0.004898036 -0.15237164 -0.006282062 0.17232375
000050 9a 78 39 3c 02 b3 b9 3d 5f 71 60 bd 27 38 01 bd
       0.011320258 0.09067346 -0.05479562 -0.03154769
000060 33 e5 df 3d a9 f6 c2 3d 5d c6 14 be 89 7b 8e bd
       0.10932388 0.09519703 -0.14528795 -0.06957156
000070 30 cb 83 3c 43 e4 98 3d b5 84 37 3d 03 19 bc 3d
       0.016088098 0.074654125 0.044804294 0.09184458
000080 c6 b3 01 3e 5d aa 03 3e 29 0e ce bd 71 b1 17 3e
       0.12666234 0.12857957 -0.100612946 0.14813782
000090 95 6e c6 bc ba 84 93 bd 53 aa 38 be 53 a4 48 3d
       -0.024222651 -0.0720305 -0.18033724 0.048984837
0000a0 e8 40 76 bd 9d 18 2e be 37 f9 10 3e e8 1f 01 bc
       -0.060120493 -0.17001577 0.14157568 -0.007881142
0000b0 1a 65 44 be 2b 9e 3f 3d 35 82 19 bc f5 1d e6 3d
       -0.19179192 0.0467817 -0.009369423 0.112361826
0000c0 ae f8 18 be 4a e1 10 3e d9 c8 0b 3e 8d 06 d7 bd
       -0.14938614 0.14148441 0.13650836 -0.10499296
0000d0 99 ff 3e 3e 36 0f 20 be 36 55 21 3e f5 f0 17 3b
       0.1865219 -0.15630803 0.15755162 0.0023184393
0000e0 dc 29 48 be 86 b3 00 3d b0 e9 02 3e c7 8d 00 be
       -0.19547218 0.031421207 0.12784457 -0.12554084
0000f0 af 4b f4 3d 81 11 db 3d f5 6e 36 be 18 9e 0d be
       0.11928498 0.10696698 -0.17815764 -0.13829839
000100 86 eb 04 be 7d 33 07 be 6d 10 0f 3e 76 d0 29 3e
       -0.1298047 -0.13203235 0.1397111 0.16583428
000110 54 17 cf bd ff 73 09 3c 78 a9 e4 3d d2 0a f5 3d
       -0.10111871 0.008389472 0.11165136 0.119649544
000120 f2 c0 da bd c7 7d c9 bd 3a 7b 4c bd dc d1 3d bb
       -0.10681333 -0.09838443 -0.049922206 -0.0028964197
000130 eb 55 a0 3d c7 e6 72 3c 51 59 b8 bd c2 b9 53 3e
       0.078288876 0.014825529 -0.09001411 0.2067633
000140 91 0e d6 bc 7e 89 2e be 8d 62 19 be 8c 53 19 be
       -0.026129993 -0.17044637 -0.14979 -0.14973277
000150 be a7 33 3e 9a 16 9d 3d 7d 7f 52 3d 50 d2 0a 3d
       0.17544457 0.076703265 0.051391114 0.033891976
000160 6f ca 3f 3e 40 6b 88 bd 3a c6 02 be bc 23 46 be
       0.18729566 -0.06661081 -0.1277093 -0.19349569
000170 d5 9c 11 bd 8b 45 25 3e ee 5b 33 bd 23 a0 f1 3d
       -0.035549957 0.1613981 -0.043788843 0.11798122
000180 1c 19 d1 3d b8 ce 24 be b2 60 47 3e 2e 5a 23 be
       0.10209867 -0.16094482 0.1947048 -0.1595237
000190 85 76 7a 3d b3 dc e4 bd 3f 90 c6 3c 66 3b 32 3e
       0.061148185 -0.111749075 0.024238704 0.17405471
0001a0 05 05 2f 3d 65 89 1b 3e 57 7b 18 be f0 ee d8 bc
       0.042729396 0.1518913 -0.148908 -0.026481122
0001b0 c7 48 4a be 0a c3 b2 3d 12 94 5d be f0 aa 2f be
       -0.19754325 0.08728607 -0.21638516 -0.17155051
0001c0 2f 6a 3e be 5d 51 09 3d af b5 ce bd 65 fe a6 bb
       -0.18595193 0.03352486 -0.10093247 -0.005096244
0001d0 06 ca 45 be aa be 21 be 71 94 2f 3e d3 b4 cf 3d
       -0.19315347 -0.15795389 0.1714647 0.10141911
0001e0 8b 02 a5 bb 08 d4 7b bc 30 a4 25 be 50 32 3c 3c
       -0.0050357035 -0.015370376 -0.16175914 0.011486605
0001f0 fa 59 49 3c b2 61 cf 3d dc df 54 be c0 6c 4f be
       0.0122895185 0.10126056 -0.2078852 -0.20256329
000200 88 ba d3 bd 35 5a 12 3d 7a 00 c6 3c c5 78 38 be
       -0.103383124 0.03573056 0.02417015 -0.1801482
000210 5a 87 31 bd 26 03 41 3b 8e 8e f9 3d d5 7e 08 bd
       -0.043341972 0.002945134 0.12185393 -0.03332408
000220 6e e6 87 3d 62 e9 2c 3e ec 3e cd 3c 3c cb d3 bd
       0.06635748 0.16885903 0.025054418 -0.10341498
000230 76 e2 fe 3d 20 8e 27 be 02 b4 1d 3e 7d bd 0c 3d
       0.12445538 -0.1636281 0.15400699 0.034360398
000240 41 d0 c7 bd 40 4d 2e bd 21 78 af 3d 64 7c d7 3a
       -0.09756518 -0.04255414 0.08567835 0.001644027
000250 ce 9e af bc d0 a2 3d bd f0 eb 1d 3e a2 5e 16 3e
       -0.021438029 -0.04629785 0.15422034 0.14684537
000260 e4 05 16 3e ee ee 16 be 09 dc 12 be a2 28 1c 3d
       0.14650685 -0.14739582 -0.14341749 0.038124688
000270 14 2f 7d 3d d7 cd a3 bd 45 1f 19 3d 26 a9 fb bd
       0.061812475 -0.07998245 0.037383337 -0.12288122
000280 bd a6 28 bc 41 30 66 3d 3a c9 ad bd 4f ec 34 be
       -0.01029366 0.056198362 -0.084856465 -0.1766827
000290 0d 18 42 be d8 b5 3b 3d 8f 5c 48 3d 47 8c 06 3d
       -0.18954487 0.045827717 0.048916396 0.032848623
0002a0 79 72 b0 3d d4 75 a7 bd 8b 70 33 bc 59 e1 32 3e
       0.08615584 -0.08176771 -0.010952125 0.17468776
0002b0 b6 eb 11 3d b1 97 16 be 54 d3 4e be a5 97 d2 3c
       0.035625182 -0.14706303 -0.20197803 0.025707075
0002c0 87 42 f3 3d 3e 1c 3f be 10 25 22 3c 24 6e 21 3d
       0.118779235 -0.18663117 0.009896532 0.03941168
0002d0 71 72 81 bd 04 83 11 3e 95 d3 40 be 30 82 26 3e
       -0.06320656 0.14210135 -0.18830712 0.162606
0002e0 ea 22 04 bd 09 69 b6 3a 8e a7 c2 3d 70 6c 64 3c
       -0.03225986 0.0013916801 0.09504615 0.013941869
0002f0 dc 5a c0 3d 4a b6 3a be 5d 96 42 3e 75 c7 bf 3c
       0.0939233 -0.182336 0.19002672 0.023410538
000300 0f fd 04 bd cd 40 45 be 2e 42 e3 bd dd 98 28 be
       -0.032467898 -0.19263001 -0.11096607 -0.16464563
000310 9b da f5 3d 9a c0 13 3a ba 7d 02 3e 29 3a 34 3d
       0.12004586 0.0005636305 0.12743273 0.04400078
000320 6d cc 37 3d 46 8e c6 3d a1 9b 45 3e 9a 08 06 3c
       0.04487269 0.09695105 0.19297649 0.008180762
000330 2d 66 02 be 86 3c 40 3e 56 6a 2e 3e ba da 1a 3e
       -0.1273429 0.18773088 0.17032751 0.151225
000340 e6 62 31 be a3 a9 01 be dc 2c fa 3d ed 33 12 3e
       -0.17322883 -0.12662368 0.122155875 0.1427762
000350 b2 e2 25 bd 7d 02 c3 3c 5a a1 1f be 0c 0a be bd
       -0.040499397 0.023804897 -0.15588894 -0.0927926
000360 b8 e2 f9 bd f2 45 98 3d fa 7a 41 3e 7b fd be 3d
       -0.12201446 0.07435216 0.18894568 0.09325691
000370 8b 61 c1 3d bb ce e3 bd d8 a7 7e bd 89 e7 11 be
       0.09442433 -0.11123415 -0.062171787 -0.1424848
000380 f3 55 43 be 0c 5d 0a be 40 95 80 3d ee 8a 86 3d
       -0.19075756 -0.13512057 0.06278467 0.065694675
000390 83 f9 fc 3d 52 02 a4 bd f9 ce f5 3d fc 9e 07 3e
       0.12352278 -0.08008255 0.120023675 0.13244241
0003a0 31 9c bc bc 26 bd 1e 3e 7d f2 ce bd 54 cc 40 3d
       -0.023023697 0.15501842 -0.10104845 0.047069862
0003b0 6a a1 14 be ed 04 8e bd d5 00 3e 3e 4e 8f 74 bd
       -0.145147 -0.06934533 0.18555005 -0.05970698
0003c0 5a f5 47 3e e0 49 be bd f3 82 03 be c5 b2 fd bb
       0.19527188 -0.09291434 -0.12842922 -0.0077422583
0003d0 63 6d 8f 3d 34 1f aa 3c 07 ef e6 3d b1 1f 40 be
       0.07003286 0.020766832 0.112760596 -0.1876209
0003e0 43 eb d7 3c 9c 0a 25 3d ab f4 12 3e 6c 39 dd bd
       0.026357299 0.04029332 0.14351146 -0.10801968
0003f0 b7 70 92 ba d7 85 1e bd a9 c3 4b be a9 27 11 bc
       -0.0011172508 -0.03870186 -0.19898857 -0.008859553

conv1.bias f4 [64]
000000 40 ba d2 bd a4 bc bb bd dc e7 08 bd 92 a7 1d ba
       -0.102894306 -0.0916684 -0.033424243 -0.00060140446
000010 5e 23 98 3d 74 16 42 be d8 49 04 3e 95 20 1d be
       0.07428621 -0.18953878 0.12918794 -0.1534446
000020 88 7b bf bd db 1a ba 3d ec 77 a0 bd 02 0e d5 3d
       -0.093497336 0.090871535 -0.07835373 0.104030624
000030 9a 0d cb 3c 15 a2 12 3e 81 bc 81 bd 76 52 cd 3b
       0.02478676 0.14319642 -0.063347824 0.0062659336
000040 9a e6 79 3a 48 48 32 bd 94 3e 41 be 9a 80 f2 3d
       0.00095329585 -0.043525964 -0.18871528 0.11840935
000050 7e 3c b9 3d ce 6c a7 bd 27 9b 51 be ab 73 b5 3d
       0.09044741 -0.0817505 -0.20469342 0.088599525
000060 f8 63 1c 3e 0d cd 60 3d 77 ee 0a be 3e 68 8b 3d
       0.1527251 0.05488305 -0.1356753 0.06806992
000070 4e e1 1e 3d a0 d0 ff 3c f6 37 09 3e 3f a2 4b be
       0.038789086 0.03122741 0.13400254 -0.1988611
000080 5c 3d f7 bc ac 5c 8d bd de 66 b5 3d a3 37 d4 bd
       -0.030180626 -0.069024414 0.08857511 -0.10362174
000090 8d 1f bd 3d 59 6f 79 3d f5 d8 58 bd f5 4c e9 bd
       0.092345335 0.060897205 -0.05294128 -0.113916315
0000a0 07 28 8f ba d7 ac 50 be 54 9c cc 3b fd 57 06 3c
       -0.0010921963 -0.20378433 0.0062442217 0.008199689
0000b0 14 5c 5a 3c 74 17 78 3b f7 7e c1 bd 4c 74 49 ba
       0.013327617 0.0037855776 -0.09448045 -0.0007684871
0000c0 96 71 df bc 1a 77 3b 3c c2 57 9b bd 31 e6 6b 3a
       -0.027275842 0.01144197 -0.07585098 0.000899884
0000d0 46 f4 b1 3d 65 09 62 3d 1b a3 ea 3d e7 51 60 3d
       0.086891696 0.05518474 0.11456891 0.05476561
0000e0 86 52 40 bd e6 7f 64 3c 47 57 be bd e4 d0 92 3c
       -0.0469537 0.013946509 -0.092939906 0.017921872
0000f0 62 26 2b 3a 8f 6b fb 3d d2 3d 96 3a fb b3 a8 bd
       0.0006528852 0.122763745 0.0011462516 -0.082374536

conv2.weight f4 [128, 64, 3, 3]
000000 22 1a 0e 3d 4b 5c 15 bd 89 28 a7 bc 02 37 83 3c
       0.03469289 -0.03646497 -0.02040507 0.01601744
000010 71 8a 0c bd b8 ca 49 bd 22 af fb 3c 35 bc 22 3c
       -0.034311716 -0.049265593 0.030723158 0.009932567
000020 83 d1 f8 ba 7d 18 34 bd e5 af 3c bd 97 d9 74 bd
       -0.0018983338 -0.043968666 -0.046066184 -0.059777822
000030 ca df 8b bb 90 ea 54 bd 1b f4 e5 bc 3f 92 a1 bc
       -0.004268621 -0.05198151 -0.0280705 -0.019723056
000040 b5 ad 30 bd 4a 24 72 bd c8 a0 05 bd e7 c4 7e bd
       -0.04313441 -0.05911664 -0.032624036 -0.0621995
000050 dc 7c e8 bd 7e 85 8e 3c 66 03 a8 bc 9c 8e 80 3b
       -0.1135194 0.017397638 -0.020509433 0.0039232504
000060 83 4c e2 3c 2d 56 bb bc 34 a0 16 bd 5f 3a 6b 3d
       0.027624374 -0.02286824 -0.036773875 0.057428714
000070 9d b8 13 3d 54 d6 96 3d fd 0e 9b 3d ef 7f 8d 3d
       0.036064733 0.073650986 0.07571218 0.06909167
000080 7e 0a a7 3d 99 5b 7f 3d 74 27 0b 3c 64 97 92 3d
       0.08156298 0.062343214 0.008493293 0.07157782
000090 ae 06 17 3d 11 f8 17 3c bb 33 2b 3c 7c 63 dc bb
       0.036871605 0.009275452 0.010449345 -0.0067257266
0000a0 fe bd f4 bb cc 00 4d ba 69 3f f7 bc 1d 5b f4 bc
       -0.007468938 -0.0007820248 -0.030181604 -0.029828602
0000b0 43 2f 51 bd 68 a9 5d bc d5 ff 35 bd 08 38 0f bc
       -0.051070463 -0.013529159 -0.044433434 -0.008741386
0000c0 0a 1a b3 bc 45 12 f6 3c 1b 8a 49 3c f6 62 04 bd
       -0.021863002 0.030038008 0.012300993 -0.03232094
0000d0 8b f0 a8 bc 5b eb 40 bc 98 42 a9 b9 a1 fc bb bc
       -0.020622512 -0.011774863 -0.00032283808 -0.022947611
0000e0 94 6f 41 3d ec 71 2d 3d 02 03 c9 bc ed 7b 38 3d
       0.04722555 0.042344972 -0.024537567 0.04504006
0000f0 21 77 a3 3b 9d 4d 7e bc b9 7c 0e 3d 68 17 c7 3c
       0.0049885665 -0.015521434 0.034786914 0.024303153
000100 a8 e0 20 bc 3d 88 53 bd 56 28 10 bc b6 21 60 3c
       -0.009819187 -0.0516436 -0.008798679 0.013679912
000110 1b 1a 25 bd fe 8f 0e bd 30 34 9b bb 32 a8 24 bd
       -0.0403081 -0.03480529 -0.004736446 -0.040199466
000120 fd f5 f3 bc a4 d5 15 bc 80 6f bb bc 83 17 a6 bc
       -0.029780382 -0.009145174 -0.022880316 -0.020274883
000130 80 c5 36 bb 9b a0 8d bd cf d9 0b bd be 5c 89 bd
       -0.0027888715 -0.06915399 -0.034143265 -0.06707142
000140 a9 44 86 3b 92 b9 ba 3c 55 f6 27 bd fc 83 80 bc
       0.0040975404 0.022793565 -0.041006405 -0.015687935
000150 c9 5e 08 bd 44 38 2b bd 65 55 d2 3b 2f 98 b0 3c
       -0.03329352 -0.041801706 0.006418871 0.021556942
000160 8b 9e 20 bd cf a2 18 bd 10 42 01 3d 13 8f 11 bd
       -0.0392137 -0.03726464 0.031557143 -0.035536837
000170 3e 09 6c bc 9b 91 2e bd 8e 06 24 bd 3b 20 53 3c
       -0.0144065 -0.04261933 -0.040045314 0.012886102
000180 ba a2 60 ba 99 9b ff ba 0d d1 83 3b 23 16 0f bd
       -0.000856917 -0.0019501328 0.0040227235 -0.03493322
000190 7a 9e 45 bd fe 2d 98 bd 6a c2 95 3b ec 3e f6 bc
       -0.04824684 -0.07430647 0.004570295 -0.0300593
0001a0 9b 53 f0 ba 29 1c cb bc 0f a9 ad bc 88 4d 8c bc
       -0.0018335463 -0.024793701 -0.021198777 -0.017126814
0001b0 0a 65 ae 3c b6 94 62 3c 95 79 6d bc 36 2b be 3c
       0.021288414 0.013829401 -0.014494319 0.023213964
0001c0 df c1 ca 3b 6b a8 42 bc b6 8a 88 3c 3f ba cf bb
       0.006187662 -0.011880974 0.016667705 -0.006339341
0001d0 ff b4 87 3c 51 f5 15 bc fc f8 a7 3c c1 cc d9 bb
       0.016565798 -0.009152726 0.020504467 -0.006646723
0001e0 95 59 86 39 45 3e d7 3b 9f 99 b8 bc 6b 10 fa bc
       0.00025625215 0.0065687024 -0.02253419 -0.030525407
0001f0 98 29 4b bd fa 6d 2b bc f8 ce b2 bc 6f 93 00 3c
       -0.049600214 -0.010463232 -0.021827206 0.007847651
000200 d6 91 c3 bc 9f 06 8e 3c c7 a4 9f 3c 8d 48 0f 3d
       -0.023873251 0.017337142 0.019487752 0.0349813
000210 03 19 2a bd 4c dc 02 3d d9 8f 53 bc bf a5 7a 3d
       -0.04152776 0.031948373 -0.012912714 0.061193224
000220 8b 7e f7 3c 79 e5 9e 3c 81 09 8d 3c 5d e5 7f 3d
       0.030211708 0.01939653 0.017216446 0.062474597
000230 c0 c6 c9 3c bd 76 06 3d e7 85 c1 bc b9 e9 a9 3c
       0.024630904 0.03282808 -0.02362342 0.02074133
000240 2d fb 87 bd bc da 89 bd 44 b1 09 be 70 23 c9 bd
       -0.06639705 -0.067311734 -0.13446528 -0.09821212
000250 83 55 ac bd 27 29 bb bd d8 70 77 bd 8f 11 fd bd
       -0.084147476 -0.091387086 -0.06041035 -0.12356865
000260 02 59 f0 bd d4 04 c0 bd 82 4d 24 bd 0a d4 d9 bd
       -0.11735727 -0.09375921 -0.04011298 -0.10636146
000270 e6 80 aa bd a6 94 af bd 0e 9a 9a bd b8 cb 99 bd
       -0.08325367 -0.08573274 -0.07548915 -0.075095594
000280 1e 99 39 bd 45 1a 23 3d 3e 17 28 bd 3d 4f fc bb
       -0.04531204 0.039819974 -0.04103779 -0.0076998756
000290 77 bb 1e bd ae cc da bc 7d bf ed 3c d4 d2 c9 bb
       -0.038753 -0.026708927 0.029021973 -0.006159166
0002a0 89 2d 11 ba cf 29 f6 3c c5 bb 98 bc 7b d4 16 3d
       -0.00055380963 0.030049233 -0.018644223 0.03682373
0002b0 1c 04 bd 3c fb 42 c2 bc 22 18 18 3d 68 a3 21 bd
       0.023073249 -0.02371358 0.03713239 -0.039462477
0002c0 cb f6 10 bd 6a f3 68 3c fa 6b cd 3a b9 4c 44 3b
       -0.03539161 0.014218191 0.0015672438 0.0029952957
0002d0 5c bf d5 bc 97 9a c9 3b f3 1d e1 bc fc 81 49 bb
       -0.026092224 0.0061524617 -0.027480101 -0.0030747643
0002e0 80 f4 78 3c 1a 69 f4 b9 57 19 1d bd 6c 2d d8 bc
       0.015195012 -0.00046617613 -0.038354244 -0.026388846
0002f0 ca 0f 8f bd 51 70 b0 bb 3a 55 53 3d df e0 06 3d
       -0.069854334 -0.005384483 0.05159495 0.032929298
000300 20 1b 32 3c 9e a3 37 3b ad fc 0c 3d e2 c1 ff 3c
       0.010870725 0.0028021107 0.034420658 0.03122038
000310 d0 4f ab 3c 9c 8b 2d 3d 7d b7 dc 3c 9d 3b c4 3c
       0.020912081 0.04236947 0.026942963 0.023954207
000320 0a 24 11 3d 6d 8a 1c bd af 6b 60 bb 00 db 0d 3c
       0.03543476 -0.03821795 -0.0034243872 0.008658171
000330 63 8c b2 bc 40 11 b9 bc 5a 68 11 bc 2e c4 ee bc
       -0.021795457 -0.022591233 -0.008874977 -0.02914628
000340 f0 ba 2d bc 43 fa 75 3b 9b 78 1c 3d 37 5d 1a 3d
       -0.010603651 0.00375332 0.038200956 0.037686553
000350 dc 21 b9 bc 83 a2 2f 3c 43 3f b9 bb 27 01 36 3d
       -0.022599153 0.010719898 -0.0056532933 0.044434693
000360 1e d4 a7 3c 12 46 5e ba 81 2c 13 3d e8 cf 82 bc
       0.020486888 -0.0008479069 0.035931114 -0.015968278
000370 51 08 8d 3c 91 a2 81 bc 19 2e 34 ba 64 f7 a9 3a
       0.01721588 -0.015824588 -0.0006873324 0.0012967405
000380 77 4c 4f bd 3a 66 ac 3c e8 25 d1 bc 89 9d dc 3c
       -0.050610032 0.02104484 -0.02553077 0.026930587
000390 e3 9e 47 bc c7 9a 80 3c d5 97 14 3c 29 24 cb 3c
       -0.012183878 0.015698804 0.009069403 0.024797516
0003a0 46 15 25 bc ae d6 91 3c 1c ea 21 3b ce e2 13 bc
       -0.010075873 0.017802563 0.002470619 -0.009026242
0003b0 64 3c f3 bc 46 71 2c bd fa 88 47 bb 4d 95 ea 3b
       -0.029691882 -0.042100213 -0.0030446635 0.0071589113
0003c0 3b cf 99 3c 8d 31 e3 bb a9 8f 0c bd 88 87 31 bd
       0.018775573 -0.006933397 -0.034316693 -0.043342143
0003d0 c3 e0 3c bd ef ee 0d 3d 29 a7 b3 3c 14 7e cc 3c
       -0.046112787 0.034651693 0.021930294 0.024962462
0003e0 66 74 51 bc 2c f3 45 bd da fe 8b bc e6 a0 62 3a
       -0.012784099 -0.04832761 -0.017089296 0.00086451916
0003f0 02 69 f9 bc 3a 55 f3 3c 28 ad 8f 3c b3 15 01 3d
       -0.03044558 0.029703725 0.017538622 0.031514835

conv2.bias f4 [128]
000000 fa 26 10 3d 72 50 6b 3c 90 7f 3f 3c 87 a4 0e 3d
       0.03519342 0.014362441 0.011688128 0.034824874
000010 2e 6b 93 3c 28 46 21 bd a5 73 d8 3b 40 bc a4 3c
       0.017995443 -0.039373547 0.006605583 0.020109296
000020 bc c0 71 bc 10 47 28 3d 02 a1 33 bd b8 fc cf bc
       -0.014755424 0.041083395 -0.04385472 -0.02538906
000030 47 20 86 3c a1 73 a0 bc ac b3 b5 3c 80 60 0e 3d
       0.016372813 -0.019586386 0.0221804 0.03476
000040 d0 73 10 3d d7 b3 27 bd b0 ba a2 bc 1c 76 06 bd
       0.035266697 -0.040942993 -0.01986441 -0.03282748
000050 bf 17 12 3c 7e 97 a8 3c 3c 74 c7 bc e9 e5 50 3c
       0.008916794 0.02058005 -0.024347417 0.012750127
000060 cb 90 01 3d 20 2f 3d 3c 43 c3 21 bd a6 df eb bb
       0.031632226 0.01154688 -0.039492857 -0.007198292
000070 c0 38 16 3c 4a 1a 1a 3d 06 17 87 3d dc 43 cf bc
       0.009168804 0.037622727 0.06596188 -0.025300913
000080 f1 02 86 bb 3f 7f 3c 3d 86 83 47 bc 52 9c 56 bc
       -0.004089706 0.04601979 -0.012177354 -0.013098793
000090 90 22 02 bd 2c 81 37 bc c5 33 a3 3c 2c d0 7f bc
       -0.031771243 -0.011200231 0.019922147 -0.015613597
0000a0 f4 74 10 3d 29 51 b7 3c 98 b2 1c 3d 8f d4 0d bc
       0.035267785 0.022377567 0.038256258 -0.008656635
0000b0 0d 8a 0b 3d bd 66 5c 3a 85 1a 50 3b 21 d3 a6 3c
       0.034067202 0.0008407643 0.0031754088 0.020364346
0000c0 84 44 15 bc 3c de bf 3c 8b 72 06 3d d9 c0 dc bb
       -0.009110574 0.0234214 0.03282408 -0.0067368564
0000d0 df 84 9b bc 28 64 01 bc 9e 3f b0 3c 54 31 3c bd
       -0.018984256 -0.007897414 0.02151471 -0.04594548
0000e0 49 1a 0b 3d d4 3b 0e 3d 3d f8 3d bd 71 aa 10 3d
       0.033960614 0.034725025 -0.046379317 0.035318796
0000f0 8b 32 ee 3c a8 73 ff bc b2 8f 45 bb 77 81 02 bc
       0.029076835 -0.031183079 -0.0030145464 -0.007965437
000100 fb 64 54 bc 2e fa 31 bd 55 2f 65 3c 4a ca a4 bc
       -0.012963529 -0.04345148 0.013988336 -0.02011599
000110 bf 0e d5 3c 33 1b 31 bd c7 f3 1e ba d8 21 d1 bc
       0.026008008 -0.04323883 -0.00060635473 -0.025528833
000120 b4 8c 0f 3c 75 07 23 3d f9 f7 eb bc b1 a4 10 bd
       0.008761574 0.039802033 -0.028804766 -0.035313312
000130 77 61 05 bd 6a 48 39 3d b2 66 dc 3c ac 3e c0 bc
       -0.032563653 0.045235075 0.026904438 -0.023467384
000140 81 a5 31 3d 3c a1 1a bd de 07 23 bc 12 85 80 3d
       0.043370727 -0.03775142 -0.009950606 0.06275381
000150 00 82 85 bc 68 88 04 3d 1a 5a 0e 3d 2a c8 80 3a
       -0.01629734 0.03235665 0.034753896 0.0009825279
000160 c6 9f 8c 3a 6f 41 9a bc 0f e8 aa bb bf f5 50 3d
       0.0010728769 -0.01883003 -0.005215652 0.05101561
000170 2a 53 94 bb cb af d9 3c ea 0a 6e bb 9a 02 05 bd
       -0.0045265155 0.026573082 -0.0036322423 -0.032473184
000180 bb f1 90 bc e6 ce 18 bd 55 0a dc 3a e0 51 12 bd
       -0.017693391 -0.03730669 0.0016787747 -0.035722613
000190 6e 89 b0 bc c6 45 9d bc c2 d0 94 bc 2c 8f 32 bd
       -0.021549907 -0.01919831 -0.01816595 -0.04359357
0001a0 63 05 64 bc 89 b4 01 3d 34 b8 1a bc db 38 20 bc
       -0.0139173 0.031666312 -0.0094433315 -0.00977918
0001b0 3b 2a 07 3d 93 7c 41 3b 57 33 6e 3b 6d b5 f7 3b
       0.03299926 0.0029523715 0.003634652 0.0075594694
0001c0 cd 90 b0 bb 7d fd 12 bd 62 1a dc bc 10 5d e0 3b
       -0.0053883553 -0.035886277 -0.026868049 0.0068470314
0001d0 0f 3b 0d bd cf 83 43 bd e7 ad 54 3c 83 91 f7 bc
       -0.03448015 -0.047733124 0.012980915 -0.030220753
0001e0 62 04 60 3b fc 13 ec 3c 23 d8 01 ba b8 99 0d bd
       0.00341823 0.028818123 -0.00049531664 -0.034570426
0001f0 86 9a 0e bd 64 26 8b 3c 0e 54 81 bc 9d 03 00 bc
       -0.034815334 0.01698608 -0.01578715 -0.0078133615

deconv1.weight f4 [128, 64, 3, 3]
000000 7e a3 88 bd bc c3 46 bc 42 84 83 bd f2 73 62 bd
       -0.06671809 -0.012131628 -0.064217106 -0.055286355
000010 bd 1d bb 3c b7 56 50 bd 69 45 01 bd 4d 34 09 bd
       0.022841329 -0.050863948 -0.031560335 -0.033497144
000020 56 21 d6 bc 1d b0 66 3c f3 63 56 ba 23 b9 6b 3d
       -0.026138943 0.014080075 -0.0008178346 0.057549607
000030 f7 4f 44 3c aa 97 b1 3b 71 31 ff 3c d4 bd c2 3b
       0.011981956 0.005419691 0.031151505 0.0059430394
000040 23 7b e2 bc ee 7d 86 bc de 65 5a bc 66 eb 58 bd
       -0.027646607 -0.01641747 -0.013329951 -0.05295887
000050 07 00 a4 3c d9 f6 fe 3b 43 b5 af bc f7 6c 66 bc
       0.020019544 0.0077808914 -0.021448737 -0.014064065
000060 90 55 10 3d 3a 6d ba bc 2c 5a 9a 3c c7 42 bc 3c
       0.03523785 -0.022757161 0.018841825 0.02298106
000070 c3 10 04 3c 66 75 d8 bc cf b7 b7 3c 7a ac 0a b9
       0.008060637 -0.026423167 0.022426514 -0.00013224958
000080 7e e2 44 bd 53 89 1e bd 0b 26 50 bc 1d 4c af bc
       -0.048067562 -0.03870518 -0.012704383 -0.021398598
000090 59 f3 89 ba 2a 5d 50 3c 36 57 1e bd 95 f9 10 bd
       -0.0010524794 0.012717525 -0.03865739 -0.03539427
0000a0 28 bb 24 3d b5 22 91 3c 4c d0 09 3c e2 06 ec 3c
       0.04021755 0.017716745 0.008411478 0.028811876
0000b0 03 63 41 3d 84 d9 93 39 3d 28 2a bd c1 fa 63 bd
       0.047213566 0.00028200087 -0.04154228 -0.05565906
0000c0 cd e7 3d 3c 2a 38 15 bd c6 93 50 bd c5 ce 83 3b
       0.01159091 -0.036430515 -0.050922178 0.0040224516
0000d0 85 91 04 3a 53 37 a1 bb dc 68 3e bd 52 c3 b0 bd
       0.00050570845 -0.0049199252 -0.04648672 -0.086310044
0000e0 72 3d d7 bd 6e 95 b2 bd 95 ac 2f bd d1 14 a3 bd
       -0.10509767 -0.08719908 -0.042889196 -0.07962955
0000f0 8b 3b c7 bd ed 98 20 bc 4c 01 d9 bd de 91 00 3d
       -0.09728154 -0.009802085 -0.105959505 0.03138911
000100 d3 3a 04 3d 89 a8 80 3d 68 ca 48 3c f4 6c 1a 3d
       0.03228266 0.062821455 0.012255289 0.037701562
000110 13 d9 75 3d 36 50 70 3d f7 d1 c3 3c d7 94 a5 3b
       0.06002147 0.058670245 0.02390383 0.0050531435
000120 7a 9c e0 3c 4c d7 a0 3b 29 1b 59 bc 1b 6e 0f bd
       0.027418364 0.004908478 -0.013251104 -0.035017114
000130 6b 8e bb 3c 87 9e 88 3c 5c e7 5f bd 2f c7 43 3c
       0.022895059 0.016677154 -0.054664 0.011949345
000140 31 5e 68 bd 38 39 5b bd ef 01 1b 3d af 7c 32 3d
       -0.056730453 -0.053521365 0.03784364 0.04357594
000150 da 94 04 bd 86 37 97 3c a9 7f e6 3c 9a 17 57 bd
       -0.03236852 0.018459093 0.028137045 -0.052512743
000160 83 d2 e3 bb fb 16 da 3c c9 5f 70 bd df b2 1b bd
       -0.006952585 0.026622286 -0.058685098 -0.03801238
000170 b7 08 2e bd 18 b4 8f bd 7d 48 8d bb fb 32 26 bc
       -0.04248878 -0.07016772 -0.00431162 -0.010143991
000180 e0 29 6c bd 9e 77 a8 bc 65 e3 02 bd af ad 93 bd
       -0.057657123 -0.02056485 -0.03195514 -0.07210862
000190 72 26 9f bb 87 f9 16 bd a0 55 85 bd 69 32 85 bc
       -0.004856878 -0.03685906 -0.06510472 -0.016259389
0001a0 ec 88 7f bd 37 07 34 3b 89 b4 7a 3c 03 f9 60 bd
       -0.06238644 0.002747012 0.015301832 -0.054924976
0001b0 31 12 36 3d 3e 0a 39 bc eb dc 0f 3c fc 2d 8a bc
       0.044450942 -0.011293946 0.008780698 -0.01686763
0001c0 e6 0a ea 3c 96 65 73 3b a1 8d 99 3c d7 7b 43 3d
       0.02856965 0.0037139407 0.018744292 0.047725525
0001d0 fc 9a 3e 3d 1c 0a 09 3c 35 76 c2 bc c1 e1 f8 bc
       0.046534523 0.008364227 -0.023738006 -0.030381085
0001e0 78 99 1a 3d 1d b1 ba 3c 73 c3 43 bd 44 df a2 bc
       0.037744015 0.022789532 -0.047793817 -0.019881852
0001f0 b9 af 1e bd 58 8c 36 3c 88 58 ac 3c c2 fe 3e bd
       -0.0387418 0.011141859 0.021038309 -0.046629675
000200 7f ac 06 3c 74 3f e5 3c 6f 8b 45 3b 69 53 28 bc
       0.008219837 0.027984358 0.0030142923 -0.010273793
000210 e9 33 bd bc 18 9e 27 3d da 03 19 bd 0e 77 fe 3c
       -0.023096042 0.040922254 -0.03735719 0.03106263
000220 ef 01 3a bd cc 14 e3 3c aa 52 94 bc b9 09 5a bd
       -0.045412 0.027719878 -0.018105824 -0.05323193
000230 e4 15 e7 3c 68 4d dc 3b 06 4e 1f 3c 7b b3 65 bd
       0.02820868 0.0067230947 0.009723192 -0.05607937
000240 cc 1d 75 3d a2 a0 2c 3d 43 99 1d 3d 45 47 dd bb
       0.05984287 0.04214538 0.03847624 -0.0067528808
000250 e8 18 4b bc d1 fa 19 bd ca d8 93 bb 8f 31 99 3b
       -0.012396075 -0.037592713 -0.0045119273 0.0046750973
000260 bf 13 43 bd 8e d6 3f 3c d7 97 17 bd 45 8b 19 bd
       -0.047626253 0.011708869 -0.03701004 -0.037486333
000270 47 af 46 bb 4b a0 15 bd 59 94 de 3c 3f 63 07 bd
       -0.0030316876 -0.03652982 0.027170347 -0.033053633
000280 71 77 f4 bc de 53 85 bc 22 d6 5a bc 15 03 29 bd
       -0.02984211 -0.016275343 -0.013356717 -0.041262705
000290 f5 ae 09 bd 52 e8 60 3c b6 83 02 3d 8e b7 00 3b
       -0.033614118 0.0137272645 0.03186389 0.0019640657
0002a0 97 58 2f 3d 30 d4 81 3c 3d b3 c2 3c 89 75 7a bc
       0.042809095 0.01584825 0.023767108 -0.015286812
0002b0 77 a1 af ba 72 77 4e 3c ef 69 d8 bc df 0b 51 3c
       -0.0013399561 0.01260172 -0.0264177 0.012759178
0002c0 97 2b 1f bc 5f b3 0f bd a8 6d 37 bc 63 76 1e bd
       -0.0097149825 -0.03508317 -0.011195578 -0.03868712
0002d0 41 48 29 3d 5d b6 a6 3b 62 28 ee bc f4 93 2a 3c
       0.041328672 0.0050876574 -0.02907199 0.010411251
0002e0 65 fc 18 bd 4d b6 cd bb 28 66 79 3c ce 1e aa bc
       -0.037350077 -0.0062778355 0.01522211 -0.020766642
0002f0 10 0e 3f bd cd d0 27 bc 5b 7d 9b bc 61 76 db bc
       -0.04664427 -0.010242653 -0.018980673 -0.026789846
000300 99 4f 13 3a f1 c4 ca bb 20 cc 2b bb d9 23 4f 3d
       0.0005619466 -0.006188028 -0.0026214197 0.050571296
000310 d3 ae 1e bd 89 c6 02 bd fc 55 af bc 2c 9f 65 bd
       -0.038740944 -0.03192762 -0.021403305 -0.05606
000320 7e e4 56 bd 2c 7d 4c bd c1 19 fb bc 3a c0 0e bd
       -0.052464 -0.04992406 -0.030651929 -0.03485129
000330 40 e2 51 bd 02 c6 0b 3d 75 db 15 bd 75 a9 a1 3c
       -0.05124116 0.03412438 -0.036586244 0.019734124
000340 04 67 98 3c 74 cb ea 3c 29 e9 c6 bb 14 1c df bc
       0.01860381 0.028661467 -0.0060702753 -0.027235068
000350 dc 51 c9 3c 14 84 4e 3c 04 5a 00 bd ad b0 b6 bc
       0.024575166 0.012604732 -0.031335846 -0.022301042
000360 98 f0 72 3d 04 42 4a 3d 98 36 b6 bc 94 c4 88 bb
       0.05931148 0.049379364 -0.02224283 -0.0041738246
000370 ef 03 71 3c ae 51 1d 3d e8 9e fd 3b f0 94 c4 3c
       0.0147104105 0.038407974 0.0077398904 0.0239968
000380 d6 22 33 bc d2 4a 61 3c 74 7a b7 3c bb b8 b4 3b
       -0.0109335985 0.013750749 0.022397257 0.0055151857
000390 47 68 01 3d ad ee 6c bc 28 3e 49 3d d5 1a bd bc
       0.031593587 -0.014461202 0.049131542 -0.023084084
0003a0 5d 70 4d 3b 2d cc 68 bc 6e 10 74 3d ab 1a 07 bc
       0.0031347491 -0.014208836 0.05958598 -0.008246104
0003b0 ba a2 3e 3d 46 66 47 3d 3a 0a fb bc 17 c8 ad bc
       0.046541907 0.04868152 -0.030644525 -0.021213574
0003c0 56 83 06 3d 0a 0e 07 bd a9 00 84 bc d1 1f fd bc
       0.032840095 -0.032972373 -0.016113596 -0.03089896
0003d0 ce 7f f7 bc d2 d9 2b bc 96 77 65 bd 18 11 44 bc
       -0.03021231 -0.010488944 -0.05602225 -0.011966966
0003e0 0b af 62 bc 51 74 37 bb 59 aa 41 3c b8 a9 38 bc
       -0.013835679 -0.0027992914 0.011820399 -0.011270933
0003f0 9c 68 b9 bc 31 7c dc 3c 7f ed 32 bb ba 3e 6e bd
       -0.02263289 0.026914688 -0.0027302203 -0.05816529

deconv1.bias f4 [64]
000000 37 65 d3 bb 3c 7a 69 bd 24 4b 26 3d 32 58 8b 3c
       -0.0064512747 -0.057001337 0.040599003 0.017009828
000010 a6 73 2c 3d 6b 98 84 3c 9e c4 0e 3d c4 c1 0a 3d
       0.04210248 0.01618596 0.034855478 0.033876196
000020 51 41 14 bc bd 8a a3 3d c1 1f 68 3c e3 5a 5c 3d
       -0.009048776 0.079854466 0.014167727 0.053797614
000030 b5 ad 6f 3d 27 6b 91 3d 4a d4 60 3d c1 b6 dd 39
       0.05851527 0.07100516 0.054889955 0.00042288567
000040 0a ba 61 3d 2f c5 c8 3b 60 22 94 bc 6a 97 32 bd
       0.05510906 0.0061270217 -0.018082798 -0.04360143
000050 22 0a 52 3c 90 37 3c 3c 55 68 33 3d 90 2f 9f 3d
       0.012819799 0.0114878565 0.04380067 0.07772744
000060 ac e5 19 bd 10 2d 0b 3d 2f 8d 7b bb 44 21 57 3d
       -0.037572548 0.03397852 -0.0038383713 0.05252196
000070 f1 e0 87 3d ea f4 5a 39 a0 10 67 3b 23 fb 96 3d
       0.06634701 0.00020881338 0.0035257712 0.07372119
000080 de c8 4f 3d 82 35 4c 3d c0 67 bd 3c d0 ce 22 3d
       0.05072867 0.049855717 0.02312076 0.039748013
000090 cb bb 1a bd 2f 60 29 3d 89 e3 b5 3c 7b d0 5a 3d
       -0.03777675 0.041351493 0.022203224 0.05342148
0000a0 35 87 3c 3d 74 6e 66 3d 69 4d 94 bc 61 7b c2 bc
       0.04602738 0.05625768 -0.018103318 -0.023740472
0000b0 bc 30 4d 3d 59 70 54 3b a9 59 2c 3c f0 69 56 ba
       0.050095305 0.0032415597 0.0105194235 -0.0008179238
0000c0 6b 55 63 3a f6 23 03 bd 71 02 9b 3d 05 9f 69 3d
       0.0008672091 -0.032016717 0.07568825 0.05703642
0000d0 3b 91 1c bc f9 0e 7a 3d 4f 22 ba 3c cc e5 b3 3c
       -0.00955611 0.061049435 0.022721438 0.021960162
0000e0 28 72 7b 3c c8 a6 f7 3c d0 2d 7f 3d e3 f6 1f bd
       0.015347041 0.030230895 0.06229955 -0.03905381
0000f0 74 c0 10 bd a2 e2 07 bb 27 8d cb 3c 2a c6 7e 3d
       -0.035339788 -0.002073445 0.02484758 0.062200703

deconv2.weight f4 [64, 64, 3, 3]
000000 fd b9 23 3d bf 68 f3 bc 42 77 fb ba 24 c3 f4 3c
       0.039972294 -0.029713033 -0.0019185322 0.029878207
000010 f4 5c d5 3c 73 d8 a8 3c 58 2a f3 bc 70 26 24 bc
       0.0260453 0.020611024 -0.029683277 -0.01001893
000020 c0 91 44 3c e9 18 0e 3b a4 0f 1e bd f2 ba 41 bb
       0.01199764 0.0021682328 -0.038589135 -0.002956089
000030 94 76 0a bd b9 af 4d bd a8 dd 28 bd 99 5c ef bc
       -0.03380449 -0.05021641 -0.041227013 -0.029218959
000040 ff 01 30 3c a5 d8 6b bc c0 3b 1a 3d 6e be 17 3d
       0.010742663 -0.014394914 0.03765464 0.037046842
000050 2e 6f 23 3d 28 00 ae 3c 9d ea b9 bc c7 25 82 3b
       0.03990095 0.021240309 -0.02269488 0.0039717886
000060 d2 14 24 3d d9 8e c2 3c e0 a6 eb bc a3 e0 04 bc
       0.04005892 0.023749756 -0.028766096 -0.008110198
000070 e7 dd 53 bc 47 2e 49 3d 65 02 31 3d b0 66 41 3b
       -0.012931324 0.0491164 0.043215174 0.002951067
000080 5d 8c 2d 3d dd 0c 5c 3d fd f4 7b bc 0c 84 a7 ba
       0.04237019 0.053723205 -0.015378234 -0.0012780442
000090 3e 5f c6 bc b0 7e 3b 3d 87 71 e4 ba 81 0a e3 ba
       -0.024215337 0.045775115 -0.0017428853 -0.0017321856
0000a0 18 22 43 3d 00 9c 0d 3d f4 d9 ef 3b 06 67 3d 3d
       0.047639936 0.0345726 0.007319683 0.04624083
0000b0 10 72 28 3d 1b bf 45 3d f9 d3 44 3d 97 59 bb 3c
       0.041124403 0.048277956 0.048053715 0.022869868
0000c0 74 17 9d 3b ed 1e 0a 3d 6f 04 ec bb b9 fe 18 3d
       0.0047940556 0.0337209 -0.007202677 0.037352297
0000d0 69 32 1b 3d 49 6c 3c 3d de 4c 3e bc 96 0b 60 3c
       0.03788987 0.046001706 -0.011615006 0.013674637
0000e0 73 10 10 3b e1 54 0d 3d 41 42 42 bc e1 a4 7a 3c
       0.002198246 0.034504775 -0.0118566165 0.015298099
0000f0 c1 11 e3 3b d8 11 50 3c 05 2c 3f 3c fc 1f b5 bc
       0.0069296067 0.012699567 0.01166821 -0.022109978
000100 e5 06 fb bc da dc fd bc c9 be 2b bc ab 95 8c 3c
       -0.030642936 -0.0309891 -0.010482498 0.017161211
000110 4d 63 e8 3c 8e 85 7a bc 5a c8 bd 3c b3 d4 ee 3c
       0.028367663 -0.015290631 0.023166824 0.029154157
000120 cd 75 9e 3c 49 41 44 3d c0 0d 03 3d 16 fb f6 bc
       0.019343281 0.047913823 0.031995535 -0.030149024
000130 45 fe 1b bd 40 f0 30 3d d3 1f a4 3b a3 b8 c0 3c
       -0.038084287 0.04319787 0.0050086766 0.023525542
000140 42 7c 03 bc 5c 67 b3 bc 7d 4a 9c bc 55 e0 58 3c
       -0.008025231 -0.021899872 -0.019078488 0.013237079
000150 f1 9c 25 bc d5 3f 91 3c 29 50 ef bc 9d 54 a5 bc
       -0.0101082185 0.017730633 -0.029213028 -0.020181948
000160 e0 90 93 3c f8 28 96 3c 7a 32 f3 3a 67 8d 1c bd
       0.018013418 0.018330082 0.0018554472 -0.03822079
000170 ca 3e d0 3c 28 ce 2c 3d fb 86 c4 bc cf ce 2b 3d
       0.025420565 0.042188793 -0.023990145 0.041945275
000180 e5 45 98 3c 23 10 cf 3c e5 2d d0 3c c4 fd a1 bc
       0.018588016 0.02527625 0.02541251 -0.019774325
000190 c9 47 69 3c 13 2a 00 bc d4 0e d5 3c 8d 0b 47 3c
       0.014238306 -0.007822531 0.026008047 0.01214875
0001a0 de b7 32 3d 53 c7 84 bc cd a8 52 3d 83 81 0f 3d
       0.04363238 -0.016208326 0.051430512 0.03503562
0001b0 e4 41 17 3d d9 9e 02 3d ae 17 f5 3c 18 ca 2b 3a
       0.036928073 0.03188977 0.029918518 0.00065532466
0001c0 19 88 a2 bc 81 59 f4 bc 7b 4c 45 3c f2 58 cf bb
       -0.019840287 -0.029827835 0.01204216 -0.006327742
0001d0 3f b3 ad bc be 90 61 bc cc 6e fe 3c 81 1c f7 3b
       -0.021203635 -0.013767419 0.031058691 0.0075412397
0001e0 bc 5e 3d 3b 8d 26 f8 bc 67 0b 3c 3d 15 14 af bc
       0.0028895577 -0.03029182 0.04590931 -0.02137188
0001f0 b5 3e f9 3b f1 31 f4 bc 34 70 29 bd eb fe 18 bd
       0.007606352 -0.02980897 -0.04136677 -0.037352484
000200 7b 65 f0 3c 13 07 12 bd 31 9c 40 bc c2 a3 4e bb
       0.029345265 -0.035651278 -0.011755989 -0.0031530713
000210 9c 13 bd 3b d9 40 99 3c 03 97 f0 3c 8d 81 a4 bb
       0.00577016 0.01870768 0.029368883 -0.0050203265
000220 83 58 80 bc 2b 9b 54 ba de ac 5e 3c 0d ee 6b 3c
       -0.015667206 -0.000811028 0.013591019 0.014400017
000230 08 f8 ed bc 23 ce 61 bb 4a 08 17 3c c4 77 e7 bc
       -0.029048935 -0.0034455142 0.009218285 -0.02825535
000240 85 50 04 bc 49 16 08 3b 2e 7d d2 bc cb ec 24 3d
       -0.008075838 0.0020765236 -0.025694456 0.040264886
000250 6c 5f d2 bc 39 1a e1 3c ed c7 f6 3c 4f 42 d7 3c
       -0.025680266 0.027478324 0.030124629 0.026276736
000260 c8 06 02 3d f2 db 89 bb 79 e2 fb bc 4c 0a 02 bd
       0.03174475 -0.0042071277 -0.030747639 -0.0317481
000270 6f 18 fb 3c 67 d2 a8 bc 1a 84 a6 3c aa 86 1c 3c
       0.0306513 -0.02060814 0.020326663 0.009553591
000280 25 5c 85 3c 05 72 87 3c 41 f0 1b 3d 8a a2 16 bd
       0.01627929 0.016533861 0.03807092 -0.036776103
000290 fb 0d 98 3b 39 11 a9 3c d2 da fd 3c cf 1a 1c bd
       0.0046403385 0.020638095 0.03098813 -0.038111504
0002a0 91 c0 d2 bc 4d 2f fc 3c 2e d8 d0 bc d5 d8 3f 3c
       -0.025726588 0.030784274 -0.025493708 0.011709412
0002b0 b6 e9 40 3d 21 c4 1f 3d d6 a4 f4 3c 64 b7 4d 3d
       0.047097884 0.039005402 0.029863756 0.050223723
0002c0 b7 27 d7 3b f5 4b 9f 3c a1 bf 01 3d 3d dd 70 3d
       0.0065660137 0.019445399 0.031676892 0.05880474
0002d0 31 45 54 3d dd 4c c6 3c 7e ae 04 3d 64 e0 47 3d
       0.0518238 0.024206573 0.03239297 0.04879798
0002e0 dc 4b c9 3c 8a 32 9f bc 20 42 b6 bc f0 aa 2a bc
       0.024572305 -0.019433279 -0.022248328 -0.010416731
0002f0 d0 e2 b4 3b 2e 14 ae bc 49 2b b9 3c df f1 3e 3c
       0.005520202 -0.021249857 0.022603648 0.011654346
000300 ca 07 8d bc 06 3a f4 3b 48 24 66 3b 44 1c 3b 3d
       -0.017215628 0.007453206 0.003511684 0.045681253
000310 b7 aa c3 3c 71 d5 73 bc 3d 13 35 3b 47 e6 31 bb
       0.023885114 -0.014882431 0.0027629875 -0.0027145313
000320 a4 84 45 bc 7d 92 48 3d c3 f8 d6 3c 06 57 a4 3c
       -0.01205555 0.048967827 0.026241666 0.020061027
000330 cd aa a3 3c 70 8d 9c bc 69 55 94 3c 63 9f 20 bd
       0.019978905 -0.019110411 0.018107133 -0.039214503
000340 e5 b0 3e 3c e6 fe 8e bb e0 16 e8 bc 21 2e c0 bc
       0.011638855 -0.0043638824 -0.02833122 -0.023459496
000350 2b a7 36 3d 0d 1d b6 3c b2 20 3c b9 b7 18 d3 bc
       0.044593018 0.02223065 -0.00017941257 -0.02576862
000360 0b e8 69 3c 80 c3 b9 bc 41 7e 12 bc 80 bb 1e bd
       0.014276515 -0.02267623 -0.008941234 -0.038753033
000370 d5 20 19 bd 78 6f f9 bc 81 1b 35 3c 8f ca da 3c
       -0.037384827 -0.03044866 0.011053921 0.026707916
000380 bf ff 36 bc c6 25 36 3c 3f 34 a7 bc 72 c2 18 3d
       -0.011169373 0.011117404 -0.020410655 0.037294813
000390 37 a4 45 3c 93 db 07 3d bb 38 93 bc 67 8f f6 bc
       0.012063078 0.033168387 -0.017971387 -0.030097676
0003a0 fe 10 27 3d 44 79 47 3a 98 b7 aa 3c ca 9a fa bc
       0.04078769 0.00076093175 0.020839497 -0.030591387
0003b0 89 b5 12 bd 0f eb 1d bd ba 40 60 bc ad 13 45 bd
       -0.035817657 -0.038554247 -0.013687307 -0.048114467
0003c0 b9 24 26 bd 07 3f ea 3c 52 57 11 bd 52 d5 d0 3c
       -0.040562365 0.028594507 -0.035483666 0.025492344
0003d0 4c 76 d3 3c 82 d9 ed 3c bd 93 8c 3c 9c 27 67 3c
       0.025813244 0.02903438 0.01716029 0.014108565
0003e0 f7 b7 2d bc d0 15 34 3c 18 01 8c 3c b8 2a 7f bb
       -0.010602943 0.010991529 0.017090365 -0.0038935374
0003f0 80 af be bc 71 4f 28 bc c8 96 d9 bc d4 66 39 bd
       -0.023277044 -0.010272847 -0.026561156 -0.04526408

deconv2.bias f4 [64]
000000 4e 58 63 3c 05 2d 9d bd 73 22 c8 3c 3d c6 59 bd
       0.013876034 -0.076746024 0.02443049 -0.05316757
000010 5d 0f e5 bc 21 06 05 bd b1 f6 6f 3d 94 67 ab 3d
       -0.027961427 -0.032476548 0.058584873 0.08369365
000020 19 e0 92 bd 59 f9 e7 3d 2b 9d b9 bb de f7 8f 3c
       -0.071716495 0.11326856 -0.005664488 0.017574247
000030 7b a6 f0 3c 61 9a 4c bd 49 fc 3b 3d e6 f5 3f 3d
       0.02937626 -0.049951915 0.045894895 0.046865366
000040 a6 d5 28 bd e5 44 c2 bd a9 ba c3 3c f7 95 a3 bb
       -0.041219376 -0.09485797 0.023892717 -0.0049922424
000050 79 69 bd 3d e5 61 6f bc 01 f2 ef bd 72 4d 9d 3c
       0.09248633 -0.014610742 -0.117160805 0.019201968
000060 66 94 61 3d 57 0d 2d 3d c9 a4 4d 3d 23 cf 6d bc
       0.055073164 0.04224905 0.05020598 -0.014514717
000070 87 16 9f 3d ff b5 02 be 58 e8 d1 3d 08 ab 8f bd
       0.077679686 -0.12764739 0.10249394 -0.070150435
000080 4c 06 c9 bc 71 0c 09 bd 9b c0 87 3d 1f b3 08 bd
       -0.024539135 -0.03345913 0.066285335 -0.03337395
000090 e7 84 8b 3c ef c5 cf bd ac 05 0a bd ff d5 d1 3b
       0.017031146 -0.10145175 -0.033696815 0.006403684
0000a0 99 dc 7f 3d 5f 9e e6 bd e1 03 1b bd b4 40 06 3e
       0.062466238 -0.11260676 -0.037845496 0.1311062
0000b0 1f 25 87 bd 0e ca 95 3d bc a7 3a 3d 97 0d d7 bd
       -0.06598877 0.073139295 0.04557012 -0.10500639
0000c0 4e bb fe bd 5a 75 8f 3d 80 27 d5 bd 77 ec b1 3d
       -0.12438069 0.07004805 -0.10407925 0.0868768
0000d0 d3 c7 be bd 1e 81 a5 bd 3e b3 d1 3d ab c3 ac 3d
       -0.09315457 -0.08081268 0.10239266 0.08435758
0000e0 ef 0f e8 bc 39 99 a3 bd ba 92 b5 ba cf a9 34 3d
       -0.02832791 -0.07988209 -0.0013852932 0.044107255
0000f0 87 f8 51 3d 58 dd 12 bc 1b 33 43 3d f5 96 b6 3c
       0.051262405 -0.008963905 0.04765616 0.022288779
