contrastive_save_archive/contrastive_weights_epoch_18.pt (torch, 749116 bytes, 8 tensors)

conv1.weight f4 [64, 3, 3, 3]
000000 44 31 19 3e bb 11 e2 3d ba 8e 2d 3e 0c 2c 1c 3c
       0.149602 0.11038538 0.16948977 0.009531986
000010 16 68 d8 bd c2 cf ae 3c f2 ca 2e 3e 2b a1 db bd
       -0.10566728 0.021339301 0.17069605 -0.107241
000020 b5 bc 3e be 41 ac d6 3d c9 66 0d be 11 96 ca bd
       -0.18626674 0.104820736 -0.1380874 -0.09891904
000030 f3 1d e4 bc 71 90 18 3e bd 5c 36 be d7 5b d4 3c
       -0.027846312 0.1489885 -0.17808814 0.025922699
000040 41 e9 c9 bb 28 12 1d be dd f3 0c bc 7a 26 2e 3e
       -0.0061618392 -0.15338957 -0.008603063 0.17006865
000050 e3 ea 15 3c 89 22 b5 3d 2f e1 68 bd cb 16 09 bd
       0.00915024 0.08844478 -0.056855377 -0.033469003
000060 7c 7d db 3d eb fa be 3d 5e 87 16 be a2 76 8e bd
       0.107172936 0.093252026 -0.14700076 -0.06956221
000070 06 db 83 3c 5c b5 98 3d 10 92 37 3d 09 f4 bb 3d
       0.01609565 0.074564666 0.04481703 0.091774054
000080 3b a7 01 3e 94 78 03 3e 54 41 ce bd 4a c8 17 3e
       0.1266145 0.12838966 -0.10071054 0.14822498
000090 99 a4 bc bc 26 19 91 bd fa 86 37 be e6 6f 4d 3d
       -0.023027705 -0.07084875 -0.17922583 0.050155543
0000a0 44 e2 71 bd c7 ed 2c be b3 fc 11 3e 07 e7 de bb
       -0.059053674 -0.1688758 0.14256553 -0.006802443
0000b0 95 03 43 be 4b dd 40 3d 32 89 14 bc 77 7d e6 3d
       -0.19044335 0.04708604 -0.009065913 0.11254399
0000c0 60 af 18 be e6 05 11 3e 1e f7 0b 3e b5 ff d6 bd
       -0.1491065 0.14162406 0.13668486 -0.10497991
0000d0 c3 12 3f 3e 5c b6 1f be cb 1a 22 3e 37 14 68 3b
       0.18659501 -0.15596908 0.15830533 0.003541244
0000e0 b7 76 46 be c3 4a 02 3d 9e 6b 03 3e 58 50 fe bd
       -0.19381224 0.03180958 0.12834021 -0.12417668
0000f0 a1 5c f5 3d 7a ab db 3d 22 6b 35 be 86 28 0c be
       0.11980558 0.10726066 -0.17716649 -0.13687333
000100 40 0a 03 be 88 e7 04 be d7 02 10 3e ab c9 2a 3e
       -0.12796879 -0.12978947 0.14063583 0.16678493
000110 aa 5b cb bd 2f 4b 19 3c e3 f3 e5 3d 6e c0 f7 3d
       -0.09929593 0.009356304 0.11228158 0.1209725
000120 7e 78 db bd fa 61 c9 bd 8c d5 4a bd d8 87 76 bb
       -0.107163414 -0.09833141 -0.04952006 -0.003761759
000130 22 7b 9e 3d 8b 02 72 3c d0 fb b9 bd ac 75 52 3e
       0.077383295 0.014771114 -0.090812325 0.20552701
000140 27 a2 da bc 6e b9 2f be 65 66 1b be c1 de 1b be
       -0.026688648 -0.1716058 -0.15175779 -0.15221693
000150 aa 71 30 3e 32 bf 96 3d d9 70 44 3d 66 f1 f9 3c
       0.1723086 0.07360686 0.047959182 0.030510616
000160 0f f3 3c 3e c4 72 8f bd fc d6 00 be 7b 0a 45 be
       0.18452094 -0.07004312 -0.1258201 -0.19242279
000170 2f f3 0e bd e5 fe 24 3e be 5f 34 bd 13 b8 f0 3d
       -0.034899887 0.1611286 -0.04403662 0.11753859
000180 05 0c d0 3d 94 c0 24 be 22 f0 46 3e dc 5e 22 be
       0.101585425 -0.16089088 0.19427541 -0.15856498
000190 1d 7c 7b 3d 2c 72 e5 bd 85 08 bd 3c 02 32 31 3e
       0.06139766 -0.11203417 0.023075351 0.17304233
0001a0 80 79 29 3d 7f 15 1a 3e b5 4d 19 be 6c 96 e4 bc
       0.041375637 0.15047263 -0.14971049 -0.027903758
0001b0 fc 9e 4a be 90 f9 b3 3d d0 00 5d be 7a 10 30 be
       -0.1978721 0.08787835 -0.21582341 -0.17193785
0001c0 5d 53 3e be 78 9b 0a 3d c1 87 d3 bd de 02 cd bb
       -0.18586488 0.033839673 -0.103286274 -0.0062564453
0001d0 29 85 45 be 37 98 2b be d7 f7 26 3e 62 8f bd 3d
       -0.19289078 -0.16757284 0.16305481 0.09255864
0001e0 18 7d 6a bc 4d 5f c9 bc fc ef 2f be b0 9e 40 3a
       -0.014312051 -0.024581576 -0.1718139 0.0007347865
0001f0 cb 28 18 3b a6 07 bd 3d 49 4f 59 be 72 fa 52 be
       0.0023217674 0.092299744 -0.21221651 -0.2060335
000200 32 b7 da bd b6 32 ff 3c a2 cd 9f 3c 4a 5d 3d be
       -0.10679473 0.03115211 0.019507233 -0.18492618
000210 3e ec 49 bd a9 eb 23 bb 0f 31 f1 3d 22 f8 0b bd
       -0.049297564 -0.002501229 0.11776935 -0.034172185
000220 82 e7 85 3d a9 bf 2b 3e 7e e7 c5 3c 38 04 d6 bd
       0.06538297 0.16772331 0.024158236 -0.104500234
000230 e2 58 fc 3d ed 89 28 be 84 98 1c 3e a3 5c 07 3d
       0.123216406 -0.16458865 0.15292555 0.03304733
000240 f6 e6 ca bd 9d 13 35 bd 4a cf ab 3d b0 c3 6c 38
       -0.099073336 -0.044208158 0.083891466 5.6449033e-05
000250 b8 41 be bc 37 73 45 bd c8 29 1c 3e 00 7d 14 3e
       -0.023224697 -0.04820558 0.15250313 0.14500809
000260 86 ef 13 3e 7f 5f 19 be e9 7a 15 be 5f ec 10 3d
       0.1444684 -0.14977835 -0.14597668 0.03538167
000270 ee 3b 73 3d 28 43 a9 bd 17 7b 0d 3d 24 71 00 be
       0.059383325 -0.08264762 0.034541216 -0.1254316
000280 73 fa 54 bc 6a 18 5a 3d e9 b6 ae bd 0d 58 35 be
       -0.012999165 0.05324594 -0.08530981 -0.1770937
000290 e9 29 42 be 58 67 3a 3d f6 72 46 3d c3 1e 05 3d
       -0.189613 0.045508713 0.04844948 0.03250004
0002a0 75 ed af 3d 15 27 a8 bd a5 cb 39 bc 10 fd 32 3e
       0.08590213 -0.08210579 -0.011340057 0.17479348
0002b0 71 06 12 3d 53 5d 16 be 75 8f 4e be c8 6f d2 3c
       0.035650674 -0.14684038 -0.20171912 0.025688067
0002c0 ec 25 f3 3d 50 ea 3e be 4d 28 21 3c d9 4e 20 3d
       0.118724674 -0.1864407 0.009836269 0.039137695
0002d0 6c 1f 82 bd af 3b 11 3e 41 d6 40 be a8 3f 26 3e
       -0.063536495 0.14182924 -0.18831731 0.1623522
0002e0 31 90 05 bd 84 03 91 3a 9e 06 c2 3d 04 ad 5e 3c
       -0.032608215 0.001106367 0.094739184 0.013591055
0002f0 52 7c bf 3d a9 56 3c be fd e8 40 3e 11 9b b2 3c
       0.09349884 -0.18392433 0.18838878 0.021802457
000300 16 26 0b bd c7 cd 46 be ea 6d e6 bd 64 0c 2a be
       -0.03397187 -0.19414435 -0.11251433 -0.16606289
000310 59 2b f3 3d ed 6d 43 ba be 0a 00 3e 13 41 2a 3d
       0.11873502 -0.000745504 0.12504098 0.041565966
000320 1e f5 2d 3d 2f cd c1 3d 96 3c 43 3e f4 40 bf 3b
       0.04247009 0.09462964 0.1906608 0.0058366004
000330 1c b5 04 be f4 0b 3e 3e ad 3d 2c 3e 73 de 19 3e
       -0.12959713 0.18559247 0.16820402 0.15026264
000340 67 62 32 be 5a 91 02 be 95 72 f8 3d ba 5d 11 3e
       -0.1742035 -0.1275076 0.1213123 0.1419591
000350 5b 27 29 bd 0c 69 bd 3c 78 39 20 be dc 24 bf bd
       -0.041297298 0.02312138 -0.15646923 -0.09333202
000360 2c 34 fa bd ed 36 97 3d 9f ef 40 3e 4c a6 be 3d
       -0.12216982 0.07383523 0.18841408 0.09309062
000370 34 a9 c0 3d d0 7d e4 bd 26 59 7e bd 30 cf 11 be
       0.09407273 -0.11156809 -0.062096737 -0.14239192
000380 2f 57 43 be b1 c5 0b be 44 47 7a 3d 59 19 83 3d
       -0.19076227 -0.13649632 0.06110312 0.06401319
000390 d8 d9 f9 3d 78 7c a7 bd 3e 56 f2 3d 93 23 06 3e
       0.121997535 -0.081780374 0.11832856 0.13099508
0003a0 52 c6 c8 bc a3 2b 1d 3e 0a 68 d1 bd ad 0c 3a 3d
       -0.024508629 0.15348677 -0.10224922 0.045422245
0003b0 0e 48 16 be 4a d2 90 bd 05 4e 3c 3e ee 09 7b bd
       -0.14675924 -0.070713595 0.18389137 -0.061288767
0003c0 41 99 46 3e b8 e4 c0 bd 38 e8 04 be f0 25 e9 bb
       0.19394399 -0.09418625 -0.1297921 -0.007115118
0003d0 28 ad 90 3d b6 79 ae 3c 05 27 e8 3d 50 91 3f be
       0.07064277 0.02129827 0.113355674 -0.18707776
0003e0 0f 9b db 3c f7 28 27 3d 69 63 13 3e 71 ac dc bd
       0.026807336 0.04081055 0.1439339 -0.10775078
0003f0 09 29 db 3a 7f 76 13 bd 3d fe 48 be ea 17 c7 bb
       0.0016720603 -0.03600168 -0.19628234 -0.006075849

conv1.bias f4 [64]
000000 30 49 d7 bd 47 5a ba bd eb 94 10 bd 9b 31 9c 3a
       -0.10512006 -0.0909925 -0.03529827 0.0011916639
000010 2b 8f 96 3d 40 49 41 be 72 b7 08 3e cc 15 1f be
       0.07351526 -0.18875599 0.13351229 -0.15535659
000020 40 4a c1 bd 0e 91 bd 3d e8 ef a2 bd b1 ea d6 3d
       -0.0943799 0.092561826 -0.07955915 0.104939826
000030 0b 8b c3 3c b7 35 15 3e 22 f8 87 bd a9 a8 fa 3b
       0.023870012 0.14571272 -0.066391245 0.0076495004
000040 53 9a 20 ba 08 a0 47 bd 94 3e 41 be 5b 77 ef 3d
       -0.0006126512 -0.048736602 -0.18871528 0.11692687
000050 26 e1 c0 3d 06 e7 ac bd b0 f5 54 be 25 c6 b7 3d
       0.09417944 -0.08442502 -0.20796847 0.0897334
000060 e6 f1 1f 3e 37 67 72 3d ea 36 09 be 72 b0 93 3d
       0.1561962 0.059180465 -0.13399854 0.07211389
000070 27 14 37 3d f0 35 07 3d 03 34 0b 3e f1 44 4c be
       0.044696953 0.033010423 0.1359406 -0.19948174
000080 0b 1f f3 bc 13 4d 85 bd a2 35 ba 3d cd 55 d7 bd
       -0.029677888 -0.06508841 0.09092261 -0.10514412
000090 c9 47 bf 3d 1d a4 80 3d ba 5a 50 bd ce a0 ec bd
       0.09339864 0.06281302 -0.050867774 -0.115541086
0000a0 25 52 b2 ba 1b ca 50 be be b9 a1 3b bd f8 04 3c
       -0.0013604803 -0.20389597 0.0049354723 0.008115944
0000b0 79 be 72 3c 0b 81 6d 3b ec c6 ba bd 75 94 e5 38
       0.01481592 0.0036240246 -0.091199726 0.00010947223
0000c0 f6 92 fd bc 36 7c 44 3c 73 70 a2 bd 73 c7 93 39
       -0.030953865 0.011992505 -0.07931604 0.00028186626
0000d0 fe ae b2 3d c1 14 76 3d 64 a5 ef 3d 8b 83 6a 3d
       0.08724783 0.060078386 0.11701468 0.057254355
0000e0 32 db 49 bd e7 40 7a 3c fe 10 b7 bd 48 75 9f 3c
       -0.049281307 0.015274263 -0.08938788 0.019465104
0000f0 b0 ad 00 b9 5b 90 01 3e 99 f5 9c 3a 8d c1 a5 bd
       -0.00012271735 0.12652723 0.0011975049 -0.080935575

conv2.weight f4 [128, 64, 3, 3]
000000 32 7c 18 3d ff 14 f7 bc 00 03 8a bc ce 05 8f 3c
       0.037227817 -0.030161379 -0.016847134 0.017458823
000010 3e 69 ec bc f2 c8 38 bd 19 95 f3 3c b4 d6 63 3c
       -0.028858777 -0.04511351 0.029734181 0.01390617
000020 86 21 4a 3b db 69 48 bd d2 d7 54 bd 06 3f 86 bd
       0.0030842735 -0.048929077 -0.051963635 -0.065549895
000030 67 7c 30 bc c0 0c 70 bd 93 e5 07 bd 70 4c db bc
       -0.010771847 -0.05860591 -0.033177923 -0.026769847
000040 98 8b 4b bd 01 42 83 bd 4d 94 0a bd 43 36 88 bd
       -0.049693674 -0.064090736 -0.033832837 -0.066509746
000050 ab 3a ee bd 5c 0b 98 3c cb 59 9f bc 7f db 82 3b
       -0.11632284 0.018560104 -0.019451996 0.003993451
000060 db 87 da 3c 89 64 af bc 92 98 12 bd a5 2b 38 3d
       0.026676109 -0.021410244 -0.035790034 0.044963498
000070 c5 df a5 3c 8d c5 71 3d fd 01 83 3d 79 ed 7d 3d
       0.020248303 0.05902629 0.063968636 0.06199405
000080 00 4e 98 3d f4 98 5f 3d 04 3d 78 3b 8a 4f 8a 3d
       0.07436752 0.054589227 0.0037878165 0.06753452
000090 6b 21 0d 3d d8 64 f7 3b fe 45 13 3c 56 f4 d6 bb
       0.034455698 0.0075498633 0.008988855 -0.006559889
0000a0 31 53 d5 bb ac 40 3e 39 95 aa e3 bc ff 75 dd bc
       -0.0065101613 0.00018143904 -0.0277913 -0.027033804
0000b0 23 ed 44 bd b8 c6 5d bc 78 01 36 bd 7d de 18 bc
       -0.048077714 -0.013536148 -0.044434994 -0.009330389
0000c0 41 ec b3 bc 2b 6a f7 3c fe 5e 45 3c da 86 05 bd
       -0.02196324 0.030201992 0.012046574 -0.032599308
0000d0 dd 9f a9 bc 69 5e 3f bc 39 cf a2 bb 72 16 e4 bc
       -0.020706112 -0.011680224 -0.0049685505 -0.027842734
0000e0 ef 74 2f 3d a4 50 1e 3d c5 5b e9 bc 1b fe 27 3d
       0.042836126 0.038651124 -0.028486142 0.04101382
0000f0 a1 00 0c 3b 8e 9e 99 bc 55 ef fc 3c b4 fb d8 3c
       0.002136268 -0.018752363 0.030875841 0.026487209
000100 22 b2 f9 bb 1e 84 4a bd 9e 09 d5 bb c4 43 82 3c
       -0.007620112 -0.049442403 -0.0065013906 0.015901454
000110 bd 1c 1d bd 51 32 06 bd 20 a3 2f bb 09 8e 1d bd
       -0.038357485 -0.03276283 -0.002680011 -0.038465533
000120 2f cb dc bc 38 c4 b6 bb f2 b4 9e bc 91 bc 8d bc
       -0.026952354 -0.0055775903 -0.01937339 -0.01730183
000130 27 47 57 3a 43 55 87 bd 86 6d fc bc 33 2f 82 bd
       0.00082122016 -0.06608059 -0.030813944 -0.06356659
000140 b4 08 ce 3b c7 69 b2 3c ae 0e 2e bd b2 a0 87 bc
       0.0062876586 0.021778954 -0.04249447 -0.016556118
000150 9d 51 10 bd 5d 02 31 bd d1 24 aa 3b 83 c1 a5 3c
       -0.035234082 -0.043215144 0.005192377 0.020233875
000160 d2 15 27 bd 60 70 1c bd 57 c3 f9 3c f9 5e 16 bd
       -0.040792294 -0.038193107 0.030488653 -0.036711667
000170 25 b0 83 bc f7 c7 33 bd 31 c6 29 bd 99 ec 35 3c
       -0.016075203 -0.043891873 -0.041448776 0.011103773
000180 98 91 0f bb 6b 35 6b bb 75 3d 0f 3b f8 79 12 bd
       -0.002190685 -0.0035889994 0.00218567 -0.03576085
000190 cb b9 4a bd 57 c4 9c bd 01 c8 64 3b cf ee 00 bd
       -0.049493592 -0.07654636 0.003490925 -0.031477746
0001a0 39 87 87 bb 48 e7 d3 bc e4 0b b3 bc 38 93 95 bc
       -0.004135993 -0.02586712 -0.021856256 -0.018258676
0001b0 83 92 d2 3c 2f e8 95 3c c4 66 2e bc 9f 12 ec 3c
       0.025704628 0.01829919 -0.010644618 0.028817473
0001c0 f8 9e 41 3c 90 2b dd bb 85 13 b9 3c c6 1f d5 b9
       0.011817686 -0.006749578 0.022592315 -0.000406502
0001d0 e0 73 b5 3c 1e e1 6d bc c0 a7 7c 3c a5 1a 42 bc
       0.02214998 -0.014519004 0.015420854 -0.011847173
0001e0 b9 ad 79 bb 52 db 1f 3b 22 97 db bc 7c 79 08 bd
       -0.0038097932 0.00243922 -0.026805464 -0.03331898
0001f0 d9 06 58 bd bc a4 5f bc 5c e0 c8 bc 1f 60 b0 3b
       -0.052740905 -0.013650116 -0.024521045 0.0053825523
000200 ac 6a da bc c2 5c 79 3c 29 c2 80 3c ed 3e f4 3c
       -0.026662193 0.015219869 0.015717583 0.029815162
000210 9d e7 3c bd 70 4f d9 3c ce dd a3 bc 4a c3 5d 3d
       -0.04611932 0.026527137 -0.020003226 0.05414132
000220 40 4c bb 3c ed f7 4d 3c 54 74 3b 3c cd 16 5e 3d
       0.022863507 0.012571317 0.011441309 0.054220963
000230 31 83 8c 3c 67 81 d8 3c 7d ef fb bc 6d 70 47 3c
       0.0171524 0.026428891 -0.030753845 0.0121728005
000240 57 86 6a bd 26 2b 64 bd b2 96 ea bd 29 9b bb bd
       -0.057257023 -0.055705212 -0.11454524 -0.09160454
000250 54 d4 90 bd 5c a9 99 bd 36 79 60 bd 9e b3 dc bd
       -0.070717484 -0.07503006 -0.054803096 -0.10776447
000260 fe 6e cd bd df 82 9b bd 13 2b 13 bd f1 31 dd bd
       -0.10030936 -0.07593321 -0.03592975 -0.10800541
000270 1e 51 a6 bd 42 92 b6 bd 6c b1 a5 bd d8 0c a6 bd
       -0.081209406 -0.08914615 -0.08090481 -0.081079185
000280 3f 94 57 bd e5 6c d5 3c 3e 17 28 bd 3d 4f fc bb
       -0.052631613 0.026052902 -0.04103779 -0.0076998756
000290 77 bb 1e bd ae cc da bc 7d bf ed 3c d4 d2 c9 bb
       -0.038753 -0.026708927 0.029021973 -0.006159166
0002a0 89 2d 11 ba cf 29 f6 3c c5 bb 98 bc 73 3f f6 3c
       -0.00055380963 0.030049233 -0.018644223 0.030059552
0002b0 c9 f2 8d 3c d6 78 ec bc c3 68 08 3d 45 c7 2e bd
       0.017327683 -0.028866213 0.033303034 -0.042670507
0002c0 c7 d6 1c bd 6b 35 4e 3c 21 e6 e7 39 80 b8 f6 3a
       -0.038290765 0.012585978 0.00044231213 0.0018823296
0002d0 5c fe f0 bc 68 9e 77 3b c3 ec f5 bc 19 13 69 bb
       -0.029418163 0.0037783626 -0.030020123 -0.0035564362
0002e0 b7 7d 6f 3c 3b f8 40 ba 6a 06 18 bd ef cd cb bc
       0.014617375 -0.0007361208 -0.037115492 -0.02487847
0002f0 98 db 8b bd d2 02 e7 bb ef 87 4b 3d 2b 17 fc 3c
       -0.068289936 -0.0070498968 0.049690183 0.030772766
000300 31 49 18 3c 2b 54 75 3a a0 9e 04 3d 0f 57 f2 3c
       0.009294794 0.00093585503 0.03237784 0.029582528
000310 af ca 9b 3c 63 03 25 3d 09 32 d7 3c cb 39 be 3c
       0.019017546 0.040286433 0.026268976 0.023220917
000320 ab 9a 0d 3d f5 c9 1e bd 57 3b 88 bb 88 8d fe 3b
       0.03457133 -0.03876682 -0.0041574645 0.0077683367
000330 e4 5b b6 bc f6 77 be bc f3 c0 21 bc 6c 12 f6 bc
       -0.022260614 -0.023250561 -0.009872663 -0.030038081
000340 26 e9 3d bc 96 21 29 3b 46 2a 1a 3d 6e e1 18 3d
       -0.011591231 0.0025807372 0.03763797 0.03732436
000350 57 f6 bc bc 28 cf 27 3c d6 f7 c6 bb e2 e5 34 3d
       -0.023066683 0.010242261 -0.006072025 0.044164546
000360 f2 57 91 3c 70 a1 87 bb af 94 04 3d 1f de 96 bc
       0.01774213 -0.004139118 0.03236836 -0.018416462
000370 40 62 76 3c e7 3a 99 bc 26 f5 da ba a4 fd 36 b9
       0.015038073 -0.018704845 -0.001670514 -0.00017451361
000380 37 9d 55 bd 31 0e 8a 3c fc 4f f1 bc 7c 4d c9 3c
       -0.052151885 0.01685247 -0.029457085 0.02457308
000390 bc 73 7b bc 4a 61 58 3c 9c fa f8 3b 8d 8e c5 3c
       -0.015347417 0.013206789 0.0075982343 0.024115825
0003a0 86 c2 42 bc 56 1c 8c 3c 71 f9 96 3a 97 82 2c bc
       -0.011887198 0.017103355 0.0011518431 -0.010529182
0003b0 5d 4e 00 bd 75 57 33 bd c0 7c a3 bb d5 52 af 3b
       -0.031324733 -0.043784577 -0.0049892366 0.0053504505
0003c0 ba 10 8a 3c b1 c5 14 bc 88 f0 15 bd 0c 49 37 bd
       0.016853679 -0.009080336 -0.03660634 -0.044747397
0003d0 29 fa 41 bd 38 99 08 3d 7b 13 b4 3c 45 3d cd 3c
       -0.047357712 0.033349246 0.021981945 0.02505363
0003e0 69 4c 55 bc dd 91 3f bd e7 da 81 bc 2f 83 f4 3a
       -0.013018706 -0.046769965 -0.015851451 0.0018654818
0003f0 f8 6d 04 bd ca 4d eb 3c 5c fb 85 3c a8 a9 01 3d
       -0.032331437 0.028723616 0.016355209 0.031655937

conv2.bias f4 [128]
000000 62 79 0a 3d 40 f0 3c 3c f1 e0 21 3c b0 f8 08 3d
       0.033807166 0.011531889 0.00988029 0.033440292
000010 2b a3 8d 3c c6 85 23 bd 15 ed 24 3c 5f 68 b0 3c
       0.017289719 -0.0399225 0.01006629 0.021534143
000020 bc c0 71 bc 59 4a 24 3d 02 a1 33 bd 27 6a d6 bc
       -0.014755424 0.040109966 -0.04385472 -0.026173664
000030 c0 12 75 3c e8 f7 ab bc b5 ee c3 3c 0e a0 10 3d
       0.014958084 -0.020992234 0.023917535 0.03530889
000040 87 44 0c 3d f6 1e 22 bd 51 6a a4 bc 68 85 07 bd
       0.03424504 -0.039580308 -0.020070227 -0.03308621
000050 3c 87 34 3c 23 44 a5 3c d3 b7 d1 bc 0a 1e 3a 3c
       0.0110185705 0.020174092 -0.02560035 0.011359701
000060 fd e7 f9 3c 14 4e 33 3c e3 4a 2e bd 99 c7 a6 bb
       0.030506128 0.010943908 -0.042551886 -0.005089712
000070 56 1e f1 3b 02 65 17 3d f2 23 82 3d 77 b0 ca bc
       0.0073583527 0.036961563 0.06354512 -0.024742348
000080 4a 3e 2c bb 87 fd 3a 3d 72 9f 7b bc 50 4c 4a bc
       -0.0026282244 0.04565194 -0.015357839 -0.012347296
000090 39 3e 01 bd 8d e0 56 bc 10 40 b0 3c af fc 87 bc
       -0.03155348 -0.0131150605 0.021514922 -0.016599981
0000a0 81 bb 0f 3d 7e fc b2 3c 5b 80 1b 3d 54 67 37 bc
       0.035090927 0.021848913 0.037964206 -0.011194069
0000b0 18 22 0a 3d 46 ad b9 3a 6b ef 00 3c ca 08 a8 3c
       0.03372392 0.0014166019 0.007869582 0.020512003
0000c0 84 44 15 bc 04 10 c4 3c 31 6c 0c 3d 7a 9f ea bb
       -0.009110574 0.023933418 0.034282867 -0.0071601244
0000d0 ae 72 96 bc e5 fa 25 bc f7 56 b3 3c 8a 29 37 bd
       -0.01836523 -0.010130619 0.021892054 -0.04471735
0000e0 bc 83 0c 3d 41 cb 0d 3d d1 28 3a bd 90 41 1c 3d
       0.03430532 0.034617666 -0.04544908 0.038148463
0000f0 94 72 e1 3c 66 9a ef bc b2 8f 45 bb f4 cd da bb
       0.027520455 -0.029248428 -0.0030145464 -0.0066773836
000100 19 87 4c bc e4 5b 3c bd 2a 7c 52 3c 7c 39 9c bc
       -0.012483382 -0.04598607 0.012846986 -0.01907038
000110 fd 9b d7 3c 33 1b 31 bd 99 a4 b5 ba c2 3e cb bc
       0.026319498 -0.04323883 -0.0013858258 -0.024810199
000120 f8 31 1d 3c fc c8 1c 3d 32 55 ed bc 47 24 19 bd
       0.009594433 0.03827761 -0.028971288 -0.037388112
000130 55 78 20 bd d3 1a 35 3d d5 8e dc 3c 0f 1e e1 bc
       -0.039177258 0.044215035 0.026923576 -0.027480153
000140 9b 18 2d 3d 28 3f 1c bd 7f 2d 3b bc 76 79 7b 3d
       0.042259794 -0.038146168 -0.011424421 0.06139513
000150 f8 b6 89 bc 59 c6 07 3d 31 83 0e 3d 83 08 4f 3a
       -0.01681088 0.033148143 0.034793083 0.00078976917
000160 05 39 3c 3a 40 a7 86 bc d1 48 93 bb 6d e6 4c 3d
       0.00071801274 -0.016437173 -0.0044947644 0.05002444
000170 42 a7 b7 bb b6 ca d6 3c 68 6e 83 ba e6 37 02 bd
       -0.0056046555 0.026219707 -0.001002741 -0.03179159
000180 c2 1b 83 bc 88 d7 14 bd 2d d6 d7 3a bb e2 06 bd
       -0.016004447 -0.03633836 0.0016467028 -0.03293107
000190 a8 19 b8 bc dc 20 9e bc 23 63 90 bc 3a fc 31 bd
       -0.022473171 -0.019302778 -0.017625397 -0.043453433
0001a0 06 8a 5b bc 95 58 f6 3c a1 3d dc bb a1 58 22 bc
       -0.013399607 0.030071536 -0.006721214 -0.009908826
0001b0 cb e7 0c 3d 66 c2 32 3b de 87 19 3b 6e 36 19 3c
       0.034400743 0.0027276515 0.002342693 0.009351356
0001c0 80 60 f4 bb 47 68 07 bd 1f bf e3 bc 84 56 b2 3b
       -0.0074577928 -0.03305843 -0.027801095 0.0054424424
0001d0 0c a2 0b bd bf 69 31 bd 92 4c 47 3c 6e 47 f3 bc
       -0.034090087 -0.043313738 0.012164252 -0.029697146
0001e0 bf 40 cf 3a e8 19 fe 3c 7f fb 8b 3a 90 02 08 bd
       0.0015812143 0.031018212 0.001067981 -0.03320557
0001f0 5b 43 0c bd 98 72 7d 3c 3f 82 83 bc a0 66 38 bc
       -0.034243923 0.015469216 -0.016053317 -0.011254936

deconv1.weight f4 [128, 64, 3, 3]
000000 72 ff 73 bd ba 86 f7 bb 31 c1 71 bd 16 17 51 bd
       -0.059569784 -0.0075539025 -0.059022132 -0.051047407
000010 cb b2 ca 3c 6f 7e 44 bd 2e 9b d9 bc a2 d2 f8 bc
       0.024743458 -0.04797214 -0.026563253 -0.030373875
000020 4e 93 b4 bc 2d 81 84 3c a2 d8 d7 3a c8 ce 75 3d
       -0.022042897 0.016174877 0.001646776 0.060011655
000030 e7 19 6f 3c af 45 08 3c 00 22 0b 3d df 5e 0f 3c
       0.014593578 0.008317395 0.03396797 0.008750646
000040 ef f0 c9 bc cf be 5d bc 8f e1 24 bc 82 e7 51 bd
       -0.024651019 -0.013534262 -0.010063543 -0.051246174
000050 34 6f a6 3c 75 9d 27 3c 01 c2 a6 bc 08 70 6b bc
       0.020316698 0.010230412 -0.02035618 -0.014369972
000060 3c bb 16 3d a5 4c b8 bc a6 e5 90 3c 45 10 c7 3c
       0.036799654 -0.022497484 0.01768763 0.02429975
000070 ef ec 1b 3c 69 89 ce bc 5a c7 c7 3c d8 be 02 3b
       0.009516939 -0.025212007 0.02438705 0.0019950178
000080 66 2b 3d bd ff 07 17 bd 45 a6 2f bc 2e 58 a1 bc
       -0.046183966 -0.03687286 -0.010720794 -0.019695368
000090 6f 5a 64 bb 82 62 2b 3c 3f f4 28 bd 8b c6 1a bd
       -0.0034843942 0.010460498 -0.041248556 -0.037787
0000a0 0e a4 1b 3d 3a 33 78 3c 7f 5d c1 3b 66 c0 d8 3c
       0.03799825 0.015148932 0.005901038 0.02645893
0000b0 14 2a 36 3d 1f df 10 3c 1a 26 0b bd 3c a2 43 bd
       0.044473723 0.008842259 -0.033971883 -0.04776214
0000c0 49 ac 9c 3c 3b 4d f4 bc 41 0b 34 bd bf 75 3e 3c
       0.01912512 -0.029821983 -0.043956045 0.011624753
0000d0 7a e3 ee 3b 7d a9 11 3b d2 93 3a bd e9 9f b7 bd
       0.007290301 0.0022226267 -0.04555113 -0.08966047
0000e0 c8 f6 d9 bd 6f a0 b7 bd 8a 4e 4a bd 53 80 ac bd
       -0.10642773 -0.08966147 -0.049391307 -0.084229134
0000f0 32 b4 ca bd d0 e4 74 bc 18 df df bd 3e 6d f6 3c
       -0.09897651 -0.014947131 -0.10931224 0.030081388
000100 4e 7f 01 3d 8f f0 7d 3d a1 2f 3c 3c 71 9e 19 3d
       0.031615548 0.061996993 0.011485965 0.037504617
000110 c0 36 74 3d 03 8e 6d 3d 7b 82 c2 3c 3c 07 9a 3b
       0.059622526 0.05799676 0.023743859 0.0047005694
000120 f5 b9 ac 3c 0d d4 8d 39 c6 7e 90 bc bf 02 17 bd
       0.021084765 0.00027051606 -0.017638575 -0.036867853
000130 14 35 b8 3c 86 05 84 3c 76 14 57 bd 4b 57 78 3c
       0.022486247 0.016115915 -0.052509747 0.015157531
000140 4d bf 5b bd b1 81 59 bd 4b 0c 08 3d 09 f4 22 3d
       -0.053649236 -0.0531022 0.03321485 0.03978351
000150 4c 6c b5 bc ab 4f 77 3c 9d 3e d6 3c 1b 13 1f bd
       -0.022146367 0.015094678 0.026152903 -0.03883658
000160 8b b4 bc bb e7 d3 e5 3c 4c 9a 5b bd a4 af 15 bd
       -0.005758827 0.028055144 -0.053613946 -0.036544457
000170 f5 5b 23 bd 78 48 88 bd 47 09 7b bb 14 4c 08 bc
       -0.03988262 -0.06654447 -0.003830509 -0.00831892
000180 e9 eb 57 bd 2f 25 95 bc cf 7b e4 bc cc ea 8b bd
       -0.052715216 -0.018206207 -0.027891068 -0.06831893
000190 cd 13 3d bb 5e 43 09 bd 00 6c 80 bd bd 94 7b bc
       -0.0028850914 -0.033511512 -0.06270599 -0.015355286
0001a0 28 67 75 bd 23 d2 be 3b 65 e8 8d 3c fa 23 51 bd
       -0.05991283 0.00582339 0.017322728 -0.0510597
0001b0 f5 b9 2a 3d b2 fd 67 bc 1f b2 d2 3b 5f a1 b2 bc
       0.04168125 -0.014159607 0.006429925 -0.021805463
0001c0 31 b3 ba 3c fc e1 20 bb 42 55 5b 3c 41 c6 25 3d
       0.022790523 -0.002454876 0.013387026 0.040472273
0001d0 6f d3 1d 3d 40 5a 09 3c c0 ea c0 bc f6 96 f6 bc
       0.038531717 0.008383334 -0.023549438 -0.03010128
0001e0 0f d1 21 3d b9 61 c5 3c f5 21 3e bd 5b 8c 8d bc
       0.039506014 0.02409445 -0.046419103 -0.01727884
0001f0 4c 9f 16 bd 45 12 59 3c f8 16 ec 3c 8a 2d 18 bd
       -0.03677301 0.013248985 0.028819546 -0.037152804
000200 96 4c a2 3c 90 00 08 3d 93 35 23 3c 71 de b2 ba
       0.01981191 0.03320366 0.009961504 -0.0013646615
000210 92 9a 99 bc 3d 34 41 3d 87 10 f0 bc 02 f1 0b 3d
       -0.018750463 0.04716896 -0.029304756 0.03416539
000220 1d 9f 2c bd 55 8a fa 3c e2 6f 65 bc c3 0a 49 bd
       -0.04214393 0.03058354 -0.014003726 -0.04908253
000230 3b c1 02 3d 31 d4 3c 3c b6 e5 6d 3c c5 03 54 bd
       0.03192256 0.0115252 0.014520099 -0.051761407
000240 b0 c3 77 3d 42 be 31 3d 82 d9 24 3d 91 88 8b bb
       0.060489357 0.043394335 0.040246494 -0.0042582233
000250 d2 cd 1c bc af 68 0c bd e3 c0 5b ba cf 95 0a 3c
       -0.009570556 -0.03427952 -0.00083829294 0.008458569
000260 d4 0e 31 bd a6 80 71 3c 2b 57 0b bd 29 fc 0e bd
       -0.04322703 0.014740145 -0.034018677 -0.034908447
000270 49 c0 04 3a 1c 0b 07 bd 44 62 f8 3c 79 2a f1 bc
       0.0005064053 -0.03296958 0.030320294 -0.029439198
000280 c3 93 d6 bc 94 0d 56 bc dd 87 48 bc 7d 7e 24 bd
       -0.026193505 -0.013064761 -0.012239424 -0.04015969
000290 01 e2 04 bd 5b d2 6e 3c cf f7 05 3d b9 4d 3c 3b
       -0.032442097 0.01457652 0.03270703 0.002873285
0002a0 0f aa 31 3d 39 69 86 3c c5 c9 c7 3c 1e a4 78 bc
       0.04337507 0.016407596 0.024388203 -0.015175847
0002b0 b4 d2 3b 3a b8 91 93 3c 2f 0b dd bc c7 35 77 3c
       0.0007164881 0.01801382 -0.026982872 0.015088505
0002c0 1a 8f 03 bc 58 cf 0f bd eb 26 22 bc 39 86 1c bd
       -0.008029724 -0.035109848 -0.009896974 -0.038213942
0002d0 93 1d 29 3d 8b 15 00 3c 27 30 cd bc c5 88 39 3c
       0.04128797 0.007817636 -0.025047375 0.011324112
0002e0 4f 0a 0b bd c0 cc ca ba f6 01 87 3c e1 45 8b bc
       -0.033945378 -0.0015472397 0.016480427 -0.017001094
0002f0 76 2e 29 bd c0 e0 10 bc 7d b2 61 bc 54 ac 9a bc
       -0.041304074 -0.008842647 -0.013775465 -0.018881
000300 bd 30 0e 3b ae 64 8e ba 2b 60 a1 3b 79 ca 54 3d
       0.002169653 -0.0010863745 0.004924794 0.051950905
000310 03 d3 0a bd fd 95 c8 bc c0 2b 85 bc 22 65 58 bd
       -0.033892643 -0.024485582 -0.016256213 -0.052830823
000320 0d e8 44 bd 46 96 46 bd 82 4d fe bc a3 cf 0a bd
       -0.048072863 -0.048483156 -0.031042818 -0.033889424
000330 8a d2 4c bd 52 34 0a 3d e6 c6 11 bd d7 81 93 3c
       -0.050005473 0.033741303 -0.035590075 0.018006248
000340 d2 49 8e 3c 5f aa dd 3c 0e ec f3 bb b0 c8 e6 bc
       0.017369185 0.027058778 -0.0074439114 -0.028171867
000350 1d 7d be 3c 34 9a 38 3c 9c 28 04 bd eb 7c c1 bc
       0.023253018 0.011267234 -0.03226529 -0.023619136
000360 48 ea 74 3d 36 95 4e 3d 04 b5 ad bc 43 d7 68 bb
       0.05979374 0.050435267 -0.021204479 -0.0035528697
000370 5f cf 81 3c c9 7c 21 3d 2f be 06 3c 24 5e cc 3c
       0.015845953 0.039425645 0.008224054 0.024947233
000380 1f e9 25 bc 1e 5f 6e 3c 18 e3 c0 3c de 92 cc 3b
       -0.010126381 0.014549045 0.023545787 0.006243094
000390 21 5d 06 3d b8 41 54 bc 57 8e 4d 3d af 74 b3 bc
       0.03280366 -0.012955122 0.050184574 -0.021906225
0003a0 44 31 95 3b cc 04 59 bc 0d b1 5e 3d a9 49 3d bc
       0.004552992 -0.013245773 0.054368068 -0.0115532065
0003b0 1d 8c 33 3d 2a bf 3a 3d 88 0a 02 bd 98 33 b2 bc
       0.043834794 0.045592465 -0.031748325 -0.021753117
0003c0 76 e2 fa 3c 2e 09 08 bd c2 7b 81 bc cb 42 ae bc
       0.030625563 -0.03321188 -0.015806083 -0.021272084
0003d0 9a fc be bc af 00 05 bb f0 f0 38 bd 83 68 80 bb
       -0.02331381 -0.0020294597 -0.04515165 -0.003918709
0003e0 b6 82 76 bb 1e 81 dd 3b 98 7d a1 3c 4f 49 d5 ba
       -0.003761453 0.0067597767 0.019713208 -0.0016272458
0003f0 a1 8f 71 bc 2a 6d 0d 3d 34 f0 97 3b 7a 0b 50 bd
       -0.014743716 0.034527935 0.0046367887 -0.050792195

deconv1.bias f4 [64]
000000 3e 24 e9 bb 23 69 5e bd f4 bd 28 3d 13 d9 87 3c
       -0.007114916 -0.054299485 0.04119678 0.016583001
000010 47 a3 27 3d eb 82 3f 3c f5 21 09 3d 0c fe 04 3d
       0.040927198 0.011688928 0.03347965 0.03246884
000020 a2 7b 37 bc f6 36 9e 3d 70 b1 47 3c dd bc 58 3d
       -0.01119891 0.07725327 0.0121883005 0.05291449
000030 a1 9a 68 3d 62 7d 91 3d de b0 55 3d 9b 5c 0e bb
       0.05678809 0.07103993 0.052170627 -0.0021722678
000040 42 a8 5f 3d c5 10 b5 3b 23 c9 af bc 8e b4 36 bd
       0.054603823 0.0055256807 -0.021458214 -0.044605784
000050 76 ea 31 3c 6d 16 2d 3c 2e 3f 2d 3d ee cf 99 3d
       0.0108591225 0.010564429 0.04229658 0.075103626
000060 d7 82 1e bd 52 ae 0e 3d 3a d6 94 bb 0e 4b 52 3d
       -0.038698997 0.034834214 -0.0045421394 0.05134111
000070 85 58 85 3d 49 6c e0 ba 62 18 d1 39 eb 78 92 3d
       0.065110244 -0.0017122115 0.00039881753 0.071519695
000080 dd 78 45 3d ac b3 3f 3d 1f a5 b8 3c 35 d9 25 3d
       0.048210967 0.046802208 0.022539673 0.040490348
000090 3c 2d 14 bd df 84 23 3d e1 1a be 3c 70 2e 5a 3d
       -0.03617595 0.039921638 0.023206176 0.053266943
0000a0 c3 06 3f 3d 2e 04 64 3d 89 39 9e bc 7a ab c2 bc
       0.046637308 0.05566805 -0.019314544 -0.023763407
0000b0 c9 e4 4b 3d ca 66 3d ba 28 82 08 3c 2d 58 ba bb
       0.049778733 -0.00072250946 0.008331813 -0.005686781
0000c0 fe 91 a3 39 c4 91 0a bd 9e f7 93 3d 4c 1d 66 3d
       0.00031198555 -0.03383042 0.072249636 0.056180283
0000d0 75 83 42 bc 33 e9 71 3d 54 0f bd 3c e4 41 af 3c
       -0.011872162 0.059060287 0.023078598 0.021393724
0000e0 f9 22 75 3c 56 47 e4 3c 41 41 83 3d d5 18 1f bd
       0.014961951 0.027866047 0.064089306 -0.03884204
0000f0 cd 01 1e bd dc a6 ee ba a6 7e b0 3c 4c 11 70 3d
       -0.038575936 -0.0018207687 0.021544766 0.058610246

deconv2.weight f4 [64, 64, 3, 3]
000000 8b 15 24 3d b9 18 ef bc 48 85 f4 ba 23 dc fd 3c
       0.040059607 -0.029186593 -0.0018655444 0.030988758
000010 6f ea e1 3c d0 83 b1 3c 54 88 e9 bc 34 52 0a bc
       0.027577607 0.021669298 -0.02850739 -0.00844245
000020 e5 b7 56 3c 15 48 3e 3b a1 a1 1a bd 21 31 19 bb
       0.013105367 0.0029034663 -0.037751798 -0.002337523
000030 09 ea 05 bd 98 c0 48 bd 4c b1 24 bd 49 fe e6 bc
       -0.032693896 -0.049011797 -0.040208146 -0.028197424
000040 4a 83 42 3c dd d4 5b bc c3 a2 15 3d 92 a1 12 3d
       0.011872122 -0.01341745 0.036532175 0.035798617
000050 e9 3c 1e 3d 7f e2 a2 3c 87 0d c6 bc 2d 25 22 3b
       0.038632307 0.019883392 -0.024176372 0.0024741397
000060 3f 81 1d 3d 43 09 b4 3c 04 15 fa bc d0 cf 1a bc
       0.038453337 0.021977073 -0.0305276 -0.00944896
000070 0c ef 65 bc 16 5f 43 3d c8 91 2d 3d 14 5b 16 3b
       -0.014034044 0.047698103 0.042375356 0.002294247
000080 88 24 29 3d a4 96 58 3d e8 a8 83 bc 8b 46 20 bb
       0.041294605 0.052878037 -0.016071752 -0.002445611
000090 c3 de cd bc dc a6 36 3d a3 be 48 bb c7 44 36 bb
       -0.025130635 0.044592723 -0.0030631206 -0.002781199
0000a0 cf aa 3d 3d a7 1f 07 3d a1 51 d9 3b 8c 50 39 3d
       0.046305474 0.03298917 0.0066320454 0.04524283
0000b0 7f 36 23 3d 71 4c 3e 3d c5 d2 3f 3d 3e c2 ac 3c
       0.039846893 0.04645962 0.046831865 0.021088716
0000c0 85 2c 81 3b ef 22 09 3d 89 8a 02 bc 73 f2 14 3d
       0.0039420747 0.03348058 -0.0079676 0.03636403
0000d0 19 9c 19 3d ce cf 38 3d 44 0f 3f bc 78 cc 5b 3c
       0.037502382 0.045120053 -0.011661354 0.013415448
0000e0 6f a6 0a 3b 01 d5 0b 3d 49 e7 4b bc 7a 50 73 3c
       0.002115633 0.034138683 -0.012445279 0.01485073
0000f0 8a 26 db 3b e5 19 48 3c 35 bc 39 3c 26 7a a2 bc
       0.006687944 0.012213205 0.011336376 -0.019833636
000100 44 16 ec bc 7b b8 ea bc 53 2d 16 bc 4a ae 93 3c
       -0.02881921 -0.02865242 -0.00916608 0.018027443
000110 77 87 f3 3c f6 be 64 bc a8 0a c5 3c 85 cc f9 3c
       0.02972768 -0.013961544 0.024052933 0.03049303
000120 6e 27 8a 3c 69 89 3c 3d ba c7 f1 3c b9 e4 00 bd
       0.016864505 0.046029482 0.029514182 -0.031468127
000130 b8 f2 1e bd e7 9a 2b 3d 6c 8d 78 3b 56 8d bb 3c
       -0.038805693 0.041895773 0.003792609 0.022894543
000140 de dd 16 bc b8 8e b2 bc 60 fa 9d bc 2c fe 5c 3c
       -0.009208171 -0.02179657 -0.019284427 0.013488334
000150 08 03 2d bc 9b 4d 8b 3c 75 0a f1 bc 59 0b a7 bc
       -0.010559805 0.017004779 -0.029423932 -0.020391153
000160 bd a8 8f 3c 0e a1 96 3c 44 49 3a 3b b2 5c 1a bd
       0.017536515 0.018387344 0.0028425017 -0.037686057
000170 6f 42 d6 3c 37 bc 2e 3d f1 42 c4 bc 70 7d 2c 3d
       0.026154725 0.042659964 -0.023957701 0.042111814
000180 42 a5 9d 3c 0e e7 d0 3c 04 eb d2 3c f4 42 9e bc
       0.01924384 0.0255008 0.02574683 -0.019319035
000190 c8 86 69 3c e2 8a 01 bc 5f a3 d6 3c 8e 75 43 3c
       0.014253326 -0.007906647 0.026200948 0.011929883
0001a0 a8 76 31 3d e2 4a 82 bc 76 28 52 3d c1 c9 0e 3d
       0.04332605 -0.015904848 0.051308118 0.034860376
0001b0 ee 77 15 3d 03 f7 02 3d 33 ae f4 3c b0 e1 f5 39
       0.036491327 0.03197385 0.02986822 0.00046898192
0001c0 74 b1 9f bc 01 64 f2 bc de 6a 3f 3c ad 92 c9 bb
       -0.019493796 -0.029588701 0.011683194 -0.0061515183
0001d0 27 5c ad bc 47 ca 82 bc e5 2f e9 3c aa 53 ab 3b
       -0.021162106 -0.015965594 0.02846522 0.0052284794
0001e0 a7 73 67 b8 5a cc 09 bd 0f 81 2f 3d 82 8a cc bc
       -5.51824e-05 -0.03364215 0.04284769 -0.02496839
0001f0 8a b8 6a 3b 62 3a 09 bd 6d 8c 1f bd 2b 44 11 bd
       0.003581556 -0.033502944 -0.03895228 -0.0354654
000200 c3 81 00 3d 38 d5 0a bd 0f 53 2c bc dd f7 e5 ba
       0.03137375 -0.033894747 -0.01051785 -0.0017545182
000210 39 3e f8 3b d6 9f a3 3c 95 71 fc 3c 68 48 7c bb
       0.007575777 0.019973677 0.030815879 -0.0038495306
000220 ab 75 76 bc 7b e5 02 39 7f 96 63 3c 8e 76 68 3c
       -0.015042703 0.00012483254 0.0138908615 0.014188422
000230 7b 13 ed bc db 5d 4b bb 5c 57 14 3c 51 23 e6 bc
       -0.028939953 -0.0031031284 0.009054031 -0.028093012
000240 24 23 f2 bb 1a a0 1c 3b 51 5e d0 bc 3d 01 27 3d
       -0.007389443 0.002389914 -0.025435599 0.040772665
000250 e9 7a d1 bc e6 c9 e0 3c 57 02 fd 3c 77 24 da 3c
       -0.025571303 0.027440023 0.030884905 0.026628716
000260 84 c2 02 3d 8c 51 83 bb 5f 17 fa bc f8 01 01 bd
       0.031923786 -0.004007524 -0.030528722 -0.03149602
000270 b9 cd fb 3c 2a 59 a8 bc 68 cd a6 3c 73 b7 1c 3c
       0.030737745 -0.02055033 0.020361617 0.009565222
000280 a6 53 85 3c d7 d9 86 3c 15 d5 21 3d d4 7d 10 bd
       0.016275238 0.016461296 0.03950985 -0.03527625
000290 c1 5a c9 3b ed ae b5 3c 90 50 05 3d 1c ac 15 bd
       0.006144852 0.022178138 0.032547534 -0.03654109
0002a0 31 b0 c6 bc 5c 2c 04 3d 98 d9 c4 bc 04 20 26 3c
       -0.024253936 0.032268867 -0.024029538 0.010139469
0002b0 32 79 3a 3d 64 00 19 3d 47 3f e7 3c 21 4e 47 3d
       0.045525737 0.03735389 0.028228415 0.048658494
0002c0 a0 01 a2 3b 82 c1 91 3c fe 9c f6 3c 95 52 6a 3d
       0.0049440414 0.017792467 0.030104157 0.057207663
0002d0 f9 b1 53 3d a0 ec c7 3c a4 57 04 3d f8 a6 48 3d
       0.0516834 0.024404824 0.032310143 0.04898736
0002e0 99 72 cd 3c c3 2e 9d bc c8 af b6 bc 37 1e 27 bc
       0.025079058 -0.019187337 -0.022300616 -0.010200075
0002f0 a1 be b3 3b d3 01 ac bc c6 d9 bc 3c ee b4 3b 3c
       0.005485371 -0.020996964 0.023053061 0.011456711
000300 88 eb 85 bc 4b 43 0c 3c c2 1a 80 3b cc 2c 3f 3d
       -0.016347662 0.008560966 0.00390944 0.04667358
000310 d5 af cd 3c 9d 30 6b bc de 98 93 3a a0 d3 73 bb
       0.025108257 -0.014354852 0.0011260768 -0.0037204996
000320 98 b2 5e bc cc 3e 45 3d a4 63 d5 3c a8 47 9e 3c
       -0.013592385 0.04815559 0.026048489 0.019321278
000330 38 24 9c 3c da 0e 9f bc 4b 45 8d 3c a5 78 1d bd
       0.01906024 -0.019416261 0.017244956 -0.038445134
000340 ea f8 4a 3c fb 7c 63 bb 7b b6 e2 bc 42 2e bb bc
       0.012388447 -0.0034711945 -0.027674904 -0.022849206
000350 ba 7a 39 3d a6 35 bc 3c ed d5 06 3a e8 50 cd bc
       0.045283057 0.0229748 0.0005143572 -0.025062993
000360 69 fc 84 3c 48 94 ae bc d8 8f e6 bb 6c e8 1a bd
       0.01623364 -0.02131094 -0.0070361905 -0.03781931
000370 14 a4 17 bd ac 11 f2 bc 77 5b 43 3c ec 57 dd 3c
       -0.03702171 -0.029549442 0.011923662 0.027019463
000380 40 4a 29 bc 4b 0d 4a 3c 16 5c a2 bc 3a bc 1c 3d
       -0.010332644 0.012332271 -0.0198193 0.038265444
000390 d9 1c 4a 3c 59 7d 06 3d e6 b9 92 bc 04 56 f5 bc
       0.012335979 0.032834385 -0.017910909 -0.029948242
0003a0 39 2c 25 3d 0c 97 39 3a 61 c5 b3 3c 5d 28 f7 bc
       0.040325377 0.00070796977 0.021944704 -0.030170614
0003b0 fa 39 0f bd 97 e8 1c bd 52 0d 67 bc b5 ea 44 bd
       -0.0349674 -0.038307752 -0.014102297 -0.048075397
0003c0 c0 19 25 bd f7 fb e6 3c a3 05 11 bd aa 38 c9 3c
       -0.04030776 0.028196318 -0.035405766 0.024563152
0003d0 f2 ce cf 3c 47 12 e8 3c 87 5a 8b 3c a4 a0 6b 3c
       0.025367234 0.028329028 0.01701094 0.014381561
0003e0 54 56 2e bc 58 7b 30 3c 48 76 8d 3c 3d 50 85 bb
       -0.010640699 0.010771595 0.017268315 -0.004068403
0003f0 f5 80 ad bc 70 66 11 bc 29 bb ca bc 89 dd 34 bd
       -0.021179656 -0.008874521 -0.024747448 -0.044156585

deconv2.bias f4 [64]
000000 3e 2e 45 3c a6 0a 98 bd ff ba c0 3c 95 37 4d bd
       0.012034951 -0.07423906 0.023526667 -0.050101835
000010 80 08 ce bc 36 d0 06 bd 12 8e 67 3d 7c a4 a6 3d
       -0.025150537 -0.03291341 0.056531973 0.08136842
000020 5c 20 91 bd 85 75 db 3d 1a 48 64 bb 3c 90 8b 3c
       -0.0708625 0.107157744 -0.0034833015 0.01703655
000030 83 7f da 3c 57 31 38 bd 47 f0 32 3d f2 21 38 3d
       0.02667213 -0.04496893 0.043686178 0.044954248
000040 68 56 16 bd 34 6c b9 bd 29 74 ac 3c 06 41 76 bb
       -0.036703497 -0.09053841 0.021051483 -0.0037575378
000050 7a 7c b3 3d 3e c8 51 bc e1 76 ea bd 32 b8 9c 3c
       0.087639764 -0.012804089 -0.114484556 0.0191308
000060 c4 9d 5f 3d 2a 45 2c 3d 4a 1f 4c 3d 78 c7 62 bc
       0.054593816 0.042058147 0.049834527 -0.013841502
000070 4f 62 9b 3d 98 5a fa bd 5f a8 c4 3d 86 8e 8e bd
       0.0758711 -0.12224311 0.09602427 -0.06960778
000080 13 79 af bc 87 50 07 bd 28 4d 86 3d 20 56 03 bd
       -0.021420037 -0.03303578 0.06557685 -0.032064557
000090 0c 28 8e 3c 2d 7d c5 bd 21 20 0b bd 84 8d 9b 3b
       0.01735308 -0.09643016 -0.033966187 0.0047470946
0000a0 17 10 7c 3d 25 3a e2 bd 06 8b 15 bd 09 1c f9 3d
       0.061538782 -0.110462464 -0.036509536 0.121635504
0000b0 49 9b 82 bd 07 b3 8e 3d 94 4c 36 3d 6c 60 c8 bd
       -0.063772745 0.069677405 0.044506624 -0.09784016
0000c0 69 d6 f4 bd 64 2c 83 3d d2 07 cf bd 4b 5f aa 3d
       -0.11954958 0.06404951 -0.101089135 0.08318957
0000d0 a5 7e b0 bd 6d 8c 9a bd 4f 2c c4 3d 9d 50 a2 3d
       -0.086179055 -0.07546315 0.09578764 0.07925532
0000e0 4a 04 d4 bc cb ef a1 bd 15 a2 c4 ba 73 0b 2f 3d
       -0.025880951 -0.07907065 -0.0015001917 0.04273553
0000f0 1c dd 4c 3d 5a 1b 34 bc 55 79 40 3d 5d e1 b4 3c
       0.050015554 -0.010992849 0.04699071 0.022080118
