contrastive_save_archive/contrastive_weights_epoch_10.pt (torch, 749116 bytes, 8 tensors)

conv1.weight f4 [64, 3, 3, 3]
0	0x3e169268	0.14704287
1	0x3ddd3435	0.10800973
2	0x3e2b4012	0.1672366
3	0x3bf2d3dd	0.00741051
4	0xbddbe96f	-0.10737883
5	0x3ca30fb7	0.019904954
6	0x3e2ce950	0.16885877
7	0xbdde49ea	-0.10853942
8	0xbe3f7ae3	-0.18699221
9	0x3dda7151	0.10666145
10	0xbe0b0c65	-0.13578947
11	0xbdc524e9	-0.09626181
12	0xbcd1fe46	-0.025633942
13	0x3e1b8664	0.15187985
14	0xbe32cf31	-0.1746185
15	0x3ce8e02a	0.028427202
16	0xbb3c0089	-0.0028686842
17	0xbe18ced7	-0.14922653
18	0xbbe36b47	-0.0069402787
19	0x3e3038b5	0.17209132
20	0x3c3dac1e	0.0115766805
21	0x3db914c4	0.09037164
22	0xbd5e2030	-0.054229915
23	0xbcf7d9f4	-0.030255295
24	0x3ddfda28	0.10930282
25	0x3dc4f116	0.09616296
26	0xbe129a3b	-0.14316647
27	0xbd8dec93	-0.069298886
28	0x3c86601e	0.016403254
29	0x3d98ae65	0.07455138
30	0x3d38375f	0.04497468
31	0x3dbbe22b	0.091739975
32	0x3e01b674	0.12667257
33	0x3e02d7ee	0.12777683
34	0xbdcebe4e	-0.100948915
35	0x3e1836e6	0.14864692
36	0xbc9e5aec	-0.019330464
37	0xbd8985dd	-0.067149855
38	0xbe33ff42	-0.17577842
39	0x3d5b6721	0.05356515
40	0xbd650a41	-0.055917982
41	0xbe2976fb	-0.16549294
42	0x3e14b354	0.14521533
43	0xbb791451	-0.0038006494
44	0xbe3efc46	-0.18650922
45	0x3d4d1045	0.050064344
46	0xbbc51648	-0.006014619
47	0x3debeb8a	0.11519535
48	0xbe15f6dc	-0.1464495
49	0x3e136951	0.14395644
50	0x3e0e7c96	0.13914713
51	0xbdd3b0d3	-0.10336461
52	0x3e410995	0.18851312
53	0xbe1cd7e8	-0.15316737
54	0x3e2486a3	0.16066985
55	0x3bee9504	0.0072809476
56	0xbe413f46	-0.18871793
57	0x3d06a404	0.03287126
58	0x3e04b3b8	0.12959182
59	0xbdf618c8	-0.120164454
60	0x3df80268	0.12109834
61	0x3ddcc9d7	0.107806854
62	0xbe327955	-0.17429097
63	0xbe0969d2	-0.13419273
64	0xbdfe22c3	-0.12408974
65	0xbdff554e	-0.124674425
66	0x3e110b9a	0.14164582
67	0x3e2bd0ca	0.16778865
68	0xbdc3b686	-0.09556298
69	0x3c2a678f	0.010400667
70	0x3de5ffed	0.112304546
71	0x3dfc6dbd	0.123256184
72	0xbde046de	-0.10951017
73	0xbdcbb4f3	-0.09946623
74	0xbd4b136a	-0.04957906
75	0xbc01d213	-0.007923621
76	0x3d956aaa	0.07295735
77	0x3c571770	0.0131281465
78	0xbdc26b64	-0.094931394
79	0x3e4cc02e	0.19995186
80	0xbcf4b03f	-0.029869197
81	0xbe2f8789	-0.17141546
82	0xbe1e6d57	-0.15471397
83	0xbe20df17	-0.15710102
84	0x3e272dbc	0.1632604
85	0x3d8477ec	0.06468186
86	0x3d1ace88	0.03779462
87	0x3c9d3a75	0.019192914
88	0x3e33943e	0.17537019
89	0xbda74625	-0.08167676
90	0xbdf297c3	-0.118453525
91	0xbe409e7d	-0.18810458
92	0xbd03b921	-0.032158975
93	0x3e2372af	0.15961717
94	0xbd3a30a9	-0.045456562
95	0x3debe667	0.11518555
96	0x3dc8bcfa	0.098016694
97	0xbe26590e	-0.16244909
98	0x3e433b3c	0.19065565
99	0xbe1a8b61	-0.15092231
100	0x3d87a193	0.06622615
101	0xbddf39a7	-0.10899668
102	0x3cb13a47	0.021634234
103	0x3e30472b	0.17214648
104	0x3d20e250	0.03927833
105	0x3e167511	0.14693095
106	0xbe1a7ade	-0.15085933
107	0xbd00c89c	-0.031441316
108	0xbe3eed38	-0.1864518
109	0x3dd1d575	0.10245792
110	0xbe4d49ce	-0.20047686
111	0xbe2462d4	-0.16053325
112	0xbe316649	-0.17324175
113	0x3d42d578	0.04756686
114	0xbdc29048	-0.09500176
115	0x3b734b6d	0.0037123815
116	0xbe3815ec	-0.17977113
117	0xbe344cb1	-0.1760738
118	0x3e21ebe4	0.15812641
119	0x3db20f3e	0.086943135
120	0xbcb08901	-0.021549704
121	0xbd0135e5	-0.03154554
122	0xbe38da68	-0.18052065
123	0xbc14b014	-0.009075183
124	0xbbd7d36a	-0.006586482
125	0x3dae916a	0.08523829
126	0xbe598dbf	-0.21245478
127	0xbe4ff6cf	-0.20308994
128	0xbdd41309	-0.10355193
129	0x3cfb5e81	0.030684711
130	0x3c9c3b9a	0.019071389
131	0xbe3e0dd2	-0.1855996
132	0xbd55b85f	-0.052177783
133	0xbba5458e	-0.005043692
134	0x3df18954	0.117937714
135	0xbd073bc2	-0.033015974
136	0x3d873a0d	0.06602869
137	0x3e2bcbf2	0.16777018
138	0x3ccf0c89	0.025274532
139	0xbdd561c5	-0.10419039
140	0x3dfba846	0.12287955
141	0xbe2788ae	-0.16360733
142	0x3e1d0616	0.15334353
143	0x3d053a36	0.032526217
144	0xbdcbf9a6	-0.09959726
145	0xbd396d63	-0.045270335
146	0x3da894e8	0.082315266
147	0xba1bd72c	-0.0005944844
148	0xbcca582a	-0.024700243
149	0xbd4dccbe	-0.050244085
150	0x3e1b2318	0.15150106
151	0x3e12e77b	0.14346115
152	0x3e1172c9	0.14203943
153	0xbe1cdac4	-0.15317827
154	0xbe19a72e	-0.1500518
155	0x3cfb37d7	0.030666275
156	0x3d6522bd	0.055941332
157	0xbdb24cee	-0.087060794
158	0x3cf12142	0.029434804
159	0xbe043511	-0.12910868
160	0xbc8e276d	-0.017352784
161	0x3d443cea	0.047909655
162	0xbdafb4c6	-0.08579402
163	0xbe356348	-0.17713654
164	0xbe40f0e4	-0.18841892
165	0x3d3be9c7	0.045877244
166	0x3d475f8a	0.048675098
167	0x3d089565	0.0333456
168	0x3db29a13	0.087207936
169	0xbda57ff9	-0.080810495
170	0xbc24603f	-0.0100327125
171	0x3e34b508	0.17647183
172	0x3d193234	0.037401393
173	0xbe13a85e	-0.14419696
174	0xbe4c1edf	-0.19933651
175	0x3ce19fdc	0.027542047
176	0x3df77152	0.12082161
177	0xbe3bf17f	-0.18353842
178	0x3c489202	0.012241842
179	0x3d289172	0.041154332
180	0xbd80e123	-0.062929414
181	0x3e126c20	0.14299059
182	0xbe3e8761	-0.1860633
183	0x3e279668	0.16365969
184	0xbcff9195	-0.031197349
185	0x3b429011	0.002968792
186	0x3dc5b56d	0.09653745
187	0x3c7fd940	0.015615761
188	0x3dc3642f	0.09540593
189	0xbe3ab73a	-0.18233958
190	0x3e4206f8	0.18947971
191	0x3cbb2d0c	0.022848628
192	0xbd03399b	-0.03203736
193	0xbe451b39	-0.19248666
194	0xbde39b2f	-0.11113583
195	0xbe27e4ee	-0.16395923
196	0x3df80dd4	0.121120125
197	0x3acc9983	0.0015609715
198	0x3dfe62c0	0.12421179
199	0x3d25544a	0.040363587
200	0x3d28fa0f	0.0412541
201	0x3dc0d5a9	0.094157524
202	0x3e429878	0.19003475
203	0x3ba33de5	0.0049817436
204	0xbe050b5f	-0.12992619
205	0x3e3e1b62	0.18565133
206	0x3e2c4db3	0.16826515
207	0x3e1b5d8b	0.15172403
208	0xbe312b38	-0.17301643
209	0xbe011eed	-0.12609453
210	0x3dfc71fc	0.12326428
211	0x3e13444a	0.14381519
212	0xbd21a22d	-0.039461304
213	0x3cd13255	0.025536695
214	0xbe1d61a8	-0.15369284
215	0xbdb930f5	-0.09042541
216	0xbdf67e80	-0.12035847
217	0x3d983432	0.074318305
218	0x3e411914	0.18857223
219	0x3dc14833	0.09437599
220	0x3dc290c8	0.09500271
221	0xbde2e0f6	-0.11078064
222	0xbd78df2b	-0.060759705
223	0xbe0ff135	-0.14056857
224	0xbe420f78	-0.18951213
225	0xbe0a7879	-0.13522519
226	0x3d7ab0d7	0.061203804
227	0x3d82e1f6	0.06390755
228	0x3dfadff4	0.12249747
229	0xbda756aa	-0.08170827
230	0x3df2302b	0.118255936
231	0x3e0664f4	0.13124448
232	0xbcc57840	-0.024105191
233	0x3e1d39bb	0.15354054
234	0xbdd0b6ca	-0.10191114
235	0x3d3565c1	0.044286493
236	0xbe177917	-0.14792286
237	0xbd921ad8	-0.07134026
238	0x3e3b1543	0.1826983
239	0xbd7f5fac	-0.0623471
240	0x3e454ed1	0.19268347
241	0xbdc1e4e0	-0.094674826
242	0xbe05e4c7	-0.13075553
243	0xbbdb3ef5	-0.0066908547
244	0x3d91263b	0.0708737
245	0x3cadc6b3	0.021212911
246	0x3de8bf49	0.1136461
247	0xbe3f8842	-0.18704322
248	0x3cd93c0e	0.026517894
249	0x3d27b99f	0.040948506
250	0x3e132ff9	0.14373769
251	0xbdddf7a8	-0.10838252
252	0x3bf7ef26	0.0075663505
253	0xbcfa3589	-0.030543106
254	0xbe438002	-0.190918
255	0xb9dd703c	-0.00042236026

conv1.bias f4 [64]
0	0xbdd36013	-0.10321059
1	0xbdb66523	-0.08906009
2	0xbd356b4f	-0.04429179
3	0x3c87a2fb	0.016557207
4	0x3da2b43b	0.079445325
5	0xbe3a137b	-0.18171494
6	0x3e1983f9	0.1499175
7	0xbe1b6fe2	-0.15179399
8	0xbdb35dbf	-0.08758115
9	0x3dc5e23a	0.0966229
10	0xbd895157	-0.067049675
11	0x3ddfab96	0.10921399
12	0x3d0102ae	0.031496696
13	0x3e1fe8cc	0.15616149
14	0xbd9b5b36	-0.075857565
15	0x3bbe5516	0.005808483
16	0xb9bab2fa	-0.00035610033
17	0xbd7825d4	-0.06058295
18	0xbe413e94	-0.18871528
19	0x3df5759d	0.119853236
20	0x3dd19d65	0.10235099
21	0xbdc5bf63	-0.09655645
22	0xbe4f58ee	-0.20248768
23	0x3dc0221f	0.09381508
24	0x3e265b4b	0.16245763
25	0x3d917edd	0.071042754
26	0xbe03d564	-0.12874371
27	0x3daeb123	0.0852988
28	0x3d8291e8	0.06375486
29	0x3d20653b	0.03915904
30	0x3e12bf51	0.14330794
31	0xbe477a79	-0.19480313
32	0xbd22c606	-0.03973963
33	0xbd785427	-0.06062713
34	0x3dc19295	0.094517864
35	0xbdd783e7	-0.10523205
36	0x3dc69c35	0.09697763
37	0x3d87300f	0.06600963
38	0xbd3d6a94	-0.04624422
39	0xbdef78e0	-0.11692977
40	0xbc265558	-0.0101521835
41	0xbe4ac050	-0.19799924
42	0xbb6c7df0	-0.0036085807
43	0x3b075897	0.002065217
44	0x3cad3920	0.021145403
45	0x3b764201	0.0037575962
46	0xbdb341c5	-0.08752779
47	0xbcaa8c0b	-0.02081873
48	0xbd238506	-0.039921783
49	0x3c89316c	0.016747199
50	0xbd9dc134	-0.07702866
51	0xbbd88f8f	-0.0066089104
52	0x3dbe2f77	0.09286397
53	0x3d95c198	0.07312316
54	0x3dfbc9e4	0.12294367
55	0x3d810332	0.062994376
56	0xbd649dc6	-0.055814527
57	0x3c892cdc	0.016745023
58	0xbdbf0ca7	-0.09328585
59	0x3cc7b2ac	0.02437719
60	0xb7b9b54f	-2.2138147e-05
61	0x3e0fb89a	0.14035264
62	0x3b830d7b	0.0039994097
63	0xbda68a1c	-0.08131811

conv2.weight f4 [128, 64, 3, 3]
0	0x3cfaa3a7	0.030595614
1	0xbcef7b64	-0.029233642
2	0xbcb1f20e	-0.021721866
3	0x3c1f38b5	0.00971811
4	0xbcea2192	-0.02858046
5	0xbd43b1d3	-0.04777701
6	0x3c8cdf4b	0.017196318
7	0x3c517d44	0.012786213
8	0x3bad516c	0.0052892473
9	0xbd3a86c9	-0.045538697
10	0xbd4c7eb8	-0.049925536
11	0xbd82ff02	-0.06396295
12	0xbc1d3e24	-0.009597335
13	0xbd6cccb5	-0.05781241
14	0xbcf4588e	-0.029827382
15	0xbcdeda44	-0.027203687
16	0xbd471a0c	-0.048608825
17	0xbd725c09	-0.059169803
18	0xbd29b4be	-0.041432135
19	0xbd91c3ff	-0.071174614
20	0xbde67fe6	-0.112548634
21	0x3c2b794b	0.01046593
22	0xbcba4393	-0.0227373
23	0x39458649	0.00018837409
24	0x3c4be8ff	0.012445687
25	0xbccb88f1	-0.024845572
26	0xbd2518a3	-0.0403067
27	0x3cd4118e	0.025887277
28	0xbb93a1e1	-0.0045053815
29	0x3d291650	0.041281044
30	0x3d0366ea	0.03208057
31	0x3d383261	0.04496992
32	0x3d687b25	0.056758065
33	0x3ceee09e	0.02915984
34	0xbc5202dc	-0.012818065
35	0x3d5c6c45	0.05381419
36	0x3c96593e	0.0183531
37	0xbbb54c53	-0.00553278
38	0xbb1a769e	-0.0023569237
39	0xbc70ae83	-0.014690044
40	0xbc3616cd	-0.011113835
41	0xbb68ae3f	-0.003550425
42	0xbceae513	-0.028673684
43	0xbcd209af	-0.025639383
44	0xbd395322	-0.045245297
45	0xbc0eda94	-0.008719105
46	0xbd243633	-0.04009075
47	0xbc03217e	-0.008003591
48	0xbc9672bc	-0.018365256
49	0x3d0ec46b	0.034855288
50	0x3c696b42	0.014246764
51	0xbcf78d04	-0.030218609
52	0xbc8d5b99	-0.017255591
53	0xbc16c4f2	-0.009202229
54	0xbc45adf6	-0.012065401
55	0xbd0f3c50	-0.034969628
56	0x3d1a5fff	0.037689205
57	0x3d07c7a3	0.033149373
58	0xbd0b449c	-0.034000978
59	0x3d1317ec	0.035911486
60	0xba39c8bc	-0.00070871017
61	0xbcb7a5bb	-0.022417894
62	0x3cd0b8cb	0.025478741
63	0x3d1295b0	0.035787284
64	0x3b05aef9	0.0020398481
65	0xbd20b0cc	-0.039231107
66	0x3b727c3b	0.0037000317
67	0x3cd35a38	0.025799856
68	0xbced62ed	-0.028977836
69	0xbcbccedf	-0.023047863
70	0x3be7b25f	0.007070824
71	0xbcf450f5	-0.02982376
72	0xbcc66cef	-0.024221865
73	0xb9692a74	-0.00022236427
74	0xbc58393d	-0.01319724
75	0xbc6d3b1c	-0.014479425
76	0x3bdc2c5c	0.0067191552
77	0xbd79b95d	-0.06096779
78	0xbcdc2d2a	-0.026877005
79	0xbd6e2862	-0.05814398
80	0x3c11987c	0.008886453
81	0x3cbd0220	0.023072302
82	0xbd2e8ed4	-0.04261668
83	0xbc80160e	-0.015635516
84	0xbd139231	-0.03602809
85	0xbd2f714b	-0.042832654
86	0x3bb5dafd	0.005549787
87	0x3caa9463	0.02082271
88	0xbd27273a	-0.040808894
89	0xbd18abf5	-0.037273366
90	0x3ce89a01	0.028393747
91	0xbd2258e1	-0.039635543
92	0xbcaf813d	-0.02142393
93	0xbd3fc06e	-0.046814375
94	0xbd36752e	-0.044545345
95	0x3bc591e1	0.006029353
96	0xbb8ae74e	-0.0042389994
97	0xbbe9a0f1	-0.0071297814
98	0xbb1f4f7c	-0.002430885
99	0xbd165f2b	-0.036711853
100	0xbd462f95	-0.04838522
101	0xbd9d993b	-0.07695242
102	0x3b406f89	0.0029363355
103	0xbcfd3e1d	-0.030913407
104	0xbba67435	-0.005079771
105	0xbcd624dd	-0.026140625
106	0xbca23c0d	-0.019804025
107	0xbc85f139	-0.016350375
108	0x3bbc8328	0.0057529397
109	0xba8e6d47	-0.0010866307
110	0xbcf58ea2	-0.02997524
111	0x3c7ebb73	0.015547621
112	0xba3c6f70	-0.00071882363
113	0xbc9c7c9c	-0.019102387
114	0x3c6e3b82	0.014540555
115	0xbbf0c677	-0.0073478776
116	0x3c6dc0a3	0.01451126
117	0xbc93cb42	-0.018041257
118	0x3c45ae04	0.012065414
119	0xbc8119d5	-0.015759388
120	0xbb687f73	-0.0035476356
121	0x3afa7bc3	0.001911037
122	0xbce3f345	-0.02782596
123	0xbcf31c79	-0.029676663
124	0xbd4ecb96	-0.050487123
125	0xbc3cc400	-0.011521339
126	0xbcd610af	-0.026131002
127	0x3b19242e	0.0023367512
128	0xbd001c45	-0.03127696
129	0x3c80a48c	0.015703462
130	0x3c51c38a	0.012802968
131	0x3cbdbfb3	0.023162698
132	0xbd46b5d0	-0.048513234
133	0x3cb53d37	0.022123916
134	0xbcfb2b32	-0.030660246
135	0x3d2f5c00	0.042812347
136	0x3c29194b	0.010320972
137	0x3a4db0a1	0.0007846449
138	0x3b7ca69a	0.003855145
139	0x3d24cc9b	0.04023419
140	0x3b87f2b8	0.0041488074
141	0x3ca51353	0.020150816
142	0xbd263e17	-0.040586557
143	0xbba5e92c	-0.0050631966
144	0xbd3a9b69	-0.045558367
145	0xbcd151ef	-0.025551764
146	0xbd956323	-0.072942995
147	0xbda820e1	-0.08209396
148	0xbd211067	-0.039322283
149	0xbd2fe2f2	-0.04294104
150	0xbd3a5a19	-0.04549608
151	0xbd9e3516	-0.07724969
152	0xbd802359	-0.06256742
153	0xbd56ffa3	-0.052489888
154	0xbcd63d03	-0.02615214
155	0xbdc41cff	-0.09575843
156	0xbd90f611	-0.070781834
157	0xbda7dabd	-0.08196018
158	0xbd8ecf37	-0.06973117
159	0xbd9a77ee	-0.07542406
160	0xbd2a7ec9	-0.041624818
161	0x3c5ea527	0.01358918
162	0xbd28173e	-0.04103779
163	0xbbfc4f3d	-0.0076998756
164	0xbd1ebb77	-0.038753
165	0xbcdaccae	-0.026708927
166	0x3cedbf7d	0.029021973
167	0xbbc9d2d4	-0.006159166
168	0xba112d89	-0.00055380963
169	0x3cf629cf	0.030049233
170	0xbc98bbc5	-0.018644223
171	0x3c42b272	0.011883365
172	0x3b2b9d4d	0.0026186288
173	0xbd26664d	-0.040624905
174	0x3cc5c237	0.02414046
175	0xbd48a3aa	-0.048984207
176	0xbd2ee225	-0.042696137
177	0x3c23efd8	0.010005914
178	0x3a3af22e	0.00071314245
179	0x3b2b08a5	0.0026097682
180	0xbd0b17db	-0.033958297
181	0x3b0fa42b	0.002191792
182	0xbd0237bb	-0.03179143
183	0xba8a8409	-0.0010567914
184	0x3c8784e1	0.016542854
185	0x3b66c73e	0.0035213972
186	0xbcffa249	-0.031205313
187	0xbc8d2912	-0.017231498
188	0xbd75ffaf	-0.060058292
189	0xbc826ab6	-0.015920024
190	0x3d24acca	0.040203847
191	0x3ca303eb	0.01989933
192	0x39cc1671	0.00038926632
193	0xbc0fa61e	-0.008767633
194	0x3cb56fa2	0.022147957
195	0x3ca3d385	0.019998321
196	0x3c10332e	0.008801265
197	0x3cef3414	0.029199637
198	0x3cd4e062	0.0259859
199	0x3cc25666	0.023722839
200	0x3d10e483	0.035374176
201	0xbd1d1aa4	-0.038355485
202	0xbb6c4fc8	-0.0036058296
203	0x3c0c44d4	0.008561332
204	0xbcb14a33	-0.021641826
205	0xbcb92d5f	-0.022604642
206	0xbc1ec127	-0.009689606
207	0xbcdde13f	-0.027084945
208	0xbc1b0bc3	-0.009463253
209	0x3b93fd7c	0.0045163017
210	0x3d265c94	0.040615633
211	0x3d268a79	0.0406594
212	0xbca238ac	-0.019802414
213	0x3c544781	0.012956501
214	0xbb350829	-0.0027623272
215	0x3d43cbfc	0.047801957
216	0x3ca8b24a	0.020592827
217	0xbb4934a6	-0.0030701547
218	0x3d08fb77	0.03344294
219	0xbc70b5d7	-0.0146917915
220	0x3ca67ccc	0.02032318
221	0xbc7f1c7c	-0.015570756
222	0x3bd8543a	0.0066018375
223	0x3bda83a4	0.006668525
224	0xbd383979	-0.044976685
225	0x3c4262ab	0.011864345
226	0xbd1479be	-0.036248915
227	0x3c984806	0.018589031
228	0xbca37c8a	-0.019956846
229	0x3c06063b	0.008180196
230	0x3b4abe49	0.0030936173
231	0x3cbed3a0	0.02329427
232	0xbc816ff8	-0.015800461
233	0x3c68b8f5	0.014204253
234	0x3bc5f219	0.006040823
235	0xbbba4d62	-0.0056854943
236	0xbcdd91b2	-0.027047012
237	0xbd1fffc6	-0.039062284
238	0xbaa524c9	-0.0012599464
239	0x3c18972e	0.009313388
240	0x3cb3fcca	0.021971125
241	0xbbb51d98	-0.0055272095
242	0xbd0bad71	-0.034100953
243	0xbd2a37a7	-0.04155698
244	0xbd353aef	-0.044245657
245	0x3d1547a2	0.036445267
246	0x3ce20baf	0.027593462
247	0x3cfaaa45	0.030598769
248	0xbc01bea7	-0.00791899
249	0xbd1cbc15	-0.038265307
250	0xbc0990ee	-0.00839637
251	0x3c1596c3	0.009130183
252	0xbd017e3b	-0.031614523
253	0x3cf7d77e	0.030254122
254	0x3c6a6695	0.014306684
255	0x3d1736fb	0.036917668

conv2.bias f4 [128]
0	0x3d12a7b3	0.03580446
1	0x3c21c045	0.009872501
2	0x3bc559db	0.0060226745
3	0x3cf9556a	0.030436236
4	0x3ca3f747	0.020015372
5	0xbd146e12	-0.036237784
6	0x3c3c4b4d	0.0114925625
7	0x3cbd08ab	0.023075422
8	0xbc71c0bc	-0.014755424
9	0x3d1c6a12	0.038187094
10	0xbd33a102	-0.04385472
11	0xbcbcaad2	-0.023030672
12	0x3c0aabe1	0.008463831
13	0xbcb64748	-0.022250786
14	0x3cd20904	0.025639065
15	0x3cf5951a	0.029978324
16	0x3d005129	0.0313274
17	0xbd1f75b3	-0.038930606
18	0xbc918800	-0.017765045
19	0xbd041e10	-0.032255232
20	0x3c28768f	0.010282173
21	0x3caa557c	0.020792715
22	0xbcec9db8	-0.0288838
23	0x3be1e287	0.0068934592
24	0x3cd2d096	0.025734227
25	0x3c1ba379	0.009499424
26	0xbd3e7f58	-0.046508163
27	0xbbe08d19	-0.0068527577
28	0x3bf1bcbb	0.0073772348
29	0x3d0884bb	0.033329707
30	0x3d6b6b8b	0.057475608
31	0xbcc1bb7f	-0.023648975
32	0xbb2e0cb7	-0.0026557872
33	0x3d2c9588	0.04213479
34	0xbc8f48ad	-0.01749071
35	0xbc2c084b	-0.010500024
36	0xbcf2f07c	-0.029655688
37	0xbc3d4568	-0.011552192
38	0x3ce56c33	0.028005695
39	0xbca59d30	-0.020216554
40	0x3d1132b2	0.035448737
41	0x3cae852e	0.02130374
42	0x3d240c7a	0.04005096
43	0xbc41a140	-0.01181823
44	0x3d02bb48	0.031916887
45	0xbb20da23	-0.0024544082
46	0x3c4410c8	0.011966892
47	0x3c9aa482	0.018877272
48	0xbc13ef95	-0.009029289
49	0x3cc9643c	0.024583928
50	0x3d069b2c	0.032862827
51	0xbbd8a713	-0.0066117137
52	0xbc93884b	-0.018009325
53	0xbc65ff1c	-0.014037874
54	0x3c9aaeca	0.018882174
55	0xbd1cc06f	-0.038269456
56	0x3d09b9fe	0.03362464
57	0x3cf3c0cb	0.029755017
58	0xbd22de3c	-0.03976272
59	0x3d1cabb8	0.0382497
60	0x3ceda3dd	0.0290088
61	0xbcdb5f5d	-0.026778871
62	0xbae0d66b	-0.0017153745
63	0xbb6dae4a	-0.0036267214
64	0xbc3a15a4	-0.011357699
65	0xbd3083b0	-0.043094337
66	0x3c3a1ae7	0.011358953
67	0xbc8182a8	-0.015809372
68	0x3cd340b4	0.025787689
69	0xbd311b33	-0.04323883
70	0xba1dbc1a	-0.0006017104
71	0xbcada4c9	-0.02119674
72	0x3c102317	0.008797429
73	0x3d1e58b8	0.038658828
74	0xbcd4d84f	-0.02598205
75	0xbd03a843	-0.03214289
76	0xbd1d4140	-0.038392305
77	0x3d3d4b5e	0.046214454
78	0x3cf525da	0.029925276
79	0xbcf873d2	-0.030328665
80	0x3d273a06	0.04082682
81	0xbd1bd9cc	-0.038049504
82	0xbb518206	-0.003196837
83	0x3d69775b	0.056998592
84	0xbc53b3cc	-0.012921285
85	0x3d008eb9	0.03138611
86	0x3d0f4e12	0.034986563
87	0xba914e50	-0.0011085961
88	0x3a808abb	0.000980697
89	0xbcb0fdb5	-0.021605352
90	0xb9da5b7e	-0.00041648367
91	0x3d3d5f4b	0.046233457
92	0xbc202db6	-0.009776523
93	0x3cc91a98	0.024548814
94	0x3952e9a2	0.00020114196
95	0xbd0a1ba2	-0.03371776
96	0xbc82478a	-0.015903253
97	0xbd00d3b9	-0.031451914
98	0x3ad7d62d	0.0016467028
99	0xbd0666a6	-0.032812737
100	0xbcc6dc60	-0.024275005
101	0xbc8a147b	-0.016855469
102	0xbc477b12	-0.012175338
103	0xbd255697	-0.04036578
104	0xbc7645ec	-0.015031319
105	0x3cecef18	0.028922603
106	0xbbe3ff49	-0.0069579226
107	0xbc16f49b	-0.009213592
108	0x3d0d7135	0.03453179
109	0x3b2b73c0	0.0026161522
110	0xb913d44d	-0.000140981
111	0x3c25c3be	0.010117469
112	0xbb954861	-0.0045557474
113	0xbce6464e	-0.028109696
114	0xbcbb7a16	-0.022885364
115	0xba4b69c3	-0.0007759595
116	0xbc9b1c82	-0.018934492
117	0xbd2b9182	-0.041886814
118	0x3c142b66	0.00904355
119	0xbcf5c7bd	-0.03000247
120	0xbacb5a01	-0.0015514494
121	0x3cea1e1b	0.028578809
122	0xba079b56	-0.0005172988
123	0xbd1359d8	-0.035974354
124	0xbd0a2fc0	-0.033736944
125	0x3c5f85f8	0.0136427805
126	0xbc6473fb	-0.0139436675
127	0xbc0a95d9	-0.008458578

deconv1.weight f4 [128, 64, 3, 3]
0	0xbd2b49be	-0.041818373
1	0x3af701f3	0.0018845185
2	0xbd4846ad	-0.048895527
3	0xbd2ff4b8	-0.04295799
4	0x3ccc05af	0.024905054
5	0xbd3b98da	-0.045800067
6	0xbc971971	-0.018444749
7	0xbcee88fe	-0.029118057
8	0xbc9658b5	-0.018352846
9	0x3c78940f	0.015172019
10	0x3abaac80	0.0014242083
11	0x3d76cc44	0.060253397
12	0x3c781184	0.015140895
13	0x3c1d4e9f	0.009601264
14	0x3d11d20b	0.035600703
15	0x3c2d782e	0.010587735
16	0xbcb57613	-0.022151029
17	0xbc2f51e5	-0.0107006775
18	0xbb5bb29a	-0.0033523203
19	0xbd45be3c	-0.048277125
20	0x3c9e21c8	0.019303218
21	0x3c6bcca1	0.014392049
22	0xbca28786	-0.019840013
23	0xbc920c34	-0.017828085
24	0x3d178279	0.036989663
25	0xbcd3d1f8	-0.025856957
26	0x3c2becf4	0.010493506
27	0x3d032bcf	0.0320242
28	0x3c9177b9	0.017757284
29	0xbc96421a	-0.018342067
30	0x3d0896fa	0.033347107
31	0x3c3bc88e	0.01146139
32	0xbd1c6652	-0.038183518
33	0xbcecc837	-0.028904064
34	0xbb1adc8a	-0.0023629987
35	0xbc533fdb	-0.012893642
36	0xbb680e61	-0.003540896
37	0x3c41440d	0.01179601
38	0xbd288461	-0.04114187
39	0xbd195ee9	-0.03744403
40	0x3d2263cd	0.03964596
41	0x3c7d8acf	0.015474989
42	0x3b9d4a02	0.004800082
43	0x3cd888e7	0.026432468
44	0x3d3028f6	0.043007813
45	0x3caa4e6a	0.020789344
46	0xbcc79802	-0.024364475
47	0xbd197d93	-0.037473273
48	0x3ce88952	0.028385792
49	0xbcbb6c15	-0.022878686
50	0xbd143756	-0.036185585
51	0x3ca63f59	0.020293878
52	0x3c624d5b	0.013812388
53	0x3c1e83e0	0.009674996
54	0xbca84f7a	-0.02054571
55	0xbd9c5cc9	-0.07634885
56	0xbdafc1ec	-0.085819095
57	0xbd95a2e6	-0.07306461
58	0xbd361138	-0.044450015
59	0xbd92c1ec	-0.07165894
60	0xbda2ee74	-0.079556376
61	0xbbb64823	-0.0055627986
62	0xbdbc2252	-0.091862336
63	0x3ccfcf29	0.025367336
64	0x3ceaed5c	0.028677635
65	0x3d7225d7	0.059118118
66	0x3c11596f	0.00887142
67	0x3d15ff6f	0.036620554
68	0x3d70904a	0.058731355
69	0x3d679d42	0.056546457
70	0x3cc43c14	0.023954429
71	0x3ba011a6	0.0048849164
72	0x3c6b48f1	0.014360652
73	0xba97b7e2	-0.0011575187
74	0xbc9f8ecf	-0.019477276
75	0xbd329910	-0.043603003
76	0x3ca4496c	0.020054542
77	0x3c56dd42	0.013114275
78	0xbd4f3dca	-0.050596036
79	0x3ca74583	0.020418888
80	0xbd481d87	-0.048856284
81	0xbd51df74	-0.051238492
82	0x3cb8516a	0.022499759
83	0x3caf99f5	0.021435717
84	0xbbb4246a	-0.005497505
85	0x3c6f8d40	0.014621079
86	0x3c9559b0	0.018231243
87	0xbc3a4e80	-0.011371255
88	0x3bafd270	0.0053656623
89	0x3cff52f5	0.031167487
90	0xbd543748	-0.051810533
91	0xbd2fcbb9	-0.042918894
92	0xbd30c030	-0.043152034
93	0xbd8c000a	-0.06835945
94	0xbc56870d	-0.013093722
95	0xbc656528	-0.014001168
96	0xbd4b8fdb	-0.04969774
97	0xbcaf9d48	-0.021437302
98	0xbcdda668	-0.027056888
99	0xbd884159	-0.06653089
100	0xbbb84d9d	-0.0056244866
101	0xbd05d1e2	-0.032670863
102	0xbd84ef4e	-0.06490956
103	0xbcafb728	-0.02144964
104	0xbd7d4d6f	-0.061841425
105	0x3bc1e8ae	0.00591763
106	0x3c6ba9a4	0.014383707
107	0xbd4a62ec	-0.049410746
108	0x3d2490da	0.040177204
109	0xbc073585	-0.008252506
110	0x3c4d50fb	0.012531514
111	0xbcf029cb	-0.029316803
112	0x3ca6975b	0.020335844
113	0xbc1184c9	-0.008881756
114	0x39e6e562	0.00044039922
115	0x3cef344f	0.029199747
116	0x3cae2d0c	0.021261714
117	0x3aa6ac96	0.001271623
118	0xbce1cb7f	-0.027562855
119	0xbd175837	-0.036949363
120	0x3d1f9ed8	0.038969845
121	0x3ccddc41	0.02512944
122	0xbd45bb4f	-0.048274335
123	0xbc758162	-0.014984461
124	0xbd083789	-0.033256087
125	0x3c5efb2d	0.01360969
126	0x3d261dd4	0.04055579
127	0xbcb648f8	-0.022251591
128	0x3d1ab92d	0.037774254
129	0x3d175363	0.03694476
130	0x3c88f05a	0.016716171
131	0x3c0c3628	0.008557834
132	0xbcba38fa	-0.022732247
133	0x3d3d1ccc	0.04617004
134	0xbcdf43f4	-0.027254082
135	0x3d2388de	0.03992545
136	0xbd15a901	-0.036538128
137	0x3d0de5fd	0.034643162
138	0xbbacd078	-0.005273875
139	0xbd26239b	-0.0405613
140	0x3d1f065d	0.038824428
141	0x3cb0ac14	0.021566428
142	0x3cc754cd	0.024332428
143	0xbd32abed	-0.043620992
144	0x3d38868f	0.0450502
145	0x3cec0791	0.028812202
146	0x3ce5e2e6	0.028062295
147	0xbc2aca15	-0.010424157
148	0xbc711a1f	-0.0147157
149	0xbd180e07	-0.037122753
150	0xb8a1ae27	-7.709517e-05
151	0x3c28c7d2	0.010301547
152	0xbd1fc6d8	-0.03900799
153	0x3c9d5f3d	0.019210452
154	0xbcf30a70	-0.029668063
155	0xbd04b7bc	-0.032401785
156	0x3bdf4c77	0.0068145352
157	0xbcdb08cd	-0.026737595
158	0x3d0e00ca	0.03466872
159	0xbcbb2e39	-0.02284919
160	0xbca164c7	-0.019701375
161	0xbc0b54ec	-0.008504134
162	0xbc12b3f0	-0.008954033
163	0xbd1751d3	-0.036943268
164	0xbce9a21a	-0.028519679
165	0x3c170e82	0.0092197675
166	0x3cdf7bc2	0.027280692
167	0xbb004e13	-0.0019577786
168	0x3d09c064	0.033630744
169	0x3bd541d8	0.0065080933
170	0x3c75e713	0.015008706
171	0xbc1a846d	-0.009430987
172	0x3bf3e932	0.0074435705
173	0x3ce0dfde	0.027450498
174	0xbcbda432	-0.023149583
175	0x3cb09df4	0.021559693
176	0x393eb842	0.00018188453
177	0xbd0ec73c	-0.034857973
178	0xbc099bb9	-0.008398944
179	0xbd03b3af	-0.03215378
180	0x3d072478	0.032993764
181	0x3be29aa0	0.0069154054
182	0xbcbe522f	-0.023232548
183	0x3be6099c	0.0070201885
184	0xbcfdc3e9	-0.030977206
185	0x3b879d90	0.004138656
186	0x3c80d56f	0.015726773
187	0xbc2c5655	-0.01051863
188	0xbd03ac86	-0.032146953
189	0xbc9b7f4a	-0.018981595
190	0xbc585000	-0.013202667
191	0xbc386eb1	-0.01125686
192	0xbbd6941f	-0.006548419
193	0x3a509d71	0.0007958031
194	0x3c5b8a6b	0.013399701
195	0x3d34f74d	0.044181157
196	0xbd00a471	-0.031406824
197	0xbc819d63	-0.015822118
198	0xbcad615b	-0.021164587
199	0xbd82d30f	-0.063879125
200	0xbd6972d8	-0.05699429
201	0xbd81ceba	-0.06338258
202	0xbd554738	-0.052069873
203	0xbd56a03b	-0.0523989
204	0xbd89d954	-0.06730905
205	0x3c2f1e39	0.010688358
206	0xbd653dac	-0.055967018
207	0x3c90d17c	0.017678015
208	0x3c9b20c5	0.018936524
209	0x3ce00020	0.02734381
210	0xbbd034ed	-0.0063539655
211	0xbcd01df9	-0.025404917
212	0x3cc97d6f	0.024595944
213	0x3c4579a0	0.012052923
214	0xbcf5e042	-0.030014161
215	0xbcbb1376	-0.022836428
216	0x3d25baf1	0.040461484
217	0x3d1c648f	0.038181838
218	0xbcea99a5	-0.028637717
219	0xbcbb32b7	-0.022851331
220	0x3b675f5c	0.0035304641
221	0x3d023283	0.031786453
222	0xbc368652	-0.011140423
223	0x3c4a3788	0.012342341
224	0xbc946887	-0.018116249
225	0x3c74f188	0.014950164
226	0x3cc971f6	0.024590474
227	0x3bc2f7f7	0.00594997
228	0x3d0e29a6	0.034707688
229	0xbc2b6a7a	-0.010462398
230	0x3d5231f6	0.051317178
231	0xbca03f38	-0.019561395
232	0x3bf2fafb	0.007415173
233	0xbc3fe0ce	-0.011711312
234	0x3d2c2491	0.04202706
235	0xbc9fa4a3	-0.019487685
236	0x3d18787e	0.037224285
237	0x3d2262c0	0.039644957
238	0xbd07d3e3	-0.033161055
239	0xbcb56e92	-0.02214745
240	0x3ce3a0ab	0.027786573
241	0xbd01d49c	-0.0316969
242	0xbc5f10da	-0.013614858
243	0xbc3fa986	-0.011698132
244	0xbc88f885	-0.016720066
245	0x3bef123a	0.007295874
246	0xbd0559af	-0.032556232
247	0x3bc2de9c	0.0059469473
248	0x3c266c99	0.010157728
249	0x3c8ed7d6	0.017436903
250	0x3cef0572	0.029177401
251	0x3c484551	0.012223558
252	0xbc3280a7	-0.010894931
253	0x3d217687	0.039419677
254	0x3bd27fa8	0.006423909
255	0xbd48ce6b	-0.04902498

deconv1.bias f4 [64]
0	0xbc6f08f5	-0.014589538
1	0xbd3d8ba1	-0.04627574
2	0x3d1d9fd9	0.03848252
3	0x3c829223	0.015938824
4	0x3d1a6b74	0.03770013
5	0x3b8b360e	0.004248387
6	0x3cf5e333	0.030015564
7	0x3cdfa459	0.027300047
8	0xbc751c81	-0.014960409
9	0x3d884fd1	0.06655849
10	0x3bb798e3	0.0056029423
11	0x3d3980ea	0.045288958
12	0x3d437fa7	0.04772916
13	0x3d83530d	0.06412325
14	0x3d39030e	0.04516893
15	0xbb888ffe	-0.004167556
16	0x3d344745	0.04401328
17	0x3ba07155	0.0048963227
18	0xbcb650a6	-0.022255253
19	0xbd27127a	-0.040789105
20	0x3ba87230	0.0051405653
21	0x3bfc0823	0.0076913997
22	0x3d2059ee	0.039148264
23	0x3d93f886	0.072251365
24	0xbd2d001a	-0.042236425
25	0x3cfdbf41	0.030974986
26	0xbbebf3dd	-0.0072007016
27	0x3d35bbce	0.044368558
28	0x3d65d6c4	0.05611302
29	0xbc869c8e	-0.016432073
30	0xbc52df12	-0.012870567
31	0x3d836eb8	0.06417602
32	0x3d2b0b6a	0.041758932
33	0x3d273f2b	0.040831726
34	0x3cadad25	0.021200726
35	0x3d1fed54	0.039044693
36	0xbd2d50cc	-0.042313382
37	0x3d20cae0	0.039255977
38	0x3ca52a2d	0.020161713
39	0x3d4b70db	0.049668174
40	0x3d269972	0.04067368
41	0x3d4f98d1	0.050682846
42	0xbc8e4c1a	-0.017370272
43	0xbce56e52	-0.028006706
44	0x3d2d723b	0.042345267
45	0xbc535a37	-0.012899927
46	0x3b9348a9	0.0044947457
47	0xbc97910d	-0.018501783
48	0xbae7947d	-0.0017668154
49	0xbd08f69c	-0.03343831
50	0x3d79664f	0.060888585
51	0x3d57ae38	0.052656382
52	0xbc81ad9e	-0.015829857
53	0x3d63a725	0.055579323
54	0x3cbacf32	0.022803877
55	0x3cb06d42	0.021536473
56	0x3c0f4d30	0.00874643
57	0x3caf9971	0.021435471
58	0x3d6548da	0.05597768
59	0xbd379820	-0.044822812
60	0xbd146bf6	-0.036235772
61	0xbc3f67d8	-0.011682473
62	0x3c971089	0.018440502
63	0x3d5b9d70	0.05361694

deconv2.weight f4 [64, 64, 3, 3]
0	0x3d042042	0.032257326
1	0xbd104ecc	-0.035231397
2	0xbc181373	-0.009281981
3	0x3cddcd90	0.027075559
4	0x3cd0022e	0.025391664
5	0x3c941a11	0.018078836
6	0xbd04235c	-0.032260284
7	0xbc2de007	-0.010612494
8	0x3c1bdc45	0.009512966
9	0x3bfddb33	0.007747078
10	0xbd050f62	-0.032485373
11	0x3b09ebe3	0.002104514
12	0xbcd2d801	-0.025737764
13	0xbd2a7616	-0.04161652
14	0xbd0993bf	-0.033588167
15	0xbcaf1077	-0.021370156
16	0x3c9c90c8	0.019112006
17	0xbbe165e5	-0.006878602
18	0x3d02ba7a	0.03191612
19	0x3cfc1d32	0.03077564
20	0x3d0a3b91	0.033748213
21	0x3c7bdeba	0.015372926
22	0xbcee46e1	-0.029086532
23	0xbb16c57d	-0.0023005896
24	0x3d0e046a	0.03467218
25	0x3c91937c	0.017770521
26	0xbd0d818a	-0.034547366
27	0xbc9f79a9	-0.019467192
28	0xbcc121b0	-0.023575634
29	0x3d1a79d8	0.037713856
30	0x3d09d179	0.033647034
31	0xbbc7be25	-0.006095665
32	0x3d0442b6	0.032290183
33	0x3d33ddc1	0.043912653
34	0xbccb5e41	-0.024825217
35	0xbc43d51a	-0.011952663
36	0xbd08d8f0	-0.033410013
37	0x3d10f275	0.035387475
38	0xbc4207c4	-0.011842672
39	0xbc43bcc6	-0.011946863
40	0x3d1422e2	0.03616608
41	0x3cbd168e	0.023082044
42	0xbaccbfe3	-0.0015621152
43	0x3d13bd02	0.036068924
44	0x3cfc4b58	0.030797645
45	0x3d2eeb6a	0.042704977
46	0x3d37e7a7	0.044898655
47	0x3c8e50fa	0.017372597
48	0x3b8139dd	0.0039436654
49	0x3d10bc25	0.03533568
50	0xbc0159f9	-0.007894986
51	0x3d147f7d	0.036254395
52	0x3d204438	0.03912756
53	0x3d384c9a	0.044994928
54	0xbc971d1c	-0.018446498
55	0x3bbdfc7d	0.005797921
56	0xbb926c34	-0.004468465
57	0x3cd5ec5d	0.026113683
58	0xbcae5e91	-0.021285327
59	0x3be48d3a	0.0069748433
60	0xba110632	-0.0005532234
61	0x3b899f29	0.0041998816
62	0x3b8bba37	0.004264142
63	0xbc74c172	-0.014938699
64	0xbccf6d51	-0.02532068
65	0xbcc241da	-0.023713041
66	0xbc0509f5	-0.00812005
67	0x3c90b5c9	0.017664807
68	0x3cfcced0	0.030860335
69	0xbc588620	-0.013215572
70	0x3cc08da9	0.023505049
71	0x3d00bdf6	0.03143116
72	0x3c1fd5a8	0.009755529
73	0x3d26e099	0.040741537
74	0x3cb9545e	0.022623237
75	0xbd0d216d	-0.034455705
76	0xbd23a0c8	-0.039948255
77	0x3d202f4a	0.0391076
78	0x3a9d5167	0.0012002409
79	0x3cb45b5c	0.02201622
80	0xbc404578	-0.011735313
81	0xbc897a71	-0.016782017
82	0xbc7a3f68	-0.015273906
83	0x3c9a1f30	0.0188137
84	0xbc07ce8a	-0.008288989
85	0x3c966b9c	0.018361859
86	0xbcda082a	-0.026615221
87	0xbc8fd0b7	-0.017555578
88	0x3ca083df	0.019594131
89	0x3cb3f83d	0.021968955
90	0x3a17cf00	0.0005791038
91	0xbd2a1f2b	-0.04153363
92	0x3cbf982c	0.02338799
93	0x3d1a6262	0.03769148
94	0xbcf9b11b	-0.030479958
95	0x3d15e31f	0.036593553
96	0x3c707d4f	0.014678313
97	0x3c9fb51d	0.019495541
98	0x3ca993e3	0.0207004
99	0xbc837b22	-0.016049925
100	0x3c87df32	0.01658592
101	0xbbb9e3a4	-0.005672889
102	0x3ce8375e	0.028346714
103	0x3c58e5d1	0.013238386
104	0x3d36bc9d	0.04461347
105	0xbc57e261	-0.0131765315
106	0x3d5a42b5	0.053286273
107	0x3d174c86	0.036938213
108	0x3d10671a	0.035254575
109	0x3d037856	0.032097183
110	0x3cf19c61	0.029493513
111	0xba56bfe3	-0.00081920455
112	0xbc9f5182	-0.019448046
113	0xbcf5a08f	-0.029983787
114	0x3c167f7b	0.009185667
115	0xbbf186b7	-0.0073707956
116	0xbcbb2e40	-0.022849202
117	0xbc899c15	-0.016798059
118	0x3cd37814	0.025814094
119	0x3b569e96	0.0032748333
120	0xbac94444	-0.0015355428
121	0xbd178cc0	-0.036999464
122	0x3d248cb0	0.040173233
123	0xbcd97f1e	-0.026549872
124	0x39004a0b	0.00012234614
125	0xbd144879	-0.036201928
126	0xbd0a2215	-0.03372391
127	0xbd00e5f6	-0.031469308
128	0x3d12b01d	0.035812486
129	0xbcfd39ac	-0.03091129
130	0xbc0e7de4	-0.008697007
131	0x3a1e7b05	0.0006045553
132	0x3c34a862	0.011026474
133	0x3cb7272a	0.022357542
134	0x3d0aa881	0.033852104
135	0xb8a07984	-7.6520286e-05
136	0xbc51851e	-0.012788085
137	0x3b63af18	0.0034741815
138	0x3c6afe88	0.014342912
139	0x3c585c87	0.013205654
140	0xbceb4c11	-0.028722795
141	0xbb1a68ad	-0.0023560927
142	0x3c0ba12a	0.008522311
143	0xbcdffe52	-0.027342949
144	0xbc21e1db	-0.009880508
145	0xbabcac8c	-0.0014394685
146	0xbcee48d1	-0.029087456
147	0x3d187414	0.037220076
148	0xbcf9cb21	-0.030492367
149	0x3cb82dc2	0.022482757
150	0x3ce4f0b1	0.027946802
151	0x3cb70a0f	0.022343663
152	0x3ce1558b	0.02750661
153	0xbba6ab7f	-0.005086362
154	0xbd026281	-0.031832222
155	0xbd05dde9	-0.032682333
156	0x3cee77e5	0.029109905
157	0xbcb87ae9	-0.022519546
158	0x3c96d5ed	0.018412555
159	0x3be3b2f6	0.006948824
160	0x3c59abe1	0.013285608
161	0x3c5b7d12	0.013396518
162	0x3d2aa9e0	0.04166591
163	0xbd0603f0	-0.0327186
164	0x3c0a238a	0.008431325
165	0x3cc65280	0.024209261
166	0x3d0effb9	0.034911845
167	0xbd0cd7bb	-0.034385424
168	0xbcbed924	-0.0232969
169	0x3d09516c	0.033524916
170	0xbcbc47fb	-0.022983542
171	0x3c190d46	0.009341544
172	0x3d3831eb	0.04496948
173	0x3d1505c3	0.036382448
174	0x3ce43309	0.027856367
175	0x3d472dc1	0.04862762
176	0x3b939c64	0.004504727
177	0x3c94a7c4	0.018146403
178	0x3cfc6ea6	0.03081448
179	0x3d6bb2ad	0.057543445
180	0x3d27a494	0.04092844
181	0x3c72325c	0.014782514
182	0x3cb37211	0.021904977
183	0x3d22ce47	0.039747503
184	0x3c8aa809	0.016925829
185	0xbce64010	-0.02810672
186	0xbd019f08	-0.031645805
187	0xbc983b61	-0.018583002
188	0xbb6e1ffd	-0.0036334984
189	0xbcbe751a	-0.023249198
190	0x3caf3448	0.021387234
191	0x3c08ac10	0.008341804
192	0xbc8a2371	-0.016862603
193	0x3c0eee5d	0.008723822
194	0x3b235333	0.0024921417
195	0x3d3f1eee	0.046660356
196	0x3cd2f4ef	0.025751559
197	0xbc7ad419	-0.015309357
198	0xbb65c3f5	-0.0035059426
199	0xbbda4017	-0.006660472
200	0xbc9426d4	-0.018084921
201	0x3d3da9ce	0.046304516
202	0x3cd38896	0.025821965
203	0x3c8ecf1f	0.017432747
204	0x3c87a940	0.016560197
205	0xbca783db	-0.020448616
206	0x3c6d24f3	0.014474141
207	0xbd303c71	-0.04302639
208	0x3bfca274	0.0077097956
209	0xbbfb1163	-0.007661985
210	0xbd088e57	-0.03333887
211	0xbceb1296	-0.028695386
212	0x3d233900	0.03984928
213	0x3c8b5888	0.017009988
214	0xbbb935bb	-0.005652157
215	0xbcfd5f58	-0.030929253
216	0x3cb21cf8	0.021742329
217	0xbc905743	-0.017619735
218	0xbae76131	-0.0017652867
219	0xbd131037	-0.035904136
220	0xbd1727eb	-0.036903303
221	0xbce38959	-0.027775453
222	0x3c642375	0.013924469
223	0x3ce02b1a	0.027364302
224	0xbc07e866	-0.008295154
225	0x3c93646a	0.017992217
226	0xbc81adf1	-0.015830012
227	0x3d30fa3d	0.043207396
228	0x3c7a22e5	0.015267109
229	0x3d0bcb13	0.034129214
230	0xbc7f6d7a	-0.015590066
231	0xbcda5e52	-0.026656304
232	0x3d2c653c	0.042088732
233	0x3b6a9e3e	0.0035799886
234	0x3cee54e8	0.02909322
235	0xbccb6d7c	-0.02483248
236	0xbce921d4	-0.028458513
237	0xbd0a713f	-0.033799406
238	0xbc39d236	-0.011341622
239	0xbd345b13	-0.044032168
240	0xbd10a22c	-0.03531091
241	0x3d016262	0.031587966
242	0xbcfaee33	-0.03063116
243	0x3c7ab6f7	0.015302411
244	0x3c8d9829	0.01728447
245	0x3ca06f8f	0.019584445
246	0x3c25940b	0.010106097
247	0x3c0bc1d4	0.008530099
248	0xbc8d9c0a	-0.01728632
249	0x3b60ea1d	0.003431923
250	0x3c3175de	0.010831324
251	0xbc3b20fd	-0.011421439
252	0xbc65d2cf	-0.0140273115
253	0xbb67540c	-0.0035297899
254	0xbc960bde	-0.018316206
255	0xbd2513bd	-0.040302027

deconv2.bias f4 [64]
0	0x3c35c97a	0.011095399
1	0xbd81c44a	-0.06336267
2	0x3cc5dc3e	0.024152871
3	0xbd284041	-0.041076902
4	0xbc3ff115	-0.011715193
5	0xbd067cf8	-0.032834023
6	0x3d66da18	0.056360334
7	0x3d90d363	0.07071569
8	0xbd84db61	-0.06487156
9	0x3dc1a38d	0.09455023
10	0x39a65cde	0.0003173118
11	0x3c710f73	0.014713156
12	0x3c5054be	0.012715517
13	0xbcc05054	-0.023475803
14	0x3d166c68	0.036724478
15	0x3d1c3cbe	0.038143866
16	0xbcb4f4e1	-0.022089424
17	0xbd9a3785	-0.07530121
18	0x3c5b59dd	0.013388124
19	0xbbee78cf	-0.007277585
20	0x3d96eb83	0.07369139
21	0xbc549dc8	-0.012977071
22	0xbddfd781	-0.10929776
23	0x3c6f8f45	0.01462156
24	0x3d51f1ef	0.051256116
25	0x3d242fb3	0.040084552
26	0x3d4d0a1b	0.050058465
27	0xbc35d166	-0.011097288
28	0x3d8ff255	0.07028643
29	0xbddda690	-0.10822785
30	0x3da3c14f	0.07995855
31	0xbd789bd4	-0.060695484
32	0xbc7691c0	-0.015049398
33	0xbcfab449	-0.030603545
34	0x3d79dbd6	0.061000668
35	0xbcb37eff	-0.021911142
36	0x3ca3797c	0.01995539
37	0xbd9f77b9	-0.07786507
38	0xbcfc718d	-0.030815864
39	0x3c09f61d	0.008420494
40	0x3d77251d	0.06033813
41	0xbdd8644f	-0.10566007
42	0xbcf19dfa	-0.029494274
43	0x3dab6e7a	0.08370681
44	0xbd5971a0	-0.053086877
45	0x3d886aca	0.066609934
46	0x3cd337aa	0.025783379
47	0xbd9303b4	-0.07178441
48	0xbdd52b56	-0.10408656
49	0x3d20a5c3	0.039220583
50	0xbdbd994d	-0.092577554
51	0x3d97b089	0.07406718
52	0xbd964bc6	-0.073386714
53	0xbd69e4bc	-0.057102904
54	0x3d905e0e	0.070491895
55	0x3d771a7b	0.060327988
56	0xbca1289c	-0.019672684
57	0xbd9f98c1	-0.07792807
58	0xb9c54374	-0.00037625025
59	0x3d22b321	0.039721612
60	0x3d44382b	0.04790513
61	0xbaa8071f	-0.0012819505
62	0x3d32624b	0.04355077
63	0x3c88ba1a	0.016690303
