contrastive_save_archive/contrastive_weights_epoch_20.pt (torch, 749116 bytes, 8 tensors)

conv1.weight f4 [64, 3, 3, 3]
000000 a8 30 1a 3e 82 02 e4 3d a6 81 2e 3e 2c 20 2a 3c
       0.15057623 0.11133291 0.17041644 0.010383647
000010 55 d2 d6 bd 01 b5 b4 3c 0c 93 2f 3e e1 4c da bd
       -0.104893364 0.022058966 0.17145938 -0.10659195
000020 fb 30 3e be 7b 20 d7 3d 61 43 0d be 83 74 ca bd
       -0.18573372 0.10504242 -0.13795234 -0.09885504
000030 ae 12 e3 bc 98 8e 18 3e 69 7d 36 be 73 c9 d4 3c
       -0.027718868 0.14898145 -0.17821278 0.025974965
000040 b3 a3 cd bb 93 5e 1d be cd cc fc bb 58 03 2f 3e
       -0.006275618 -0.15368108 -0.007714844 0.1709112
000050 2d cf 22 3c 48 d3 b6 3d c8 fa 65 bd 82 96 06 bd
       0.00993709 0.089270175 -0.056147367 -0.03285838
000060 3e 14 dd 3d b5 45 c0 3d 69 0d 16 be ce da 8d bd
       0.107948765 0.093882956 -0.14653553 -0.06926499
000070 f1 4e 86 3c 0c 73 99 3d df c4 38 3d 57 ab bc 3d
       0.016395064 0.074926466 0.045109626 0.09212368
000080 d4 fe 01 3e f0 e8 03 3e 80 7f cd bd c6 08 18 3e
       0.12694865 0.12881827 -0.10034084 0.14847097
000090 16 d6 be bc d6 9e 91 bd 90 bd 37 be 77 67 4c 3d
       -0.023295444 -0.07110374 -0.17943406 0.04990336
0000a0 32 9b 72 bd 31 28 2d be fc da 11 3e 44 d3 e4 bb
       -0.059230037 -0.16909863 0.14243692 -0.0069831926
0000b0 81 61 43 be 52 83 42 3d 03 e4 0d bc fb 7a e7 3d
       -0.19080164 0.047488518 -0.008660319 0.113027535
0000c0 82 3f 18 be 73 8e 11 3e e1 78 0c 3e f1 be d5 bd
       -0.14867976 0.14214496 0.13717987 -0.1043681
0000d0 8a a9 3f 3e a5 4d 1f be 65 eb 20 3e 43 1a 08 3b
       0.18717018 -0.15556963 0.15714796 0.0020767606
0000e0 0a 3f 48 be 66 3a fd 3c b2 72 02 3e d9 b8 00 be
       -0.19555297 0.030911636 0.12739065 -0.12570514
0000f0 2a 5b f3 3d bd 05 da 3d 58 b8 36 be 63 41 0e be
       0.118826225 0.10645626 -0.17843759 -0.1389213
000100 c6 6e 05 be b3 93 07 be e8 44 0e 3e 6c 07 29 3e
       -0.13030538 -0.13239937 0.13893473 0.16506737
000110 94 19 d0 bd ee e3 f9 3b ea e2 e2 3d c0 b4 f3 3d
       -0.10161129 0.0076260483 0.11078437 0.1189971
000120 e0 9d dc bd 66 15 cb bd 5b 25 4f bd 5c eb 81 bb
       -0.107723 -0.09916191 -0.050572734 -0.0039648246
000130 09 23 9e 3d e3 ee 65 3c 15 7f ba bd da 83 52 3e
       0.07721526 0.014034006 -0.0910627 0.2055811
000140 e5 e0 dd bc 20 84 2e be b6 9b 19 be 99 b6 19 be
       -0.027084777 -0.17042589 -0.15000805 -0.15011062
000150 b4 12 33 3e 1f f7 9b 3d b5 cf 4f 3d ac 44 08 3d
       0.17487603 0.07615494 0.050735194 0.033268616
000160 eb 59 3f 3e 43 bb 89 bd 6e fc 01 be dc 99 45 be
       0.18686645 -0.067251705 -0.1269395 -0.19296974
000170 8e 00 10 bd 9e 65 25 3e 24 cf 32 bd c1 c4 f1 3d
       -0.03515678 0.16152045 -0.043654576 0.11805106
000180 94 3a d1 3d ef 8f 24 be 22 77 47 3e c7 e7 22 be
       0.10216251 -0.16070531 0.1947904 -0.15908729
000190 9c 67 7b 3d 2c b4 e4 bd fe 01 c5 3c 37 16 32 3e
       0.061378106 -0.111671776 0.024048802 0.17391287
0001a0 b6 0b 2e 3d 2c 46 1b 3e 61 8a 18 be fa ed da bc
       0.042491637 0.15163487 -0.14896537 -0.026724804
0001b0 fb 9b 4a be a1 b9 b2 3d d3 a3 5d be 8d f8 2f be
       -0.19786064 0.08726812 -0.21644525 -0.17184658
0001c0 24 8f 3e be 43 31 09 3d 9e 95 d0 bd f9 eb b6 bb
       -0.18609291 0.033494245 -0.10184787 -0.0055823294
0001d0 f1 b7 45 be c3 eb 23 be 73 c5 2d 3e 68 bc cb 3d
       -0.1930845 -0.16007905 0.16969852 0.09948045
0001e0 cb 9b e5 bb 7d f8 8d bc 30 f0 27 be 19 19 13 3c
       -0.0070070974 -0.017330403 -0.16400218 0.008978152
0001f0 06 ec 24 3c 9d 8f cb 3d 27 2f 54 be 00 7b 4e be
       0.010066038 0.099395014 -0.20721112 -0.20164108
000200 7f df d1 bd d6 f1 14 3d 3b d7 ca 3c bb eb 37 be
       -0.102477066 0.036363445 0.024760833 -0.17961018
000210 bc 1c 31 bd 56 bc 51 3b 1c f9 fa 3d 20 4d 0d bd
       -0.043240294 0.0032003126 0.12254545 -0.03449738
000220 7d 61 85 3d 8e 94 2b 3e 89 88 c3 3c ac 60 d6 bd
       0.06512735 0.16755888 0.023868816 -0.104676574
000230 5a 2b fc 3d f0 c6 28 be 49 6d 1c 3e 2b 3d 07 3d
       0.12312956 -0.16482139 0.15276064 0.03301732
000240 70 f0 ca bd 2c d3 34 bd 30 17 ac 3d 24 01 ce 38
       -0.09909141 -0.0441467 0.0840286 9.823058e-05
000250 2b f5 bc bc 61 82 44 bd 22 4f 1c 3e c4 b3 14 3e
       -0.023066124 -0.0479759 0.15264562 0.145217
000260 a9 44 14 3e d9 40 19 be 0a 46 15 be 83 27 12 3d
       0.14479317 -0.14966144 -0.14577499 0.035682213
000270 cd e1 73 3d 3f ae a8 bd 86 0c 0f 3d 94 2d 00 be
       0.059541512 -0.0823636 0.034924053 -0.12517387
000280 1e 7d 4f bc 3e 08 5c 3d d7 44 b0 bd fc 31 36 be
       -0.012664108 0.053718798 -0.0860688 -0.17792505
000290 ef 3d 43 be 01 fc 36 3d aa 3e 43 3d f4 80 01 3d
       -0.19066595 0.044673923 0.047667183 0.03161712
0002a0 02 26 ae 3d 87 eb a9 bd ab ed 47 bc be 7b 32 3e
       0.08503343 -0.082968764 -0.012202661 0.17430016
0002b0 9b 0b 10 3d 29 ff 16 be 7a 26 4f be 75 e8 ce 3c
       0.035167318 -0.14745773 -0.20229521 0.025257329
0002c0 b2 3f f2 3d d0 75 3f be ea 77 1a 3c c3 09 1f 3d
       0.11828555 -0.18697286 0.009428004 0.03882767
0002d0 45 8a 82 bd 74 eb 10 3e a0 5c 41 be 52 fd 25 3e
       -0.06374029 0.14152318 -0.1888299 0.16209915
0002e0 0c 99 06 bd 62 38 48 3a 48 90 c1 3d ad 6c 5a 3c
       -0.0328608 0.0007637796 0.094513476 0.013331574
0002f0 87 f3 be 3d 9f fb 3b be 52 4e 41 3e af 8e b5 3c
       0.09323793 -0.18357705 0.18877533 0.022162763
000300 70 f1 09 bd 0a 7e 46 be 57 c4 e5 bd 73 d0 29 be
       -0.03367752 -0.19384018 -0.112190895 -0.16583423
000310 42 81 f3 3d a5 85 18 ba bd df 00 3e 91 b9 2d 3d
       0.11889888 -0.00058182544 0.1258535 0.042413298
000320 d7 50 31 3d ed 61 c3 3d 58 07 44 3e ef 15 d9 3b
       0.043289986 0.09540162 0.19143426 0.006624929
000330 8d f8 03 be 98 b6 3e 3e df e5 2c 3e 25 40 19 3e
       -0.12887783 0.18624341 0.16884564 0.14965875
000340 b5 fd 32 be 67 3e 03 be 00 0f f7 3d 8a a8 10 3e
       -0.17479594 -0.12816773 0.12063408 0.14126793
000350 20 10 2c bd 00 e6 b6 3c 38 19 21 be 8e f2 c0 bd
       -0.042007565 0.02232647 -0.15732276 -0.09421264
000360 a9 62 fa bd 09 7d 97 3d 83 15 41 3e b7 7e be 3d
       -0.12225849 0.073968954 0.18855862 0.09301513
000370 a2 c1 c0 3d ad 6e e4 bd d3 53 7f bd e5 0b 12 be
       0.094119325 -0.11153922 -0.0623358 -0.1426235
000380 c3 84 43 be db af 0b be 9d 57 7b 3d 96 a1 83 3d
       -0.19093613 -0.13641302 0.06136285 0.064273044
000390 e2 32 fa 3d 10 ee a6 bd 0d e3 f2 3d d1 40 06 3e
       0.122167364 -0.081508756 0.11859713 0.13110663
0003a0 79 9f c7 bc 97 58 1d 3e 32 c6 d1 bd 0b 4b 3a 3d
       -0.024368035 0.15365826 -0.10242881 0.045481723
0003b0 cf 46 16 be 1a f3 90 bd 5d 65 3c 3e fb 02 7b bd
       -0.14675449 -0.07077618 0.18398042 -0.06128214
0003c0 d5 81 46 3e b6 2c c1 bd 0f 04 05 be 72 5a f2 bb
       0.19385464 -0.09432356 -0.1298983 -0.007396036
0003d0 70 23 90 3d ff e2 ac 3c 58 94 e7 3d 8c d0 3f be
       0.07038009 0.021104334 0.11307591 -0.18731898
0003e0 92 51 da 3c 03 2b 26 3d 03 36 13 3e 40 c8 dc bd
       0.026650224 0.040568363 0.14376073 -0.10780382
0003f0 59 b1 a3 b8 78 4a 1a bd 05 ab 4a be a1 8b 00 bc
       -7.805479e-05 -0.037668675 -0.19791801 -0.00784579

conv1.bias f4 [64]
000000 8a 22 d6 bd 0d dd ba bd f7 e5 0f bd 67 02 2f 38
       -0.104558066 -0.09124193 -0.03513142 4.172549e-05
000010 15 54 99 3d 95 72 42 be 8e df 04 3e be 95 1e be
       0.074867405 -0.18989022 0.12975904 -0.1548681
000020 22 14 c2 bd 97 b3 bb 3d 02 ef a2 bd 92 8a d5 3d
       -0.09476496 0.091651134 -0.07955743 0.10426821
000030 f8 f7 d4 3c b5 36 14 3e 65 73 8a bd 3a fd ca 3b
       0.025997147 0.14473994 -0.06760291 0.0061947377
000040 cc 64 ab 39 28 0c 3a bd 94 3e 41 be fb 2d f3 3d
       0.0003269076 -0.04542175 -0.18871528 0.118740045
000050 c2 02 be 3d d2 b8 a4 bd 9b e6 54 be 86 ef b6 3d
       0.0927787 -0.08043064 -0.20791094 0.08932404
000060 19 7b 1e 3e 09 fa 67 3d 2d fe 0c be d9 75 8d 3d
       0.15476646 0.056634936 -0.13768835 0.06907243
000070 28 b7 29 3d e4 31 09 3d 68 4b 0a 3e 19 67 4d be
       0.041434437 0.033494845 0.13505328 -0.2005886
000080 17 8b 03 bd c0 93 8c bd 01 e7 b7 3d f1 98 d6 bd
       -0.03211507 -0.068641186 0.089796074 -0.1047839
000090 d2 c1 be 3d a6 43 80 3d f7 19 54 bd 55 bf e8 bd
       0.09314312 0.06262903 -0.051782575 -0.11364619
0000a0 95 ec 17 ba f2 15 51 be 7a d2 cc 3b bc 69 14 3c
       -0.00057954463 -0.20418528 0.0062506767 0.009058412
0000b0 16 11 6d 3c be 1e 5e 3b 2c 53 bd bd 14 60 21 39
       0.014469406 0.0033892835 -0.092443794 0.00015389948
0000c0 19 09 cf bc c3 3c 54 3c 12 e8 9d bd fb 6b ba 3a
       -0.025272893 0.01295394 -0.077102795 0.0014222855
0000d0 55 c2 b1 3d da 13 6c 3d 96 25 ee 3d 48 2f 64 3d
       0.08679644 0.05763612 0.11628263 0.055709153
0000e0 66 51 42 bd bc f0 74 3c 4e 60 be bd bf 50 a4 3c
       -0.04744091 0.014949974 -0.092957124 0.020058034
0000f0 32 9a c5 b7 bc 01 fe 3d 94 69 e6 3a 4b 6a ac bd
       -2.3556033e-05 0.124026746 0.0017579072 -0.08418711

conv2.weight f4 [128, 64, 3, 3]
000000 92 1c fc 3c f3 b6 21 bd 57 d0 ca bc 0b 43 3c 3c
       0.030775342 -0.039481115 -0.024757547 0.011490594
000010 08 b5 1a bd c6 b8 5a bd 8e ef ce 3c e5 e9 c0 3b
       -0.0377703 -0.05339887 0.025260713 0.0058872574
000020 04 48 bd bb 21 b1 56 bd 70 24 60 bd 3e c2 8b bd
       -0.005776407 -0.052415017 -0.05472225 -0.06824158
000030 78 92 57 bc 27 18 79 bd dc cd 14 bd 76 44 eb bc
       -0.013157479 -0.06081405 -0.036329135 -0.028719168
000040 b2 a3 54 bd fa df 89 bd 6f 77 0e bd 76 cf 86 bd
       -0.051913925 -0.06732173 -0.03478187 -0.06582539
000050 03 66 ee bd b7 43 8a 3c 98 b1 ac bc 37 22 34 3b
       -0.11640551 0.016877992 -0.021080777 0.0027486214
000060 ef a7 d5 3c 18 30 c0 bc 29 85 1a bd d5 f9 61 3d
       0.026081054 -0.023460433 -0.037724648 0.0551699
000070 a5 5a 05 3d 9e 4d 90 3d b3 fd 97 3d 83 25 8d 3d
       0.03255715 0.07046054 0.07421436 0.068919204
000080 e7 46 a6 3d 57 39 7b 3d 34 92 09 3c fc b7 92 3d
       0.08118992 0.06133398 0.008396674 0.071639985
000090 a4 b1 09 3d d2 1e cb 3b 93 ba ee 3b 44 e0 1b bc
       0.033616677 0.0061987424 0.007285425 -0.009513918
0000a0 ee 57 25 bc f3 33 6a bb 83 8c 05 bd d5 08 04 bd
       -0.010091765 -0.003573653 -0.032604706 -0.032234985
0000b0 91 86 5b bd f4 d1 5d bc a8 a7 36 bd 67 7d 1b bc
       -0.05359513 -0.013538826 -0.044593483 -0.0094903475
0000c0 38 4e b3 bc 1c 58 f5 3c 1a 0c 40 3c 19 0e 05 bd
       -0.021887884 0.02994924 0.011721635 -0.032484148
0000d0 43 27 ab bc 47 59 48 bc 74 56 ff ba b3 bd c9 bc
       -0.020892745 -0.012228317 -0.0019480721 -0.024626588
0000e0 85 43 3b 3d 2b fa 27 3d c8 77 d4 bc bb d0 32 3d
       0.04571869 0.041010063 -0.025936022 0.043656092
0000f0 f5 00 79 3b 07 66 89 bc 14 bb 08 3d 6b 9c cf 3c
       0.0037994955 -0.016772283 0.033381537 0.02534314
000100 67 1f 11 bc 1c c5 4f bd 8c fa f9 bb 32 af 71 3c
       -0.008857585 -0.050725088 -0.0076287445 0.0147512425
000110 27 68 21 bd bf cc 09 bd 2d 72 6d bb 90 f6 20 bd
       -0.039405968 -0.033642527 -0.0036231384 -0.03929764
000120 a2 16 eb bc 66 e3 fd bb e7 bc b0 bc dc 1d 9b bc
       -0.028697316 -0.0077480553 -0.02157445 -0.018935136
000130 0c 31 97 ba 03 13 8b bd a5 c9 04 bd f4 e4 85 bd
       -0.0011535003 -0.067907356 -0.032418866 -0.0653781
000140 2a 43 a4 3b 23 44 a3 3c 7d 68 34 bd 47 f4 97 bc
       0.0050128894 0.019929951 -0.04404496 -0.018549098
000150 56 54 15 bd ae a0 37 bd d0 5a 61 3b 26 5d 98 3c
       -0.036457382 -0.04483097 0.0034386404 0.018599104
000160 77 40 2d bd 12 6e 24 bd 16 de f1 3c 58 9b 1a bd
       -0.042297807 -0.040144034 0.029524844 -0.037745804
000170 b2 eb 89 bc 67 28 37 bd 00 61 2d bd 7a 73 2a 3c
       -0.016836021 -0.044716265 -0.042328835 0.010403508
000180 3e 95 45 bb b0 d2 8d bb a9 bb c3 3a 86 b4 13 bd
       -0.003014877 -0.0043280944 0.0014933246 -0.036060832
000190 f8 c4 4a bd bb 3f 9b bd 23 0b 59 3b 7d 5e 00 bd
       -0.04950425 -0.07580515 0.003311821 -0.03134011
0001a0 cd f0 5b bb e3 a4 d5 bc 91 51 b6 bc a7 1b 96 bc
       -0.0033560276 -0.0260796 -0.02225569 -0.018323733
0001b0 f7 8c 8f 3c 77 24 25 3c cc 36 98 bc 00 5d 9f 3c
       0.017523272 0.010079495 -0.018580817 0.019453526
0001c0 84 ab 1f 3b a4 4f 82 bc 72 73 50 3c 63 8c 28 bc
       0.0024363706 -0.015907116 0.012722837 -0.010287377
0001d0 d9 74 4c 3c 5c 0d 3f bc 2e 18 95 3c d5 b3 11 bc
       0.0124790305 -0.0116609 0.018200006 -0.008892973
0001e0 de 22 fb ba da 47 93 3b 8d 1b c9 bc 2e 76 04 bd
       -0.0019160172 0.0044946494 -0.02454927 -0.032339267
0001f0 70 92 52 bd dc b5 47 bc ee a7 bd bc 98 51 d7 3b
       -0.051409185 -0.012189355 -0.023151364 0.006571006
000200 11 8b d2 bc c7 58 85 3c 58 90 90 3c f1 8b 04 3d
       -0.025701078 0.016277684 0.017646953 0.03236002
000210 4f af 32 bd 48 da f1 3c 7e c3 83 bc d1 0e 6b 3d
       -0.04362422 0.02952303 -0.016084429 0.057387177
000220 a2 42 d5 3c 25 3e 7a 3c 2f 56 5e 3c 20 fd 6c 3d
       0.02603275 0.0152736055 0.013570352 0.057858586
000230 29 4e a6 3c 4e b7 ed 3c 89 1f e3 bc c9 b4 85 3c
       0.020300942 0.02901807 -0.027724998 0.016321557
000240 e9 1d 81 bd 40 4d 80 bd 6f 5a ff bd 7a 30 c4 bd
       -0.06304533 -0.06264734 -0.12468421 -0.09579559
000250 eb 16 a0 bd a3 77 a9 bd d9 32 6e bd 9d c2 ed bd
       -0.07816871 -0.08274772 -0.05815396 -0.11609385
000260 ec 5b df bd a9 ad af bd 51 46 1f bd 30 56 db bd
       -0.109062046 -0.08578045 -0.03888542 -0.10709798
000270 b5 b0 a8 bd 97 11 b3 bd 47 cc 9e bd c7 9e 9f bd
       -0.08236829 -0.08743589 -0.077538066 -0.07793956
000280 70 27 44 bd 5b ed 0f 3d 3e 17 28 bd 3d 4f fc bb
       -0.047889173 0.03513847 -0.04103779 -0.0076998756
000290 77 bb 1e bd ae cc da bc 7d bf ed 3c d4 d2 c9 bb
       -0.038753 -0.026708927 0.029021973 -0.006159166
0002a0 89 2d 11 ba cf 29 f6 3c c5 bb 98 bc 2c a8 0a 3d
       -0.00055380963 0.030049233 -0.018644223 0.033851787
0002b0 7e 1f a7 3c 34 69 d7 bc c7 39 0e 3d d4 d2 2a bd
       0.020400759 -0.026295282 0.03472307 -0.041704968
0002c0 29 41 1a bd 76 26 48 3c e4 79 b8 b9 dd 0c 75 3a
       -0.037659798 0.012216201 -0.0003518603 0.0009347925
0002d0 43 5f e4 bc 2c 37 94 3b 74 82 ef bc fc fa 92 bb
       -0.027877456 0.0045231786 -0.02923701 -0.004485486
0002e0 23 47 60 3c bc 7a 05 bb 27 c9 21 bd 6d 11 e2 bc
       0.013688835 -0.0020367345 -0.039498474 -0.0275962
0002f0 f2 bd 91 bd f6 91 af bb cf 03 52 3d f8 7b 04 3d
       -0.07116307 -0.005357976 0.051273163 0.03234479
000300 28 aa 34 3c 9e 09 2a 3b ea 14 0b 3d 9d ba 00 3d
       0.011026897 0.0025945674 0.033955492 0.03142797
000310 26 56 aa 3c 6a e3 2b 3d d7 8e d8 3c d7 23 bf 3c
       0.020793032 0.041964926 0.026435299 0.02333252
000320 62 d0 0d 3d 5b 60 1e bd c0 11 84 bb f2 9f 00 3c
       0.034622557 -0.03866611 -0.0040304363 0.007850634
000330 1e 0b b6 bc e6 d3 bd bc fd 25 1f bc c1 41 f5 bc
       -0.022222098 -0.02317233 -0.009713647 -0.02993858
000340 d1 d3 3b bc ef d4 32 3b 48 f5 19 3d 14 e2 17 3d
       -0.011464075 0.0027287563 0.037587434 0.03708084
000350 e0 17 bf bc be c8 25 3c a3 dd ce bb 48 60 33 3d
       -0.023326814 0.010118661 -0.0063130422 0.043792993
000360 79 4c 95 3c 24 c9 55 bb d6 d6 08 3d 9f 63 95 bc
       0.018224942 -0.003262111 0.03340801 -0.01823598
000370 70 9e 75 3c 74 88 95 bc 30 8c 2e bb 15 bb 5a ba
       0.014991388 -0.018253542 -0.0026633851 -0.00083439174
000380 63 3a 58 bd ef cf 9e 3c 5f 17 dd bc 00 43 d4 3c
       -0.052790057 0.01938626 -0.026988683 0.025910854
000390 19 8c 5c bc 0e e7 6f 3c 40 8b 07 3c 6e 2a c6 3c
       -0.013461136 0.01464249 0.008272946 0.024190154
0003a0 4b 05 36 bc 73 e5 8b 3c 10 74 84 3b a2 0c f5 bb
       -0.01110966 0.017077183 0.004042156 -0.0074783126
0003b0 92 07 e7 bc 15 2d 26 bd 28 55 ca ba 6e a9 0c 3c
       -0.028201852 -0.040570337 -0.0015436755 0.008585317
0003c0 d7 38 a6 3c 21 bf b3 bb 63 39 07 bd d9 66 38 bd
       0.020290775 -0.005485431 -0.033013713 -0.04501996
0003d0 96 e6 43 bd aa 93 06 3d c7 e4 a7 3c 06 45 c0 3c
       -0.047827326 0.032855667 0.020494832 0.023470413
0003e0 ef 7a 6c bc 75 98 4a bd 13 c4 96 bc fd b6 1b ba
       -0.0144336065 -0.0494618 -0.018404042 -0.0005940048
0003f0 c3 74 fc bc aa db f1 3c 64 41 8c 3c db d7 02 3d
       -0.030817395 0.02952369 0.017121024 0.031944137

conv2.bias f4 [128]
000000 cd 4b 09 3d 61 10 5f 3c e3 f9 3c 3c c0 a8 0b 3d
       0.033519555 0.013614745 0.011534187 0.03409648
000010 d4 c1 93 3c 46 1e 2a bd cc d2 04 3c 82 1b a5 3c
       0.01803676 -0.041532777 0.0081068985 0.020154718
000020 bc c0 71 bc 43 bc 25 3d 02 a1 33 bd 21 33 e1 bc
       -0.014755424 0.040462743 -0.04385472 -0.0274902
000030 cb e3 81 3c b3 86 a2 bc 9a 32 bc 3c f9 26 0f 3d
       0.01585569 -0.01983962 0.022973347 0.034949277
000040 bb 3e 0d 3d 21 8e 26 bd cf 77 a5 bc 6c 20 0b bd
       0.034483653 -0.04066289 -0.02019873 -0.033966467
000050 ba e3 39 3c a5 a2 b0 3c 3f 5b cd bc 14 40 5b 3c
       0.011345798 0.02156193 -0.025067924 0.013381977
000060 56 8b 02 3d 1d c4 37 3c 91 56 2b bd 64 17 cb bb
       0.031871162 0.011216191 -0.041830603 -0.0061978567
000070 54 29 f5 3b 85 c4 18 3d 47 a3 85 3d 99 dc cc bc
       0.0074817333 0.03729679 0.06525283 -0.025007533
000080 e4 fc 90 bb e7 fc 3c 3d 02 35 6f bc 2a 57 4a bc
       -0.004424678 0.046139624 -0.01460004 -0.012349883
000090 e3 9b 03 bd 88 5f 38 bc aa 29 b4 3c 0f 91 85 bc
       -0.032131087 -0.011253245 0.021992523 -0.01630452
0000a0 8d bb 0c 3d 44 64 b8 3c 44 c9 20 3d 1f 4c 37 bc
       0.03435855 0.022508748 0.03925444 -0.011187582
0000b0 eb ab 09 3d 8a dd a7 39 28 aa 5e 3b 81 f1 b4 3c
       0.03361122 0.00032017782 0.0033975933 0.022087814
0000c0 84 44 15 bc b3 10 bf 3c 67 81 05 3d 44 fc e3 bb
       -0.009110574 0.023323392 0.03259411 -0.0069575626
0000d0 dc a7 92 bc b6 f6 16 bc 82 81 ae 3c 2d c7 39 bd
       -0.017902307 -0.009214094 0.021301989 -0.045355964
0000e0 93 9c 0b 3d 45 0e 12 3d f2 68 35 bd 6a 1f 1c 3d
       0.034084868 0.03565814 -0.044289537 0.038115896
0000f0 88 e7 e5 3c 7a b6 fa bc b2 8f 45 bb ba 05 ee bb
       0.028064504 -0.03060459 -0.0030145464 -0.0072638663
000100 a2 1c 49 bc 23 b8 3e bd 08 dd 64 3c da 12 aa bc
       -0.012274893 -0.046562325 0.013968714 -0.020760942
000110 96 ee d8 3c 33 1b 31 bd e6 cf 41 3a 64 7f d1 bc
       0.026480954 -0.04323883 0.0007393345 -0.02557344
000120 be cf 1e 3c dc 43 22 3d 34 b3 ef bc a7 b2 1b bd
       0.009693084 0.039615497 -0.029260255 -0.038012173
000130 7e 8e 0d bd a7 b4 37 3d 76 74 dc 3c 80 5e d2 bc
       -0.03455972 0.044850018 0.026911002 -0.025679827
000140 2a 2c 2d 3d 26 8a 1a bd fb 5f 4f bc 5d 7a 80 3d
       0.042278446 -0.037729405 -0.012657161 0.06273339
000150 5a 17 95 bc f5 42 0a 3d db 40 10 3d ba 0b 17 b9
       -0.018199611 0.03375526 0.0352181 -0.0001440485
000160 c8 45 a7 3a 41 64 93 bc 4b f5 ae bb 44 4c 54 3d
       0.0012761885 -0.01799214 -0.0053393 0.051830545
000170 06 f7 a6 bb dd 6f dc 3c 35 74 c4 b9 6b c0 00 bd
       -0.0050953655 0.02690881 -0.00037470614 -0.031433504
000180 af c7 8c bc 04 f3 18 bd 2d d6 d7 3a 84 23 0e bd
       -0.01718506 -0.037341133 0.0016467028 -0.03470184
000190 b9 c8 b0 bc 23 6b 9d bc 83 0e a6 bc 86 5f 35 bd
       -0.021580087 -0.019216126 -0.020270592 -0.04428055
0001a0 3f 9c 61 bc fe 3b 00 3d c8 4d 10 bc eb 69 1b bc
       -0.013770162 0.031307213 -0.008807607 -0.009485702
0001b0 33 f9 06 3d 1f 12 89 3b e3 5a 4b 3b ef eb 1b 3c
       0.0329525 0.0041830684 0.0031029515 0.0095167
0001c0 78 cd e4 bb 69 1d 09 bd 5c bb ae bc b6 05 f1 3b
       -0.0069825016 -0.033475313 -0.021329574 0.007355417
0001d0 6a 9c 02 bd 47 f2 3c bd 7b c5 47 3c 3e 86 01 bd
       -0.03188745 -0.04612949 0.012193079 -0.031622164
0001e0 16 e4 2a 3b 43 8c f3 3c 5d 7b 92 b9 0a 00 0f bd
       0.0026075891 0.029729968 -0.00027939203 -0.034912147
0001f0 10 9b 11 bd d7 f0 87 3c 7d 10 8c bc 82 8c 37 bc
       -0.03554827 0.016594334 -0.017097706 -0.011202933

deconv1.weight f4 [128, 64, 3, 3]
000000 6c 4c 85 bd 55 b7 3a bc 69 b6 81 bd f4 dc 5f bd
       -0.06508717 -0.011396249 -0.0633362 -0.054654077
000010 98 c8 b9 3c 42 f6 4f bd 28 85 fa bc 1e dc 07 bd
       0.022678658 -0.05077196 -0.030581072 -0.033168904
000020 41 7c d1 bc a5 6c 9e 3c b8 b5 95 3b 3d d6 80 3d
       -0.025571944 0.019338915 0.0045687817 0.06290863
000030 4f 89 8e 3c 32 31 33 3c 72 ff 15 3d 54 da 3a 3c
       0.017399458 0.010937022 0.036620565 0.011404593
000040 75 25 b5 bc 8a 34 33 bc db 57 40 bc 59 9b 54 bd
       -0.022112587 -0.010937819 -0.011739696 -0.051905964
000050 14 8f a7 3c 59 e2 15 3c 7b 6f a8 bc 23 0c 62 bc
       0.020453967 0.009148204 -0.02056097 -0.013796839
000060 bb f9 14 3d 7a 06 b5 bc 67 9c 9a 3c 1e e0 cc 3c
       0.036370974 -0.022097815 0.018873407 0.025009211
000070 2c 15 28 3c 62 77 c6 bc 78 01 cb 3c 46 14 1d 3b
       0.010258954 -0.024226848 0.024780974 0.0023968383
000080 8b 81 3a bd d1 cc 14 bd 8f 8d 26 bc d0 8d 9a bc
       -0.045533698 -0.03632814 -0.010165586 -0.01886645
000090 c1 8f 8f bb 6a db 1b 3c 04 a3 2b bd 1d 6a 1e bd
       -0.0043811505 0.009512762 -0.04190351 -0.038675416
0000a0 1a cf 17 3d 5d da 6d 3c c5 80 a8 3b f2 3e d2 3c
       0.03706274 0.014517394 0.0051423036 0.02566478
0000b0 68 3b 34 3d b4 bf 9d 3b da 12 19 bd 25 c1 52 bd
       0.044001967 0.0048141126 -0.037371494 -0.05145373
0000c0 60 db 81 3c 43 22 05 bd 5c 51 40 bd 77 9c 07 3c
       0.015851676 -0.032503378 -0.04695259 0.00827705
0000d0 40 5b 92 3b af b9 70 ba 84 15 57 bd 05 23 c1 bd
       0.0044664443 -0.00091829424 -0.052510753 -0.094305076
0000e0 e6 b3 e6 bd 6c 2a c2 bd 03 1d 56 bd e6 2f b5 bd
       -0.11264782 -0.094807476 -0.05227376 -0.088470265
0000f0 ea 82 d6 bd 00 4a 99 bc be e5 e9 bd 23 38 06 3d
       -0.104741886 -0.018712044 -0.11420773 0.03276838
000100 73 e8 0a 3d 5f e5 83 3d 65 a9 61 3c bc 8e 21 3d
       0.033913087 0.064402334 0.013773297 0.039442763
000110 17 be 7c 3d 0c 7f 76 3d 42 da d1 3c 19 2d dc 3b
       0.06170472 0.060179755 0.025616769 0.0067192432
000120 fc 06 ba 3c 37 75 93 3a 87 70 8a bc e0 86 1c bd
       0.022708409 0.0011250143 -0.01689936 -0.038214564
000130 6c bc a7 3c a3 9e 68 3c 65 95 65 bd 4d 84 34 3c
       0.020475589 0.014197978 -0.056050677 0.011017871
000140 89 1d 6d bd f8 2d 52 bd d0 fc 15 3d a4 8e 2b 3d
       -0.057889495 -0.05131337 0.036618054 0.04188408
000150 90 b1 eb bc 98 af 84 3c c5 b0 d7 3c 35 b9 41 bd
       -0.028771192 0.01619701 0.026329407 -0.047295768
000160 8f 00 f7 bb 8c e6 d4 3c dd 61 6b bd 3d 37 1c bd
       -0.0075379084 0.02598884 -0.057466377 -0.038138617
000170 e7 bc 2c bd 36 30 8e bd 7d c3 9b bb 40 4c 25 bc
       -0.04217234 -0.06942789 -0.0047535286 -0.01008898
000180 c7 35 67 bd 2a fc a6 bc d8 47 ff bc da 7b 8f bd
       -0.05644777 -0.020383913 -0.031162187 -0.07006045
000190 ec 13 6e bb 01 e2 0f bd 26 32 82 bd 69 b4 7c bc
       -0.0036327792 -0.035127643 -0.06357221 -0.0154238725
0001a0 9a bf 79 bd 78 de 93 3b 99 89 87 3c 54 26 59 bd
       -0.06097374 0.0045126043 0.016545104 -0.05301507
0001b0 4f 83 2e 3d e4 b2 4b bc b1 8e 08 3c e9 f7 9c bc
       0.042605694 -0.012432788 0.0083348015 -0.019161182
0001c0 04 05 db 3c 33 53 17 3b ce 3d 87 3c c4 10 3b 3d
       0.02673579 0.0023090362 0.016508963 0.045670286
0001d0 d9 68 37 3d 89 87 dd 3b 26 7b cc bc 7b d2 ff bc
       0.044777725 0.006760542 -0.024961066 -0.031228295
0001e0 bf 4a 17 3d 96 72 b5 3c 04 be 44 bd 67 b4 a6 bc
       0.036936518 0.022149365 -0.048032776 -0.020349694
0001f0 e6 09 20 bd 4c fd 38 3c 1a 8c b0 3c 9c bd 39 bd
       -0.03907194 0.011290859 0.02155118 -0.04534684
000200 10 86 28 3c 45 d0 e0 3c b9 f6 51 3b 41 34 19 bc
       0.010285869 0.02744306 0.0032037927 -0.009350837
000210 12 d5 c4 bc ce fa 26 3d 2e f5 16 bd c4 03 0a 3d
       -0.024027381 0.04076653 -0.036854915 0.033694997
000220 12 b3 2e bd 0f 79 f8 3c 64 91 78 bc 04 a8 4d bd
       -0.042651244 0.030331163 -0.015171383 -0.05020906
000230 63 65 fe 3c 7f c6 21 3c 06 ed 53 3c 12 51 59 bd
       0.031054204 0.009873985 0.012934929 -0.05305583
000240 91 40 7b 3d 18 ef 33 3d 8c 85 25 3d 21 cb 94 bb
       0.061340872 0.04392919 0.040410563 -0.0045408164
000250 6e d2 23 bc cc 8b 0f bd 11 af f2 ba d9 c4 f3 3b
       -0.009998901 -0.03504543 -0.0018515309 0.0074392376
000260 8b e0 36 bd 97 8a 53 3c 66 6e 12 bd aa ab 14 bd
       -0.044647735 0.01291146 -0.035749815 -0.036296524
000270 5e 46 d5 ba 7a 92 0f bd 81 11 ea 3c 21 75 01 bd
       -0.0016271581 -0.0350518 0.0285728 -0.031605843
000280 22 09 e8 bc 99 42 73 bc 62 cb 32 bc d5 0b 1f bd
       -0.028324667 -0.014847421 -0.010912748 -0.038829643
000290 84 13 ff bc 69 b0 83 3c 95 17 0c 3d d9 53 8e 3b
       -0.031137235 0.01607533 0.034202177 0.0043434915
0002a0 bf 86 38 3d 95 13 94 3c 14 43 d5 3c 1e a4 78 bc
       0.04505038 0.018075744 0.026032962 -0.015175847
0002b0 ec a5 31 3a 78 d2 90 3c 2f 0b dd bc eb e7 6f 3c
       0.00067767384 0.017678484 -0.026982872 0.014642696
0002c0 9c c8 02 bc 58 cf 0f bd 02 52 27 bc 52 70 1c bd
       -0.007982399 -0.035109848 -0.010212423 -0.038193054
0002d0 46 53 26 3d d1 cd aa 3b e9 ec e8 bc a2 6c 24 3c
       0.04060676 0.0052125235 -0.02843328 0.010035666
0002e0 0d 69 17 bd 4f c1 af bb 39 d6 76 3c 9e 1a a5 bc
       -0.03696542 -0.0053636204 0.015065723 -0.020154294
0002f0 a5 05 3a bd ee e5 1c bc 34 8f 89 bc f7 bc bf bc
       -0.04541554 -0.009576304 -0.016791917 -0.023405535
000300 7c e2 a5 3a b0 0a 87 bb f2 bb 08 3a 3a 8a 51 3d
       0.0012655999 -0.004121147 0.00052159943 0.051157214
000310 3e ce 16 bd 46 98 ec bc c3 38 93 bc f0 31 5a bd
       -0.03681778 -0.028881203 -0.017971402 -0.05327028
000320 ab a1 49 bd fc f2 42 bd 95 26 ed bc e0 d7 05 bd
       -0.049226444 -0.04759501 -0.028949061 -0.032676578
000330 f2 70 48 bd 81 df 12 3d 95 ea 0c bd 08 f7 95 3c
       -0.048935838 0.03585768 -0.034403402 0.01830627
000340 87 9a 8e 3c dd 6c e0 3c 1b 14 f0 bb 8e b5 e7 bc
       0.017407669 0.02739566 -0.0073266155 -0.028284814
000350 7a 1a c0 3c 11 d9 3a 3c e7 75 04 bd c6 8e bf bc
       0.023450125 0.011404292 -0.032339003 -0.02338351
000360 03 ff 6e 3d 95 8e 46 3d bf 1b be bc e8 d4 a7 bb
       0.058348667 0.04847582 -0.02320659 -0.005121816
000370 a8 53 62 3c 90 43 19 3d ff f5 da 3b 92 48 bc 3c
       0.0138138905 0.03741795 0.006682157 0.022983823
000380 46 41 45 bc 38 d0 85 3c d7 f2 cd 3c 72 0c 05 3c
       -0.012039488 0.016334638 0.02514021 0.008120643
000390 fe 60 0c 3d 3c c5 3e bc 79 30 54 3d a8 b7 a7 bc
       0.034272186 -0.011643704 0.05180404 -0.020473316
0003a0 fc 46 c0 3b bd 5f 3e bc a0 5b 66 3d 12 f6 32 bc
       0.005867837 -0.0116195055 0.056239724 -0.010922926
0003b0 66 e0 34 3d 45 69 3c 3d 29 a2 05 bd bc 5c bb bc
       0.044159316 0.04599883 -0.03262535 -0.022871368
0003c0 c9 15 fa 3c 59 8b 0d bd f2 23 8e bc 3b 09 d0 bc
       0.030527966 -0.03455672 -0.017351124 -0.025395026
0003d0 21 66 d7 bc 25 91 e9 bb 94 07 4d bd b9 22 00 bc
       -0.026293816 -0.0071278983 -0.050056055 -0.0078207785
0003e0 a7 db 27 bc ab 98 0f 3b ba 27 7d 3c 81 47 04 bc
       -0.01024524 0.0021911066 0.015451366 -0.0080736885
0003f0 72 fb 8e bc db 0c 03 3d d5 fe 0d 3b ff 48 5a bd
       -0.017453883 0.03199468 0.0021666784 -0.05329227

deconv1.bias f4 [64]
000000 39 27 dd bb f1 c2 53 bd 79 37 2d 3d a9 81 94 3c
       -0.0067490605 -0.051699582 0.04228923 0.018128233
000010 87 cf 28 3d e9 02 75 3c d0 00 0d 3d 79 70 06 3d
       0.04121354 0.014954307 0.034424603 0.032822106
000020 38 b2 1a bc 8a d8 a0 3d f9 05 62 3c 0a 9b 5f 3d
       -0.009441905 0.078538015 0.013795369 0.054591216
000030 1d b6 6d 3d 9c b0 8e 3d 2e 66 59 3d 04 b7 27 39
       0.058035005 0.06967279 0.05307596 0.0001599454
000040 ba 10 62 3d 7c 07 e5 3b 9c 0c 7a bc 63 25 35 bd
       0.055191733 0.0069894176 -0.015261795 -0.044225108
000050 3b eb 56 3c c2 99 43 3c 47 bd 2f 3d 24 5e 9d 3d
       0.013117607 0.011938514 0.04290512 0.076839715
000060 df 6d 23 bd e3 6a 0f 3d 1f 8b 0e bb 70 3f 53 3d
       -0.039899703 0.035014044 -0.0021750403 0.05157417
000070 2b b2 84 3d b9 e2 3d ba e3 6e 6b 3b 31 ce 97 3d
       0.06479295 -0.0007243562 0.0035924248 0.07412375
000080 a2 d8 4d 3d ef 1a 47 3d 40 0d c0 3c 31 08 27 3d
       0.050255425 0.04860967 0.023443818 0.040779296
000090 4a 40 17 bd 5b 04 29 3d e5 06 b9 3c af a5 5c 3d
       -0.036926545 0.04126392 0.022586295 0.053868946
0000a0 ed d4 42 3d 11 ad 62 3d 7c 52 9a bc 89 67 c1 bc
       0.047566343 0.05534083 -0.01883816 -0.02360894
0000b0 1b 5d 53 3d 1b c1 94 3a ef 08 1e 3c b8 e7 26 bb
       0.051602464 0.0011349054 0.009645685 -0.0025467705
0000c0 96 05 39 3a 3d d2 02 bd f3 bc 9a 3d fb 75 6b 3d
       0.00070580223 -0.03193878 0.075555705 0.05748556
0000d0 89 cc 35 bc 2f 09 77 3d bb b7 b9 3c 58 9a b8 3c
       -0.011096128 0.060311493 0.022670617 0.022534534
0000e0 e9 39 83 3c bd 6e ea 3c f2 88 7f 3d 63 87 1e bd
       0.016018825 0.028617257 0.06238646 -0.038703334
0000f0 54 3c 0f bd 3f de 32 bb 4c 49 c8 3c bf 74 7b 3d
       -0.034969643 -0.0027293114 0.024449013 0.061390635

deconv2.weight f4 [64, 64, 3, 3]
000000 c5 e4 21 3d b2 b7 f5 bc a2 b2 17 bb 2c 0e f4 3c
       0.039524812 -0.02999482 -0.0023147245 0.029791914
000010 bf f3 d5 3c 21 87 a8 3c 34 2a f3 bc c1 a6 21 bc
       0.026117204 0.020572247 -0.02968321 -0.009866417
000020 c6 62 45 3c 27 5f 0e 3b 48 e6 1d bd 51 6d 45 bb
       0.012047475 0.0021724196 -0.03854969 -0.0030124972
000030 54 ce 09 bd ca e8 4c bd 1c 70 28 bd 88 6a ee bc
       -0.033644035 -0.050026692 -0.04112254 -0.029103532
000040 c9 70 32 3c 16 96 6a bc 91 6b 13 3d 78 bf 10 3d
       0.010891148 -0.01431801 0.035991255 0.03533885
000050 f5 88 1c 3d 48 95 9f 3c 5f a6 c8 bc 38 60 10 3b
       0.03821655 0.019480363 -0.024493394 0.0022030007
000060 ba 91 1c 3d bd 21 b3 3c 15 b7 fa bc a2 4b 14 bc
       0.038224913 0.021866674 -0.030604878 -0.009051235
000070 2b 62 62 bc be 62 45 3d 43 98 2d 3d 9d 50 0d 3b
       -0.01381735 0.04818987 0.042381536 0.0021562942
000080 59 ff 29 3d 2d ce 58 3d f1 2e 84 bc ec 65 0b bb
       0.041503284 0.052931 -0.016135665 -0.0021270467
000090 13 f0 ca bc 40 c5 38 3d b2 e3 1d bb bc 6b 1e bb
       -0.02477268 0.045109987 -0.0024092016 -0.0024173101
0000a0 ac e0 3f 3d f5 33 0a 3d 8d 4a dd 3b 2f a0 3a 3d
       0.046845123 0.033740956 0.006753272 0.04556292
0000b0 50 77 25 3d 20 d6 42 3d 7d be 42 3d f2 a4 b5 3c
       0.04039699 0.047567487 0.047544945 0.022173379
0000c0 a0 7e 90 3b 7f 62 09 3d 22 9e f7 bb 41 45 17 3d
       0.004409626 0.0335412 -0.0075566927 0.03693128
0000d0 77 4b 1a 3d 17 de 3a 3d 70 82 38 bc 8e de 64 3c
       0.037669625 0.045621958 -0.0112615675 0.013969077
0000e0 cb 25 28 3b 68 19 0e 3d 0d 2d 40 bc 12 bf 7d 3c
       0.0025657292 0.034692198 -0.011729491 0.015487449
0000f0 4f 22 ea 3b a7 79 52 3c ab b1 42 3c fa 1d ae bc
       0.007145203 0.012846387 0.01188318 -0.021254528
000100 01 33 f5 bc 7f 87 f6 bc 09 f2 22 bc 4e d4 8f 3c
       -0.029931547 -0.030093906 -0.009945401 0.01755729
000110 ea 11 ed 3c bb 7a 71 bc 8e 29 c1 3c 8a 7d f3 3c
       0.028939206 -0.014738734 0.023579385 0.029722948
000120 ba 6d 97 3c 8e 8a 41 3d a7 07 ff 3c cc d5 fa bc
       0.018484939 0.047251277 0.031131579 -0.030619524
000130 14 20 1d bd 2f 03 2f 3d 28 f2 95 3b 6c bc be 3c
       -0.03836067 0.042727645 0.0045759864 0.023283206
000140 0c 60 0a bc a7 0a b0 bc a9 a1 99 bc f6 6c 60 3c
       -0.008445751 -0.021489454 -0.018753843 0.013697853
000150 f4 39 21 bc cc d4 92 3c 66 79 ec bc f5 5f a2 bc
       -0.009840477 0.017923735 -0.028866481 -0.019821147
000160 fc df 95 3c d0 c7 99 3c 9b 29 0a 3b 35 38 1c bd
       0.01829528 0.018772036 0.0021081928 -0.03813954
000170 e2 75 d1 3c fe e6 2c 3d 7d a8 c5 bc 6b 6c 2b 3d
       0.025568906 0.04221248 -0.024128193 0.041851442
000180 30 a4 98 3c a1 27 ce 3c 29 85 cf 3c d5 ef a4 bc
       0.018632978 0.02516538 0.02533205 -0.020133892
000190 8b 61 61 3c ee fa 08 bc 7d de d1 3c 7a e6 3e 3c
       0.013756166 -0.008360608 0.025618786 0.01165163
0001a0 2c 79 30 3d 7d b4 87 bc e3 bc 50 3d 65 6e 0d 3d
       0.04308431 -0.016565556 0.050961386 0.03452911
0001b0 43 b8 16 3d 71 cf 02 3d 44 31 f5 3c e0 9e 20 3a
       0.03679682 0.031936113 0.029930718 0.000612719
0001c0 02 68 a1 bc e5 6e f3 bc 78 f7 43 3c 5b 1d cc bb
       -0.019702915 -0.029715965 0.011960857 -0.0062290854
0001d0 15 2d ad bc 85 26 84 bc e0 df e9 3c f3 80 a7 3b
       -0.02113966 -0.016131649 0.028549135 0.0051118075
0001e0 df 9f 80 39 df 7e 07 bd 86 f6 30 3d 37 df c6 bc
       0.00024533176 -0.033079978 0.043203853 -0.024276359
0001f0 74 49 95 3b a7 35 06 bd cb 1b 28 bd e5 31 18 bd
       0.0045558754 -0.03276601 -0.04104213 -0.037156958
000200 26 3e f2 3c 76 5d 11 bd d3 f1 3f bc 94 88 49 bb
       0.02957065 -0.035489522 -0.01171537 -0.0030751573
000210 47 ef c2 3b 62 a9 99 3c 51 61 f1 3c 4e f3 9f bb
       0.0059489342 0.018757526 0.02946535 -0.004881299
000220 ec 77 80 bc f7 6c 44 ba f1 84 5c 3c ba 83 67 3c
       -0.015682183 -0.00074930437 0.01345943 0.014130527
000230 3b 8b ef bc aa 21 6c bb f7 34 12 3c 0e 42 e9 bc
       -0.029241195 -0.0036030808 0.008923761 -0.02847388
000240 e5 79 f1 bb a0 fc 2d 3b a4 d7 cd bc 39 77 27 3d
       -0.0073692673 0.0026548281 -0.02512724 0.040885184
000250 18 60 ce bc 08 c9 e4 3c fa 72 fc 3c 70 de db 3c
       -0.025192305 0.02792789 0.030816544 0.026839465
000260 6f 25 04 3d 1d fd 6c bb af f4 f6 bc 92 2a ff bc
       0.032262262 -0.003616161 -0.030145971 -0.031148229
000270 f8 81 ff 3c a6 7a a4 bc ba a9 aa 3c 25 8f 24 3c
       0.031189904 -0.020078015 0.020832885 0.010043894
000280 e3 59 89 3c 81 13 8b 3c 18 da 1d 3d d7 72 14 bd
       0.016766494 0.016977074 0.03853807 -0.036242332
000290 71 ee a9 3b 69 db ad 3c 6c 88 01 3d 47 70 19 bd
       0.005185895 0.021222787 0.031624243 -0.03746059
0002a0 8e a3 cd bc f7 d7 00 3d 16 49 cb bc 0b be 2d 3c
       -0.025102403 0.03145596 -0.024815124 0.010604392
0002b0 70 28 3c 3d 33 f6 1a 3d 32 df ea 3c be b6 48 3d
       0.045937 0.03783245 0.028670881 0.0490024
0002c0 85 03 af 3b e2 4a 95 3c ed 4e f9 3c a5 c9 6b 3d
       0.0053409957 0.018224183 0.030433143 0.05756535
0002d0 a7 e7 51 3d 82 f3 c2 3c a1 b8 02 3d cf 1b 46 3d
       0.05124631 0.023797754 0.031914357 0.048366364
0002e0 35 17 c7 3c 19 e6 a1 bc 6e fd b9 bc 89 c2 2f bc
       0.024303058 -0.01976304 -0.022703853 -0.010727533
0002f0 45 0c a9 3b a6 b0 a7 bc a1 f7 bf 3c 7a b1 48 3c
       0.0051589333 -0.020469975 0.023433508 0.012249345
000300 c3 7d 85 bc dd 4a 0a 3c 43 fc 8a 3b 60 d9 3e 3d
       -0.01629532 0.0084407 0.0042414977 0.046594024
000310 bf b0 cb 3c 32 f4 67 bc b7 53 1e 3b cc c9 3b bb
       0.024864553 -0.014157342 0.0024158785 -0.0028654216
000320 7e c3 4a bc 52 3f 48 3d 59 e0 d7 3c bb d2 a3 3c
       -0.0123757105 0.048888512 0.026352094 0.019997945
000330 20 df a2 3c 55 cb 9b bc 5d a8 93 3c 49 71 1e bd
       0.019881785 -0.019017855 0.018024618 -0.038682256
000340 3d 77 47 3c 37 fa 75 bb a8 38 e4 bc 87 57 bc bc
       0.012174425 -0.0037533173 -0.027859047 -0.022990955
000350 72 ca 38 3d 28 6a ba 3c 58 32 b4 39 bc 97 ce bc
       0.045114942 0.022755697 0.00034369784 -0.025218837
000360 65 8e 6d 3c e8 99 b9 bc d7 26 0f bc 66 48 1f bd
       0.0144992815 -0.022656396 -0.0087372875 -0.038887404
000370 2a 77 1a bd da 9f fa bc 6d 43 32 3c 0d d6 d7 3c
       -0.0377113 -0.030593801 0.010880333 0.026347185
000380 cb 17 3a bc 59 83 2f 3c 92 38 ac bc bf c5 16 3d
       -0.011358212 0.010712468 -0.021023069 0.03680968
000390 a1 2d 3a 3c 8b 30 04 3d 62 75 99 bc 7d a6 fc bc
       0.011363418 0.032272857 -0.01873273 -0.030841107
0003a0 72 38 23 3d 9b 0e 25 b8 ce 45 a8 3c 1c ed fe bc
       0.039848752 -3.9352668e-05 0.020541098 -0.031118922
0003b0 3b 5b 14 bd 2a 43 20 bd 3b 33 6d bc c5 c4 47 bd
       -0.036219817 -0.039126553 -0.014477546 -0.04877164
0003c0 ed 97 28 bd 6d 95 e3 3c ed 1a 14 bd d3 a3 d0 3c
       -0.041160513 0.027781213 -0.03615849 0.025468742
0003d0 78 a8 d4 3c ef 99 ee 3c 79 80 8e 3c 7a 6b 6d 3c
       0.025959238 0.029126136 0.017395245 0.014490956
0003e0 b4 99 28 bc 6b 5c 38 3c 0e 4c 8f 3c 0e 34 6a bb
       -0.010290552 0.011252503 0.01749232 -0.0035736593
0003f0 09 f0 bd bc 92 58 2a bc 7d 8e d9 bc 42 3c 3a bd
       -0.023185747 -0.010397093 -0.026557202 -0.045467623

deconv2.bias f4 [64]
000000 3a 54 5c 3c 34 a6 9b bd 14 4b bf 3c 85 9d 54 bd
       0.013447816 -0.0760006 0.02335123 -0.051908035
000010 b5 29 e3 bc 2b 3a 01 bd 3c 38 65 3d 45 2a a9 3d
       -0.027729848 -0.031549614 0.055961832 0.082600154
000020 0c 19 91 bd ad 9d e2 3d b6 30 b5 bb b0 f7 8e 3c
       -0.070848554 0.110652305 -0.0055294884 0.017452091
000030 91 1a f7 3c 33 5e 4c bd 07 38 37 3d e9 fb 3b 3d
       0.030164035 -0.049894523 0.044731166 0.045894537
000040 be 05 26 bd fa 4c bf bd 03 74 be 3c f2 0d 78 bb
       -0.04053282 -0.09340854 0.023248678 -0.003785011
000050 cc 45 b9 3d 6a 69 60 bc bd 66 eb bd 63 47 a0 3c
       0.09046516 -0.013697008 -0.11494205 0.01956529
000060 ce 59 5e 3d 0e 42 2b 3d ba 76 4a 3d 9a 3b 68 bc
       0.054284863 0.04181104 0.049429633 -0.014174366
000070 50 d8 9c 3d 73 b2 ff bd 51 57 cd 3d 19 36 8f bd
       0.07658446 -0.12485208 0.1002642 -0.0699274
000080 9e f4 c7 bc a1 45 07 bd a1 20 87 3d ce 17 04 bd
       -0.024408635 -0.033025388 0.0659802 -0.032249264
000090 39 9a 8b 3c 6d c1 cd bd 5e 16 09 bd 29 a5 a1 3b
       0.017041313 -0.10046659 -0.033468597 0.0049330187
0000a0 97 55 7c 3d d1 2f e2 bd 03 17 1c bd e5 ad 03 3e
       0.061605062 -0.110442765 -0.038107883 0.12859304
0000b0 f4 38 87 bd ed 28 90 3d 4e 48 3c 3d dd d3 d5 bd
       -0.0660266 0.07039056 0.045967393 -0.104408
0000c0 d3 7f fa bd 4f dd 8c 3d 89 94 d1 bd 66 c2 ae 3d
       -0.12231412 0.06878149 -0.10233409 0.08533172
0000d0 0e 77 b9 bd 35 4c a3 bd 7d 69 ce 3d dc 74 a9 3d
       -0.09055911 -0.0797352 0.10078714 0.08274242
0000e0 44 0c e7 bc 4d c6 a0 bd 24 bd 32 bb 0f a4 30 3d
       -0.02820409 -0.07850323 -0.002727338 0.04312521
0000f0 c3 c0 4b 3d e2 e0 2d bc ba 9a 3f 3d 26 00 ba 3c
       0.04974438 -0.010612698 0.046778418 0.022705149
