contrastive_save_archive/contrastive_weights_epoch_9.pt (torch, 749104 bytes, 8 tensors)

conv1.weight f4 [64, 3, 3, 3]
0	0x3e15418c	0.14575785
1	0x3dda9f09	0.10674865
2	0x3e29fc7e	0.16600224
3	0x3bc9e196	0.006160925
4	0xbdde5617	-0.10856264
5	0x3c99c780	0.018771887
6	0x3e2ba5c0	0.16762447
7	0xbde0a3e4	-0.1096876
8	0xbe408d10	-0.18803811
9	0x3dd90980	0.10597515
10	0xbe0bb42e	-0.13642952
11	0xbdc6590e	-0.096849546
12	0xbcd76323	-0.02629239
13	0x3e1af011	0.1513064
14	0xbe334f7d	-0.17510791
15	0x3ce3a491	0.027788432
16	0xbb5f06e9	-0.0034031218
17	0xbe193743	-0.14962487
18	0xbbf7e12f	-0.007564686
19	0x3e2f9f5d	0.17150636
20	0x3c3506f0	0.011049017
21	0x3db7d19f	0.08975529
22	0xbd60449b	-0.054752927
23	0xbcfb70a9	-0.030693369
24	0x3dde9865	0.10868911
25	0x3dc3e9c5	0.095660724
26	0xbe12f857	-0.14352547
27	0xbd8e3783	-0.06944182
28	0x3c855a35	0.016278366
29	0x3d985bf8	0.07439417
30	0x3d37a4bf	0.04483485
31	0x3dbb93f1	0.09159077
32	0x3e0191b1	0.12653233
33	0x3e02a0cc	0.12756652
34	0xbdcf1359	-0.10111112
35	0x3e181f3e	0.14855668
36	0xbc9b1750	-0.018932015
37	0xbd88ab62	-0.06673314
38	0xbe339634	-0.17537767
39	0x3d5cf1c1	0.053941492
40	0xbd638e0d	-0.055555392
41	0xbe290f18	-0.16509664
42	0x3e150590	0.14552903
43	0xbb617eb2	-0.0034407792
44	0xbe3e81dc	-0.18604225
45	0x3d4d6e2f	0.050153907
46	0xbbc12f6f	-0.005895547
47	0x3dec174e	0.115278825
48	0xbe15e51c	-0.1463818
49	0x3e1376ea	0.14400831
50	0x3e0e8dec	0.13921326
51	0xbdd3c0bc	-0.103394955
52	0x3e410cb9	0.1885251
53	0xbe1cbc6b	-0.15306251
54	0x3e25ada0	0.16179514
55	0x3c0cf4a1	0.008603246
56	0xbe3facdb	-0.18718283
57	0x3d0a58c0	0.033776045
58	0x3e05aa2c	0.13053197
59	0xbdf35b38	-0.11882633
60	0x3df9d52a	0.12198861
61	0x3dde703e	0.10861252
62	0xbe314b53	-0.1731389
63	0xbe083360	-0.13300848
64	0xbdfb5cca	-0.122735575
65	0xbdfc2a74	-0.12312785
66	0x3e11f8cf	0.14255069
67	0x3e2cc0b1	0.16870381
68	0xbdc109e7	-0.09425717
69	0x3c38980b	0.011266719
70	0x3de787ff	0.11305236
71	0x3dfea329	0.12433464
72	0xbddf1c11	-0.10894025
73	0xbdca2eaf	-0.098721854
74	0xbd4756a7	-0.048666622
75	0xbbfad393	-0.007654616
76	0x3d95e819	0.0731966
77	0x3c619003	0.013767245
78	0xbdc1f71a	-0.09470959
79	0x3e4cc91d	0.19998594
80	0xbcf17760	-0.029475868
81	0xbe3088d8	-0.17239702
82	0xbe1fb9f9	-0.15598287
83	0xbe225d50	-0.15855908
84	0x3e244e28	0.16045439
85	0x3d7e3f17	0.062071886
86	0x3d0ffb3c	0.035151705
87	0x3c7f8fe9	0.015598276
88	0x3e305d0c	0.17222995
89	0xbdae20a2	-0.08502318
90	0xbdf2ec0b	-0.11861428
91	0xbe411d08	-0.18858731
92	0xbd06565d	-0.032797206
93	0x3e21ab98	0.15788114
94	0xbd40be1f	-0.047056314
95	0x3de88783	0.11353972
96	0x3dc3d469	0.095619984
97	0xbe286bab	-0.16447322
98	0x3e40f3b5	0.18842967
99	0xbe1a5ef0	-0.15075278
100	0x3d876723	0.06611469
101	0xbddfc314	-0.1092588
102	0x3ca424fc	0.020037167
103	0x3e2eea2a	0.17081514
104	0x3d1b4377	0.037906136
105	0x3e141773	0.1446207
106	0xbe1c4b28	-0.15263045
107	0xbd08fc2e	-0.033443622
108	0xbe3dd958	-0.18539941
109	0x3dd53d6b	0.10412105
110	0xbe4b8478	-0.19874752
111	0xbe2328fa	-0.159336
112	0xbe300e8b	-0.17193048
113	0x3d48e367	0.049044993
114	0xbdc04342	-0.093878284
115	0x3ba327d1	0.0049791117
116	0xbe364c74	-0.17802602
117	0xbe34fcbf	-0.1767454
118	0x3e21eb37	0.15812384
119	0x3db1dbb4	0.08684483
120	0xbcb40557	-0.021975202
121	0xbd02ad69	-0.031903658
122	0xbe396655	-0.18105443
123	0xbc1db3af	-0.009625359
124	0xbbe5ffcc	-0.0070190188
125	0x3dae5253	0.08511796
126	0xbe59a190	-0.21253037
127	0xbe4f6885	-0.20254715
128	0xbdd311fa	-0.10306163
129	0x3cfbcd66	0.03073759
130	0x3c9c8564	0.019106574
131	0xbe3e198d	-0.18564434
132	0xbd55d369	-0.05220357
133	0xbba628c2	-0.0050707767
134	0x3df23923	0.11827304
135	0xbcf5f439	-0.030023681
136	0x3d8d0ac2	0.068868175
137	0x3e2e9065	0.1704727
138	0x3ce73e70	0.028228015
139	0xbdcfbe85	-0.101437606
140	0x3e007f1f	0.12548493
141	0xbe248e4e	-0.1606991
142	0x3e1fd485	0.15608414
143	0x3d0f9bb3	0.035060596
144	0xbdc6dc27	-0.097099595
145	0xbd2fc854	-0.042915657
146	0x3dad2784	0.08454803
147	0x3af4289b	0.0018627824
148	0xbcb7c7be	-0.022434112
149	0xbd4513f5	-0.048114736
150	0x3e1d9373	0.15388279
151	0x3e152f9d	0.14568944
152	0x3e1384db	0.14406149
153	0xbe1ba1a7	-0.15198384
154	0xbe18994f	-0.14902233
155	0x3d015d84	0.031583324
156	0x3d69f2d1	0.057116333
157	0xbdb053fe	-0.0860977
158	0x3cf7fe7b	0.030272713
159	0xbe030c2a	-0.12797609
160	0xbc8637ad	-0.01638397
161	0x3d476897	0.04868373
162	0xbdb1433d	-0.08655403
163	0xbe361fa7	-0.17785512
164	0xbe418417	-0.18898045
165	0x3d395197	0.045243826
166	0x3d44b0e6	0.048020266
167	0x3d0645e8	0.03278151
168	0x3db1a63c	0.08674285
169	0xbda66e65	-0.08126525
170	0xbc2bb587	-0.010480291
171	0x3e3457f3	0.17611675
172	0x3d17b32d	0.03703611
173	0xbe13e95a	-0.14444485
174	0xbe4c66e4	-0.19961125
175	0x3cdea6ed	0.027179206
176	0x3df6c7db	0.12049838
177	0xbe3c202d	-0.18371649
178	0x3c447e88	0.011993058
179	0x3d27596f	0.040856775
180	0xbd82d01e	-0.063873515
181	0x3e1183aa	0.14210382
182	0xbe3f4c95	-0.18681557
183	0x3e26b87e	0.16281316
184	0xbd033507	-0.032032993
185	0x3b0f38d1	0.0021853934
186	0x3dc4265f	0.09577631
187	0x3c73e679	0.014886492
188	0x3dc1d32c	0.09464106
189	0xbe39be39	-0.1813897
190	0x3e42e16d	0.19031306
191	0x3cc1c15d	0.023651773
192	0xbcfe2f0f	-0.031028299
193	0xbe44273b	-0.1915559
194	0xbde1d768	-0.110274136
195	0xbe26e00b	-0.16296403
196	0x3dfa2533	0.122141264
197	0x3b277826	0.0025553792
198	0x3dff096c	0.12452969
199	0x3d264146	0.040589593
200	0x3d29cee0	0.041457057
201	0x3dc1a057	0.094544105
202	0x3e42f18b	0.19037454
203	0x3bac6751	0.0052613397
204	0xbe04a9bf	-0.12955378
205	0x3e3e8cc9	0.18608393
206	0x3e2cbca9	0.16868843
207	0x3e1c3d55	0.15257771
208	0xbe3062d4	-0.172252
209	0xbe005261	-0.12531425
210	0x3dfe5786	0.124190375
211	0x3e142a33	0.14469223
212	0xbd1e25b9	-0.038610194
213	0x3cd8fc0b	0.026487371
214	0xbe1c5c85	-0.15269668
215	0xbdb71fcf	-0.08941614
216	0xbdf316e8	-0.118696034
217	0x3d9b2b4e	0.07576619
218	0x3e428598	0.18996274
219	0x3dc476dd	0.09592984
220	0x3dc5ae89	0.096524306
221	0xbddfc8d1	-0.109269746
222	0xbd72a4e3	-0.05923928
223	0xbe0e3f55	-0.13891347
224	0xbe406f76	-0.18792519
225	0xbe093fca	-0.1340324
226	0x3d7ec2b6	0.06219741
227	0x3d84d7ce	0.06486474
228	0x3dfd0062	0.12353589
229	0xbda54e2b	-0.0807155
230	0x3df4354c	0.11924228
231	0x3e076419	0.13221778
232	0xbcbcd49f	-0.023050604
233	0x3e1e468d	0.154566
234	0xbdcd2cbb	-0.10018297
235	0x3d3b63b8	0.045749396
236	0xbe15fc97	-0.14647137
237	0xbd8ef505	-0.069803275
238	0x3e3c92cc	0.18415374
239	0xbd7943db	-0.060855728
240	0x3e46bdc2	0.19408324
241	0xbdbeab24	-0.09309986
242	0xbe045703	-0.12923817
243	0xbbce4af1	-0.006295555
244	0x3d91edbd	0.07125423
245	0x3cb0a25d	0.021561796
246	0x3de99c51	0.11406768
247	0xbe3f207f	-0.1866474
248	0x3cdc3947	0.02688278
249	0x3d299021	0.041397218
250	0x3e139df2	0.1441572
251	0xbddd325b	-0.1080062
252	0x3c110346	0.008850878
253	0xbcf002a7	-0.02929814
254	0xbe423988	-0.18967259
255	0x3a60772f	0.00085626816

conv1.bias f4 [64]
0	0xbdd45683	-0.10368063
1	0xbdb5f36c	-0.0888432
2	0xbd37442c	-0.04474275
3	0x3c960d54	0.018316902
4	0x3da3fa79	0.08006758
5	0xbe35f8ad	-0.17770644
6	0x3e1c0920	0.15237856
7	0xbe1b00f3	-0.15137081
8	0xbdb09b10	-0.08623326
9	0x3dc89238	0.09793514
10	0xbd847415	-0.064674534
11	0x3de1deea	0.110288456
12	0x3d07bf8c	0.033141658
13	0x3e220143	0.15820794
14	0xbd9a951a	-0.0754797
15	0x3bc0da6f	0.0058854143
16	0xb700b288	-7.670962e-06
17	0xbd7dffea	-0.062011637
18	0xbe413e94	-0.18871528
19	0x3df6c108	0.120485365
20	0x3dd67ee9	0.10473425
21	0xbdc571b4	-0.09640828
22	0xbe4e7e98	-0.20165479
23	0x3dbff79d	0.093734
24	0x3e281937	0.16415869
25	0x3d93754a	0.072001055
26	0xbe024bcb	-0.12724225
27	0x3db57237	0.088596754
28	0x3d83e111	0.064394124
29	0x3d275e9a	0.040861703
30	0x3e1294a2	0.14314511
31	0xbe46ae48	-0.1940242
32	0xbd235922	-0.039879926
33	0xbd74056e	-0.05957549
34	0x3dc0f12b	0.09420999
35	0xbdd6c11c	-0.104860514
36	0x3dc526f8	0.09626573
37	0x3d8a3132	0.067476645
38	0xbd4285b2	-0.047490783
39	0xbdefe4f1	-0.11713589
40	0xbc31db33	-0.010855484
41	0xbe48ea3c	-0.19620603
42	0xbbd73e5d	-0.0065687136
43	0x3b0641f0	0.002048608
44	0x3cbf9d45	0.023390422
45	0x3b8d1d95	0.004306505
46	0xbdb2be4b	-0.08727702
47	0xbcb8850a	-0.022524375
48	0xbd268084	-0.040649906
49	0x3c86934f	0.016427664
50	0xbd9aa0b9	-0.07550187
51	0xbbcc9355	-0.0062431493
52	0x3dbf62a6	0.093449876
53	0x3d9882cb	0.07446822
54	0x3dfb59dc	0.12272999
55	0x3d804466	0.06263046
56	0xbd6a15f1	-0.05714983
57	0x3c91efb1	0.01781449
58	0xbdc015f3	-0.093791865
59	0x3cd39730	0.025828928
60	0xbadd9d7e	-0.0016907898
61	0x3e110f84	0.14166075
62	0x3bb319b1	0.005465709
63	0xbda7d3ed	-0.081947185

conv2.weight f4 [128, 64, 3, 3]
0	0x3cf56dff	0.029959677
1	0xbceabb50	-0.02865377
2	0xbcb017d1	-0.021495732
3	0x3c13f619	0.009030842
4	0xbce60d7c	-0.028082602
5	0xbd41c238	-0.047304362
6	0x3c84f243	0.0162288
7	0x3c597c6c	0.013274293
8	0x3bd4befd	0.006492494
9	0xbd363913	-0.044488024
10	0xbd482388	-0.04886201
11	0xbd80f41f	-0.062965624
12	0xbc0efed2	-0.008727746
13	0xbd691fe8	-0.056915194
14	0xbceaf282	-0.02868009
15	0xbcd947b8	-0.026523456
16	0xbd438cf5	-0.04774185
17	0xbd6d3a9a	-0.057917215
18	0xbd2777d7	-0.040885773
19	0xbd8cd7f0	-0.06877124
20	0xbddedf2e	-0.10882412
21	0x3c27ff8b	0.010253797
22	0xbcb01025	-0.021492073
23	0x3aebbe96	0.0017985876
24	0x3c3a4614	0.011369247
25	0xbcc71482	-0.024301771
26	0xbd221e1a	-0.03957949
27	0x3cb40290	0.021973878
28	0xbc12bdd7	-0.008956394
29	0x3d1c5e30	0.03817576
30	0x3cd3d724	0.025859423
31	0x3d2603cc	0.040530965
32	0x3d55f9b2	0.05224008
33	0x3cc14d91	0.023596557
34	0xbc91b305	-0.017785558
35	0x3d49587c	0.04915665
36	0x3c871f1f	0.016494332
37	0xbbe42b1b	-0.0069631464
38	0xbb6a692e	-0.0035768258
39	0xbc7f4aa3	-0.01558176
40	0xbc3cef03	-0.011531594
41	0xbb7e6168	-0.0038815383
42	0xbceb5a6c	-0.02872964
43	0xbcd09fd1	-0.025466831
44	0xbd37a6fb	-0.04483698
45	0xbbd95965	-0.006632971
46	0xbd1c439f	-0.038150426
47	0xbbd5da99	-0.006526303
48	0xbc873366	-0.016504
49	0x3d169eda	0.036772586
50	0x3c80ece2	0.015737955
51	0xbcea067c	-0.028567545
52	0xbc7e9b53	-0.015539962
53	0xbbfe3796	-0.007758091
54	0xbc744142	-0.014908137
55	0xbd1aa1bc	-0.0377519
56	0x3d104f4a	0.035231866
57	0x3cf9218f	0.03041151
58	0xbd162a9d	-0.036661733
59	0x3d08b728	0.033377796
60	0xbb4c65eb	-0.0031188678
61	0xbccc0a55	-0.02490727
62	0x3cbac236	0.022797685
63	0x3d1ca566	0.038243674
64	0x3b94a01a	0.004535687
65	0xbd164df9	-0.036695454
66	0x3bcd9a94	0.0062745307
67	0x3ce7f314	0.02831415
68	0xbcd9f5da	-0.026606489
69	0xbca894a3	-0.020578688
70	0x3c1c6ebb	0.009547885
71	0xbce1d7de	-0.027568754
72	0xbcbad694	-0.022807397
73	0x3abaa0aa	0.0014238555
74	0xbc3ac1d3	-0.01139875
75	0xbc543be3	-0.012953731
76	0x3c0c9bea	0.008582095
77	0xbd72e3d3	-0.0592993
78	0xbccddcfd	-0.02512979
79	0xbd66afd6	-0.056320034
80	0x3c27cbb1	0.010241435
81	0x3cb839c3	0.02248848
82	0xbd31b9a7	-0.043389942
83	0xbc85d2b1	-0.016335817
84	0xbd16f09f	-0.036850568
85	0xbd324d0e	-0.043530516
86	0x3b9d3582	0.0047976384
87	0x3ca4d29a	0.020119954
88	0xbd2a5758	-0.041587204
89	0xbd1b9889	-0.037987266
90	0x3cec0e9e	0.028815564
91	0xbd210954	-0.039315537
92	0xbcaefd41	-0.021360995
93	0xbd3e7036	-0.04649373
94	0xbd34c745	-0.04413535
95	0x3bcc7df0	0.006240599
96	0xbb74589d	-0.0037284263
97	0xbbdcc83c	-0.006737737
98	0xbb0c93ff	-0.0021450517
99	0xbd1efeb5	-0.038817126
100	0xbd4cd82a	-0.050010838
101	0xbda0ee27	-0.07857924
102	0x3a82bc13	0.0009974263
103	0xbd059890	-0.032616198
104	0xbbdf728d	-0.0068190754
105	0xbce54802	-0.027988438
106	0xbcaef4dc	-0.021356992
107	0xbc91c0c6	-0.017792117
108	0x3bf0b7d3	0.0073461323
109	0x3a631350	0.00086622406
110	0xbce749e6	-0.02823348
111	0x3c947f2b	0.018127045
112	0x3ab41f1b	0.001374218
113	0xbc8c57ea	-0.017131764
114	0x3c8a3315	0.016870061
115	0xbbade474	-0.0053067748
116	0x3c855637	0.016276462
117	0xbca23d6e	-0.019804683
118	0x3c2840ba	0.010269338
119	0xbc90fa33	-0.01769743
120	0xbb9c87e2	-0.0047769407
121	0x3a039c42	0.00050205376
122	0xbcf07100	-0.029350758
123	0xbcf99455	-0.030466238
124	0xbd53135a	-0.051532127
125	0xbc4eba54	-0.012617666
126	0xbcd0bd39	-0.025480853
127	0x3b405561	0.0029347765
128	0xbcfba673	-0.030719018
129	0x3c8896bd	0.01667344
130	0x3c5fe7a8	0.013666071
131	0x3cc31a31	0.0238162
132	0xbd4328bf	-0.04764628
133	0x3cbd22bc	0.023087852
134	0xbcf7b9be	-0.030239936
135	0x3d2832cb	0.041064065
136	0x3c0bcf28	0.008533277
137	0xba819e72	-0.0009889139
138	0x3b3b221b	0.0028554264
139	0x3d1d3919	0.03838453
140	0x3b13d92e	0.002255987
141	0x3ca08040	0.019592404
142	0xbd2a6489	-0.041599784
143	0xbbf4b08a	-0.007467334
144	0xbd2ff863	-0.04296149
145	0xbca1c1db	-0.019745758
146	0xbd852306	-0.06500821
147	0xbda2dc0c	-0.07952127
148	0xbd08e9d2	-0.033426113
149	0xbd13e757	-0.036109295
150	0xbd2e0dba	-0.04249356
151	0xbd928f7e	-0.07156275
152	0xbd621609	-0.055196796
153	0xbd4edced	-0.05050366
154	0xbcd1b27a	-0.0255978
155	0xbdbdc103	-0.0926533
156	0xbd8b5808	-0.068039
157	0xbda47bd9	-0.080314346
158	0xbd85b9a9	-0.065295525
159	0xbd92fb0d	-0.071767904
160	0xbd17fc46	-0.03710582
161	0x3c7aca9e	0.015307097
162	0xbd28173e	-0.04103779
163	0xbbfc4f3d	-0.0076998756
164	0xbd1ebb77	-0.038753
165	0xbcdaccae	-0.026708927
166	0x3cedbf7d	0.029021973
167	0xbbc9d2d4	-0.006159166
168	0xba112d89	-0.00055380963
169	0x3cf629cf	0.030049233
170	0xbc98bbc5	-0.018644223
171	0x3bb4f4b9	0.0055223373
172	0xbb557347	-0.0032569931
173	0xbd3bfad4	-0.045893505
174	0x3c9b0bce	0.018926527
175	0xbd5c20d1	-0.053742234
176	0xbd4190c9	-0.04725722
177	0x3bb48940	0.0055095255
178	0xbb5cdf61	-0.003370248
179	0xbaf2409b	-0.0018482389
180	0xbd196793	-0.03745229
181	0xba658b24	-0.00087563903
182	0xbd105cdc	-0.035244808
183	0xbb711966	-0.003678882
184	0x3c5e2e57	0.013560853
185	0x3a2847ea	0.00064194074
186	0xbd0a1bb8	-0.03371784
187	0xbca091f5	-0.019600848
188	0xbd80cefb	-0.062894784
189	0xbc776775	-0.01510035
190	0x3d27b80a	0.040946998
191	0x3ca55348	0.020181313
192	0x3a98f3cc	0.0011669337
193	0xbc04f897	-0.008115909
194	0x3cb82468	0.022478297
195	0x3ca8e419	0.020616578
196	0x3c18ae94	0.009318966
197	0x3cf01eba	0.029311527
198	0x3ce14a5c	0.027501278
199	0x3ccf798b	0.02532651
200	0x3d177ffe	0.036987297
201	0xbd16bc80	-0.03680086
202	0xbb055557	-0.0020345056
203	0x3c2639d6	0.010145625
204	0xbca4c4f4	-0.020113446
205	0xbcac9f71	-0.021072121
206	0xbc06958d	-0.008214367
207	0xbcdfd96c	-0.027325355
208	0xbc2127bb	-0.009836133
209	0x3b875e26	0.0041310964
210	0x3d24f6f3	0.04027457
211	0x3d2537d0	0.04033643
212	0xbca4e091	-0.020126613
213	0x3c4d3dd0	0.012526944
214	0xbb4c66d2	-0.0031189215
215	0x3d427967	0.04747906
216	0x3c9cbb26	0.019132208
217	0xbb9f9e05	-0.0048711323
218	0x3d01558d	0.03157573
219	0xbc84277f	-0.016132114
220	0x3c9c64be	0.019091006
221	0xbc8d7346	-0.01726688
222	0x3bbbdc9b	0.0057330853
223	0x3bb4252f	0.0054975967
224	0xbd3d4924	-0.04621233
225	0x3c3217ad	0.010869903
226	0xbd19b751	-0.03752834
227	0x3c8cdcab	0.017195066
228	0xbcac7521	-0.021051945
229	0x3be36c77	0.0069404203
230	0x3ae5dd71	0.0017537308
231	0x3cb6fa0b	0.022336027
232	0xbc8b8fbb	-0.01703631
233	0x3c5423cd	0.012947989
234	0x3bffd9a5	0.0078079277
235	0xbb81673c	-0.003949074
236	0xbcd102d9	-0.025514053
237	0xbd186a31	-0.037210647
238	0x39d07894	0.0003976269
239	0x3c3422b6	0.010994604
240	0x3cc4701a	0.023979235
241	0xbb76b1bf	-0.0037642566
242	0xbd059361	-0.032611255
243	0xbd2dad2c	-0.042401478
244	0xbd391e76	-0.045195065
245	0x3d11278b	0.0354381
246	0x3cdc269d	0.026873881
247	0x3cf40e76	0.029792052
248	0xbc106d07	-0.008815057
249	0xbd1ee16c	-0.038789198
250	0xbc14a536	-0.0090725925
251	0x3c09b589	0.008405098
252	0xbd03b7a4	-0.032157555
253	0x3cf42b6e	0.029805865
254	0x3c58a2f8	0.0132224485
255	0x3d16d6db	0.036825996

conv2.bias f4 [128]
0	0x3d0d38bb	0.03447793
1	0x3c0abe16	0.008468172
2	0x3ba35cc8	0.0049854256
3	0x3ceed9d7	0.029156609
4	0x3c9a8297	0.018861098
5	0xbd148998	-0.036264032
6	0x3c38b3f6	0.011273375
7	0x3cc296fe	0.02375364
8	0xbc5942ca	-0.013260553
9	0x3d1d82e4	0.038454905
10	0xbd33a102	-0.04385472
11	0xbcbaf863	-0.022823518
12	0x3bd1b38e	0.0063995784
13	0xbcac09fa	-0.021000851
14	0x3cd2d704	0.025737293
15	0x3cee444d	0.029085303
16	0x3cf72b5d	0.030172044
17	0xbd1e29bb	-0.038614016
18	0xbc8d301e	-0.017234858
19	0xbd05378e	-0.032523684
20	0x3c4d5acd	0.012533856
21	0x3ca4f2c5	0.020135293
22	0xbcedba3e	-0.029019471
23	0x3bcb24bb	0.006199447
24	0x3cca5aa1	0.024701418
25	0x3c05d91b	0.008169438
26	0xbd3eefa9	-0.046615276
27	0xbbef13b0	-0.007296048
28	0x3bd814ee	0.006594292
29	0x3d01a4c7	0.031651285
30	0x3d61f5bd	0.055165995
31	0xbcbe4fb8	-0.023231372
32	0xbafc0bc2	-0.0019229578
33	0x3d287819	0.04113016
34	0xbca8008e	-0.020508077
35	0xbc2892dc	-0.01028892
36	0xbcf969e6	-0.030446004
37	0xbc41f666	-0.011838531
38	0x3ce83a28	0.028348044
39	0xbcaf0adf	-0.021367488
40	0x3d0dcd0f	0.034619387
41	0x3ca80196	0.020508569
42	0x3d2b0716	0.041754805
43	0xbc4cf69e	-0.01250997
44	0x3d0836ba	0.033255316
45	0xbb726334	-0.00369854
46	0x3c509d77	0.012732855
47	0x3c94d90d	0.018169904
48	0xbc13ee42	-0.009028973
49	0x3cccfce3	0.02502293
50	0x3d04dc00	0.03243637
51	0xbbc983fd	-0.0061497674
52	0xbc810805	-0.015750894
53	0xbc804b06	-0.015660774
54	0x3c9ff4c3	0.019525891
55	0xbd17924f	-0.037004765
56	0x3d09b973	0.033624124
57	0x3cf02c21	0.029317917
58	0xbd17cc9a	-0.037060358
59	0x3d1cabb8	0.0382497
60	0x3ce82a2d	0.028340423
61	0xbccab944	-0.024746545
62	0xbae0d4a6	-0.0017153218
63	0xbb2dcd8c	-0.002652022
64	0xbc383e60	-0.01124534
65	0xbd257948	-0.040398866
66	0x3c280363	0.010254714
67	0xbc864281	-0.016389133
68	0x3cd133a1	0.025537314
69	0xbd311b33	-0.04323883
70	0xba1b7033	-0.00059295
71	0xbce98900	-0.02850771
72	0x3c07fc4a	0.0082998965
73	0x3d1c5bc2	0.038173445
74	0xbccb6dc7	-0.02483262
75	0xbd058ab2	-0.032602973
76	0xbd14d948	-0.036340028
77	0x3d3b677d	0.04575299
78	0x3cf82119	0.03028922
79	0xbcf96b89	-0.030446785
80	0x3d274705	0.040839214
81	0xbd1c0a37	-0.03809568
82	0x3a0307d9	0.0004998423
83	0x3d642a8b	0.055704635
84	0xbc2cdb1d	-0.010550288
85	0x3d03ec8e	0.032208018
86	0x3d0d6734	0.03452225
87	0xb8803620	-6.113597e-05
88	0x3af6549d	0.0018793527
89	0xbcabbbe6	-0.02096362
90	0xb9c665e6	-0.00037841423
91	0x3d3bc396	0.045840822
92	0xbc2fa082	-0.01071942
93	0x3cce0c82	0.025152449
94	0x3a1d1c9b	0.0005993337
95	0xbd0521ef	-0.032503065
96	0xbc831736	-0.016002279
97	0xbd01f623	-0.031728875
98	0x3b80d73b	0.0039319075
99	0xbd0420d7	-0.03225788
100	0xbccb556a	-0.024821002
101	0xbc867017	-0.01641087
102	0xbc3fb34f	-0.011700465
103	0xbd28791d	-0.041131128
104	0xbc7759ec	-0.015097123
105	0x3cec55c9	0.0288495
106	0xbbe3dfa5	-0.0069541507
107	0xbc04661c	-0.008080985
108	0x3d0f11fb	0.034929257
109	0x3ad4c13b	0.0016231904
110	0x3b406f1e	0.0029363106
111	0x3c31c52b	0.010850231
112	0xbb991937	-0.0046721953
113	0xbcdfa23b	-0.027299037
114	0xbcba8d1e	-0.022772368
115	0xbb014790	-0.0019726492
116	0xbca60176	-0.020264369
117	0xbd2b9f6f	-0.041900095
118	0x3be509ab	0.006989678
119	0xbcea6b00	-0.028615475
120	0xbb3faa21	-0.0029245692
121	0x3cf05f86	0.029342424
122	0xb99a67e7	-0.00029450582
123	0xbd0e65d4	-0.03476508
124	0xbcf28baa	-0.029607613
125	0x3c4fed77	0.012690893
126	0xbc3b350b	-0.011426221
127	0xbc0882b6	-0.008331945

deconv1.weight f4 [128, 64, 3, 3]
0	0xbd206903	-0.039162647
1	0x3b755596	0.0037435046
2	0xbd4067d1	-0.046974007
3	0xbd28b400	-0.041187286
4	0x3cd44233	0.025910472
5	0xbd36c6e2	-0.044623263
6	0xbc89d7b5	-0.01682649
7	0xbce72c3a	-0.028219331
8	0xbc8d5e23	-0.017256802
9	0x3c6c994d	0.014440847
10	0x3a57cacd	0.0008231819
11	0x3d74d3c1	0.059772257
12	0x3c6ec3d8	0.01457306
13	0x3c161dca	0.009162376
14	0x3d107aa4	0.03527321
15	0x3c273885	0.010206346
16	0xbcb7895f	-0.02240437
17	0xbc31b893	-0.010847229
18	0xbb0fd189	-0.002194496
19	0xbd42852a	-0.047490276
20	0x3ca21332	0.019784544
21	0x3c78291c	0.01514652
22	0xbc9f6694	-0.019458093
23	0xbc9157b7	-0.017742021
24	0x3d18362c	0.037161037
25	0xbcd54f8b	-0.026038906
26	0x3c246102	0.010032894
27	0x3cfe3188	0.031029478
28	0x3c89ee2a	0.016837198
29	0xbc9fb294	-0.019494332
30	0x3d050e3b	0.032484274
31	0x3c2ef851	0.01067932
32	0xbd20a02c	-0.03921525
33	0xbcf55865	-0.029949376
34	0xbb5acd85	-0.003338666
35	0xbc677609	-0.014127263
36	0xbb5cbe8e	-0.0033682915
37	0x3c4716e6	0.0121514555
38	0xbd27ef8e	-0.04099994
39	0xbd18202a	-0.03714005
40	0x3d2453f0	0.04011911
41	0x3c80d606	0.015727054
42	0x3ba101f0	0.004913561
43	0x3cdaa1d4	0.026688494
44	0x3d304cb5	0.043041904
45	0x3cb4e7ba	0.022083152
46	0xbcbddbf4	-0.02317617
47	0xbd1489f2	-0.036264367
48	0x3cefd6fc	0.029277317
49	0xbcb50e18	-0.022101447
50	0xbd10cb4d	-0.035350133
51	0x3cab773a	0.020930875
52	0x3c6adf90	0.014335528
53	0x3c285c59	0.010275924
54	0xbc7ddba4	-0.015494261
55	0xbd9410d9	-0.07229776
56	0xbda4b56f	-0.08042418
57	0xbd8d5787	-0.0690146
58	0xbd290b76	-0.041270696
59	0xbd88e9da	-0.06685229
60	0xbd9a1277	-0.07523053
61	0xbaf06e25	-0.0018343373
62	0xbdb100c0	-0.08642721
63	0x3cce7b69	0.02520533
64	0x3ceb98b2	0.028759334
65	0x3d72c6f6	0.059271775
66	0x3c134fc2	0.008991184
67	0x3d17762d	0.036977936
68	0x3d724339	0.05914614
69	0x3d68e24b	0.056856435
70	0x3cc89a2f	0.024487583
71	0x3bb3034f	0.005463041
72	0x3c677be2	0.014128657
73	0xba9ce936	-0.0011971358
74	0xbca009a3	-0.019535845
75	0xbd358b50	-0.044322312
76	0x3c9f12f7	0.019418223
77	0x3c4dcf5f	0.012561648
78	0xbd3f283f	-0.04666924
79	0x3cc84e8a	0.024451513
80	0xbd37b0fb	-0.044846516
81	0xbd53146b	-0.051533144
82	0x3ca4eadc	0.02013152
83	0x3c837d49	0.016050952
84	0xbb4fc6ce	-0.003170419
85	0x3c756f61	0.014980168
86	0x3c7ed260	0.015553087
87	0xbbd5a1bb	-0.006519524
88	0x3c09bb53	0.008406478
89	0x3d00351c	0.03130065
90	0xbd52732d	-0.05137937
91	0xbd30f94a	-0.04320649
92	0xbd2fa6eb	-0.042883795
93	0xbd8bef98	-0.06832808
94	0xbc608eaa	-0.013705889
95	0xbc651132	-0.01398115
96	0xbd490c97	-0.049084272
97	0xbcaed383	-0.021341091
98	0xbcd7a247	-0.026322497
99	0xbd889174	-0.06668368
100	0xbbcfedfb	-0.006345508
101	0xbd063391	-0.03276402
102	0xbd86966b	-0.06571659
103	0xbcba4d2e	-0.02274188
104	0xbd7f97f9	-0.06240079
105	0x3bb1b776	0.0054234816
106	0x3c5d849e	0.013520388
107	0xbd4ac619	-0.049505327
108	0x3d2082ea	0.03918735
109	0xbc0766f5	-0.008264293
110	0x3c4ffca9	0.012694516
111	0xbcfa5568	-0.030558303
112	0x3ca43701	0.02004576
113	0xbc144523	-0.009049687
114	0xba842936	-0.0010083083
115	0x3ceb279c	0.02870541
116	0x3caacb53	0.020848906
117	0xbb2a12e1	-0.0025951194
118	0xbcf8a253	-0.03035084
119	0xbd262328	-0.04056087
120	0x3d15e9c4	0.03659989
121	0x3cc21aa3	0.023694342
122	0xbd4f499a	-0.0506073
123	0xbc87b401	-0.016565325
124	0xbd0acdde	-0.033887736
125	0x3c46cfa7	0.012134469
126	0x3d2be3d1	0.04196531
127	0xbca9cff0	-0.020729035
128	0x3d22659c	0.039647684
129	0x3d19ff3d	0.03759693
130	0x3c8f0190	0.0174568
131	0x3c1de138	0.009636216
132	0xbcbce48b	-0.023058197
133	0x3d3bfc3d	0.04589485
134	0xbcdeda74	-0.027203776
135	0x3d2474bb	0.040150385
136	0xbd14d918	-0.03633985
137	0x3d0ddefc	0.034636483
138	0xbb9cfe74	-0.0047910754
139	0xbd2459d5	-0.040124733
140	0x3d1feea1	0.039045934
141	0x3cb4e622	0.022082392
142	0x3ccb2ca2	0.024801556
143	0xbd31ad43	-0.043378126
144	0x3d2fb653	0.042898487
145	0x3cdbf86e	0.026851859
146	0x3cd740b4	0.02627597
147	0xbc339bf7	-0.010962478
148	0xbc75a333	-0.014992523
149	0xbd18c07b	-0.03729294
150	0x3a105039	0.0005505118
151	0x3c37d03c	0.011219081
152	0xbd1be7d3	-0.03806288
153	0x3c9b6fbe	0.018974181
154	0xbcf55a2a	-0.02995022
155	0xbd071bbd	-0.032985438
156	0x3bdec1b6	0.0067979945
157	0xbcdb888d	-0.02679851
158	0x3d0c7e7d	0.034300316
159	0xbcbb5e58	-0.022872135
160	0xbca1f1c6	-0.019768607
161	0xbc1165ce	-0.00887437
162	0xbbe7d71e	-0.0070752045
163	0xbd0f9fbc	-0.035064444
164	0xbcda44d3	-0.026644146
165	0x3c20ce0e	0.009814752
166	0x3ce44de4	0.027869172
167	0xbab3de04	-0.0013722782
168	0x3d09aeaa	0.03361384
169	0x3bd44f51	0.006479182
170	0x3c756a2c	0.014978927
171	0xbc1a9a24	-0.009436164
172	0x3bf41aa8	0.0074494667
173	0x3ce0f2a5	0.027459452
174	0xbcbdff09	-0.0231929
175	0x3cafe7ee	0.021472897
176	0x38e9e922	0.0001115373
177	0xbd1017b7	-0.035178866
178	0xbc0f4c4e	-0.00874622
179	0xbd04fe1c	-0.0324689
180	0x3d016a01	0.031595234
181	0x3bc4e4c1	0.006008715
182	0xbcc38426	-0.023866724
183	0x3bc31a4b	0.005954062
184	0xbd013446	-0.031543992
185	0x3b7c8684	0.0038532326
186	0x3c74bdfe	0.014937876
187	0xbc30f118	-0.010799669
188	0xbd03b2ee	-0.032153063
189	0xbcb2de5f	-0.02183455
190	0xbc74a69a	-0.014932299
191	0xbc4a2694	-0.012338299
192	0xbc19b3b6	-0.009381225
193	0xba6efc81	-0.00091166055
194	0x3c49dbe4	0.012320492
195	0x3d29d8e9	0.041466627
196	0xbd076cef	-0.03306287
197	0xbc8a9914	-0.016918696
198	0xbc9aabbb	-0.018880716
199	0xbd7ef332	-0.062243648
200	0xbd622b7e	-0.05521726
201	0xbd7db384	-0.061938778
202	0xbd5202df	-0.05127227
203	0xbd52be48	-0.051450998
204	0xbd8798fa	-0.06620975
205	0x3c37dc8a	0.011222014
206	0xbd6278b6	-0.0552909
207	0x3c9174bd	0.01775586
208	0x3c9d883e	0.019230004
209	0x3ce0abdd	0.0274257
210	0xbbc5a823	-0.0060320063
211	0xbccbeb98	-0.024892613
212	0x3ccbce91	0.024878772
213	0x3c4a25f5	0.012338151
214	0xbcf22b4a	-0.029561657
215	0xbcb93cb7	-0.022611959
216	0x3d257fdf	0.04040515
217	0x3d1c6f7a	0.03819225
218	0xbcea9926	-0.02863748
219	0xbcbb3837	-0.022853954
220	0x3b6b63ba	0.0035917596
221	0x3d026654	0.03183587
222	0xbc368daf	-0.011142178
223	0x3c4b3e73	0.012405026
224	0xbc9400ac	-0.018066727
225	0x3c6fab1e	0.0146282
226	0x3cc781c3	0.024353867
227	0x3bb850aa	0.0056248503
228	0x3d0d9e74	0.03457494
229	0xbc2c7667	-0.010526276
230	0x3d5181b5	0.05114909
231	0xbca09601	-0.019602777
232	0x3bf381ec	0.0074312594
233	0xbc41624e	-0.011803223
234	0x3d289ee4	0.041167155
235	0xbca0bc6c	-0.019621097
236	0x3d191ef7	0.037383046
237	0x3d23411f	0.039857026
238	0xbd03f33c	-0.03221439
239	0xbcabcf76	-0.020972949
240	0x3cea8272	0.028626654
241	0xbcf7078e	-0.03015497
242	0xbc432536	-0.011910727
243	0xbc2b12aa	-0.010441462
244	0xbc7eab93	-0.015543836
245	0x3c0a59b4	0.008444238
246	0xbcfa8163	-0.030579275
247	0x3c00fa56	0.007872185
248	0x3c45201d	0.012031582
249	0x3ca36316	0.019944709
250	0x3d019c98	0.03164348
251	0x3c6f750f	0.014615311
252	0xbc677ceb	-0.014128904
253	0x3d14ffe8	0.036376864
254	0x3b46b2ba	0.0030318932
255	0xbd558f42	-0.052138574

deconv1.bias f4 [64]
0	0xbc5c61f6	-0.01345109
1	0xbd386828	-0.045021206
2	0x3d259eb2	0.040434547
3	0x3c8cd838	0.017192945
4	0x3d165c68	0.03670922
5	0x3ba4dee5	0.005031454
6	0x3cef1c3b	0.029188266
7	0x3cdfa3ad	0.027299726
8	0xbc7d3bbe	-0.015456138
9	0x3d81ee99	0.06344337
10	0x3b8eaaf4	0.0043538753
11	0x3d302dd0	0.04301244
12	0x3d39946e	0.04530757
13	0x3d8393a3	0.06424644
14	0x3d333691	0.04375321
15	0xbb906500	-0.0044065714
16	0x3d2a044b	0.041508
17	0x3ba11bbe	0.004916637
18	0xbcba51a7	-0.022744013
19	0xbd22de71	-0.039762918
20	0x3b91955f	0.0044428553
21	0x3c043c63	0.008071038
22	0x3d2595a2	0.040425904
23	0x3d92839b	0.07154008
24	0xbd2a6bec	-0.04160683
25	0x3cef5604	0.02921582
26	0xbbc9c799	-0.006157827
27	0x3d33c22c	0.04388635
28	0x3d5d47d8	0.054023594
29	0xbca30764	-0.019900985
30	0xbc5e4e97	-0.013568542
31	0x3d82c9bb	0.06386133
32	0x3d2775ef	0.040883955
33	0x3d2213e6	0.039569758
34	0x3cac3452	0.021021042
35	0x3d29704f	0.04136687
36	0xbd28baf5	-0.04119392
37	0x3d1fb57f	0.038991448
38	0x3cac98f1	0.021069022
39	0x3d47cf63	0.048781764
40	0x3d28d1de	0.04121577
41	0x3d4b274b	0.04959802
42	0xbc82ee3e	-0.015982743
43	0xbcdbde97	-0.026839538
44	0x3d2b83ac	0.04187362
45	0xbc5d987e	-0.0135251265
46	0x3b7756da	0.0037740977
47	0xbcaa8d4d	-0.02081933
48	0xba480923	-0.0007630756
49	0xbd08f4b8	-0.033436507
50	0x3d6ccc0c	0.05781178
51	0x3d53803b	0.051635962
52	0xbc7f8e55	-0.015597899
53	0x3d5e02a5	0.05420174
54	0x3cbce609	0.023058908
55	0x3cac7e4c	0.021056317
56	0x3c157f6a	0.009124616
57	0x3c9d9852	0.019237671
58	0x3d63540e	0.055500083
59	0xbd316922	-0.043313153
60	0xbd1324b4	-0.035923675
61	0xbc58e626	-0.013238465
62	0x3c8b05e6	0.016970586
63	0x3d558fc7	0.05213907

deconv2.weight f4 [64, 64, 3, 3]
0	0x3cfd607f	0.030929802
1	0xbd14d3ff	-0.036334988
2	0xbc2c58fe	-0.010519264
3	0x3cd76502	0.026293281
4	0x3ccb5be6	0.024824094
5	0x3c8e4257	0.017365618
6	0xbd0763d5	-0.03305419
7	0xbc37b4ab	-0.011212508
8	0x3c0f8380	0.008759379
9	0x3c08253d	0.00830966
10	0xbd02a26e	-0.031893186
11	0x3b2989e0	0.0025869533
12	0xbccaedac	-0.024771534
13	0xbd265b32	-0.040614314
14	0xbd05ebbb	-0.032695513
15	0xbca71523	-0.020395821
16	0x3ca4c8fb	0.020115366
17	0xbbc3e96b	-0.0059787533
18	0x3d047d98	0.032346338
19	0x3cff92f7	0.031198008
20	0x3d0bc35f	0.034121867
21	0x3c826464	0.01591701
22	0xbce9e5bf	-0.028551934
23	0xbaee700a	-0.0018191349
24	0x3d114321	0.03546441
25	0x3c97fdd5	0.018553654
26	0xbd0a7f7b	-0.03381298
27	0xbcb3a412	-0.02192882
28	0xbcd4d505	-0.025980482
29	0x3d10e204	0.035371795
30	0x3cff7b31	0.031186672
31	0xbc0b798d	-0.008512867
32	0x3cf524c4	0.029924758
33	0x3d2966f9	0.041357968
34	0xbce00a28	-0.027348593
35	0xbc6c9b1e	-0.01444128
36	0xbd0f9154	-0.035050705
37	0x3d09ecee	0.03367322
38	0xbc5bbc72	-0.013411628
39	0xbc63e43c	-0.013909396
40	0x3d0bcd25	0.034131188
41	0x3cad9b0e	0.0211921
42	0xbb645dad	-0.0034845874
43	0x3d0b9998	0.034082025
44	0x3ced27e7	0.028949691
45	0x3d2fcfa6	0.04292264
46	0x3d39a454	0.04532273
47	0x3c8fdd3d	0.01756155
48	0x3b9a54a0	0.004709795
49	0x3d14b5ba	0.03630612
50	0xbbeb1ec7	-0.0071753
51	0x3d178817	0.03699502
52	0x3d2409d6	0.040048443
53	0x3d3b055f	0.04565942
54	0xbca8e1cb	-0.020615479
55	0x3b645a2d	0.0034843788
56	0xbbd7a97e	-0.0065814843
57	0x3cc14893	0.023594176
58	0xbcc423fe	-0.023942944
59	0x3b947bd3	0.0045313626
60	0xbb41deb4	-0.0029582204
61	0x3adc67ee	0.0016815641
62	0x3b00f5b2	0.0019677696
63	0xbc68c489	-0.014207014
64	0xbcca8eeb	-0.024726352
65	0xbcbc3c2e	-0.022977915
66	0xbc018e6b	-0.00790749
67	0x3c914c6f	0.017736642
68	0x3cfea516	0.031084578
69	0xbc55ad3b	-0.01304179
70	0x3cc0f27a	0.023553122
71	0x3d019468	0.03163567
72	0x3c155ff5	0.009117116
73	0x3d2507e9	0.040290747
74	0x3cb441ca	0.022004027
75	0xbd0d82a5	-0.03454842
76	0xbd233b70	-0.039851606
77	0x3d1fd665	0.039022822
78	0x3a925b38	0.0011166101
79	0x3cb5109c	0.022102647
80	0xbc41eb60	-0.011835903
81	0xbc7b2af9	-0.01533007
82	0xbc64baf7	-0.0139605915
83	0x3ca5be75	0.020232419
84	0xbbec35e0	-0.007208571
85	0x3c9e323f	0.019311069
86	0xbcd13d42	-0.025541905
87	0xbc863011	-0.016380342
88	0x3ca94231	0.020661445
89	0x3cbddd9b	0.023176959
90	0x39352e2d	0.00017278707
91	0xbd2c7c53	-0.042110752
92	0x3cbc216f	0.022965161
93	0x3d16abcb	0.03678493
94	0xbd013843	-0.031547796
95	0x3d12304e	0.0356906
96	0x3c61b426	0.013775861
97	0x3c9726e4	0.018451162
98	0x3ca269e5	0.019825885
99	0xbc6dd01f	-0.014514952
100	0x3c940685	0.018069515
101	0xbb8c7586	-0.004286471
102	0x3cf466e6	0.029834222
103	0x3c7082c4	0.014679614
104	0x3d3c4087	0.045959976
105	0xbc3dc2ca	-0.011582086
106	0x3d609c21	0.054836396
107	0x3d1d4e55	0.03840478
108	0x3d14d990	0.036340296
109	0x3d08a78f	0.03336292
110	0x3cfb2c20	0.030660689
111	0x398d8418	0.00026992033
112	0xbc950c8c	-0.01819446
113	0xbcec441c	-0.02884107
114	0x3c2442e3	0.010025713
115	0xbbd1532c	-0.0063880887
116	0xbcb4242f	-0.02198991
117	0xbc82ba5b	-0.015958002
118	0x3cd830b4	0.026390411
119	0x3b819696	0.003954719
120	0xba314828	-0.0006762766
121	0xbd150fc8	-0.036392003
122	0x3d2778ae	0.040886573
123	0xbcd079bb	-0.02544867
124	0x3a80eb0d	0.0009835676
125	0xbd104a87	-0.035227325
126	0xbd044a38	-0.032297343
127	0xbcf6f2a3	-0.030144995
128	0x3d1809fa	0.03711889
129	0xbcf34165	-0.029694268
130	0xbbf867da	-0.0075807394
131	0x3ae013e4	0.0017095772
132	0x3c4ad7ea	0.0123805795
133	0x3cc17eeb	0.02362009
134	0x3d0fd51a	0.03511534
135	0x3ac4eb8a	0.0015023809
136	0xbc3a0055	-0.011352618
137	0x3ba329a5	0.0049793296
138	0x3c7e21a0	0.0155109465
139	0x3c694119	0.014236712
140	0xbce229cf	-0.027607827
141	0xba95dd66	-0.001143378
142	0x3c1d8a5a	0.009615505
143	0xbcd63ece	-0.026152994
144	0xbc44ab1a	-0.012003684
145	0xbb76ae8e	-0.0037640664
146	0xbd001ca8	-0.03127733
147	0x3d0e2817	0.0347062
148	0xbd07fa83	-0.03319789
149	0x3ca32745	0.019916186
150	0x3cd0f4c4	0.025507338
151	0x3ca1a383	0.019731289
152	0x3ccd1804	0.025035866
153	0xbbcc9c7f	-0.0062442417
154	0xbd0771b0	-0.033067405
155	0xbd0a5dfa	-0.03378103
156	0x3ce39e85	0.027785549
157	0xbcc3ff1a	-0.023925353
158	0x3c8c70f3	0.017143702
159	0x3bb37da5	0.0054776245
160	0x3c403f78	0.011733882
161	0x3c442797	0.01197233
162	0x3d298c54	0.041393593
163	0xbd06c18c	-0.032899424
164	0x3c06876f	0.008211001
165	0x3cc4cafb	0.02402257
166	0x3d0e8c85	0.03480198
167	0xbd0d7703	-0.034537327
168	0xbcc1c834	-0.023655035
169	0x3d081ccb	0.033230584
170	0xbcbf14d2	-0.023325358
171	0x3c2b6a8a	0.010462413
172	0x3d3d3063	0.046188723
173	0x3d193f46	0.037413858
174	0x3cee9dd0	0.029127985
175	0x3d4cce3d	0.05000137
176	0x3bba10f5	0.005678291
177	0x3c9f9890	0.019481927
178	0x3d040e2b	0.032240074
179	0x3d70b5f3	0.05876727
180	0x3d20b83f	0.03923821
181	0x3c595c05	0.013266568
182	0x3ca65b49	0.0203072
183	0x3d1cc762	0.038276084
184	0x3c7fb50c	0.01560713
185	0xbcf1d4ec	-0.029520474
186	0xbd0785c5	-0.033086557
187	0xbca2ecc7	-0.019888295
188	0xbba539d7	-0.0050422954
189	0xbcc00c75	-0.02344344
190	0x3cae8631	0.021304222
191	0x3c0408e5	0.008058761
192	0xbc8a4849	-0.016880171
193	0x3c10949a	0.008824492
194	0x3b1bd515	0.002377813
195	0x3d3f0332	0.046633907
196	0x3cd39d2f	0.025831787
197	0xbc7d16c3	-0.015447321
198	0xbb8cb6ce	-0.004294253
199	0xbbeda60c	-0.0072524603
200	0xbc9a4706	-0.018832695
201	0x3d3c0974	0.045907453
202	0x3cd1ce04	0.025610931
203	0x3c8b9de4	0.017043062
204	0x3c838c9d	0.01605826
205	0xbcaa5651	-0.020793112
206	0x3c6444e1	0.013932438
207	0xbd338248	-0.043825418
208	0x3be2fd6d	0.0069271834
209	0xbc08a5a7	-0.008340276
210	0xbd0cc9d3	-0.034372162
211	0xbcf383e3	-0.029725974
212	0x3d1f68a0	0.038918138
213	0x3c8248d6	0.015903872
214	0xbbdd7c7d	-0.006759225
215	0xbd02de09	-0.03195003
216	0x3cbc8b99	0.023015784
217	0xbc877fc4	-0.016540416
218	0xba0d05a5	-0.0005379564
219	0xbd0feaa2	-0.035135873
220	0xbd14c97d	-0.036324967
221	0xbcdd76cc	-0.027034186
222	0x3c7133c2	0.014721813
223	0x3ce54ffc	0.027992241
224	0xbbf5936b	-0.00749438
225	0x3ca13dd1	0.019682797
226	0xbc6a0ab3	-0.014284777
227	0x3d375ed4	0.04476817
228	0x3c88aabf	0.01668298
229	0x3d1101ff	0.035402294
230	0xbc6a3435	-0.014294674
231	0xbccda464	-0.025102802
232	0x3d323825	0.043510575
233	0x3ba4facb	0.0050347797
234	0x3cfe57e0	0.031047761
235	0xbcbd1e85	-0.023085842
236	0xbcda272f	-0.026630012
237	0xbd03c559	-0.032170627
238	0xbc225f6e	-0.0099104475
239	0xbd2e1622	-0.042501576
240	0xbd097f1a	-0.03356848
241	0x3d07ccf9	0.03315446
242	0xbced23de	-0.028947767
243	0x3c5512b5	0.013004948
244	0x3c777671	0.015103922
245	0x3c8ebf76	0.01742528
246	0x3c034c2e	0.008013768
247	0x3bd64bb1	0.006539785
248	0xbc9dd995	-0.01926879
249	0x3aa595dc	0.0012633163
250	0x3c0f576f	0.008748873
251	0xbc5d6867	-0.013513661
252	0xbc4a30df	-0.012340753
253	0xbb041a61	-0.0020157325
254	0xbc892934	-0.01674328
255	0xbd1fa87e	-0.038979046

deconv2.bias f4 [64]
0	0x3c22ae97	0.009929321
1	0xbd7e697b	-0.062112313
2	0x3cbc8b2f	0.023015587
3	0xbd2164a2	-0.03940261
4	0xbc186a6b	-0.009302716
5	0xbd03fbbc	-0.032222494
6	0x3d5f7802	0.054557808
7	0x3d8d3a04	0.06895831
8	0xbd825000	-0.06362915
9	0x3dbc3b91	0.09191049
10	0x3a9072bb	0.001102052
11	0x3c69eb5f	0.014277308
12	0x3c4610b1	0.0120889405
13	0xbc9c9124	-0.019112177
14	0x3d0ec1c2	0.03485275
15	0x3d17f041	0.03709436
16	0xbca00db9	-0.019537793
17	0xbd923cea	-0.07140525
18	0x3c45eab2	0.0120798815
19	0xbbf371ab	-0.0074293218
20	0x3d90e352	0.07074608
21	0xbc39dca8	-0.011344112
22	0xbddb2aa3	-0.10701492
23	0x3c6d1e91	0.01447262
24	0x3d4e2fb0	0.050338447
25	0x3d2019c2	0.039087065
26	0x3d4aa746	0.04947593
27	0xbc2a6821	-0.010400803
28	0x3d8d7ddc	0.069087714
29	0xbdd72cda	-0.10506602
30	0x3d9bbe61	0.07604671
31	0xbd71e21b	-0.05905352
32	0xbc6ccce4	-0.014453147
33	0xbcf13ed7	-0.02944891
34	0x3d76309d	0.060104955
35	0xbca6db28	-0.020368174
36	0x3ca4e8be	0.020130511
37	0xbd999d2f	-0.075006835
38	0xbcf8aacb	-0.030354878
39	0x3befce75	0.007318313
40	0x3d74561c	0.059652433
41	0xbdd35c3e	-0.10320328
42	0xbcec981f	-0.02888113
43	0x3d9db3c5	0.07700304
44	0xbd559656	-0.052145325
45	0x3d835813	0.06413283
46	0x3ccce780	0.025012732
47	0xbd8c7c88	-0.0685969
48	0xbdcef6f0	-0.10105693
49	0x3d178844	0.036995187
50	0xbdb73732	-0.089460745
51	0x3d92680b	0.07148751
52	0xbd917c86	-0.07103829
53	0xbd5c1262	-0.05372847
54	0x3d88fbee	0.06688677
55	0x3d6277ae	0.055289917
56	0xbc962f93	-0.018333232
57	0xbd9cf2ef	-0.076635234
58	0xba911372	-0.0011068417
59	0x3d1c2e7b	0.038130265
60	0x3d3f8498	0.04675731
61	0xba00387f	-0.0004891231
62	0x3d2d3b74	0.042293027
63	0x3c877b6f	0.01653835
