contrastive_save_archive/contrastive_weights_epoch_22.pt (torch, 749116 bytes, 8 tensors)

conv1.weight f4 [64, 3, 3, 3]
0	0x3e1ad4e6	0.15120277
1	0x3de53ced	0.11193261
2	0x3e2f182a	0.17099062
3	0x3c32ae21	0.010905773
4	0xbdd5e6be	-0.10444401
5	0x3cb7f575	0.02245591
6	0x3e300612	0.17189816
7	0xbdd99dc3	-0.10625794
8	0xbe3df424	-0.18550164
9	0x3dd708e7	0.10499745
10	0xbe0d6581	-0.13808252
11	0xbdcae10a	-0.09906204
12	0xbce4070a	-0.027835388
13	0x3e184e47	0.1487361
14	0xbe36da98	-0.17856824
15	0x3cd34824	0.025791235
16	0xbbd8bec2	-0.006614537
17	0xbe1de0a3	-0.15417723
18	0xbbfd2835	-0.0077257403
19	0x3e2ef24a	0.17084613
20	0x3c20a5d6	0.009805163
21	0x3db6af94	0.089202076
22	0xbd66bd5a	-0.056332923
23	0xbd07bf0c	-0.03314118
24	0x3ddcd4d2	0.1078278
25	0x3dbfbdee	0.09362398
26	0xbe1678a8	-0.14694464
27	0xbd8e2382	-0.06940366
28	0x3c85334b	0.01625981
29	0x3d994ce9	0.074853726
30	0x3d385058	0.044998497
31	0x3dbc8c90	0.09206498
32	0x3e01e92b	0.12686603
33	0x3e03f429	0.12886108
34	0xbdcd8db7	-0.100367956
35	0x3e17dd6d	0.14830561
36	0xbcc93e79	-0.024565922
37	0xbd9435f7	-0.072368555
38	0xbe38fd9c	-0.18065494
39	0x3d476624	0.048681393
40	0xbd775d0b	-0.060391467
41	0xbe2e6805	-0.17031868
42	0x3e10bfd3	0.14135675
43	0xbc0552cd	-0.008137417
44	0xbe44c3a1	-0.19215252
45	0x3d3e52ef	0.04646581
46	0xbc1ebbf2	-0.009688364
47	0x3de5880d	0.1120759
48	0xbe193f37	-0.14965521
49	0x3e10a50c	0.1412546
50	0x3e0b85d4	0.1362527
51	0xbdd755e7	-0.105144314
52	0x3e3ed005	0.1863404
53	0xbe205b48	-0.15659821
54	0x3e214f7e	0.1575298
55	0x3b0f05fa	0.002182363
56	0xbe4869c6	-0.195716
57	0x3d010ecd	0.031508256
58	0x3e02f951	0.12790419
59	0xbe00b742	-0.12569907
60	0x3df46bec	0.11934647
61	0x3ddb5422	0.107094064
62	0xbe36794a	-0.17819706
63	0xbe0e2ebf	-0.1388502
64	0xbe059af8	-0.13047397
65	0xbe080273	-0.13282184
66	0x3e0ea42f	0.13929819
67	0x3e2960eb	0.16540878
68	0xbdd07467	-0.10178452
69	0x3c02ada1	0.007975967
70	0x3de3ffae	0.111327514
71	0x3df3fec7	0.11913829
72	0xbddac27f	-0.106816284
73	0xbdc9b602	-0.09849168
74	0xbd4d5037	-0.050125327
75	0xbb3446d9	-0.0027508049
76	0x3da0a9c1	0.07844878
77	0x3c71c6b2	0.014756845
78	0xbdb80fea	-0.0898741
79	0x3e53ffa4	0.20702988
80	0xbcd54acc	-0.026036642
81	0xbe2fe079	-0.17175473
82	0xbe1a796a	-0.15085378
83	0xbe1a3f84	-0.15063292
84	0x3e32e842	0.17471412
85	0x3d9b9a2f	0.075977676
86	0x3d4ff897	0.050774183
87	0x3d080e2d	0.033216644
88	0x3e3eef4d	0.18645974
89	0xbd89b523	-0.06724002
90	0xbe04e15f	-0.12976597
91	0xbe480008	-0.19531262
92	0xbd188a27	-0.037241127
93	0x3e23d36b	0.15998618
94	0xbd392293	-0.04519899
95	0x3deed8af	0.11662423
96	0x3dce54b5	0.1007475
97	0xbe265a08	-0.16245282
98	0x3e45f96e	0.19333431
99	0xbe2554c1	-0.16145612
100	0x3d736893	0.0594259
101	0xbde81236	-0.113315985
102	0x3cbbd43b	0.022928348
103	0x3e30dbc6	0.17271337
104	0x3d29e681	0.04147959
105	0x3e1a441c	0.15065044
106	0xbe19edaa	-0.15032068
107	0xbce30fba	-0.02771746
108	0xbe4a786e	-0.19772503
109	0x3db203cf	0.08692133
110	0xbe5e181a	-0.21688882
111	0xbe2fa385	-0.17152222
112	0xbe3e7986	-0.18601045
113	0x3d07f91b	0.03319655
114	0xbdce024b	-0.10059031
115	0xbba6256c	-0.005070379
116	0xbe4679d0	-0.19382405
117	0xbe1f8baa	-0.15580621
118	0x3e316c15	0.17326386
119	0x3dd36a7c	0.10323045
120	0xbb3e89d8	-0.002907386
121	0xbc592295	-0.013252874
122	0xbe2355f2	-0.15950754
123	0x3c62af9e	0.013835816
124	0x3c6c0563	0.014405581
125	0x3dd2c45c	0.10291359
126	0xbe5326e9	-0.20620312
127	0xbe4e01e1	-0.20117904
128	0xbdd11e6a	-0.10210879
129	0x3d19a7f6	0.037513696
130	0x3cd4d3b7	0.02597986
131	0xbe36b80a	-0.17843643
132	0xbd29c3cf	-0.041446503
133	0x3b993a06	0.0046761064
134	0x3dfbcff6	0.12295525
135	0xbd10fd6c	-0.035397932
136	0x3d83c776	0.064345285
137	0x3e2ae85b	0.16690199
138	0x3cbc5828	0.022991255
139	0xbdd7d9fd	-0.10539625
140	0x3dfaefdc	0.12252781
141	0xbe29a5b0	-0.16567111
142	0x3e1ba96a	0.15201345
143	0x3d04eb2e	0.032450847
144	0xbdcc2d10	-0.099695325
145	0xbd36b670	-0.04460758
146	0x3dab62d0	0.08368456
147	0xb9ed6488	-0.00045279064
148	0xbcc00a30	-0.023442358
149	0xbd45a065	-0.048248667
150	0x3e1bd5bf	0.15218256
151	0x3e145666	0.14486083
152	0x3e1413e3	0.14460711
153	0xbe18807d	-0.14892764
154	0xbe1453f2	-0.14485148
155	0x3d16a9ef	0.036783155
156	0x3d7707e7	0.06031027
157	0xbda6a47f	-0.08136844
158	0x3d13cdd6	0.036084972
159	0xbdfe9f89	-0.12432773
160	0xbc3f13de	-0.011662452
161	0x3d610d81	0.05494452
162	0xbdabe631	-0.08393515
163	0xbe340758	-0.17580926
164	0xbe416e95	-0.1888984
165	0x3d3f227d	0.04666375
166	0x3d4c0462	0.049808867
167	0x3d0a04a8	0.033695847
168	0x3db21652	0.086956635
169	0xbda5c8d7	-0.08094948
170	0xbc251e1b	-0.0100779785
171	0x3e33e589	0.1756803
172	0x3d16059e	0.03662645
173	0xbe15ba65	-0.14621885
174	0xbe4de647	-0.20107375
175	0x3cdad822	0.026714388
176	0x3df557e9	0.11979658
177	0xbe3e2c8e	-0.18571684
178	0x3c325fe8	0.010887124
179	0x3d25ee20	0.040510297
180	0xbd7fa73c	-0.062415347
181	0x3e124949	0.14285769
182	0xbe403b50	-0.18772626
183	0x3e274264	0.1633392
184	0xbd00f906	-0.031487487
185	0x3b0c00c4	0.002136276
186	0x3dc43620	0.09580636
187	0x3c70e539	0.014703088
188	0x3dc20333	0.094732665
189	0xbe3b3cfd	-0.18284984
190	0x3e421adb	0.18955557
191	0x3cbc06bb	0.022952428
192	0xbd072a1a	-0.032999136
193	0xbe45c655	-0.19313939
194	0xbde43ac8	-0.11144024
195	0xbe292797	-0.16519009
196	0x3df4abf0	0.11946857
197	0xb6c90109	-5.9903873e-06
198	0x3e024749	0.12722506
199	0x3d3387d1	0.043830696
200	0x3d3727af	0.04471558
201	0x3dc6188b	0.0967265
202	0x3e4564ec	0.1927678
203	0x3c032d30	0.008006379
204	0xbe02a370	-0.12757659
205	0x3e3ff5fe	0.18746182
206	0x3e2e256d	0.17006464
207	0x3e1a8f01	0.15093614
208	0xbe31a688	-0.17348683
209	0xbe01ef0c	-0.12688845
210	0x3df98075	0.12182704
211	0x3e11e112	0.14246014
212	0xbd271a50	-0.040796578
213	0x3cbfe721	0.02342564
214	0xbe200c9e	-0.15629813
215	0xbdbee1ea	-0.093204334
216	0xbdfc42b9	-0.12317414
217	0x3d962885	0.07331947
218	0x3e4071f4	0.1879347
219	0x3dbcaee2	0.09213044
220	0x3dbf318a	0.09335621
221	0xbde60201	-0.11230851
222	0xbd81bbb1	-0.063346274
223	0xbe131fe0	-0.14367628
224	0xbe448bd6	-0.19193968
225	0xbe0c2576	-0.13686165
226	0x3d7a786d	0.061150003
227	0x3d83396a	0.06407435
228	0x3df98b17	0.121847324
229	0xbda75682	-0.08170797
230	0x3df27b9c	0.11839983
231	0x3e05e532	0.13075712
232	0xbcca7769	-0.024715142
233	0x3e1d03e6	0.15333518
234	0xbdd175a3	-0.102275155
235	0x3d3c4923	0.045968186
236	0xbe15c64b	-0.14626424
237	0xbd905f1f	-0.07049393
238	0x3e3ce352	0.18446091
239	0xbd793b0d	-0.06084733
240	0x3e46c9ae	0.19412872
241	0xbdc0bd6a	-0.09411128
242	0xbe04c279	-0.1296481
243	0xbbe8831b	-0.007095707
244	0x3d90cd4b	0.070704065
245	0x3cafe818	0.021472976
246	0x3de846bd	0.11341617
247	0xbe3f6fb7	-0.1869496
248	0x3cddf4b5	0.027094224
249	0x3d27cc95	0.04096659
250	0x3e13b251	0.14423491
251	0xbddb97f0	-0.10722339
252	0xba8176c2	-0.0009877312
253	0xbd1dd3f4	-0.038532212
254	0xbe4b98b2	-0.19882467
255	0xbc0f1c75	-0.008734812

conv1.bias f4 [64]
0	0xbdd72139	-0.105043836
1	0xbdbb6938	-0.09150928
2	0xbd063e4d	-0.03277426
3	0xba17641f	-0.0005775112
4	0x3d974414	0.07386032
5	0xbe451fdd	-0.19250436
6	0x3e00bd1d	0.12572141
7	0xbe1d9aaa	-0.15391031
8	0xbdc36731	-0.095411666
9	0x3dbb45af	0.091441505
10	0xbda56540	-0.080759525
11	0x3dd547e6	0.10414104
12	0x3cc60243	0.024171
13	0x3e118024	0.14209038
14	0xbd861d98	-0.06548613
15	0x3bbba298	0.00572617
16	0x39b8c0be	0.0003523882
17	0xbd2b408e	-0.04180961
18	0xbe413e94	-0.18871528
19	0x3df14bf4	0.11782065
20	0x3dbbec49	0.09175927
21	0xbda61695	-0.08109776
22	0xbe549541	-0.20760061
23	0x3db3d227	0.08780318
24	0x3e1b0741	0.15139486
25	0x3d5b0395	0.053470213
26	0xbe09262d	-0.13393469
27	0x3d87f044	0.06637624
28	0x3d1ab4ef	0.037770208
29	0x3cfba69d	0.030719096
30	0x3e082200	0.1329422
31	0xbe4de2c4	-0.20106035
32	0xbcf8963f	-0.03034508
33	0xbd914366	-0.07092933
34	0x3db3fe4a	0.08788736
35	0xbdda009b	-0.10644647
36	0x3dbd4658	0.09241933
37	0x3d78a270	0.060701787
38	0xbd519957	-0.051171627
39	0xbde93073	-0.11386194
40	0xba8fde0a	-0.0010976207
41	0xbe52292b	-0.20523517
42	0x3be55135	0.006998206
43	0x3c16b3f9	0.009198182
44	0x3c3d60be	0.01155871
45	0x3b7f64d5	0.0038970013
46	0xbdc04b09	-0.09389312
47	0xb9dd9e13	-0.0004227018
48	0xbcdd97b8	-0.027049884
49	0x3c382b79	0.011240833
50	0xbd9a8693	-0.07545199
51	0x3acc70e4	0.0015597609
52	0x3db1f2ce	0.086888894
53	0x3d5da8e4	0.054116145
54	0x3de94574	0.113902
55	0x3d5b9ec4	0.053618208
56	0xbd345864	-0.04402961
57	0x3c6fd96a	0.014639238
58	0xbdc29fc6	-0.095031306
59	0x3c90c187	0.017670406
60	0xba408f10	-0.0007345537
61	0x3df7193a	0.120653585
62	0x3a4298fb	0.00074233086
63	0xbda7ff0f	-0.082029454

conv2.weight f4 [128, 64, 3, 3]
0	0x3d051dac	0.032499
1	0xbd1f123b	-0.038835745
2	0xbcb75252	-0.02237812
3	0x3c6800bd	0.014160332
4	0xbd14d12b	-0.03633229
5	0xbd51ee08	-0.051252395
6	0x3cf1b620	0.02950579
7	0x3c074042	0.008255066
8	0xbb7c1940	-0.0038467199
9	0xbd358a46	-0.04432132
10	0xbd3c9de0	-0.046049
11	0xbd753d65	-0.059873004
12	0xbb8a8f93	-0.004228541
13	0xbd548dfd	-0.051893223
14	0xbce9281e	-0.028461512
15	0xbca1abb1	-0.01973519
16	0xbd31583f	-0.04329705
17	0xbd74b7d5	-0.05974563
18	0xbcf2659e	-0.02958947
19	0xbd6c2030	-0.057647884
20	0xbde08899	-0.10963554
21	0x3ca246e0	0.019809186
22	0xbc923082	-0.017845396
23	0x3bdf9b89	0.006823961
24	0x3cf889dd	0.030339176
25	0xbcaa41fe	-0.02078342
26	0xbd0dde60	-0.0346359
27	0x3d7d0a8b	0.061777633
28	0x3d293c84	0.041317478
29	0x3da0d1ce	0.07852517
30	0x3da4bfbf	0.08044385
31	0x3d94abb4	0.07259312
32	0x3dae2ce5	0.08504657
33	0x3d86857a	0.065684274
34	0x3c339483	0.010960701
35	0x3d979241	0.074009426
36	0x3d12a159	0.035798404
37	0x3c041ae0	0.008063048
38	0x3c16499e	0.009172825
39	0xbc071c63	-0.008246514
40	0xbc15bd97	-0.00913944
41	0xbb22044f	-0.0024721806
42	0xbd034e11	-0.03205687
43	0xbd0233e8	-0.031787783
44	0xbd5987c4	-0.05310799
45	0xbc142863	-0.009042832
46	0xbd2344a2	-0.039860375
47	0xbb7eed89	-0.0038898906
48	0xbc8de0ad	-0.017319048
49	0x3d0d7976	0.034539662
50	0x3c8b199d	0.016979987
51	0xbce2b16c	-0.027672492
52	0xbc8309fd	-0.015995974
53	0xbbea1368	-0.0071434267
54	0xb93eaa29	-0.00018183202
55	0xbcb9a788	-0.022662893
56	0x3d423285	0.04741146
57	0x3d2d65cc	0.04233341
58	0xbcc83bd8	-0.024442598
59	0x3d38f339	0.04515383
60	0x3b9c1023	0.004762666
61	0xbc805e97	-0.015670104
62	0x3d0e6f1f	0.034773942
63	0x3cd5ec83	0.026113754
64	0xbc05164b	-0.008122991
65	0xbd4cc6c4	-0.049994245
66	0xbbe46229	-0.0069697094
67	0x3c7d392d	0.015455526
68	0xbd1dba37	-0.038507666
69	0xbd066592	-0.03281171
70	0xbb37880b	-0.0028004672
71	0xbd1c8e78	-0.038221806
72	0xbccbb3d2	-0.024866018
73	0xbb982759	-0.0046433625
74	0xbc976d82	-0.018484835
75	0xbc7a9cc6	-0.015296167
76	0x3ae94a03	0.0017798546
77	0xbd84079c	-0.06446764
78	0xbcef9166	-0.029244136
79	0xbd7fa724	-0.062415257
80	0x3c16c1b0	0.009201452
81	0x3cab5716	0.02091555
82	0xbd2f1d61	-0.042752627
83	0xbc900de4	-0.017584749
84	0xbd0f0ab3	-0.034922313
85	0xbd323d01	-0.04351521
86	0x3b9818be	0.0046416214
87	0x3ca1ae65	0.019736478
88	0xbd27ca6c	-0.04096453
89	0xbd207ec9	-0.03918341
90	0x3d00bcd8	0.031430095
91	0xbd11b3de	-0.035571925
92	0xbc657333	-0.014004516
93	0xbd2ea592	-0.04263837
94	0xbd23f01a	-0.0400239
95	0x3c596204	0.013267998
96	0xba58c02c	-0.0008268382
97	0xbae6680b	-0.0017578615
98	0x3b9053ad	0.004404506
99	0xbd11dcb2	-0.035610862
100	0xbd47ed2c	-0.04881017
101	0xbd99182d	-0.07475314
102	0x3b828f78	0.003984388
103	0xbcfa9333	-0.030587768
104	0xbb131b5d	-0.002244673
105	0xbcd0d046	-0.025489938
106	0xbcb421e3	-0.021988815
107	0xbc92046d	-0.017824376
108	0x3caf5a91	0.02140549
109	0x3c648efc	0.013950106
110	0xbc6ac98a	-0.014330277
111	0x3cbe6e0b	0.023245832
112	0x3bcc6707	0.0062378678
113	0xbc4150c0	-0.011799037
114	0x3c88b58f	0.016688136
115	0xbbce4b0d	-0.006295568
116	0x3c8838f7	0.016628725
117	0xbc1203b6	-0.008912018
118	0x3ca99fe2	0.02070612
119	0xbbd00506	-0.006348255
120	0x391d3fe4	0.00014996488
121	0x3bd4c5f3	0.006493324
122	0xbcb85acb	-0.022504231
123	0xbcfddc04	-0.0309887
124	0xbd4cacd2	-0.0499695
125	0xbc304779	-0.010759228
126	0xbcb00ebf	-0.021491406
127	0x3c037119	0.00802257
128	0xbcc0d5e7	-0.023539497
129	0x3c90da53	0.01768223
130	0x3ca389d6	0.019963186
131	0x3d12cb6b	0.035838526
132	0xbd26eb2f	-0.040751632
133	0x3d06d6c8	0.032919675
134	0xbc3cc27d	-0.011520979
135	0x3d7a4802	0.06110383
136	0x3cfb31a8	0.030663326
137	0x3ca3a91c	0.019978099
138	0x3c8bef84	0.017081983
139	0x3d81345f	0.06308817
140	0x3cce835f	0.025209127
141	0x3d06e6c6	0.032934926
142	0xbcbe422c	-0.023224913
143	0x3caf5189	0.021401184
144	0xbd8cf43f	-0.06882524
145	0xbd8f8ff6	-0.0700988
146	0xbe100df5	-0.14067824
147	0xbdcc478e	-0.099745855
148	0xbdb30c41	-0.087425716
149	0xbdc5389c	-0.09629938
150	0xbd7cbe8b	-0.061705153
151	0xbe02e06d	-0.12780924
152	0xbdf9b7d8	-0.121932685
153	0xbdca4976	-0.09877293
154	0xbd29a133	-0.041413497
155	0xbdd98719	-0.10621471
156	0xbdad4ec1	-0.08462287
157	0xbdaf3fce	-0.08557092
158	0xbd98e2e1	-0.07465149
159	0xbd98acec	-0.07454857
160	0xbd36f947	-0.044671323
161	0x3d2d0ab7	0.042246547
162	0xbd28173e	-0.04103779
163	0xbbfc4f3d	-0.0076998756
164	0xbd1ebb77	-0.038753
165	0xbcdaccae	-0.026708927
166	0x3cedbf7d	0.029021973
167	0xbbc9d2d4	-0.006159166
168	0xba112d89	-0.00055380963
169	0x3cf629cf	0.030049233
170	0xbc98bbc5	-0.018644223
171	0x3d14e0c6	0.036347173
172	0x3cb77d96	0.022398751
173	0xbcc86ac2	-0.024464969
174	0x3d14191f	0.03615677
175	0xbd2639e2	-0.040582545
176	0xbd15ab83	-0.03654052
177	0x3c52b93e	0.012861548
178	0x38d12e98	9.9745754e-05
179	0x3ac87f0f	0.0015296655
180	0xbcdb29e4	-0.026753373
181	0x3baeb10b	0.0053311638
182	0xbce7a51c	-0.028276972
183	0xbb884b2c	-0.004159352
184	0x3c66982e	0.014074368
185	0xbad33d70	-0.0016116332
186	0xbd22ba5b	-0.039728504
187	0xbce3f216	-0.027825397
188	0xbd920820	-0.07130456
189	0xbb3720c1	-0.0027943107
190	0x3d5eb8e0	0.05437553
191	0x3d12df27	0.035857346
192	0x3c5d1165	0.013492917
193	0x3bb75fb8	0.0055961274
194	0x3d18a5e8	0.037267596
195	0x3d0aec49	0.033916745
196	0x3cc25bf4	0.023725487
197	0x3d3910c1	0.045181993
198	0x3cfa7f65	0.030578325
199	0x3ce1ca5a	0.027562309
200	0x3d1fcd67	0.039014246
201	0xbd0e261a	-0.034704305
202	0x390f9399	0.00013692527
203	0x3c484006	0.012222296
204	0xbc961754	-0.01832167
205	0xbc9bff78	-0.019042715
206	0xbbaaf49b	-0.0052171475
207	0xbcea18eb	-0.028576335
208	0xbc243aae	-0.010023756
209	0x3b909b32	0.004413032
210	0x3d1e3d24	0.038632527
211	0x3d1bf654	0.038076714
212	0xbcb5ad20	-0.022177279
213	0x3c35fed7	0.011108122
214	0xbbabef30	-0.005247019
215	0x3d376b5f	0.04478013
216	0x3ca2f158	0.019890472
217	0xbab3a51b	-0.0013705821
218	0x3d1114e7	0.035420325
219	0xbc89470b	-0.016757509
220	0x3c864cdd	0.016394073
221	0xbc87a80f	-0.016559629
222	0xbaf624e4	-0.0018779305
223	0x39389333	0.00017602443
224	0xbd53d7e3	-0.051719557
225	0x3cb6af2c	0.022300325
226	0xbcc78f38	-0.024360284
227	0x3ce4b593	0.027918613
228	0xbc37a8a8	-0.011209644
229	0x3c87db02	0.016583923
230	0x3c21bd56	0.009871801
231	0x3ccd860a	0.025088329
232	0xbc1a7922	-0.009428294
233	0x3c95fc77	0.018308861
234	0x3b61732d	0.0034400926
235	0xbc044050	-0.008071974
236	0xbceb5be2	-0.028730337
237	0xbd2809b6	-0.041024886
238	0xbaff50a9	-0.0019478995
239	0x3c073bce	0.008254005
240	0x3ca3becc	0.01998844
241	0xbbb80e31	-0.005616926
242	0xbd068378	-0.032840222
243	0xbd35d8e0	-0.04439628
244	0xbd4181ae	-0.047242813
245	0x3d096d1e	0.033551328
246	0x3ca81799	0.020519065
247	0x3cc089a7	0.023503138
248	0xbc681b8c	-0.014166724
249	0xbd4d48d4	-0.050118282
250	0xbc9a5ce1	-0.018843116
251	0xba588c84	-0.00082606846
252	0xbcf52fdd	-0.02993005
253	0x3cf71622	0.030161921
254	0x3c954fd1	0.018226536
255	0x3d00abda	0.03141389

conv2.bias f4 [128]
0	0x3d0b6b82	0.034038074
1	0x3c55676c	0.013025146
2	0x3c4271ce	0.011867953
3	0x3d11701f	0.035507318
4	0x3c89193e	0.01673567
5	0xbd26893a	-0.040658213
6	0x3bb61724	0.005556958
7	0x3c9b59a7	0.018963648
8	0xbc71c0bc	-0.014755424
9	0x3d23cff5	0.039993245
10	0xbd33a102	-0.04385472
11	0xbcdd056f	-0.02698013
12	0x3c90f4df	0.017694889
13	0xbc9234c4	-0.017847426
14	0x3cbff013	0.023429906
15	0x3d1463c3	0.036227953
16	0x3d156d8a	0.036481418
17	0xbd2a2218	-0.04153642
18	0xbcae27fe	-0.021259304
19	0xbd09ed38	-0.033673495
20	0x3c0069df	0.007837742
21	0x3cae321f	0.021264134
22	0xbcda806b	-0.026672563
23	0x3c497fa8	0.012298502
24	0x3d046c09	0.032329593
25	0x3c4c8a54	0.012484152
26	0xbd244138	-0.04010126
27	0xbbe0ead5	-0.0068639317
28	0x3c12eabd	0.008967099
29	0x3d15c0cf	0.03656083
30	0x3d88d1b0	0.0668062
31	0xbcdec77b	-0.02719473
32	0xbb6cc9cb	-0.003613102
33	0x3d3e21b6	0.046418868
34	0xbc3dc972	-0.011583673
35	0xbc6f9041	-0.014621795
36	0xbd00ea46	-0.03147342
37	0xbc533be0	-0.012892693
38	0x3c8aecb2	0.016958568
39	0xbc897e4b	-0.016783854
40	0x3d067981	0.03283072
41	0x3cafe1d7	0.021469994
42	0x3d1c82d7	0.038210716
43	0xbc1580cc	-0.009124946
44	0x3d027994	0.031854227
45	0x3a4f71f2	0.00079134025
46	0x3b383cdd	0.002811245
47	0x3cad9cc3	0.021192914
48	0xbc154484	-0.009110574
49	0x3cba45bc	0.02273833
50	0x3d05ed56	0.032697044
51	0xbb91192c	-0.0044280495
52	0xbc9aa873	-0.018879151
53	0xbc138034	-0.009002734
54	0x3c9e1868	0.019298747
55	0xbd40c7c5	-0.047065515
56	0x3d083ef1	0.03326315
57	0x3d0e6dce	0.034772687
58	0xbd34bca5	-0.044125218
59	0x3d10aa71	0.035318796
60	0x3cefe455	0.029283682
61	0xbd023456	-0.031788193
62	0xbb458fb2	-0.0030145464
63	0xbbda7ea2	-0.006667928
64	0xbc888b3f	-0.01666796
65	0xbd3efe0f	-0.046629008
66	0x3c80a09f	0.01570159
67	0xbca710bb	-0.02039372
68	0x3cd72348	0.02626194
69	0xbd311b33	-0.04323883
70	0xb9571063	-0.00020510102
71	0xbcbdd3a4	-0.023172207
72	0x3c0b65bf	0.008508145
73	0x3d249fef	0.040191587
74	0xbceb0254	-0.028687634
75	0xbd2020d2	-0.0390938
76	0xbd1171a8	-0.03550878
77	0x3d3970d0	0.045273602
78	0x3cdbf7e1	0.026851596
79	0xbcc75beb	-0.024335822
80	0x3d2ddd8d	0.042447615
81	0xbd1cc41d	-0.038272966
82	0xbc65e2a0	-0.014031082
83	0x3d8142a4	0.06311539
84	0xbc999df7	-0.018752081
85	0x3d11a0bf	0.03555369
86	0x3d104782	0.035224445
87	0x3b023806	0.0019869818
88	0x3b0c2e1f	0.0021389795
89	0xbc89f308	-0.01683952
90	0xbb9197c4	-0.0044431407
91	0x3d5420ac	0.05178897
92	0xbb7bddb1	-0.00384317
93	0x3cde2690	0.027117997
94	0xbbb50f47	-0.005525503
95	0xbd0468a4	-0.032326356
96	0xbc886548	-0.016649857
97	0xbd1d293a	-0.038369395
98	0x3adbdf1f	0.0016774869
99	0xbcfbebde	-0.030752119
100	0xbccd4760	-0.025058448
101	0xbcae6fa0	-0.021293461
102	0xbca86caa	-0.020559628
103	0xbd3745f0	-0.044744432
104	0xbc616bf3	-0.013758647
105	0x3d09f47c	0.033680424
106	0xbc170b22	-0.009218963
107	0xbc314178	-0.010818832
108	0x3d050fb3	0.032485675
109	0x3b52fead	0.0032195256
110	0x3bc32b17	0.0059560644
111	0x3c260495	0.010132928
112	0xbbc4949b	-0.0059991605
113	0xbd11046a	-0.0354046
114	0xbcf5c5d5	-0.03000156
115	0x3c1002d5	0.008789738
116	0xbd0ecd2f	-0.034863647
117	0xbd457a1d	-0.04821216
118	0x3c5b1372	0.013371335
119	0xbcfa053f	-0.03052008
120	0x3b42c685	0.0029720378
121	0x3cecc63e	0.028903123
122	0x3b07d253	0.0020724728
123	0xbd0c3400	-0.03422928
124	0xbd11c695	-0.035589773
125	0x3c9ab215	0.018883744
126	0xbc8acf19	-0.016944455
127	0xbc0dad63	-0.008647296

deconv1.weight f4 [128, 64, 3, 3]
0	0xbd90aaeb	-0.0706385
1	0xbc797ccb	-0.015227507
2	0xbd8a5b9c	-0.06755754
3	0xbd6f6a5a	-0.058451034
4	0x3ca6e984	0.02037502
5	0xbd5bb905	-0.053643245
6	0xbd0eea9a	-0.034891702
7	0xbd1460fd	-0.036225308
8	0xbcee8bf2	-0.029119466
9	0x3c891268	0.01673241
10	0x3ad703ba	0.0016404309
11	0x3d755c10	0.05990225
12	0x3c6c63d3	0.014428097
13	0x3bfbfc7c	0.0076900106
14	0x3d088a72	0.033335157
15	0x3c074b73	0.008257735
16	0xbcd0b242	-0.025475625
17	0xbc6ab6ba	-0.014325792
18	0xbc5fa0f4	-0.013649214
19	0xbd580684	-0.05274059
20	0x3ca941e4	0.020661302
21	0x3bfd0033	0.007720971
22	0xbcac8fb6	-0.02106462
23	0xbc597bf5	-0.013274183
24	0x3d10f553	0.03539021
25	0xbcb5c474	-0.022188403
26	0x3ca26a65	0.019826123
27	0x3cb8fafb	0.022580614
28	0x3bf6ff70	0.0075377747
29	0xbcdca8f2	-0.026936028
30	0x3cb24f2e	0.021766271
31	0xba6ef6dd	-0.0009115765
32	0xbd480146	-0.04882934
33	0xbd212dcb	-0.039350312
34	0xbc5c68d4	-0.013452727
35	0xbcb51bea	-0.022108037
36	0xb9e1d26e	-0.00043072127
37	0x3c5972f0	0.013272032
38	0xbd1b9dfd	-0.037992466
39	0xbd0ed9a6	-0.034875534
40	0x3d268dcd	0.040662576
41	0x3c95c2ca	0.01828136
42	0x3c13c19e	0.00901833
43	0x3cf06c37	0.029348476
44	0x3d4429c6	0.0478914
45	0xbb0deb2f	-0.0021655073
46	0xbd332d40	-0.043744326
47	0xbd6dc90e	-0.05805307
48	0x3c1bf07e	0.009517787
49	0xbd1cbea3	-0.038267743
50	0xbd58dbd9	-0.052944038
51	0x3afe759a	0.001941371
52	0xbab26d32	-0.0013612865
53	0xbbe3fec5	-0.006957861
54	0xbd4cf115	-0.0500346
55	0xbdb60168	-0.08886987
56	0xbddd9a6c	-0.10820469
57	0xbdb7ce74	-0.08974925
58	0xbd36698f	-0.044534262
59	0xbda75da8	-0.081721604
60	0xbdcca0dc	-0.09991619
61	0xbc3dc496	-0.011582514
62	0xbddd92be	-0.108190045
63	0x3d0395c0	0.032125235
64	0x3d063001	0.032760624
65	0x3d81a9ec	0.06331238
66	0x3c50fdd3	0.012755829
67	0x3d1b8182	0.037965305
68	0x3d7707da	0.060310222
69	0x3d721930	0.059106052
70	0x3cc59c01	0.02412224
71	0x3bad5f69	0.005290915
72	0x3ce5fa99	0.028073596
73	0x3bac098f	0.005250163
74	0xbc541273	-0.012943852
75	0xbd102631	-0.035192672
76	0x3cb9a2fc	0.022660725
77	0x3c87de33	0.016585445
78	0xbd6418da	-0.055687763
79	0x3c3576d0	0.01107569
80	0xbd6bc73c	-0.05756305
81	0xbd5c51c8	-0.05378893
82	0x3d1d5907	0.03841498
83	0x3d347081	0.044052605
84	0xbd129a81	-0.035791878
85	0x3c9bd242	0.019021157
86	0x3ce9ef8f	0.028556613
87	0xbd697256	-0.056993805
88	0xbbdf9833	-0.0068235635
89	0x3cd975d6	0.026545446
90	0xbd76c270	-0.060244024
91	0xbd1e114e	-0.03859072
92	0xbd315ce2	-0.04330147
93	0xbd91df53	-0.07122674
94	0xbb955f9f	-0.004558518
95	0xbc2ec842	-0.010667862
96	0xbd71c282	-0.059023388
97	0xbcae0ab8	-0.021245345
98	0xbd073e3f	-0.033018347
99	0xbd8fc5a5	-0.070201196
100	0xbb1a2155	-0.0023518403
101	0xbd0e4ded	-0.034742285
102	0xbd80634e	-0.06268941
103	0xbc5afcc7	-0.013365931
104	0xbd758fb1	-0.059951488
105	0x3ba693e2	0.005083547
106	0x3c937737	0.018001182
107	0xbd581f39	-0.05276415
108	0x3d3a3c93	0.045467924
109	0xbc22a263	-0.009926411
110	0x3c28d650	0.010305002
111	0xbc803e63	-0.015654748
112	0x3cf7e140	0.030258775
113	0x3bbe4965	0.005807089
114	0x3ca59d17	0.020216508
115	0x3d4c48f8	0.049874276
116	0x3d497aab	0.04918925
117	0x3c074e7c	0.008258458
118	0xbcc361db	-0.023850372
119	0xbcf8e7ad	-0.03038391
120	0x3d17daeb	0.03707401
121	0x3cb6f176	0.022331934
122	0xbd45360b	-0.048147243
123	0xbca98345	-0.020692477
124	0xbd20a239	-0.039217208
125	0x3c2ff36c	0.010739189
126	0x3c82786a	0.015926559
127	0xbd58162c	-0.05275552
128	0x3ac844fa	0.0015279346
129	0x3cc43059	0.023948835
130	0xbb0a4c95	-0.0021102775
131	0xbc827853	-0.015926516
132	0xbcda8346	-0.026673924
133	0x3d143aa7	0.036188748
134	0xbd2ea372	-0.042636342
135	0x3d015448	0.031574517
136	0xbd381bdd	-0.044948447
137	0x3ce7d5fc	0.028300278
138	0xbc94047e	-0.018068548
139	0xbd5a17b8	-0.053245276
140	0x3ce7ee81	0.02831197
141	0x3bd2210b	0.0064126304
142	0x3c19b06b	0.00938044
143	0xbd668f79	-0.05628917
144	0x3d7f45ae	0.06232231
145	0x3d357efa	0.044310547
146	0x3d256503	0.040379535
147	0xbba43f6c	-0.0050124433
148	0xbc316106	-0.010826355
149	0xbd148f7c	-0.03626965
150	0xbb578380	-0.0032884777
151	0x3bbf0417	0.005829345
152	0xbd3fa4ef	-0.046788152
153	0x3c42064c	0.011842322
154	0xbd16ddc3	-0.036832582
155	0xbd1833d6	-0.03715881
156	0xbb4cc0cd	-0.0031242848
157	0xbd15e597	-0.036595907
158	0x3cdf491b	0.02725654
159	0xbd07feed	-0.0332021
160	0xbcf57194	-0.029961385
161	0xbc84ece6	-0.016226243
162	0xbc3ab210	-0.0113949925
163	0xbd218148	-0.039429933
164	0xbd02f19f	-0.03196871
165	0x3c81a30e	0.01582482
166	0x3d0a9b11	0.03383929
167	0x3b76904f	0.0037622636
168	0x3d38643c	0.045017466
169	0x3c930b4e	0.017949726
170	0x3cd28637	0.025698764
171	0xbc10b355	-0.008831819
172	0x3a3c4b7a	0.0007182878
173	0x3c380f1e	0.011234073
174	0xbcd30ce2	-0.025762979
175	0x3c6498ce	0.013952447
176	0xbc184944	-0.009294812
177	0xbd0b507b	-0.0340123
178	0xbc16f968	-0.0092147365
179	0xbd182019	-0.037139986
180	0x3d2938b1	0.04131383
181	0x3b8d65e4	0.004315125
182	0xbcf72772	-0.030170176
183	0x3c245096	0.010028979
184	0xbd1d3431	-0.03837985
185	0xbbf9803b	-0.007614163
186	0x3c6ff4ac	0.014645737
187	0xbcb425f5	-0.021990756
188	0xbd45b746	-0.048270486
189	0xbbd28814	-0.006424913
190	0xbc897f3e	-0.016784307
191	0xbcd1ea8d	-0.025624538
192	0x3b849e0e	0.004047162
193	0xbb886426	-0.0041623292
194	0xbac19d9c	-0.0014771703
195	0x3d5d5499	0.054035757
196	0xbd1664af	-0.036717113
197	0xbcfcee50	-0.030875355
198	0xbcca3e67	-0.024687959
199	0xbd71571c	-0.058920965
200	0xbd63a69e	-0.05557882
201	0xbd56c22f	-0.05243128
202	0xbd0628e6	-0.032753848
203	0xbd185f71	-0.037200395
204	0xbd5c3639	-0.05376265
205	0x3d02fe13	0.031980585
206	0xbd1fb40c	-0.038990065
207	0x3ca07a7a	0.019589651
208	0x3c95b394	0.018274106
209	0x3ce92598	0.028460309
210	0xbbd15f56	-0.0063895388
211	0xbce301cf	-0.027710823
212	0x3cc68cd4	0.024237074
213	0x3c492100	0.012275934
214	0xbd024a41	-0.031809095
215	0xbcb9658f	-0.022631435
216	0x3d6dcfde	0.058059566
217	0x3d43f7f0	0.047843874
218	0xbcc33750	-0.023830086
219	0xbbb28dc8	-0.0054490305
220	0x3c5799a7	0.013159192
221	0x3d16d3a2	0.036822923
222	0x3bd4c726	0.006493467
223	0x3cb83d11	0.022490056
224	0xbc4c4b1e	-0.012469081
225	0x3c65acd8	0.01401826
226	0x3cb89b38	0.022534952
227	0x3bbc9e7d	0.005756198
228	0x3d01baec	0.031672403
229	0xbc6d9c20	-0.014502555
230	0x3d4981cc	0.04919605
231	0xbcbcba6a	-0.023038108
232	0x3b49b77f	0.0030779538
233	0xbc67f7df	-0.014158218
234	0x3d7895c3	0.0606897
235	0xbc00a1ce	-0.007851077
236	0x3d3f3dcc	0.046689793
237	0x3d48a735	0.048987586
238	0xbcfe1d23	-0.031019753
239	0xbcb2a683	-0.021807915
240	0x3d054d45	0.032544393
241	0xbd0b4da1	-0.03400958
242	0xbc8e59ff	-0.017376898
243	0xbcfe21d0	-0.031021982
244	0xbcf714fd	-0.030161375
245	0xbc49425f	-0.0122838905
246	0xbd65c3c3	-0.056094896
247	0xbc4621bf	-0.012093007
248	0xbc85fa23	-0.016354626
249	0xbb441f12	-0.0029925746
250	0x3c37f4b0	0.011227772
251	0xbc63263c	-0.013864096
252	0xbcbd962d	-0.023142898
253	0x3cd49ba6	0.025953125
254	0xbb8b9002	-0.0042591104
255	0xbd6f0c30	-0.058361232

deconv1.bias f4 [64]
0	0xbbb30891	-0.0054636677
1	0xbd6187a5	-0.055061
2	0x3d253b62	0.040339835
3	0x3c8c0214	0.017090835
4	0x3d2bede3	0.041974913
5	0x3c7d8bec	0.0154752545
6	0x3d12ea30	0.03586787
7	0x3d090f45	0.033461828
8	0xbbc636bc	-0.0060490053
9	0x3da16e1a	0.07882328
10	0x3c7a6960	0.015283912
11	0x3d65fa7b	0.05614708
12	0x3d715628	0.058920056
13	0x3d9005e7	0.07032376
14	0x3d5e325b	0.05424724
15	0x3a99791f	0.001170907
16	0x3d6a6672	0.057226606
17	0x3bd4c02d	0.0064926357
18	0xbc786024	-0.01515964
19	0xbd35f4ac	-0.04442279
20	0x3c453544	0.012036625
21	0x3c3dc819	0.0115833515
22	0x3d334524	0.04376711
23	0x3da105e1	0.078624494
24	0xbd1e0931	-0.038582984
25	0x3d0b309b	0.0339819
26	0xbb4cb778	-0.0031237286
27	0x3d547ab7	0.051874842
28	0x3d8c0b93	0.06838145
29	0x3a89be67	0.0010509015
30	0x3b6948c1	0.0035596343
31	0x3d970989	0.073748656
32	0x3d56b274	0.05241628
33	0x3d4f4dee	0.05061143
34	0x3cbe0ca6	0.02319939
35	0x3d22de10	0.039762557
36	0xbd14cb28	-0.036326557
37	0x3d28fce1	0.04125679
38	0x3cb8cdfa	0.022559155
39	0x3d5c606e	0.0538029
40	0x3d469ee1	0.048491362
41	0x3d6db2ef	0.058031972
42	0xbc9008f4	-0.017582394
43	0xbcbca608	-0.023028389
44	0x3d5403aa	0.051761307
45	0x3b64c364	0.00349065
46	0x3c31ab58	0.010844074
47	0xb8d532c9	-0.00010166091
48	0x3abae983	0.0014260266
49	0xbd03335d	-0.032031406
50	0x3d9e6da3	0.07735755
51	0x3d6ff8dd	0.058586944
52	0xbc0ff9ca	-0.008787582
53	0x3d7c9f8e	0.0616756
54	0x3cbc2246	0.022965562
55	0x3cc17650	0.023615986
56	0x3c711ada	0.014715875
57	0x3cffbd96	0.031218331
58	0x3d8243e8	0.06360608
59	0xbd1a1cf5	-0.03762527
60	0xbd1c7e69	-0.03820649
61	0x3912fdbd	0.0001401817
62	0x3cd2fcc4	0.025755294
63	0x3d804c0f	0.06264507

deconv2.weight f4 [64, 64, 3, 3]
0	0x3d2aa42f	0.041660484
1	0xbce74a0b	-0.028233549
2	0xb94f0abc	-0.00019745057
3	0x3cff7cd7	0.031187458
4	0x3cde837e	0.02716231
5	0x3cb3f98c	0.02196958
6	0xbce7feec	-0.028319798
7	0xbc10a488	-0.00882829
8	0x3c5bdb30	0.013418958
9	0x3aa6eebb	0.0012735942
10	0xbd21c7b7	-0.039497104
11	0xbb783c92	-0.00378779
12	0xbd0e504a	-0.03474454
13	0xbd51933d	-0.051165808
14	0xbd2c89bf	-0.042123552
15	0xbcf68a61	-0.030095281
16	0x3c215870	0.009847745
17	0xbc79ec85	-0.015254145
18	0x3d1e5ea6	0.038664483
19	0x3d1bdff5	0.03805538
20	0x3d2794ac	0.04091327
21	0x3cb6a150	0.022293717
22	0xbcb15700	-0.02164793
23	0x3ba484eb	0.005020728
24	0x3d28dffb	0.04122923
25	0x3ccc337f	0.024926899
26	0xbce22111	-0.027603658
27	0xbbbc144d	-0.0057397247
28	0xbc2ded14	-0.010615606
29	0x3d5360d1	0.051606003
30	0x3d39adc5	0.045331735
31	0x3ba53dc5	0.005042764
32	0x3d370535	0.0446827
33	0x3d647c90	0.055782855
34	0xbc5a5ab4	-0.013327289
35	0x3a85a5e8	0.0010196539
36	0xbcbc8c51	-0.023016127
37	0x3d410853	0.04712708
38	0xb9a485ca	-0.00031380198
39	0xba1a8e7b	-0.0005895865
40	0x3d487339	0.04893801
41	0x3d136fb2	0.035995193
42	0x3c06d850	0.008230284
43	0x3d41c6e7	0.04730883
44	0x3d2d689c	0.04233609
45	0x3d4728dc	0.04862295
46	0x3d453635	0.0481474
47	0x3cbdfee9	0.02319284
48	0x3b9e7f1c	0.00483693
49	0x3d09459e	0.033513658
50	0xbbebe718	-0.0071991794
51	0x3d19a127	0.037507202
52	0x3d1ad8de	0.037804477
53	0x3d3cd93e	0.046105616
54	0xbc30691c	-0.0107672475
55	0x3c6ed7fd	0.014577863
56	0x3b46da03	0.0030342347
57	0x3d10fcaa	0.03539721
58	0xbc32b8d8	-0.010908328
59	0x3c84aa7e	0.016194578
60	0x3bff0688	0.007782761
61	0x3c5f1e46	0.013618058
62	0x3c4d56d7	0.012532911
63	0xbcba81d5	-0.022766987
64	0xbcff0b1a	-0.031133223
65	0xbd01bc3b	-0.03167365
66	0xbc31f881	-0.010862471
67	0x3c8accaa	0.016943295
68	0x3ce52417	0.02797131
69	0xbc80c24a	-0.015717644
70	0x3cbb958b	0.022898456
71	0x3ceb56e4	0.028727956
72	0x3ca777a6	0.020442795
73	0x3d47cf9d	0.04878198
74	0x3d079aaa	0.033106484
75	0xbcf0faa7	-0.029416395
76	0xbd19eb86	-0.03757813
77	0x3d33f386	0.043933414
78	0x3bbcbee3	0.00576006
79	0x3cc51939	0.024059879
80	0xbbee953c	-0.0072809737
81	0xbcb4ae4e	-0.022055771
82	0xbc9d1512	-0.019175086
83	0x3c545866	0.012960529
84	0xbc25336e	-0.010083063
85	0x3c91c453	0.01779381
86	0xbcf06d1a	-0.029348899
87	0xbca559ac	-0.02018436
88	0x3c93d744	0.018046983
89	0x3c94b1d9	0.01815121
90	0x3a8891e6	0.0010419458
91	0xbd1edf34	-0.03878708
92	0x3ccad0ab	0.024757704
93	0x3d29f45d	0.04149281
94	0xbcc8525c	-0.024453335
95	0x3d29a423	0.0414163
96	0x3c9147d0	0.017734438
97	0x3cc9dc8e	0.024641301
98	0x3cca9df6	0.024733525
99	0xbcab53bc	-0.020913951
100	0x3c595a51	0.013266162
101	0xbc1012e3	-0.008793565
102	0x3cccbe6d	0.024993146
103	0x3c38d137	0.011280349
104	0x3d2f214d	0.042756367
105	0xbc8d2395	-0.01722888
106	0x3d4f0fbb	0.05055211
107	0x3d0bcf00	0.034132957
108	0x3d182143	0.037141096
109	0x3d028e45	0.03187396
110	0x3cf5935e	0.029977497
111	0x3a4a6bb8	0.000772174
112	0xbca36d70	-0.019949645
113	0xbcf4b254	-0.02987019
114	0x3c4869cb	0.012232254
115	0xbbd03ed9	-0.0063551483
116	0xbcad57ff	-0.021160124
117	0xbc5ee377	-0.0136040365
118	0x3d006b56	0.031352364
119	0x3bfe8043	0.007766755
120	0x3b5403fa	0.0032351003
121	0xbcf43e65	-0.029814908
122	0x3d3db427	0.046314385
123	0xbcaaa2dd	-0.020829612
124	0x3c07b0be	0.008281885
125	0xbcef51fb	-0.029213896
126	0xbd2d14b7	-0.042256083
127	0xbd1bfe9d	-0.038084615
128	0x3ce98f1f	0.028510628
129	0xbd14b164	-0.036301985
130	0xbc48ed60	-0.012263626
131	0xbb7767b9	-0.0037751033
132	0x3ba807cb	0.005127882
133	0x3c953071	0.018211575
134	0x3ceb7922	0.028744284
135	0xbbe37298	-0.006941151
136	0xbc8e60b7	-0.017380102
137	0xbb2f8ae2	-0.0026785661
138	0x3c43f4f8	0.011960261
139	0x3c54379e	0.012952713
140	0xbcfb1f43	-0.030654555
141	0xbba731ce	-0.0051023727
142	0x3bfd6df6	0.0077340556
143	0xbcf4ef3d	-0.029899234
144	0xbc00b6d9	-0.007856094
145	0x3b243e3b	0.0025061506
146	0xbcceefc3	-0.025260812
147	0x3d25eafb	0.040507298
148	0xbcce9bd1	-0.025220783
149	0x3ce53964	0.027981468
150	0x3cf75695	0.030192653
151	0x3cd98eaa	0.026557285
152	0x3d0370e5	0.032090086
153	0xbb842d13	-0.0040336936
154	0xbcfa43c7	-0.030549897
155	0xbd013fbc	-0.031554922
156	0x3cfcaf24	0.030845232
157	0xbca6d548	-0.020365372
158	0x3ca8a1bf	0.020584939
159	0x3c1ec664	0.009690855
160	0x3c86dbc0	0.016462207
161	0x3c8947b1	0.016757818
162	0x3d1cfd28	0.038327366
163	0xbd15d5a1	-0.036580686
164	0x3b9ea5fe	0.004841565
165	0x3cab25e3	0.02089209
166	0x3cffa03f	0.031204341
167	0xbd1b376a	-0.037894644
168	0xbcd0211a	-0.025406409
169	0x3cfe9683	0.031077629
170	0xbcce6424	-0.025194235
171	0x3c33bc39	0.010970169
172	0x3d3e09c2	0.046396025
173	0x3d1d03c9	0.038333688
174	0x3cee8f16	0.029120963
175	0x3d4ab1ea	0.04948608
176	0x3bbfe6d8	0.005856376
177	0x3c991a90	0.018689424
178	0x3cfd4341	0.030915858
179	0x3d6dd3b7	0.058063235
180	0x3d59e85a	0.053200103
181	0x3ccf9ba9	0.02534278
182	0x3d09e2ad	0.03366344
183	0x3d4ce211	0.05002028
184	0x3cd17947	0.025570525
185	0xbc95fe9d	-0.018309886
186	0xbcaadd08	-0.020857349
187	0xbc1705ea	-0.009217719
188	0x3bdfb779	0.0068272916
189	0xbcba2e47	-0.022727145
190	0x3cad19a9	0.0211304
191	0x3c2a760d	0.010404122
192	0xbc9b310c	-0.018944286
193	0x3bbb1a54	0.0057099257
194	0x3b043bbf	0.0020177213
195	0x3d3386de	0.04382979
196	0x3cb45c39	0.022016631
197	0xbc872df6	-0.016501408
198	0x3b77e2cc	0.003782439
199	0xbafb7ede	-0.001918759
200	0xbc34f473	-0.011044609
201	0x3d4b9d33	0.049710464
202	0x3cdb589f	0.026775656
203	0x3caa84e1	0.020815315
204	0x3ca9d837	0.020732982
205	0xbc9801ac	-0.018555485
206	0x3c9ab335	0.01888428
207	0xbd1c4865	-0.03815498
208	0x3c505147	0.0127146905
209	0xbb599253	-0.0033198788
210	0xbcdfe499	-0.027330684
211	0xbcb7ba99	-0.022427844
212	0x3d3ae45f	0.045627948
213	0x3cbd58ff	0.023113726
214	0x3a423e99	0.00074098405
215	0xbccb4221	-0.024811806
216	0x3c550c8f	0.0130034825
217	0xbcc241f6	-0.023713093
218	0xbc26e0cd	-0.010185433
219	0xbd22af17	-0.03971776
220	0xbd1c2e22	-0.038129933
221	0xbd009685	-0.031393547
222	0x3c250f3f	0.010074436
223	0x3cd478ce	0.02593651
224	0xbc46bb4f	-0.012129619
225	0x3c2a4d05	0.010394339
226	0xbcab5a45	-0.020917067
227	0x3d1600d0	0.03662187
228	0x3c3eb648	0.011640139
229	0x3d06f2b9	0.032946322
230	0xbc966f19	-0.018363522
231	0xbcf9b7e9	-0.030483203
232	0x3d264840	0.040596247
233	0x39cf6c98	0.00039563025
234	0x3c9f834b	0.019471785
235	0xbd01de08	-0.031705886
236	0xbd18022a	-0.03711144
237	0xbd224882	-0.03961993
238	0xbc6de1a7	-0.014519132
239	0xbd494169	-0.049134646
240	0xbd2a76e5	-0.041617293
241	0x3ce36aed	0.027760947
242	0xbd158c95	-0.036511023
243	0x3ce2cc3f	0.027685283
244	0x3ce3d8f9	0.027813422
245	0x3cff560c	0.03116896
246	0x3c9c1d2d	0.01905688
247	0x3c81d0df	0.015846668
248	0xbc0eb2df	-0.008709638
249	0x3c535997	0.012899778
250	0x3c9a7e51	0.01885906
251	0xbb0020b6	-0.0019550747
252	0xbcc7f647	-0.024409426
253	0xbc36e248	-0.011162348
254	0xbce26868	-0.027637675
255	0xbd3caff7	-0.04606625

deconv2.bias f4 [64]
0	0x3c6ca420	0.014443427
1	0xbda16ca0	-0.07882047
2	0x3cbcecaf	0.023062078
3	0xbd586735	-0.0528328
4	0xbcf39445	-0.029733786
5	0xbd02df4a	-0.031951226
6	0x3d699ccf	0.05703431
7	0x3daefe94	0.08544651
8	0xbd94001a	-0.07226582
9	0x3de91d5e	0.113825545
10	0xbbd02b18	-0.0063527934
11	0x3c89889d	0.016788775
12	0x3d05c1c6	0.0326555
13	0xbd57666b	-0.052587908
14	0x3d3aec8e	0.045635752
15	0x3d3f0f78	0.04664561
16	0xbd3125b7	-0.04324886
17	0xbdc27d6d	-0.09496579
18	0x3cd62367	0.026139928
19	0xbba27c53	-0.0049586683
20	0x3dc03f1e	0.09387039
21	0xbc81dbef	-0.015851943
22	0xbdeec40a	-0.11658485
23	0x3cae68fb	0.021290293
24	0x3d632514	0.055455282
25	0x3d2b2abf	0.041788813
26	0x3d4ac04a	0.049499787
27	0xbc60bc42	-0.013716759
28	0x3d9fa012	0.07794203
29	0xbe037304	-0.12836844
30	0x3dd2b277	0.10287946
31	0xbd904e75	-0.070462145
32	0xbcca3d00	-0.02468729
33	0xbd0454e5	-0.032307524
34	0x3d866401	0.06562043
35	0xbd080ce2	-0.03321541
36	0x3c8f084b	0.01746001
37	0xbdd4134a	-0.103552416
38	0xbd0d01df	-0.034425613
39	0x3bc1d902	0.005915762
40	0x3d794a31	0.06086177
41	0xbde625b5	-0.11237661
42	0xbd1c11a5	-0.038102765
43	0x3e08de42	0.13366035
44	0xbd8b5127	-0.06802588
45	0x3d97aa3b	0.07405516
46	0x3d3b5bf5	0.045741994
47	0xbddf606d	-0.10907064
48	0xbdffc080	-0.12487888
49	0x3d934f1f	0.071928255
50	0xbdd4d0e3	-0.103914045
51	0x3db19b32	0.08672179
52	0xbdbea462	-0.09308697
53	0xbda991fd	-0.08279798
54	0x3dd6b517	0.10483759
55	0x3daec818	0.085342586
56	0xbcf096e2	-0.029368822
57	0xbda1bdef	-0.07897555
58	0xbb2854c2	-0.0025685285
59	0x3d355a10	0.044275343
60	0x3d4d6c0c	0.05015187
61	0xbc1c0f98	-0.009525202
62	0x3d41b81d	0.047294725
63	0x3cc19cbc	0.023634307
