contrastive_save/contrastive_weights_epoch_2.pt (torch, 749104 bytes, 8 tensors)

conv1.weight f4 [64, 3, 3, 3]
0	0xbdc48eec	-0.09597573
1	0xbde97d2a	-0.11400826
2	0x3e3d6491	0.18495394
3	0xbd01aa1b	-0.031656366
4	0x3d94a7c8	0.07258564
5	0xbe118e10	-0.14214349
6	0x3e016946	0.12637815
7	0x3e29815c	0.16553253
8	0xbd972993	-0.073809765
9	0xbe123ae6	-0.1428028
10	0xbe107af9	-0.1410941
11	0x3d441dba	0.047879912
12	0x3e34d7b7	0.17660414
13	0x3e24654b	0.16054265
14	0xbda23ab6	-0.079213545
15	0x3bfc6b09	0.0077031893
16	0xbd079ca8	-0.033108383
17	0xbe2d6ff2	-0.16937235
18	0x399982a1	0.0002927976
19	0x3dadc5d6	0.08485
20	0x3cdd656e	0.027025905
21	0x3d98d64a	0.074627474
22	0xbde68ecd	-0.11257706
23	0xbc11fb34	-0.008909989
24	0x3d8b8420	0.0681231
25	0xbd2ace8c	-0.041700885
26	0x3e23dd3c	0.16002363
27	0x3e16a284	0.14710432
28	0x3e160d63	0.14653544
29	0xbd44c701	-0.048041347
30	0x3e237515	0.15962632
31	0xbe04bd5a	-0.12962857
32	0xbc1208c4	-0.008913223
33	0x3e1b85db	0.1518778
34	0xbd11d642	-0.035604723
35	0x3c9c615c	0.019089393
36	0x3e1cf778	0.15328777
37	0xbe2fc6ac	-0.17165631
38	0xbdc6916d	-0.096957065
39	0xbe070790	-0.13186479
40	0xbdef2cdd	-0.11678479
41	0x3e34b006	0.17645273
42	0x3dbc42b3	0.09192409
43	0x3de58422	0.11206843
44	0x3e0779a6	0.13229999
45	0xbe3f832f	-0.18702386
46	0x3ced4a27	0.028966023
47	0xbd5c5278	-0.053789586
48	0xbe1343e3	-0.14381365
49	0xbd7a369f	-0.061087247
50	0x3d61d3e7	0.055133726
51	0x3e2cd15e	0.16876742
52	0xbde84e73	-0.11343088
53	0x3dba5d11	0.09099782
54	0x3e41b7a0	0.18917704
55	0xbd4614a1	-0.048359517
56	0xbe1951eb	-0.14972655
57	0xbdde0dca	-0.10842474
58	0x3defc2ef	0.117071025
59	0x3d45077a	0.048102833
60	0x3da25361	0.079260595
61	0x3db889bd	0.090106465
62	0x3e2bfc06	0.16795358
63	0xbd400940	-0.04688382
64	0xbe0e1157	-0.13873802
65	0xbe2166ba	-0.15761843
66	0xbd961071	-0.07327355
67	0xbe19f5a1	-0.15035106
68	0xbd2555d7	-0.040365066
69	0x3e3c63d7	0.18397461
70	0x3e42844d	0.18995781
71	0xbd87add1	-0.0662495
72	0x3b2a1e84	0.002595813
73	0xbe3a35a2	-0.18184522
74	0x3d17ea66	0.037088774
75	0x3c25b42a	0.010113755
76	0xbda71a8e	-0.08159362
77	0xbe322fa4	-0.17400986
78	0xbd356ee3	-0.044295203
79	0xbc317843	-0.010831895
80	0xbe20307d	-0.15643497
81	0xbd8428bb	-0.06453081
82	0x3d80a8ab	0.06282171
83	0x3e2df53d	0.16988082
84	0x3d59b00c	0.053146407
85	0xbda66db9	-0.08126397
86	0x3cc7ed69	0.024405198
87	0x3e374c00	0.17900085
88	0x3e1544de	0.14577052
89	0xbdef3700	-0.11680412
90	0xbd6a2e2f	-0.05717295
91	0xbe1cde42	-0.1531916
92	0x3e116233	0.14197616
93	0x3cbee371	0.023301812
94	0x3c370c2d	0.0111723365
95	0x3d2f555d	0.04280602
96	0x3dfc43cb	0.12317618
97	0x3d678e76	0.056532346
98	0x3ce04968	0.027378753
99	0x3d0e6a42	0.034769304
100	0xbdf6cc6d	-0.1205071
101	0xbc948e55	-0.018134275
102	0x3e10a391	0.14124896
103	0xbd889e5f	-0.06670832
104	0xbcce93b3	-0.025216913
105	0xbd60424d	-0.05475073
106	0x3e1aa1c5	0.15100773
107	0x3e3f1378	0.1865977
108	0xbe2b52fd	-0.16730876
109	0xbe2b25d6	-0.16713652
110	0xbe2bbca7	-0.16771184
111	0xbe31467b	-0.17312042
112	0x3e3f0eaa	0.18657938
113	0x3df349fc	0.11879346
114	0x3b22914e	0.0024805847
115	0x3e4447e0	0.19168043
116	0x3e07b209	0.13251509
117	0x3cf02233	0.029313182
118	0x3e05aa5a	0.13053265
119	0xbdcb32df	-0.09921812
120	0x3dc74fba	0.097320035
121	0xbd89823c	-0.06714293
122	0x3da87657	0.082256965
123	0x3dbf8a29	0.09352524
124	0x3e2fb175	0.17157538
125	0x3daa64f2	0.08320035
126	0xbdb8c501	-0.090219505
127	0xbe00b7f5	-0.12570174
128	0xbc8c8163	-0.01715154
129	0x3d8e55fa	0.069499925
130	0xbdbb67ae	-0.09150635
131	0xbda3143d	-0.079628445
132	0xba29214f	-0.0006451802
133	0xbdbee7ed	-0.0932158
134	0xbca49e0a	-0.02009489
135	0xbe2c65d7	-0.16835724
136	0x3cd0e388	0.02549912
137	0xbe3a4eeb	-0.18194167
138	0xbe1454bd	-0.1448545
139	0x3d9be065	0.07611159
140	0x3e1746e2	0.14773133
141	0x3d387a38	0.045038432
142	0x3d97a6c7	0.07404857
143	0x3dbb8d94	0.09157863
144	0xbcab278c	-0.02089288
145	0xbd7b9f7a	-0.061431386
146	0xbdca4041	-0.09875537
147	0xbe22a9b8	-0.15885055
148	0x3d622480	0.05521059
149	0x3e273dfe	0.16332242
150	0xbdb2c0b9	-0.08728165
151	0xbe3cc542	-0.18434623
152	0xbd2b67e5	-0.04184713
153	0xbd8c6c4e	-0.06856595
154	0xbe2822d6	-0.16419539
155	0x3d7462a9	0.059664402
156	0xbd261f49	-0.04055718
157	0xbd8ce90d	-0.068803884
158	0xbd41fa11	-0.047357623
159	0xbd7f76ae	-0.06236904
160	0xbdf46c46	-0.11934714
161	0x3d885f41	0.06658793
162	0xbd05734f	-0.03258067
163	0xbe012c58	-0.12614572
164	0xbe3ef981	-0.18649866
165	0x3d6193d3	0.055072617
166	0x3c9aae6f	0.018882005
167	0x3dfe902f	0.124298446
168	0xbe2f9b70	-0.17149138
169	0x3cfba5f2	0.030718777
170	0x3d7650fe	0.060135834
171	0xbc6ea4e6	-0.014565682
172	0x3d9d01c4	0.076663524
173	0xbe353cf8	-0.17699039
174	0x3dc65c4a	0.096855715
175	0x3d6885f2	0.056768365
176	0xbd5a16e1	-0.053244475
177	0xbe2df626	-0.1698843
178	0xbe42c2ce	-0.19019625
179	0xbd7a8449	-0.061161313
180	0xbd8c214f	-0.068422906
181	0xbe16bac1	-0.14719678
182	0x3e21ad97	0.15788876
183	0xbe16013f	-0.14648913
184	0xbd17c0bf	-0.03704905
185	0x3dca68ab	0.09883245
186	0xbe21196b	-0.15732352
187	0xbdcbbef7	-0.09948533
188	0x3d8318e1	0.0640123
189	0x3dcb34c4	0.099221736
190	0x3d9ecc19	0.07753772
191	0x3e0768f0	0.13223624
192	0x3d59d462	0.05318106
193	0xbdf49031	-0.11941565
194	0xbd201eb1	-0.03909177
195	0x3d130271	0.035891
196	0xbdadee30	-0.08492696
197	0xbdef0c9c	-0.11672327
198	0x3e035862	0.12826684
199	0xbca5ccc3	-0.02023924
200	0xbd1e1c9c	-0.038601503
201	0x3e363e58	0.1779722
202	0x3e1c1646	0.15242872
203	0x3de03cbb	0.109490834
204	0x3e061742	0.1309481
205	0xbd2e4d4a	-0.042554177
206	0xbdfb3f1b	-0.12267896
207	0x3e2c4a5f	0.16825245
208	0x3d02c6d5	0.031927902
209	0x3d8e6b9b	0.06954118
210	0xbc8dbb9f	-0.017301379
211	0xbdf15161	-0.117831
212	0x3e02a5aa	0.12758508
213	0x3c3d92e0	0.011570662
214	0x3e3b6b68	0.18302691
215	0x3ddd39f6	0.10802071
216	0x3da402bd	0.08008335
217	0xbc0d8908	-0.008638628
218	0xbd86f183	-0.065890335
219	0xbb8a1570	-0.0042139813
220	0xbd77d423	-0.060505044
221	0xbe28763e	-0.16451356
222	0x3b98be51	0.0046613594
223	0x3dc2e9c9	0.09517247
224	0x3d5340d3	0.051575493
225	0x3d2f2da2	0.04276813
226	0x3e0c00a2	0.13672116
227	0x3e0a1943	0.13486199
228	0xba8b74be	-0.001063965
229	0xbd99cf72	-0.0751027
230	0xbd59f353	-0.053210568
231	0xbd0d32a1	-0.03447211
232	0xbe2281a1	-0.15869762
233	0xbdf959de	-0.12175344
234	0x3e2d5211	0.16925837
235	0xbceb1fe7	-0.028701736
236	0xbda8680f	-0.082229726
237	0xbe16d007	-0.14727794
238	0xbd205c94	-0.03915079
239	0xbd094519	-0.033513162
240	0x3dc22033	0.09478798
241	0xbe3f5de9	-0.18688168
242	0x3e1d15bd	0.15340324
243	0x3e10286e	0.14077923
244	0xbd81b092	-0.06332506
245	0x3d704019	0.05865488
246	0xbd4402cd	-0.047854234
247	0xbd0de2a7	-0.03463998
248	0x3e307a71	0.17234208
249	0x3e00b308	0.12568295
250	0xbb68b25f	-0.0035506708
251	0xbdc22b69	-0.09480936
252	0xbd852a78	-0.06502241
253	0x3d8b4f8a	0.0680228
254	0x3db2cebd	0.087308384
255	0xbd18101d	-0.03712474

conv1.bias f4 [64]
0	0x3e0034b5	0.12520106
1	0xbe252411	-0.1612704
2	0x3cb13dae	0.021635856
3	0xbca0334b	-0.019555708
4	0xbd611c90	-0.05495888
5	0xbe4153b6	-0.1887959
6	0xbd74748c	-0.05968146
7	0x3d5a45a3	0.053289067
8	0xbe261db3	-0.16222267
9	0x3ce34586	0.027743112
10	0x3cb29a6e	0.021802153
11	0x3bb80cac	0.005616745
12	0xbda36d1f	-0.079797976
13	0xbe217fb7	-0.15771376
14	0xbe38d6ef	-0.1805074
15	0x3d1e8fcf	0.038711365
16	0x3e14f5c1	0.14546873
17	0x3de80a9b	0.11330148
18	0xbdd596c9	-0.104291506
19	0xbd6c2807	-0.05765536
20	0x3de9a68f	0.11408722
21	0xbcd2b72f	-0.025722114
22	0xbe2818c9	-0.16415705
23	0xbe24b671	-0.16085221
24	0xbdf96065	-0.12176589
25	0xbcc738df	-0.02431911
26	0xbde2b3bd	-0.110694386
27	0xbd495801	-0.049156193
28	0x3e1f0f0f	0.15533088
29	0x3d4a2a36	0.04935666
30	0xbe285bb4	-0.16441232
31	0x3d3a9198	0.045549005
32	0xbc90b42f	-0.017664043
33	0x3db21bb9	0.08696694
34	0x3e208a34	0.1567772
35	0x3e0861ec	0.13318604
36	0x3e4135b2	0.1886814
37	0xbb91ee69	-0.0044534695
38	0x3cb45d18	0.022017047
39	0xbe225882	-0.15854076
40	0xbda229c5	-0.07918123
41	0x3cca16b6	0.024669033
42	0x3d5a4205	0.053285617
43	0x3cc04851	0.023471983
44	0x3bc3f8ab	0.0059805713
45	0xbdd8b0b8	-0.105805814
46	0xbe1260a0	-0.14294672
47	0x3e2cb5a2	0.16866162
48	0xba70afc0	-0.0009181462
49	0xbbc558e7	-0.006022561
50	0x3e28178f	0.16415237
51	0xbd968bf6	-0.07350914
52	0xbe01c4c3	-0.12672715
53	0xbd57f6c6	-0.052725576
54	0x3d684f58	0.056716293
55	0xbdd4d86e	-0.10392843
56	0x3d9316ae	0.0718206
57	0xbd118600	-0.035528183
58	0x3e26746c	0.16255349
59	0x3dfe6715	0.12422005
60	0xbdd4199a	-0.103564456
61	0xbdfaee28	-0.12252456
62	0x3e316b18	0.1732601
63	0x3de349e1	0.11098076

conv2.weight f4 [128, 64, 3, 3]
0	0xbc991766	-0.018687915
1	0x3aad0436	0.0013200107
2	0xbd1559d6	-0.036462627
3	0xbcacaf8b	-0.0210798
4	0xbcd7c19e	-0.026337441
5	0xbd0bfe42	-0.034178026
6	0xbbbec576	-0.005821879
7	0x3c1e8ad9	0.009676659
8	0x3c9f5afd	0.019452566
9	0xbd206f4f	-0.039168652
10	0xbc87d1f8	-0.016579613
11	0xbcd4bc15	-0.02596859
12	0x3c40e955	0.011774381
13	0xbc018370	-0.007904872
14	0xbca67094	-0.020317353
15	0x3d172df8	0.036909074
16	0xbd1b95b4	-0.037984565
17	0xbb9a7be5	-0.0047144764
18	0x3c9b8887	0.018986
19	0x3c23ccb7	0.009997538
20	0xbd273da9	-0.040830288
21	0xbc476d85	-0.012172108
22	0x39b3560d	0.00034205653
23	0x3cac193a	0.021008123
24	0x3a03b017	0.0005023493
25	0x3cdee185	0.027207145
26	0xbd02e8a3	-0.03196014
27	0xbd26a2b9	-0.04068253
28	0x3cd6a2ce	0.026200678
29	0x3c6641c7	0.0140537685
30	0x3ce189a8	0.02753146
31	0xbcad67e0	-0.021167696
32	0x3d004d6b	0.03132383
33	0x3c8f8fb5	0.01752458
34	0x3c8be1e3	0.017075485
35	0xbd211cab	-0.03933398
36	0xbc86a3cb	-0.016435524
37	0xbcd2823c	-0.025696866
38	0xbc82b95b	-0.015957525
39	0x3b9fd0c6	0.0048771827
40	0xbc6c216c	-0.014412265
41	0x3d099859	0.033592556
42	0xbd183718	-0.037161916
43	0xbb813cca	-0.003944014
44	0xbc321623	-0.010869536
45	0xbd2a549e	-0.041584603
46	0xbca708a3	-0.02038986
47	0x3d022ca8	0.03178087
48	0xbc894226	-0.016755175
49	0x3c840566	0.016115855
50	0x3cf5fa6b	0.030026635
51	0xbc960f78	-0.018317923
52	0xbd189a30	-0.03725642
53	0x3d11084a	0.035408296
54	0x3c8c5b56	0.017133396
55	0xbd20ecd0	-0.039288342
56	0x3cb62400	0.022233963
57	0xbd00037c	-0.031253323
58	0xbbef1bc0	-0.007297009
59	0x3d20f170	0.039292753
60	0x3ce82046	0.028335702
61	0x3c723930	0.014784142
62	0x3c652136	0.013984969
63	0x3d158dc2	0.036512144
64	0x3c9f5e66	0.019454192
65	0x3b9e96af	0.00483974
66	0xbc6624b5	-0.014046838
67	0xbcb4be80	-0.022063494
68	0x3cea2f4b	0.028587004
69	0xbd10a473	-0.03531308
70	0xbcdbf789	-0.026851432
71	0xbc19cc20	-0.009387046
72	0xbd246fd7	-0.04014572
73	0xbd06ba4e	-0.032892518
74	0xbb43d134	-0.0029879333
75	0x3d248b4e	0.040171914
76	0x3cd654f8	0.026163563
77	0x3ce27418	0.027643248
78	0x3cdc22f8	0.026872143
79	0x3cfa3e06	0.030547153
80	0x3c362845	0.011117999
81	0xbd17b401	-0.0370369
82	0x3cd9fd0a	0.026609916
83	0xb9ea86bd	-0.00044732346
84	0xb5e8aaf5	-1.7335102e-06
85	0x3d16fa3e	0.036859743
86	0x3c97daaf	0.018536894
87	0x3b918166	0.0044404743
88	0xbccc3e6d	-0.02493211
89	0xbce37eea	-0.027770478
90	0x3c635302	0.013874771
91	0xbc1b5c1d	-0.009482411
92	0x3bd31d80	0.0064427257
93	0x3ca9ce79	0.020728337
94	0x3c8a618e	0.01689222
95	0x3c774495	0.015092035
96	0x3cad909f	0.021187125
97	0x3be7c652	0.007073202
98	0x3ca5ce9b	0.020240119
99	0xbc24fce6	-0.010070061
100	0xbcf841cd	-0.030304814
101	0xbb6ed715	-0.0036444117
102	0x3b24dc67	0.0025155784
103	0xbcbb8953	-0.02289263
104	0x3c09c383	0.00840843
105	0x3ca55c96	0.02018575
106	0xbd153192	-0.036424227
107	0x3d1e9093	0.038712095
108	0xbd08ab85	-0.0333667
109	0xbb6e2083	-0.0036335296
110	0xbc6bd77a	-0.014394635
111	0x3c77d201	0.015125752
112	0xbd00a616	-0.031408392
113	0x3c91c1d7	0.017792625
114	0x3c5aeab2	0.01336162
115	0x3b7437f3	0.0037264794
116	0x3ae0c59f	0.001714874
117	0x3bfd9548	0.007738743
118	0x3d206392	0.039157458
119	0x3ce073b7	0.027398927
120	0x3c63ee51	0.0139117995
121	0x3c1caeaf	0.009563132
122	0xbcdc2e7c	-0.026877634
123	0xbd05a8b5	-0.032631595
124	0x3cd02de2	0.025412504
125	0x3ce97392	0.028497491
126	0x3cbe323f	0.023217319
127	0x3ca52deb	0.020163497
128	0xbbf8b1c0	-0.007589549
129	0xbc5a8d1e	-0.013339309
130	0xbcde0f8e	-0.027107026
131	0xbc8a0338	-0.016847238
132	0xbbcf0c9f	-0.006318643
133	0xbd269e97	-0.040678587
134	0x3c880fcb	0.016609093
135	0x3c2b559f	0.010457425
136	0xbc0725ad	-0.008248729
137	0x3cd34e38	0.025794134
138	0x3d1d49f7	0.038400616
139	0xbbbf9956	-0.0058471365
140	0xbd255844	-0.04036738
141	0xbce49af7	-0.027905924
142	0x3cdbe4e7	0.026842548
143	0x3d25c45d	0.04047047
144	0xbd03b6b5	-0.032156665
145	0x3c66ddf4	0.014091004
146	0xbc8d108a	-0.0172198
147	0x3c4dcfae	0.012561722
148	0x3ce94a73	0.028477883
149	0xbceb4d81	-0.02872348
150	0x3d258223	0.04040731
151	0x3d026be6	0.03184118
152	0x3b9d5d05	0.0048023486
153	0x3c639aef	0.0138919195
154	0x3c908942	0.017643575
155	0x3c5caed8	0.01346942
156	0x3c9700a9	0.018432932
157	0x3c35454b	0.011063884
158	0xbd045c6b	-0.0323147
159	0x3b88788e	0.004164762
160	0x3cc52020	0.02406317
161	0x3c254827	0.010088003
162	0xbc206f25	-0.009792124
163	0x3d06c89f	0.03290617
164	0xbd1fd61f	-0.03902256
165	0xbd10531e	-0.035235517
166	0xbc58b0b4	-0.013225723
167	0xbcdb3efa	-0.026763428
168	0x3d0010f4	0.031266168
169	0xbd21101d	-0.039322007
170	0xbd178df1	-0.0370006
171	0x3ce649a4	0.028111286
172	0xbcc115d8	-0.023569986
173	0xbb82bda4	-0.003989892
174	0xbc79e167	-0.015251494
175	0x3c0053e4	0.007832501
176	0x3c3d0528	0.011536874
177	0x3cc0a667	0.023516847
178	0x3cc1f2ae	0.023675289
179	0xbb32691d	-0.0027223297
180	0x3b1fafce	0.0024366262
181	0xbd006f88	-0.031356364
182	0x3d03fb08	0.032221824
183	0xbcaa7771	-0.020808907
184	0x3d267bcb	0.040645402
185	0xbc8b5555	-0.017008463
186	0xbbc8f6c0	-0.0061329305
187	0xbd12b429	-0.035816345
188	0x3cf93645	0.030421386
189	0xbc03e74a	-0.008050749
190	0x3d29fcc7	0.041500833
191	0x3c4240b8	0.01185625
192	0x3c9e8782	0.019351725
193	0xbc56bf1a	-0.013107086
194	0x3cf6b403	0.030115133
195	0xbcb458d9	-0.022015022
196	0x3c035f0f	0.008018269
197	0xbb826514	-0.0039793346
198	0x3b01a100	0.0019779801
199	0xbcc02a78	-0.02345775
200	0x3bb53796	0.005530308
201	0xbcf7c80e	-0.03024676
202	0xbcbeb6ee	-0.023280587
203	0x3bd554e0	0.006510362
204	0x3c83318b	0.016014835
205	0x3c9fadf0	0.01949212
206	0x3c836350	0.016038567
207	0xb7fadad6	-2.9904226e-05
208	0xbcd189ae	-0.025578346
209	0xbcb6d778	-0.02231954
210	0x3cbd7012	0.023124728
211	0xbcec0add	-0.028813774
212	0x3b85d7ce	0.004084564
213	0x3c77b3ce	0.015118552
214	0xbd21555d	-0.03938805
215	0xbafb84c4	-0.0019189348
216	0x3bd4c205	0.0064928555
217	0x3bf35151	0.007425465
218	0xbc3876c0	-0.011258781
219	0x3cdddd84	0.027083166
220	0xbceb9acb	-0.028760334
221	0x3cf0c1a5	0.029389212
222	0xbc13c806	-0.009019857
223	0x3c4bd29c	0.01244035
224	0x3d0478f7	0.032341924
225	0xbd148a7c	-0.03626488
226	0x3cb99d18	0.022657916
227	0x3d0596c9	0.032614503
228	0xbc957432	-0.018243883
229	0xbd055f97	-0.032561865
230	0x3cf09de1	0.029372158
231	0xbcb51a47	-0.022107257
232	0x3d243ce0	0.040097117
233	0xbc9180f2	-0.017761681
234	0x3d1919ae	0.037378006
235	0x3c20f06d	0.009822947
236	0xbceee958	-0.029164001
237	0x3d286af9	0.041117642
238	0xbc565533	-0.0130818365
239	0x3d14278a	0.03617052
240	0x3ca61b97	0.020276828
241	0x3c4841c8	0.012222715
242	0x3bedf585	0.007261934
243	0x3d11ee2a	0.03562752
244	0x3bc36e60	0.0059640855
245	0x3c0b7823	0.00851253
246	0xbb721589	-0.0036939105
247	0x3cee32dd	0.029076988
248	0x3cc79127	0.024361206
249	0x3c465586	0.012105351
250	0x3a7ded6e	0.0009686564
251	0xbcc9c79e	-0.024631318
252	0x3cfdc5be	0.03097808
253	0xbce910af	-0.028450338
254	0x3cbfb317	0.023400826
255	0x3cd5dc30	0.02610597

conv2.bias f4 [128]
0	0xba0cd410	-0.0005372176
1	0xbd1fe23f	-0.039034124
2	0x3d03fc37	0.032222953
3	0x3c97cb4e	0.01852956
4	0x3ced2dc7	0.028952492
5	0xbc1a2ec5	-0.009410565
6	0x3d01869a	0.031622507
7	0x3d27bff2	0.040954538
8	0x3d034648	0.032049447
9	0x3d0c008e	0.034180216
10	0x3ae9a48d	0.0017825529
11	0xbd00c277	-0.031435456
12	0x3925b05c	0.00015801325
13	0xbb8bfe5c	-0.0042722654
14	0x3c463a72	0.012098895
15	0xbd09ca44	-0.03364016
16	0x3a867da9	0.0010260838
17	0x3bc40fcd	0.005983329
18	0x3c879c6d	0.016554082
19	0x3cac20e0	0.02101177
20	0xbd20adb1	-0.039228145
21	0xbd1f6e22	-0.03892339
22	0xbcb65a49	-0.022259848
23	0x3cee8c7c	0.029119723
24	0xbc9cad05	-0.01912547
25	0x3be8f5bb	0.0071093715
26	0xbbc48264	-0.005996989
27	0xbb858522	-0.0040747086
28	0x3d15efaf	0.036605533
29	0xbd24f251	-0.040270153
30	0xbd08cf1a	-0.033400632
31	0xbcb55f5c	-0.022140197
32	0xbb8b1393	-0.004244277
33	0x3c3d298b	0.011545549
34	0x3c841f9f	0.01612836
35	0xbcd3614b	-0.025803229
36	0x3d17bfb5	0.03704806
37	0x3c874799	0.016513633
38	0x3d272ebe	0.04081606
39	0xbc4dfa2b	-0.012571852
40	0xbc1c6a4c	-0.0095468275
41	0x3ca5f924	0.020260401
42	0xbd1713bd	-0.03688406
43	0xbca9717f	-0.020684002
44	0xbc33a135	-0.010963728
45	0xbc6b9566	-0.014378881
46	0xbd085d5c	-0.03329216
47	0x3ca60906	0.020267975
48	0xbc169259	-0.009190165
49	0x3d0d87b5	0.03455325
50	0x3ccb3574	0.024805762
51	0x3d284b13	0.04108722
52	0x3c93a52c	0.018023096
53	0x3b21fe88	0.0024718363
54	0x3c8bbeb4	0.017058708
55	0x3d2292c6	0.039690755
56	0xbd1b169f	-0.03786337
57	0xbc518c30	-0.012789771
58	0x3c5734e2	0.013135167
59	0xbcd072d3	-0.025445377
60	0xbc93e3ff	-0.018053053
61	0xbd054715	-0.032538492
62	0x3c642fe1	0.013927431
63	0xbd2667c1	-0.04062629
64	0x3c5670b9	0.013088399
65	0xbc893f49	-0.01675381
66	0xbc27509a	-0.010212088
67	0xbca15e37	-0.019698245
68	0xbd1221ee	-0.03567689
69	0x3bc4dfed	0.0060081393
70	0x3b816cf6	0.0039497567
71	0x3bed45c4	0.0072409827
72	0x38e8f542	0.00011108305
73	0xbca3823a	-0.019959558
74	0xbc1055d1	-0.008809523
75	0xbce01c61	-0.027357282
76	0xbcf1d9b1	-0.029522749
77	0xbcbeca4d	-0.023289824
78	0xbba8637a	-0.0051388117
79	0x3c8ac104	0.01693774
80	0x3c953cc4	0.018217452
81	0x3d05812e	0.0325939
82	0xbc0ec423	-0.008713755
83	0x3cf58564	0.029970832
84	0xbc417ee2	-0.011810036
85	0x3c1ec8cc	0.009691428
86	0x3d2a0777	0.041511025
87	0x3d1bcc9c	0.038036928
88	0xbd019045	-0.031631727
89	0xbd1103e7	-0.035404112
90	0x3c5ad6be	0.013356863
91	0x3d20d71e	0.03926765
92	0x3c2b9cb8	0.010474376
93	0x3cc41d70	0.023939818
94	0xbaf1c58c	-0.0018445714
95	0x3cb2dbbb	0.021833291
96	0x3d1608f6	0.03662964
97	0xbd29a93e	-0.041421168
98	0x3cff2b81	0.031148674
99	0xbbc10267	-0.005890179
100	0xbccae77e	-0.024768587
101	0xbce70e90	-0.028205186
102	0x3cec34a0	0.028833687
103	0xbbd96f7b	-0.006635604
104	0x3cd3af92	0.025840554
105	0x3a7c4b5d	0.0009624267
106	0x3a5901ed	0.000827818
107	0x3c6c6f54	0.01443084
108	0x3ce76998	0.028248593
109	0xbd241d2f	-0.040066894
110	0x3d1f7ce9	0.038937483
111	0xbcf6b0af	-0.030113546
112	0x3b76a228	0.0037633274
113	0xbc970d31	-0.018438907
114	0x3cf2a937	0.029621704
115	0x3cae7826	0.021297526
116	0x3ca1fd26	0.01977403
117	0x3cb59db9	0.022169935
118	0x3b4341a8	0.0029793773
119	0xbc88602c	-0.01664742
120	0x3cf653b4	0.03006921
121	0xbc8ef695	-0.017451564
122	0xbd1223b8	-0.035678595
123	0x3d0fe752	0.035132714
124	0xbca90c65	-0.020635793
125	0x3c3cc7cb	0.011522244
126	0xbca689af	-0.020329325
127	0xbc425436	-0.011860898

deconv1.weight f4 [128, 64, 3, 3]
0	0x3ce26a16	0.027638476
1	0xbcbec390	-0.02328661
2	0xbcedeba7	-0.029043032
3	0x3c96119f	0.01831895
4	0x3ca01e76	0.019545775
5	0xbc9d57db	-0.019206932
6	0xbcd3e3be	-0.025865432
7	0x3c5a46d0	0.013322547
8	0xbcc9cf92	-0.02463511
9	0xbc444944	-0.0119803585
10	0x3cc1fae8	0.023679212
11	0xbce6fe13	-0.028197324
12	0xbc5e4002	-0.013565065
13	0xbc8af6c0	-0.016963363
14	0xbbdcec6d	-0.0067420513
15	0x3ab81f29	0.0014047372
16	0x3a7d1a44	0.0009655098
17	0x3bb78f6f	0.0056018154
18	0x3ce40899	0.027836131
19	0xbc53ecf6	-0.012934914
20	0xbbb8cd70	-0.0056397244
21	0xbcb8305a	-0.022483993
22	0xbd15dbc6	-0.036586545
23	0x3cd42d28	0.025900438
24	0x3cfa9aac	0.030591331
25	0xbc0e5a1b	-0.008688475
26	0x3c97d281	0.018532993
27	0xbd1c3976	-0.038140737
28	0xbd04a551	-0.03238422
29	0x3cd76b42	0.026296262
30	0x3c70cf8c	0.0146979205
31	0xbca9ff09	-0.020751493
32	0xbc06c901	-0.008226634
33	0x3ca1dcdd	0.019758636
34	0x3ceed4f2	0.029154275
35	0x3c2946db	0.010331835
36	0xbc005f74	-0.007835258
37	0xbb264a4f	-0.0025373881
38	0x3d072352	0.03299267
39	0xbd11a2ce	-0.035555653
40	0xbd25f4aa	-0.040516533
41	0xbd21f6f1	-0.039542142
42	0x3cec8be7	0.028875304
43	0xbce9c38a	-0.028535623
44	0x3c0e1d5b	0.008673991
45	0x3c89caf2	0.016820405
46	0xbcd01a3f	-0.02540314
47	0xbccb6680	-0.02482915
48	0xbc96bcf0	-0.01840064
49	0xbcef141f	-0.0291844
50	0x3d0c25c8	0.03421572
51	0x3d274f30	0.040847003
52	0xba9dd22f	-0.0012040789
53	0xbb1dd625	-0.002408394
54	0x3cede815	0.02904133
55	0xbb600b0f	-0.003418628
56	0xbcc0f110	-0.023552448
57	0xbc8b509b	-0.01700621
58	0x3bd5bf4e	0.0065230494
59	0x3ceb770b	0.028743288
60	0xbc55c88a	-0.0130483005
61	0xbcd5f32b	-0.026116928
62	0xbc802b43	-0.015645629
63	0xbd274549	-0.04083756
64	0xbca441ba	-0.020050872
65	0xbd198568	-0.03748074
66	0xbc0414ce	-0.008061601
67	0xbb8c9a43	-0.0042908504
68	0x39aa7b5a	0.0003251683
69	0x3c1ccb06	0.009569889
70	0x3c5e1f27	0.013557232
71	0x3989b6ff	0.0002626702
72	0xbca648c0	-0.020298362
73	0x3d039acb	0.032130044
74	0xbc9cfc16	-0.019163173
75	0x3d1acad0	0.037791073
76	0x3d1a0db1	0.037610713
77	0x3d269ff7	0.040679898
78	0x3ae1992d	0.0017211788
79	0xbd149144	-0.03627135
80	0x3c86f5de	0.01647466
81	0x3b599f0e	0.0033206376
82	0xbacf1417	-0.0015798834
83	0xbd25b4d7	-0.040455665
84	0x3cc6b6d4	0.024257101
85	0xb9f4facd	-0.00046726168
86	0x3c007442	0.007840218
87	0x3ca5fcf7	0.020262225
88	0xbc06c569	-0.008225777
89	0xbcedb8b6	-0.029018741
90	0xbc89f9ec	-0.016842805
91	0x3cb4507e	0.022011038
92	0xbc06493e	-0.008196173
93	0x3c32bdaa	0.010909477
94	0xbd0be537	-0.034154143
95	0x3bb8b6ea	0.0056370394
96	0xbcc0c063	-0.023529237
97	0x3bf8e062	0.007595108
98	0xbcb05298	-0.021523759
99	0x3a229f42	0.0006203541
100	0x3c98817d	0.018616432
101	0xbc6af8dd	-0.01434156
102	0xbd04a8d3	-0.032387566
103	0xbcb53902	-0.02212191
104	0xbc3d6785	-0.0115603255
105	0x3cdc7eef	0.026915995
106	0xbd16fa3b	-0.036859732
107	0x3c3e8141	0.011627496
108	0x3d087e09	0.03332332
109	0x3d1b3ad3	0.037897896
110	0xbb495e4f	-0.0030726378
111	0x3c4fb4c5	0.012677376
112	0x3c72bdcb	0.014815758
113	0x3d0f5d5f	0.035001155
114	0xbb5f5d06	-0.0034082546
115	0x3c9d8b00	0.01923132
116	0x3cd4ec94	0.025991715
117	0x3c5a3880	0.013319135
118	0x3cf50f8b	0.029914638
119	0xbb9cf200	-0.004789591
120	0x3a5b65ab	0.0008369337
121	0x3befabcb	0.0073141805
122	0x3d28200a	0.04104618
123	0xbc5c0bab	-0.013430516
124	0xbd1271f7	-0.035753217
125	0x3d112316	0.03543385
126	0xbd0c135c	-0.03419815
127	0x3d279278	0.040911168
128	0x3d087217	0.03331193
129	0x3cbfbf03	0.023406511
130	0x3d22a427	0.03970733
131	0xbc8eac4e	-0.017416146
132	0x3b822f47	0.003972921
133	0xbd103b30	-0.035212696
134	0xbd09e3ec	-0.03366463
135	0x3d1243f0	0.03570932
136	0x3d1f98c6	0.038964055
137	0xbd27203a	-0.040802218
138	0x3caf9c05	0.0214367
139	0x3c091636	0.008367112
140	0x3c79a6f9	0.015237563
141	0x3d020936	0.031747065
142	0x3ca326be	0.019915935
143	0xbbb02396	-0.005375336
144	0x3d1f7041	0.038925413
145	0x3b9f742c	0.0048661437
146	0x3cfa40c6	0.030548465
147	0xbcba340b	-0.022729894
148	0x3bdcae05	0.006734612
149	0xbc920eef	-0.017829387
150	0x3cd1fa43	0.02563203
151	0xbd0e5212	-0.034746237
152	0x3beab513	0.007162699
153	0x3cf12707	0.029437555
154	0x3d05e283	0.03268672
155	0xbc0f167b	-0.008733387
156	0xbcd4e201	-0.025986673
157	0xbcd65f08	-0.026168361
158	0xbc633a30	-0.013868853
159	0xbbe42cc2	-0.0069633434
160	0xbd182444	-0.03714396
161	0x3cf6909d	0.030098254
162	0x3c80ab5b	0.015706709
163	0x3c74749b	0.014920379
164	0xbb838176	-0.0040132357
165	0xbd133663	-0.03594054
166	0xbc571ea6	-0.013129866
167	0x3c6d8730	0.014497563
168	0x3b65392b	0.0034976702
169	0xbc606370	-0.013695583
170	0xbcbeb23b	-0.023278346
171	0x3c642965	0.013925885
172	0x3a58b410	0.00082665775
173	0xbcec0839	-0.028812515
174	0x3ab7655a	0.0013991997
175	0x3d0a565d	0.03377377
176	0xbc1eca76	-0.009691825
177	0x3c734a96	0.014849326
178	0x3d28bb83	0.04119445
179	0xbc1e6cc2	-0.009669485
180	0x3c510e17	0.012759707
181	0x3c724402	0.014786722
182	0x3cffb144	0.031212457
183	0x3d19910a	0.037491836
184	0x3c0b0475	0.008484949
185	0x3ca3e055	0.02000443
186	0x3d188bde	0.037242763
187	0x3c9c72e1	0.019097747
188	0x3d2247a7	0.039619114
189	0x3bb7399a	0.0055915834
190	0xbad144e7	-0.0015965969
191	0x3c4bb1a8	0.012432493
192	0xbc912c9e	-0.01772147
193	0xbcc5f315	-0.024163762
194	0xbd198ddd	-0.037488807
195	0xbbcf215a	-0.0063211145
196	0x3c86c774	0.016452529
197	0xbd1b01e3	-0.037843596
198	0x3cfe543f	0.031046031
199	0x3d0b20f6	0.03396698
200	0xbca902de	-0.02063125
201	0xbd290ca9	-0.04127184
202	0xbc08c642	-0.00834805
203	0xbca0ae34	-0.019614317
204	0x3c53b3d3	0.012921291
205	0x3cf4ef38	0.029899225
206	0x3d22423d	0.03961395
207	0xbc81a0a0	-0.015823662
208	0xbcb05204	-0.021523483
209	0xbd1c6035	-0.038177688
210	0x3d1a77d4	0.037711933
211	0x3cf169b2	0.029469345
212	0x3d25a47f	0.04044008
213	0x3b717a04	0.0036846409
214	0xbd13f1e4	-0.036119357
215	0x3b826369	0.003979136
216	0xbc146c64	-0.009059045
217	0x3d00937f	0.031390663
218	0x3b81e696	0.0039642556
219	0x3c7867a5	0.0151614295
220	0x3cbec344	0.02328647
221	0xbcf64d31	-0.030066105
222	0x39bf76ff	0.00036519018
223	0xbc3a5873	-0.011373627
224	0xbcf592cb	-0.029977223
225	0xbb2ed6e0	-0.0026678368
226	0xbcd6e5ab	-0.026232561
227	0xbb0605bb	-0.0020450193
228	0x3bfeab11	0.0077718575
229	0x3ca28b0b	0.019841691
230	0x3ca77a88	0.02044417
231	0xbc9ad50d	-0.018900419
232	0x3b816e50	0.003949918
233	0x3c89b5f5	0.016810397
234	0xbc62fae3	-0.013853761
235	0x3ca6fa39	0.020382987
236	0xbca30611	-0.019900354
237	0xbc1dd2fd	-0.009632823
238	0x3c459719	0.01205995
239	0x3bc600f9	0.0060425964
240	0xbcd35778	-0.025798544
241	0x3bf9c171	0.007621937
242	0xbc180380	-0.009278178
243	0xbd224f99	-0.03962669
244	0xbbac7cba	-0.005263892
245	0xbd26830e	-0.040652327
246	0x3d07ffb2	0.033202834
247	0x3d25faf2	0.040522523
248	0x3d19a3fb	0.0375099
249	0xbb99052b	-0.0046698055
250	0xbc4b6123	-0.012413296
251	0x3c4e55c6	0.012593692
252	0xbc1b81bc	-0.00949138
253	0x3c6a4668	0.014299013
254	0x3cda9221	0.026681008
255	0x3c455766	0.012044763

deconv1.bias f4 [64]
0	0x3c19ecae	0.009394808
1	0x3d1366b8	0.035986632
2	0x3c8f4098	0.017486855
3	0xb9964397	-0.00028660588
4	0xbc576440	-0.01314646
5	0x3c886233	0.016648388
6	0xbcaf2431	-0.021379562
7	0x3ca20028	0.019775465
8	0xbcd21bd0	-0.025648028
9	0x3c86004b	0.016357562
10	0x3b7eb254	0.0038863616
11	0xbcdcf256	-0.026971024
12	0xbb95b834	-0.004569078
13	0xbc8b3eab	-0.016997656
14	0xbb5bcd3f	-0.0033539084
15	0xbcd240ff	-0.025665758
16	0xbd0d9efc	-0.034575447
17	0x3cc00e2e	0.023444261
18	0xbd06373a	-0.032767512
19	0x3bd6525b	0.0065405793
20	0xbc9d5d6f	-0.019209592
21	0xbc915c72	-0.017744277
22	0xbbe28b8a	-0.006913607
23	0x3ccde21b	0.02513223
24	0x3cd1c92d	0.025608623
25	0xbc4d77b9	-0.012540751
26	0x3d009911	0.031395976
27	0xbce1c729	-0.027560787
28	0xbd169c64	-0.03677024
29	0x3c2b7948	0.010465927
30	0xbbc9250a	-0.0061384486
31	0x3c05f0ba	0.0081750695
32	0xbcb03dff	-0.021513937
33	0xbbe7f364	-0.007078575
34	0xbcc9e812	-0.024646793
35	0x3d11745b	0.035511356
36	0xbc4d81b0	-0.012543127
37	0x3cee686c	0.029102527
38	0xbd245154	-0.040116623
39	0xbc423174	-0.011852611
40	0x3d220d0f	0.039563235
41	0x3cd23078	0.025657877
42	0xbc9ee17f	-0.019394634
43	0xbcb22c03	-0.021749502
44	0xbc686a7b	-0.014185543
45	0x3c93969c	0.018016152
46	0x3d007252	0.031359024
47	0x3c09da5b	0.008413876
48	0xbd10dc17	-0.035366144
49	0xbbfdc475	-0.007744367
50	0xbc8bcb9d	-0.017064864
51	0xbcdd112d	-0.02698573
52	0xbbb0b727	-0.005392927
53	0xbbc196b3	-0.0059078573
54	0xbd03d7b1	-0.03218812
55	0x3c92ae9b	0.017905524
56	0xbcf02585	-0.029314766
57	0x3cbf6245	0.023362288
58	0xbc0fab86	-0.008768922
59	0x3c9e2323	0.019303864
60	0xbcae0024	-0.021240301
61	0xbd0834d0	-0.03325349
62	0xbcb82b03	-0.022481447
63	0xbd26f4ce	-0.040760808

deconv2.weight f4 [64, 64, 3, 3]
0	0xbbce742f	-0.0063004713
1	0x3d22f56b	0.03978483
2	0x3d15e942	0.036599405
3	0x3cc32788	0.02382256
4	0x3d0f8444	0.035038248
5	0xbcc6f0df	-0.024284778
6	0x3d1ce2d3	0.038302254
7	0x3ccb604f	0.024826197
8	0x3c5d24d8	0.013497554
9	0xbca799c2	-0.02045906
10	0x3c4463e7	0.011986709
11	0x3ba7c9f1	0.005120509
12	0xbc20f14d	-0.009823156
13	0x3d27accc	0.040936276
14	0x3ce5fc3c	0.028074376
15	0x3c5f3520	0.013623506
16	0x3cb7d69d	0.022441203
17	0xbcd3e75b	-0.025867155
18	0xbd07b6da	-0.033133365
19	0xbd292ba2	-0.041301377
20	0x3d02c4c2	0.031925924
21	0x3ced1c53	0.02894417
22	0xbc64295e	-0.013925878
23	0x3cce7bd2	0.025205527
24	0xbbc901a1	-0.0061342274
25	0xbd0b6dbb	-0.034040194
26	0x3d0fd18e	0.035111956
27	0x3bb4a31c	0.005512608
28	0x3ba4903d	0.0050220774
29	0x3bf902b7	0.0075992006
30	0x3c685b37	0.014181904
31	0xbcb5d577	-0.022196515
32	0x3cc47d70	0.023985595
33	0xbd16c30b	-0.0368071
34	0xbc388e54	-0.011264402
35	0xbc9e145f	-0.019296823
36	0x3d0f137b	0.034930687
37	0x3cfdcb96	0.030980866
38	0xbd1af09b	-0.037827116
39	0xbc20fff8	-0.009826653
40	0x3c70fc0c	0.01470853
41	0x3d173000	0.03691101
42	0xbc1cb91d	-0.009565619
43	0xbd217599	-0.03941879
44	0xbc943689	-0.01809241
45	0xbb93bd03	-0.004508616
46	0x3c856838	0.016285047
47	0xbd25891d	-0.040413965
48	0xbc9c18c5	-0.01905478
49	0xbd234795	-0.039863188
50	0xbbf7cce7	-0.007562268
51	0x3c96844f	0.018373637
52	0xbd236b34	-0.03989716
53	0xbcc5fb0c	-0.02416756
54	0x3d14a72c	0.03629224
55	0xbccf4517	-0.0253015
56	0xbcbbbce7	-0.022917224
57	0x3c8c1a6e	0.017102446
58	0xbb4631d3	-0.00302421
59	0xbcf7c0bd	-0.030243272
60	0xbc2e417d	-0.010635731
61	0x3ab20b01	0.0013583602
62	0x3d215096	0.039383493
63	0x3b8fa2fc	0.004383443
64	0x3cc90718	0.024539515
65	0xbce8525c	-0.028359585
66	0x3b1b52bb	0.0023700434
67	0xbc58e7be	-0.013238845
68	0x3b7f3da8	0.0038946662
69	0xbcaaa26a	-0.020829398
70	0xbd0d6ffc	-0.034530625
71	0x3ccd1145	0.025032649
72	0x3cad428d	0.021149898
73	0x3d12ec6b	0.035869997
74	0xbca6dadc	-0.020368032
75	0x3d2310d4	0.03981097
76	0xbbd93df1	-0.0066296984
77	0x3c81f81a	0.015865374
78	0xbce4f4e6	-0.027948808
79	0x3bc326ab	0.0059555373
80	0x3cec7402	0.02886391
81	0xbcef27f5	-0.029193858
82	0xbc1a9f31	-0.009437368
83	0x3c26f1f5	0.010189523
84	0x3c35266b	0.011056523
85	0x3ccb0116	0.024780791
86	0x3c26d8c9	0.010183522
87	0x3c02444e	0.007950855
88	0x3c8dc731	0.017306896
89	0x3c97702b	0.018486103
90	0xbb211297	-0.002457773
91	0x3d273f0c	0.04083161
92	0x3c928184	0.017884023
93	0xbcbd75f8	-0.023127541
94	0x3c9249d7	0.017857475
95	0xbc73d567	-0.014882422
96	0xbd224072	-0.03961224
97	0x3c1c36a8	0.009534515
98	0x3c2229e6	0.009897685
99	0xbd1459cc	-0.03621845
100	0x3d0a1699	0.033712957
101	0xbcee7e2f	-0.029112903
102	0x3c8e5264	0.017373271
103	0x3bfde92b	0.007748743
104	0xbd041997	-0.032250967
105	0x3d0588d1	0.03260118
106	0xbc719d72	-0.014747011
107	0xbba0367c	-0.0048893075
108	0xbced8522	-0.028994147
109	0x3ccc90b5	0.024971345
110	0x3d22475d	0.03961884
111	0xbbd7cd6e	-0.0065857684
112	0xbbbe1c29	-0.005801697
113	0x3ca45998	0.020062253
114	0xbcc31735	-0.023814777
115	0x3d27ba5b	0.040949207
116	0xbc2fb7bf	-0.010724961
117	0x3bf382e5	0.0074313753
118	0xbd08ff54	-0.033446625
119	0xbcc58b04	-0.02411414
120	0xbd1d3889	-0.038383994
121	0x3cd20419	0.02563672
122	0xbd0da337	-0.034579482
123	0x3cd8408a	0.026397962
124	0xbd1654f3	-0.036702108
125	0x3c2a5d81	0.01039827
126	0xbcb15132	-0.021645162
127	0x3b9a2ac7	0.0047048065
128	0xbcfa3157	-0.030541105
129	0x3d1ec208	0.03875926
130	0xbd06b65f	-0.032888766
131	0x3c98295e	0.018574413
132	0xbc270b03	-0.0101954965
133	0x3c27551b	0.010213162
134	0xba5b6ff5	-0.000837087
135	0xbc3f0092	-0.011657851
136	0x3ce4819e	0.027893838
137	0x3c72119c	0.014774706
138	0xbd02d546	-0.031941675
139	0x3c9e5e1b	0.019331982
140	0x3a806ab7	0.0009797429
141	0x3c90e502	0.017687324
142	0xbcb48327	-0.022035195
143	0x3c3933bc	0.011303838
144	0xbc4cfc11	-0.012511269
145	0xbb5474e4	-0.0032418305
146	0x3bac5ca7	0.0052600685
147	0x3d1c55bd	0.038167704
148	0x3d2a3ec6	0.04156377
149	0x3c00b1f4	0.007854927
150	0x3c808eb6	0.01569305
151	0x3c9b8a8a	0.018986959
152	0x3ca3ed04	0.020010479
153	0x3cb7b816	0.022426646
154	0xbc6557f5	-0.013998021
155	0x3c62036f	0.013794764
156	0xbc4051cb	-0.011738251
157	0xbcb6cdad	-0.02231487
158	0xbc1bc788	-0.009508021
159	0x3d1d4e56	0.038404785
160	0x3d01cef9	0.031691525
161	0x3ce3bea3	0.027800864
162	0xbb21ab53	-0.0024668768
163	0x3d131699	0.035910223
164	0x3cfb1221	0.030648293
165	0xbd031233	-0.031999778
166	0xbc3609dd	-0.01111075
167	0xbd2799b1	-0.040918056
168	0x3cda7921	0.026669087
169	0x3ba51fd8	0.0050391965
170	0xbb6288d8	-0.0034566429
171	0x3d0e2e5c	0.03471218
172	0xbd1d2337	-0.03836366
173	0xbc375bb4	-0.011191297
174	0xbcd831d7	-0.026390953
175	0x3cec9054	0.028877415
176	0x3ccb4b72	0.024816249
177	0xbc86c8a5	-0.016453097
178	0x3d0b95d7	0.034078445
179	0x3b5cfe90	0.0033721067
180	0x3d0276de	0.03185164
181	0xbbbff9e8	-0.0058586486
182	0xbc1ef2d1	-0.009701447
183	0x3ce45682	0.027873281
184	0x3ccaeb2d	0.024770344
185	0xbcdbcc44	-0.0268308
186	0x3c8e7629	0.017390328
187	0x3cddf6ae	0.027095165
188	0x3cd204c4	0.025637038
189	0xbcedb106	-0.029015075
190	0xbbb2a55b	-0.005451841
191	0xbce3ec12	-0.027822528
192	0xbc3c2add	-0.011484829
193	0xbccb8fdd	-0.024848873
194	0x3c1c9255	0.009556373
195	0xbc4e7174	-0.0126002915
196	0xbcbef9b1	-0.023312422
197	0xbc4126c9	-0.011789032
198	0x3c3cb4c5	0.011517708
199	0x3c3eaf37	0.011638454
200	0x3be2902b	0.006914159
201	0xbd29d393	-0.04146154
202	0xbb0afc60	-0.0021207556
203	0xbc84c001	-0.016204836
204	0xbcb91a6e	-0.02259561
205	0x3d1857fb	0.03719328
206	0xbcb1657b	-0.021654835
207	0xbd0e76c2	-0.034781225
208	0xbc8a8e3a	-0.016913522
209	0xbcc31826	-0.023815226
210	0xbca6eff6	-0.020378094
211	0x3c9a9a99	0.018872546
212	0xbb95ee5e	-0.0045755347
213	0xbc7b5d44	-0.0153420605
214	0x3c2c1f74	0.010505546
215	0x3c7f94c4	0.015599433
216	0x3b7766eb	0.0037750553
217	0xbd008d17	-0.031384554
218	0xbcf52910	-0.029926807
219	0x3b004759	0.0019573777
220	0xbc0bcef1	-0.008533225
221	0xbd1a5b7a	-0.037684895
222	0xbc8dabe9	-0.017293887
223	0x3b9fa4f2	0.004871958
224	0xbbd63213	-0.006536731
225	0x3d03cdc0	0.03217864
226	0xbc61e81d	-0.01378825
227	0x3c7f7e55	0.015594085
228	0xbcbb41dd	-0.022858554
229	0xbd229d8a	-0.039701022
230	0xbd15861c	-0.03650485
231	0xbca34c8f	-0.019933967
232	0xbc9f6d6b	-0.019461354
233	0xbd20189b	-0.039085966
234	0x3d0a5ab3	0.033777904
235	0x3c3ff6bc	0.011716541
236	0xbd0186f0	-0.031622827
237	0x3cf573b7	0.029962404
238	0x3d0155c8	0.031575948
239	0xbc110539	-0.008851343
240	0x3b09bf99	0.0021018742
241	0x3cd7f0b6	0.026359897
242	0x3c736b32	0.0148571
243	0xbbb9d089	-0.0056706113
244	0xbcc2cf9f	-0.023780642
245	0x3cca383c	0.024685018
246	0x3d12e7c2	0.035865553
247	0x3c6cb8f1	0.01444839
248	0xbcf09a1d	-0.029370362
249	0xbc575bfb	-0.013144488
250	0xbc3bb1ce	-0.011455966
251	0x3ccc874f	0.024966864
252	0xbc2c5cff	-0.010520219
253	0xbd032430	-0.032016933
254	0x3928c886	0.0001609643
255	0xbcd01c8f	-0.025404243

deconv2.bias f4 [64]
0	0xbc4a661d	-0.012353447
1	0x3c9c972a	0.01911505
2	0xbc2eeaed	-0.010676128
3	0x3bd27c6e	0.0064235246
4	0x3d24a887	0.040199783
5	0xbcbe7d0f	-0.023252992
6	0xbcaa6226	-0.020798754
7	0x3cea9aae	0.02863821
8	0xbc22abe0	-0.0099286735
9	0xbd07576f	-0.033042368
10	0xbd0d3a76	-0.03447958
11	0xbc5628f2	-0.013071286
12	0xbcd4fb10	-0.025998622
13	0xbca2a1f0	-0.019852608
14	0x3b05e536	0.002043081
15	0xbcc82e8f	-0.024436263
16	0xbd0d2a3d	-0.03446411
17	0xbcd5301f	-0.026023922
18	0xbcd06d38	-0.025442705
19	0x3cb792e0	0.022408903
20	0x3ce65b3e	0.02811968
21	0xbd0a470f	-0.033759173
22	0x3d1020fa	0.0351877
23	0x3cb0c597	0.021578593
24	0x3c08577b	0.008321638
25	0x3d113534	0.03545113
26	0xbcbf69df	-0.023365913
27	0x3ca57f10	0.02020219
28	0x3c42b583	0.011884096
29	0x3ba29762	0.004961894
30	0xbba0717e	-0.004896342
31	0xbcde7355	-0.027154604
32	0xbd296ac9	-0.041361604
33	0xbce21110	-0.027596027
34	0x3d212304	0.039340034
35	0x3ce71500	0.028208256
36	0x3d1e4b5d	0.03864609
37	0x3bb1c549	0.0054251296
38	0x3c3163ee	0.010827048
39	0xbc8c0103	-0.017090326
40	0x3ccec8bd	0.025242204
41	0xbca5aab6	-0.020223003
42	0x3c0fc52b	0.008775036
43	0x3b56c6a9	0.003277222
44	0x3ccdb6b5	0.025111536
45	0xbc21c521	-0.009873659
46	0x3d142a15	0.036172945
47	0x3c0f7f05	0.008758311
48	0xbcb3f533	-0.021967506
49	0xbc837c99	-0.016050624
50	0xbbb3d944	-0.0054885466
51	0x3b1e056a	0.0024112114
52	0x3cb3d53a	0.02195226
53	0xbc8ba901	-0.01704836
54	0xbd0120fb	-0.031525593
55	0x3cad719f	0.021172343
56	0x3d256ccf	0.04038697
57	0xbcb78c9a	-0.022405911
58	0xbc530806	-0.012880331
59	0xbc7a789f	-0.015287547
60	0xbcd4e344	-0.025987275
61	0x3c180596	0.009278676
62	0x3b29a573	0.002588597
63	0xbd08873f	-0.033332106
