contrastive_save/contrastive_weights_epoch_12.pt (torch, 749116 bytes, 8 tensors)

conv1.weight f4 [64, 3, 3, 3]
000000 bc cf a1 3d 60 2c d1 bd a6 6f 22 3d 88 ae 91 3d
       0.0790095 -0.10213542 0.039657257 0.07113367
000010 e4 5a a6 3d 31 45 e2 bd ef 0a 15 3e 5e b1 e1 bd
       0.08122805 -0.110483535 0.14554952 -0.11020158
000020 99 52 34 be 7d 07 9d 3d f2 f5 19 be ee 21 af 3d
       -0.17609634 0.07667444 -0.15035227 0.085513934
000030 4b 51 27 be 18 8f 74 bd f8 58 45 3e d3 8c 5c 3d
       -0.16339605 -0.059706777 0.1927222 0.053845238
000040 86 ff e1 3d c7 67 33 3e bb eb 31 be 62 df f4 ba
       0.11035065 0.17520057 -0.1737508 -0.0018682296
000050 63 e7 1c be 69 a6 0c bc a1 67 5b be c0 af 3f 3b
       -0.15322642 -0.008584597 -0.2142625 0.0029249042
000060 59 0b 28 bd 83 6e ef bd 14 ad cd bd 3c 39 04 be
       -0.041026447 -0.11691 -0.10042778 -0.12912458
000070 99 33 97 3b e5 34 04 be 2f a5 fe 3c 03 d1 02 3d
       0.004614305 -0.12910803 0.031084625 0.03193761
000080 3a 15 cb 3c 22 22 29 be 4f 87 20 3e 9f 34 fd 3d
       0.024790395 -0.16516927 0.15676616 0.12363552
000090 35 61 48 be 7e 68 1a 3e 24 f6 e5 3d 0b ff e7 bc
       -0.19568332 0.15078923 0.11228588 -0.028319856
0000a0 34 07 8c 3c 86 1f 1b be e2 81 4c be 19 5a 52 be
       0.017093278 -0.15148744 -0.19971421 -0.20542182
0000b0 c8 20 39 be 55 8a cf 3d 30 64 04 be 69 ee b3 bb
       -0.18078911 0.101338066 -0.12928843 -0.005491067
0000c0 a0 08 27 3e 45 fa f5 3d ee b0 0f 3e e3 08 28 be
       0.16311884 0.12010626 0.14032337 -0.1640964
0000d0 21 33 b2 3c 01 33 23 3e 18 f7 2c be b2 5e a0 3b
       0.021752896 0.15937425 -0.16891134 0.004894101
0000e0 cc f7 a7 bd b7 23 92 bd 58 76 0c 3c 7a 6a 90 bd
       -0.082015604 -0.07135718 0.008573137 -0.07051559
0000f0 85 52 c8 bd aa 0d b0 3d 93 17 56 bd e7 75 85 3b
       -0.09781364 0.08596356 -0.052268576 0.004072893
000100 93 d9 e0 3d 2a 68 5e 3d 2f 5b 2c be 15 89 39 3e
       0.10978999 0.054298557 -0.16831659 0.18118699
000110 6f f4 2c 3e 57 8c 35 3e 13 2c 8a 3c 04 68 80 3b
       0.16890119 0.17729317 0.01686672 0.0039186496
000120 62 98 c5 bd d2 c6 1b be fe 3a 27 bd 5c 43 ed 3d
       -0.09648205 -0.15212563 -0.040827744 0.115851134
000130 db 1f f1 3d db b4 c2 bc 3e e0 ca 3d bf 26 8e 3c
       0.11773654 -0.02376788 0.09906052 0.01735246
000140 df ed d7 bb 48 32 4a be 32 27 2f bd 26 28 2d 3e
       -0.0065896357 -0.19745743 -0.04276199 0.16909847
000150 6f 5c 4d bc df 44 bd 3b f7 f1 c0 3d 59 32 2c be
       -0.012534245 0.0057760323 0.09421151 -0.16816081
000160 f2 0e 2d 3e c3 78 7b bc 26 2b 05 be ef 7a d1 bb
       0.16900232 -0.015348616 -0.13004741 -0.0063928287
000170 00 14 d0 3d 53 6b 98 bc 4d 00 05 be 54 78 97 3d
       0.10160065 -0.018605864 -0.12988396 0.07395998
000180 73 25 ae bc f4 3c ac 3d 99 26 19 be ef 92 b1 3d
       -0.021258092 0.084100634 -0.1495613 0.086706035
000190 ea 0b 66 3d 1e 2c 10 be 1d 5c 99 bd fb 2c 00 3c
       0.056163706 -0.1407933 -0.07488272 0.007823224
0001a0 dc b7 11 3e e4 61 2e be 1d ce 29 3e 9c 4e cf bd
       0.14230293 -0.1702953 0.16582532 -0.101224154
0001b0 4c dd fe bc 8f 39 e5 bc 5f dc a2 3c 1b db 90 3d
       -0.031111382 -0.027981548 0.019880472 0.07073041
0001c0 ff 65 dd bd 34 e8 37 be 27 72 e0 bd 44 21 0c 3d
       -0.1081047 -0.17959672 -0.10959273 0.034211412
0001d0 63 10 a3 bd 7d 18 eb bc 50 cf 14 be 4f af eb bd
       -0.0796211 -0.0286982 -0.14532208 -0.11508047
0001e0 e9 5b 3d 3e 05 91 b0 3d 80 c9 1e 3e cd a0 2c be
       0.18492092 0.0862141 0.15506554 -0.16858216
0001f0 eb 47 99 bd ed 8e 10 be 6b 65 e9 bd 00 61 d7 bd
       -0.074844204 -0.14117022 -0.11396297 -0.10516548
000200 cd ad d7 bd 47 fe 38 be 37 f3 97 bd bb 7f 19 3d
       -0.10531197 -0.18065749 -0.074194364 0.03747533
000210 bd 88 b7 3d 88 4b d4 3b 28 5b 9f bd 8e 90 f1 bc
       0.08961628 0.0064787306 -0.077810585 -0.029487874
000220 c2 2a 1e 3e e8 04 24 be e3 32 ab 3d dd 65 e9 bd
       0.15445998 -0.16017497 0.08359315 -0.11396382
000230 22 1b 56 be d7 a6 10 3e cc 94 66 3d c5 1a 8b 3d
       -0.20908788 0.14126144 0.056294248 0.06792215
000240 36 81 3a be f0 e3 cd 3d 74 a6 00 3e 2f 06 34 3e
       -0.18213353 0.10053241 0.12563497 0.17580484
000250 a3 49 ef 3d df 7a 54 be ba 09 af bd ee 0d 30 be
       0.11683967 -0.20749997 -0.08546777 -0.17192814
000260 e3 a4 b8 3c 14 c1 d4 3c c8 44 e6 bc 80 e7 db 3d
       0.022539562 0.025970973 -0.02810897 0.107375145
000270 ae 9f 3a be 9e a8 87 3d 1d 69 9d bc b3 f9 30 3e
       -0.18224975 0.06623958 -0.019215161 0.17282753
000280 22 7a 03 3e fc 20 df bd c5 38 9b bd 18 64 c8 3d
       0.12839559 -0.10894963 -0.07579187 0.09784716
000290 1a 45 a6 bd 9a 58 53 3a 97 c2 2f 3e 14 5f c8 bd
       -0.08118649 0.0008062214 0.17164074 -0.0978376
0002a0 ec f8 48 bb de a4 39 3d 0e 22 da bd b0 a7 56 3d
       -0.0030665947 0.045323245 -0.10651027 0.052406013
0002b0 6b 0d e3 bc 70 97 b0 3c ca 36 68 3d 9f 0a 1f 3d
       -0.02771636 0.021556586 0.056692876 0.03882849
0002c0 bd ed e8 bd 64 d0 18 be c7 03 c2 3b 2b 3e f5 bd
       -0.1137347 -0.14923245 0.0059208605 -0.11974748
0002d0 46 48 89 3c 16 ff b5 bd 99 a5 2c be fc a4 00 bd
       0.016758095 -0.088865444 -0.16860045 -0.03140734
0002e0 4e 98 d1 bd 0d ca 37 be ac f2 6e 3d 31 a9 9e bb
       -0.10234128 -0.1794817 0.0583369 -0.0048419465
0002f0 a4 27 dd 3d d8 2d 1a be 45 7b 14 be e8 59 2f be
       0.107985765 -0.1505655 -0.14500149 -0.1712414
000300 f7 21 a3 bd 86 ff 29 be 20 27 69 3d e3 9c d7 3c
       -0.07965463 -0.1660138 0.056922078 0.026319927
000310 59 df 57 be d5 51 56 bd b8 13 a5 bd 1d 08 10 bd
       -0.21081294 -0.052324135 -0.08060402 -0.035163987
000320 20 db a8 3d 27 17 3e 3e 85 79 b8 bd a7 21 34 be
       0.0824492 0.1856352 -0.09007553 -0.17590962
000330 e4 51 48 3b 00 dd a9 3d 9a 06 8f bd 19 c8 c0 bd
       0.0030566389 0.082941055 -0.06983681 -0.094131656
000340 d5 83 c2 3d b5 b5 6f 3d 42 12 4a 3e a5 8d b8 3c
       0.09497801 0.0585229 0.19733527 0.022528479
000350 d0 40 8d 3d 0f 0b 01 3d ce d8 b4 bd 23 ae 67 bd
       0.06897128 0.031504687 -0.08830415 -0.056562554
000360 8f ad 14 be 12 ef 23 3e f3 5d cc bd 53 c3 a9 bd
       -0.14519332 0.16009167 -0.09978857 -0.08289208
000370 dc 82 27 be bb 3b 38 3e 60 ca 00 be 0d d0 4d be
       -0.16358513 0.17991535 -0.125772 -0.20098896
000380 24 f5 ac 3d 58 f9 1b 3d 1d 47 0c 3e e2 38 e0 3d
       0.08445194 0.03807959 0.13699003 0.109483495
000390 a9 05 c5 3d 08 4b 12 be d6 de 15 3e ee 1e b6 3d
       0.0962022 -0.14286435 0.14635786 0.08892618
0003a0 7b 5b c9 3d cd 6a 23 be 67 ec 24 3e f8 87 db 3d
       0.09831902 -0.1595871 0.16105805 0.10719293
0003b0 3d f8 5b 3d b1 0c e1 bd a9 8f d5 3c 26 1e 30 3d
       0.053703535 -0.10988749 0.026069479 0.0429975
0003c0 d3 b5 8a 3d 8b 58 e2 bd 5f b4 47 be e0 10 12 bd
       0.067729615 -0.110520445 -0.195024 -0.035660625
0003d0 e7 a9 0c be f1 b7 15 3d 54 10 1a be b5 40 03 3e
       -0.13736688 0.036552373 -0.15045291 0.12817653
0003e0 a8 9b aa bd a3 bd 17 be 2a 22 85 bd f2 5d d1 bd
       -0.0833047 -0.14818434 -0.06500657 -0.10222997
0003f0 69 70 49 bd f5 eb 4f be 03 3b 2e bd 50 34 7a bb
       -0.04917947 -0.20304854 -0.042536747 -0.0038178153

conv1.bias f4 [64]
000000 cb 25 74 3d 22 80 21 bd 72 de 8a bd d6 54 91 3d
       0.059606355 -0.039428838 -0.06780709 0.07096259
000010 94 91 0e bd 64 3e 40 bd 9f 59 ff bd e8 04 dc 3b
       -0.034806803 -0.0469345 -0.12468266 0.006714452
000020 39 fe 68 bd 17 01 97 3d df a9 da bd 62 4d 9d bd
       -0.05688307 0.07373255 -0.106769316 -0.07680775
000030 fc c8 df 3c f0 0d 00 3e dc 72 89 3d 32 63 e6 3d
       0.027317517 0.12505317 0.06711361 0.11249389
000040 77 84 27 bd 87 77 95 bb 2e c0 0f be 1f b2 eb 38
       -0.040897813 -0.004561368 -0.14038154 0.00011238851
000050 e1 3c 3b 3d 7f ec 90 bd a7 9b eb 3d ce 6d ba bd
       0.045712356 -0.07076358 0.11504298 -0.09102975
000060 ca 45 3e bd be 38 db 3d 5a cb 2c be 17 2f e0 bc
       -0.046453275 0.10704182 -0.16874447 -0.027366204
000070 b3 9d d2 3b b9 27 25 3e 6e 07 50 39 e6 65 fc bd
       0.0064274906 0.16128434 0.00019839194 -0.12324123
000080 ba d3 fe bd a3 50 e1 bd 0c a4 46 be cb 14 e5 bd
       -0.124427274 -0.11001708 -0.19398516 -0.111856066
000090 ed d4 b4 bc 62 09 fb 3d a9 62 97 bd d4 c5 41 3e
       -0.022074187 0.12257649 -0.07391865 0.18923122
0000a0 8f e7 cc 39 11 c5 0f 3d 58 f2 b4 bd 58 fc ea 3d
       0.00039082437 0.035100047 -0.08835286 0.11473912
0000b0 8d eb 1a be 08 77 01 be be b3 f6 bd 14 22 90 bd
       -0.15128918 -0.12643063 -0.12046002 -0.0703775
0000c0 bc b3 e9 3c 59 69 d0 3c 5c 80 22 bd b7 54 87 3d
       0.028528087 0.025440859 -0.039673194 0.06607955
0000d0 ae 36 2b 3e 81 6c 93 3b 98 42 92 3d ef 4e bc bd
       0.16720077 0.0044990187 0.07141608 -0.09194743
0000e0 86 63 67 bc 59 66 f4 bc a0 62 3c 3d 8f e9 63 bd
       -0.014122849 -0.02983396 0.045992494 -0.05564266
0000f0 17 44 96 3d 71 86 8f 3d 77 d8 35 3b 8d 3c 78 3d
       0.07337206 0.070080645 0.0027747431 0.06060462

conv2.weight f4 [128, 64, 3, 3]
000000 cc 4e 05 3a 5a b3 f4 3c a0 27 04 3d 26 d7 2a bd
       0.0005085289 0.029870678 0.03226435 -0.041709088
000010 25 e4 05 3d bc ee 61 bc 26 87 77 3a 85 e4 fb bc
       0.03268828 -0.013789829 0.0009442441 -0.030748615
000020 b4 39 1f 3c c9 a6 c9 3c f8 3c 9e bc 27 a2 94 bc
       0.009718347 0.024615662 -0.019316182 -0.018143727
000030 22 b1 15 bd b2 0e c8 bc 7d 57 19 bd a1 aa 7c 3c
       -0.03654588 -0.02442107 -0.03743695 0.0154215405
000040 bb 29 14 bd 47 68 21 3d e4 04 ad bc 0e a0 9f bc
       -0.03617261 0.039406087 -0.021120496 -0.0194855
000050 4e 3b 2f bc 38 92 db 3b e2 b7 0e 3d 80 ef 6e 3c
       -0.010695292 0.0067007802 0.034843333 0.014583468
000060 43 93 70 bc 04 0a 02 3d 08 d7 8f bc f3 ce ff bb
       -0.014683547 0.031747833 -0.01755859 -0.0078066527
000070 3c 40 80 3c 7e 09 be 3c 00 c2 32 3d cb 53 98 bc
       0.01565563 0.023197886 0.043642044 -0.018594643
000080 c5 08 76 3c 66 c9 f9 3c 53 64 2b 3d d8 58 e7 bb
       0.015016739 0.030491542 0.041843724 -0.0070601515
000090 f6 0b 6c 3c 47 77 df bc 28 03 d9 3b 2b b1 37 3d
       0.014407149 -0.027278556 0.0066226907 0.044846695
0000a0 4f c0 15 bc 12 24 4a 3d a1 ed 2c 3b 05 2e fd bc
       -0.009140088 0.049350806 0.0026386755 -0.030905733
0000b0 39 c9 1c 3d 1c 0f ee 3c f8 ee 11 3d 5d 0d fc 3b
       0.03827784 0.02905994 0.03562829 0.0076920227
0000c0 68 57 95 3c f6 7c 57 3b 00 b3 07 3d 6b 59 fb bc
       0.018230155 0.003288088 0.033129692 -0.030682286
0000d0 4b 27 1e bd 74 26 96 3c 1a 15 f4 3c b1 a6 74 bd
       -0.03861169 0.018328883 0.029795218 -0.05972928
0000e0 e5 07 f2 bc ea 7d ee bc e3 c9 2d b8 57 2d f6 bc
       -0.02954478 -0.029112775 -4.1434436e-05 -0.030050917
0000f0 54 d8 c8 bc 34 88 8d 3c 47 e8 bc bc e0 40 1f 3c
       -0.024517216 0.01727686 -0.023059977 0.009720057
000100 f3 4b c4 ba 56 ed 6e 3c 68 ab 36 bc 48 7b 39 bd
       -0.0014976248 0.0145829525 -0.011149265 -0.045283586
000110 0f e4 32 bd 31 b7 24 3c 9d 19 48 bd 09 31 2a bd
       -0.043674525 0.010053442 -0.04885255 -0.04155067
000120 bf 15 b1 bc d1 93 4a bc ad 3c 22 3b 2b bb 40 3d
       -0.021616815 -0.012364344 0.0024755404 0.047053497
000130 55 ec 32 3d 34 1c 4c 3c 17 cf f3 bb a3 2c 9c bc
       0.043682415 0.012457896 -0.0074404585 -0.019064253
000140 cd a7 65 3c 0e 52 7b bc 2b c5 b5 bc 16 61 2a 3c
       0.014017058 -0.015339388 -0.022188744 0.010399124
000150 c9 40 22 bd f7 e8 1e bd 7c 57 3b bd c1 10 39 bd
       -0.039612565 -0.03879639 -0.04573773 -0.045181993
000160 9b 07 d1 3c 9b b0 2a bd ac df c7 3c f9 c4 98 bc
       0.025516322 -0.04167233 0.024398647 -0.018648611
000170 75 87 79 3c 12 f0 48 bb 7b bb 03 3d 85 89 4b bc
       0.015230049 -0.0030660671 0.032161217 -0.012422924
000180 cf bb ce 3c 96 60 80 3c 8d a3 0a bc d8 6f ff bc
       0.025236038 0.015671056 -0.008461845 -0.031181261
000190 3b bc 09 bc 35 b9 d5 bb cd 08 b9 bc 96 70 f9 bc
       -0.008406694 -0.0065223225 -0.022587204 -0.030449193
0001a0 5d b6 92 ba 32 7d 03 bd be d8 7d 3c 2e a5 19 3b
       -0.0011193265 -0.032101817 0.01549357 0.0023444402
0001b0 6e fa 21 3d 65 97 be 3c c4 3b 66 3d 94 be 95 3b
       0.03954547 0.02326555 0.05620934 0.004569838
0001c0 5e 1b 2a 3d 2c fe 66 3d b4 44 36 3d c2 f3 a6 3c
       0.041530006 0.05639474 0.044499114 0.020379905
0001d0 7d a6 1e bc bf f7 7c 3c 69 33 18 3d 76 eb 0f 3d
       -0.009683249 0.015439927 0.037158404 0.035136662
0001e0 5e a7 fb 3c 3e 17 8f 3b 16 4b ad 3c 86 e8 65 bb
       0.030719455 0.0043667844 0.021153968 -0.0035081222
0001f0 2b 1b 33 bd e2 91 24 bd 06 d8 7d ba 22 68 b7 bb
       -0.04372708 -0.040178187 -0.0009683374 -0.0055971304
000200 56 df 76 3c fd a7 08 3d d1 7f c0 3c 78 75 08 3c
       0.015067896 0.03336333 0.023498448 0.008328788
000210 d0 28 62 3d 44 55 f8 3c b9 96 f7 3c 94 24 43 3d
       0.055214703 0.030314095 0.030223237 0.047642305
000220 39 a2 1f 3d 73 54 a0 bb 57 7e 16 ba 4d 36 94 3c
       0.038973067 -0.0048928796 -0.0005740872 0.018092299
000230 96 b4 7f 3c 70 e4 3c bc e2 ae 18 3d 55 3f 86 3b
       0.01560702 -0.011529073 0.037276156 0.0040969052
000240 65 fc 3a 3d cf 0c 92 3d 15 bc 9d 3d 9d 88 21 3d
       0.04565086 0.07131349 0.077018894 0.039436925
000250 74 1c 94 3d 30 9f 8a 3d 09 9e 7b 3d 9a 05 4a bc
       0.072319895 0.06768644 0.06143001 -0.012330437
000260 dd f3 1f 3c c5 8b f2 3c 10 b5 63 3c d2 ba 7e 3d
       0.009762731 0.029607663 0.013898149 0.062189884
000270 6e 94 a1 b8 31 26 b8 bc 3e 4b 47 3d da f4 34 3d
       -7.7047254e-05 -0.022479149 0.04865574 0.04417882
000280 6a 6e 03 3d 27 a9 26 bc 0f d3 42 3d d0 ae 39 3d
       0.03208772 -0.010172165 0.047564562 0.04533273
000290 99 62 01 bd 21 90 cf 3b 43 52 cf bc be 7f 05 3c
       -0.03158817 0.00633432 -0.02530778 0.008148132
0002a0 cc e8 81 3d d1 2d cc ba 75 67 b8 bc 39 7f 32 3d
       0.063432306 -0.0015577619 -0.02251027 0.04357836
0002b0 68 bf 4c 3d 59 dd 80 3d c7 c0 9b 3b db 57 ff 3c
       0.049987227 0.06292219 0.0047532055 0.031169822
0002c0 a1 9b 52 3d 63 a5 a3 3c d9 0f 80 3d af 49 3f 3d
       0.05141795 0.019976323 0.06253023 0.04670113
0002d0 47 e1 1b 3d c6 18 df 3c db 21 d2 3b d9 1d 2a bc
       0.038056638 0.027233493 0.0064127273 -0.010383093
0002e0 e8 5b 98 3c 13 6d 24 bb ff 19 30 3d 23 01 38 3d
       0.018598512 -0.0025089427 0.04299354 0.04492296
0002f0 a4 22 87 3d 05 9d ac bc 3b a2 d6 bc 84 29 03 bd
       0.06598404 -0.021070966 -0.026200404 -0.032022014
000300 f6 1a fa 3c 45 97 1a 3c d9 75 23 3d 2e 9f df b6
       0.030530434 0.0094354795 0.03990731 -6.664449e-06
000310 e2 68 f0 bc 2a 65 21 3d 68 c4 1d 3d 42 04 ba 3c
       -0.029346887 0.03940312 0.038517386 0.022707108
000320 32 91 e0 bc 6a bf 0c 3d c5 c5 b7 bb 1d ad 05 3d
       -0.027412985 0.034362234 -0.0056082928 0.032635797
000330 40 59 10 3d 68 ca 72 3b d2 37 e8 3c b8 9b 48 bd
       0.035241365 0.0037046913 0.02834693 -0.04897663
000340 15 cd 1e bd 37 c3 8b 3c 02 87 f0 bc 0c 98 15 bd
       -0.0387698 0.01706086 -0.029361252 -0.036521956
000350 13 b3 15 b8 87 05 71 bb 9c 8c 71 3c 02 f3 fa 3c
       -3.5691144e-05 -0.0036776976 0.014742997 0.030633453
000360 04 3a 00 bc 86 46 57 3d 88 5f 34 3d 21 78 01 3d
       -0.007826332 0.05255749 0.04403642 0.031608704
000370 77 f9 ac bc e8 d4 94 3c 70 da 8c 3c 00 b8 c2 bc
       -0.021115048 0.018167928 0.017194003 -0.023769379
000380 11 41 80 3c 7f 56 1a 3c 56 41 35 3d 49 6a 79 bc
       0.015656026 0.009420036 0.044251762 -0.015223094
000390 b5 69 f6 3a 17 ad 54 3c 92 87 b9 bc 04 c6 60 bb
       0.0018799814 0.012980721 -0.022647653 -0.0034297714
0003a0 cd 05 cf 3c cf cc f9 ba 43 20 39 bc d8 90 e2 bc
       0.02527132 -0.001905823 -0.011299196 -0.027656958
0003b0 97 a2 45 bd 81 cd 0c 3b d8 4e 9a 3c a2 d4 e9 bc
       -0.04825076 0.0021484795 0.018836424 -0.028543774
0003c0 98 f2 8e 3c 28 5e a4 3b 4c 27 38 bd 92 37 b6 3b
       0.017449662 0.005016107 -0.04495935 0.0055608237
0003d0 6a 52 9d 3a 30 5c db bc e5 48 54 bc e1 e1 8b ba
       0.0012002711 -0.026777357 -0.012956833 -0.0010672176
0003e0 e7 ae ad bc db d3 80 3c 5d da b1 bc a1 6a 9b bb
       -0.021201564 0.01572602 -0.021710569 -0.0047429358
0003f0 da ad 73 bd c3 86 59 bd fe 64 d3 39 43 d2 f7 bc
       -0.05949197 -0.053107034 0.000403203 -0.030251628

conv2.bias f4 [128]
000000 93 e9 fe bc 60 89 4f bc 6f 40 41 3c 8e c7 8a b9
       -0.031117236 -0.01266703 0.011795147 -0.0002647009
000010 43 60 9d bb 94 53 8c bc df bb 51 3d 43 19 4a 3b
       -0.004802735 -0.017129697 0.05120456 0.003083781
000020 67 39 c9 3a 62 d6 39 3c ce aa 43 3d ee d9 a4 bb
       0.001535219 0.011342617 0.047770314 -0.005030862
000030 d7 08 81 bc dd fe 1b bc 1b 94 5b 3b 94 36 31 3d
       -0.015751285 -0.009521213 0.0033505026 0.04326494
000040 a8 51 b6 3c 3a ef e8 3c 70 c7 8e bc 6b 8c 35 3d
       0.022255734 0.028434385 -0.017429084 0.044323366
000050 f6 87 06 3d e8 21 1c bd a6 60 1e 3c ef ae 98 bc
       0.032844506 -0.038118273 0.0096665975 -0.018638102
000060 8f 5a 0c 3b 3f b7 b7 bc 59 bb a9 3c d9 06 0a bd
       0.0021416282 -0.022426246 0.020719217 -0.033697937
000070 69 d1 33 bd f4 a3 84 bc 15 c0 34 3c ab 56 a9 bb
       -0.04390088 -0.01619146 0.011032124 -0.0051678023
000080 1e 7b 34 3d 8a 14 a2 3c 45 25 f4 3a 92 bc ce 3c
       0.044062726 0.019785184 0.001862683 0.025236402
000090 12 9c fe bb d7 31 e1 bc 77 95 19 bd d0 eb 15 3c
       -0.00777007 -0.027489586 -0.037496056 0.00915046
0000a0 5b f1 c7 3c 9b 95 a6 3c ea fc f2 bb 3b 35 6b ba
       0.02440708 0.02033501 -0.0074154036 -0.00089724705
0000b0 b2 e3 d0 3b 1f 62 73 bc 8e ca 04 3d eb 65 16 3c
       0.0063747996 -0.014854937 0.032419734 0.009179573
0000c0 3a bc 30 bd 81 c4 08 bc 09 6a 0a bd 50 c3 e2 bb
       -0.043148257 -0.008347631 -0.03379253 -0.0069202557
0000d0 93 5c 2a bd ba d0 12 3d a3 0a 00 bc 42 c9 25 bd
       -0.041592192 0.03584359 -0.007815036 -0.040475138
0000e0 d1 ba 1c 3d 76 9e ac bb e6 36 76 bc 23 a9 84 bc
       0.0382641 -0.0052679135 -0.015027737 -0.016193932
0000f0 26 22 e0 bc af 9b d9 bc cf f7 b4 3c 7e 8c 89 bc
       -0.027360033 -0.026563494 0.02209082 -0.016790625
000100 e4 0f 44 3d 09 de 56 3d a5 c3 13 3d 76 18 19 bd
       0.047866717 0.052457843 0.036075253 -0.037376843
000110 aa 10 68 3c 79 9f f3 3c a3 55 b5 3c 7e 8e bc 3b
       0.014164129 0.029739128 0.022135561 0.005754291
000120 25 ca 18 bd b4 6d cd 3c 74 ec 8e bb 50 fc 83 bc
       -0.037302155 0.025076725 -0.0043616835 -0.016111523
000130 55 d2 9a bb c7 cd 6c 3c d9 0a 42 3c 80 eb fb 3c
       -0.0047247806 0.014453358 0.011843407 0.030751944
000140 da 88 de 3a c7 7b 42 3c 8c 7d 1e 3d 54 e3 ee bc
       0.0016978041 0.011870331 0.03869395 -0.029161133
000150 e3 f1 42 3c b7 29 6e bb 28 42 2c 3d c6 e7 15 3c
       0.011898491 -0.0036340782 0.04205528 0.009149497
000160 28 22 3a 3c 2b 2c 3c 3d 63 7e 0b 3c 60 63 f4 3c
       0.011360683 0.04594056 0.00851402 0.029832542
000170 3b f8 f1 3c 39 ee 4e bc 56 5e 47 3d f8 9c 6f 3c
       0.02953731 -0.012630039 0.04867395 0.014624827
000180 12 0d c2 bc 79 79 ba bc b0 61 bf bc cf 79 a6 3c
       -0.023687873 -0.022763 -0.02336201 0.020321755
000190 39 11 02 bd 20 53 97 bc 80 09 15 3d 98 ae c1 bc
       -0.031754706 -0.018472254 0.036386013 -0.023642823
0001a0 ae fd fd bc ea 25 47 3d 6d 99 9e bc 08 cd 30 3d
       -0.031004753 0.048620142 -0.019360268 0.043164283
0001b0 cd 67 ba 3c d2 68 08 bd 79 2d 2b bc 6d 80 34 bd
       0.022754574 -0.03330309 -0.010447853 -0.04406779
0001c0 2b 99 8d 3c ac 62 bc bb f4 2f af 3c ee c0 f5 bc
       0.01728495 -0.0057490673 0.02138517 -0.029999223
0001d0 2b f4 69 3d 75 15 b4 3c 7f b0 3f bb c7 59 ce 3c
       0.057117622 0.021982888 -0.0029249487 0.025189294
0001e0 c8 02 cc bc f5 59 11 bd c1 bc 87 3c d4 f3 a7 bc
       -0.02490367 -0.03548618 0.016569497 -0.020502008
0001f0 03 4a 5d 3d f2 df 0e 3c d8 47 d9 bc f1 5a ee 3c
       0.05402566 0.008720385 -0.026523516 0.029096099

deconv1.weight f4 [128, 64, 3, 3]
000000 4d e8 a0 bc ef 41 ec bc b7 b2 01 bc c6 1c e2 bc
       -0.01964202 -0.028840033 -0.007916144 -0.02760161
000010 38 fb cf 3b 7c fd 27 3c 2c b7 fc 3c 10 2f 27 3c
       0.0063470863 0.0102533065 0.030849062 0.010204092
000020 4c 80 96 bc 85 3a c6 3c a8 d9 03 3d eb 77 da 3a
       -0.018371724 0.024197826 0.032189995 0.0016667818
000030 1d e4 2e 3d d2 83 92 bc ab a3 d9 bb 44 6d 90 3c
       0.042698015 -0.017885122 -0.006641825 0.017630227
000040 01 fb 99 3c 7c 5d d9 3c fc e9 29 bd 98 a8 a9 bb
       0.018796446 0.026533835 -0.04148291 -0.0051775686
000050 45 c6 9f bb 82 48 33 3c 45 11 97 3c 63 8e 70 3c
       -0.0048759305 0.01094258 0.018440852 0.014682385
000060 2c d8 9f 38 21 83 11 bd d0 48 5f bc 70 f8 22 3d
       7.621976e-05 -0.035525445 -0.0136282 0.03978771
000070 a7 f4 80 bc 03 1b 1b 3d 31 1f c6 bc c2 8b 13 3c
       -0.01574166 0.037867557 -0.024184795 0.009005489
000080 9b 13 c7 bc 6f c1 a3 3c b4 26 56 3b e4 11 58 3c
       -0.02430134 0.019989697 0.0032676877 0.013187859
000090 79 87 11 bc 95 c2 10 bd fa 20 54 3a d0 b2 2f 3d
       -0.008882397 -0.035341818 0.0008092072 0.04289514
0000a0 67 43 11 3d 62 dc 00 bd 92 b2 4f bc d3 77 9c 3a
       0.03546467 -0.031460173 -0.012676852 0.0011937566
0000b0 ad 33 70 bc af 15 7b bc f8 bc 23 bb 1b bd c7 3c
       -0.014660758 -0.015324994 -0.002498446 0.024382165
0000c0 9f ed 05 3d dc d5 33 3b 41 64 26 bd 1a af 0c bd
       0.032697316 0.0027440703 -0.040622953 -0.034346677
0000d0 2b 1c 47 bc 0e 89 7d bc 85 0a 1a bd 07 6b 85 3c
       -0.012152712 -0.015474571 -0.03760769 0.016286386
0000e0 b4 ca 43 bd 87 b3 1b bd 67 54 0b bd a3 ad 66 bd
       -0.047800735 -0.038013007 -0.03401604 -0.056317937
0000f0 6e 98 55 3b ea cd 40 bc 7f 79 3a 3c 8d d7 9f bc
       0.0032592076 -0.011767844 0.011381506 -0.019511962
000100 37 02 fd bc 41 92 85 bc 3f 6b 9f 3b 0e 3c 2d bc
       -0.030884845 -0.01630509 0.0048650797 -0.0105734
000110 ca 93 e3 3c 44 70 18 3d ad 8d 16 bd 10 2f 19 bd
       0.027780432 0.03721644 -0.036756206 -0.037398398
000120 7e 28 c8 bc 34 40 2e bc 53 7e c8 bc 23 e9 f2 3b
       -0.02443337 -0.010635424 -0.024474299 0.007413046
000130 da 02 ee bc 14 62 88 3c bb 02 b9 3c 4e c1 e9 3c
       -0.029054094 0.01664833 0.02258431 0.028534558
000140 5b 58 12 bd 35 69 59 3c 8a f9 d8 bc a7 b3 de bc
       -0.035728794 0.013269712 -0.026486177 -0.027185274
000150 e3 56 0b bc bd 0a c1 3c 4a 75 1c 3d ea 2c 92 bc
       -0.008504602 0.02356469 0.038197793 -0.017843682
000160 dd 0c e7 3c 23 4c 2e 3d ec 77 c4 ba 65 ec 38 3c
       0.028204376 0.04255308 -0.0014989353 0.01128683
000170 00 92 1d bd 19 02 91 bb d4 b4 97 3c 03 b7 39 bd
       -0.038469315 -0.004425299 0.018518843 -0.04534055
000180 e1 2f 92 3c a6 69 c6 3b 0d 9a 57 bd 74 f7 a0 bc
       0.017845096 0.0060550747 -0.05263715 -0.019649245
000190 29 a0 2e 3b 1d f2 02 3d 24 d2 61 3c 64 ec 49 3c
       0.0026645756 0.03196918 0.013783012 0.012324426
0001a0 cc 6d 9b bc 67 75 d4 3a 43 7f aa 3c 70 67 bf bc
       -0.018973254 0.0016209305 0.020812636 -0.023364753
0001b0 b0 b9 85 3c 65 16 06 bb 64 59 ea 3c bf 74 00 bd
       0.016323894 -0.0020460126 0.028607078 -0.031361338
0001c0 b7 a9 20 bd 48 2d 0c bd 61 1e 11 bd c8 76 9b 3b
       -0.039224353 -0.03422287 -0.035429362 0.0047443844
0001d0 c5 1f 8e 3b 44 19 a8 3c d0 0a 6d ba bb 5d 89 ba
       0.0043372833 0.02051986 -0.00090424437 -0.0010480204
0001e0 0b 4e a8 bc 9c 9f dd 3a 0f 74 d4 3c 66 c9 a2 bc
       -0.020545026 0.0016908529 0.025934247 -0.019871425
0001f0 a2 5a 80 3c c7 9e ca bc e6 4a 94 bc e2 02 58 bd
       0.015668217 -0.024733914 -0.01810212 -0.052737124
000200 1e 9d d6 3c 7b a6 1c bb 71 33 f9 bc 10 78 19 bd
       0.026197966 -0.002390294 -0.030420037 -0.037468016
000210 26 ac e5 3a 78 1a 17 3b b9 50 69 bc 4b 5f 3e bd
       0.0017522618 0.0023056548 -0.014240437 -0.046477597
000220 03 22 a2 bc 61 f4 89 3b 47 59 f5 bc 0a 92 04 bd
       -0.019791609 0.0042100404 -0.029949797 -0.032365836
000230 07 5f a8 3c f2 3c 41 3a 95 8a b9 bb 36 ef b3 3c
       0.020553125 0.0007371447 -0.005662272 0.02196465
000240 bd 8a 5e bb a1 93 ff b8 5b 41 d8 3a ce 87 35 3d
       -0.0033957206 -0.000121868456 0.001649897 0.044318967
000250 7b bd d9 bc 46 bf 08 3c 8a 88 2c 3d 74 49 d4 3c
       -0.02657961 0.008346384 0.0421224 0.025913931
000260 83 1c f2 bb 96 87 29 bd ba 34 ae 3c 6d 62 d9 bb
       -0.007388653 -0.04138907 0.021265376 -0.0066340477
000270 7f bd 8a bc 75 be d9 bc 45 35 a4 bc ae 28 38 bd
       -0.016936062 -0.026580075 -0.020044932 -0.04496067
000280 b8 ab b1 3c dc f2 a1 bb 93 48 3b bd 31 fe 92 bd
       0.021688327 -0.004942281 -0.04572351 -0.071773894
000290 14 40 b4 bc f8 48 4a bc c3 ca e9 bc ce 51 02 39
       -0.022003211 -0.012346499 -0.028539067 0.00012428241
0002a0 be ff 03 3d a0 53 3c 3d db 05 40 3d 06 8f 5f 3d
       0.032226317 0.04597819 0.046880584 0.054579757
0002b0 6d af 5c 3d 4d e9 5e 3d b2 07 51 3b 02 a1 4c 3d
       0.053878237 0.05442171 0.0031895456 0.049958237
0002c0 ea 06 54 bb 10 4c e5 bb 4b 12 09 bd 19 67 f7 3c
       -0.0032352754 -0.0069975927 -0.03346471 0.030200528
0002d0 22 93 b5 39 8b 1c 37 38 25 49 8d bb b1 61 83 bd
       0.00034632633 4.3657183e-05 -0.004311698 -0.064151175
0002e0 43 12 78 bd b7 d0 ef bc 25 b2 49 bd c5 cc 20 bd
       -0.06056429 -0.029274328 -0.049242157 -0.039257783
0002f0 a7 82 eb bb 7f 72 6e 3c 01 b0 cd 3b 20 ff 97 bb
       -0.007187206 0.014553665 0.006277085 -0.0046385676
000300 77 f1 84 3b b5 cb a7 bc 74 a8 a5 bc 9a 1e d2 ba
       0.004057105 -0.020482877 -0.020221926 -0.0016030848
000310 23 65 00 bd f6 92 14 bd 61 84 47 39 33 d4 c2 3c
       -0.03134645 -0.036272965 0.00019027434 0.023782825
000320 89 5a 97 3c 39 ca 01 bd 3a 73 7f 3c 33 35 3f 3c
       0.018475788 -0.031686995 0.015591437 0.0116703985
000330 87 ce 64 bc 44 4a 67 bc fa f9 a0 bc cd 3d ba bc
       -0.013965256 -0.014116827 -0.019650448 -0.022734547
000340 81 a1 34 3c 8e a4 3c 3c c0 de 22 39 ed 35 73 bc
       0.011024834 0.011513842 0.00015532505 -0.0148444
000350 6a 75 55 bd 19 7c d5 bc 89 01 e8 ba 55 de a0 3c
       -0.052113928 -0.026060151 -0.0017700653 0.019637266
000360 51 c9 b6 bb 77 41 ed bc 69 7f 2f 3d 8b a9 7f 3c
       -0.005578198 -0.02896188 0.042846117 0.015604387
000370 ee 55 62 3c 24 89 21 bc 51 76 bb 3c 14 46 40 bc
       0.013814433 -0.009859357 0.022883566 -0.011735458
000380 d8 2d 94 bb db d0 86 3c 6e ab 8c 3c 9d e2 3a bd
       -0.0045220666 0.016457012 0.017171588 -0.04562627
000390 c7 f5 f2 3c c0 01 e6 bc 59 55 1c bd 46 3f a9 bc
       0.029658211 -0.028077006 -0.03816733 -0.020660054
0003a0 89 bd 36 bc d4 5f 4c bc ee cf a3 3c a8 a6 04 bd
       -0.011153587 -0.012474019 0.01999661 -0.0323855
0003b0 fa 60 a2 ba f1 73 94 bc a9 60 0c 3d 79 95 f4 3c
       -0.001238852 -0.018121691 0.03427187 0.02985643
0003c0 95 d3 90 bc c2 c0 0e bd 4f 36 18 bd fa 25 ae bc
       -0.017679015 -0.034851797 -0.037161168 -0.021258343
0003d0 3d 4f 04 bd 81 f3 80 3c 2e 81 9b bc 6d c4 8d 3c
       -0.03230213 0.015741112 -0.018982496 0.017305577
0003e0 88 05 be 3c 49 a0 e3 bc 19 7d a7 3c b2 e8 a5 3b
       0.023195997 -0.02778639 0.020445393 0.00506314
0003f0 03 c2 1e bd 53 c4 05 bc 8e 82 e1 bc da 36 21 3d
       -0.038759243 -0.008164483 -0.027528074 0.03935895

deconv1.bias f4 [64]
000000 93 7d 8c bc 60 55 3d 3d f1 66 3c 3d 9b 80 1d bd
       -0.017149722 0.046223998 0.04599661 -0.038452726
000010 3a 2c 98 bc 90 b6 74 ba fb 49 44 3d 9f d1 1f 3c
       -0.018575776 -0.0009335065 0.047922116 0.009754567
000020 fd f7 65 3c 8c 79 23 3d 25 83 02 ba b0 a9 b1 3c
       0.014036176 0.039910838 -0.00049786485 0.021687359
000030 b3 97 cc 3c cb b9 1a bd ef b9 6b 3c e3 a4 44 3d
       0.02497468 -0.037774842 0.014387592 0.04800881
000040 12 50 11 3d 2c 19 0b bd 3d 3b 7b 3c eb c1 59 3c
       0.03547675 -0.033959553 0.015333948 0.013290863
000050 8c 30 c0 bb 93 08 68 3d 92 87 22 3c 87 2f 8f bc
       -0.0058651622 0.056648802 0.009920018 -0.017478717
000060 d5 3e e6 3c e1 6c 73 bc 86 1f ce bc 22 31 5d 3d
       0.028106133 -0.014857502 -0.025161516 0.054001935
000070 37 5b 1e 3c ff 98 1e bd 07 c3 4a 3d 64 11 6a bc
       0.009665302 -0.038720127 0.0495024 -0.014286373
000080 64 8f 5a bc 3b cb bf 3b 3c a5 8e 3c 4c 3c b3 3c
       -0.013339851 0.0058530844 0.017412774 0.021879338
000090 96 3e 56 3d 75 d1 5d 3d bc b6 c9 3c b2 ab 8b 3c
       0.05230578 0.054154832 0.024623267 0.017049644
0000a0 cf de 87 3c 9a c9 11 bd 40 7b 50 3d d4 b9 92 bc
       0.016585736 -0.035592653 0.05089879 -0.017910875
0000b0 4e d4 1e 3d 58 4b 39 bc 82 4f 35 bc b4 d4 6e 3d
       0.03877669 -0.011309467 -0.011066319 0.05830832
0000c0 8d 37 16 3d c8 04 1a 3d 81 c4 3b 3d 5f 16 2e 3d
       0.03667407 0.037602216 0.045841698 0.042501803
0000d0 b5 70 8c 3b 31 3c 44 bc 90 a2 d4 3c 71 08 ab 3c
       0.0042858967 -0.011977241 0.025956422 0.020878049
0000e0 1c 24 2c 3d 4a f4 24 3c cf 5b e9 bc c4 71 b0 bc
       0.042026624 0.010068009 -0.02848616 -0.021538623
0000f0 84 36 0b bd 54 26 e0 bc 3d 59 bc bb c7 bd 89 bc
       -0.033987537 -0.027362026 -0.0057479427 -0.016814126

deconv2.weight f4 [64, 64, 3, 3]
000000 b9 c0 da 3a 10 bf ab bc d5 9d 2f 3d 7e 0c fc 3b
       0.0016689516 -0.02096513 0.04287513 0.007691919
000010 78 da ca bb b1 96 85 3c d2 ec d5 3c 13 d2 88 bc
       -0.0061905943 0.016307207 0.026113901 -0.016701734
000020 86 b4 2a 3a 25 9e bf 3c 4b e6 a8 bc 0e e6 5a 3d
       0.00065118854 0.023390839 -0.020617625 0.053442053
000030 ad ac 63 bc cb 69 f3 3b 39 9d c8 3b 2f a0 13 3d
       -0.01389615 0.007428383 0.006122258 0.036041435
000040 45 0a 30 3d 59 a5 9d 3c 12 c1 99 bc ce e3 9f 3b
       0.042978544 0.019243883 -0.01876882 0.0048794514
000050 e9 43 68 bc 19 9a 19 bc e1 5f 3a 3d e9 ca 07 bd
       -0.014176347 -0.009375119 0.045501594 -0.033152495
000060 c4 9f 19 bc c1 db 2a 3d 23 0f 1b 3c 69 80 88 39
       -0.00937647 0.04171348 0.009464058 0.00026035614
000070 94 0f d0 3b 74 c3 b1 3c e0 1a 9f ba 2c 6b e2 bc
       0.0063495133 0.021699645 -0.0012138747 -0.027638994
000080 b9 0e 1d 3d ea e5 9c bc d9 cf 19 bd 6d f7 96 bc
       0.03834412 -0.0191526 -0.037551735 -0.018428529
000090 17 4d ad bb 34 b1 12 3b 4a 52 45 3d 35 70 31 3d
       -0.005288731 0.0022383453 0.04817418 0.0433199
0000a0 4e 02 92 3c 0c c1 23 3d 1f 15 3e 3d c2 7c af 3c
       0.017823365 0.039979026 0.04640686 0.021421794
0000b0 22 0f 47 3d 0e 9d 5b 3c ee e1 52 3c bf a6 e3 bc
       0.048598416 0.013404144 0.012871249 -0.027789472
0000c0 60 c0 ef 39 ad eb 00 3d ca 6d ba 3c 69 f9 0a bd
       0.00045728963 0.031474758 0.02275743 -0.033929262
0000d0 fb 8f 03 bd 1d 87 64 bc f0 2f 87 bc 36 de c2 bc
       -0.032119732 -0.013948229 -0.01650235 -0.023787599
0000e0 23 1b df bc 19 ea e9 3c a3 b5 09 3c ce 92 35 3c
       -0.02723462 0.02855401 0.008405122 0.011082364
0000f0 f1 75 44 bd 23 85 b6 bc d9 73 e4 bc 4c 9b f6 3b
       -0.04796404 -0.022280281 -0.027887272 0.007525837
000100 fc 93 df bc f6 90 9a bc dc fd 26 3d 2a ad 41 bc
       -0.027292244 -0.01886795 0.040769443 -0.011821071
000110 78 33 71 bc fa 79 f9 bc bb 7b 01 bd 02 9d ac 3c
       -0.014721744 -0.03045367 -0.03161214 0.02107096
000120 ca be 24 3c cc 53 3a bc c6 82 01 3d 92 96 df 3b
       0.010055253 -0.011372518 0.031618856 0.0068233693
000130 22 94 b9 3c d2 59 49 3d ea dd fc 3c bc 48 5b 3d
       0.022653643 0.049157925 0.030867536 0.05353616
000140 dc f5 43 39 fc a7 a0 bb c7 ec e9 3a 2d 43 2d 3d
       0.00018688239 -0.004902838 0.0017847054 0.042300392
000150 f4 3b 8a 3c 21 4c c1 bb fa bc a6 bc e0 61 57 3d
       0.016874291 -0.005898968 -0.020353783 0.052583575
000160 bc 06 32 3c ec 43 ff 3c 04 8f 48 3d a5 76 10 3d
       0.010865863 0.031160317 0.048964515 0.0352694
000170 43 65 25 3c 6b 6f d6 3c ec 32 3d bc ab ba 90 3b
       0.010094943 0.026176175 -0.011547785 0.004416784
000180 57 17 0e 3c 6a 9e 54 3d 3f e1 45 3d ca a2 a7 3c
       0.008672557 0.051908888 0.048310515 0.020463366
000190 aa 1b 1d bd cc 7d cd 3c 86 73 1c 3c 40 00 65 3c
       -0.03835646 0.025084399 0.009549027 0.01397711
0001a0 58 67 ed 3b 9e 29 84 bc 2f 85 b8 3c e2 7a ae 3c
       0.0072449856 -0.016133126 0.022524444 0.02129883
0001b0 7a 47 85 bc 20 85 3f bd 17 c9 b5 bc b2 63 33 bc
       -0.016269434 -0.046757817 -0.022190614 -0.010949062
0001c0 1a 84 1f bc cd 78 d2 bc a3 ff af 3c fb 1e 3a bc
       -0.009736085 -0.025692368 0.021484202 -0.011359925
0001d0 c6 f4 56 bc 2e 88 9a 3c fe 06 98 bb 09 d0 06 3d
       -0.013119882 0.018863764 -0.0046395054 0.03291324
0001e0 76 a5 67 bc 01 2b d3 bc 1c a8 06 bd f8 e0 be bc
       -0.01413857 -0.025777342 -0.032875165 -0.023300633
0001f0 b0 4f 04 3c 1d 80 39 3d 8b be 64 bc 25 a6 2e bd
       0.00807564 0.045288194 -0.013961445 -0.042638917
000200 75 f9 eb 3c f5 48 d0 3c 8e a0 c2 bc f4 25 ba bc
       0.028805474 0.025425414 -0.023758199 -0.022723176
000210 35 de f0 3c 88 de 95 bc b0 a5 bc bc d4 7d da bb
       0.029402832 -0.018294588 -0.023028225 -0.006667832
000220 79 6f a0 3c 69 09 7b 3b 22 01 59 3d d0 9c 9c bb
       0.019584404 0.003830517 0.052979596 -0.0047794357
000230 7b f5 b4 3b 52 e5 8b bc 4d ce bb bc c0 74 52 bc
       0.0055224276 -0.017077122 -0.02292552 -0.012845218
000240 16 c9 00 bc f3 fd 6c bc 0e 0b ea bc 52 a5 13 bd
       -0.007860443 -0.014464843 -0.028569724 -0.036046334
000250 6b 69 de 3a 60 fe 75 bc ba 78 a6 bb ea 25 33 bd
       0.0016968673 -0.015014261 -0.0050803097 -0.04373733
000260 ed 3a 85 bc f6 41 39 3b 0a df 4d 3d 1a 2c cc 3c
       -0.01626345 0.0028268076 0.050261535 0.024923373
000270 2f 13 33 3a 5b 8d d2 3a bb fd 9d bb e7 a3 33 3d
       0.00068311667 0.0016063856 -0.004821507 0.04385748
000280 1a 1b 97 3b bc 80 f9 3c 0e 0d 04 3d cb 28 0c 3d
       0.004611385 0.030456893 0.032239012 0.03421859
000290 72 43 5a 3b e5 f2 e3 bc 4f 47 1e bd 75 a4 dd 3c
       0.003330436 -0.027825782 -0.038642224 0.027055958
0002a0 ed 84 a4 3c e4 b9 09 3d cb 29 d6 bc 7b df a2 3c
       0.020082915 0.033624545 -0.026142975 0.019881954
0002b0 a1 e4 b5 bc e3 04 a5 bc b5 ec dd bc ba b9 29 bd
       -0.022203745 -0.020143932 -0.02709041 -0.04143689
0002c0 65 ed 20 bd 4a 22 2c bd d7 be 5e bc b9 3d f0 3c
       -0.039288897 -0.042024888 -0.013595304 0.029326307
0002d0 6b 4c 45 bd 22 57 b0 bc c2 3f a4 bb 78 2c a2 3c
       -0.04816858 -0.021525923 -0.0050124833 0.019796595
0002e0 f5 08 19 3c b3 4f 19 bd c2 bc d0 3c 30 9c 70 3c
       0.009340514 -0.037429523 0.025480632 0.0146856755
0002f0 49 45 d1 bc e4 bd a8 bc db a7 8a 3c 02 44 6a bc
       -0.025545733 -0.02059836 0.016925743 -0.014298441
000300 7d 12 e2 3c b7 47 29 bd 74 51 ad bc b0 32 7c 3c
       0.027596707 -0.04132816 -0.021157004 0.015392944
000310 10 92 03 3c b5 1f d4 bb 80 92 32 bb fa 1b f1 3a
       0.0080304295 -0.0064735063 -0.0027247965 0.0018395178
000320 f1 33 bb 3c fb ad 1e bd 63 46 47 bb 35 8b ea 3b
       0.022851916 -0.03874014 -0.0030406944 0.007157708
000330 a3 21 a9 ba 4b 0a 5d bc 9d b6 51 bc 23 2e 12 3d
       -0.0012903701 -0.013491224 -0.012799886 0.03568853
000340 d3 f2 f8 3c ce 4b 01 bd 82 50 97 bb 5c 05 34 bd
       0.030389225 -0.031566434 -0.0046177516 -0.043950424
000350 02 03 22 ba 9b 7b ea bc bd f7 d1 3b cc 91 3f 3c
       -0.0006180258 -0.028623393 0.0064077065 0.0116924755
000360 58 a2 9c 3b 18 2f 3f bb 0c b1 06 3c 12 b4 fd bc
       0.004780095 -0.0029172357 0.008220922 -0.030969653
000370 4a 5d ef bb 9e 25 e0 3c 60 13 0b 3d 8c 18 f3 3c
       -0.007304822 0.027361687 0.033954024 0.02967479
000380 a5 78 1c 3c a6 fc d5 3c 03 8e 54 3c a0 97 fb 3c
       0.009550248 0.026121449 0.012973311 0.030711949
000390 cc 46 0c bb 6d 32 28 3c 2e 1b 40 bc b6 7d 2b 3d
       -0.0021404503 0.010265929 -0.01172523 0.041867934
0003a0 7b 76 3c 3c 18 bf bd ba 86 31 31 3d 39 56 25 3d
       0.011502857 -0.0014476506 0.04326012 0.04036543
0003b0 99 07 c2 3c 7a 68 f2 3b 45 ed 4f 3d 69 4b 33 3d
       0.023685263 0.0073977085 0.050763387 0.04377309
0003c0 a9 37 47 3d c0 69 14 3d ca b7 a6 ba b5 c0 b7 3c
       0.048637066 0.036233664 -0.0012719568 0.022430757
0003d0 2c b0 05 bd 03 dc 02 bb 3a 62 88 bc 44 6d 47 bd
       -0.032638714 -0.0019967563 -0.0166484 -0.04868819
0003e0 18 48 36 bd 93 a3 7b bc 48 25 8f bc 9d 9e 39 bd
       -0.044502348 -0.015358823 -0.017473832 -0.04531728
0003f0 8d 45 39 3d b7 3a b7 bb c3 f2 52 3d b1 43 39 3d
       0.045232344 -0.005591716 0.051501047 0.04523057

deconv2.bias f4 [64]
000000 f6 84 84 bc e1 91 a1 bd d7 82 58 bc 83 9d 3f bd
       -0.016176682 -0.07889152 -0.013214788 -0.046781074
000010 5e ad 86 3b 67 68 36 bd 7d 09 60 3d b6 37 5f bd
       0.0041100224 -0.04453316 0.05469655 -0.05449649
000020 02 81 67 bd e3 a4 34 bd d4 71 55 bd 5d 80 88 39
       -0.056519516 -0.04410256 -0.052110508 0.0002603558
000030 82 a4 b9 3c cd 93 51 bd ab 72 f4 39 57 f5 84 bd
       0.022661451 -0.051166344 0.0004662474 -0.06492107
000040 2f 0d bc 3b 49 22 ad bd 92 06 6f 3c 83 0f be 3b
       0.0057388763 -0.08453805 0.014588969 0.005800189
000050 6e ef 9a 3d e2 c4 61 bd 70 96 d1 3d 2f fe 9b bc
       0.07565199 -0.055119403 0.10233772 -0.019042103
000060 b9 25 6e bc 90 29 dd bd 47 20 e5 3c 3c 97 c7 3d
       -0.014535361 -0.10798943 0.027969493 0.097456425
000070 b9 2a 84 bd b9 c3 01 bc 28 9d 1f bd e2 87 f2 3c
       -0.06453461 -0.007920199 -0.038968235 0.02960581
000080 8f c7 93 bc cf 8b ce bc a2 eb c2 bd 90 34 47 3d
       -0.018039493 -0.02521315 -0.095176 0.048634112
000090 ac a9 23 bd bd bb 13 bd 76 45 bc bd 22 1e b2 bd
       -0.039956734 -0.036067713 -0.09192936 -0.08697154
0000a0 ce 7d 27 bd 81 7b 90 3d ab 72 83 bd e5 d5 9a 3d
       -0.04089146 0.070548065 -0.064183556 0.075603284
0000b0 cb fc c4 3c 57 5d 35 bd 1a 4b 25 bd 0e 20 80 bd
       0.024046322 -0.04427847 -0.040354826 -0.06256114
0000c0 7b 61 48 bd f7 1b 81 bd 96 bf af bb fb 22 88 3d
       -0.04892109 -0.06304162 -0.005363415 0.06647297
0000d0 e4 73 85 3d 1c 09 96 bd 62 9e 5a 3b 8c 94 1f 3d
       0.06516245 -0.07325956 0.0033358564 0.038960025
0000e0 dc ec bd 3d 34 ec 0a bc 9c 75 84 3d a0 36 87 3d
       0.09273693 -0.008479167 0.06467745 0.06602216
0000f0 93 dc 30 3d 02 5f 38 3d 9c 2a 15 3d 95 2e e7 3c
       0.043179106 0.04501248 0.03641759 0.028220454
