contrastive_save/contrastive_weights_epoch_47.pt (torch, 749116 bytes, 8 tensors)

conv1.weight f4 [64, 3, 3, 3]
00000000: a20d 993d 0f68 d4bd d9a3 0f3d 0708 8b3d
00000010: d174 a53d bb4e e9bd 45cd 0e3e 741a e5bd
00000020: 19d4 35be fe75 b03d 9666 0ebe 3078 be3d
00000030: 2951 1cbe 2783 3ebd 0824 4f3e 89b0 7b3d
00000040: bdd3 fc3d dea2 423e 3ae4 41be 79d2 50bc
00000050: 4cbd 2ebe f951 c3bc c07b 66be 1570 4fbc
00000060: d20e 87bd 4b4c 07be f2e0 e1bd 60e2 0abe
00000070: 7407 c1bb df91 0dbe d5f6 d63c 689d d93c
00000080: 85ac 993c 3588 24be 7b00 213e e497 fc3d
00000090: dfc8 65be 98e7 f33d 0129 a53d e476 76bd
000000a0: 6b61 30bc d677 3bbe 7756 60be a055 6abe
000000b0: 7f98 56be a168 ea3d 9bf2 f0bd c351 953b
000000c0: 99db 343e 5cf2 083e ed3a 1b3e 405e 17be
000000d0: 0b9e 143d 5ed2 2e3e c56d 31be 86a5 773a
000000e0: ae02 b0bd 908c 99bd ff40 ae3b 6bf0 97bd
000000f0: cc7f cebd d467 aa3d e074 63bd 9000 9b3b
00000100: c5b8 e23d f1e4 613d 4803 2bbe 59f8 3a3e
00000110: ebed 2d3e ecca 373e f63d 9c3c 5e4b bb3b
00000120: 0996 c3bd 5289 1abe 6fea 23bd 921d f13d
00000130: 5f45 f53d b091 b8bc 7d80 d03d e347 a53c
00000140: 0612 96bb 74fd 4dbe e08c 20bd 26c6 363e
00000150: 6ee6 9ebc 8454 c23b a7f3 cf3d 99a4 35be
00000160: ce65 2c3e 9f48 5dbc 8cee 07be 730b 8139
00000170: aa42 eb3d ea6a cabc d506 02be 581e ae3d
00000180: 1902 febc a15e ae3d b8d8 14be 25ff b13d
00000190: e52c 833d 6616 01be 9e92 9cbd 85cc 553c
000001a0: e0ab 1f3e cb8b 31be 85d8 2f3e 0d5e bdbd
000001b0: d314 983b 4902 f53a bc2f 153d f8e4 cb3d
000001c0: 0732 a2bd 8902 27be 000d c3bd eb7e 2e3d
000001d0: 2f2f 56bd 4163 fb3c a7b0 bfbd ac51 9bbd
000001e0: 76ed 683e c7a8 043e 63a2 423e d571 0bbe
000001f0: f806 21bd b69a a6bd e70f afbd abb2 3fbd
00000200: 44e0 2fbd 0475 29be 8769 0dbd 4174 ab3d
00000210: 3aca 073e bb5d 673d 6565 d3bc ed32 f9bc
00000220: 024c 213e e3d0 23be f337 b03d ca05 e2bd
00000230: 7fc5 58be 320a 1a3e 363d 7e3d 8c24 873d
00000240: 6117 43be e978 c83d e227 f33d 5ac9 2d3e
00000250: 387b e63d 1a29 61be bf8e adbd 6bdc 34be
00000260: ea47 243c 70a9 b63c 5db5 e4bc b044 d03d
00000270: 1597 3bbe 0605 863d d209 efbc a791 343e
00000280: a9f5 013e 71b5 f2bd 16ba 94bd 81d1 e43d
00000290: e14a 4ebd 06b8 1d3c c2b4 3d3e a974 bebd
000002a0: 06bc 973c 4440 753d f24e 00be e1aa 183d
000002b0: 8527 1ebd 3f33 a73b 07c4 2e3d 6ee6 f33c
000002c0: 7d11 28be 8600 21be 5f8d 6c3b fa56 16be
000002d0: 1ec7 6c3c cb37 d2bd 07b4 4fbe b141 16bd
000002e0: 1129 d8bd 6020 6cbe fec1 193d 79ff 0ebc
000002f0: e91f 9e3d faac 50be d86d 57be dca0 6cbe
00000300: b878 10be 75db 66be f1c6 52bc 9558 dfbc
00000310: 7cfe 89be acb5 d5bd 4f7d 6fbd b054 9dbc
00000320: 8a00 c93d 4439 4d3e 872a 91bd 6d09 26be
00000330: e69e aa3c beb7 ca3d 80d8 4fbd 4e38 b6bd
00000340: a28c c53d 39af 733d 73f9 4a3e 618b d93c
00000350: 6b5a 8f3d 7cb9 093d cc7a afbd 3a9c 57bd
00000360: df95 11be 8727 283e 0524 bebd a864 aabd
00000370: 4510 26be ffd8 3b3e 4b20 03be 820b 4fbe
00000380: 66dd ae3d 6fc8 313d 16d4 123e 205b f03d
00000390: f5e2 c83d 30df 0ebe 0198 1a3e b7db b43d
000003a0: c13a c93d 3af6 21be c9f1 223e 5b31 d93d
000003b0: fd49 5c3d 8fb1 ecbd 4699 ae3c 30f2 203d
000003c0: 8664 723d b09a f3bd 073a 4fbe 44a1 b7bd
000003d0: dc41 3cbe 2ac1 acbc 56fa 47be 8029 b13d
000003e0: c4e0 09be 84f2 45be f4b6 dcbd 7242 1cbe
000003f0: 73e6 90bd a54d 61be afbf 91bd 3589 96bc
0.074733034 -0.1037141 0.035068367 0.067886405 0.080789216 -0.1139197 0.13945492 -0.11186686
-0.1775669 0.08616255 -0.13906321 0.09300268 -0.15265335 -0.046511795 0.20228589 0.061447654
0.12345073 0.19007441 -0.18934718 -0.012745493 -0.17064399 -0.023842799 -0.22508144 -0.012661
-0.065946236 -0.13212697 -0.11029233 -0.13562918 -0.005890781 -0.13825177 0.026240746 0.026564315
0.018759022 -0.16067584 0.1572284 0.12333658 -0.22439907 0.119094074 0.080644615 -0.060171977
-0.010765414 -0.18307433 -0.21907984 -0.22884226 -0.2095661 0.11445738 -0.11765023 0.004556866
0.17661895 0.13373703 0.15159197 -0.14782047 0.036283534 0.17072436 -0.1732703 0.0009446967
-0.08594261 -0.07497513 0.0053178067 -0.07418903 -0.10082969 0.08320585 -0.055531383 0.0047302917
0.11070398 0.055149976 -0.1670047 0.182588 0.1698529 0.17948502 0.019072514 0.0057157716
-0.09550101 -0.15091446 -0.040018495 0.11773218 0.11976122 -0.022530407 0.10180757 0.02017588
-0.0045797853 -0.20116216 -0.03919685 0.17849025 -0.019396987 0.005930485 0.10153895 -0.1773857
0.1683571 -0.013506084 -0.13274592 0.00024613328 0.114873245 -0.024709184 -0.12697919 0.08501881
-0.03100686 0.08514143 -0.14535797 0.08691243 0.06405047 -0.126062 -0.076451525 0.01304925
0.15592909 -0.17338483 0.1717244 -0.092464544 0.0046411543 0.0018692698 0.036422476 0.09955782
-0.07919698 -0.16309561 -0.09523964 0.042601507 -0.05229109 0.030686976 -0.09359866 -0.07583937
0.22746834 0.12955008 0.19007258 -0.13617642 -0.039313287 -0.081349775 -0.08547955 -0.04680125
-0.042938486 -0.16548544 -0.034524467 0.08371783 0.13260737 0.056485873 -0.025805185 -0.030419791
0.15751651 -0.15997653 0.086044215 -0.110362604 -0.21169089 0.15042952 0.062070094 0.06598768
-0.19051887 0.09788687 0.118728414 0.16971341 0.11253971 -0.21988335 -0.08474492 -0.17662208
0.010026911 0.022297591 -0.027918512 0.10169351 -0.18319352 0.06543927 -0.029179487 0.17633687
0.12691368 -0.118510135 -0.072620556 0.11172772 -0.05036438 0.009626394 0.18525985 -0.09299595
0.018522274 0.05987574 -0.12530115 0.037272338 -0.038611908 0.0051025446 0.042667415 0.029772963
-0.16412921 -0.15722856 0.0036095006 -0.14681616 0.01445177 -0.10264548 -0.20283519 -0.036683742
-0.10554708 -0.23059225 0.03753852 -0.008727902 0.0772093 -0.20378485 -0.21037996 -0.23108238
-0.1410855 -0.22544654 -0.012864814 -0.027263919 -0.2695197 -0.10435042 -0.058469113 -0.019205421
0.09814556 0.20041376 -0.070881896 -0.16214533 0.020827722 0.09898327 -0.05074358 -0.08897458
0.09645964 0.059493277 0.1982172 0.026555719 0.06999668 0.033624157 -0.085683435 -0.052639224
-0.14217328 0.16421328 -0.09284214 -0.0831998 -0.16217144 0.18344496 -0.12805288 -0.20219234
0.08538322 0.04340404 0.14338717 0.11736131 0.098089136 -0.13952327 0.15097047 0.0883097
0.098256595 -0.15816584 0.15912546 0.10605117 0.0537815 -0.11557304 0.02131332 0.039293468
0.059177898 -0.11894739 -0.2023698 -0.08966306 -0.18384498 -0.021088202 -0.1952909 0.086504936
-0.13464648 -0.19330794 -0.10777083 -0.15259722 -0.07075205 -0.22002275 -0.07116639 -0.018375972

conv1.bias f4 [64]
00000000: 4cd4 623d 0e51 46bc 3869 91bd ca5d 793d
00000010: 63d1 f3ba 45d8 2abd ac3c debd 93d4 9e3c
00000020: 53a7 57bd 68d8 453d 4b20 debd 3c42 a1bd
00000030: 6d47 b23c a80a cf3d eb70 3b3d 3d26 9b3d
00000040: b1b3 eabc 5dba 5f3a e433 bebd 0056 7dba
00000050: 464e 333d 27b1 a1bd b701 bc3d 4bb3 c8bd
00000060: f7c2 42bd a721 c73d 35da 2cbe a41b c7bb
00000070: 64b9 263b f96c 053e 9c95 ebb7 846c 04be
00000080: ebe2 f9bd ac1d e4bd fca6 54be eb19 e7bd
00000090: 4384 24bc cb3c ad3d cadc a2bd e6d3 323e
000000a0: 59c7 0e3a 184b ad3a 5cbe dabd 944a 993d
000000b0: 1d91 27be 05a5 00be c243 01be 5cb5 8ebd
000000c0: fc0b 553c 9f88 f33c b2f8 04bd d329 5a3d
000000d0: f0c4 ea3d ec2c 8d3b f301 2e3d 1f53 9ebd
000000e0: 0de3 27bc 5660 e3b9 6579 fd3c 63ac 48bd
000000f0: 92fa 5d3d e576 573d bd02 743a 236b 353c
0.055378243 -0.012104286 -0.07100147 0.06088046 -0.0018601831 -0.041710157 -0.10851416 0.019388473
-0.052649807 0.048302084 -0.10846003 -0.07873961 0.021762574 0.101094544 0.045761984 0.07575653
-0.028650137 0.0008534545 -0.09287241 -0.0009663999 0.04377582 -0.07895117 0.091800146 -0.097998224
-0.047549214 0.097232156 -0.16880114 -0.006076293 0.0025440091 0.13029851 -2.808385e-05 -0.1293202
-0.12201484 -0.11138472 -0.20766824 -0.1128424 -0.010041299 0.08458861 -0.079522684 0.17463645
0.0005446575 0.0013221232 -0.106808394 0.07484928 -0.1636395 -0.1256295 -0.12623504 -0.06968185
0.013003346 0.029728232 -0.032463737 0.053262543 0.11463344 0.0043083336 0.042482328 -0.07730698
-0.010247004 -0.0004336859 0.030941674 -0.048992526 0.05419404 0.05260362 0.00093082694 0.011072907

conv2.weight f4 [128, 64, 3, 3]
00000000: 07b5 27bc 41c8 ab3c 1631 a73c daf7 4bbd
00000010: 830c d53c 3f9c c3bc c48b 17bc f905 21bd
00000020: e964 0bbb f554 0c3c f32f 08bd 6ea7 e6bc
00000030: 7992 5fbd ea93 28bd 5ecd 4fbd 4382 c4ba
00000040: ad92 56bd 8711 d63c 6959 9abc ae3f 5fbc
00000050: 633f 143a 76dc 213c 84d2 333d ffc8 de3c
00000060: 9b93 b0bb 46f9 3e3d aa26 9eba 6570 9ebc
00000070: 17bf f43b e8cc 5c3c a9f1 093d a0db debc
00000080: 4f74 963b e0c0 b73c 2839 0e3d 4433 95bc
00000090: d190 7e3d 77cd f63c 0649 713d 5133 d33d
000000a0: 34d4 5a3d 4c9c e43d 9246 983d c30e 1b3d
000000b0: ddfb dd3d 3630 f83c b5be 093d d08f 85bb
000000c0: c239 573c 655d 3ebb f535 d43c 08c7 3abd
000000d0: cd41 44bd 8634 133c c34f 2d3d ccf3 9fbd
000000e0: 79fc bdbd cf75 1dbd e58f 5bbc acae a7bd
000000f0: ae79 1bbd 26e8 933b 710d 97bd f83a 353c
00000100: a547 3139 a18b 823c 1436 56bc d4d8 41bd
00000110: 1108 3abd a68c d83b a941 58bd 7f53 37bd
00000120: 7cfe f2bc b323 9abc 0fdf 4ebb 13d4 213d
00000130: bb62 143d 5b23 ea3b e1f1 88bc 7342 dfbc
00000140: 1d73 2d3c 136c 20bc e7c4 65bc 627a a43c
00000150: ff7e 06bd e0c0 edbc 84ed 0bbd 5227 1ebd
00000160: 280a 113d a2e0 f5bc 227b 333c 30ef 08bd
00000170: 6e94 8fbc d1ae a6bc 2913 8d3b ea9e 87bd
00000180: 3944 253b 9f32 48bc 8507 4cbd 4a44 0abd
00000190: 4a64 20bc 36a3 01bc 4378 d1bc e99f 01bd
000001a0: 6a53 01bb d970 10bd 7ea7 723c 60bb a73a
000001b0: 07d6 163d 9451 c43c b9a9 773d 4e3d 28ba
000001c0: 0307 1f3d fcf8 693d 0345 2c3d b200 a13c
000001d0: 9933 fbbb 8ac8 353c 327b 083d 0c1d f63c
000001e0: eba1 dc3c ba92 7ab9 8f8d 5d3c 7c38 23bc
000001f0: 3a18 54bd aacb 54bd 0748 1b3c bd3f 8839
00000200: cef1 883c bde7 2a3d 19f7 dd3c 0728 e73b
00000210: 64bc 7f3d 0080 053d 820a df3c 23dc 283d
00000220: 03c5 0d3d 70e4 fcbb 39ae ebba 9024 923c
00000230: 98b0 7b3c 6111 2ebc 0d12 1b3d 924a 6a3b
00000240: 0437 aa3b 8cf8 123d 8c95 553d 7bf9 9a3c
00000250: 8831 5b3d ef6c 253d 411d 843d 0be5 c9bc
00000260: 8848 aabc 2670 193d c6d2 c43c 364f 833d
00000270: e2a2 29bb 4230 eabc 548f c83c c27d ee3c
00000280: 34af 1a3c 37e6 49bd e1fb a43c f2c9 263d
00000290: 2fbb 00bd c658 bebc 2134 2fbd 0ff9 983b
000002a0: 1fe4 453d f95f fabc d209 1dbd 7f12 a73d
000002b0: 4c1e c23d a6b4 ee3d ad5e fb3c bdac 893d
000002c0: 68c1 bb3d f0af 653d 6ffc db3d 2fac b83d
000002d0: 9f33 233d 316a f33c 5d8f 4b3c bb5e 1bbc
000002e0: 7d71 9c3c 49f0 713a a414 3f3d 4579 403d
000002f0: ae1d 913d 1847 d4bd b47b a3bd 5e9d 7abd
00000300: bef8 48bd 7f68 d3bc f6fb 963c 4199 eabc
00000310: 3ece e1bc b946 283d 7fc0 493d 8ffb 093d
00000320: fdc7 86bc f5f0 383d 56e8 8e3b 415a 2e3d
00000330: b85d 353d 04d5 4b3c 3280 193d a646 92bd
00000340: 3956 7dbd a9de 963b 0655 45bd 1674 4dbd
00000350: c984 2dbc 946d 28bc be95 083c fde7 b73c
00000360: 6bbc 1abc a726 583d 8152 483d ef1d e63c
00000370: 700e b1bc e3fe b63c 6a1f 643c 7816 b6bc
00000380: 6266 a73c 24d3 4d3c 2be8 3f3d 1f20 5bbc
00000390: 37ab 733b 3f0b 463c b897 cabc c8d4 54ba
000003a0: 637b cb3c 3fc9 9cbb 3e3b 6fbc abbe f9bc
000003b0: 67d1 5dbd 8465 4f3b b992 bd3c f761 d8bc
000003c0: 5987 c13c 84d3 553c 7b6a 20bd e683 b7bc
000003d0: 7bad d6bc 9728 72bd d143 4dbd 10bb 24bd
000003e0: f518 7cbd 2aa9 c4bc 28af 8abd d770 54bd
000003f0: 6cb0 1abe 19a6 1bbe 74d3 d5bd efc6 f9bd
-0.010236031 0.020969512 0.020409148 -0.049796917 0.026006943 -0.023878215 -0.009249631 -0.039312337
-0.0021269864 0.008565177 -0.033248853 -0.028156009 -0.054583047 -0.041156687 -0.050732963 -0.0014992434
-0.052385975 0.026131405 -0.018841462 -0.013626022 0.00056551973 0.009879222 0.043901935 0.027195452
-0.0053886897 0.046624444 -0.0012065966 -0.019340703 0.0074690687 0.013476588 0.03367773 -0.027204335
0.004591502 0.022430837 0.034722477 -0.018212922 0.062149826 0.03012727 0.05890753 0.10312522
0.05342503 0.11162624 0.07435335 0.037855875 0.10839055 0.030296426 0.033629138 -0.0040759817
0.013136329 -0.0029047367 0.025904635 -0.045599967 -0.047914315 0.0089846905 0.042312395 -0.078101724
-0.09276671 -0.03844243 -0.013401006 -0.08187613 -0.03795784 0.0045137582 -0.073756106 0.0110614225
0.00016906725 0.01593572 -0.013074417 -0.047325924 -0.04541785 0.0066085635 -0.052796993 -0.044757362
-0.029662363 -0.01881585 -0.0031566059 0.03950889 0.03622697 0.007145328 -0.0167169 -0.027253365
0.010586527 -0.009791392 -0.014023996 0.020077888 -0.032835957 -0.029022634 -0.03416206 -0.038611718
0.035410076 -0.03001434 0.01095465 -0.033431232 -0.017526831 -0.02034703 0.0043052626 -0.06622107
0.0025217666 -0.0122191 -0.04981186 -0.03375653 -0.009789536 -0.007912448 -0.02557004 -0.031646643
-0.0019733557 -0.03526387 0.014810441 0.0012796931 0.036825206 0.02396468 0.060464595 -0.00064178265
0.038825046 0.057122216 0.042058002 0.019653652 -0.007666063 0.0110951755 0.033320613 0.030043148
0.026932677 -0.00023896518 0.01352252 -0.009962197 -0.051780917 -0.05195204 0.009477622 0.0002598743
0.016716864 0.04172491 0.027095364 0.007054332 0.062435523 0.032592773 0.02722669 0.041225564
0.034611713 -0.0077176616 -0.0017981 0.0178397 0.015361927 -0.010624261 0.03785901 0.0035750014
0.0051945467 0.035881564 0.052144572 0.01891779 0.053514034 0.04038709 0.06450892 -0.024645349
-0.020786539 0.03746047 0.024026286 0.06411593 -0.002588444 -0.028587464 0.024482407 0.0291127
0.009441186 -0.049291816 0.020139636 0.040719934 -0.031428512 -0.02323569 -0.042774323 0.004668362
0.048313256 -0.030563341 -0.038339444 0.08157825 0.09478435 0.1165555 0.030684793 0.067224
0.09167749 0.05607599 0.10741507 0.090172164 0.03984415 0.029713722 0.012424317 -0.009483035
0.019097084 0.00092292257 0.046650544 0.04699065 0.07085739 -0.103651226 -0.07982579 -0.061185233
-0.049065344 -0.025806664 0.018430691 -0.02863753 -0.027564164 0.04108307 0.049255844 0.03368717
-0.016452784 0.04515167 0.0043611927 0.04256654 0.04427883 0.012440924 0.037475772 -0.07142381
-0.061849806 0.00460418 -0.048176788 -0.050159536 -0.0105907405 -0.010280032 0.008336483 0.022449488
-0.009444336 0.052771237 0.048906807 0.028090445 -0.02161333 0.022338336 0.013923505 -0.02222751
0.020434562 0.012562547 0.046852272 -0.0133743575 0.003718091 0.012087642 -0.024730548 -0.0008118865
0.024839109 -0.0047847326 -0.014601527 -0.030486425 -0.05415478 0.0031646201 0.023141252 -0.0264139
0.02362411 0.013050918 -0.039164048 -0.022401761 -0.026205769 -0.05912074 -0.050113503 -0.04021746
-0.06154724 -0.024006445 -0.0677169 -0.051865425 -0.15106362 -0.1520008 -0.10440722 -0.12196147

conv2.bias f4 [128]
00000000: 54eb cabc c0fd b7bc fc85 a83b eae3 1938
00000010: e9e9 97bc 61b2 a1bc 3cb8 743d e521 a93b
00000020: 13a4 583b e437 483b 376e 2e3d 40f3 bc3c
00000030: 395f f6bb 3317 96ba 0cbe 403c 2853 6c3d
00000040: ad17 0a3c 7c2b 033d 3d5c a5bc c13e 493d
00000050: a044 283d 0785 59bd 8f95 c3b9 0663 c5bc
00000060: b3b6 d43a f082 10bd 998a cb3b 2d45 1cbd
00000070: 77c4 36bd 13dc 89bc 842a ca3c 95db 1bbc
00000080: 5e76 473d 4dca 5e3c e38b b6bb 3d0e e13c
00000090: 2799 95bc 178c 18bd 1eb8 d3bc 5691 05bb
000000a0: 7215 a43c d952 583c 1116 003c 68fa 4ebc
000000b0: 8fb7 103c 8274 1dbd 46f7 d63c 74d1 333c
000000c0: c42e 3abd 7cfc 20bc e161 27bd 097d 51bb
000000d0: 0d40 31bd 74bd 4a3d ceff 79bc 65b7 2fbd
000000e0: a7bc 043d 70eb 3abc b5fc efbb e80f 56bc
000000f0: 5d8c 60bd 7062 fbbc dc68 013d 994d 9ebc
00000100: 183b 493d 392c 903d 08e6 213d 0d06 19bd
00000110: 273a 803c aab4 8c3c 2dce 0b3c d0fc 193c
00000120: 87c4 11bd 8bfc 053d 6b59 6fbb afa3 9abc
00000130: 9be9 a83b d4fa fe3c af0f 813c a65c 2c3d
00000140: 85f8 893b 144c e53c f95d 0f3d 50de 3bbd
00000150: 6397 a8bb 6501 a63a 42c7 3e3d c35c a63b
00000160: 738b 3f3c 2ee4 573d fbaf d13c 41d0 393d
00000170: 5d50 f73c d683 debb 3f03 6a3d a0b2 283c
00000180: 74f8 0abc bfae a7bc d8b0 26bc c2db ee3c
00000190: 1039 d8bc 09dd e9bb 83d1 3a3d b2a5 64bc
000001a0: cb21 02bd 39dd 353d 7d54 74bc 3fee 2c3d
000001b0: a0e3 ca3c 4e6f fbbc 4cd5 03bd 9677 6fbd
000001c0: 1091 ca3c 6291 16bd 1a27 8c3c b4e9 f0bc
000001d0: abbd 833d ad03 d63c bcf9 7abb 57cb b43c
000001e0: 2cb5 e9bc 5df4 dfbc 1c69 b43c 486b 09bd
000001f0: 0cfa 8e3d 634c 373c 7753 a0bc 54e4 d53c
-0.024770416 -0.022459865 0.0051429253 3.6690304e-05 -0.018544154 -0.019738378 0.059746012 0.0051615112
0.003305678 0.0030550892 0.042585578 0.02306521 -0.0075186756 -0.0011451006 0.011764061 0.05769649
0.008428496 0.03202389 -0.020185584 0.049132112 0.04108107 -0.05310538 -0.00037304728 -0.02409507
0.0016228765 -0.03528112 0.0062115905 -0.03815191 -0.044620957 -0.016828572 0.024678476 -0.009512802
0.048696868 0.013598037 -0.005570875 0.02747261 -0.018261505 -0.037242975 -0.02584463 -0.0020380816
0.020029757 0.013203346 0.007817761 -0.012632944 0.008832826 -0.03844119 0.026240956 0.0109752305
-0.045454755 -0.009825822 -0.04086483 -0.0031965396 -0.043273974 0.049497083 -0.0152587425 -0.042899508
0.032406475 -0.011408672 -0.007323826 -0.013065316 -0.05482136 -0.030686587 0.031594142 -0.01932411
0.04912862 0.07039685 0.039526016 -0.037359286 0.01565273 0.017175991 0.008533043 0.009398654
-0.035587814 0.032711547 -0.0036521803 -0.018876879 0.005154801 0.031125464 0.015754549 0.042080544
0.004210534 0.027990378 0.03500173 -0.04586631 -0.005145 0.001266521 0.046576746 0.005076976
0.011690962 0.052707843 0.02559661 0.045364622 0.030189687 -0.0067906184 0.057132002 0.010296494
-0.008482087 -0.020469068 -0.010173999 0.029157523 -0.026394397 -0.007136945 0.045609962 -0.0139555205
-0.03177051 0.044400427 -0.014912722 0.042219397 0.024766743 -0.030692723 -0.032185838 -0.058463655
0.024727374 -0.03675974 0.017108489 -0.029408313 0.06432661 0.0261248 -0.0038295826 0.022069616
-0.028528772 -0.027338201 0.022022776 -0.033549577 0.069812864 0.011187646 -0.01957105 0.026109852

deconv1.weight f4 [128, 64, 3, 3]
00000000: f2e2 bdb9 7334 47bc 27c7 193c 7d3b 44bc
00000010: b2db 9e3c 88f8 c23c 6427 423d 0e9e c93c
00000020: ec6b 66bb 4642 e53c ed26 0f3d c2ac 053c
00000030: a688 313d 77a7 95bc 7d5e 6ebb af73 b13c
00000040: 3d81 b63c 53b9 0a3d 73d0 a0bd 90dc 20bd
00000050: 4bad 20bd 9dda e7bc 8dae 91bc 93f6 b3bc
00000060: d25b 28bd 601b 97bd 6e42 56bd e7ad 4e3d
00000070: 0cb2 c6bb bcbb 4a3d 4a22 08bd 02ac e03b
00000080: 635b d8bc dff4 e6bc 823e 39bd 77d0 16bd
00000090: f9b1 bf3b 51bb bcbc beda 7c3c 8096 5f3d
000000a0: ceaa 383d d480 9fbc 50fa 553a 5a56 4e3c
000000b0: fb71 a9ba bbfd 073c 2cf7 223c 9954 e13c
000000c0: fe5d 383d 06cc 0a3c 92b8 25bd 4cbf b1bc
000000d0: 4d3c adbb d59f 87bc c103 11bd 15c8 a13c
000000e0: bcec 4bbd 5012 02bd 4f80 d7bc e29f 5ebd
000000f0: 4067 323c 646b 2fbb a2b1 6b3c f8f9 db3b
00000100: 148d 15bc 9d34 8a3b 85e7 eb3c b593 103c
00000110: a2de 3b3d 1938 763d ab2c 97bc f771 a7bc
00000120: e21d 1fbc 1078 1cbb fe50 adbc 3ad5 833c
00000130: facc dbbc 7df7 683c 5bad d73c 25fd d93c
00000140: ab40 28bd bdde b83c 601b 9abc 1f9e c7bc
00000150: cdf3 c8ba d155 ec3c e021 1d3d d5c6 80bc
00000160: 846f ed3c 0b79 193d add5 2c3b 5d74 2f3c
00000170: c356 37bd 8b78 403c f607 073d bf8c 03bd
00000180: 4dab 233d b322 df3c 0ac7 09bd 2467 edbb
00000190: 6298 443c 0b5a 2d3d 0f16 9d3c 1caa 733c
000001a0: 3a79 7abc 6efa cf3b 9530 ba3c 3b97 a7bc
000001b0: 817d d73c b682 c93b 4b5b 133d 21a4 bbbc
000001c0: 3025 06bd 91c1 eabc f87e d5bc be77 463c
000001d0: e6c6 443c c84d ccbb 3eba 0c3d d54c 2cbd
000001e0: 7eb3 3fbd e3ae 163d 7645 d4bc 8bf4 40bd
000001f0: 9df6 3c3d ad2e a4bd ab46 6abd 81f7 afbd
00000200: 755c bc3a bcae 3dbd 8e8c 72bd 4d77 4ebd
00000210: 73db 44bd 2344 d1bc ce29 cfbc 7e8a 7ebd
00000220: 65b8 0dbd d930 97bc c235 21bd 86b8 26bd
00000230: 557f 7c3b 40ab 18bc 9e03 6ebc 8b81 823b
00000240: a53f bbba 8d83 ac3a 6e15 913a 2dab 443d
00000250: 8483 c3bc c298 1a3c dbe1 3e3d c3cd ef3c
00000260: de6e b8bb 9f96 7abd e3ed 2d3b 8813 c5bc
00000270: ae0e 05bd dcb0 28bd 2192 08bd 67f8 71bd
00000280: 6ef2 0b3c 9969 86bc 83c0 52bd 8dc0 9dbd
00000290: ed48 f0bc b55d 813a 4c43 7fbc 76d7 253c
000002a0: d4f9 533d b3d7 813d 43eb 753d 2f33 803d
000002b0: d8da 773d 613f 813d f28f f93b 727f 583d
000002c0: 68a4 a33a 81c5 9a3a 83c9 dbbc 130a 1e3d
000002d0: 212e 99b9 a151 243b 1650 64bb d415 78bd
000002e0: 6ea8 5bbd 97a0 c7bc bf4c 40bd 4315 08bd
000002f0: db7b 7bbb 8559 513c 4738 0d3c 4b96 36bb
00000300: 05a9 023c 264b 46bc 59ca 47bc c123 4c3b
00000310: cd8c b4bc 6169 e0bc 705a d13b e78a d73c
00000320: 1073 9e3c 3bcc eebc ac91 6f3c 4db3 163c
00000330: 9930 5fbc 97ef 8bbc ff40 c4bc 0b5a f63a
00000340: 88d1 0c3d 3b81 003d 1a08 c43c 7a8d fa3b
00000350: 32f1 06bd c6ea 1dbb 934c a93c 5f60 1f3d
00000360: 71f1 f1ba fc21 d3bc 05da 2b3d 68ba 823c
00000370: f357 5f3c 2c09 6abc 3ab6 c03c 2ae7 3cbc
00000380: 34b3 10bc 3122 833a 7d21 273b 096e 80bd
00000390: 2f23 853c fe53 27bd d5fd 5cbd 9e36 20bd
000003a0: 06b7 ecbc 2223 0abd a1c6 ac3c 627f f3bc
000003b0: 5b60 fab9 248e 5dbc 5cf0 263d 7e53 0c3d
000003c0: 1e8a 56bc 271c e9bc ed72 06bd 51d3 11bc
000003d0: 5548 c6bc 507d bc3c 1633 37bc e1fb a83c
000003e0: 303f d53c 2ce5 c3bc 05c2 a43c 975b 983b
000003f0: 78fc d7bd 8337 4bbd d7fe 40bd da73 333d
-0.00036217977 -0.012158501 0.0093858605 -0.011977074 0.019391868 0.02380015 0.047400847 0.0246115
-0.0035159541 0.027985703 0.034949232 0.008158864 0.04334321 -0.01826833 -0.0036372237 0.021661608
0.022278422 0.033868145 -0.078522585 -0.039272845 -0.039227765 -0.028302485 -0.017783428 -0.021968162
-0.04110319 -0.07378268 -0.052309446 0.050458815 -0.0060637053 0.049495444 -0.033235826 0.0068564424
-0.026410764 -0.028192936 -0.045225628 -0.0368199 0.0058500734 -0.023038538 0.015433012 0.054586887
0.045084767 -0.01947061 0.00081626046 0.01259383 -0.0012927646 0.00830024 0.009946626 0.02750616
0.045011513 0.008471495 -0.040459223 -0.021697663 -0.0052867294 -0.016555706 -0.03540397 0.019748727
-0.049786314 -0.031755745 -0.0263063 -0.054351695 0.0108888745 -0.002676689 0.014385613 0.006713148
-0.009127874 0.004217698 0.02879692 0.008824279 0.045866616 0.060112093 -0.018453917 -0.020440085
-0.009711714 -0.0023875274 -0.021156784 0.016092885 -0.026831139 0.014219162 0.02632778 0.026609967
-0.041077297 0.022567147 -0.018811882 -0.02436739 -0.0015331447 0.028849514 0.038362384 -0.01571981
0.028983839 0.03746895 0.0026372478 0.0107088955 -0.044760477 0.01174749 0.032966577 -0.032116648
0.039958287 0.027238226 -0.033637084 -0.0072449613 0.0119992215 0.0423222 0.019175557 0.0148721
-0.015287692 0.006346992 0.022728244 -0.020457854 0.026304962 0.006149615 0.035975736 -0.022905411
-0.03275031 -0.028656753 -0.02606152 0.01211351 0.012010312 -0.006234858 0.034357302 -0.04206546
-0.046802036 0.03678788 -0.025912028 -0.047108214 0.046133626 -0.08016715 -0.0571963 -0.085921295
0.0014370816 -0.046309218 -0.059216075 -0.050406743 -0.048060846 -0.025545185 -0.025288489 -0.062143795
-0.03459968 -0.01845591 -0.039357908 -0.04070332 0.0038528044 -0.009318173 -0.01452723 0.003982728
-0.0014285935 0.0013161764 0.0011069009 0.04801481 -0.023866422 0.009435834 0.04660211 0.02927292
-0.005628451 -0.0611788 0.0026539497 -0.024057165 -0.032484703 -0.04118429 -0.033342484 -0.059074786
0.008541686 -0.016407775 -0.051453125 -0.07702742 -0.029331649 0.0009869846 -0.01558001 0.010122171
0.051751927 0.063399695 0.060038816 0.062597625 0.06051144 0.06310917 0.0076160366 0.052855916
0.001248491 0.0011808128 -0.026829487 0.038583826 -0.00029216803 0.0025073069 -0.0034837774 -0.060567692
-0.053627424 -0.024368567 -0.04694819 -0.0332234 -0.0038373384 0.012777691 0.008619375 -0.0027860578
0.007974868 -0.012102878 -0.01219424 0.003114924 -0.022039795 -0.027393999 0.006388955 0.026311351
0.019341975 -0.029150119 0.014622133 0.009198022 -0.013622426 -0.017082019 -0.023956774 0.0018795145
0.034379512 0.031373244 0.023929644 0.00764626 -0.032944866 -0.0024096235 0.020666396 0.038910266
-0.0018458796 -0.025773041 0.041955967 0.015958026 0.013631809 -0.014284413 0.023524392 -0.011529723
-0.008831788 0.0010004697 0.0025502138 -0.062709875 0.016252128 -0.040851586 -0.05395301 -0.039114587
-0.028895866 -0.03372491 0.021090807 -0.029723827 -0.00047755506 -0.0135226585 0.04075657 0.03425931
-0.013094453 -0.028455807 -0.032824446 -0.008900479 -0.024204412 0.023008972 -0.011181613 0.020627918
0.026031107 -0.023912989 0.020112047 0.0046495902 -0.105462015 -0.049613487 -0.047118034 0.043811657

deconv1.bias f4 [64]
00000000: 9d8d b0ba 06c0 783d a8e5 623d 28dd 6abc
00000010: 909d 39bb 8958 d43c 1841 503d c980 013c
00000020: 378f 943c 08ce 6b3d 9996 ad3c e354 1d3d
00000030: e2b6 3d3d e962 e9bc 69cf f83c 2dc2 6c3d
00000040: 2424 3c3d 1652 41bd d43f f33c 8041 203d
00000050: e90e 4d3c 3a31 863d 7720 6e3c 0e40 a8bc
00000060: 8ddc 0a3d 2d2f d5ba 58e3 8cbc ccd7 813d
00000070: c4cc 173d 2bdc 11bd 30a8 643d a075 88bc
00000080: baef f23b 7ef7 f13c b085 0d3d 1c7c 343d
00000090: 3fec 853d f8a5 933d 2f74 f23c 9eda f43c
000000a0: ad16 8c3c c83c 9cbc b81f 803d 4901 fa3a
000000b0: 5d35 5b3d c518 f63b 197c 55ba aa94 913d
000000c0: 4d9d 4d3d 7d82 503d 8660 813d da25 513d
000000d0: faaf 113c 4ff2 293a 70f6 083d ccc7 413d
000000e0: 8d83 813d 163e fd3c b764 37bc 6cf7 bbbc
000000f0: fb8a 17bd 3107 b63b d347 b8bb dc44 9ebb
-0.0013469938 0.060730003 0.0553948 -0.014334954 -0.0028322674 0.025921123 0.05084333 0.00790424
0.018134696 0.057569534 0.021189975 0.038411032 0.04631699 -0.028489547 0.030372338 0.057802368
0.045932904 -0.047197424 0.029693522 0.039124966 0.012515762 0.06552358 0.014534107 -0.020538356
0.03390174 -0.001626467 -0.01719825 0.06339988 0.037060514 -0.03561036 0.05582446 -0.01665765
0.0074138315 0.029536959 0.034551322 0.044063672 0.06539201 0.072093904 0.029596416 0.029889401
0.017100656 -0.019071952 0.0625605 0.0019073869 0.053517688 0.007510277 -0.0008143797 0.071084335
0.05019884 0.050905693 0.063172385 0.05106149 0.008892054 0.0006482945 0.033438146 0.04730968
0.063239194 0.030913394 -0.011193446 -0.022945128 -0.036997776 0.0055550565 -0.0056237965 -0.004829986

deconv2.weight f4 [64, 64, 3, 3]
00000000: fdc0 92bb a83d cbbc 2e68 273d 4130 d4b7
00000010: db29 34bc 9cb9 5a3c 31e2 a13c a7cb 9fbc
00000020: d7da c0b8 71c3 cd3c 8efe edbc 2014 573d
00000030: 23c2 a2bc 30a3 12bc 5a83 4bbb 9f2d 2b3d
00000040: df37 1e3d ab32 b43c d2dc 5ebc e587 283c
00000050: a040 48bc d531 35bb 966f 563d a296 f4bc
00000060: 035d e6bb 01cf 353d 03ae 063c b931 6bbb
00000070: 3f8b 093c 2566 863c 433e 1fbb ba96 b5bc
00000080: c99d 153d 3518 fbbc 8827 2bbd e514 f3bc
00000090: 4d8b d13b 569a 963b 86cc 6d3d bf7e 453d
000000a0: 854d 513c 6de6 2c3d fa70 7d3d 2173 dc3c
000000b0: c1a2 7a3d 45c6 2e3c 6536 043b 24c2 05bd
000000c0: 36ab 0ebc e375 693c fc34 383c 481b 08bd
000000d0: 3885 1fbd f283 74bc 7fb8 c9bc a917 b2bc
000000e0: b7e7 02bd 1f10 dc3c 95bb 8d3c 4adf 5c3c
000000f0: 7b11 7cbd bca3 d0bc 0fef 19bd ed3f c63b
00000100: 35c0 1abd 6e1d b5bc 4351 043d a6ea f0bc
00000110: 47a3 cfbc eee5 dcbc 895a 17bd 3754 ba3c
00000120: c01d 9f3c 9175 4cbc a63a 1b3d 6219 133c
00000130: 8fd4 643c 52c2 423d ed76 393d 48db 6a3d
00000140: dd27 343c 4876 543c b339 303c 85ce 6b3d
00000150: 9af3 e23c bc8c 8bbb 5af4 51bc e82f 903d
00000160: b8ac a33c dbe3 3a3d 587e 883d c657 413d
00000170: 3ea4 db3c 4464 293d 0b8e deba f89a 9a3c
00000180: 078a f93c 07f4 8d3d 5ebc 8e3d d347 933c
00000190: 461a 49bd eef3 bb3c b9dc 94b9 2723 92bb
000001a0: a79c 3abb 5e8a 64bc 10f7 833c becf bd3c
000001b0: 5dfb 8bbc 9dce 2ebd 20dc d6bc ed8a ccbb
000001c0: 3fe5 f7b9 d3d2 c6bc 93ee 793c 4efb 60bc
000001d0: af9a bcbc b08d ee3c 93dc 783b c041 293d
000001e0: 1a43 aebb fddc 95bc 607d d2bc 370d 6ebc
000001f0: c1b0 843c b41c 573d d899 95bc c9aa 25bd
00000200: e723 b93c 23c0 e63c 112d 67bc bd72 adbc
00000210: 8a70 b83c baf8 94bc e31b fbbc 4ed2 3cbb
00000220: 5278 bc3c 4bf0 663b 1273 613d 8b62 16bb
00000230: 9ceb 803b 82ca adbc d9c8 d1bc cc38 a4bc
00000240: 5a4a bfbc 8a7a c0bc 24ca 2fbd 7e00 3abd
00000250: 5529 2dba 506f b7bc 4ed9 9cbc 9018 50bd
00000260: 81c1 e5bc 326b 613c 6f90 4e3d 3216 073d
00000270: f0e8 8a3b 6f5b c3bb 5b93 9ebb dc29 763d
00000280: 062d 263c 139f 313d 327f 1d3d e538 1f3d
00000290: 6482 313c a5b1 b3bc cd97 0cbd 9aa6 0c3d
000002a0: 550b f93c dc05 2e3d 0e3b 6abc e88f 623c
000002b0: 9062 e0bc cd8e debc 389e 14bd d9f1 4cbd
000002c0: f584 4cbd 3dfc 61bd fe9e d9bc 59ab 693c
000002d0: 66c8 54bd 9138 74bc 29f5 b9bb 3321 c13c
000002e0: 5c61 c23c e878 f5bc b115 8d3c c7a6 883c
000002f0: c7e4 f8bc 6a1f c2bc 9af7 293c 3e6b 66bc
00000300: 3c33 803c ead9 64bd 143a f0bc c971 2d3c
00000310: 1ee1 f83a 554e d4bb 0e8f 29bc 60ca 0e3b
00000320: 1de0 8e3c d8f2 1fbd b5df 743b 5727 0f3c
00000330: 6e6a 29bc 0d23 89bc 3488 a9bc affb d23c
00000340: 3681 b23c 294b 2ebd e136 3cbc e954 49bd
00000350: 612f 03bc 6384 13bd 4037 6d3a b124 923b
00000360: 57ce 303b ecb6 25b9 0b1f 133c 0691 20bd
00000370: 8be2 27bc cb44 b63c e9db 973c 16ff a03c
00000380: 1e85 1dbb 3370 4e3d 3200 e43c d868 493d
00000390: e04b 893c af84 a23c c1f5 8c3a 2a38 8f3d
000003a0: a3b4 003d 5f4b af3c a195 843d 3261 713d
000003b0: 222f 413d e691 e13c a605 8a3d 91d3 853d
000003c0: 18cd 983d 22a6 6f3d 304e d23c 3a3c 223c
000003d0: 5c00 24bd fe23 53bc e317 c5bc 5659 53bd
000003e0: 6248 4fbd 8e96 debc c5cf d5bc 9e48 68bd
000003f0: 58d5 333d f159 88bc 8165 443d 74f6 123d
-0.0044785724 -0.024809673 0.040870838 -2.529484e-05 -0.010996307 0.013349917 0.019761177 -0.019506289
-9.1960355e-05 0.025117608 -0.029052045 0.052509427 -0.019867962 -0.00895004 -0.0031053633 0.041791555
0.0386275 0.021996817 -0.013602452 0.010286306 -0.012222439 -0.002764811 0.05235251 -0.029856984
-0.007030131 0.044386867 0.008220199 -0.0035887791 0.008395015 0.016406128 -0.0024298585 -0.022166599
0.03652743 -0.030651191 -0.041785747 -0.02967305 0.00639478 0.004596035 0.058056377 0.048216578
0.01277483 0.04221194 0.06187532 0.026910366 0.06119037 0.010667388 0.0020174023 -0.03265585
-0.008707812 0.014249298 0.011243101 -0.033229142 -0.038945407 -0.014924036 -0.024624107 -0.021739798
-0.03195926 0.026863156 0.01730136 0.013480971 -0.06154011 -0.0254687 -0.0375815 0.006050101
-0.03778096 -0.02210876 0.03230406 -0.029408764 -0.025346411 -0.026965108 -0.036951575 0.022745235
0.019423366 -0.012479202 0.03789773 0.00897822 0.013966694 0.0475486 0.045279432 0.05733803
0.010995832 0.012967654 0.010755944 0.05757 0.027704049 -0.00425872 -0.012814606 0.070403874
0.01997982 0.045627456 0.06664723 0.047202848 0.026811715 0.041355386 -0.0016979588 0.018872723
0.030461324 0.0693131 0.06969522 0.017978584 -0.049097322 0.022943463 -0.0002839321 -0.004459757
-0.002847472 -0.013949005 0.01610902 0.023170348 -0.017087633 -0.04267751 -0.02622801 -0.006242147
-0.00047282313 -0.02427045 0.015254634 -0.013731791 -0.023022978 0.029120296 0.003797327 0.04132247
-0.0053180577 -0.018293852 -0.02569455 -0.014529518 0.016197564 0.052517608 -0.018261835 -0.040446077
0.022600127 0.02816779 -0.014109866 -0.021172876 0.0225146 -0.018185008 -0.030652946 -0.0028811875
0.023006592 0.003523844 0.05504138 -0.002294692 0.003934337 -0.021214727 -0.025608467 -0.020046614
-0.023350883 -0.023495931 -0.042917386 -0.045410626 -0.0006605585 -0.022391945 -0.019146588 -0.050804675
-0.028046371 0.0137584675 0.05043071 0.03298015 0.004239194 -0.0059618275 -0.0048393435 0.060098514
0.01014257 0.043364596 0.03845138 0.03887262 0.01083431 -0.021935293 -0.034324456 0.03433857
0.030400911 0.042486057 -0.014296306 0.013828255 -0.027390748 -0.027167702 -0.0362837 -0.05003533
-0.049931485 -0.055172194 -0.026565071 0.014262044 -0.051948927 -0.014906065 -0.0056749773 0.023575401
0.023728065 -0.02996488 0.017222257 0.016681088 -0.030382527 -0.02369662 0.010373974 -0.0140636545
0.01564943 -0.05587188 -0.029324569 0.0105862105 0.0018987989 -0.0064790645 -0.010349048 0.0021788105
0.01744085 -0.039049953 0.0037364785 0.008737407 -0.010340316 -0.016740346 -0.02069483 0.025754778
0.021790128 -0.042552147 -0.0114876935 -0.049153242 -0.0080069015 -0.036014926 0.00090490654 0.0044599404
0.0026978457 -0.0001580377 0.008979569 -0.039200805 -0.010246883 0.0222496 0.018537479 0.019652884
-0.0024035643 0.05039997 0.027832124 0.049172252 0.016759813 0.01983866 0.0010754393 0.06993134
0.03142227 0.021398244 0.06473852 0.058930583 0.04716409 0.02753539 0.067393586 0.06534494
0.074609935 0.058508046 0.025672048 0.009902054 -0.040039405 -0.012886999 -0.024059242 -0.05159887
-0.05060614 -0.0271714 -0.026100049 -0.05670988 0.043904632 -0.01664445 0.047948364 0.035879567

deconv2.bias f4 [64]
00000000: 4105 84bc 6261 a9bd 2bba fabc a6f7 dcbd
00000010: dc93 ab3c ecd7 4dbd 0d6b 4d3d 35d4 4bbd
00000020: 1709 59bd 3169 91bd e7ef 9fbd 2645 da3c
00000030: 5a53 ca3c 6f0b a3bd bde1 51bc 0bd1 29be
00000040: d3f3 6e3b 364c bdbd 4668 343d 4f2e fd3a
00000050: 15c1 a03d 1bd4 d5bd f340 1c3e 19b2 45bc
00000060: 59ae 54bd ecc7 15be aa06 2e3d 8fe6 153e
00000070: f2c4 91bd 0cc2 e83a c51f 46bd 92e7 643d
00000080: 4013 b8bc 5494 cdbc 89cf 2fbe 1e79 e13d
00000090: ee73 a3bd 389f 3dbd 86d3 19be 53f1 b6bd
000000a0: 64a8 3bbd 3b34 863d 5a96 7bbd 0adb ec3d
000000b0: 096c 8a3d 2fee 16bd 940f 94bd 7895 8bbd
000000c0: 1b4d 79bd d895 b6bd 3000 273c 7744 b63d
000000d0: 68a9 bf3d fbd1 c3bd 1613 17bb e53b 833d
000000e0: 88fa 1c3e c152 93bc 28a9 9f3d 3056 f43d
000000f0: e2ab 183d 9e6d b13d 191a 2e3d 5f1b ad3c
-0.016115787 -0.082705274 -0.03060635 -0.10789423 0.020944528 -0.050254747 0.05015092 -0.049762923
-0.052987184 -0.07100142 -0.078094296 0.0266443 0.024697948 -0.07961165 -0.012810168 -0.1658365
0.0036461249 -0.09243052 0.044044755 0.0019316169 0.078493275 -0.104408465 0.15259151 -0.012066388
-0.051924083 -0.14627045 0.042486824 0.14638732 -0.071176425 0.0017758026 -0.04837014 0.055884905
-0.022470117 -0.025095142 -0.17169012 0.110094294 -0.07981096 -0.04629442 -0.15022096 -0.08932748
-0.045814887 0.06552931 -0.061422683 0.11565216 0.06758887 -0.036848243 -0.07229534 -0.06815618
-0.06086455 -0.08915299 0.010192916 0.088997774 0.093584836 -0.09561535 -0.0023052148 0.06407908
0.15329945 -0.017983796 0.07795936 0.119305015 0.037273295 0.08663486 0.042505357 0.021131216
