contrastive_save/contrastive_weights_epoch_1.pt (torch, 749104 bytes, 8 tensors)

conv1.weight f4 [64, 3, 3, 3]
00000000: 02c7 c4bd 7eb5 e9bd 6848 3d3e a819 02bd
00000010: 0270 943d 03aa 11be 694d 013e 7c65 293e
00000020: 6861 97bd 6d5f 12be 859f 10be 338b 433d
00000030: 5cb3 343e eb40 243e a283 a2bd 62de f73b
00000040: 5a2e 08bd 5694 2dbe ffc2 0839 8170 ad3d
00000050: e10f dc3c 6981 983d c9e3 e6bd 83a4 14bc
00000060: 212f 8b3d ae78 2bbd c1b2 233e ca99 163e
00000070: ac04 163e d1e9 44bd 466c 233e 21c6 04be
00000080: ea94 12bc 047d 1b3e 69f9 11bd c11a 9c3c
00000090: 26ed 1c3e fed0 2fbe f5a5 c6bd f111 07be
000000a0: 8c41 efbd aea5 343e fe2d bc3d 626f e53d
000000b0: 3d6f 073e 688d 3fbe 37f8 ec3c 717b 5cbd
000000c0: 1b4e 13be cb5f 7abd c7aa 613d 2dc7 2c3e
000000d0: fe62 e8bd 5e48 ba3d dbc1 413e 22ed 45bd
000000e0: 1448 19be 1bf9 ddbd 42d7 ef3d 762f 453d
000000f0: bc68 a23d d59e b83d 5b06 2c3e 30f1 3fbd
00000100: a20b 0ebe fe60 21be 3104 96bd a8ef 19be
00000110: 853e 25bd 376a 3c3e 9f8a 423e cba1 87bd
00000120: 6d0c 2b3b 3032 3abe 1bf8 173d d1f0 253c
00000130: 5c13 a7bd 182c 32be db5e 35bd bc38 31bc
00000140: c22c 20be 5805 84bd 22cc 803d 0c07 2e3e
00000150: f3f6 593d 4c4a a6bd c47b c83c b55d 373e
00000160: af56 153e 6d13 efbd 9ff9 69bd 07d1 1cbe
00000170: 7c6f 113e 974c bf3c 14df 373c 558a 2f3d
00000180: e35d fc3d 3cc3 673d 44b3 e03c 2890 0e3d
00000190: 67b9 f6bd 9041 94bc 10ad 103e 768b 88bd
000001a0: 2b47 cebc 9e1c 60bd 47ab 1a3e 0b1d 3f3e
000001b0: 2f56 2bbe fb28 2bbe bbbf 2bbe c149 31be
000001c0: 5f0b 3f3e 8d43 f33d 64bb 213b 6844 443e
000001d0: a1ae 073e b612 f03c 6da8 053e 9436 cbbd
000001e0: 8c4b c73d 6286 89bd 3d72 a83d d485 bf3d
000001f0: 37af 2f3e a460 aa3d ebc5 b8bd 71b8 00be
00000200: da84 8cbc d354 8e3d e868 bbbd 6515 a3bd
00000210: 58d2 29ba 7be9 bebd aaa3 a4bc d765 2cbe
00000220: 88e3 d03c eb4e 3abe bd54 14be 65e0 9b3d
00000230: e246 173e 387a 383d c7a6 973d 948d bb3d
00000240: 8c27 abbc 7a9f 7bbd 4140 cabd b8a9 22be
00000250: 8024 623d fe3d 273e b9c0 b2bd 42c5 3cbe
00000260: e567 2bbd 4e6c 8cbd d622 28be a962 743d
00000270: 491f 26bd 0de9 8cbd 11fa 41bd ae76 7fbd
00000280: 466c f4bd 415f 883d 4f73 05bd 582c 01be
00000290: 81f9 3ebe d393 613d 6fae 9a3c 2f90 fe3d
000002a0: 709b 2fbe f2a5 fb3c fe50 763d e6a4 6ebc
000002b0: c401 9d3d f83c 35be 4a5c c63d f285 683d
000002c0: e116 5abd 26f6 2dbe cec2 42be 4984 7abd
000002d0: 4f21 8cbd c1ba 16be 97ad 213e 3f01 16be
000002e0: bfc0 17bd ab68 ca3d 6b19 21be f7be cbbd
000002f0: e118 833d 4dc4 ca3d ea5b 9e3d f130 073e
00000300: 92f4 583d c4ff f4bd 16fd 20bd 0e24 123d
00000310: 3c5d aebd 667b efbd 2ffc 023e a1ac a8bc
00000320: da8b 1fbd 58e2 353e 75ba 1b3e 6b85 df3d
00000330: 5fbb 053e 71bc 2fbd 86f6 fbbd 21dd 2b3e
00000340: 8e12 013d 9f91 8d3d 2a24 91bc 3a2b f2bd
00000350: dd38 023e c8c5 363c 85fe 3a3e 9660 dc3d
00000360: b702 a43d 1989 0dbc 85f1 86bd 9815 8abb
00000370: 25d4 77bd 3e76 28be 12be 983b c7e9 c23d
00000380: ce40 533d 9c2d 2f3d a100 0c3e 4319 0a3e
00000390: 2d75 8bba 72cf 99bd 53f3 59bd a732 0dbd
000003a0: a181 22be e059 f9bd 1052 2d3e f11f ebbc
000003b0: 1168 a8bd 08d0 16be 955c 20bd 1945 09bd
000003c0: 3020 c23d e95d 3fbe bd15 1d3e cbf1 0f3e
000003d0: 701d 82bd 5766 6f3d 12dd 44bd 54bc 0ebd
000003e0: fa43 303e 6e7c 003e 7e52 76bb 2698 c2bd
000003f0: 97b7 85bd 9bc2 8a3d cd41 b23d a52a 19bd
-0.0960827 -0.1141157 0.18484652 -0.03176275 0.07247926 -0.1422501 0.12627186 0.1654262
-0.07391626 -0.14294215 -0.14123352 0.047740173 0.17646545 0.16040389 -0.07935263 0.007564352
-0.03324733 -0.16951117 0.00013042612 0.08468724 0.02686304 0.07446558 -0.11273915 -0.009072426
0.067960985 -0.041863136 0.15986158 0.14707103 0.1465022 -0.048074547 0.15959272 -0.12966205
-0.008946637 0.15184408 -0.035638247 0.019055726 0.1532484 -0.17169568 -0.096996225 -0.13190438
-0.11682424 0.17641327 0.0918846 0.11202885 0.13226028 -0.18706286 0.028926952 -0.05382866
-0.14385264 -0.06112651 0.055094507 0.16872855 -0.11347006 0.09095834 0.18921606 -0.04832185
-0.14968902 -0.10838529 0.11710979 0.048140965 0.07930133 0.0901467 0.167993 -0.046860874
-0.13871625 -0.15759656 -0.07325018 -0.15032828 -0.040342826 0.18399893 0.18998192 -0.066226564
0.0026099936 -0.18183208 0.037101846 0.010128216 -0.081579894 -0.17399633 -0.044279914 -0.010816749
-0.15642074 -0.06446332 0.06288935 0.16994876 0.053214025 -0.0811964 0.024473079 0.1790684
0.14583848 -0.11673627 -0.057122823 -0.15314113 0.14202684 0.02335195 0.01122262 0.042856533
0.12322595 0.056582674 0.02742923 0.034805447 -0.120470814 -0.018097669 0.14128518 -0.06667225
-0.02518042 -0.05471479 0.151044 0.18663423 -0.16732095 -0.16714852 -0.16772358 -0.17313291
0.18656681 0.11878119 0.0024678344 0.1916672 0.1325021 0.029305797 0.1305253 -0.09922519
0.09731206 -0.067150846 0.08224914 0.093516976 0.17156683 0.08319214 -0.09022125 -0.12570359
-0.017153192 0.06949773 -0.09150869 -0.07963065 -0.0006478182 -0.093218766 -0.020097572 -0.16835724
0.02549912 -0.18194167 -0.1448545 0.07611159 0.14773133 0.045038432 0.07404857 0.09157863
-0.02089288 -0.061431386 -0.09875537 -0.15885055 0.05521059 0.16332242 -0.08728165 -0.18434623
-0.04184713 -0.06856595 -0.16419539 0.059664402 -0.04055718 -0.068803884 -0.047357623 -0.06236904
-0.11934714 0.06658793 -0.03258067 -0.12614572 -0.18649866 0.055072617 0.018882005 0.124298446
-0.17149138 0.030718777 0.060135834 -0.014565682 0.076663524 -0.17699039 0.096855715 0.056768365
-0.053244475 -0.1698843 -0.19019625 -0.061161313 -0.068422906 -0.14719678 0.15788876 -0.14648913
-0.03704905 0.09883245 -0.15732352 -0.09948533 0.0640123 0.09900723 0.07732375 0.13202263
0.052967615 -0.11962846 -0.03930386 0.035678916 -0.08513877 -0.11693458 0.12791513 -0.020590128
-0.038951732 0.17762125 0.15207846 0.10914119 0.13059758 -0.04290432 -0.1230288 0.16783573
0.031511836 0.06912541 -0.01771744 -0.11824651 0.12717004 0.011155553 0.18261154 0.1076061
0.0800833 -0.008638644 -0.06589035 -0.004214 -0.06050505 -0.16451356 0.00466133 0.09517246
0.051575474 0.042768106 0.13672115 0.13486199 -0.001063978 -0.0751027 -0.053210568 -0.034472134
-0.15869762 -0.121753454 0.16925836 -0.028701754 -0.08222974 -0.14727795 -0.039150793 -0.033513162
0.094787955 -0.18688168 0.15340324 0.1405708 -0.06353271 0.05844721 -0.04806239 -0.034847572
0.17213431 0.12547466 -0.003758579 -0.09501676 -0.065291576 0.06775399 0.08703957 -0.037394185

conv1.bias f4 [64]
00000000: 8215 003e fd2f 25be 02e0 b23c 7971 9ebc
00000010: 8f38 61bd b653 41be 8d74 74bd 332d 5b3d
00000020: b41d 26be bfc9 e23c d33a b33c 0484 b93b
00000030: 7a6d a3bd c27f 21be f3d6 38be 977c 1d3d
00000040: 38c6 143e ce50 e83d 2ff8 d5bd 88b6 6bbd
00000050: 50ae e93d 3688 d1bc c918 28be 3eb3 24be
00000060: 4461 f9bd 2dc3 c5bc 7dda e2bd 1ee9 48bd
00000070: 391e 1f3e 0332 493d fb6b 28be df32 3a3d
00000080: 99b6 90bc cc16 b23d 5bdd 203e 8b74 083e
00000090: b23f 413e 8f30 9bbb efef b13c 1b3f 22be
000000a0: e556 a2bd d00f cb3c d7b6 593d d65d c03c
000000b0: 636f c33b 97b0 d8bd 7458 12be 95d8 2c3e
000000c0: 8025 80ba 99b7 c1bb af21 283e 5a8e 96bd
000000d0: 2ee6 01be 8dd7 57bd 37fd 673d e6d7 d4bd
000000e0: e2f6 923d 2b8d 11bd b3bb 263e 597c fe3d
000000f0: 9e19 d4bd 37ee fabd c772 313e 2cdc e33d
0.12508205 -0.16131587 0.02183533 -0.019341217 -0.05498558 -0.1887959 -0.059681464 0.053509902
-0.16222268 0.02768409 0.021878636 0.0056614894 -0.07979865 -0.15771392 -0.18050747 0.038448896
0.1452874 0.11343537 -0.10447728 -0.057547122 0.114102006 -0.025577646 -0.16415705 -0.16084
-0.12176755 -0.024140919 -0.110768296 -0.049050443 0.15538873 0.04911996 -0.16447441 0.04545867
-0.017665194 0.086957544 0.1570944 0.13325708 0.18871954 -0.0047360132 0.021720855 -0.15844385
-0.0792673 0.024787813 0.053152885 0.023482244 0.005964206 -0.10580557 -0.14291555 0.16879494
-0.0009776801 -0.005911779 0.164191 -0.0735137 -0.12685463 -0.0526958 0.05663797 -0.10392742
0.071759954 -0.03553502 0.16282539 0.12426061 -0.103564486 -0.12252467 0.1732894 0.11125979

conv2.weight f4 [128, 64, 3, 3]
00000000: c0f8 98bc 58ed ae3a 994a 15bd d090 acbc
00000010: dba2 d7bc 06ef 0bbd d64b bebb edc7 1e3c
00000020: 7879 9f3c d96b 20bd ebca 87bc 34b5 d4bc
00000030: eff6 403c 9775 01bc b469 a6bc 4d31 173d
00000040: 4792 1bbd 7960 9abb 0083 9b3c c2c1 233c
00000050: 6040 27bd 5c78 47bc edf7 b139 a913 ac3c
00000060: fb00 033a fedb de3c 5aeb 02bd 6a82 26bd
00000070: eae2 d63c f3c1 663c 7cca e13c 4327 adbc
00000080: 8e6d 003d 14d0 8f3c 7622 8c3c 78fc 20bd
00000090: 07a9 86bc 8187 d2bc bfbe 82bc ecba 9f3b
000000a0: 6a2c 6cbc a195 093d fd39 18bd f252 81bb
000000b0: 0921 32bc 9e54 2abd a308 a7bc a82c 023d
000000c0: 2642 89bc 6605 843c 6bfa f53c 780f 96bc
000000d0: 309a 18bd 4a08 113d 565b 8c3c d0ec 20bd
000000e0: 0024 b63c 7c03 00bd c01b efbb 70f1 203d
000000f0: 4620 e83c 3039 723c 3621 653c 6fc3 153d
00000100: 7cc9 9f3c 7542 a03b 344d 65bc 9b52 b4bc
00000110: c29a ea3c 6f6e 10bd 698b dbbc e0f4 18bc
00000120: d76f 24bd 4eba 06bd 22d1 43bb 4e8b 243d
00000130: f854 d63c 1874 e23c f822 dc3c 063e fa3c
00000140: 4628 363c cd99 17bd 4631 da3c bb84 ddb9
00000150: 4918 c537 9614 173d 340f 983c ed56 923b
00000160: 7109 ccbc 6b4a e3bc 506e 633c d840 1bbc
00000170: 9354 d33b 0ddc a93c 3b6f 8a3c d35f 773c
00000180: fb9d ad3c 2bfc e73b 10dc a53c a802 25bc
00000190: a544 f8bc d9ed 6ebb 9dc5 243b 2c8c bbbc
000001a0: c6bd 093c b159 a53c 0033 15bd 288f 1e3d
000001b0: 89ab 08bd c620 6ebb 83d7 6bbc efd1 773c
000001c0: 1aa6 00bd cec1 913c 9bea 5a3c b237 743b
000001d0: 0ec5 e03a 7395 fd3b 9563 203d be73 e03c
000001e0: 5eee 633c c3ae 1c3c 742e dcbc b3a8 05bd
000001f0: e92d d03c 9a73 e93c 4132 be3c ec2d a53c
00000200: bdb1 f8bb 238d 5abc 8d0f debc 3703 8abc
00000210: 9f0c cfbb 979e 26bd cc0f 883c 9856 2b3c
00000220: b224 07bc b64e d33c 254a 1d3d b197 bfbb
00000230: 0f58 25bd a59a e4bc 36e5 db3c 8fc4 253d
00000240: 63b4 03bd 8ee7 663c bc0b 8dbc 36d9 4d3c
00000250: 494f e93c ab48 ebbc 8284 253d 556e 023d
00000260: d370 9d3b 1a9b 633c 5789 903c a6af 5c3c
00000270: 9900 973c 7645 353c 445c 04bd 7778 883b
00000280: 5520 c53c 7548 253c 503d 20bc 0dd5 063d
00000290: b1c9 1fbd a746 10bd 867e 58bc d625 dbbc
000002a0: 561d 003d b703 21bd 7d81 17bd 326f e63c
000002b0: 58f0 c0bc 7029 82bb 9495 79bc 0e9f 003c
000002c0: fd4f 3d3c a9cc c03c ac18 c23c 9e3c 31bb
000002d0: 74e9 1f3b ee6b 00bd bffe 033d 5970 aabc
000002e0: 767f 263d 084e 8bbc c8d9 c8bb 7eb0 12bd
000002f0: a13d f93c 5fa3 03bc 970d 2a3d d283 423c
00000300: c7a9 9e3c f27a 56bc b0d5 f63c 7636 b4bc
00000310: 7fa3 033c 97dd 81bb 00a1 013b 782a c0bc
00000320: 9637 b53b 0ec8 f7bc eeb6 bebc e054 d53b
00000330: 8b31 833c f0ad 9f3c 5063 833c b13d 08b8
00000340: 0a8f d1bc d3dc b6bc b56a bd3c 3e10 ecbc
00000350: 6fc2 853b 18a9 773c 0f58 21bd 45da fbba
00000360: fcc1 d43b 4551 f33b cb76 38bc 7cdd dd3c
00000370: d39a ebbc 99c1 f03c 18c8 13bc 92d2 4b3c
00000380: f578 043d 158c 14bd e599 b93c 1d95 053d
00000390: 6477 95bc 2861 05bd ba9a f03c 7e1d b5bc
000003a0: 473b 243d 1b84 91bc 784d 193d abbe 213c
000003b0: 9c82 eebc 009f 283d e385 55bc 215b 143d
000003c0: b683 a63c cc11 493c ba93 ef3b a1fd 113d
000003d0: 3ee8 c33b 79b4 0b3c f219 71bb d551 ee3c
000003e0: 95af c73c 9294 463c 96e8 803a fba8 c9bc
000003f0: a10c fe3c 37ca e8bc 26f9 bf3c 3523 d63c
-0.0186733 0.001334588 -0.036448095 -0.021065146 -0.026322773 -0.034163497 -0.00580738 0.009691221
0.0194671 -0.03916535 -0.016576251 -0.02596531 0.011777624 -0.007901571 -0.020314075 0.03691225
-0.037981298 -0.0047112075 0.018983364 0.009994926 -0.040832877 -0.012174692 0.0003394479 0.021005468
0.00049973995 0.02720451 -0.03196273 -0.040651716 0.026231248 0.014084327 0.027562372 -0.021136886
0.03135448 0.017555274 0.017106276 -0.039303273 -0.01643802 -0.025699379 -0.015960095 0.0048745777
-0.014414886 0.033589963 -0.037164677 -0.0039466554 -0.010872134 -0.041584603 -0.02038986 0.03178087
-0.016755175 0.016115855 0.030026635 -0.018317923 -0.03725642 0.035408296 0.017133396 -0.039288342
0.022233963 -0.031253323 -0.007297009 0.039292753 0.028335702 0.014784142 0.013984969 0.036563333
0.019505255 0.004890735 -0.013995457 -0.022012046 0.028638247 -0.035261568 -0.026799874 -0.0093357265
-0.04014572 -0.032892518 -0.0029879292 0.040171914 0.026163563 0.027643248 0.026872143 0.030547153
0.011118 -0.03701191 0.026634824 -0.00042251297 2.3495539e-05 0.036884867 0.018561937 0.0044659288
-0.024906846 -0.027745446 0.013881281 -0.009475909 0.006449291 0.020734811 0.016898742 0.01509853
0.021193495 0.0070796213 0.020246536 -0.010071434 -0.03030617 -0.0036457686 0.00251422 -0.022893988
0.008407062 0.02018437 -0.03642559 0.038710743 -0.033366714 -0.0036335452 -0.014394644 0.015125736
-0.031408407 0.017792609 0.013361598 0.0037264642 0.0017148571 0.007738763 0.03915747 0.02739894
0.013911812 0.009563151 -0.02687762 -0.032631587 0.025412517 0.028497506 0.023217322 0.020163499
-0.0075895474 -0.013339314 -0.027107025 -0.016847236 -0.006318643 -0.040678587 0.016609095 0.010457657
-0.008248495 0.025794368 0.038400788 -0.0058469404 -0.040367182 -0.027905772 0.026842695 0.040470656
-0.032154452 0.014093293 -0.01721751 0.012563994 0.028480189 -0.028721174 0.040409572 0.031843502
0.0048047095 0.01389196 0.017643614 0.013469612 0.018432902 0.011063924 -0.032314554 0.004164751
0.024063269 0.010088076 -0.009780243 0.032918025 -0.039010707 -0.03522363 -0.013213759 -0.02675144
0.031277977 -0.039310183 -0.036988724 0.028129194 -0.023552105 -0.003972225 -0.015233416 0.007850422
0.011554715 0.02353509 0.023693405 -0.0027044187 0.0024400624 -0.03135293 0.032225367 -0.020805525
0.0406489 -0.017004982 -0.006129477 -0.035812847 0.030424895 -0.008034556 0.041516867 0.011872249
0.019368066 -0.013090836 0.030131191 -0.021998625 0.008034586 -0.003963183 0.0019779801 -0.02345775
0.005530308 -0.03024676 -0.023280587 0.006510362 0.016014835 0.01949212 0.016038567 -3.248238e-05
-0.025580902 -0.022322094 0.023122171 -0.028816339 0.004082016 0.015115999 -0.03939062 -0.001921483
0.0064928513 0.0074254596 -0.011258791 0.027083151 -0.02876035 0.02938919 -0.009019874 0.012440341
0.032341916 -0.036266405 0.02265639 0.03261291 -0.018245406 -0.03256336 0.029370654 -0.02210879
0.040095594 -0.017763188 0.037427396 0.009872119 -0.029115014 0.04116726 -0.013032409 0.03621972
0.020326477 0.0122723095 0.0073113116 0.03564227 0.005978613 0.008526915 -0.0036789146 0.029091755
0.024375716 0.012120383 0.0009834941 -0.024616709 0.031011881 -0.028416736 0.023434233 0.026139835

conv2.bias f4 [128]
00000000: 9b60 01ba 32e2 1fbd 5350 043d dfcf 963c
00000010: 592a ec3c da43 18bc 13cc 013d 732e 283d
00000020: ee10 033d f9f4 0b3d 5faa e93a 77c2 00bd
00000030: f39f 6139 4e02 8cbb 01d2 433c 45ca 09bd
00000040: 8f16 773a 75c9 b83b a6ba 853c 4d52 aa3c
00000050: f8ad 20bd 7e9a 1fbd 9853 b6bc dfb1 ed3c
00000060: 1cc2 9cbc ba28 ec3b 8183 c4bb 0184 85bb
00000070: 52e3 153d 9708 25bd e7d7 08bd 228e b4bc
00000080: 1558 88bb c2b9 3c3c dd86 813c b6ea d1bc
00000090: 9cda 163d 95cd 843c c52e 273d effa 4dbc
000000a0: 4c6a 1cbc ac4d a73c bc13 17bd 6558 a9bc
000000b0: 5994 33bc fb64 66bc 5695 08bd c1f1 a53c
000000c0: 121d 14bc d473 0d3d 3830 ce3c 97dc 273d
000000d0: aba3 933c 802b 333b 9b9b 8c3c c0e5 213d
000000e0: 829f 1bbd 4988 51bc 9a35 573c de6f d0bc
000000f0: d8e3 93bc 0747 05bd da5e 663c c50f 26bd
00000100: 716d 573c 593f 89bc 092d 29bc 9c25 a0bc
00000110: 5124 12bd 0f58 c23b f66c 813b 2c94 ef3b
00000120: 4f74 d238 f84c a4bc 0cfa 0ebc 2a3b e1bc
00000130: cb94 f3bc 5dca bebc 8ae2 aabb 6f11 8b3c
00000140: ec0d 953c 314f 053d 25c4 0ebc f99e f23c
00000150: e07e 41bc bc0d 1f3c 2cfc 293d 3b65 1c3d
00000160: 4a90 01bd 824f 11bd b4e5 5e3c 5d86 203d
00000170: 5d67 2b3c e3e4 c53c aa1f d7ba 1778 b43c
00000180: 5a1e 143d b5c9 29bd c1b4 003d b7c8 c1bb
00000190: bd85 cabc d70c e7bc f034 ec3c 04e9 dabb
000001a0: 83af d33c 4db9 803a 6231 593a d30c 763c
000001b0: edb5 e63c 160a 24bd ef48 203d 4d31 f6bc
000001c0: 94d5 713b bf40 98bc eff8 f23c d9b0 ae3c
000001d0: 324b a13c 0bec b83c 08e7 483b 2f60 88bc
000001e0: 1ff7 f63c d82a 8fbc 8653 12bd 4f00 103d
000001f0: b00b a9bc 092a 3d3c 4021 a5bc c553 43bc
-0.0004935355 -0.039034076 0.032303166 0.018409668 0.028828787 -0.009293521 0.03168876 0.041059922
0.031998567 0.03416917 0.0017827264 -0.031435456 0.00021517258 -0.0042727357 0.011951924 -0.033640165
0.0009425664 0.00563925 0.016324352 0.020791197 -0.03922841 -0.038965695 -0.022256657 0.02901548
-0.019135527 0.0072070034 -0.005997122 -0.004074574 0.036593743 -0.040291395 -0.033409026 -0.02204043
-0.004160891 0.0115188975 0.015811378 -0.025624614 0.036829576 0.01621131 0.040816087 -0.012572034
-0.0095468275 0.020422779 -0.036884055 -0.020672033 -0.010960662 -0.014062162 -0.033345543 0.020256879
-0.009040134 0.03453429 0.025169477 0.040981855 0.018022379 0.002733916 0.017164042 0.039525747
-0.037993915 -0.012788841 0.013135338 -0.025443967 -0.01805298 -0.03253844 0.0140607 -0.040542383
0.013148651 -0.01675384 -0.010325679 -0.019549184 -0.035679165 0.0059309076 0.0039497567 0.0073113646
0.000100352445 -0.020056233 -0.008726608 -0.027494032 -0.029734036 -0.023289854 -0.005214994 0.016976086
0.018195115 0.032546226 -0.008713757 0.02961682 -0.0118100345 0.009707864 0.041500255 0.03818248
-0.031631745 -0.035476215 0.01360457 0.03919064 0.010461655 0.024156993 -0.0016412635 0.02202992
0.036161758 -0.04145213 0.03142238 -0.0059138197 -0.024721975 -0.028204365 0.028833836 -0.0066806097
0.025840526 0.0009820849 0.00082852517 0.015017706 0.02816292 -0.04004868 0.039132055 -0.030052805
0.0036900984 -0.01858556 0.029659716 0.021324562 0.019689176 0.022573492 0.0030655283 -0.016647426
0.030147133 -0.017476484 -0.035724185 0.035156544 -0.020635456 0.0115456665 -0.020157456 -0.011921828

deconv1.weight f4 [128, 64, 3, 3]
00000000: 3a2e e23c baff bebc 8227 eebc 8fd7 953c
00000010: 52e4 9f3c 0492 9dbc b31c d4bc 4ad5 593c
00000020: 6f08 cabc 0cdf 43bc f02f c23c 71c9 e6bc
00000030: 25da 5dbc fac3 8abc bf22 dcbb 3c2f bb3a
00000040: 0a9b 813a 3151 b83b 060d e43c 3be3 53bc
00000050: 26b9 b8bb d52b b8bc 52d9 15bd 4732 d43c
00000060: 569f fa3c 1450 0ebc b0d7 973c fe37 1cbd
00000070: ada3 04bd cf6e d73c 38d5 703c e8fb a9bc
00000080: 0dc2 06bc 81df a13c e8d7 ee3c 6c4d 293c
00000090: 9763 01bc 825b 2abb 53e2 063d 2be3 11bd
000000a0: 1135 26bd 4b37 22bd dc0b ec3c c543 eabc
000000b0: 361d 0d3c 84c2 893c 1e23 d0bc 436f cbbc
000000c0: 74c5 96bc 191d efbc 5d21 0c3d 074b 273d
000000d0: dc5c 9eba aa19 1ebb 3be8 ed3c 4b0a 60bb
000000e0: 10f1 c0bc 7550 8bbc acbf d53b 0b77 eb3c
000000f0: 12c8 55bc 1ff3 d5bc 432b 80bc fa49 27bd
00000100: cd4a a4bc 388a 19bd 5427 04bc cdbd 8cbb
00000110: 2a1a a839 39b9 1c3c f90d 5e3c 366c 8739
00000120: c74e a6bc f797 033d bc01 9dbc d3c7 1a3d
00000130: f30a 1a3d 209d 263d 4a3e e13a cd93 14bd
00000140: 84f0 863c 63be 593b f4d5 ceba f9b2 25bd
00000150: 52bb c63c 9ee2 f3b9 b37c 003c 0601 a63c
00000160: 6fbd 06bc f4b4 edbc 2fed 89bc 945c b43c
00000170: 3d32 06bc c2d7 323c 20df 0bbd a0e5 b83b
00000180: 54b2 c0bc a214 f93b 0d46 b0bc 1acc 233a
00000190: e089 983c 13ea 6abc 73a4 04bd ab30 b5bc
000001a0: a058 3dbc 6d87 dc3c 65f6 16bd ee8e 3e3c
000001b0: 027e 083d 963a 1b3d 2962 49bb 95b4 4f3c
000001c0: 9abc 723c 3a5d 0f3d ce5d 5fbb 658a 9d3c
000001d0: 1fec d43c 8038 5a3c 8b0f f53c 00f2 9cbb
000001e0: ab65 5b3a cbab ef3b 0a20 283d ab0b 5cbc
000001f0: f771 12bd 1623 113d 5c13 0cbd 7892 273d
00000200: 1772 083d 03bf bf3c 27a4 223d 4eac 8ebc
00000210: 482f 823b 303b 10bd ece3 09bd 923f 123d
00000220: b894 1f3d 3a24 27bd 3893 af3c fe05 093c
00000230: b896 793c 1105 023d ee1e a33c ff42 b0bb
00000240: 4170 1f3d 2c74 9f3b c540 fa3c 0d34 babc
00000250: 04ae dc3b ef0e 92bc 41fa d13c 1252 0ebd
00000260: 11b5 ea3b 4156 f13c 0efa 053d a7b8 0ebc
00000270: 86b4 d4bc 9031 d6bc d5df 62bc b17d e3bb
00000280: 750e 18bd 12bc f63c 5bab 803c 9b74 743c
00000290: 7681 83bb 6336 13bd a61e 57bc 3087 6d3c
000002a0: 2b39 653b 7063 60bc 3bb2 bebc 9a29 643c
000002b0: 09b7 583a 2f08 ecbc 855e b73a 4556 0a3d
000002c0: 68cb 1ebc 8949 733c 5bbb 283d f16d 1ebc
000002d0: 1d0e 513c 0744 723c 46b1 ff3c 0b91 193d
000002e0: 7e04 0b3c 58e0 a33c e08b 183d e872 9c3c
000002f0: a947 223d 5058 b73b bdca d0ba 1cc1 4b3c
00000300: ce24 91bc 55eb c5bc f589 19bd 9c01 cfbb
00000310: 51cf 863c fffd 1abd 3a58 fe3c c022 0b3d
00000320: 2bff a8bc 490b 29bd f9c0 08bc acab a0bc
00000330: 39b9 533c dcf1 f43c 8b43 223d 0bac 81bc
00000340: f85d b0bc 6d66 1cbd 3772 1a3d 2c5e f13c
00000350: 7b9e 253d 0b27 713b 51f7 13bd f135 823b
00000360: 8977 14bc be90 003d 13d0 813b d15e 783c
00000370: d3be be3c dc51 f6bc 1557 be39 b961 3abc
00000380: c097 f5bc 73d2 2ebb 2fe5 d6bc 9402 06bb
00000390: 05ad fe3b 788b a23c f87a a73c 82d4 9abc
000003a0: 5f6f 813b 61b6 893c 76f1 62bc 95fd a63c
000003b0: 0303 a3bc 65c8 1dbc c29e 453c bb0e c63b
000003c0: d452 d3bc c3cd f93b 43fe 17bc f84f 22bd
000003d0: fd7f acbb 8b83 26bd 37ff 073d 6ffa 253d
000003e0: 68a3 193d 8907 99bb 5062 4bbc 4d54 4e3c
000003f0: 207b 1bbc bf4c 6a3c 3395 da3c c95d 453c
0.027609933 -0.0233153 -0.029071573 0.018291263 0.019518051 -0.019234665 -0.025892591 0.013295481
-0.024662225 -0.011955034 0.023704499 -0.028172227 -0.013540779 -0.016939152 -0.0067180092 0.0014281045
0.0009888124 0.005624913 0.027838241 -0.012932594 -0.005637306 -0.022481838 -0.036584206 0.02590288
0.030593555 -0.008686084 0.018535465 -0.038139336 -0.032382656 0.026297955 0.014699273 -0.020750001
-0.008224976 0.019759895 0.029155686 0.0103334 -0.007897279 -0.0025994484 0.032930683 -0.035617035
-0.04057795 -0.039603513 0.028814249 -0.028596768 0.008612921 0.016816385 -0.02540737 -0.024833327
-0.0184047 -0.02918868 0.034211505 0.040843036 -0.0012082118 -0.0024124184 0.0290414 -0.0034185823
-0.023552448 -0.017006138 0.006523093 0.028743288 -0.013048189 -0.026116906 -0.015645629 -0.040842034
-0.020055199 -0.03748533 -0.008066017 -0.004295087 0.0003206295 0.009565645 0.013553136 0.0002582983
-0.020301236 0.032127347 -0.019165866 0.037788223 0.0376081 0.04067719 0.0017184701 -0.036273766
0.016472109 0.0033225052 -0.0015780316 -0.040453885 0.024259243 -0.00046517415 0.007842231 0.02026416
-0.008223875 -0.02901695 -0.01683673 0.022016801 -0.008190689 0.0109156985 -0.034148335 0.005642608
-0.023522533 0.0076013366 -0.021517778 0.000624837 0.018620431 -0.014338034 -0.032383393 -0.022117933
-0.011556774 0.026920045 -0.036856074 0.011630757 0.033323295 0.03789767 -0.0030728674 0.012677331
0.014815474 0.035001017 -0.0034083012 0.01923103 0.025991498 0.013319135 0.029914638 -0.004789591
0.0008369337 0.0073141805 0.04104618 -0.013430516 -0.035753217 0.03543385 -0.03419815 0.040911168
0.03331193 0.023406511 0.03970733 -0.017416146 0.0039729215 -0.035212696 -0.03366463 0.035705157
0.03896019 -0.040806033 0.021432504 0.008363245 0.015233688 0.031743113 0.01991221 -0.0053790803
0.038925413 0.0048661437 0.030548463 -0.022729898 0.0067346115 -0.017829387 0.025632026 -0.034746237
0.007162698 0.029460074 0.032709174 -0.008711017 -0.025964987 -0.02614668 -0.013847311 -0.006942474
-0.037123162 0.030118976 0.015706709 0.014920379 -0.0040132357 -0.03594054 -0.013129866 0.014497563
0.0034976702 -0.013695583 -0.023278346 0.013925934 0.00082670205 -0.028812496 0.0013989961 0.03377368
-0.0096920505 0.014849075 0.0411943 -0.009669767 0.0127597125 0.014786727 0.03121246 0.03749184
0.008484958 0.020004436 0.03724277 0.01909776 0.03961912 0.0055952445 -0.0015929561 0.012436178
-0.017717745 -0.024160067 -0.03748508 -0.0063173305 0.016456278 -0.037839886 0.03104793 0.033968687
-0.020629486 -0.041270528 -0.0083467895 -0.01961311 0.0129225785 0.029900484 0.039615195 -0.015829107
-0.021529183 -0.03818362 0.03770658 0.02946385 0.040434342 0.0036796953 -0.03612453 0.0039737155
-0.0090617025 0.031388037 0.003961572 0.015159325 0.023284351 -0.03006833 0.00036304505 -0.011375838
-0.029979587 -0.002667573 -0.02623233 -0.0020448314 0.0077720904 0.019841895 0.020444378 -0.01890016
0.003950044 0.016810598 -0.013851514 0.02038459 -0.019898897 -0.009630297 0.012061777 0.0060442365
-0.025796331 0.0076234057 -0.009276929 -0.039627045 -0.005264281 -0.040652793 0.033202376 0.040522035
0.037509352 -0.0046700877 -0.012413576 0.012593341 -0.0094898045 0.014300524 0.026682472 0.012046286

deconv1.bias f4 [64]
00000000: 4011 1b3c 13e2 133d 534a 903c 4096 78b9
00000010: d184 5fbc 8048 873c df21 afbc a85d 9e3c
00000020: beb8 d4bc 37c2 873c 7a17 813b cd62 dcbc
00000030: a9c9 95bb ab3e 8bbc 04cd 5bbb ee85 d2bc
00000040: 0c9f 0dbd 8eca c03c 3a37 06bd 4d17 d63b
00000050: 425d 9dbc 4b5b 90bc c213 e2bb 00c4 cc3c
00000060: bb68 d43c 8a73 4dbc ed3b 023d 56cb e1bc
00000070: 6c90 16bd a6a7 2e3c 6155 c5bb 2bd5 193c
00000080: 2834 b0bc 9d88 eabb 61d8 c9bc ce95 103d
00000090: c670 4dbc 0e42 eb3c 2051 26bd 159a 42bc
000000a0: e730 1f3d b6f6 d13c 3287 9ebc 5f0e b1bc
000000b0: 0d3f 61bc 0d98 933c 4d50 023d 2fd9 093c
000000c0: b8d8 10bd 17e1 f3bb 7d35 8bbc c38b ddbc
000000d0: 24b7 b0bb 9914 b1bb f517 04bd a0a2 933c
000000e0: 0b7a f0bc f95e bb3c 3206 04bc e529 a23c
000000f0: 3af4 adbc c1c5 09bd 46cc bbbc f177 26bd
0.009464562 0.036104273 0.017613566 -0.00023707096 -0.013642506 0.016514063 -0.021378456 0.019331768
-0.025966998 0.016572101 0.003939566 -0.02690258 -0.004571159 -0.016997656 -0.0033538947 -0.025698628
-0.034575507 0.023534086 -0.032767512 0.0065335394 -0.019209508 -0.017621657 -0.006899328 0.024995804
0.025928846 -0.012539754 0.03179543 -0.027562778 -0.036758825 0.010660088 -0.006022141 0.009389202
-0.021509245 -0.007157399 -0.02463931 0.035299115 -0.012539094 0.02871802 -0.04060471 -0.011877556
0.038864996 0.025630336 -0.019351576 -0.021613298 -0.013747943 0.01801684 0.031814862 0.008413597
-0.03536293 -0.0074426043 -0.016993279 -0.027044183 -0.005392926 -0.0054040668 -0.03224941 0.018021882
-0.02935507 0.022872435 -0.008058118 0.019795367 -0.02123462 -0.03363586 -0.022924554 -0.04064173

deconv2.weight f4 [64, 64, 3, 3]
00000000: c122 cdbb a41f 233d 7813 163d 5778 c33c
00000010: a5ac 0f3d 11a0 c6bc 1f0a 1d3d 0baf cb3c
00000020: 7fc2 5d3c 56ab a7bc b840 443c 7683 a73b
00000030: f215 21bc a8a3 273d ece9 e53c e50f 5f3c
00000040: 09c4 b73c fdf9 d3bc 83ca 07bd 503f 29bd
00000050: 20b1 023d e5f5 ec3c 4276 64bc 5a55 ce3c
00000060: 3b99 c9bb ba80 0bbd 8cbe 0f3d 3a4d b33b
00000070: 123a a33b 56ac f73b b2b4 673c cd28 b6bc
00000080: 0f2a c43c 05ec 16bd 6a32 39bc 8c66 9ebc
00000090: c325 0f3d 74f0 fd3c 18de 1abd c5b7 20bc
000000a0: cb44 713c 3c42 173d 7671 1cbc 8b63 21bd
000000b0: 5012 94bc 4110 93bb 2c93 853c c073 25bd
000000c0: 18ef 9bbc e932 23bd 7d27 f7bb edac 963c
000000d0: ff56 23bd a7d2 c5bc 2e82 143d 5a8f cfbc
000000e0: 5807 bcbc 9ed1 8b3c c57a 48bb fe09 f8bc
000000f0: 6fd1 2ebc ad87 ad3a 612c 213d fe46 8f3b
00000100: 7bf0 c83c be68 e8bc 00a7 1a3b d211 59bc
00000110: 8496 7e3b a9b6 aabc 027a 0dbd 6ffd cc3c
00000120: a32d ad3c fde1 123d c8ef a6bc 2507 233d
00000130: ca8c d9bb 64e4 813c 0c08 e5bc 95d9 c23b
00000140: a660 ec3c cf32 efbc 9cb5 1abc 53db 263c
00000150: 0a10 353c 8af5 ca3c a3c1 263c d42d 023c
00000160: 98bb 8d3c 9364 973c ff2a 22bb 5a2d 273d
00000170: e85d 923c 1799 bdbc 5726 923c d51c 74bc
00000180: de51 22bd 86f0 1b3c 78e3 213c d236 14bd
00000190: 6839 0a3d a538 eebc 6f93 8e3c deec fe3b
000001a0: 24f9 03bd 21a8 053d 5d20 71bc 393c 9fbb
000001b0: b299 edbc f07b cc3c 023d 223d c81a d8bb
000001c0: 586a bebb fe45 a43c cc29 c3bc 04b1 273d
000001d0: 82dd 2fbc b8d5 f33b 0ef5 08bd 9176 c5bc
000001e0: ee2e 1dbd 2317 d23c c799 0dbd bb52 d83c
000001f0: fa4b 16bd 5c81 2a3c 632d b1bc adba 9a3b
00000200: 590d fabc c2d3 1e3d 98a4 06bd eb4c 983c
00000210: dfc4 26bc 719b 273c e008 57ba 32f0 3ebc
00000220: 9689 e43c 3a21 723c 1ed2 02bd 2264 9e3c
00000230: 99c9 803a 4fea 903c f57d b4bc 043e 393c
00000240: 0c97 4dbc cbe3 56bb 6e24 ab3b aa2f 1c3d
00000250: 8b18 2a3d 7a18 003c b443 803c 273f 9b3c
00000260: 77a1 a33c e1f4 b73c 9bde 64bc 997c 623c
00000270: e3dc 3fbc 7193 b6bc e352 1bbc d46a 1d3d
00000280: 6deb 013d 76f7 e33c 41bf 20bb 3625 133d
00000290: 412f fb3c 9704 03bd 88d3 35bc 378c 27bd
000002a0: 5e93 da3c 0288 a53b a2b8 61bb b33b 0e3d
000002b0: c715 1dbd 9b25 37bc 2c18 d8bc 2daa ec3c
000002c0: 7365 cb3c a9af 86bc 6ca2 0b3d 12c9 5d3b
000002d0: a669 023d e762 c0bb 2d27 1fbc 193c e43c
000002e0: f4d0 ca3c 7de6 dbbc ec5b 8e3c 95dc dd3c
000002f0: acea d13c 16a6 edbc 657b b2bb dce1 e3bc
00000300: 4419 3cbc 7d87 cbbc b6a2 1c3c b061 4ebc
00000310: 1cf2 bebc ef17 41bc 83ab 3c3c a8a6 3e3c
00000320: fe7f e23b 76d5 29bd 8a17 0bbb 3cc3 84bc
00000330: ed1d b9bc 6556 183d 6f68 b1bc 9a58 0ebd
00000340: 8f51 8abc 44db c2bc dab5 a6bc 19d5 9a3c
00000350: 7d03 95bb 31eb 7abc 4b92 2c3c 0904 803c
00000360: a775 783b 1c7c 00bd 1107 f5bc ed4d 013b
00000370: f08c 0bbc e14a 1abd 0c8c 8dbc 5f25 a03b
00000380: 0db1 d5bb da0f 043d 2bdf 60bc ba43 803c
00000390: d3c2 babc d75d 22bd 5c46 15bd cbd0 a2bc
000003a0: 46f1 9ebc 68da 1fbd ef3e 0a3d c486 3f3c
000003b0: 20a3 01bd 0c3d f53c 323a 013d de73 11bc
000003c0: a10f 083b 58ba d73c e8fd 723c 2d12 b9bb
000003d0: d99f c2bc 2268 ca3c 2eff 123d 1517 6d3c
000003e0: cd6a f0bc effe 56bc 4e54 3bbc 37b6 cc3c
000003f0: b4d8 2bbc 0203 03bd 4e04 4a39 9bdc cfbc
-0.0062602465 0.039825097 0.03663966 0.023861093 0.035076756 -0.024246247 0.03833973 0.02486374
0.013535141 -0.020467442 0.011978321 0.005112107 -0.009831892 0.04092756 0.028065644 0.013614629
0.022432344 -0.02587604 -0.033152115 -0.041320145 0.0319072 0.028925845 -0.0139442105 0.025187183
-0.0061522997 -0.03405831 0.03509383 0.0054718526 0.0049812878 0.007558386 0.014142202 -0.022236252
0.023945836 -0.03684618 -0.011303524 -0.019336008 0.03494812 0.030998446 -0.03780946 -0.009809439
0.014725874 0.0369284 -0.009548536 -0.039401572 -0.018075138 -0.0044880216 0.016305529 -0.04039359
-0.019034907 -0.039843474 -0.007542549 0.018393004 -0.039877888 -0.024148298 0.03625696 -0.02533691
-0.02295272 0.017067727 -0.0030590754 -0.030278202 -0.01067005 0.0013239287 0.039348964 0.0043724766
0.024528733 -0.028370257 0.0023598075 -0.013248878 0.0038847039 -0.020839052 -0.034540184 0.02502319
0.021139925 0.03586005 -0.020378008 0.039801735 -0.006639098 0.015855975 -0.027957939 0.005946348
0.02885468 -0.029199032 -0.009442713 0.010184127 0.011051187 0.024775285 0.0101780025 0.007945497
0.017301366 0.018480575 -0.0024744866 0.040814735 0.017867044 -0.023144288 0.017840547 -0.014899452
-0.039628856 0.0095177945 0.009880893 -0.036185093 0.033746153 -0.029079745 0.017404286 0.0077797016
-0.03222002 0.032631043 -0.014717189 -0.004859474 -0.029003952 0.024961442 0.039608963 -0.0065949894
-0.005811017 0.020052906 -0.023823641 0.0409403 -0.010733964 0.0074412487 -0.033436827 -0.024104388
-0.038374834 0.025645798 -0.03457048 0.026406636 -0.03669355 0.010406818 -0.021628087 0.0047219605
-0.030523943 0.038776167 -0.032871813 0.018591365 -0.010178774 0.010229931 -0.00082029216 -0.011653947
0.027897637 0.01477843 -0.031938665 0.019334856 0.0009825706 0.017689852 -0.022032717 0.01130629
-0.012548219 -0.0032789584 0.0052228486 0.038131393 0.041527312 0.007818336 0.015657283 0.018951012
0.019974453 0.022455635 -0.013969089 0.013823652 -0.011710378 -0.022287102 -0.009480211 0.038431957
0.03171866 0.02782796 -0.0024528059 0.03592416 0.03066218 -0.0319868 -0.011097796 -0.040905204
0.026681598 0.005051614 -0.0034442325 0.034724902 -0.038350847 -0.011178399 -0.026378714 0.02888974
0.024828648 -0.016441183 0.034090444 0.003384177 0.031839035 -0.005871165 -0.00971393 0.027860688
0.02475784 -0.026843304 0.017377816 0.02708272 0.025624596 -0.02900986 -0.0054468387 -0.02781766
-0.011480633 -0.02484488 0.009560278 -0.012596533 -0.023308806 -0.011785491 0.011515501 0.011636414
0.0069122305 -0.041463338 -0.0021223747 -0.016206376 -0.022597278 0.037191767 -0.021656243 -0.034752466
-0.016884593 -0.023786195 -0.020350385 0.018900441 -0.004547535 -0.015314863 0.010532926 0.015626924
0.0037911923 -0.03136836 -0.029910596 0.0019730285 -0.008517489 -0.037669066 -0.017278694 0.0048872675
-0.0065213502 0.03224168 -0.013725082 0.015657295 -0.022797978 -0.039640274 -0.036444053 -0.01987495
-0.019402158 -0.039026648 0.033751424 0.0116898455 -0.03164971 0.029936336 0.03154964 -0.008877723
0.0020761269 0.026333973 0.014831044 -0.0056479187 -0.023757862 0.024707858 0.03588789 0.014470835
-0.029347802 -0.013122304 -0.011433674 0.02498923 -0.010488678 -0.03198529 0.00019265825 -0.025373748

deconv2.bias f4 [64]
00000000: 6909 52bc 246f 9d3c 168e 2cbc aef1 dc3b
00000010: d301 243d f727 c0bc ba52 a7bc 1422 eb3c
00000020: ba31 1ebc ca97 07bd d47d 0cbd df6a 5ebc
00000030: 72d5 d3bc 19cf a3bc b390 f33a 0b95 c9bc
00000040: 38b1 0bbd 5a0c d8bc bfa3 d3bc 2b67 b63c
00000050: e378 e63c b05c 0abd c84a 103d 7c2a ae3c
00000060: de9e 033c af51 0e3d d592 bcbc 140b a33c
00000070: 619e 3c3c bad3 a63b 7a0e 98bb 9a21 e2bc
00000080: d3d8 28bd c312 dcbc 8b91 203d aebb e33c
00000090: 8667 1d3d fcf7 b93b 82e2 363c c15c 91bc
000000a0: ec63 cf3c 91e1 a7bc 6f63 0c3c 638b 683b
000000b0: a309 d23c 586d 20bc 9c06 133d e6be 0f3c
000000c0: 0d03 b5bc f6a5 83bc 322a c4bb edc3 353b
000000d0: 5d20 b23c c35e 8ebc 826c 01bd 56fa ab3c
000000e0: aa10 243d b697 b5bc d823 59bc 52a9 75bc
000000f0: b983 d6bc 55e8 123c 5050 473b 6949 08bd
-0.012819626 0.019218035 -0.010531923 0.0067426777 0.040040802 -0.023456557 -0.02042519 0.028702773
-0.00965541 -0.03310374 -0.034299687 -0.013575285 -0.025858615 -0.019996213 0.0018582552 -0.024607202
-0.034104556 -0.026373077 -0.025834916 0.022265991 0.028133815 -0.0337798 0.035227567 0.021260493
0.008033482 0.03474587 -0.023019234 0.019902743 0.01151237 0.0050911577 -0.0046403976 -0.027603913
-0.041222405 -0.026864415 0.0392013 0.027799454 0.038428806 0.005675314 0.011162402 -0.017744424
0.025316201 -0.0204933 0.008568629 0.0035483472 0.02563936 -0.009791695 0.035894975 0.008773541
-0.022096181 -0.016070347 -0.0059864754 0.002773519 0.021743948 -0.01737917 -0.03159762 0.020993393
0.040054955 -0.022167068 -0.013253175 -0.014993982 -0.026185857 0.008966525 0.003041286 -0.033273134
