contrastive_save/contrastive_weights_epoch_3.pt (torch, 749104 bytes, 8 tensors)

conv1.weight f4 [64, 3, 3, 3]
0	0x3e155115	0.14581712
1	0x3ddb290a	0.10701187
2	0x3e2a927a	0.16657439
3	0x3bcc2f7a	0.0062312456
4	0xbddd2f9d	-0.10800097
5	0x3ca2d416	0.019876521
6	0x3e2b7a22	0.16745809
7	0xbddf7d0a	-0.10912521
8	0xbe3f0a16	-0.18656191
9	0x3ddfdb79	0.10930533
10	0xbe07f89a	-0.13278428
11	0xbdbdecbd	-0.0927367
12	0xbcbc2f2d	-0.022971714
13	0x3e1ef766	0.15524063
14	0xbe2e7aee	-0.17039081
15	0x3cfd4b3e	0.030919667
16	0x3a1b62a7	0.0005927481
17	0xbe13ed4b	-0.14445989
18	0xbba8308f	-0.0051327418
19	0x3e32648c	0.17421168
20	0x3c6976a2	0.014249476
21	0x3dbc939e	0.09207843
22	0xbd5415aa	-0.051778473
23	0xbcdcd66a	-0.02695771
24	0x3de2c828	0.11073333
25	0x3dc9e4ec	0.098581165
26	0xbe0ec02f	-0.139405
27	0xbd901919	-0.07036037
28	0x3c7afb99	0.015318775
29	0x3d95b70b	0.07310303
30	0x3d34344e	0.043995194
31	0x3db95374	0.090491205
32	0x3e00717c	0.12543291
33	0x3e013e98	0.12621534
34	0xbdd1668b	-0.10224637
35	0x3e176dd0	0.14787984
36	0xbc86e975	-0.016468743
37	0xbd83ce88	-0.06435877
38	0xbe317055	-0.17328008
39	0x3d667cb9	0.05627129
40	0xbd5b6800	-0.05356598
41	0xbe26e526	-0.1629835
42	0x3e16e44d	0.14735527
43	0xbabd0772	-0.0014421775
44	0xbe3bc6a2	-0.18337491
45	0x3d4e095d	0.0503019
46	0xbbbd2d2b	-0.0057732067
47	0x3deb7f5d	0.11498902
48	0xbe15ea14	-0.14640075
49	0x3e1313df	0.14363049
50	0x3e0e29b8	0.13883102
51	0xbdd562bf	-0.10419225
52	0x3e405f14	0.1878627
53	0xbe1cd38e	-0.15315077
54	0x3e275a57	0.16343056
55	0x3c3a44bb	0.011368926
56	0xbe3b4f31	-0.18291928
57	0x3d0ae43e	0.033909075
58	0x3e05ca20	0.13065386
59	0xbded3a91	-0.11583436
60	0x3df9e092	0.122010365
61	0x3ddce1f9	0.10785288
62	0xbe2f7270	-0.17133498
63	0xbe07e9b4	-0.13272744
64	0xbdf8c91f	-0.12147736
65	0xbdf6a665	-0.12043456
66	0x3e103c95	0.1408561
67	0x3e2ad238	0.16681755
68	0xbdbede1d	-0.093197085
69	0x3c18370a	0.009290466
70	0x3de1634b	0.11005267
71	0x3dfdcc06	0.1239243
72	0xbde2cacb	-0.11073836
73	0xbdcbc840	-0.09950304
74	0xbd453468	-0.04814568
75	0xbc3e6c80	-0.011622548
76	0x3d8cddda	0.06878252
77	0x3c4bd9be	0.0124420505
78	0xbdcabf49	-0.09899766
79	0x3e46ddbc	0.19420522
80	0xbd04d96a	-0.032433905
81	0xbe430b20	-0.19047213
82	0xbe30242a	-0.17201295
83	0xbe3063f1	-0.17225625
84	0x3e023e73	0.12719135
85	0x3cedc80a	0.02902605
86	0x3b96eb5a	0.004605693
87	0xbce074ca	-0.02739944
88	0x3e027bf4	0.12742597
89	0xbe01b7ce	-0.12667772
90	0xbdfbd519	-0.122965045
91	0xbe444100	-0.1916542
92	0xbd0dfde6	-0.034665965
93	0x3e10f465	0.14155729
94	0xbd82d1bd	-0.06387661
95	0x3dc8b3bc	0.097999066
96	0x3d8fb760	0.07017398
97	0xbe4575c5	-0.19283207
98	0x3e26be89	0.16283621
99	0xbe20bf8b	-0.15698068
100	0x3d7bc26a	0.061464705
101	0xbde5c33c	-0.112188786
102	0x3b1f1fe8	0.0024280492
103	0x3e1cefd8	0.15325868
104	0x3cb4d823	0.022075718
105	0x3df52672	0.119702235
106	0xbe3831ff	-0.17987822
107	0xbd6cbb12	-0.05779559
108	0xbe3a3e5e	-0.18187854
109	0x3de44bdb	0.11147281
110	0xbe432d37	-0.19060217
111	0xbe1e2422	-0.15443471
112	0xbe2a8cd9	-0.16655292
113	0x3d65be17	0.056089487
114	0xbdb5048b	-0.08838757
115	0x3c31ffd0	0.010864213
116	0xbe2ce066	-0.16882476
117	0xbe35b0ae	-0.17743179
118	0x3e25a159	0.1617483
119	0x3db8d2ad	0.09024558
120	0xbca5f075	-0.02025626
121	0xbcf5a636	-0.029986482
122	0xbe37c695	-0.17946847
123	0xbbfe3ec4	-0.007758947
124	0xbb9fc693	-0.004875967
125	0x3db7f1fc	0.08981702
126	0xbe5143d7	-0.20436035
127	0xbe431436	-0.19050679
128	0xbdba143d	-0.090858914
129	0x3d26c442	0.04071451
130	0x3cecf6a3	0.0289262
131	0xbe33cff3	-0.17559795
132	0xbd2b69a1	-0.041848782
133	0x3bab36e0	0.0052250475
134	0x3e0675d2	0.13130882
135	0xbccd757b	-0.025080433
136	0x3d953b52	0.07286705
137	0x3e31d99c	0.17368168
138	0x3d04a09b	0.032379728
139	0xbdc9605c	-0.09832832
140	0x3e02d78a	0.12777534
141	0xbe20f38f	-0.1571791
142	0x3e228fdd	0.15875192
143	0x3d15dd1a	0.036587812
144	0xbdc61dc6	-0.096736476
145	0xbd3223e7	-0.04349127
146	0x3daa7ccc	0.08324584
147	0x3ab427dc	0.0013744789
148	0xbcc43d99	-0.023955153
149	0xbd4e67ea	-0.05039207
150	0x3e1c2fd6	0.15252623
151	0x3e12f8af	0.14352678
152	0x3e101fa7	0.14074574
153	0xbe1bda6d	-0.15220042
154	0xbe19fd80	-0.15038109
155	0x3cef7bc7	0.029233826
156	0x3d654f8f	0.055984076
157	0xbdb52565	-0.08845023
158	0x3cdc9089	0.026924388
159	0xbe051117	-0.129948
160	0xbc9e88e6	-0.019352388
161	0x3d35ba4a	0.044367112
162	0xbdac56c9	-0.084149905
163	0xbe33c62e	-0.17556068
164	0xbe3eb5ff	-0.18624114
165	0x3d4724ac	0.048618957
166	0x3d50156e	0.050801687
167	0x3d118f80	0.035537243
168	0x3dbacb72	0.09120835
169	0xbd9e7389	-0.0773688
170	0xbbe6dd71	-0.007045441
171	0x3e38200a	0.17980972
172	0x3d2557b5	0.040366847
173	0xbe10199c	-0.14072269
174	0xbe48627a	-0.19568816
175	0x3cf6dede	0.030135568
176	0x3dfc85a0	0.123301744
177	0xbe3780fb	-0.17920296
178	0x3c7deb29	0.015497961
179	0x3d33198b	0.04372553
180	0xbd86824a	-0.065678194
181	0x3e0fa447	0.1402751
182	0xbe40d024	-0.188294
183	0x3e25680a	0.16152969
184	0xbd0a2c38	-0.033733577
185	0x398fe19d	0.0002744318
186	0x3dc26a46	0.09492926
187	0x3c5ef627	0.013608492
188	0x3dbdd71f	0.09269547
189	0xbe35ffdc	-0.17773384
190	0x3e462a08	0.19351971
191	0x3cdbfd0a	0.026854057
192	0xbcdf55cb	-0.027262589
193	0xbe408913	-0.1880229
194	0xbddb2354	-0.10700098
195	0xbe230e02	-0.15923312
196	0x3e014c0b	0.12626664
197	0x3bdc4b47	0.006722841
198	0x3e0059a4	0.12534195
199	0x3d282a56	0.041056
200	0x3d2bd526	0.04195132
201	0x3dc38ede	0.09548734
202	0x3e43c6c9	0.191188
203	0x3bbf99ca	0.0058471905
204	0xbe03bab8	-0.12864196
205	0x3e3ffc49	0.18748583
206	0x3e2e42b5	0.17017634
207	0x3e204993	0.15653066
208	0xbe2c9838	-0.16854942
209	0xbdf88132	-0.12134017
210	0x3e03709f	0.1283593
211	0x3e185e69	0.14879765
212	0xbd0d5c71	-0.034511987
213	0x3cfd4fef	0.030921904
214	0xbe1749f7	-0.14774309
215	0xbdac7af4	-0.08421889
216	0xbdee22ee	-0.11627756
217	0x3d9c2690	0.07624543
218	0x3e42ab19	0.19010581
219	0x3dc67d49	0.09691865
220	0x3dc74c71	0.09731377
221	0xbdddc7eb	-0.10829147
222	0xbd72cae6	-0.05927553
223	0xbe0cd03f	-0.13751315
224	0xbe3f350d	-0.18672581
225	0xbe0a085d	-0.13479753
226	0x3d73ad1e	0.05949127
227	0x3d7da37b	0.061923485
228	0x3df82fb0	0.12118471
229	0xbdaac9ec	-0.08339295
230	0x3def2f30	0.11678922
231	0x3e03e84a	0.1288158
232	0xbccf5353	-0.025308287
233	0x3e1bef25	0.15227945
234	0xbdcbd7c8	-0.099532664
235	0x3d349cb3	0.044094753
236	0xbe17c223	-0.14820151
237	0xbd91d2a5	-0.071202554
238	0x3e3ac408	0.18238842
239	0xbd7e3aaf	-0.062067684
240	0x3e4385b0	0.19093966
241	0xbdc117f2	-0.09428395
242	0xbe0593a4	-0.13044602
243	0xbba7add8	-0.0051171593
244	0x3d93d992	0.072192326
245	0x3cb501a1	0.022095503
246	0x3dec3c47	0.115349345
247	0xbe3e3937	-0.18576513
248	0x3ce05543	0.027384406
249	0x3d2ee3f6	0.04269787
250	0x3e148570	0.14504027
251	0xbddc6ad4	-0.10762563
252	0x3c695a78	0.014242761
253	0xbcc7b9d0	-0.024380594
254	0xbe3d798f	-0.18503402
255	0x3bc3de5b	0.0059774346

conv1.bias f4 [64]
0	0xbdd39329	-0.10330803
1	0xbdb47f92	-0.088133946
2	0xbd62b74f	-0.055350598
3	0x3cbffa7c	0.02343487
4	0x3da8fe89	0.08251674
5	0xbe2fe173	-0.17175846
6	0x3e2866a9	0.16445412
7	0xbe190195	-0.1494201
8	0xbdb33096	-0.087495014
9	0x3dd1ccdf	0.10244154
10	0xbd7ad33d	-0.06123661
11	0x3deaf834	0.11473122
12	0x3d1401e9	0.036134634
13	0x3e26ef51	0.1630223
14	0xbd998820	-0.07496667
15	0x3ac072be	0.0014682633
16	0xbb49989f	-0.0030761135
17	0xbd946185	-0.07245163
18	0xbe413e94	-0.18871528
19	0x3e01b225	0.12665613
20	0x3dd9a242	0.10626651
21	0xbdc86825	-0.09785489
22	0xbe4567ae	-0.19277832
23	0x3dc6fc52	0.09716095
24	0x3e2aff7f	0.16699027
25	0x3dada8dc	0.08479473
26	0xbddf4eb9	-0.10903687
27	0x3dc95cea	0.09832175
28	0x3d939035	0.0720524
29	0x3d355e96	0.044279657
30	0x3e17cd51	0.14824416
31	0xbe429d20	-0.19005251
32	0xbd80eea5	-0.06295518
33	0xbd7aeb3b	-0.06125949
34	0x3dc79318	0.09744853
35	0xbdd1e19b	-0.10248109
36	0x3dd16ecf	0.10226213
37	0x3d90389c	0.070420474
38	0xbd215653	-0.039388966
39	0xbde9f370	-0.11423385
40	0xbc97df2c	-0.018539034
41	0xbe45ed46	-0.19328794
42	0xbc56c21a	-0.013107801
43	0xbb88d994	-0.004176328
44	0x3cf78e73	0.030219292
45	0x3bb22438	0.0054364465
46	0xbdae2dbf	-0.08504819
47	0xbd28d9de	-0.0412234
48	0xbd843a3b	-0.06456419
49	0x3ce32789	0.027728813
50	0xbd8ccda6	-0.06875162
51	0xbc0eb9f3	-0.008711326
52	0x3dc32666	0.09528808
53	0x3da76cc4	0.08175042
54	0x3e048455	0.12941106
55	0x3d85e5de	0.06537984
56	0xbd67d7d7	-0.056602325
57	0x3cc0bfe8	0.023529008
58	0xbdaa050f	-0.08301746
59	0x3cc4d018	0.024025008
60	0xbba56cf7	-0.00504839
61	0x3e1c0d9d	0.15239568
62	0x3c54c842	0.012987198
63	0xbda4633f	-0.08026742

conv2.weight f4 [128, 64, 3, 3]
0	0x3cc71886	0.024303686
1	0xbced8dd4	-0.028998293
2	0xbca42958	-0.020039245
3	0x3b3f2f50	0.0029172488
4	0xbcebe83e	-0.028797265
5	0xbd36ef45	-0.04466178
6	0x3c1cc619	0.009568715
7	0x3c56ec5f	0.013117879
8	0x3c4f126d	0.01263867
9	0xbd160d86	-0.03663399
10	0xbd253835	-0.040336806
11	0xbd601363	-0.05470599
12	0xbabf0bc3	-0.0014575649
13	0xbd48ac4a	-0.048992433
14	0xbc9fe69e	-0.019519147
15	0xbca5eae5	-0.020253608
16	0xbd24786e	-0.040153913
17	0xbd447e76	-0.047972165
18	0xbd1f7ec4	-0.038939252
19	0xbd68f049	-0.05686978
20	0xbdb47c12	-0.08812727
21	0x3b6830a2	0.0035429378
22	0xbcb97dbe	-0.022642966
23	0x3ba0a099	0.004901957
24	0xbb5632b1	-0.0032684023
25	0xbd0008d9	-0.031258438
26	0xbd36c127	-0.0446178
27	0x3c5f8aed	0.013643962
28	0xbcb43508	-0.021997944
29	0x3cffb892	0.03121594
30	0xbc473077	-0.012157551
31	0x3c9e2753	0.01930586
32	0x3cc7f4dc	0.02440875
33	0xbbc4b3ae	-0.006002865
34	0xbd301e0d	-0.04299741
35	0x3cb6fc40	0.022337079
36	0x3c437e72	0.011932002
37	0xbc26c01e	-0.01017764
38	0xbbcc1443	-0.0062280013
39	0xbc8c9fd2	-0.017166052
40	0xbc39d9ea	-0.011343459
41	0xbba58f52	-0.0050524855
42	0xbce0009e	-0.027344044
43	0xbcc9b4e1	-0.024622383
44	0xbd35d72f	-0.04439467
45	0xb8ddfafe	-0.00010584852
46	0xbd0afbc0	-0.033931494
47	0xbba5370a	-0.0050419616
48	0xbc45d212	-0.01207401
49	0x3d241f3b	0.040068846
50	0x3c8615d6	0.016367834
51	0xbcd5c22e	-0.026093569
52	0xbc5e31f6	-0.013561716
53	0xbc016d91	-0.007899658
54	0xbc92490e	-0.0178571
55	0xbd242eec	-0.04008381
56	0x3d0e9581	0.034810547
57	0x3ce3135d	0.027719194
58	0xbd1dffea	-0.038574137
59	0x3d022940	0.03177762
60	0xbb6d17a5	-0.0036177423
61	0xbcd9f9b5	-0.026608327
62	0x3c9cfa50	0.019162327
63	0x3d34b849	0.04412106
64	0x3c3acfad	0.011402053
65	0xbcefbe34	-0.0292655
66	0x3c5c6c8e	0.013453616
67	0x3d13b39d	0.036059964
68	0xbc9b69b7	-0.018971307
69	0xbc5d4694	-0.013505597
70	0x3c906867	0.017627908
71	0xbca59b75	-0.02021573
72	0xbc6feffc	-0.014644619
73	0x3c2a921b	0.010410811
74	0xbb36f516	-0.0027917079
75	0xbbc069dc	-0.0058719944
76	0x3c963329	0.018334942
77	0xbd508184	-0.050904766
78	0xbc8fbe10	-0.017546684
79	0xbd467d11	-0.048459116
80	0x3c936c57	0.017995996
81	0x3ccf081f	0.025272427
82	0xbd2aa9a7	-0.0416657
83	0xbc625187	-0.013813383
84	0xbd10ab22	-0.035319455
85	0xbd26f1ce	-0.040757947
86	0x3bedb225	0.0072539025
87	0x3cba676b	0.022754392
88	0xbd201454	-0.039081886
89	0xbd0f1ece	-0.034941487
90	0x3cd7c289	0.026337879
91	0xbd323747	-0.043509748
92	0xbcdad592	-0.026713166
93	0xbd4bb22b	-0.04973046
94	0xbd42a8c0	-0.047524214
95	0x3ab88fde	0.0014080962
96	0xbbb3aca7	-0.0054832282
97	0xbc24e9a0	-0.010065466
98	0xbbcd4d1d	-0.006265296
99	0xbd178b1e	-0.036997907
100	0xbd3b9af3	-0.045802068
101	0xbd9b5c03	-0.07585909
102	0x3b6f61e9	0.0036526865
103	0xbcf4d02a	-0.029884417
104	0xbbb4a2ec	-0.005512586
105	0xbcce2018	-0.025161788
106	0xbc961f42	-0.018325452
107	0xbc71427b	-0.014725323
108	0x3c4ec674	0.012620557
109	0x3b988ab9	0.004655209
110	0xbcd0113c	-0.025398843
111	0x3ccccb44	0.024999268
112	0x3c147adb	0.009062494
113	0xbc43acc2	-0.011943044
114	0x3cd4ef1d	0.025992924
115	0x3b905ed8	0.0044058375
116	0x3ccde24a	0.025132317
117	0xbc4c2ac7	-0.012461371
118	0x3c8a4f61	0.016883554
119	0xbc42776a	-0.011869291
120	0x3baaa400	0.0052075386
121	0x3c0f47de	0.008745162
122	0xbcb16a4b	-0.02165713
123	0xbc989abf	-0.018628476
124	0xbd2bc713	-0.0419379
125	0xbb5d0f81	-0.0033731165
126	0xbd01193d	-0.03151821
127	0xbb2b0251	-0.002609391
128	0xbd095b2e	-0.03353422
129	0x3c4b5c8d	0.012412203
130	0x3c12dfc9	0.008964487
131	0x3c96fc5f	0.018430887
132	0xbd5a9875	-0.05336805
133	0x3c9fa766	0.019489001
134	0xbd201101	-0.039078716
135	0x3d1e76a7	0.038687374
136	0x3bfd4674	0.007729346
137	0xba585bef	-0.0008253445
138	0x3b8de8d8	0.0043307357
139	0x3d17e88a	0.037087
140	0x3a66624b	0.00087884505
141	0x3cc30d52	0.023810063
142	0xbd212afc	-0.039347634
143	0xbc48f372	-0.012265073
144	0xbcbb680f	-0.022876767
145	0x3c780378	0.015137546
146	0xbcb0fa44	-0.021603711
147	0xbd75f7bf	-0.060050722
148	0x3912e9e6	0.00014010779
149	0x3a9a6d6e	0.001178188
150	0xbca1b3b4	-0.01973901
151	0xbd24df4a	-0.040252008
152	0xbc61bdad	-0.013778132
153	0xbc7c1940	-0.015386879
154	0x3c749b64	0.014929626
155	0xbd2a39dd	-0.04155909
156	0xbce240fe	-0.027618881
157	0xbd107000	-0.03526306
158	0xbc5e6a99	-0.01357522
159	0xbcc03bb8	-0.023465976
160	0x3c5b6444	0.013390604
161	0x3d39569c	0.045248613
162	0xbd28173e	-0.04103779
163	0xbbfc4f3d	-0.0076998756
164	0xbd1ebb77	-0.038753
165	0xbcdaccae	-0.026708927
166	0x3cedbf7d	0.029021973
167	0xbbc9d2d4	-0.006159166
168	0xba112d89	-0.00055380963
169	0x3cf629cf	0.030049233
170	0xbc98bbc5	-0.018644223
171	0x3bbf13e9	0.005831231
172	0x399a0242	0.0002937485
173	0xbd244740	-0.04010701
174	0x3cc37f0b	0.02386429
175	0xbd3d7058	-0.046249717
176	0xbd235cd8	-0.039883465
177	0x3c5c2e06	0.013438707
178	0x3bc7746c	0.0060868766
179	0x3b88f384	0.00417942
180	0xbcc412ad	-0.023934687
181	0x3c874eff	0.01651716
182	0xbcb09fca	-0.021560568
183	0x3c68f5a5	0.0142187225
184	0x3cea241d	0.028581673
185	0x3c7b7c6e	0.015349491
186	0xbc909dcb	-0.017653367
187	0xbb3798f5	-0.0028014753
188	0xbd4e88e8	-0.050423533
189	0xbc5cbd09	-0.013472804
190	0x3d26d591	0.040731017
191	0x3c85b287	0.01632048
192	0x3b24cbbb	0.0025145847
193	0xbc1aa7c6	-0.009439414
194	0x3c972aab	0.018452963
195	0x3ca923bd	0.020646924
196	0x3bf1a3dc	0.00737427
197	0x3cbe010e	0.023193862
198	0x3ce72830	0.028217405
199	0x3cdb60ce	0.026779559
200	0x3d1d0193	0.03833158
201	0xbd12b7bc	-0.035819754
202	0xba1bec73	-0.00059480144
203	0x3c3eb1f9	0.011639112
204	0xbc9e2b74	-0.01930783
205	0xbca2485c	-0.019809894
206	0xbbec3b76	-0.0072092367
207	0xbcd448a2	-0.02591354
208	0xbc21eec9	-0.009883591
209	0x3b8d7c11	0.0043177684
210	0x3d2596d5	0.040427048
211	0x3d255c13	0.040371012
212	0xbca2a524	-0.019854136
213	0x3c3f0104	0.011657957
214	0xbb560afd	-0.0032660358
215	0x3d42347a	0.047413327
216	0x3cff9d60	0.031202972
217	0x3b94fecd	0.004546976
218	0x3d24f658	0.040273994
219	0xbba9afc9	-0.005178426
220	0x3d01d6f8	0.03169915
221	0xbc10e812	-0.008844392
222	0x3ca17313	0.019708192
223	0x3c88ffdb	0.016723564
224	0xbd1263ac	-0.035739586
225	0x3c4804a1	0.012208135
226	0xbd18c73d	-0.037299383
227	0x3c8daf97	0.017295642
228	0xbca3eaee	-0.020009484
229	0x3bf8de89	0.0075948876
230	0x3b216908	0.0024629254
231	0x3cc5400a	0.024078388
232	0xbc83c6c2	-0.016085986
233	0x3c68f180	0.014217734
234	0x3c160aea	0.009157876
235	0xbb305a7d	-0.0026909404
236	0xbcccb7e0	-0.024990022
237	0xbd10481f	-0.03522503
238	0x3af55043	0.0018715936
239	0x3c4c5578	0.012471549
240	0x3cd9c821	0.026584687
241	0xbaee1a39	-0.0018165774
242	0xbd017208	-0.03160289
243	0xbd28df4c	-0.041228577
244	0xbd382bff	-0.044963833
245	0x3d10f386	0.035388492
246	0x3ce7c2d1	0.028291138
247	0x3cf91a50	0.030408055
248	0xbc0e2f52	-0.008678274
249	0xbd1527e3	-0.036414992
250	0xbc0005a4	-0.007813845
251	0x3c180625	0.009278809
252	0xbcec8d19	-0.028875874
253	0x3d0d17fc	0.0344467
254	0x3c71dbc9	0.0147618735
255	0x3d2f01c1	0.042726282

conv2.bias f4 [128]
0	0x3d0bc968	0.034127623
1	0x3beb3273	0.007177645
2	0xba2161ac	-0.0006156217
3	0x3cddadc8	0.027060404
4	0x3c996edd	0.018729622
5	0xbd128d10	-0.03577906
6	0x3c704a04	0.014666084
7	0x3ca949fb	0.02066516
8	0xbc4a3742	-0.012342276
9	0x3d15d3d3	0.036578964
10	0xbd33a102	-0.04385472
11	0xbcb9c471	-0.022676678
12	0x39470432	0.00018979682
13	0xbcc4142a	-0.023935396
14	0x3cdc1261	0.026864232
15	0x3cd8323d	0.026391143
16	0x3cf6fbcc	0.030149363
17	0xbd167641	-0.03673387
18	0xbc814a27	-0.015782429
19	0xbd14a730	-0.036292255
20	0x3c50b1c7	0.012737698
21	0x3c8d60de	0.017258104
22	0xbd0278d6	-0.03185352
23	0x3b83eeaa	0.0040262537
24	0x3c9957c0	0.0187186
25	0x3c4c2a10	0.0124612
26	0xbd3575f6	-0.04430195
27	0xbc4824e4	-0.012215827
28	0x3c06f17e	0.008236287
29	0x3cea1222	0.0285731
30	0x3d3e2735	0.04642411
31	0xbcddea3b	-0.027089229
32	0xbb323003	-0.0027189262
33	0x3d21fc23	0.039547097
34	0xbc99d0cf	-0.018776326
35	0xbc03c2b0	-0.008042023
36	0xbcf12f6d	-0.02944156
37	0xbc44346d	-0.01197539
38	0x3ce2d1bc	0.0276879
39	0xbc917170	-0.017754287
40	0x3d079b12	0.03310687
41	0x3ca25352	0.01981512
42	0x3d218f8e	0.039443545
43	0xbc474ffb	-0.012165065
44	0x3d0bc1ad	0.03412025
45	0xbc11b9df	-0.008894413
46	0x3c864e60	0.016394794
47	0x3ca169d3	0.019703781
48	0xbc0104ed	-0.00787471
49	0x3cc5bb4d	0.024137164
50	0x3cf2eac7	0.029652966
51	0xbb0e4665	-0.002170944
52	0xbc46d050	-0.0121346265
53	0xbc8a483e	-0.01688015
54	0x3c9f3d75	0.019438485
55	0xbd2992cc	-0.041399762
56	0x3d0dafd8	0.034591526
57	0x3ce2000d	0.027587915
58	0xbd0e5bc3	-0.03475548
59	0x3d21f9f4	0.039545015
60	0x3cdf56c7	0.027263058
61	0xbcbf602e	-0.023361292
62	0xba1e8f16	-0.0006048543
63	0x39a01047	0.00030529706
64	0xbc1eb3b5	-0.0096864
65	0xbd153971	-0.036431734
66	0x3c15ef44	0.009151284
67	0xbca3b45a	-0.01998346
68	0x3ca7936a	0.020456035
69	0xbd25c79e	-0.040473573
70	0x3adb3a55	0.0016725758
71	0xbcd6bf4b	-0.026214262
72	0x3c094a99	0.008379602
73	0x3d0cd424	0.034382
74	0xbcd0315b	-0.02541416
75	0xbcca2e1e	-0.024680194
76	0xbd0cb2f2	-0.034350343
77	0x3d30feac	0.043211624
78	0x3cfda5e3	0.03096289
79	0xbd087f58	-0.03332457
80	0x3d207490	0.039173663
81	0xbd12c451	-0.035831753
82	0x3b12495b	0.0022321555
83	0x3d4bb0a9	0.049729023
84	0xbc0fb50e	-0.008771194
85	0x3d00066c	0.031256124
86	0x3cddf468	0.027094081
87	0x3bb0af93	0.005392024
88	0xb8868943	-6.415185e-05
89	0xbca46803	-0.020069128
90	0xb9f58d59	-0.00046835354
91	0x3d391234	0.045183375
92	0xbc64ca60	-0.013964266
93	0x3cd95818	0.026531264
94	0x3b8787ca	0.0041360604
95	0xbd16dac7	-0.036829736
96	0xbc8151c2	-0.015786055
97	0xbce10a3e	-0.027470704
98	0x3bcc4b4f	0.0062345634
99	0xbce0dffd	-0.027450556
100	0xbcc111b9	-0.023568021
101	0xbc959871	-0.018261166
102	0xbbf248fa	-0.0073939534
103	0xbd27fe66	-0.041014098
104	0xbc9a7700	-0.018855572
105	0x3d068487	0.03284123
106	0xbbb1461e	-0.00540997
107	0xbc017306	-0.007900959
108	0x3cfdede7	0.03099723
109	0x3afa15fb	0.0019080037
110	0x3bad971b	0.005297554
111	0x3c1201e8	0.008911587
112	0xbbd83d23	-0.006599085
113	0xbcea2f11	-0.028586896
114	0xbcb170a9	-0.021660166
115	0xbbb5ad73	-0.0055443584
116	0xbc944ddf	-0.018103538
117	0xbd29fec8	-0.041502744
118	0x3ace471c	0.0015737745
119	0xbcf5da85	-0.030011425
120	0xbb8c8795	-0.0042886236
121	0x3cd050b9	0.025429117
122	0x3b3eaafc	0.0029093614
123	0xbd06473b	-0.032782774
124	0xbcfb94cf	-0.030710606
125	0x3c6f06e1	0.014589042
126	0xbc4f7aa9	-0.012663522
127	0xbbfbcc6d	-0.0076842816

deconv1.weight f4 [128, 64, 3, 3]
0	0xbcddd6e3	-0.027080005
1	0x3c31e06b	0.010856728
2	0xbd2b1b36	-0.041773997
3	0xbd17585e	-0.036949508
4	0x3ccd49a1	0.025059523
5	0xbd3decba	-0.04636834
6	0xbc818f5c	-0.01581543
7	0xbd026002	-0.03182984
8	0xbcaa3952	-0.020779286
9	0x3b314353	0.0027048185
10	0xbc2fc324	-0.0107276775
11	0x3d48c1c6	0.04901292
12	0x3b43a48b	0.0029852714
13	0xbb117af8	-0.002219854
14	0x3cca24b8	0.024675712
15	0xb9f2865b	-0.0004625794
16	0xbd0679fd	-0.03283118
17	0xbca7e197	-0.020493312
18	0x3bd3fe22	0.006469504
19	0xbd29fbbc	-0.04149984
20	0x3cb98a3e	0.022648927
21	0x3cad8262	0.021180335
22	0xbc849a11	-0.016186746
23	0xbc8f79f4	-0.017514206
24	0x3d213c3c	0.039364085
25	0xbcd8e9e5	-0.026478717
26	0x3bdde5f8	0.006771799
27	0x3d20bb8e	0.039241366
28	0x3ccfaaad	0.02534994
29	0xbc5cd5aa	-0.013478676
30	0x3d281f42	0.041045435
31	0x3c9ff9ca	0.019528288
32	0xbd06f42c	-0.032947704
33	0xbcbf01a1	-0.023316206
34	0x3b674f73	0.0035295158
35	0xbc20a0e4	-0.009803984
36	0x3a85719d	0.0010180954
37	0x3c9377b7	0.01800142
38	0xbd165f46	-0.036711954
39	0xbd043b26	-0.03228297
40	0x3d3d89fe	0.046274178
41	0x3ca57db9	0.02020155
42	0x3bfaea78	0.0076573454
43	0x3cfa07d8	0.030521318
44	0x3d392004	0.045196548
45	0x3c9b8df7	0.018988593
46	0xbce4bbb0	-0.027921528
47	0xbd291433	-0.04127903
48	0x3cbe5870	0.02323553
49	0xbcf3ff9d	-0.029784972
50	0xbd2f4766	-0.0427927
51	0x3c675f67	0.014121867
52	0x3bc93c0d	0.006141192
53	0x3b36820a	0.0027848505
54	0x3c59782e	0.013273282
55	0xbd431f33	-0.047637176
56	0xbd47df3a	-0.04879687
57	0xbd435809	-0.04769138
58	0xbcc1d22d	-0.02365979
59	0xbd27b216	-0.04094132
60	0xbd4f24b8	-0.050572127
61	0x3ca2a2e7	0.019853069
62	0xbd653bde	-0.055965297
63	0x3c128d65	0.008944844
64	0x3c5ae1b4	0.013359476
65	0x3d36258a	0.044469394
66	0xbbd5994b	-0.006518518
67	0x3cb70d89	0.022345321
68	0x3d389e53	0.045072865
69	0x3d2dcd6c	0.042432234
70	0x3c32889f	0.010896831
71	0xbbf97588	-0.007612888
72	0x3c8f7dd7	0.01751606
73	0x3b40b8c8	0.0029407013
74	0xbc809860	-0.015697658
75	0xbd22a908	-0.039711982
76	0x3cc98b48	0.024602547
77	0x3c8ef690	0.017451555
78	0xbd18e60b	-0.03732876
79	0x3d0d125d	0.03444134
80	0xbd101de6	-0.035184763
81	0xbd184bd7	-0.0371817
82	0x3cdef591	0.027216705
83	0x3c221a51	0.00989397
84	0x3c95ee6e	0.018302169
85	0x3ced1834	0.028942205
86	0x3c83eee1	0.016105117
87	0x3c8833f9	0.016626345
88	0x3cc2804b	0.023742815
89	0x3d09ddba	0.03365872
90	0xbd46ad4c	-0.048505113
91	0xbd3858b5	-0.045006473
92	0xbd2a0032	-0.041504093
93	0xbd8b38db	-0.06797954
94	0xbc917229	-0.017754631
95	0xbc6c35b0	-0.014417097
96	0xbd33186c	-0.043724462
97	0xbca064c0	-0.019579291
98	0xbcac3d5e	-0.021025356
99	0xbd83ca6e	-0.06435095
100	0xbbf8ad58	-0.0075890236
101	0xbcf289ab	-0.02960666
102	0xbd896759	-0.06709165
103	0xbce071d0	-0.02739802
104	0xbd7e055f	-0.06201684
105	0x3bfa34c2	0.0076356838
106	0x3c55bae6	0.013045048
107	0xbd377418	-0.04478845
108	0x3d10e2c7	0.03537252
109	0xbba93af6	-0.0051644994
110	0x3c99ef7e	0.018790957
111	0xbd069d84	-0.032865062
112	0x3cc9e1a1	0.024643721
113	0xbacbdbe3	-0.0015553202
114	0xbb582605	-0.0032981646
115	0x3d08adea	0.033368982
116	0x3ce7a468	0.028276637
117	0xbc39195c	-0.01129755
118	0xbcfc4b3c	-0.030797593
119	0xbd27f4f0	-0.041005075
120	0x3d06029d	0.032717336
121	0x3ce3f44f	0.027826456
122	0xbd3ed2b6	-0.04658767
123	0xbca096cf	-0.019603161
124	0xbced2660	-0.028948963
125	0x3c8a1026	0.016853403
126	0x3d273a60	0.040827155
127	0xbc9832d0	-0.018578917
128	0x3d25ed02	0.04050923
129	0x3d10057a	0.035161473
130	0x3c941deb	0.018080672
131	0x3c136836	0.008997014
132	0xbd03c306	-0.03216841
133	0x3d2266da	0.03964887
134	0xbd0ec1d1	-0.034852806
135	0x3d2df87d	0.042473305
136	0xbd0c2e89	-0.034224067
137	0x3d0d51b2	0.03450174
138	0xba492ef5	-0.00076745386
139	0xbd14d200	-0.036333084
140	0x3d25f983	0.040521156
141	0x3cd70329	0.026246624
142	0x3ceb9919	0.028759526
143	0xbd2ad3a1	-0.04170573
144	0x3d37791b	0.04479323
145	0x3ceb4ad9	0.028722214
146	0x3ce10ab6	0.027470928
147	0xbbb8c1df	-0.0056383456
148	0xbc1ad62b	-0.009450476
149	0xbd051c1c	-0.03249751
150	0x3c0361f0	0.008018956
151	0x3c9bee7c	0.019034617
152	0xbcfee3c7	-0.031114472
153	0x3cbfd84a	0.023418564
154	0xbcd41c9d	-0.02589255
155	0xbcff4b71	-0.031163903
156	0x3c4abc2a	0.012373963
157	0xbcb16ab3	-0.021657323
158	0x3d18378f	0.03716236
159	0xbc9221ef	-0.017838446
160	0xbc78bc7f	-0.01518166
161	0xbbd4584e	-0.0064802533
162	0xbb5777a2	-0.0032877703
163	0xbcffa6e3	-0.031207507
164	0xbcba1021	-0.022712769
165	0x3c18ea4c	0.0093332045
166	0x3ce0668f	0.027392654
167	0xbaf11b36	-0.001839495
168	0x3d083017	0.033248987
169	0x3bc75c10	0.0060839728
170	0x3c6f2d50	0.014598206
171	0xbc1a7a92	-0.009428637
172	0x3bf88f35	0.007585431
173	0x3ce236c6	0.027614009
174	0xbcbdaccb	-0.023153683
175	0x3cb106bb	0.021609655
176	0x399233f9	0.00027886013
177	0xbd0fff23	-0.035155427
178	0xbc0d3532	-0.00861864
179	0xbd044f0b	-0.032301944
180	0x3d04a5a8	0.032384545
181	0x3c0ef888	0.008726247
182	0xbca8412a	-0.020538885
183	0x3c07f55d	0.008298245
184	0xbcdf0e2a	-0.027228434
185	0x3c11d520	0.008900911
186	0x3c9675d5	0.018366734
187	0xbbb01c53	-0.0053744703
188	0xbcd4c504	-0.02597285
189	0xbd097a84	-0.033564106
190	0xbca2bc61	-0.019865217
191	0xbc44385f	-0.011976331
192	0xbcb6afe8	-0.022300676
193	0xbbe01277	-0.0068381387
194	0x3c417596	0.01180782
195	0x3ceae632	0.028674219
196	0xbd209fce	-0.0392149
197	0xbc938636	-0.018008333
198	0x3bbed411	0.00582362
199	0xbd2e450e	-0.042546324
200	0xbd0ed45a	-0.034870483
201	0xbd2daacf	-0.042399224
202	0xbd1714be	-0.036885016
203	0xbd1428c1	-0.03617168
204	0xbd46de60	-0.048551917
205	0x3cc5a175	0.02412484
206	0xbd28df50	-0.041228592
207	0x3c8c73ff	0.017145155
208	0x3ca6e6d8	0.020373747
209	0x3ce1b3bf	0.02755153
210	0xbba3f6ea	-0.0050037997
211	0xbcb5fe4f	-0.02221599
212	0x3cd8ff8d	0.026489044
213	0x3c51b895	0.012800355
214	0xbce18e3c	-0.027533643
215	0xbcb0e3dc	-0.021593027
216	0x3d1ed6d1	0.038779084
217	0x3d13bde5	0.03606977
218	0xbcfbb366	-0.030725192
219	0xbcc72630	-0.024310201
220	0x3ad5bdcf	0.0016307178
221	0x3cf518f4	0.029919125
222	0xbc4a093d	-0.012331304
223	0x3c301072	0.010746108
224	0xbca13c46	-0.01968206
225	0x3bb3e136	0.0054894937
226	0x3c768ba8	0.015047945
227	0xbb855a51	-0.0040696044
228	0x3cd1ef8a	0.025626916
229	0xbca0e9ef	-0.019642798
230	0x3d2aac7f	0.04166841
231	0xbce6c727	-0.028171135
232	0xbaa4a36d	-0.0012560912
233	0xbcaa7d28	-0.020811632
234	0x3d222a1d	0.039590944
235	0xbc9f2b47	-0.019429816
236	0x3d1d93d7	0.03847107
237	0x3d2c3afb	0.042048436
238	0xbce5e78a	-0.028064508
239	0xbc83e387	-0.016099704
240	0x3d0881e1	0.033326987
241	0xbcc1157e	-0.023569819
242	0xbb9eeb01	-0.004849792
243	0xbbcb1238	-0.00619724
244	0xbc5f3097	-0.013622425
245	0x3bccfd88	0.006255809
246	0xbcca3188	-0.024681821
247	0x3c3ed8e0	0.011648387
248	0x3c3a767a	0.011380786
249	0x3ccd41ff	0.025055883
250	0x3d0dae24	0.0345899
251	0x3c54f7a1	0.012998492
252	0xbc2ea534	-0.010659505
253	0x3d2533ba	0.040332533
254	0x3b92f6c4	0.004484983
255	0xbd431e08	-0.047636062

deconv1.bias f4 [64]
0	0xbca5ef0f	-0.020255594
1	0xbd442360	-0.0478853
2	0x3d1c4b52	0.03815777
3	0x3c5c0c6f	0.013430699
4	0x3d038a0d	0.032114077
5	0xba5ddbb5	-0.000846322
6	0x3ce540c1	0.027984979
7	0x3cacf23d	0.021111602
8	0xbcc99642	-0.024607781
9	0x3d2fdb4a	0.04293374
10	0x3b97f7c8	0.004637692
11	0x3d28d274	0.04121633
12	0x3cc8fa5f	0.024533449
13	0x3d344d01	0.04401875
14	0x3d1e5309	0.038653407
15	0xbc022d5b	-0.007945384
16	0x3d1a252f	0.037633117
17	0x3b780d72	0.003784981
18	0xbcd930c3	-0.02651251
19	0xbd1f6e28	-0.038923413
20	0x3ba6e5a2	0.0050932923
21	0x3b545892	0.0032401425
22	0x3d17f387	0.03709748
23	0x3d85259b	0.06501313
24	0xbd1dce39	-0.038526747
25	0x3cc6fcc3	0.024290448
26	0xbc07231d	-0.008248118
27	0x3d01b2b9	0.031664584
28	0x3d22be2c	0.039732143
29	0xbcdbe9b9	-0.026844846
30	0xbc99208e	-0.018692281
31	0x3d206542	0.039159067
32	0x3d26b723	0.040701997
33	0x3d26b4a0	0.0406996
34	0x3c98b396	0.01864032
35	0x3d1cb887	0.038261916
36	0xbd25ee28	-0.040510327
37	0x3d117b4f	0.035517987
38	0x3c8255ba	0.015910018
39	0x3d2d67d4	0.042335346
40	0x3d19bceb	0.03753368
41	0x3d30a115	0.04312237
42	0xbc64d45e	-0.013966648
43	0xbd0a18ac	-0.033714935
44	0x3d014702	0.03156186
45	0xbc5c1e99	-0.013435029
46	0x3a8052c8	0.0009790296
47	0xbce3a553	-0.027788794
48	0xbbe42f35	-0.0069636353
49	0xbd08f4b7	-0.033436503
50	0x3d5f8591	0.05457074
51	0x3d2d9b03	0.04238416
52	0xbcdc3be1	-0.026884021
53	0x3d4b0034	0.04956074
54	0x3cbec3cb	0.02328672
55	0x3c94d619	0.018168496
56	0x3bf5482d	0.0074854107
57	0x3c2cd1ab	0.010548036
58	0x3d0f1a52	0.03493721
59	0xbd2fa40a	-0.04288105
60	0xbd09db94	-0.03365667
61	0xbcba9ab2	-0.022778843
62	0x3c99d11f	0.018776475
63	0x3d2ca22d	0.04214685

deconv2.weight f4 [64, 64, 3, 3]
0	0x3cccf06e	0.02501699
1	0xbd2a5a27	-0.041589882
2	0xbc8a9d39	-0.016920673
3	0x3cc9383f	0.024562953
4	0x3cc2a509	0.023760336
5	0x3c781fd5	0.015144308
6	0xbd0a9b9e	-0.033839814
7	0xbc39c99d	-0.011339572
8	0x3bf621ed	0.0075113685
9	0x3bd42c31	0.0064749946
10	0xbd0a1b15	-0.033717234
11	0xb96312e6	-0.00021655447
12	0xbcbbb4a1	-0.022913279
13	0xbd1e5943	-0.038659345
14	0xbd01bbf1	-0.031673376
15	0xbc8b7109	-0.017021673
16	0x3cc19c21	0.023634018
17	0xbb59b307	-0.003321828
18	0x3cffd6cd	0.031230355
19	0x3cf6ad0e	0.030111816
20	0x3d031988	0.03200677
21	0x3c7db4f7	0.01548504
22	0xbced368d	-0.028956676
23	0xbb55b8cc	-0.0032611368
24	0x3d0f0612	0.0349179
25	0x3c93858d	0.018008018
26	0xbd10df86	-0.03536942
27	0xbcbf6b34	-0.023366548
28	0xbcde11d5	-0.027108112
29	0x3d0f175e	0.034934394
30	0x3cf142cf	0.029450802
31	0xbc2376c6	-0.009977048
32	0x3cee88ad	0.029117906
33	0x3d220352	0.039553948
34	0xbcecc1db	-0.028901031
35	0xbc7c31d5	-0.01539274
36	0xbd1258c0	-0.03572917
37	0x3d06e37c	0.03293179
38	0xbc5156e2	-0.012777062
39	0xbc8bd9d6	-0.017071646
40	0x3cfd3013	0.030906713
41	0x3c9e7f1a	0.019347716
42	0xbbe14044	-0.006874116
43	0x3cfb0440	0.030641675
44	0x3cdbdc88	0.026838556
45	0x3d165c79	0.036709283
46	0x3d223c11	0.039608065
47	0x3c295540	0.010335267
48	0x3b00058d	0.0019534559
49	0x3d0b9a1f	0.03408253
50	0xbc332157	-0.010933242
51	0x3d0ed64f	0.03487235
52	0x3d1d6b0b	0.038432162
53	0x3d2e388c	0.042534396
54	0xbc8e7e3d	-0.01739418
55	0x3bcd5c04	0.0062670726
56	0xbb302176	-0.0026875413
57	0x3cc78152	0.024353657
58	0xbcc15154	-0.02359835
59	0x3bc660b8	0.0060540102
60	0xbb2dee4f	-0.0026539748
61	0x3ad6e46c	0.0016394979
62	0x3b4cf3e5	0.0031273302
63	0xbc251966	-0.010076856
64	0xbcac20f2	-0.021011803
65	0xbc94afbc	-0.018150203
66	0xbbfecdbf	-0.0077759917
67	0x3c8e372c	0.017360292
68	0x3d0244a6	0.03180375
69	0xbc69ecee	-0.01427768
70	0x3cb26e7a	0.021781195
71	0x3cfd4485	0.030916462
72	0x3b9f0a76	0.004853542
73	0x3d1582af	0.036501583
74	0x3c8b56bf	0.017009137
75	0xbd0ea48e	-0.0348249
76	0xbd22147b	-0.039570313
77	0x3d1c17d4	0.03810866
78	0x3b0539a2	0.0020328541
79	0x3cc14a2d	0.02359494
80	0xbc3c68ea	-0.011499623
81	0xbc40c4b0	-0.011765644
82	0xbc33c481	-0.010972143
83	0x3cc258f0	0.02372405
84	0xbbd7d9ee	-0.0065872585
85	0x3c9e5b0d	0.019330526
86	0xbccc9987	-0.024975551
87	0xbc89d481	-0.016824963
88	0x3ca0de0a	0.019637126
89	0x3cba3293	0.022729194
90	0x3b88ee2b	0.0041787825
91	0xbd1dd2cb	-0.038531106
92	0x3ce61258	0.028084919
93	0x3d1690c1	0.03675914
94	0xbd030e87	-0.031996276
95	0x3d16c39a	0.036807634
96	0x3c539ecb	0.012916277
97	0x3c8cd09e	0.01718932
98	0x3ca49ab9	0.020093309
99	0xbc9add44	-0.018904336
100	0x3c5b89e0	0.013399571
101	0xbc1cd6ff	-0.009572743
102	0x3ccc2c1d	0.024923379
103	0x3c1b5c24	0.009482417
104	0x3d2470a9	0.040146504
105	0xbc888c65	-0.016668508
106	0x3d4a838b	0.049441855
107	0x3d04cc16	0.032421194
108	0x3d0ae8da	0.03391347
109	0x3d00e625	0.031469483
110	0x3ceae9cb	0.028675934
111	0xbb3d1c1b	-0.0028855863
112	0xbcab6f25	-0.020927021
113	0xbd022646	-0.03177478
114	0x3bb94a17	0.005654584
115	0xbc2b09a5	-0.010439311
116	0xbcd79cc1	-0.026319863
117	0xbc871fd9	-0.016494678
118	0x3cd06077	0.025436623
119	0x3b4c66cc	0.0031189201
120	0xba5b73b8	-0.00083714304
121	0xbd171c97	-0.0368925
122	0x3d2602c8	0.040529996
123	0xbcc92106	-0.02455188
124	0x3acd568b	0.0015666051
125	0xbd0d4c33	-0.034496497
126	0xbd094868	-0.033516318
127	0xbd023f8f	-0.031798895
128	0x3d0fb763	0.035087
129	0xbd048a7e	-0.03235864
130	0xbc2fab32	-0.0107219685
131	0xbaeda4a0	-0.0018130727
132	0x3c15ef08	0.009151228
133	0x3ca2e8e4	0.019886442
134	0x3cfe1f20	0.031020701
135	0x3b43f88f	0.002990279
136	0xbc2ac071	-0.010421858
137	0x3bd691e2	0.0065481523
138	0x3c5eec5e	0.013606159
139	0x3c404eab	0.011737506
140	0xbcf13fcd	-0.029449368
141	0xbb843e72	-0.0040357644
142	0x3bc8ab66	0.006123948
143	0xbced7988	-0.028988615
144	0xbbf8b18c	-0.0075895246
145	0x384a813f	4.8280923e-05
146	0xbcd7fbf8	-0.026365265
147	0x3d1356be	0.035971396
148	0xbd04fba4	-0.032466546
149	0x3cb2a9dd	0.021809513
150	0x3cd961f6	0.02653597
151	0x3ca62dae	0.020285454
152	0x3cdb18bc	0.026745193
153	0xbb764129	-0.003757546
154	0xbcfaa586	-0.030596506
155	0xbcf811e0	-0.030281961
156	0x3cf556e8	0.029948667
157	0xbcb25fe8	-0.021774247
158	0x3ca68159	0.02032535
159	0x3c04e164	0.008110378
160	0x3c6b8db7	0.014377049
161	0x3c7fb8e3	0.015608045
162	0x3d207f51	0.03918392
163	0xbd0e5f2c	-0.03475873
164	0x3bbd8479	0.0057836142
165	0x3cc0790d	0.023495222
166	0x3d0d87b2	0.034553237
167	0xbd10faac	-0.03539531
168	0xbcc7b683	-0.02437902
169	0x3d061f0b	0.03274445
170	0xbcc8005a	-0.02441423
171	0x3b82a388	0.0039867796
172	0x3d23750e	0.039906554
173	0x3cf79f0a	0.030227203
174	0x3cbaabd0	0.022787005
175	0x3d33a456	0.043857895
176	0xbab90a18	-0.0014117388
177	0x3c5294a5	0.012852822
178	0x3cd2f77a	0.025752772
179	0x3d5234ec	0.05132
180	0x3d045a9c	0.032312974
181	0x3be25768	0.0069073923
182	0x3c52832b	0.012848656
183	0x3d06bcdb	0.03289495
184	0x3c2f5111	0.01070048
185	0xbd11be36	-0.03558179
186	0xbd205523	-0.039143693
187	0xbcd13b69	-0.025541024
188	0xbc420df2	-0.011844145
189	0xbce6c81b	-0.02817159
190	0x3c89e220	0.016831458
191	0x3b377789	0.0027994832
192	0xbcaf4485	-0.021394977
193	0x3b973e15	0.004615555
194	0xbb2ca2c4	-0.0026342133
195	0x3d2b239c	0.041782007
196	0x3cae2978	0.021260008
197	0xbcaa9cf9	-0.020826804
198	0xbc03dfeb	-0.008048992
199	0xbc2a022e	-0.010376496
200	0xbcba7120	-0.02275902
201	0x3d376c71	0.044781152
202	0x3ccdca6a	0.025120933
203	0x3c807da0	0.015684903
204	0x3c7f7191	0.015591041
205	0xbca9580e	-0.02067187
206	0x3c57607d	0.013145563
207	0xbd2be40c	-0.04196553
208	0x3c11b332	0.008892821
209	0xbbafc107	-0.005363587
210	0xbd0dd32c	-0.034625217
211	0xbcf56e22	-0.029959742
212	0x3d2262dc	0.03964506
213	0x3c74ab73	0.014933455
214	0xbbfe246c	-0.0077558067
215	0xbd0353e9	-0.032062445
216	0x3ce72874	0.028217532
217	0xbc43f490	-0.011960164
218	0x3ba99bfe	0.0051760664
219	0xbd0c31d7	-0.03422722
220	0xbd13db59	-0.036097858
221	0xbcd24709	-0.025668638
222	0x3c6b0a1d	0.014345673
223	0x3cdc8fad	0.026923979
224	0xbbf4413e	-0.0074540665
225	0x3c9d81e6	0.01922698
226	0xbc78bd75	-0.015181889
227	0x3d32c617	0.043645944
228	0x3c6b5164	0.014362667
229	0x3d058c61	0.03260458
230	0xbc8debdf	-0.017324386
231	0xbce64686	-0.0281098
232	0x3d23d501	0.03999806
233	0x3aaa1ba2	0.0012978206
234	0x3d105d52	0.035245247
235	0xbca13577	-0.019678814
236	0xbcbbbd29	-0.022917347
237	0xbcf9226b	-0.03041192
238	0xbc127798	-0.008939646
239	0xbd28a90d	-0.041176844
240	0xbd046608	-0.032323867
241	0x3d09ca9a	0.03364048
242	0xbce5fd3c	-0.028074853
243	0x3c52c230	0.012863681
244	0x3c7caa00	0.0154213905
245	0x3c918ad6	0.017766397
246	0x3c177123	0.0092432825
247	0x3c065e4d	0.008201194
248	0xbc905307	-0.017617716
249	0x3b2af0a2	0.002608337
250	0x3c2c245c	0.010506716
251	0xbc415b9c	-0.0118016265
252	0xbc2b0cbb	-0.010440047
253	0xba3aca8d	-0.00071255193
254	0xbc7ad851	-0.015310363
255	0xbd22527f	-0.039629456

deconv2.bias f4 [64]
0	0x3c7e67a7	0.015527642
1	0xbd180b4b	-0.037120145
2	0xbb1e76a6	-0.0024179607
3	0xbcd810dd	-0.026375229
4	0xbc416aff	-0.011805295
5	0xbc97c384	-0.018525846
6	0x3d06b8a7	0.032890942
7	0x3d39a7cf	0.04532605
8	0xbd2675c0	-0.04063964
9	0x3d7eea42	0.062235124
10	0xbc033ce4	-0.008010123
11	0xbba437eb	-0.0050115488
12	0x3c37763b	0.011197622
13	0x3a4ee139	0.0007891837
14	0x3c0ada15	0.008474846
15	0x3c5c5df2	0.013450133
16	0xbc9b8495	-0.018984118
17	0xbd1059db	-0.035241943
18	0x3c8df333	0.01732788
19	0xbccbfc48	-0.02490057
20	0x3d3d5d8b	0.046231788
21	0xbc719d1a	-0.014746929
22	0xbda4eefa	-0.08053394
23	0x3b2bdf28	0.002622554
24	0x3d01af2c	0.031661198
25	0x3c6f6a72	0.014612781
26	0x3d075d0f	0.033047732
27	0x3b834e47	0.004007134
28	0x3d3a43fc	0.04547499
29	0xbd90a943	-0.07063534
30	0x3d686a8b	0.056742232
31	0xbce32464	-0.027727313
32	0xbc52eb78	-0.012873523
33	0xbc00d594	-0.007863421
34	0x3d04b159	0.032395694
35	0x3aa95517	0.0012919036
36	0x3cfe002f	0.031005947
37	0xbd3bac94	-0.04581888
38	0xbc4517b5	-0.012029578
39	0x3c845b87	0.016156925
40	0x3d273b58	0.04082808
41	0xbd9c5e40	-0.07635164
42	0xbc1e1206	-0.009647852
43	0x3d19d0d1	0.03755266
44	0xbd0f026e	-0.034914427
45	0x3d411061	0.04713476
46	0x3c8abb82	0.016935114
47	0xbd334835	-0.043770034
48	0xbd87ccaf	-0.06630837
49	0x3c57f7f6	0.013181677
50	0xbd4ec6e6	-0.050482653
51	0x3d0de91a	0.03464613
52	0xbd61dd81	-0.055142883
53	0xbd081a1d	-0.03322803
54	0x3d197690	0.037466586
55	0x3ba36515	0.004986415
56	0xbcdcea27	-0.026967121
57	0xbd619ef5	-0.055083234
58	0xbb97d235	-0.004633213
59	0x3ca1c579	0.019747483
60	0x3ce217c0	0.027599216
61	0x3c3e6671	0.011621104
62	0x3c70f191	0.014706031
63	0x3bac64a4	0.0052610207
