contrastive_save/contrastive_weights_epoch_59.pt (torch, 749116 bytes, 8 tensors)

conv1.weight f4 [64, 3, 3, 3]
0.07467351 -0.10365352 0.034616306 0.06794583 0.08073023 -0.1145416 0.13865869 -0.11235448
-0.17827614 0.09024413 -0.13500689 0.09666917 -0.14830631 -0.042491507 0.20590506 0.06470269
0.1271128 0.1940177 -0.19022086 -0.013299702 -0.1717772 -0.024281774 -0.22623792 -0.013952651
-0.069300205 -0.13460733 -0.11145568 -0.13811217 -0.009827665 -0.14193821 0.023633298 0.024696752
0.016052864 -0.1603832 0.15604642 0.12265077 -0.22751836 0.11468129 0.074500225 -0.06496879
-0.01326549 -0.1888106 -0.2210565 -0.23198237 -0.21401893 0.11717797 -0.114927344 0.006523379
0.17926227 0.13734186 0.15410885 -0.14453493 0.039416283 0.17322057 -0.1747593 -8.5332e-05
-0.086949766 -0.076078475 0.004774823 -0.0748678 -0.101532295 0.08262163 -0.056231685 0.004620381
0.11111486 0.0556857 -0.16671099 0.18348625 0.17072685 0.18033122 0.020071067 0.006751478
-0.09487321 -0.1498563 -0.038945764 0.11889353 0.121465385 -0.020972602 0.10354081 0.022026055
-0.0028301454 -0.20308797 -0.038891066 0.18027385 -0.022348506 0.0050840206 0.102469146 -0.18080328
0.16689424 -0.014029968 -0.13512479 0.00062790466 0.11695183 -0.028432691 -0.12805735 0.08601472
-0.03564967 0.082950376 -0.14641657 0.085655235 0.06495362 -0.1235436 -0.07840046 0.0128392335
0.1575663 -0.17568894 0.17111796 -0.09211362 0.010489684 0.0022062194 0.03166622 0.107887685
-0.07847679 -0.16873607 -0.095901355 0.039222226 -0.063834675 0.02994123 -0.09675956 -0.08065993
0.22929166 0.12841377 0.18688849 -0.13847554 -0.042637598 -0.08779995 -0.085451044 -0.047753498
-0.044584893 -0.16322164 -0.032886565 0.08501527 0.13361698 0.056774944 -0.028651305 -0.029287811
0.15886514 -0.1605558 0.08827032 -0.108617954 -0.21245211 0.15606219 0.06608575 0.0661055
-0.19288622 0.09791482 0.117124274 0.16733043 0.11139993 -0.2231523 -0.08373263 -0.17726466
0.006473541 0.02041368 -0.027461074 0.09988364 -0.18451641 0.06554886 -0.03210941 0.1777187
0.12731518 -0.12141816 -0.06464925 0.12235968 -0.032015257 0.018853875 0.19617194 -0.07822357
0.028469112 0.06875914 -0.11920482 0.028846012 -0.0480249 0.0006389044 0.03279623 0.022771824
-0.16581997 -0.16669662 -0.0024047983 -0.14722238 0.003714885 -0.11738392 -0.21096265 -0.051552318
-0.116715916 -0.2404257 0.017630177 -0.022189787 0.060655676 -0.23087017 -0.24005765 -0.25771698
-0.16767792 -0.25543165 -0.042915292 -0.052302964 -0.29764047 -0.13057345 -0.058186434 -0.019343462
0.09835237 0.2003666 -0.07090302 -0.16238959 0.020899406 0.09885206 -0.050373167 -0.08996929
0.09504306 0.058308333 0.1970223 0.025632685 0.068847835 0.032584116 -0.08663009 -0.053316116
-0.14315593 0.16418464 -0.09199782 -0.08545581 -0.16367704 0.1832252 -0.13057077 -0.20487592
0.083719164 0.04317688 0.1441009 0.118487865 0.09661425 -0.14030318 0.15116796 0.08651279
0.09615397 -0.15949361 0.15769099 0.105439715 0.053498033 -0.11846522 0.01892122 0.037782077
0.055758897 -0.122844316 -0.20566118 -0.11651247 -0.20604955 -0.048075426 -0.21861753 0.06624234
-0.15925866 -0.21787243 -0.12946333 -0.17834416 -0.08796869 -0.23494439 -0.09039641 -0.033344634
00000000: 6dee 983d 4c48 d4bd d4c9 0d3d 2f27 8b3d
00000010: e455 a53d c994 eabd 8bfc 0d3e 1b1a e6bd
00000020: 058e 36be ead1 b83d 3f3f 0abe 7cfa c53d
00000030: 9cdd 17be 930b 2ebd c7d8 523e d882 843d
00000040: dc29 023e 93ac 463e 42c9 42be fee6 59bc
00000050: 5de6 2fbe 92ea c6bc eaaa 67be a999 64bc
00000060: 44ed 8dbd 81d6 09be e042 e4bd 476d 0dbe
00000070: 3704 21bc 4058 11be 9e9a c13c d850 ca3c
00000080: 4c81 833c 7e3b 24be a2ca 1f3e 5430 fb3d
00000090: 93fa 68be 06de ea3d 9393 983d 5b0e 85bd
000000a0: 7f57 59bc 9157 41be a35c 62be c98c 6dbe
000000b0: c727 5bbe 01fb ef3d 075f ebbd 12c2 d53b
000000c0: 8790 373e 58a3 0c3e b6ce 1d3e f700 14be
000000d0: f872 213d bc60 313e 1af4 32be 45f4 b2b8
000000e0: b812 b2bd 08cf 9bbd 1e76 9c3b 4a54 99bd
000000f0: 2af0 cfbd 8735 a93d 3253 66bd 9166 973b
00000100: 3090 e33d b016 643d 49b6 2abe d2e3 3b3e
00000110: 05d3 2e3e bfa8 383e 146c a43c 813b dd3b
00000120: e34c c2bd ee73 19be 9885 1fbd 737e f33d
00000130: d8c2 f83d bcce abbc 340d d43d fc6f b43c
00000140: f679 39bb 4bf6 4fbe 3d4c 1fbd b599 383e
00000150: 3714 b7bc db97 a63b 58db d13d 7f24 39be
00000160: 53e6 2a3e f3dd 65bc 275e 0abe f899 243a
00000170: 7184 ef3d adeb e8bc 7721 03be 7c28 b03d
00000180: 6305 12bd e3e1 a93d 3aee 15be 036c af3d
00000190: 6706 853d 6d04 fdbd 6c90 a0bd a65b 523c
000001a0: 0f59 213e cde7 33be 8c39 2f3e 11a6 bcbd
000001b0: ecdc 2b3c 3896 103b 70b4 013d 38f4 dc3d
000001c0: 70b8 a0bd 26c9 2cbe ee67 c4bd 7ca7 203d
000001d0: c1bb 82bd 4f47 f53c e029 c6bd 0931 a5bd
000001e0: 6fcb 6a3e e67e 033e b25f 3f3e 88cc 0dbe
000001f0: c3a4 2ebd 76d0 b3bd f500 afbd 2c99 43bd
00000200: a69e 36bd 9323 27be 10b4 06bd 7c1c ae3d
00000210: e4d2 083e d88c 683d 24b6 eabc feec efbc
00000220: 8bad 223e bd68 24be 12c7 b43d 1773 debd
00000230: 0c8d 59be c4ce 1f3e f757 873d 5262 873d
00000240: f783 45be 9187 c83d dade ef3d ab58 2b3e
00000250: a625 e43d 0982 64be 037c abbd de84 35be
00000260: ff1f d43b 973a a73c 0cf6 e0bc cb8f cc3d
00000270: dff1 3cbe 7b3e 863d 2885 03bd e4fb 353e
00000280: e95e 023e 16aa f8bd d366 84bd b697 fa3d
00000290: 6e22 03bd 7173 9a3c 4ce1 483e ae33 a0bd
000002a0: 0e38 e93c 98d1 8c3d a821 f4bd 794e ec3c
000002b0: c2b5 44bd 267c 273a 5755 063d fa8b ba3c
000002c0: b6cc 29be 85b2 2abe d299 1dbb 77c1 16be
000002d0: 6e75 733b fb66 f0bd 9806 58be 8628 53bd
000002e0: c108 efbd 2832 76be 296d 903c 5bc7 b5bc
000002f0: 1672 783d 3b69 6cbe acd1 75be 7bf3 83be
00000300: c3b3 2bbe f0c7 82be f2c7 2fbd a23b 56bd
00000310: 5564 98be 0cb5 05be e654 6ebd 2e76 9ebc
00000320: f86c c93d e72c 4d3e 9a35 91bd 7549 26be
00000330: 3b35 ab3c f372 ca3d 1854 4ebd d241 b8bd
00000340: f0a5 c23d b8d4 6e3d 37c0 493e a3fb d13c
00000350: 1800 8d3d ec76 053d 1e6b b1bd 0062 5abd
00000360: 7897 12be 0520 283e 5a69 bcbd 7503 afbd
00000370: f49a 27be 639f 3b3e 58b4 05be feca 51be
00000380: f474 ab3d 3dda 303d 308f 133e c4a9 f23d
00000390: b1dd c53d a3ab 0fbe c6cb 1a3e 9e2d b13d
000003a0: 5fec c43d 4b52 23be bf79 213e c7f0 d73d
000003b0: c120 5b3d e59d f2bd ad00 9b3c 61c1 1a3d
000003c0: 7163 643d cd95 fbbd d898 52be 179e eebd
000003d0: a7fe 52be bdea 44bd 46dd 5fbe 10aa 873d
000003e0: b414 23be f319 5fbe 0992 04be da9f 36be
000003f0: ee28 b4bd 4395 70be c121 b9bd 6294 08bd

conv1.bias f4 [64]
0.056080285 -0.011262927 -0.0683921 0.05526031 -0.00044293248 -0.038816288 -0.09712715 0.019327113
-0.052592307 0.04075937 -0.10882829 -0.07530192 0.018692624 0.09214442 0.045656405 0.07126468
-0.026918324 -0.0014027354 -0.09135455 -0.00018761313 0.044377543 -0.07976499 0.08310108 -0.09867705
-0.051271603 0.092710525 -0.16829424 -0.002983712 0.0016675291 0.12243169 -0.00020579583 -0.13402878
-0.12149246 -0.112490125 -0.20965527 -0.11423944 -0.0042748633 0.08091242 -0.08609768 0.16989888
-0.0006976885 0.00015688338 -0.11195782 0.06426377 -0.1632357 -0.127163 -0.12631436 -0.06930225
0.014937849 0.030757364 -0.029296018 0.051309753 0.09689841 0.0046638893 0.03653418 -0.07677331
-0.0026370334 -0.0012038832 0.027233446 -0.048531916 0.04901722 0.046092648 -4.0340314e-05 0.008800165
00000000: 71b4 653d 2488 38bc 2811 8cbd a358 623d
00000010: 6439 e8b9 d4fd 1ebd 99ea c6bd e553 9e3c
00000020: 086b 57bd 4cf3 263d 5ee1 debd e537 9abd
00000030: 4621 993c 37b6 bc3d 3602 3b3d 37f3 913d
00000040: d183 dcbc fddb b7ba 1818 bbbd 04ba 44b9
00000050: 3ac5 353d d45b a3bd e630 aa3d 3117 cabd
00000060: 2c02 52bd 04df bd3d 5355 2cbe 618a 43bb
00000070: fe90 da3a 77bd fa3d e6ca 57b9 d73e 09be
00000080: 0ad1 f8bd 3961 e6bd dfaf 56be 5ef6 e9bd
00000090: 2714 8cbb 69b5 a53d fb53 b0bd f9f9 2d3e
000000a0: 15e5 36ba 1081 2439 244a e5bd b99c 833d
000000b0: 4227 27be 0437 02be 8d58 01be 57ee 8dbd
000000c0: e1bd 743c def6 fb3c 34fe efbc 2d2a 523d
000000d0: ac72 c63d 8ad3 983b dda4 153d 533b 9dbd
000000e0: 14d2 2cbb 9ecb 9dba ad18 df3c 67c9 46bd
000000f0: 48c6 483d a5cb 3c3d 1533 29b8 912e 103c

conv2.weight f4 [128, 64, 3, 3]
-0.013162086 0.018827012 0.01751055 -0.051305372 0.025064552 -0.025822934 -0.01079141 -0.040459216
-0.0044189184 0.0048750867 -0.03726513 -0.032185704 -0.058881257 -0.04558671 -0.05498445 -0.006225646
-0.057180896 0.021611381 -0.022289742 -0.016170977 -0.00084961776 0.006785298 0.042122126 0.026243934
-0.0064559765 0.046685103 -0.0006200308 -0.019906327 0.008465071 0.011469266 0.033809472 -0.02609119
0.0029408734 0.023240922 0.036088448 -0.019468358 0.07046164 0.038711067 0.066992596 0.110064186
0.06041474 0.11785246 0.08489608 0.046773367 0.11717797 0.036437996 0.042245183 -0.0023307793
0.019223336 0.006387748 0.030202175 -0.041405413 -0.040368613 0.011371033 0.06416415 -0.071958
-0.10701943 -0.03557542 -0.016291944 -0.08831529 -0.03634965 -0.008116215 -0.08395385 0.017374368
0.00700699 0.022956647 -0.0077064056 -0.04155836 -0.039448895 0.011346064 -0.047880854 -0.039591484
-0.033324562 -0.022464754 -0.0071942066 0.036088098 0.03272811 0.0037562076 -0.022168493 -0.032166775
0.0065030265 0.0009842166 -0.0026499485 0.032134444 -0.021544881 -0.017168973 -0.021637538 -0.026603071
0.047931932 -0.016910512 0.01472089 -0.031701595 -0.018547684 -0.01575387 0.005915883 -0.06970155
0.0057430794 -0.010853593 -0.05113015 -0.032297682 -0.008241951 -0.0064967154 -0.024070779 -0.029821083
-0.00011816466 -0.033208527 0.01734205 0.0035747204 0.029524898 0.018118244 0.056174222 -0.009150095
0.0316648 0.051877297 0.03410995 0.013101102 -0.012387058 0.01018131 0.03307203 0.029107662
0.026357377 -0.00062062294 0.012075226 -0.011279838 -0.053132735 -0.054559827 0.017108131 0.0060759587
0.021363921 0.04850601 0.03183837 0.010687706 0.0689823 0.03707557 0.030348685 0.04018558
0.03384819 -0.008540525 -0.0011493051 0.018347094 0.015372194 -0.008955629 0.03908159 0.003964433
-0.0022718662 0.025948253 0.044234622 0.018658549 0.05044225 0.03494744 0.06968207 -0.024237653
-0.025997836 0.036691096 0.022542687 0.060732175 -0.00431392 -0.0318042 0.01706966 0.025522163
0.0044908784 -0.059288733 0.020845292 0.04306735 -0.030022146 -0.023590766 -0.040526375 0.0071155075
0.047046892 -0.030016573 -0.036765505 0.08119409 0.09969168 0.122529246 0.027244933 0.06987121
0.09491169 0.057036247 0.11309098 0.094237074 0.03734155 0.026480116 0.009328284 -0.012097021
0.015841447 -0.0022396522 0.04483367 0.044516128 0.06851246 -0.101076365 -0.06201437 -0.049065165
-0.043003257 -0.008371845 0.027957922 -0.014829655 -0.008810862 0.05406429 0.052333705 0.036461707
-0.01366071 0.048455823 0.006922257 0.0450175 0.047147125 0.014646412 0.039582867 -0.08441946
-0.07390542 -0.0052157682 -0.06098022 -0.061043605 -0.021021746 -0.021808434 -0.0020849367 0.011870824
-0.012258208 0.050648704 0.047323514 0.024800599 -0.024206243 0.020284178 0.010890511 -0.024373757
0.01881327 0.01209492 0.04683429 -0.013486628 0.0024757525 0.01075502 -0.025964865 -0.0021703693
0.023309728 -0.006592437 -0.007892512 -0.023356248 -0.047969088 0.010793156 0.03140376 -0.019295461
0.032144267 0.022042902 -0.031610783 -0.021541314 -0.024286952 -0.062711395 -0.047514386 -0.03570564
-0.06076278 -0.028466735 -0.067864165 -0.05379002 -0.16687933 -0.16856444 -0.1255939 -0.13494639
00000000: caa5 57bc 1b3b 9a3c 4972 8f3c 9525 52bd
00000010: 2d54 cd3c 9e8a d3bc 74ce 30bc 90b8 25bd
00000020: 93cc 90bb 31bf 9f3b 52a3 18bd 28d5 03bd
00000030: 792d 71bd 21b9 3abd 6037 61bd 8100 ccbb
00000040: 8436 6abd 5a0a b13c fa98 b6bc ff78 84bc
00000050: e2b8 5eba 3557 de3b 4088 2c3d 85fd d63c
00000060: a88c d3bb e138 3f3d 9089 22ba 9812 a3bc
00000070: 15b1 0a3c 97e9 3b3c cd7b 0a3d 31bd d5bc
00000080: abbb 403b bf63 be3c 7bd1 133d 1b7c 9fbc
00000090: 314e 903d 7f8f 1e3d 6a33 893d 5569 e13d
000000a0: 7275 773d a15c f13d ffdd ad3d 6e95 3f3d
000000b0: 01fb ef3d 0240 153d 4909 2d3d fdbf 18bb
000000c0: 427a 9d3c 5050 d13b 8d6a f73c b998 29bd
000000d0: 8f59 25bd 924d 3a3c 7e68 833d b75e 93bd
000000e0: 012d dbbd 88b7 11bd af76 85bc a6de b4bd
000000f0: 5fe3 14bd dff9 04bc ffef abbd b154 8e3c
00000100: e49a e53b 940f bc3c 0486 fcbb 1939 2abd
00000110: 2a95 21bd d7e4 393c b71e 44bd ae2a 22bd
00000120: 567f 08bd 0108 b8bc 61bd ebbb 1dd1 133d
00000130: e90d 063d b52a 763b b39a b5bc 4fc1 03bd
00000140: 5717 d53b d400 813a c2aa 2dbb 689f 033d
00000150: e47e b0bc f2a5 8cbc 3541 b1bc afee d9bc
00000160: 4654 443d ea87 8abc e32f 713c 88d9 01bd
00000170: 50f1 97bc 430e 81bc 06da c13b b0bf 8ebd
00000180: 7130 bc3b 45d3 31bc d96d 51bd 934a 04bd
00000190: 4009 07bc 66e2 d4bb 1530 c5bc 584b f4bc
000001a0: 2bcf f7b8 aa05 08bd ea10 8e3c db45 6a3b
000001b0: 33de f13c b66c 943c f116 663d 48ea 15bc
000001c0: f3b2 013d 4a7d 543d e0b6 0b3d 01a6 563c
000001d0: 16f3 4abc 82cf 263c 8976 073d 3173 ee3c
000001e0: 6deb d73c 4db1 22ba 2bd7 453c 12cf 38bc
000001f0: b6a1 59bd 207a 5fbd 5a26 8c3c d618 c73b
00000200: 6403 af3c 3dae 463d f368 023d 7d1b 2f3c
00000210: 9846 8d3d 8edc 173d ce9d f83c a299 243d
00000220: 66a4 0a3d 8fed 0bbc 48a4 96ba a54c 963c
00000230: a8db 7b3c a1ba 12bc 0414 203d 13e8 813b
00000240: 97e3 14bb 6e91 d43c 5d2f 353d d0d9 983c
00000250: 889c 4e3d 0c25 0f3d 79b5 8e3d 0b8e c6bc
00000260: 6af9 d4bc 6749 163d 71ab b83c 4dc2 783d
00000270: c95b 8dbb 1f45 02bd acd5 8b3c db13 d13c
00000280: 3828 933b bed8 72bd bfc3 aa3c 6467 303d
00000290: 01f1 f5bc 6c41 c1bc fcfe 25bd 3429 e93b
000002a0: 3eb4 403d 51e5 f5bc 6d97 16bd 1649 a63d
000002b0: 272b cc3d 9df0 fa3d c430 df3c a318 8f3d
000002c0: 0f61 c23d d79e 693d 3e9c e73d 5eff c03d
000002d0: 74f3 183d d4ec d83c a9d5 183c 9532 46bc
000002e0: ecc5 813c 21c7 12bb 83a3 373d 8b56 363d
000002f0: 4350 8c3d 2001 cfbd c802 7ebd 8ef8 48bd
00000300: 2f24 30bd 102a 09bc 0308 e53c 15f8 72bc
00000310: 6f5b 10bc 8472 5d3d de5b 563d df58 153d
00000320: 2cd1 5fbc 9d79 463d 1ad4 e23b 4564 383d
00000330: 581d 413d 81f7 6f3c a521 223d 1ce4 acbd
00000340: ba5b 97bd 09e9 aabb 65c6 79bd dc08 7abd
00000350: cc35 acbc 9aa7 b2bc 6fa3 08bb d87d 423c
00000360: a7d6 48bc 0475 4f3d 4dd6 413d a02a cb3c
00000370: 2c4c c6bc 012b a63c 1d6e 323c 79ab c7bc
00000380: 491e 9a3c c529 463c 50d5 3f3d 05f7 5cbc
00000390: 3c40 223b d335 303c 45b4 d4bc c13c 0ebb
000003a0: 0bf4 be3c 5f05 d8bb 984f 01bc 9a55 bfbc
000003b0: 3c7b 44bd c7d5 303c 3ba1 003d 8411 9ebc
000003c0: b5a9 033d 5193 b43c 4f7a 01bd 6977 b0bc
000003d0: 6ef5 c6bc d56e 80bd 729e 42bd 1440 12bd
000003e0: 65e2 78bd 1233 e9bc 5efc 8abd ed52 5cbd
000003f0: 6ae2 2abe 289c 2cbe b09b 00be 632f 0abe

conv2.bias f4 [128]
-0.021791575 -0.02323278 0.00036965605 0.0022070669 -0.02352121 -0.022936413 0.06097732 0.007581027
0.002959045 0.002459555 0.04074406 0.031089181 -0.009164643 0.0015225438 0.012814368 0.060446206
0.005006927 0.032939676 -0.021974415 0.05200835 0.043778297 -0.056589182 -0.0016124095 -0.026459195
-0.0008722151 -0.0411212 0.0017365359 -0.040731344 -0.042307336 -0.020419799 0.025492782 -0.012103304
0.050049424 0.015617773 -0.007775652 0.028136272 -0.019601116 -0.0382691 -0.020054879 -0.0024205213
0.021526007 0.012078341 0.009060202 -0.014207857 0.012132903 -0.04601306 0.02286355 0.011556401
-0.04370823 -0.008092207 -0.039555512 -0.008134692 -0.04813769 0.053562243 -0.018714316 -0.051799245
0.03315899 -0.013575471 -0.0025938638 -0.011893109 -0.05956405 -0.037577834 0.03391222 -0.019270428
0.051729538 0.07590419 0.039964553 -0.03910728 0.013661563 0.01877756 0.003571828 0.008055772
-0.04046446 0.034091283 -0.0017935551 -0.019355826 0.0061232634 0.0360859 0.015925348 0.04629219
0.0059637693 0.032869685 0.035349127 -0.04960021 -0.012236067 3.336765e-06 0.0444712 0.0067772823
0.0091692135 0.055210672 0.031361964 0.05042719 0.03055657 -0.0044318708 0.060120646 0.010304808
-0.0039566983 -0.023378039 -0.009069143 0.032307647 -0.028766565 -0.007098841 0.049668126 -0.021372536
-0.035795406 0.046452083 -0.013378308 0.044256445 0.025421655 -0.030494304 -0.035565607 -0.058632348
0.029388878 -0.0499938 0.016597113 -0.030796895 0.066488825 0.025812333 -0.0034437433 0.018556066
-0.02702025 -0.02868065 0.023371598 -0.035493664 0.074207924 0.0144932475 -0.020103185 0.02634797
00000000: 3f84 b2bc ac52 bebc 65ce c139 70a4 103b
00000010: 8daf c0bc 25e5 bbbc 5bc3 793d 446a f83b
00000020: 8aec 413b 7c30 213b 3ee3 263d bdae fe3c
00000030: 4c27 16bc 1890 c73a 5bf3 513c 7196 773d
00000040: 2611 a43b c1eb 063d b003 b4bc b506 553d
00000050: df50 333d 0fca 67bd 7c57 d3ba f4c0 d8bc
00000060: 5da5 64ba b46e 28bd 7a9c e33a e9d5 26bd
00000070: 754a 2dbd 6c47 a7bc 3dd6 d03c f04c 46bc
00000080: a000 4d3d b0e1 7f3c e6ca febb 0a7e e63c
00000090: 8592 a0bc 0fc0 1cbd 214a a4bc 9ca1 1ebb
000000a0: 4f57 b03c 3ce4 453c 3e71 143c 12c8 68bc
000000b0: 15c9 463c 3178 3cbd 574c bb3c 0f57 3d3c
000000c0: 6707 33bd 2d95 04bc f604 22bd 5f47 05bc
000000d0: 072c 45bd 1564 5b3d c44e 99bc 722b 54bd
000000e0: b9d1 073d a76b 5ebc d0fd 29bb 51db 42bc
000000f0: 6ff9 73bd 37eb 19bd 8ae7 0a3d 04dd 9dbc
00000100: 5ae2 533d a873 9b3d dfb1 233d f52e 20bd
00000110: c0d4 5f3c 66d3 993c 5415 6a3b 5bfc 033c
00000120: 10be 25bd 4da3 0b3d b915 ebba 1c90 9ebc
00000130: a8a5 c83b cfce 133d e075 823c e19c 3d3d
00000140: b96b c33b 5da2 063d 3fca 103d 9729 4bbd
00000150: c979 48bc 30ed 5f36 6f27 363d f713 de3b
00000160: 783a 163c 9624 623d 6775 003d be8c 4e3d
00000170: c651 fa3c 3a39 91bb 1141 763d 7fd5 283c
00000180: 31a7 81bb 4d83 bfbc be96 14bc 0655 043d
00000190: dca7 ebbc 659d e8bb ce70 4b3d 7515 afbc
000001a0: 349e 12bd 8a44 3e3d b130 5bbc 3f46 353d
000001b0: 1341 d03c 31cf f9bc 3ead 11bd 7928 70bd
000001c0: f2c0 f03c 4dc6 4cbd abf6 873c c549 fcbc
000001d0: 4b2b 883d 6374 d33c 6db0 61bb e402 983c
000001e0: 9259 ddbc aff3 eabc cb75 bf3c ce61 11bd
000001f0: 53fa 973d 1675 6d3c 6faf a4bc b3d7 d73c

deconv1.weight f4 [128, 64, 3, 3]
-0.0012828432 -0.01382832 0.008168844 -0.013556484 0.017115206 0.022029238 0.046248067 0.022749336
-0.004848805 0.03298439 0.038912743 0.0123968525 0.04746649 -0.01512454 -0.0002742969 0.025726445
0.025719533 0.037821587 -0.083102316 -0.042915605 -0.043477073 -0.03365618 -0.022185948 -0.027221728
-0.047362078 -0.07912408 -0.05853834 0.063953936 0.0061391345 0.060931887 -0.040147148 -0.002403556
-0.038170032 -0.03695719 -0.058768064 -0.05186963 0.010656679 -0.019877996 0.018731846 0.058196824
0.04688824 -0.017501898 0.0046640593 0.014579548 0.0009952672 0.009838217 0.010177672 0.027476829
0.044370424 0.008119448 -0.04107211 -0.02015098 -0.0048640063 -0.019228589 -0.03500141 0.019825842
-0.051650137 -0.029253088 -0.024049534 -0.054392315 0.014093693 0.0002298855 0.014697267 0.008607191
-0.00816654 0.004909025 0.030214058 0.009285686 0.046006672 0.06145609 -0.018100515 -0.020426042
-0.008629927 -0.0026400161 -0.022454936 0.015953401 -0.0282775 0.011693952 0.025366724 0.024344105
-0.04424185 0.025500432 -0.016015895 -0.022387648 0.0011591307 0.03145553 0.039978668 -0.013127514
0.031468816 0.03850727 -0.0014652525 0.0071510305 -0.044685464 0.009818883 0.031991053 -0.028724622
0.038950056 0.027504504 -0.029704964 -0.006713048 0.011390986 0.042203452 0.017392311 0.012193945
-0.017345507 0.004136397 0.01975015 -0.022746509 0.034300633 0.013149594 0.04194871 -0.014972631
-0.025939697 -0.023001172 -0.018601093 0.018264538 0.017530352 -0.0061612953 0.046798572 -0.038360935
-0.048946846 0.047806617 -0.023493677 -0.054006867 0.05248665 -0.08239285 -0.08238013 -0.105614975
-0.012653511 -0.074915424 -0.077852346 -0.061271224 -0.07209381 -0.03837299 -0.032696314 -0.065072015
-0.035879467 -0.02336403 -0.036397766 -0.035908945 0.0048605646 -0.0032602616 -0.00646404 0.008462356
-0.0015644745 0.0014595117 0.0011198036 0.0479985 -0.023766559 0.00947084 0.047197655 0.029975599
-0.0049550175 -0.057163518 0.007171237 -0.019254081 -0.026020141 -0.034147907 -0.02604221 -0.05140289
0.016877335 -0.0077359458 -0.054849613 -0.080045946 -0.03152498 0.00088540645 -0.015551253 0.011125853
0.05351823 0.0651098 0.06278651 0.06271313 0.060358502 0.063365735 0.008009581 0.05282595
0.0014710332 0.0025555794 -0.026082547 0.039642163 -0.0037542356 -0.00011693493 -0.0065205623 -0.0620197
-0.054169126 -0.025481345 -0.047501046 -0.03287497 -0.0043792585 0.0073679667 0.00543066 -0.005505175
0.00495573 -0.012707678 -0.0123420125 0.0009812443 -0.021612281 -0.026593562 0.013607675 0.032106336
0.024160812 -0.022678096 0.019772243 0.013454606 -0.007880832 -0.012610486 -0.02036893 0.013364434
0.044324763 0.039538946 0.03521202 0.017381595 -0.02492368 0.00906086 0.030672641 0.047263306
-0.00041407865 -0.02301941 0.04493691 0.018686758 0.017686892 -0.0103795305 0.027995521 -0.006008545
-0.0039892765 -0.008139132 -0.005738023 -0.07106566 0.009060957 -0.047192577 -0.06053713 -0.046892323
-0.035787646 -0.041044228 0.024528032 -0.026186282 0.0020533823 -0.009452237 0.04495442 0.037428573
-0.009123476 -0.02436241 -0.029891983 -0.004140607 -0.020835247 0.025928864 -0.007868556 0.02253451
0.027652564 -0.021225333 0.021489859 0.0059109647 -0.13297512 -0.05343307 -0.041807376 0.03784898
00000000: 1325 a8ba 2e90 62bc 9dd6 053c 041c 5ebc
00000010: 3035 8c3c a976 b43c 9d6e 3d3d d15c ba3c
00000020: b9e2 9ebb a41a 073d f862 1f3d 2b1c 4b3c
00000030: 396c 423d ebcc 77bc 82cf 8fb9 44c0 d23c
00000040: c5b1 d23c cfea 1a3d 8c31 aabd 46c8 2fbd
00000050: 0415 32bd 10db 09bd 4ebf b5bc 1a00 dfbc
00000060: bdfe 41bd ce0b a2bd e6c5 6fbd 48fa 823d
00000070: cb2a c93b b793 793d 5671 24bd fa84 1dbb
00000080: 2e58 1cbd 6c60 17bd c8b6 70bd 4075 54bd
00000090: 5a99 2e3c 2ed7 a2bc 8773 993c cb5f 6e3d
000000a0: e20d 403d 2460 8fbc f7d4 983b 0edf 6e3c
000000b0: a073 823a 7930 213c 40c0 263c 1617 e13c
000000c0: c3bd 353d 6f07 053c 3b3b 28bd ab13 a5bc
000000d0: 3e62 9fbb 4685 9dbc a35d 0fbd ce69 a23c
000000e0: 188f 53bd 2ca4 efbc 8703 c5bc 7aca 5ebd
000000f0: 3ce9 663c 6b0d 7139 cecc 703c 2d05 0d3c
00000100: f4cc 05bc e3db a03b 7983 f73c fd22 183c
00000110: 7e71 3c3d 62b9 7b3d 8847 94bc 8454 a7bc
00000120: 8a64 0dbc 1f04 2dbb 6af3 b7bc b5b0 823c
00000130: 37a6 e7bc fd97 3f3c e0cd cf3c 4a6d c73c
00000140: f136 35bd 48e6 d03c c433 83bc 4d66 b7bc
00000150: f9ed 973a 84d7 003d acc0 233d c914 57bc
00000160: 72e5 003d cdb9 1d3d b70d c0ba 3153 ea3b
00000170: 1b08 37bd 61df 203c 0d09 033d e64f ebbc
00000180: 188a 1f3d 2051 e13c d357 f3bc 21f9 dbbb
00000190: 42a1 3a3c 87dd 2c3d 527a 8e3c 1dc9 473c
000001a0: 2a18 8ebc 9d8a 873b 11cb a13c e356 babc
000001b0: d27e 0c3d 6571 573c 69d2 2b3d c44f 75bc
000001c0: 7d7f d4bc f46c bcbc 5261 98bc 839f 953c
000001d0: d09b 8f3c b1e4 c9bb dcaf 3f3d 5b20 1dbd
000001e0: 7d7c 48bd dfd0 433d d075 c0bc 4e36 5dbd
000001f0: 3efc 563d 95bd a8bd eab6 a8bd aa4c d8bd
00000200: ac50 4fbc 426d 99bd 0d71 9fbd 89f7 7abd
00000210: eba5 93bd ff2c 1dbd 92ec 05bd 7a44 85bd
00000220: 59f6 12bd ec65 bfbc d315 15bd 4215 13bd
00000230: 5f45 9f3b 1daa 55bb 4cd0 d3bb b2a5 0a3c
00000240: 0e0f cdba 164d bf3a 60c6 923a 139a 443d
00000250: 16b2 c2bc 952b 1b3c 5452 413d 638f f53c
00000260: b35d a2bb 4b24 6abd b2fc ea3b bcba 9dbc
00000270: 3128 d5bc adde 0bbd 7956 d5bc d68b 52bd
00000280: 5642 8a3c d17d fdbb fda9 60bd 21ef a3bd
00000290: 5620 01bd 9f1a 683a afca 7ebc 3649 363c
000002a0: ee35 5b3d 4958 853d 3796 803d be6f 803d
000002b0: 7a3a 773d e5c5 813d 9e3a 033c 0660 583d
000002c0: afcf c03a 827b 273b 11ab d5bc d25f 223d
000002d0: 9f09 76bb f63a f5b8 71aa d5bb 5e08 7ebd
000002e0: 72e0 5dbd 41be d0bc 7590 42bd e8a7 06bd
000002f0: e27f 8fbb fc6e f13b aef3 b13b c164 b4bb
00000300: ad63 a23b dd33 50bc 2736 4abc 189d 803a
00000310: 3d0c b1bc beda d9bc baf2 5e3c ef81 033d
00000320: e5ec c53c 6ac7 b9bc 66f9 a13c b570 5c3c
00000330: 9b1e 01bc 369c 4ebc bedc a6bc 80f6 5a3c
00000340: e28d 353d 97f3 213d 7b3a 103d d963 8e3c
00000350: bf2c ccbc 0074 143c 3145 fb3c 2b97 413d
00000360: b218 d9b9 3493 bcbc c40f 383d f914 993c
00000370: 1ae4 903c e80e 2abc dd56 e53c 54e3 c4bb
00000380: 7ab8 82bb fe59 05bc 0706 bcbb df8a 91bd
00000390: 6874 143c 014d 41bd c8f5 77bd 2a12 40bd
000003a0: 1196 12bd fe1d 28bd 03ef c83c 9d84 d6bc
000003b0: 0a92 063b 8edd 1abc 2022 383d b44e 193d
000003c0: a27a 15bc ad93 c7bc 08e0 f4bc eead 87bb
000003d0: aeae aabc c568 d43c 1eeb 00bc 4b9a b83c
000003e0: a187 e23c c0e0 adbc 800b b03c c4b0 c13b
000003f0: a12a 08be a3dc 5abd 363e 2bbd 8807 1b3d

deconv1.bias f4 [64]
0.003994268 0.0672318 0.057564218 -0.013384982 -0.0039332933 0.028946599 0.057421494 0.0050954707
0.024241194 0.06085827 0.021764554 0.043808267 0.05315749 -0.030905597 0.033370953 0.062352642
0.05297129 -0.048628215 0.03613777 0.047347333 0.016467817 0.06701489 0.015202847 -0.020837191
0.036299244 0.004969212 -0.016221551 0.06499083 0.04750458 -0.038721886 0.05861782 -0.014056376
0.014256117 0.035144527 0.039601043 0.045971155 0.06887663 0.07241417 0.032627597 0.035024323
0.015703062 -0.015057055 0.070816174 0.005417077 0.05726006 0.011073784 0.0038909682 0.07471062
0.05515201 0.056004293 0.06697539 0.055567663 0.009472455 0.00681582 0.035366613 0.052005135
0.0650632 0.032597028 -0.0067948187 -0.020468269 -0.03749106 0.012783707 -0.004974916 -0.0013756528
00000000: 59e2 823b d3b0 893d 75c8 6b3d af4c 5bbc
00000010: dbe2 80bb 6b21 ed3c cd32 6b3d e8f7 a63b
00000020: 7895 c63c 8546 793d 944b b23c 4c70 333d
00000030: abbb 593d bc2d fdbc fbaf 083d 7c65 7f3d
00000040: 6cf8 583d 612e 47bd 3305 143d 47ef 413d
00000050: 84e7 863c 1a3f 893d 5d15 793c c2b2 aabc
00000060: 84ae 143d c6d4 a23b 0fe3 84bc ea19 853d
00000070: 2a94 423d d79a 1ebd 3d19 703d b74c 66bc
00000080: 7d92 693c b5f3 0f3d b434 223d 404c 3c3d
00000090: 310f 8d3d e14d 943d 84a4 053d aa75 0f3d
000000a0: b5a3 803c deb1 76bc 1208 913d bc81 b13b
000000b0: 8689 6a3d d16e 353c 9dff 7e3b e201 993d
000000c0: 13e7 613d c264 653d 652a 893d eb9a 633d
000000d0: 5b32 1b3c 3e57 df3b 95dc 103d 5603 553d
000000e0: db3f 853d 7684 053d 12a7 debb 12ad a7bc
000000f0: 3a90 19bd c172 513c 9f04 a3bb 404f b4ba

deconv2.weight f4 [64, 64, 3, 3]
-0.009713555 -0.029020667 0.037269894 -0.004510434 -0.014292103 0.010591795 0.016263273 -0.021663517
-0.0016911139 0.026199184 -0.030359393 0.05255309 -0.020580413 -0.012132914 -0.00514839 0.042760417
0.0369552 0.021648167 -0.0151066845 0.008381411 -0.014908459 -0.0047761267 0.050047252 -0.03290107
-0.009696928 0.04164948 0.00452348 -0.005839272 0.007998912 0.014112711 -0.0030454115 -0.020636516
0.036106676 -0.032919772 -0.041556906 -0.03154603 0.00900278 0.00493181 0.05997412 0.048815854
0.0108726965 0.041817706 0.0640808 0.026360912 0.06228787 0.011535978 0.0013818655 -0.032390673
-0.008482277 0.012975824 0.010627652 -0.031798486 -0.03910231 -0.014226269 -0.02606308 -0.02072897
-0.032155033 0.027180944 0.020220516 0.015322099 -0.06281872 -0.023941735 -0.037335355 0.0067261723
-0.038941126 -0.022021964 0.03171536 -0.031894553 -0.02676903 -0.02600805 -0.03811582 0.02287498
0.0215519 -0.012927483 0.03883278 0.009190249 0.011463382 0.046283964 0.047301587 0.0564434
0.011522723 0.016656442 0.0121791465 0.060686897 0.029248612 -0.005001743 -0.012070164 0.07321793
0.020581074 0.04755767 0.06772484 0.0460246 0.027905902 0.041518655 -0.003609455 0.01908422
0.033061266 0.07013249 0.07236031 0.021180008 -0.047328986 0.026496079 0.0011982861 -0.0045836787
-0.001306642 -0.01088799 0.017259343 0.026214492 -0.0145833865 -0.038524687 -0.024701165 -0.0026629788
0.0046483884 -0.021536134 0.0151510695 -0.012398602 -0.024071522 0.031172272 0.0051485137 0.043124303
-0.0038484905 -0.017263765 -0.024342623 -0.012306157 0.018347397 0.054659676 -0.021216819 -0.04190893
0.019151108 0.026721379 -0.013890476 -0.022806277 0.019004242 -0.019779738 -0.034183428 -0.00776875
0.017837008 -0.002465176 0.050743155 -0.0065048737 -0.001327709 -0.025433006 -0.029223524 -0.025081482
-0.030468034 -0.02939316 -0.049773887 -0.050428808 -0.004297831 -0.026889186 -0.024257166 -0.054443374
-0.03253395 0.01452654 0.04843225 0.032782797 0.0029719558 -0.0101040155 -0.007373219 0.06118335
0.008257053 0.04318658 0.0424548 0.042119235 0.015309372 -0.019046059 -0.03221168 0.03772268
0.033971503 0.04526906 -0.010161267 0.013605945 -0.02637958 -0.027456636 -0.037088323 -0.049649302
-0.050813556 -0.05752547 -0.027840845 0.011690125 -0.053039134 -0.013539513 -0.005666114 0.024279218
0.026955146 -0.027891481 0.016172018 0.018315539 -0.03006716 -0.028407397 0.0057275286 -0.01754764
0.011376893 -0.059785295 -0.03247233 0.008725271 0.0006740323 -0.0070234314 -0.013173707 0.00095885206
0.014740425 -0.041091993 0.0029688524 0.0068410384 -0.014355544 -0.01974992 -0.02468234 0.023325915
0.020072345 -0.045301642 -0.012604296 -0.049454175 -0.009303639 -0.038210817 -0.00042042334 0.0022514823
0.002964102 0.0023755159 0.010075765 -0.038573958 -0.007203841 0.023715409 0.018215023 0.021816924
-0.001813303 0.05128422 0.026572684 0.049182117 0.016443878 0.017534506 -0.00021259768 0.07212862
0.031976268 0.02274586 0.07025574 0.06338417 0.053468857 0.03207272 0.07062596 0.070425645
0.080863714 0.063292146 0.03229124 0.0116318 -0.037016015 -0.011265595 -0.021327795 -0.047872204
-0.048009183 -0.026108187 -0.024499463 -0.05594796 0.047055975 -0.015491579 0.050488524 0.03753907
00000000: 9a25 1fbc c0bc edbc 51a8 183d 43cc 93bb
00000010: 6d29 6abc 3589 2d3c 8e3a 853c b077 b1bc
00000020: 5ea8 ddba ac9f d63c 43b4 f8bc e941 573d
00000030: 4198 a8bc 21c9 46bc d3b3 a8bb 8c25 2f3d
00000040: 565e 173d 7f57 b13c 0782 77bc 3052 093c
00000050: 9c42 74bc 0e81 9cbb 59fe 4c3d 46c3 06bd
00000060: dddf 1ebc a598 2a3d b339 943b 5d57 bfbb
00000070: de0d 033c 0039 673c 8795 47bb e90d a9bc
00000080: 98e4 133d e2d6 06bd 9337 2abd 6936 01bd
00000090: 6580 133c 059b a13b 6ca7 753d 22f3 473d
000000a0: 6523 323c 0b49 2b3d cb3c 833d d7f2 d73c
000000b0: 9121 7f3d 6601 3d3c b61f b53a 15ac 04bd
000000c0: 40f9 0abc 8d98 543c 9a1f 2e3c 213f 02bd
000000d0: be29 20bd 4c15 69bc 3e82 d5bc cdcf a9bc
000000e0: ffb4 03bd 92aa de3c 7fa5 a53c 8b09 7b3c
000000f0: 1aa7 80bd 7521 c4bc f5ec 18bd 3967 dc3b
00000100: bb80 1fbd 6867 b4bc f7e7 013d dda3 02bd
00000110: ba4a dbbc d60e d5bc 561f 1cbd 4f64 bb3c
00000120: 9c8d b03c cbcd 53bc 1f0f 1f3d b392 163c
00000130: e9d0 3b3c 4194 3d3d 4fbf 413d 3231 673d
00000140: cec9 3c3c 1773 883c 0b8b 473c d392 783d
00000150: c99a ef3c a9e5 a3bb f0c1 45bc 48f3 953d
00000160: a499 a83c d5cb 423d 52b3 8a3d 4a84 3c3d
00000170: eb9a e43c 770f 2a3d 9b8c 6cbb 8356 9c3c
00000180: 406b 073d 9fa1 8f3d a431 943d b281 ad3c
00000190: 0adc 41bd 4e0e d93c cf0f 9d3a af32 96bb
000001a0: a143 abba 8a63 32bc 7763 8d3c c6bf d63c
000001b0: 28ef 6ebc 10cc 1dbd 195a cabc 5f85 2ebb
000001c0: 8251 983b 8c6c b0bc 313c 783c 8223 4bbc
000001d0: a431 c5bc fe5c ff3c ddb4 a83b 1ca3 303d
000001e0: f536 7cbb bd6c 8dbc 2e6a c7bc c39f 49bc
000001f0: 484d 963c d3e2 5f3d e5ce adbc b3a8 2bbd
00000200: c9e2 9c3c cbe6 da3c e194 63bc 3bd4 babc
00000210: c9ae 9b3c 1e09 a2bc ec03 0cbd 0091 febb
00000220: eb1e 923c ca8e 21bb 0ed8 4f3d d626 d5bb
00000230: 8506 aeba e158 d0bc 2c66 efbc ae77 cdbc
00000240: 1998 f9bc edc9 f0bc b4df 4bbd 708e 4ebd
00000250: d2d4 8cbb b646 dcbc f7b6 c6bc 0400 5fbd
00000260: 5242 05bd ba00 6e3c e560 463d 4147 063d
00000270: 25c5 423b 508b 25bc 0b9b f1bb 649b 7a3d
00000280: 9748 073c 69e4 303d 16e5 2d3d 3885 2c3d
00000290: 29d4 7a3c 7b06 9cbc 65f0 03bd 1983 1a3d
000002a0: b425 0b3d 0d6c 393d 717b 26bc 78eb 5e3c
000002b0: fd19 d8bc bdec e0bc ede9 17bd 115d 4bbd
000002c0: e021 50bd d49f 6bbd 7c12 e4bc f087 3f3c
000002d0: 903f 59bd d5d4 5dbc cfaa b9bb 36e5 c63c
000002e0: 0ad1 dc3c ad7c e4bc 2e7b 843c 780a 963c
000002f0: 684f f6bc a1b6 e8bc fead bb3b 11c0 8fbc
00000300: 2666 3a3c 6de1 74bd b501 05bd 70f4 0e3c
00000310: 8bb1 303a d024 e6bb 88d6 57bc 795b 7b3a
00000320: d381 713c 1450 28bd 1491 423b ca2a e03b
00000330: 8433 6bbc 96ca a1bc 9e32 cabc fd15 bf3c
00000340: c26e a43c 378e 39bd 4082 4ebc 7690 4abd
00000350: 4a6e 18bc f282 1cbd 446c dcb9 9b8d 133b
00000360: 6141 423b 8bae 1b3b d214 253c baff 1dbd
00000370: 330e ecbb d146 c23c ac37 953c 68b9 b23c
00000380: 5aac edba 670f 523d f5ae d93c 3073 493d
00000390: 50b5 863c 86a4 8f3c c1ec 5eb9 2cb8 933d
000003a0: 8cf9 023d 8755 ba3c 3ee2 8f3d 8fcf 813d
000003b0: 2902 5b3d af5e 033d 58a4 903d 523b 903d
000003c0: e09b a53d 509f 813d d243 043d 4e93 3e3c
000003d0: 1b9e 17bd 5593 38bc a1b7 aebc a515 44bd
000003e0: 47a5 44bd d6e0 d5bc 19b3 c8bc b029 65bd
000003f0: c4bd 403d 64d0 7dbc 0ecd 4e3d 91c2 193d

deconv2.bias f4 [64]
-0.012483015 -0.08161489 -0.03841501 -0.122636296 0.029230203 -0.049408168 0.04599957 -0.046998516
-0.048888158 -0.08039718 -0.0822557 0.03618992 0.02197752 -0.09129275 -0.017047202 -0.19341664
0.0032749823 -0.091252774 0.053378906 -0.0019381802 0.077399746 -0.11571119 0.16552602 -0.007273325
-0.058259733 -0.15640324 0.048086435 0.15800661 -0.07109787 0.0015011531 -0.053417478 0.0625736
-0.02088446 -0.022350546 -0.18998529 0.1249099 -0.093444034 -0.04509415 -0.16454224 -0.08771804
-0.044806883 0.061244555 -0.059051868 0.12629022 0.074092686 -0.03240397 -0.07871075 -0.06581204
-0.06293215 -0.09312313 0.016223654 0.09294329 0.099832825 -0.099089935 -0.007010697 0.06942319
0.17223157 -0.01872534 0.07846131 0.13407187 0.03287684 0.099307045 0.04035931 0.017643018
00000000: 8f85 4cbc b525 a7bd 0f59 1dbd bd28 fbbd
00000010: 2e74 ef3c 3860 4abd 0c6a 3c3d 8481 40bd
00000020: f33e 48bd 47a7 a4bd ad75 a8bd e23b 143d
00000030: 330a b43c b1f7 babd 93a6 8bbc 030f 46be
00000040: 16a1 563b bce2 babd d7a3 5a3d 890a feba
00000050: c283 9e3d fdf9 ecbd a77f 293e 1355 eebb
00000060: c2a1 6ebd 2c28 20be 48f6 443d 7ccc 213e
00000070: c39b 91bd 57c2 c43a 49cc 5abd 9626 803d
00000080: e315 abbc 7e18 b7bc 818b 42be c3d0 ff3d
00000090: 965f bfbd a5b4 38bd c37d 28be 84a5 b3bd
000000a0: 6c87 37bd 92db 7a3d 5fe0 71bd 3952 013e
000000b0: e8bd 973d 06ba 04bd 1a33 a1bd 76c8 86bd
000000c0: 92e2 80bd 57b7 bebd 78e7 843c 0d59 be3d
000000d0: 2775 cc3d aaef cabd fdb9 e5bb bf2d 8e3d
000000e0: 795d 303e e265 99bc 53b0 a03d 234a 093e
000000f0: dea9 063d 7e61 cb3d ce4f 253d 1788 903c
