contrastive_save/contrastive_weights_epoch_58.pt (torch, 749116 bytes, 8 tensors)

conv1.weight f4 [64, 3, 3, 3]
000000 42 ae 95 3d 7e 97 d7 bd 8b 57 07 3d eb db 87 3d
       0.07308628 -0.10526942 0.03304247 0.06633743
000010 f6 08 a2 3d f5 c8 ed bd 54 64 0c 3e 7c 5a e9 bd
       0.079118654 -0.11610595 0.13710147 -0.11394212
000020 c1 27 38 be 66 23 b5 3d fd 1c 0c be d8 4b c2 3d
       -0.17983915 0.08844642 -0.13682933 0.09487122
000030 d8 bf 19 be 22 8d 35 bd d2 ff 50 3e fe db 80 3d
       -0.15014589 -0.044324048 0.20410088 0.0629196
000040 3e 4d 00 3e 40 ca 44 3e ab b4 43 be 44 90 69 bc
       0.12529466 0.19217777 -0.19111888 -0.014255587
000050 8b d7 30 be e6 c7 ce bc 17 a0 68 be 49 8b 73 bc
       -0.17269723 -0.025241803 -0.2271732 -0.014864751
000060 dd 8a 8f bd 7e b9 0a be 66 38 e6 bd 1d 99 0c be
       -0.07008908 -0.13547322 -0.11241226 -0.13730283
000070 21 78 11 bc 03 7d 10 be cf 7c c8 3c 8f ad d0 3c
       -0.008878739 -0.14110188 0.024473576 0.025473384
000080 3e 4a 89 3c 98 c0 23 be bd 7a 20 3e 56 43 fc 3d
       0.016759034 -0.15991437 0.15671821 0.12317531
000090 c0 38 69 be 5a af ea 3d e9 63 98 3d b9 45 85 bd
       -0.22775555 0.11459227 0.07440931 -0.06507439
0000a0 6d 79 5d bc 8c 95 41 be 3f dd 62 be ee d9 6d be
       -0.01351772 -0.18904704 -0.22154711 -0.23227665
0000b0 ad 89 5b be 9b 4f ee 3d 4a 06 ed bd b8 92 bb 3b
       -0.21439238 0.11636277 -0.11573465 0.0057242773
0000c0 ca bb 36 3e c8 ba 0b 3e 21 e9 1c 3e 31 ef 14 be
       0.17845073 0.1364547 0.15323307 -0.1454437
0000d0 65 e7 1d 3d 66 7b 30 3e 47 2c 33 be f5 27 b9 b9
       0.038550753 0.17234573 -0.17497359 -0.0003531572
0000e0 ea a2 b2 bd 75 51 9c bd f7 4b 92 3b af f5 99 bd
       -0.0872248 -0.07632724 0.004464622 -0.075175636
0000f0 c5 85 d0 bd 25 93 a8 3d 8b 95 67 bd 29 9d 90 3b
       -0.101817645 0.082311906 -0.0565391 0.004413266
000100 2c 0c e3 3d 5b 09 63 3d f3 f4 2a be 58 97 3b 3e
       0.11086306 0.055428844 -0.16695003 0.18319452
000110 f5 86 2e 3e c8 5f 38 3e 59 01 a2 3c 1b 75 d3 3b
       0.1704367 0.18005288 0.019776033 0.006453169
000120 19 02 c3 bd 56 d7 19 be e1 0d 21 bd ea b1 f2 3d
       -0.095218845 -0.1502355 -0.039319877 0.11850341
000130 bf df f7 3d c4 37 af bc 9a 2b d3 3d ab d7 b0 3c
       0.12103223 -0.021388896 0.10311051 0.021587214
000140 cc 49 55 bb 59 e7 4f be cb b5 1f bd 64 69 38 3e
       -0.0032545207 -0.20303096 -0.03899173 0.18008953
000150 0f da b5 bc 96 fc a6 3b 89 a9 d1 3d fd f1 38 be
       -0.022198705 0.0050960286 0.102374144 -0.18061061
000160 f7 fe 2a 3e 52 28 65 bc c6 7c 0a be dc 37 9f 39
       0.16698824 -0.013986664 -0.1352416 0.00030368462
000170 8d a7 ee 3d 05 e6 e8 bc 59 52 03 be f9 83 af 3d
       0.116530515 -0.028429994 -0.12824382 0.08570094
000180 4c b8 11 bd e5 bf a9 3d c7 0e 16 be f4 78 af 3d
       -0.03557615 0.08288554 -0.14654075 0.08567992
000190 96 bd 84 3d ba 82 fd bd e8 60 a0 bd fe f7 51 3c
       0.06481473 -0.1237845 -0.078309834 0.012815474
0001a0 86 34 21 3e 22 c8 33 be e1 44 2f 3e bd ae bc bd
       0.15742692 -0.17556813 0.17116119 -0.09213016
0001b0 38 92 29 3c 25 e6 10 3b 97 24 02 3d e9 f3 db 3d
       0.010349803 0.0022109833 0.031773176 0.107398815
0001c0 5d 92 a1 bd e0 b4 2c be 73 b0 c3 bd 31 45 21 3d
       -0.07889245 -0.16865873 -0.095551394 0.039372627
0001d0 8f ab 80 bd 98 f0 fd 3c 8b 8c c3 bd e3 90 a2 bd
       -0.06282722 0.030998513 -0.09548291 -0.07937791
0001e0 8a 7e 6b 3e 4d 58 04 3e 0a 70 40 3e b2 8c 0c be
       0.2299749 0.12924309 0.1879274 -0.13725546
0001f0 02 dc 29 bd 11 ba b0 bd f8 10 ac bd cd c4 3c bd
       -0.04146958 -0.08629239 -0.08401674 -0.04608612
000200 cc 26 30 bd c7 0b 26 be db 39 02 bd e1 a3 b0 3d
       -0.04300575 -0.1621543 -0.031793457 0.086250074
000210 c6 43 0a 3e fa 47 6e 3d ad ee db bc 7e f8 f3 bc
       0.13502416 0.05817411 -0.026847208 -0.029781576
000220 f9 24 22 3e bf d2 24 be 70 76 b3 3d 20 c3 df bd
       0.15834416 -0.16096018 0.087628245 -0.10925889
000230 38 1c 5a be 71 e4 1e 3e 2c c4 85 3d ea 08 86 3d
       -0.21299827 0.15516831 0.065315574 0.06544669
000240 3f bf 44 be 00 cf c9 3d b4 57 f1 3d 3d 06 2c 3e
       -0.1921358 0.09853935 0.11784306 0.16799255
000250 f4 5e e5 3d 86 d7 63 be a9 9e aa bd 27 f0 34 be
       0.111997515 -0.22250184 -0.08331043 -0.17669736
000260 21 7b e7 3b 53 43 a9 3c 6b 1a e0 bc bb ee cc 3d
       0.0070642387 0.020661986 -0.027356347 0.10006472
000270 b5 c5 3c be be 55 86 3d 4f 01 03 bd e5 f3 35 3e
       -0.18434794 0.06559323 -0.03198367 0.1776882
000280 8e 66 02 3e bd 68 f8 bd c7 84 8a bd 87 26 f4 3d
       0.12734434 -0.12129352 -0.067636065 0.11921411
000290 32 7c 17 bd c3 1d 81 3c e5 be 45 3e 2a 9b aa bd
       -0.036983676 0.015761262 0.19311102 -0.083303764
0002a0 41 ae ce 3c f5 61 86 3d 41 9c fd bd 53 ea f5 3c
       0.025229575 0.065616526 -0.12383319 0.030018961
0002b0 d4 3d 3d bd 1b 95 bb 3a 2d 10 0c 3d b9 21 c7 3c
       -0.046201542 0.0014311405 0.034195114 0.024308072
0002c0 d6 d0 29 be f6 9d 29 be 51 48 b0 ba 18 b1 17 be
       -0.16583571 -0.16564164 -0.0013449286 -0.1481365
0002d0 8d 5f aa 3b 0a ee eb bd aa 77 57 be 1b a9 4b bd
       0.005199379 -0.11520012 -0.21041742 -0.04972182
0002e0 8e c7 ea bd d1 08 76 be b4 82 a1 3c 5d 01 a7 bc
       -0.11463843 -0.240268 0.019715644 -0.020386392
0002f0 c4 a6 78 3d df 24 67 be 15 60 70 be d0 49 81 be
       0.060705915 -0.22572659 -0.23474152 -0.25251627
000300 d6 8c 26 be a5 05 80 be 46 61 19 bd ff a3 41 bd
       -0.16264662 -0.25004306 -0.037446283 -0.04727554
000310 9d b2 95 be 0f 4d 00 be 42 41 62 bd fc 0b 86 bc
       -0.29237834 -0.12529396 -0.055238016 -0.016363136
000320 c4 78 cf 3d ac 3e 50 3e 78 16 8b bd 58 33 23 be
       0.10130456 0.20336407 -0.06791395 -0.15937555
000330 fc ce c3 3c 07 9c d0 3d 12 14 42 bd 13 eb b1 bd
       0.023902409 0.1018601 -0.04738242 -0.08687415
000340 69 06 c9 3d f0 7f 7b 3d 71 f5 4c 3e bf 70 eb 3c
       0.09815676 0.061401308 0.20015503 0.028740285
000350 db 67 93 3d d1 55 12 3d 06 04 ab bd c5 98 4d bd
       0.07197543 0.035726372 -0.08350377 -0.05019452
000360 ab 36 10 be b3 65 2a 3e b2 fe b7 bd ab f4 a9 bd
       -0.14083354 0.16640358 -0.08984126 -0.0829862
000370 8c 25 25 be 69 f0 3d 3e 74 1f 03 be 78 2e 4f be
       -0.16127604 0.1854874 -0.12804967 -0.2023257
000380 01 76 b0 3d 63 8b 39 3d a7 a6 15 3e 52 d3 f6 3d
       0.086162575 0.045298945 0.14614354 0.12052025
000390 f5 7d ca 3d 82 68 0d be d2 f7 1c 3e 9d e6 b5 3d
       0.09887306 -0.13809398 0.15328911 0.088818766
0003a0 2c bf c9 3d 23 f9 20 be e8 dc 23 3e 3e 92 dc 3d
       0.09850916 -0.15720038 0.16002238 0.10770081
0003b0 4f 61 64 3d 08 80 ed bd 54 31 af 3c 12 85 24 3d
       0.055756863 -0.11596686 0.021385826 0.04016597
0003c0 cd eb 6e 3d d2 2d f6 bd 6f f1 4f be 71 51 e7 bd
       0.058330346 -0.12020458 -0.20306943 -0.112948306
0003d0 ce cc 4f be ab d7 35 bd cc 89 5c be 7e ab 8d 3d
       -0.2029297 -0.04439513 -0.2153694 0.06917475
0003e0 76 81 1f be 02 9d 5b be c5 5f 01 be 4d ce 32 be
       -0.15576729 -0.21446612 -0.1263419 -0.1746151
0003f0 d5 46 af bd c5 55 6e be bf 00 b4 bd 3b 00 ff bc
       -0.08558432 -0.23274906 -0.08789205 -0.03112804

conv1.bias f4 [64]
000000 b9 82 5f 3d e0 49 44 bc 21 ea 8d bd af d9 62 3d
       0.054568026 -0.011980504 -0.06929422 0.05538338
000010 78 47 0f 39 60 df 21 bd eb d1 cc bd bb 0f bd 3c
       0.00013664167 -0.039519668 -0.10000976 0.02307879
000020 18 cd 52 bd 89 91 2f 3d 99 65 e0 bd b7 d5 9b bd
       -0.051465124 0.042863403 -0.10956878 -0.07609122
000030 48 ba a9 3c 58 b6 be 3d 96 8a 41 3d 38 e6 90 3d
       0.020718709 0.09312123 0.047251306 0.07075161
000040 32 9d e5 bc 98 6d 61 ba dc f6 bc bd ff 9f 0d ba
       -0.028029058 -0.00085993996 -0.09226772 -0.00054025644
000050 1e 5d 3d 3d d9 0b a4 bd d9 83 ac 3d 55 f5 c9 bd
       0.04623138 -0.08010072 0.084235854 -0.098612465
000060 69 5a 50 bd f9 e6 bf 3d 2b 84 2f be 92 4a 1d bb
       -0.05086747 0.093702264 -0.17140262 -0.0024000746
000070 8f 63 06 3b 85 7f fb 3d ba 76 d9 39 cc 97 09 be
       0.002050612 0.12280182 0.00041477924 -0.13436812
000080 d1 9c f7 bd 3b fe e6 bd 28 3e 57 be 85 b0 eb bd
       -0.12090457 -0.11278959 -0.21019804 -0.11508278
000090 57 8b b3 bb 83 52 a4 3d 18 84 b0 bd 51 d5 2e 3e
       -0.005479257 0.0802355 -0.08618945 0.17073561
0000a0 67 74 93 b9 25 e7 08 b8 b5 fe e5 bd 72 1f 87 3d
       -0.0002812475 -3.2640197e-05 -0.11230222 0.065977946
0000b0 b1 6b 27 be 6f e8 02 be 2b 8c 00 be 64 83 8d bd
       -0.16349675 -0.12783979 -0.1255347 -0.069098264
0000c0 f1 30 8b 3c 3a ba 01 3d 38 bd e6 bc ee 0f 56 3d
       0.01699111 0.03167174 -0.028166398 0.052261285
0000d0 73 84 c5 3d a6 94 8b 3b 46 59 11 3d 1c cd 9c bd
       0.09644403 0.0042596636 0.03548553 -0.07656309
0000e0 7c 92 42 bb bc de 42 39 ab 30 ed 3c 24 cb 47 bd
       -0.0029689362 0.00018584257 0.02895387 -0.048777714
0000f0 5d b8 4b 3d 38 71 3c 3d a4 7a 1d 3b 9d 70 39 3c
       0.04973637 0.04600641 0.0024029398 0.011318353

conv2.weight f4 [128, 64, 3, 3]
000000 45 35 57 bc 43 d1 99 3c a2 c9 8f 3c b1 bb 52 bd
       -0.013135259 0.018776542 0.0175522 -0.051448528
000010 24 e2 cb 3c 88 dc d3 bc 5d ea 33 bc 15 76 26 bd
       0.024888106 -0.025861993 -0.0109811695 -0.040639956
000020 5a 1f 92 bb 76 8d eb 3b 65 18 0f bd 4e a2 f4 bc
       -0.004459304 0.0071884943 -0.034935374 -0.02986255
000030 e8 96 67 bd 07 12 31 bd 77 a8 57 bd 65 a5 7c bb
       -0.0565404 -0.043230083 -0.052650895 -0.0038550731
000040 b6 79 60 bd 70 2f c4 3c ba c2 bd bc 3a 05 8c bc
       -0.054803573 0.023948401 -0.023164142 -0.017092336
000050 23 a1 f2 ba f8 a2 c1 3b 05 af 28 3d 1e dc ce 3c
       -0.0018511157 0.00590932 0.041182537 0.025251444
000060 3d d5 f3 bb 29 ff 3a 3d 37 ea dc ba e8 42 a2 bc
       -0.0074411915 0.045653496 -0.001685447 -0.019807294
000070 1e 14 0c 3c 3a 3d 3f 3c 35 71 0a 3d 74 63 d5 bc
       0.008549718 0.011672312 0.03379937 -0.0260484
000080 08 fa 48 3b 4b 0f be 3c 8f c5 13 3d 7e da 9e bc
       0.0030666608 0.023200652 0.03607708 -0.019391295
000090 d4 d7 8a 3d 67 29 13 3d 1e 66 83 3d 49 66 dc 3d
       0.06779447 0.035928156 0.06415962 0.10761697
0000a0 8d 31 6d 3d d3 24 ec 3d 95 88 a8 3d ca f7 34 3d
       0.057908583 0.11530461 0.08229176 0.044181623
0000b0 f5 9c ea 3d 3e 13 07 3d d7 ac 1e 3d 3c 4a b4 bb
       0.114557184 0.032977335 0.03873905 -0.0055020135
0000c0 f3 8b 81 3c fe 31 45 3b 3f 8d dd 3c b2 0a 37 bd
       0.015813803 0.0030089612 0.02704489 -0.044687934
0000d0 8c ac 31 bd 74 05 0c 3c 91 3e 79 3d ba 19 96 bd
       -0.043377444 0.008546222 0.060850684 -0.07329126
0000e0 58 19 d9 bd 5d 5a 1f bd 2a b8 97 bc 7e 05 b5 bd
       -0.10600537 -0.038904537 -0.018520433 -0.08838938
0000f0 eb bf 21 bd a2 0b ec bb c8 4a ab bd cc 9b 8a 3c
       -0.039489668 -0.007203535 -0.08363873 0.016919993
000100 0a fc d4 3b 7f ba b7 3c 01 cc 02 bc a3 82 2b bd
       0.006499772 0.022427795 -0.007983209 -0.04187263
000110 1c fd 22 bd 04 a2 37 3c ea bf 44 bd 81 ed 22 bd
       -0.039792165 0.011208061 -0.048034586 -0.039777283
000120 3a 44 0d bd 17 c8 c1 bc cd 9c 09 bc 83 06 0f 3d
       -0.034488894 -0.02365498 -0.008399201 0.03491832
000130 c4 1e 01 3d 65 9d 24 3b f4 fe bd bc 9d 2f 08 bd
       0.03152348 0.0025118229 -0.02319286 -0.033248533
000140 3e 46 af 3b 91 02 22 3a af 79 48 bb af 78 01 3d
       0.0053489497 0.0006180192 -0.0030590107 0.031609233
000150 33 e6 b3 bc 19 6a 90 bc 51 00 b6 bc ae 19 de bc
       -0.021960353 -0.017628716 -0.022216948 -0.027111854
000160 79 06 42 3d 9d 02 90 bc 21 1c 64 3c f7 37 03 bd
       0.047369454 -0.017579371 0.013922722 -0.032035794
000170 08 d8 96 bc da 65 87 bc 8c f8 bc 3b b2 e8 8d bd
       -0.018413559 -0.016528059 0.005766934 -0.06929149
000180 47 26 a4 3b 89 c1 33 bc a5 3a 50 bd 14 4e 04 bd
       0.005009446 -0.010971435 -0.050837178 -0.032301024
000190 6c b7 06 bc 95 a9 d3 bb 9e fd c4 bc 1c 16 f4 bc
       -0.008222442 -0.0064594247 -0.024046715 -0.029795699
0001a0 48 bd c2 b8 90 f1 07 bd 8b 1d 8e 3c 79 0c 6b 3b
       -9.285897e-05 -0.033189356 0.017348072 0.0035865589
0001b0 84 d9 ee 3c d2 c1 92 3c d6 47 65 3d 4f 16 19 bc
       0.029156454 0.017914686 0.05597671 -0.009343698
0001c0 b2 65 01 3d 94 f6 53 3d 8a 45 0b 3d bc 47 56 3c
       0.031591125 0.051748827 0.034001864 0.013078626
0001d0 20 bc 4c bc f1 06 24 3c 26 a0 06 3d 3e 12 ed 3c
       -0.012496024 0.010011421 0.032867573 0.028939363
0001e0 f0 ae d6 3c 73 c6 48 ba c6 58 44 3c 36 4f 3a bc
       0.026206464 -0.0007658966 0.011984056 -0.011371424
0001f0 77 f2 59 bd 93 8e 5f bd 43 f7 8f 3c f4 53 db 3b
       -0.053209748 -0.05457933 0.017573958 0.0066933576
000200 86 e0 b4 3c d7 dc 48 3d 12 4e 05 3d 1b f5 3b 3c
       0.022079717 0.049038734 0.032545157 0.011472012
000210 89 71 8e 3d 70 e4 1a 3d e7 70 ff 3c 3e 12 28 3d
       0.06955249 0.03781551 0.031181766 0.041033022
000220 dc 17 0e 3d 9a 03 fe bb 92 e1 db b9 28 96 9c 3c
       0.034690723 -0.007751894 -0.00041938998 0.019114569
000230 f3 28 84 3c 42 dc 08 bc 05 d1 22 3d bd 81 98 3b
       0.016132807 -0.008353295 0.039750118 0.004654138
000240 86 7c 22 bb 84 92 d4 3c b9 a4 34 3d 02 f4 97 3c
       -0.002479346 0.02594877 0.044102404 0.01854897
000250 be c9 4e 3d 38 92 0f 3d 3a 35 8e 3d 0c 47 c5 bc
       0.050485365 0.035051554 0.06943746 -0.02408173
000260 c9 45 d2 bc ee 61 0e 3d e3 1a a9 3c d6 4d 72 3d
       -0.025668042 0.03476136 0.020642703 0.05915626
000270 d5 64 c6 bb 30 c9 08 bd 97 1d 83 3c 68 3e c4 3c
       -0.0060545006 -0.033394992 0.01600532 0.023955539
000280 4c 96 4b 3b 1f 1e 76 bd 8b 48 b8 3c d3 1b 37 3d
       0.0031064926 -0.06008732 0.022495529 0.04470427
000290 1d 32 ee bc c5 82 b3 bc 34 43 1f bd ea 7e 03 3c
       -0.02907663 -0.021912942 -0.03888245 0.008025864
0002a0 5c 39 48 3d 33 b7 e6 bc 40 2b 12 bd 8c 85 a0 3d
       0.048882827 -0.028163528 -0.035685778 0.07837972
0002b0 a3 e1 c5 3d 89 36 f4 3d a3 46 ca 3c 86 30 89 3d
       0.096621774 0.11924464 0.024691885 0.06698708
0002c0 e3 14 bc 3d e9 d1 5e 3d 0e 0a e2 3d 0c 86 bb 3d
       0.09183671 0.054399405 0.11037074 0.09156427
0002d0 db 70 19 3d 2b 5f da 3c 71 5c 1a 3c 26 e8 44 bc
       0.037461143 0.026656708 0.009421454 -0.012018239
0002e0 2d cb 82 3c 9c 6e 0d bb d6 a9 37 3d 79 87 36 3d
       0.015966022 -0.002158082 0.044839703 0.04456279
0002f0 9a 55 8c 3d f6 04 d4 bd 56 c2 85 bd b6 ff 53 bd
       0.06852265 -0.10352509 -0.06531207 -0.051757537
000300 9a ac 38 bd 4e 15 32 bc e8 91 d6 3c b7 c5 8c bc
       -0.04508648 -0.010869337 0.02619262 -0.017184122
000310 dc b2 34 bc b5 7d 56 3d d2 9b 52 3d a6 dc 11 3d
       -0.0110289715 0.052365977 0.051418133 0.035610817
000320 a7 fd 6c bc 5a b9 42 3d e1 23 c8 3b 58 44 35 3d
       -0.014464772 0.047540046 0.0061077927 0.04425463
000330 61 70 3d 3d c5 e3 62 3c f4 16 1f 3d 44 2a a9 bd
       0.04624975 0.01384825 0.03884025 -0.08260015
000340 cd f1 93 bd ad 2e 74 bb 52 cb 71 bd 2d b6 72 bd
       -0.07223854 -0.0037259266 -0.059031792 -0.059255768
000350 47 8f 9d bc 7d 30 a2 bc b8 b9 cc b8 7c f3 63 3c
       -0.019233359 -0.019798512 -9.762071e-05 0.013913032
000360 4c 74 43 bc e5 d1 50 3d 3e 0e 43 3d db 2a ce 3c
       -0.011929583 0.05098142 0.047621004 0.02516692
000370 46 37 c3 bc b0 17 a9 3c f9 f2 37 3c 3b f7 c4 bc
       -0.023830067 0.020641178 0.011227363 -0.02404367
000380 81 ae 9c 3c b6 80 37 3c ee 01 3c 3d 7d 6c 6c bc
       0.019126179 0.011200121 0.045900278 -0.0144301625
000390 97 ac d5 3a a8 5c 22 3c d8 f4 db bc 90 28 45 bb
       0.0016302046 0.009909786 -0.026850149 -0.0030083992
0003a0 2f 06 b8 3c 48 ce f3 bb 49 2d ea bb 6d fd b7 bc
       0.022463886 -0.007440362 -0.0071465117 -0.02245971
0003b0 3b 31 40 bd 95 af 3d 3c 47 2e 04 3d 14 29 96 bc
       -0.04692195 0.011577507 0.032270696 -0.018330134
0003c0 fc 8f 07 3d 50 9f bc 3c 00 1a fa bc 6a 6f c1 bc
       0.0330963 0.023025185 -0.030529976 -0.023612697
0003d0 96 d1 d7 bc 6c d3 83 bd 8f 2b 4d bd 23 ff 1c bd
       -0.026345056 -0.0643681 -0.05009037 -0.038329255
0003e0 a7 30 81 bd 64 18 fa bc 1e e1 8f bd 37 35 65 bd
       -0.06308108 -0.030529208 -0.070253596 -0.055958953
0003f0 89 df 29 be 35 89 2b be c4 de fd bd d5 6e 09 be
       -0.16589178 -0.16751559 -0.12396005 -0.13421185

conv2.bias f4 [128]
000000 29 32 ba bc a5 61 c3 bc 61 66 4f 3a 59 c6 9b ba
       -0.022728996 -0.023850271 0.0007911679 -0.0011884674
000010 d0 fc b6 bc 25 e5 bb bc 63 cd 79 3d 88 b4 c9 3b
       -0.022337347 -0.022936413 0.060986888 0.006155554
000020 e2 56 21 3b 6c fa 07 3b 63 32 23 3d 53 1d f5 3c
       0.0024618437 0.0020748628 0.039842974 0.02992121
000030 41 06 1b bc f5 9e 92 3a 1c 5e 50 3c 04 e8 78 3d
       -0.00946194 0.0011186289 0.01271775 0.060768142
000040 59 e3 ca 3b 26 17 06 3d 74 a2 bc bc 25 de 51 3d
       0.0061916527 0.03273692 -0.023026682 0.051237244
000050 fd 0b 33 3d 37 c8 64 bd d4 77 94 ba d7 57 d5 bc
       0.043712605 -0.055855002 -0.0011327215 -0.026042862
000060 93 b5 34 ba 51 08 27 bd 7d 91 ca 3a 25 c4 27 bd
       -0.0006893512 -0.040779416 0.0015454736 -0.040958542
000070 b4 d7 29 bd 70 17 a6 bc f7 6f e0 3c f2 50 55 bc
       -0.041465476 -0.020274848 0.027397139 -0.013019787
000080 39 51 48 3d 0a 86 6a 3c be 85 db bb a6 1a e6 3c
       0.048905585 0.014314184 -0.006699293 0.028088879
000090 2c 1b 9d bc 26 96 1e bd 8f 1b b6 bc 82 db 1e bb
       -0.019177996 -0.03871741 -0.022229938 -0.0024239724
0000a0 16 19 be 3c 67 f6 4c 3c 24 30 15 3c 90 15 6c bc
       0.023205321 0.012509919 0.009105716 -0.014409438
0000b0 47 c1 4a 3c d4 bf 31 bd 9e ef b7 3c 40 d6 41 3c
       0.0123751825 -0.043395832 0.022453126 0.011830866
0000c0 31 40 41 bd fb 6d 23 bc a0 75 1c bd f9 f4 f2 bb
       -0.04718036 -0.009974952 -0.038198113 -0.007414457
0000d0 2a 34 3e bd fc 54 5e 3d 7e 00 8d bc 2f 97 48 bd
       -0.046436466 0.054280266 -0.017212149 -0.048972305
0000e0 86 4e 06 3d 19 b9 75 bc 3b 5c 0d bb ec 58 48 bc
       0.03278973 -0.014997744 -0.0021569866 -0.012228232
0000f0 da fe 72 bd b9 28 1e bd 5f ef 09 3d df a5 ae bc
       -0.059325077 -0.038613055 0.033675548 -0.021319328
000100 82 10 52 3d dc e4 9c 3d 78 cb 25 3d 3a cd 1d bd
       0.051285274 0.07660839 0.040477246 -0.038525797
000110 a4 b0 80 3c 81 b8 94 3c 07 de 7b 3b cf 90 27 3c
       0.015709229 0.018154385 0.00384319 0.010227396
000120 94 f1 26 bd b8 17 0e 3d ad be 60 bb e1 9f 98 bc
       -0.04075773 0.03469059 -0.003429334 -0.018630924
000130 d3 7e ec 3b ff bf 18 3d 9c 9c 7b 3c bd 2e 3f 3d
       0.007217267 0.037292477 0.015357163 0.046675432
000140 62 d0 83 3b 1e 1c 04 3d 13 46 0f 3d 53 c4 42 bd
       0.004022644 0.032253377 0.034978937 -0.04755051
000150 63 9d 27 bc 86 aa 77 39 ac 80 37 3d 46 9b e3 3b
       -0.010230395 0.0002361928 0.044800445 0.0069460003
000160 98 b6 1a 3c 9e 1d 63 3d cc d5 fa 3c 47 64 55 3d
       0.009442948 0.055448167 0.030619524 0.052097585
000170 e6 cc f9 3c 04 70 b4 bb 53 90 77 3d 78 6a 41 3c
       0.030493211 -0.0055065174 0.060440373 0.011805169
000180 ae 17 bb bb 22 ca b5 bc f5 0b 18 bc cb a4 06 3d
       -0.00570961 -0.022191111 -0.0092801945 0.032872003
000190 86 72 eb bc 90 96 0c bc c3 01 47 3d 3c 69 9f bc
       -0.028741132 -0.008580819 0.048585664 -0.01945936
0001a0 1c 84 0e bd 05 78 3a 3d aa 60 7b bc 6b 56 3b 3d
       -0.034793958 0.045524616 -0.015342871 0.04573671
0001b0 3d 12 cf 3c fb bc f3 bc 19 41 1c bd d3 11 6f bd
       0.025277251 -0.029753199 -0.03814802 -0.058366608
0001c0 01 b3 f9 3c 98 ca 45 bd b0 17 87 3c e8 e2 f6 bc
       0.030480864 -0.04828891 0.016490787 -0.030137494
0001d0 52 d4 88 3d de a0 d5 3c a3 1e 21 bb e4 02 98 3c
       0.06681122 0.026077684 -0.0024584911 0.018556066
0001e0 38 2b e0 bc 7c 77 e4 bc 80 bd b2 3c 9a 04 13 bd
       -0.027364358 -0.027889006 0.021818876 -0.03589306
0001f0 6a 1f 9a 3d d1 ee 6e 3c 33 3e a2 bc 67 5c d7 3c
       0.07525523 0.014583305 -0.01980505 0.026289178

deconv1.weight f4 [128, 64, 3, 3]
000000 82 3f 03 bb b8 3a 6d bc c0 2b f6 3b e3 9d 69 bc
       -0.0020026867 -0.014479332 0.0075125396 -0.0142588345
000010 d4 fd 86 3c 30 29 af 3c c3 76 3a 3d 57 f4 b4 3c
       0.016478457 0.021381944 0.045523416 0.022089167
000020 64 19 b5 bb 42 42 fb 3c 38 8b 16 3d 00 91 29 3c
       -0.0055267084 0.030671243 0.036753863 0.010349512
000030 79 05 39 3d 85 6b 8d bc f6 b3 15 bb 4e dd bf 3c
       0.045171235 -0.017263183 -0.002284286 0.023420956
000040 4f dc c0 3c e2 7a 12 3d 70 cf a8 bd 82 1f 2d bd
       0.023542551 0.03576172 -0.082426906 -0.042266376
000050 fc 03 2f bd 58 68 07 bd 96 09 b1 bc 54 49 d9 bc
       -0.04272841 -0.033058494 -0.021611016 -0.026524223
000060 c4 b2 3f bd c5 ef a0 bd 59 03 6d bd e5 e3 7c 3d
       -0.046801344 -0.078582324 -0.05786452 0.061740775
000070 5b 20 85 3b 94 e3 71 3d 3d ef 2a bd 87 2f 77 bb
       0.004062695 0.059054926 -0.04173206 -0.0037717537
000080 e8 78 20 bd af 73 1e bd ad 65 74 bd cc da 54 bd
       -0.039177805 -0.038684543 -0.059667278 -0.051966473
000090 c4 14 2a 3c 25 30 a4 bc 2f d7 97 3c 25 c6 6d 3d
       0.0103809275 -0.020042488 0.018535225 0.058050293
0000a0 52 f4 3f 3d a4 d2 8f bc 32 71 96 3b a4 b7 6f 3c
       0.04686386 -0.017556496 0.0045911307 0.014631186
0000b0 c9 99 83 3a 7d 3c 12 3c 52 f8 15 3c 2a af d5 3c
       0.0010040338 0.008925554 0.009153442 0.026084501
0000c0 06 94 32 3d c2 5a e9 3b 21 c1 2d bd 9b f4 ab bc
       0.043598197 0.007121415 -0.04242051 -0.02099066
0000d0 6b 2b be bb a0 3d a6 bc 5e 7a 0b bd af fe a9 3c
       -0.0058035157 -0.020293057 -0.034052245 0.020751325
0000e0 fe 80 4f bd d5 da e9 bc fe 6f bf bc bd 85 5b bd
       -0.050660126 -0.02854673 -0.023368832 -0.05359434
0000f0 fe 79 6d 3c f1 22 27 3a ba 35 7a 3c 26 36 14 3c
       0.014494417 0.0006375751 0.0152715985 0.009046113
000100 12 72 fc bb 18 1e af 3b a4 f0 f9 3c 1d 63 1d 3c
       -0.007704028 0.0053441636 0.030510254 0.00960615
000110 75 a4 3d 3d f5 13 7d 3d 7c 61 91 bc cb b4 a4 bc
       0.046299417 0.06178661 -0.01774668 -0.02010574
000120 82 9d 0e bc 7e 15 2b bb c7 eb b6 bc 90 64 82 3c
       -0.008704545 -0.002610534 -0.022329224 0.015917093
000130 7f 1a e7 bc 06 59 42 3c fc ea cf 3c da 59 c8 3c
       -0.028210877 0.011862045 0.025380604 0.024456907
000140 1f 68 34 bd 34 80 d1 3c 24 ca 82 bc 70 08 b7 bc
       -0.04404461 0.025573827 -0.015965529 -0.02234289
000150 8f 1f a1 3a 14 05 01 3d 77 f2 23 3d 3e 3b 56 bc
       0.001229273 0.031498984 0.040026154 -0.013075648
000160 40 01 01 3d 76 fe 1d 3d 89 b1 28 39 18 83 0a 3c
       0.031495333 0.03857275 0.00016087866 0.008454107
000170 9b 47 36 bd 9a e3 43 3c 71 c8 0a 3d cf 43 e3 bc
       -0.044501882 0.01195612 0.033882562 -0.027742295
000180 2d 16 2a 3d 1d ad f4 3c d8 f3 e4 bc 8c 03 05 bc
       0.041525055 0.029867703 -0.027948305 -0.008118521
000190 ce e7 24 3c 02 4a 27 3d 56 55 84 3c 49 5d 34 3c
       0.010065032 0.040842064 0.016153973 0.011008569
0001a0 22 29 98 bc 9b 2a 3f 3b e6 1e 98 3c de 5b c4 bc
       -0.018574301 0.0029169682 0.018569421 -0.023969587
0001b0 b0 47 09 3d 70 c2 4c 3c 43 b3 29 3d d2 54 81 bc
       0.033515632 0.012497529 0.041430723 -0.015787516
0001c0 f2 f6 d9 bc 1a a8 c0 bc 16 da 9e bc c9 8e 90 3c
       -0.02660701 -0.023517657 -0.0193911 0.01764621
0001d0 c7 6f 8b 3c ea bb f4 bb 1d 86 36 3d bc 2b 21 bd
       0.017021073 -0.00746869 0.044561494 -0.03934835
0001e0 f9 fb 52 bd ca d0 35 3d b1 df cf bc f7 a6 66 bd
       -0.05150983 0.04438857 -0.025375219 -0.056311574
0001f0 01 ee 49 3d 22 03 ac bd 91 ce a5 bd 68 b2 d6 bd
       0.049299244 -0.08399035 -0.0809604 -0.10483247
000200 99 d3 47 bc 14 eb 94 bd 2e f8 9d bd bc ec 79 bd
       -0.012196445 -0.072714 -0.07713352 -0.061016783
000210 71 ba 8f bd af 74 1b bd be a5 05 bd 81 bf 81 bd
       -0.07017983 -0.037953075 -0.032628767 -0.063353546
000220 90 5b 0c bd 5b 6a b0 bc bf 4e 0f bd 7f dc 0d bd
       -0.03426701 -0.02153509 -0.034987208 -0.03463411
000230 92 e5 cf 3b e3 a1 02 bb c7 8b af bb be c6 1f 3c
       0.0063445056 -0.0019932918 -0.005357239 0.009751974
000240 25 23 7d bb 88 94 68 ba d8 38 9a ba af 3d 3b 3d
       -0.0038625684 -0.00088722305 -0.0011766208 0.045713123
000250 7e b1 d5 bc 94 aa eb 3b 03 d8 37 3d 96 57 e2 3c
       -0.026085611 0.0071919654 0.04488374 0.027629655
000260 d8 42 ee bb 75 08 70 bd 5c ab b9 3b cd 67 aa bc
       -0.007271152 -0.058601815 0.0056661796 -0.02080145
000270 af 79 e1 bc fd 4a 12 bd bb 84 e2 bc 0f db 58 bd
       -0.027523844 -0.035716046 -0.027651181 -0.052943286
000280 97 27 7a 3c ec e1 19 bc 0f 4f 5c bd 4f f3 a1 bd
       0.015268228 -0.009392243 -0.053786334 -0.079077356
000290 4f 24 fb bc bf da f3 3a 23 c1 6f bc 49 b7 43 3c
       -0.030656962 0.001860462 -0.01463345 0.011945554
0002a0 ea 40 5f 3d 62 4c 87 3d 20 5a 82 3d 85 ba 7d 3d
       0.054505266 0.06606366 0.06364846 0.061945457
0002b0 ff 64 74 3d bf 79 80 3d 54 0d eb 3b 56 4a 55 3d
       0.05966663 0.06273221 0.0071732197 0.052072845
0002c0 94 b8 4d 3a 83 aa d6 3a 10 6b dc bc 1c 3e 1f 3d
       0.00078476337 0.0016377721 -0.02690652 0.03887759
0002d0 33 70 3a bb 5b 72 3a 3a c4 98 b9 bb eb ea 7a bd
       -0.0028448224 0.0007112377 -0.005663963 -0.06125919
0002e0 b4 1c 5b bd 61 e6 ca bc 60 b6 3f bd 88 28 04 bd
       -0.05349417 -0.024768056 -0.046804786 -0.032265216
0002f0 2a d5 72 bb 7c 8f 18 3c c4 ec ea 3b 7f 9f 7b bb
       -0.0037053325 0.009311553 0.007169338 -0.0038394628
000300 32 42 dd 3b 92 54 36 bc a1 87 31 bc f6 6e 31 3b
       0.006752276 -0.011128562 -0.010835559 0.0027074195
000310 71 ca a4 bc c6 26 ce bc 4c 8d 44 3c d9 a0 fa 3c
       -0.020116063 -0.025164973 0.011996578 0.030594276
000320 d5 04 ba 3c 10 b2 c5 bc 10 dc 96 3c 4e 4e 47 3c
       0.022707382 -0.024132758 0.01841548 0.012164665
000330 60 0c 16 bc 2b d5 61 bc dd d7 af bc 11 35 57 3c
       -0.009158224 -0.013783733 -0.021465236 0.013135211
000340 af 37 35 3d f1 1d 22 3d 45 48 0f 3d 10 b9 8d 3c
       0.044242557 0.039579336 0.03498103 0.017300159
000350 5b d5 cb bc fe 0a 10 3c b4 36 fa 3c 8f 8c 41 3d
       -0.02488201 0.008791683 0.030543663 0.047253188
000360 be 8d b9 b9 52 64 bd bc 12 32 37 3d 1c dc 97 3c
       -0.00035391556 -0.023119126 0.044725485 0.018537574
000370 64 60 8e 3c a0 66 30 bc b4 81 e1 3c 16 4d d8 bb
       0.017379947 -0.010766655 0.027527668 -0.0066009862
000380 8d 00 97 bb 60 77 d8 bb 73 89 8a bb 59 6a 8e bd
       -0.00460822 -0.0066060275 -0.004227811 -0.06953878
000390 c4 59 2b 3c fe b9 3b bd d6 52 72 bd 55 29 3a bd
       0.0104584135 -0.045831673 -0.05916103 -0.045449574
0003a0 83 de 0c bd 68 4f 22 bd 90 e6 c6 3c f3 8c d8 bc
       -0.03439189 -0.03962651 0.024279863 -0.026434397
0003b0 15 0f f6 3a 2d ba 1f bc f1 f6 36 3d c4 76 18 3d
       0.0018772805 -0.009748978 0.044669095 0.03722264
0003c0 00 ab 1a bc 95 14 ca bc b0 87 f6 bc 52 39 8d bb
       -0.009440184 -0.024668017 -0.030093998 -0.0043098116
0003d0 d1 21 ab bc c7 34 d4 3c 3c 3d 02 bc 27 db b8 3c
       -0.020890148 0.025904072 -0.00794917 0.022565437
0003e0 31 00 e3 3c ac 9d ae bc c8 3c b0 3c cf 84 c3 3b
       0.027710052 -0.021315418 0.021513358 0.0059667598
0003f0 cb d1 08 be 5b 4d 61 bd 41 1d 32 bd a6 77 28 3d
       -0.1336128 -0.055005413 -0.04348493 0.04112973

deconv1.bias f4 [64]
000000 08 c1 5f 3b 23 3f 87 3d bf 90 66 3d 2e a4 52 bc
       0.0034142155 0.06603839 0.056290384 -0.012856526
000010 d9 48 2e bb a3 69 ed 3c a5 9e 61 3d 0a fc ac 3b
       -0.0026593714 0.028981036 0.055082936 0.005279069
000020 80 01 be 3c c9 18 79 3d d7 98 ae 3c 7d b3 33 3d
       0.023194075 0.060814653 0.021313114 0.043872345
000030 36 bc 55 3d d9 d9 ff bc 77 0d 03 3d 3d e3 78 3d
       0.052181445 -0.031231808 0.031995263 0.060763586
000040 cd 99 56 3d da 2a 4f bd 23 30 06 3d dc e0 41 3d
       0.05239277 -0.050577976 0.03276075 0.047333583
000050 fc d2 86 3c af 94 89 3d d8 03 74 3c 57 6e ae bc
       0.016458027 0.06717812 0.014893495 -0.021292849
000060 c4 8a 13 3d da 5e 9d 3b 3e 3a 88 bc e0 04 84 3d
       0.03602101 0.004802567 -0.016629335 0.06446242
000070 8b 2d 3d 3d 5d 5f 17 bd ee 10 71 3d 90 c6 5c bc
       0.04618601 -0.03695618 0.058854036 -0.013475075
000080 6a 14 68 3c 5c a4 10 3d 8e 94 22 3d b4 ab 39 3d
       0.014165023 0.035312995 0.039692454 0.045329764
000090 56 74 8c 3d bf 49 97 3d 1d e8 01 3d 54 ae 13 3d
       0.06858127 0.07387113 0.0317155 0.036054924
0000a0 31 e4 67 3c 02 e9 6f bc af 01 90 3d 94 48 ca 3b
       0.014153526 -0.014642956 0.07031571 0.006173203
0000b0 4d ab 68 3d 8b 66 06 3c 65 af 32 3b 07 af 97 3d
       0.05680399 0.008203159 0.0027265188 0.07406431
0000c0 d5 57 5f 3d a1 49 65 3d ab 33 89 3d 92 fb 5f 3d
       0.054527123 0.05597842 0.06699308 0.054683276
0000d0 60 84 1d 3c 0e 7d be 3b 3b cf 10 3d 95 68 57 3d
       0.00961408 0.0058132475 0.03535388 0.05258997
0000e0 e2 bd 88 3d 03 f4 0a 3d f6 47 b2 bb 78 7e af bc
       0.06676842 0.033924114 -0.0054407073 -0.02142261
0000f0 d2 b0 1d bd 03 00 73 3c c4 90 8d bb 19 97 dd b9
       -0.038498707 0.014831546 -0.004320236 -0.0004226498

deconv2.weight f4 [64, 64, 3, 3]
000000 08 5d 23 bc ec 95 f0 bc f6 03 17 3d 6a c2 9d bb
       -0.009970911 -0.029368363 0.03686901 -0.0048144357
000010 50 d5 70 bc 3d 20 26 3c 7a 21 82 3c a2 80 b5 bc
       -0.014699295 0.010139522 0.015885103 -0.022156063
000020 fd 03 12 bb 0f b9 dc 3c 29 c8 f0 bc 15 d5 5a 3d
       -0.002228021 0.026943712 -0.029392319 0.053425867
000030 94 9f a1 bc 02 18 35 bc 60 bf 87 bb da f6 31 3d
       -0.019729413 -0.011053087 -0.0041426867 0.043448307
000040 f9 30 1b 3d af 47 b8 3c ed 02 7d bc de 9e 03 3c
       0.0378885 0.022495119 -0.015442592 0.008033482
000050 06 eb 78 bc 7e b2 a5 bb ff bd 4b 3d 5d ca 07 bd
       -0.015192753 -0.0050566783 0.04974174 -0.033151973
000060 8a da 21 bc e6 a9 29 3d 24 f3 8e 3b b6 f3 c9 bb
       -0.009878764 0.041421793 0.0043624807 -0.006163086
000070 a5 36 f6 3b 12 63 61 3c bb b3 62 bb 15 f7 ad bc
       0.0075138384 0.01375653 -0.003459199 -0.021235982
000080 bf f9 11 3d e5 e5 07 bd dc 27 2c bd 7d 93 02 bd
       0.035638567 -0.03317823 -0.0420302 -0.031878937
000090 25 4c 18 3c 43 ba b1 3b 83 3b 77 3d f1 ad 49 3d
       0.009295498 0.0054238155 0.06035949 0.04923815
0000a0 85 a1 3c 3c aa 80 2d 3d f7 cf 83 3d e0 35 dc 3c
       0.011513119 0.04235903 0.064361505 0.026881158
0000b0 09 69 80 3d 87 77 4a 3c 55 d8 1a 3b 20 ec 00 bd
       0.06270034 0.012357599 0.002362748 -0.031475186
0000c0 47 53 fa bb dd 0b 65 3c 2c e3 3d 3c 67 b1 fe bc
       -0.007639322 0.013979879 0.0115898065 -0.031090451
0000d0 8e 8d 1c bd 25 88 5b bc 46 c2 d8 bc a2 d1 ae bc
       -0.038220935 -0.013399159 -0.026459824 -0.021340195
0000e0 3e e1 05 bd d4 8b da 3c 7d a9 9f 3c 7a 2e 70 3c
       -0.03268551 0.026678003 0.019489998 0.014659518
0000f0 ad 5f 81 bd 8c 09 c9 bc 71 0c 1b bd 6c c9 f4 3b
       -0.06317077 -0.024540685 -0.037853662 0.0074703004
000100 61 b6 1b bd 8b 82 ad bc 7c 3a 05 3d 19 1b fd bc
       -0.038015727 -0.021180412 0.03252648 -0.03089671
000110 e9 a7 d3 bc b3 a5 cf bc f2 8f 18 bd af d9 c1 3c
       -0.025836902 -0.025347566 -0.037246652 0.02366337
000120 6f 02 b5 3c 7a 31 47 bc 27 d3 21 3d de 6b 21 3c
       0.022095887 -0.012157792 0.03950801 0.009852378
000130 c0 8d 4a 3c f0 ee 40 3d 84 c8 43 3d 46 47 6a 3d
       0.012362897 0.04710287 0.04779865 0.057196878
000140 62 9d 47 3c e8 32 85 3c c8 19 44 3c e4 27 77 3d
       0.012183519 0.016259626 0.011969037 0.060340777
000150 ba b3 ed 3c f5 57 a5 bb 13 6d 48 bc a2 4e 95 3d
       0.029016364 -0.0050458857 -0.012233037 0.07290389
000160 23 8a a7 3c f7 d2 41 3d 6f 99 88 3d 96 d1 38 3d
       0.02045161 0.047320332 0.0666989 0.04512175
000170 a7 86 db 3c 0c 43 26 3d f7 18 91 bb 1a 0c 94 3c
       0.026797606 0.040591285 -0.004428025 0.018072177
000180 37 08 03 3d 5f 9f 8d 3d bd d4 91 3d 11 52 b5 3c
       0.031990256 0.06915163 0.07120655 0.022133859
000190 b0 49 3d bd 12 4c e1 3c 58 38 13 3b 2d 1d 5c bb
       -0.046212852 0.027502093 0.0022464003 -0.0033586726
0001a0 5c 4f 3c b9 e0 c6 23 bc da 5b 96 3c d9 ca de 3c
       -0.00017958641 -0.009996146 0.018354345 0.027196335
0001b0 1e 38 74 bc 1d a0 1f bd 56 55 cc bc a2 2c 49 bb
       -0.0149059575 -0.038971055 -0.024943035 -0.003069677
0001c0 94 44 87 3b 18 2e b3 bc 38 15 76 3c cb 0d 4f bc
       0.004128048 -0.021872565 0.015019707 -0.012637566
0001d0 e1 a6 c5 bc 13 41 f7 3c 7c a2 88 3b a7 66 2c 3d
       -0.024127426 0.030182397 0.0041697603 0.042090084
0001e0 23 71 9c bb fa 1d 95 bc 31 82 cf bc ff f9 58 bc
       -0.004774229 -0.01820277 -0.025330635 -0.013243197
0001f0 e0 49 8e 3c 85 c2 5b 3d 04 c6 b4 bc f4 ba 2f bd
       0.01736921 0.053652305 -0.022067077 -0.0429029
000200 c0 e5 95 3c 06 3b d3 3c 7d 7c 75 bc b1 b8 c2 bc
       0.01829803 0.02578498 -0.014983294 -0.023769708
000210 f8 75 95 3c fb b2 a9 bc 14 4a 0f bd f5 f2 ef bb
       0.018244728 -0.020715227 -0.034982756 -0.007322664
000220 72 91 95 3c f4 67 03 bb 8e a4 51 3d 33 ba c8 bb
       0.01825783 -0.0020050975 0.051182322 -0.0061257123
000230 de 16 6b ba 30 45 cc bc 8c 2a ec bc 2e a5 c9 bc
       -0.0008967946 -0.024935335 -0.028828882 -0.024614897
000240 81 16 fa bc cb 68 f2 bc 09 61 4c bd 8c 51 4f bd
       -0.030528309 -0.029590985 -0.049897227 -0.05061488
000250 6f d6 97 bb 06 7f de bc ad dc c7 bc 8d 37 60 bd
       -0.004633717 -0.027160179 -0.024397219 -0.054740477
000260 e0 37 06 bd 1f 63 6f 3c b1 b1 47 3d 57 0e 07 3d
       -0.03276813 0.014611035 0.048753444 0.03297266
000270 c4 b3 51 3b 8d c8 1d bc 91 ce e5 bb 2f c6 7a 3d
       0.0031998018 -0.009630335 -0.00701315 0.06122416
000280 11 27 0c 3c 71 9e 31 3d 48 49 2a 3d 49 2d 29 3d
       0.008554236 0.043363992 0.041573793 0.041302953
000290 6d 00 6c 3c 9a a4 a2 bc 65 f6 06 bd 2b 20 17 3d
       0.014404398 -0.019853879 -0.032949824 0.036895912
0002a0 b8 8e 07 3d b3 23 36 3d f1 18 35 bc 15 45 69 3c
       0.03309509 0.04446764 -0.01105331 0.014237662
0002b0 5c 84 d3 bc 4d 5d db bc b1 24 15 bd d9 e3 48 bd
       -0.02581995 -0.026777888 -0.036411945 -0.049045417
0002c0 1c 31 4d bd 7d 4c 68 bd 2a fc dd bc 3a 8c 4d 3c
       -0.050095662 -0.05671357 -0.02709778 0.01254564
0002d0 dd 1d 5c bd a8 f1 6c bc d5 d0 d4 bb 5e 3c c0 3c
       -0.053739417 -0.014461912 -0.0064946213 0.023466285
0002e0 3d 4b d4 3c ac 65 ec bc 32 3d 7e 3c c0 ad 8e 3c
       0.025914783 -0.028857075 0.01551752 0.017416835
0002f0 f0 f7 fc bc 08 21 e2 bc ae 58 d6 3b b2 fc 89 bc
       -0.030879945 -0.027603641 0.006541333 -0.016844127
000300 77 6a 47 3c 48 ab 71 bd 7a 1b 02 bd a1 14 19 3c
       0.012171379 -0.059001237 -0.031764485 0.009343297
000310 35 ad a5 3a 9b 2d d5 bb 2b 9d 5c bc f8 29 0e 3a
       0.0012640121 -0.0065056807 -0.013465206 0.0005423124
000320 5c b8 6c 3c 4b bd 29 bd c1 92 25 3b 54 d9 d4 3b
       0.014448252 -0.04144029 0.0025264474 0.006495634
000330 69 d6 6e bc 2e 3c a4 bc b4 ea cb bc 8a ad ba 3c
       -0.014577487 -0.020048227 -0.024892189 0.022787828
000340 58 8b 9f 3c bf b1 3b bd 7b 0f 59 bc e8 76 4d bd
       0.019475624 -0.04582381 -0.01324832 -0.050162226
000350 56 d3 22 bc f9 e3 1e bd 54 c6 8b ba 31 5a db 3a
       -0.009938082 -0.03879163 -0.0010663965 0.0016735253
000360 3a 2b 89 3b be ed 62 3b ff b0 38 3c 9a 05 19 bd
       0.004186061 0.0034626569 0.011272668 -0.037358858
000370 b8 c1 c8 bb 0a 22 cc 3c 57 bc 9f 3c e0 17 bc 3c
       -0.0061266087 0.024918575 0.019498987 0.022960603
000380 54 38 0e ba 7c 12 4a 3d e3 d4 ca 3c 48 87 41 3d
       -0.00054252637 0.049334034 0.024759715 0.047248155
000390 cd 9e 6f 3c 01 c0 81 3c 29 a0 03 bb 0e b3 8f 3d
       0.014625263 0.015838625 -0.0020084477 0.07016574
0003a0 c9 ad f6 3c 9d 62 aa 3c 0b b9 8e 3d 69 db 80 3d
       0.030112164 0.020798976 0.06968888 0.06291849
0003b0 f8 80 58 3d 5f 57 01 3d 36 e1 8f 3d ae 2d 8f 3d
       0.05285737 0.031577464 0.070253775 0.069911346
0003c0 28 4d a4 3d 0c 99 80 3d 5b a6 01 3d b9 ce 50 3c
       0.08022529 0.062791914 0.03165279 0.012744599
0003d0 62 61 13 bd d3 98 25 bc de 6d a6 bc 02 29 40 bd
       -0.035981543 -0.010107237 -0.02031606 -0.046914108
0003e0 e7 4d 40 bd 07 ed cc bc 3c ea bf bc c1 6f 60 bd
       -0.046949293 -0.025015367 -0.023427121 -0.054794077
0003f0 cd ae 43 3d a6 d1 6e bc 5e 23 52 3d 4d 02 1d 3d
       0.047774125 -0.014576351 0.05130326 0.038332272

deconv2.bias f4 [64]
000000 32 11 5a bc 65 69 a6 bd 14 e9 1b bd c3 e8 f8 bd
       -0.013309764 -0.08125571 -0.038064077 -0.12153771
000010 11 0a ed 3c cd dc 48 bd 64 39 3c 3d 13 ca 40 bd
       0.028935464 -0.049038697 0.04595317 -0.047067713
000020 86 e8 47 bd 22 e7 a1 bd 2b 13 a8 bd 3d 0f 12 3d
       -0.048805736 -0.07905413 -0.08206781 0.035659064
000030 eb 98 b9 3c c0 7a ba bd 76 9d 8d bc 9d 6b 43 be
       0.022655925 -0.09105444 -0.017286997 -0.1908402
000040 6b 5b 36 3b c8 06 bb bd 5f 53 54 3d d1 3b e9 ba
       0.0027825485 -0.09132153 0.05183732 -0.0017794316
000050 57 f6 9d 3d 3d a2 ea bd 65 bb 28 3e ed 22 0a bc
       0.07713001 -0.11456726 0.16477735 -0.0084311785
000060 8b 88 6a bd 59 9d 1f be 6e 2f 45 3d ec 4a 21 3e
       -0.057259124 -0.15587367 0.048140936 0.15751237
000070 c0 a3 91 bd f2 f3 98 3a 4a 41 5b bd e5 c0 7f 3d
       -0.07111311 0.0011669381 -0.05352906 0.062439818
000080 62 05 a8 bc d5 36 b7 bc 78 28 41 be e9 78 fe 3d
       -0.02051038 -0.022365013 -0.18863094 0.124254055
000090 7d 1e bd bd 72 94 3b bd 91 fd 27 be 6a 3a b3 bd
       -0.09234331 -0.045795865 -0.16405322 -0.08751376
0000a0 ea 9c 35 bd 46 2c 7b 3d d6 d9 71 bd 97 a5 00 3e
       -0.044339098 0.06132152 -0.059045635 0.12563168
0000b0 89 00 94 3d bc b5 04 bd 87 21 a1 bd f2 78 88 bd
       0.072266646 -0.032399878 -0.07867723 -0.066636935
0000c0 f3 08 81 bd e7 85 bd bd e7 5f 80 3c c1 3c bd 3d
       -0.06300535 -0.092540555 0.01567073 0.092401035
0000d0 27 80 cb 3d 77 ce ca bd f6 42 d2 bb b6 6f 8c 3d
       0.099365525 -0.09902661 -0.006416674 0.06857245
0000e0 26 e2 2f 3e da 34 99 bc 8a 2e a0 3d 9d 8e 08 3e
       0.17176113 -0.01870196 0.078213766 0.13335653
0000f0 80 44 07 3d 78 41 c7 3d 9c a5 24 3d 2f b7 8f 3c
       0.03302431 0.09729284 0.040197 0.017543403
