contrastive_save/contrastive_weights_best.pt (torch, 749068 bytes, 8 tensors)

conv1.weight f4 [64, 3, 3, 3]
0	0x3d9333ba	0.071876004
1	0xbdd9c87e	-0.10633944
2	0x3d017611	0.031606738
3	0x3d8573a4	0.06516197
4	0x3d9f573b	0.0778031
5	0xbdf15ed6	-0.11785667
6	0x3e0a5817	0.13510166
7	0xbdecc842	-0.11561634
8	0xbe3a1606	-0.18172464
9	0x3db8fe94	0.09032932
10	0xbe0a2c12	-0.13493374
11	0x3dc5ed4b	0.09664401
12	0xbe178f90	-0.14800858
13	0xbd2e84a0	-0.04260695
14	0x3e5296dd	0.20565362
15	0x3d833836	0.06407206
16	0x3e01d1a2	0.12677625
17	0x3e46a623	0.19399314
18	0xbe457bc1	-0.1928549
19	0xbc8025be	-0.015642997
20	0xbe328fdf	-0.17437695
21	0xbcd6effd	-0.026237482
22	0xbe6ab666	-0.22921142
23	0xbc89db3c	-0.016828172
24	0xbd974766	-0.07386665
25	0xbe0de088	-0.13855183
26	0xbdea1b66	-0.11431007
27	0xbe0ae6da	-0.13564625
28	0xbc047c27	-0.008086241
29	0xbe0fbd87	-0.14037143
30	0x3cd804a3	0.026369398
31	0x3ce945a4	0.02847559
32	0x3c9bfd59	0.019041704
33	0xbe204e93	-0.15654974
34	0x3e237c64	0.1596542
35	0x3e01fde7	0.12694512
36	0xbe6bd440	-0.23030186
37	0x3de3d6e2	0.1112497
38	0x3d8d350e	0.06894885
39	0xbd8bbb0e	-0.06822787
40	0xbc6e658c	-0.014550578
41	0xbe45b2b7	-0.19306456
42	0xbe6480f1	-0.22314812
43	0xbe7016e3	-0.2344623
44	0xbe5ef832	-0.21774366
45	0x3deed0ba	0.11660905
46	0xbdec2954	-0.1153132
47	0x3bb6c5a2	0.005577759
48	0x3e372768	0.17886126
49	0x3e0d21c1	0.13782407
50	0x3e1d846f	0.1538255
51	0xbe14470f	-0.14480232
52	0x3d20f3d9	0.03929505
53	0x3e30e1ae	0.1727359
54	0xbe35c271	-0.17749955
55	0xbb1c9f8c	-0.0023898808
56	0xbdb6e596	-0.08930509
57	0xbda0ce14	-0.07851806
58	0x3b40ab6c	0.002939905
59	0xbd9d72b5	-0.07687894
60	0xbdd4591f	-0.10368561
61	0x3da51410	0.08060467
62	0xbd6ee857	-0.058327045
63	0x3b60ab14	0.0034281658
64	0x3de230db	0.11044475
65	0x3d617605	0.055044193
66	0xbe2b982d	-0.16757269
67	0x3e3bb757	0.18331657
68	0x3e2e907f	0.17047308
69	0x3e3842c3	0.17994218
70	0x3ca2b70e	0.019862678
71	0x3bd83b46	0.006598863
72	0xbdc3cf0a	-0.09560974
73	0xbe19bb3e	-0.15012833
74	0xbd20a306	-0.03921797
75	0x3df2f3c8	0.11862904
76	0x3df98dd4	0.12185255
77	0xbcaa0360	-0.020753562
78	0x3dd4771c	0.10374281
79	0x3cb77f33	0.02239952
80	0xbb24d0f4	-0.002514896
81	0xbe50c6a6	-0.20388278
82	0xbd195210	-0.037431777
83	0x3e3b8c85	0.18315323
84	0xbcc25532	-0.023722265
85	0x3bbc6ce5	0.005750286
86	0x3dd6a7bd	0.10481212
87	0xbe3ab03c	-0.1823129
88	0x3e2b5536	0.16731724
89	0xbc5326a7	-0.012887633
90	0xbe0bf367	-0.1366707
91	0x3af7e022	0.0018911401
92	0x3df57b43	0.11986401
93	0xbcfd0cad	-0.030889833
94	0xbe0304be	-0.12794778
95	0x3db480c7	0.08813625
96	0xbd1e6f4f	-0.03868037
97	0x3da884f0	0.08228481
98	0xbe15b377	-0.14619242
99	0x3daba69c	0.083813876
100	0x3d8594fa	0.06522556
101	0xbdf98f9a	-0.12185593
102	0xbda4df2e	-0.08050381
103	0x3c4a2a52	0.0123391915
104	0x3e228beb	0.15873687
105	0xbe361ee4	-0.17785221
106	0x3e2eb041	0.17059423
107	0xbdbc68c7	-0.09199672
108	0x3c6be776	0.014398446
109	0x3bb09e29	0.005389948
110	0x3cf93b21	0.030423703
111	0x3de6eace	0.11275254
112	0xbd9caccf	-0.07650148
113	0xbe2fffc5	-0.17187412
114	0xbdc38747	-0.095472865
115	0x3d20edec	0.0392894
116	0xbd8f55f4	-0.06998816
117	0x3d0b65df	0.0340327
118	0xbdbfb644	-0.09360936
119	0xbda1f407	-0.07907873
120	0x3e70d071	0.23517014
121	0x3e086e7e	0.133234
122	0x3e42757a	0.18990126
123	0xbe09d962	-0.13461831
124	0xbd201111	-0.039078776
125	0xbdb1b938	-0.08677906
126	0xbdaea575	-0.08527652
127	0xbd4212c8	-0.047381192
128	0xbd3968ae	-0.045265846
129	0xbe251c68	-0.16124117
130	0xbcf564ee	-0.029955354
131	0x3db331fc	0.08749768
132	0x3e0bad0b	0.1364023
133	0x3d75cf97	0.060012426
134	0xbce6dafb	-0.02818059
135	0xbcf52a05	-0.029927263
136	0x3e237409	0.15962233
137	0xbe262434	-0.16224748
138	0x3db66d59	0.08907575
139	0xbddd55b3	-0.108073615
140	0xbe5c7122	-0.21527532
141	0x3e235466	0.15950164
142	0x3d8b14a2	0.06791045
143	0x3d855ca0	0.065118074
144	0xbe441b63	-0.19151072
145	0x3dd0d8cd	0.101976015
146	0x3df35c4b	0.11882838
147	0x3e2d67c1	0.1693411
148	0x3de9dd7c	0.11419198
149	0xbe650081	-0.22363473
150	0xbda20509	-0.07911117
151	0xbe32a252	-0.17444733
152	0x3beb1d76	0.007175143
153	0x3c9e308c	0.019310258
154	0xbcd5c622	-0.026095454
155	0x3dcb983a	0.09941144
156	0xbe3d46d6	-0.18484053
157	0x3d87d59d	0.066325404
158	0xbd0c17b8	-0.034202307
159	0x3e383231	0.17987897
160	0x3e035ae3	0.1282764
161	0xbdfbc535	-0.12293474
162	0xbd80326e	-0.06259619
163	0x3e000409	0.1250154
164	0xbce97285	-0.02849699
165	0x3caa68e9	0.020801978
166	0x3e4b81d7	0.19873749
167	0xbd994172	-0.07483186
168	0x3cf7b290	0.030236512
169	0x3d919d2f	0.071100585
170	0xbdee3223	-0.116306566
171	0x3ca37233	0.019951915
172	0xbd70de76	-0.058805905
173	0xbbef584f	-0.0073042284
174	0x3c9f2d8c	0.019430898
175	0x3c419b8a	0.011816869
176	0xbe30e492	-0.17274693
177	0xbe38a2e7	-0.18030892
178	0xbc446d0f	-0.011988892
179	0xbe1d4cf5	-0.15361388
180	0x3b4b5ab0	0.0031029396
181	0xbdf36c47	-0.11885887
182	0xbe544044	-0.2072764
183	0xbd684a1a	-0.056711294
184	0xbdf00873	-0.117203616
185	0xbe6f7e24	-0.23387963
186	0x3c650d6c	0.013980251
187	0xbc9b8b0b	-0.0189872
188	0x3d8fbb2a	0.070181206
189	0xbe8076ca	-0.2509063
190	0xbe8603a5	-0.26174656
191	0xbe8cad11	-0.2747579
192	0xbe3da559	-0.18520106
193	0xbe8e5906	-0.27802294
194	0xbd831a26	-0.06401472
195	0xbd8b89a5	-0.06813363
196	0xbea274fd	-0.3172988
197	0xbe171313	-0.1475337
198	0xbd70dcad	-0.058804203
199	0xbca4aff9	-0.020103442
200	0x3dc8d2fd	0.09805868
201	0x3e4cd5ce	0.20003435
202	0xbd92baf9	-0.071645685
203	0xbe271bb3	-0.1631916
204	0x3ca8c600	0.020602226
205	0x3dc93efc	0.098264664
206	0xbd4f6532	-0.050633617
207	0xbdb315ee	-0.08744417
208	0x3dc78dc8	0.097438395
209	0x3d79ecca	0.061016835
210	0x3e4c8941	0.19974233
211	0x3ce85603	0.028361326
212	0x3d9259c0	0.07146025
213	0x3d10f17e	0.035386555
214	0xbdaba622	-0.08381297
215	0xbd4e332e	-0.050341778
216	0xbe119175	-0.14215644
217	0x3e2a2e92	0.16619328
218	0xbdb6b60d	-0.08921442
219	0xbdaf5481	-0.0856104
220	0xbe27016d	-0.16309138
221	0x3e3d9df1	0.18517281
222	0xbe05ce50	-0.13066983
223	0xbe525136	-0.20538792
224	0x3dac9659	0.08427114
225	0x3d398229	0.045290146
226	0x3e16c3fe	0.14723203
227	0x3df9dee2	0.12200715
228	0x3dc7e171	0.097597964
229	0xbe0de94f	-0.13858531
230	0x3e1da311	0.15394236
231	0x3db336cd	0.08750687
232	0x3dc5ed66	0.09664421
233	0xbe2201d1	-0.15821005
234	0x3e22ae25	0.15886743
235	0x3ddc38ec	0.107530445
236	0x3d64ad84	0.05582954
237	0xbdf31815	-0.11869828
238	0x3c9d81f1	0.019227
239	0x3d1fe35d	0.03903519
240	0x3d629569	0.05531827
241	0xbdfdfcc1	-0.124017246
242	0xbe533039	-0.20623864
243	0xbe110802	-0.14163211
244	0xbe671576	-0.2256678
245	0xbd9363d7	-0.07196777
246	0xbe75ebc1	-0.24015714
247	0x3d483c7d	0.04888581
248	0xbe38a363	-0.18031077
249	0xbe77017a	-0.24121657
250	0xbe186e8b	-0.14885919
251	0xbe4efc54	-0.20213443
252	0xbdc33f96	-0.095336124
253	0xbe75d5dc	-0.24007362
254	0xbdca1249	-0.09866769
255	0xbd20142b	-0.039081734

conv1.bias f4 [64]
0	0x3d5b62f8	0.05356118
1	0xbc13028e	-0.008972777
2	0xbd8b0491	-0.0678798
3	0x3d4fa0af	0.05069035
4	0xba7a3122	-0.00095440645
5	0xbd026eeb	-0.03184406
6	0xbdc58fc8	-0.09646565
7	0x3cbbe8f9	0.022938238
8	0xbd52a114	-0.051423147
9	0x3d1c510c	0.03816323
10	0xbde05029	-0.10952789
11	0xbd93cec2	-0.0721717
12	0x3ca80ab5	0.020512918
13	0x3da8a91e	0.082353815
14	0x3d352fdc	0.044235095
15	0x3d8767a1	0.066115625
16	0xbcb8fb98	-0.022580907
17	0xba05c656	-0.0005103102
18	0xbdb1fb70	-0.08690536
19	0xba07810b	-0.000516907
20	0x3d3acfeb	0.045608442
21	0xbda61283	-0.081089996
22	0x3d9768b7	0.0739302
23	0xbdc911de	-0.09817861
24	0xbd6066dc	-0.054785594
25	0x3db49ba2	0.08818747
26	0xbe2d70a0	-0.16937494
27	0x3a514a87	0.0007983823
28	0x3b0c00f8	0.0021362882
29	0x3de9921f	0.114048235
30	0xba26f6f8	-0.00063691987
31	0xbe0bbc7e	-0.13646123
32	0xbdf68393	-0.120368145
33	0xbde321b7	-0.11090415
34	0xbe5af5ea	-0.21382871
35	0xbdef0b08	-0.11672026
36	0xba00e94c	-0.00049175764
37	0x3d9ec841	0.07753039
38	0xbdb77d2b	-0.08959421
39	0x3e2b4039	0.16723718
40	0xb6aa80b0	-5.081376e-06
41	0x38bff422	9.153063e-05
42	0xbded3794	-0.11582866
43	0x3d6d1e5d	0.057890285
44	0xbe2a25fb	-0.16616051
45	0xbe048a2b	-0.12943332
46	0xbe01c875	-0.12674125
47	0xbd92bc6c	-0.07164845
48	0x3c8e7535	0.017389873
49	0x3d08412b	0.033265274
50	0xbcb67096	-0.022270482
51	0x3d519c96	0.051174723
52	0x3da11056	0.07864444
53	0x3ba8170b	0.0051297
54	0x3d06ea6b	0.032938402
55	0xbd8fe3ab	-0.07025846
56	0xb7d14bc6	-2.4950026e-05
57	0xba4f000f	-0.0007896432
58	0x3cf7a76d	0.030231202
59	0xbd4a0714	-0.049323156
60	0x3d350a06	0.044199012
61	0x3d26d681	0.04073191
62	0xba8b0b18	-0.0010608165
63	0x3c5f7809	0.013639458

conv2.weight f4 [128, 64, 3, 3]
0	0xbc19c7bc	-0.009385999
1	0x3cc15f91	0.02360514
2	0x3cb2b7ea	0.021816213
3	0xbd3d636b	-0.04623739
4	0x3cfe35dd	0.031031543
5	0xbca81f29	-0.02052267
6	0xbbb7a1d3	-0.0056040077
7	0xbd0d95c3	-0.034566652
8	0x3a3ad332	0.00071268075
9	0xba7068df	-0.00091709004
10	0xbd2f3ef4	-0.042784646
11	0xbd15793b	-0.036492568
12	0xbd845b63	-0.06462743
13	0xbd5056e8	-0.05086413
14	0xbd711f44	-0.058867708
15	0xbc3fe57e	-0.01171243
16	0xbd7e96bd	-0.062155474
17	0x3c929af6	0.017896157
18	0xbcc5a85f	-0.024128137
19	0xbc9058c6	-0.017620455
20	0xba9eefa6	-0.0012125864
21	0x3bab4011	0.005226143
22	0x3d292b79	0.041301224
23	0x3cd7c7a3	0.026340311
24	0xbbceec47	-0.0063147875
25	0x3d423c22	0.04742063
26	0x3a65f3ac	0.00087719667
27	0xbc9c1c86	-0.01905657
28	0x3c2d58aa	0.010580221
29	0x3c3f9b3d	0.0116947265
30	0x3d11572a	0.035483517
31	0xbcc12dba	-0.023581374
32	0x3b7863bf	0.003790125
33	0x3cd2583e	0.025676843
34	0x3d1fd7df	0.03902423
35	0xbc923cda	-0.017851282
36	0x3da3230d	0.0796567
37	0x3d491c30	0.049099147
38	0x3d9dee9c	0.07711527
39	0x3df41ca7	0.119195275
40	0x3d8f8096	0.07006948
41	0x3e020bc3	0.12699799
42	0x3dcb8409	0.09937293
43	0x3d792a90	0.060831606
44	0x3e066755	0.13125356
45	0x3d085751	0.033286396
46	0x3d24d05a	0.040237762
47	0xbc24881d	-0.010042218
48	0x3c87b8c8	0.016567603
49	0x3bb7acb2	0.0056053037
50	0x3ccd43b6	0.025056701
51	0xbd39463e	-0.045233004
52	0xbd2b5a72	-0.041834302
53	0x3bb8098f	0.005616374
54	0x3d948c52	0.072533265
55	0xbd6726f0	-0.056433618
56	0xbddd40db	-0.10803386
57	0xbcd2dfd0	-0.025741488
58	0xba52d5d6	-0.00080427283
59	0xbd822557	-0.06354778
60	0xbd0f1530	-0.034932315
61	0x3c3f117e	0.011661885
62	0xbd875213	-0.06607451
63	0x3cb8c906	0.022556793
64	0x3c56682e	0.013086362
65	0x3cf0fb9d	0.029416854
66	0xbb3c8a25	-0.0028768864
67	0xbd134f30	-0.03596419
68	0xbd09446f	-0.03351253
69	0x3c82613a	0.015915502
70	0xbd2f9f5a	-0.04287658
71	0xbd0c6cb3	-0.03428335
72	0xbd00c08d	-0.03143363
73	0xbca66164	-0.020310111
74	0xbbaf2efd	-0.0053461776
75	0x3d1d8632	0.038458057
76	0x3d108748	0.035285264
77	0x3bcd3016	0.006261836
78	0xbcb2458c	-0.021761678
79	0xbcffa702	-0.031207565
80	0x3c03f638	0.008054309
81	0x3ca3a37a	0.019975413
82	0x3c8862b5	0.01664863
83	0x3d538bab	0.05164687
84	0xbb074991	-0.0020643214
85	0x3b28e5bd	0.00257717
86	0xbadd3414	-0.0016876482
87	0xbbd156dc	-0.0063885283
88	0x3d8bf1e7	0.068332486
89	0x3b713d3a	0.0036810176
90	0x3c619ef5	0.0137708085
91	0xbd0e8f8e	-0.034804873
92	0xbcc313c2	-0.023813132
93	0xbc7d2dec	-0.015452843
94	0x3b720095	0.0036926616
95	0xbd9c8aed	-0.076436855
96	0x3badcc14	0.005303869
97	0xbc51e5df	-0.012811153
98	0xbd63de14	-0.055631712
99	0xbd0352a5	-0.032061238
100	0xbc0324ef	-0.008004411
101	0xbbd3f8d8	-0.0064688735
102	0xbcc2f212	-0.023797069
103	0xbcf04e7e	-0.029334303
104	0x39aff0f4	0.00033558125
105	0xbd05b05a	-0.032638885
106	0x3c9577d4	0.018245615
107	0x3b8d39d8	0.004309874
108	0x3cf9580a	0.030437488
109	0x3ca6377b	0.020290127
110	0x3d744635	0.059637267
111	0xbc156575	-0.0091184275
112	0x3d063309	0.032763515
113	0x3d5f8f6c	0.054580137
114	0x3d0e0b00	0.03467846
115	0x3c735275	0.014851202
116	0xbc130d1f	-0.008975296
117	0x3c0bd128	0.008533753
118	0x3d030d53	0.03199513
119	0x3ce1fb60	0.027585685
120	0x3ccafd56	0.024779003
121	0xbb0141ea	-0.0019723126
122	0x3c24a0b4	0.01004808
123	0xbc5cfd87	-0.01348818
124	0xbd61ffb0	-0.055175483
125	0xbd6ad35a	-0.057330467
126	0x3cb789ad	0.022404516
127	0x3c265825	0.010152851
128	0x3ccb49e7	0.024815513
129	0x3d5ae996	0.05344542
130	0x3d108468	0.035282522
131	0x3c5e1436	0.013554623
132	0x3d977bc3	0.073966525
133	0x3d25d3a2	0.040485032
134	0x3d06f5a6	0.032949112
135	0x3d1f5429	0.03889862
136	0x3d074721	0.03302682
137	0xbc168084	-0.009185914
138	0xba6e2081	-0.0009083823
139	0x3c9965b4	0.018725254
140	0x3c7fbaf1	0.015608535
141	0xbbf73687	-0.007544342
142	0x3d256ae0	0.040385127
143	0x3b9821a1	0.0046426808
144	0xbc1eba8c	-0.009688031
145	0x3c9ad50c	0.018900417
146	0x3d1bd867	0.038048174
147	0x3c8c9e1a	0.017165232
148	0x3d49c43f	0.04925942
149	0x3d052d47	0.032513883
150	0x3d9223a0	0.07135701
151	0xbcbec8c9	-0.023289101
152	0xbceb1bc0	-0.028699756
153	0x3d1cdaf1	0.038294736
154	0x3cc1ca6c	0.023656093
155	0x3d6ebd27	0.05828586
156	0xbb4cda7c	-0.0031258157
157	0xbd009700	-0.031394005
158	0x3c449ec3	0.012000742
159	0x3cca0474	0.024660327
160	0x3b62043a	0.0034487383
161	0xbd886d3a	-0.06661458
162	0x3ccdba42	0.025113229
163	0x3d4baae5	0.049723525
164	0xbcb5fb7e	-0.022214647
165	0xbca18b0a	-0.01971962
166	0xbd08c631	-0.033392135
167	0x3c88413b	0.016632667
168	0x3d490a11	0.049081866
169	0xbcd21371	-0.025644036
170	0xbced48cf	-0.028965382
171	0x3daae47e	0.08344363
172	0x3dd55cea	0.104181126
173	0x3e03f2b3	0.12885551
174	0x3cd9d93d	0.026592845
175	0x3d9381e5	0.0720251
176	0x3dca7903	0.098863624
177	0x3d7463b6	0.059665404
178	0x3df0512f	0.117342345
179	0x3dcb2ad9	0.09920282
180	0x3d1db232	0.03850002
181	0x3cdfe067	0.027328683
182	0x3c2e0e6b	0.010623555
183	0xbc352110	-0.011055246
184	0x3c8852a1	0.016640963
185	0xba8645af	-0.0010244156
186	0x3d3ddefe	0.04635524
187	0x3d3b8610	0.04578215
188	0x3d8fd112	0.07022299
189	0xbde6c0b9	-0.11267228
190	0xbd80c1e7	-0.06286984
191	0xbd4ac7d9	-0.049506996
192	0xbd3f6e12	-0.04673583
193	0xbb038b98	-0.0020072218
194	0x3d035af1	0.03206915
195	0xbc3cf96c	-0.011534076
196	0xbade9c8b	-0.0016983909
197	0x3d77b7dd	0.06047808
198	0x3d5e95c7	0.054342058
199	0x3d1ba47f	0.037998673
200	0xbc48cc1a	-0.012255693
201	0x3d4fa929	0.050698433
202	0x3c064491	0.008195058
203	0x3d3c4840	0.04596734
204	0x3d48d6be	0.04903292
205	0x3c7f4a60	0.015581697
206	0x3d2474ea	0.04015056
207	0xbdc13c5f	-0.09435343
208	0xbdac7537	-0.084207945
209	0xbc67c0d6	-0.014145097
210	0xbd9130fa	-0.0708942
211	0xbd8f5b8d	-0.06999884
212	0xbcf1dd0f	-0.029524354
213	0xbcf6177e	-0.030040499
214	0xbc22c503	-0.009934667
215	0x3b78bf03	0.0037955649
216	0xbc63a76b	-0.013894896
217	0x3d499132	0.049210735
218	0x3d3ea83f	0.04654717
219	0x3cbce6f8	0.023059353
220	0xbcd2fc90	-0.025755197
221	0x3c9ed010	0.019386321
222	0x3c1aacd7	0.009440622
223	0xbccf49be	-0.025303718
224	0x3c989e18	0.018630072
225	0x3c68c7b8	0.014207773
226	0x3d4a23a5	0.0493504
227	0xbc2e262f	-0.010629221
228	0x3b7cc9b8	0.0038572382
229	0x3c488837	0.012239507
230	0xbcc3f0df	-0.023918567
231	0xba4ce4e3	-0.0007816089
232	0x3ccab7b9	0.024745809
233	0xbba18af9	-0.004929897
234	0xbb67bcbf	-0.0035360304
235	0xbc9ae468	-0.01890774
236	0xbd338460	-0.043827415
237	0x3c800f0f	0.01563218
238	0x3d150412	0.036380835
239	0xbc71fdb1	-0.014769957
240	0x3d19a95a	0.03751502
241	0x3ce3b0f0	0.027794331
242	0xbcd766d9	-0.026294159
243	0xbc2d5c80	-0.010581136
244	0xbc54a98e	-0.012979878
245	0xbd5f19cd	-0.054467965
246	0xbd04c514	-0.03241451
247	0xbca5c15a	-0.020233799
248	0xbd3fc425	-0.046817917
249	0xbca033e0	-0.019555986
250	0xbd6811e4	-0.056657687
251	0xbd2f6a33	-0.04282589
252	0xbe3ca62a	-0.18422762
253	0xbe3fffef	-0.18749975
254	0xbe198cfb	-0.14995186
255	0xbe1963ad	-0.1497943

conv2.bias f4 [128]
0	0xbc9e67ff	-0.019336699
1	0xbca8f8fa	-0.020626534
2	0xba558824	-0.0008145592
3	0xbb6494eb	-0.00348788
4	0xbcd1b848	-0.025600567
5	0xbcbbe525	-0.022936413
6	0x3d7e38ba	0.062065817
7	0x3c217295	0.009853979
8	0x3a2471ac	0.0006273042
9	0xbaa01d4d	-0.0012215764
10	0x3d21eeef	0.039534505
11	0x3d14c65e	0.03632199
12	0xbc4bf8ae	-0.012449427
13	0x3bd3c6f7	0.0064629274
14	0x3c854ede	0.016272958
15	0x3d7ce2c6	0.061739706
16	0x3bbcc2fb	0.005760548
17	0x3d1773da	0.03697572
18	0xbcd0255f	-0.025408445
19	0x3d67ddbd	0.05660795
20	0x3d42fd6a	0.047604956
21	0xbd7d57a6	-0.061851166
22	0xbb209638	-0.00245036
23	0xbcf7f331	-0.03026733
24	0x38f80d97	0.00011828093
25	0xbd4058c8	-0.04695967
26	0xbb4f402d	-0.0031623945
27	0xbd2bbff8	-0.041931123
28	0xbd277509	-0.040883098
29	0xbcbb73b1	-0.022882314
30	0x3ce33b71	0.027738305
31	0xbc71f044	-0.014766756
32	0x3d503d85	0.05083992
33	0x3c869530	0.01642856
34	0xbc5ccda3	-0.013476762
35	0x3cf2fba3	0.029661005
36	0xbc96544f	-0.018350748
37	0xbd20f4b3	-0.039295863
38	0xbc9c0446	-0.019045006
39	0xbbca241c	-0.0061688554
40	0x3ca7d9c2	0.020489577
41	0x3c454328	0.012039937
42	0x3c6a37aa	0.014295498
43	0xbc83a1ea	-0.016068418
44	0x3c5d782c	0.013517421
45	0xbd68b742	-0.056815393
46	0x3ca88fe2	0.020576421
47	0x3c4af757	0.012388072
48	0xbd3cc224	-0.046083584
49	0xbbe0d893	-0.006861755
50	0xbd222a5d	-0.039591182
51	0xbbad6e9b	-0.005292726
52	0xbd454289	-0.048159156
53	0x3d6d5a2d	0.057947326
54	0xbca52140	-0.020157456
55	0xbd67fe9a	-0.05663929
56	0x3d141aa8	0.036158234
57	0xbc80768a	-0.015681524
58	0xb8e75cde	-0.00011032236
59	0xbc033b6f	-0.008009776
60	0xbd8e872b	-0.06959375
61	0xbd18a49b	-0.037266355
62	0x3d0734b9	0.033009265
63	0xbcb673e9	-0.022272067
64	0x3d5caf17	0.053877916
65	0x3da6c1f9	0.08142466
66	0x3d2f844a	0.04285077
67	0xbd2ceefd	-0.042220104
68	0x3c6dbc7e	0.014510272
69	0x3cae2e51	0.02126232
70	0xbaa58995	-0.0012629504
71	0x3bfab112	0.007650503
72	0xbd258fc3	-0.040420305
73	0x3d132a6f	0.03592914
74	0x3a01c0d6	0.0004949694
75	0xbc9170bd	-0.017753953
76	0x3c1419e2	0.009039374
77	0x3d2a3c33	0.041561317
78	0x3c8fab37	0.017537696
79	0x3d61224e	0.054964356
80	0x3bb21d46	0.0054356186
81	0x3d129dfa	0.03579519
82	0x3d195e26	0.037443303
83	0xbd5088b3	-0.050911617
84	0xbc745aa5	-0.014914189
85	0xba0dfe05	-0.0005416575
86	0x3d3bc2f1	0.045840207
87	0x3be88b41	0.0070966785
88	0x3bc4513d	0.0059911297
89	0x3d7123ce	0.058872037
90	0x3d0e512c	0.03474538
91	0x3d5c1e26	0.05373969
92	0x3d00a56b	0.031407755
93	0xbb9fe58b	-0.0048796586
94	0x3d80b122	0.062837854
95	0x3bf5d432	0.0075021023
96	0xbb4691b8	-0.0030299257
97	0xbcd9bba3	-0.02657873
98	0xbbabad19	-0.0052391407
99	0x3d106925	0.035256524
100	0xbcf8a382	-0.030351404
101	0xbbdbb915	-0.006705413
102	0x3d56020b	0.052248042
103	0xbcb35464	-0.021890827
104	0xbd15def8	-0.036589593
105	0x3d3f76fb	0.046744328
106	0xbc8a34c5	-0.016870866
107	0x3d4050dc	0.046952114
108	0x3ce050b2	0.027382229
109	0xbd01c67c	-0.03168343
110	0xbd42de7d	-0.047575463
111	0xbd87a7e4	-0.066238195
112	0x3d0a2a13	0.03373153
113	0xbd79412e	-0.060853176
114	0x3c7875fc	0.015164848
115	0xbcf14d9c	-0.029455952
116	0x3d8e3898	0.06944388
117	0x3cd27989	0.025692718
118	0xbb67ba08	-0.0035358686
119	0x3c9802e4	0.018556066
120	0xbcf40588	-0.029787794
121	0xbcf09852	-0.029369507
122	0x3cc48f1d	0.023994023
123	0xbd18cb1c	-0.037303075
124	0x3da19d31	0.0789131
125	0x3c84a1b5	0.01619039
126	0xbcabd7d1	-0.020976933
127	0x3cf2900e	0.029609706

deconv1.weight f4 [128, 64, 3, 3]
0	0x38737ac0	5.8050035e-05
1	0xbc57dc15	-0.01317503
2	0x3c192708	0.009347685
3	0xbc55285e	-0.013010113
4	0x3c8b9f42	0.017043713
5	0x3cb9315f	0.02260655
6	0x3d40433d	0.046939123
7	0x3cbb720e	0.022881534
8	0xbb808270	-0.0039217994
9	0x3d1144d4	0.03546603
10	0x3d23b208	0.039964706
11	0x3c598a7e	0.013277648
12	0x3d49f53d	0.049306143
13	0xbc6ef79b	-0.014585401
14	0xb8cb28b1	-9.687374e-05
15	0x3cdf55b5	0.027262548
16	0x3cd74d7e	0.026282068
17	0x3d1cac1e	0.03825008
18	0xbda41b36	-0.080130026
19	0xbd22147f	-0.039570328
20	0xbd298b1c	-0.04139243
21	0xbd0627b8	-0.032752723
22	0xbcaaad10	-0.020834476
23	0xbce088ae	-0.027408924
24	0xbd4796c7	-0.048727777
25	0xbda3db67	-0.08000832
26	0xbd79d060	-0.060989738
27	0x3da93ac3	0.08263161
28	0x3cc1ebf5	0.023672083
29	0x3da01610	0.07816708
30	0xbd1a6d35	-0.037701804
31	0xbae6301b	-0.0017561944
32	0xbd1cc379	-0.038272355
33	0xbd2adce0	-0.04171455
34	0xbd9274c4	-0.071511775
35	0xbd7b920d	-0.06141858
36	0x3c7869e9	0.01516197
37	0xbc8a7838	-0.016903028
38	0x3cb27002	0.021781925
39	0x3d7ffe41	0.062498335
40	0x3d4abc66	0.049496077
41	0xbc72fc8e	-0.014830722
42	0x3c1e1019	0.009647393
43	0x3c91c4e3	0.017794078
44	0x3b918593	0.004440972
45	0x3c1fc71d	0.009752062
46	0x3c25a666	0.010110473
47	0x3ce6e739	0.028186427
48	0x3d2fc987	0.0429168
49	0x3c03aafd	0.008036372
50	0xbd266986	-0.04062798
51	0xbc9b143b	-0.018930545
52	0xbb8d61ca	-0.004314636
53	0xbcaeefcd	-0.02135458
54	0xbcf57970	-0.029965132
55	0x3ccbaeb8	0.024863586
56	0xbd45e79a	-0.048316576
57	0xbcb687c4	-0.022281535
58	0xbc8bee7c	-0.017081492
59	0xbd4aba87	-0.049494293
60	0x3cb74df7	0.022376044
61	0x3c09153c	0.008366879
62	0x3ca6ba6c	0.020352565
63	0x3c58f2c6	0.013241475
64	0xbb7f97cb	-0.0039000388
65	0x3c15bd07	0.009139306
66	0x3d0c63fe	0.034275047
67	0x3c54439c	0.012955572
68	0x3d4b14fd	0.049580563
69	0x3d855eb7	0.06512206
70	0xbc73a307	-0.014870412
71	0xbc8e0a8c	-0.017339014
72	0xbb638132	-0.0034714458
73	0x3aba8578	0.0014230451
74	0xbc9cc785	-0.019138107
75	0x3ca08f4e	0.019599583
76	0xbcd1f88b	-0.02563121
77	0x3c5de739	0.013543897
78	0x3ce42052	0.027847443
79	0x3cd4992a	0.02595194
80	0xbd31573b	-0.04329608
81	0x3cd4f71c	0.025996737
82	0xbc81d124	-0.015846796
83	0xbcbb7c5d	-0.02288645
84	0x3ab8fd4a	0.0014113572
85	0x3d009338	0.0313904
86	0x3d1fcf79	0.03901622
87	0xbc4db3d2	-0.01255508
88	0x3d0179c5	0.03161027
89	0x3d187a25	0.03722586
90	0xbbb951a7	-0.0056554857
91	0x3ad151b2	0.0015969782
92	0xbd4b8794	-0.049689844
93	0x3c11fb66	0.008910036
94	0x3cf84ceb	0.030310115
95	0xbcecbb51	-0.028897913
96	0x3d257a43	0.0403998
97	0x3cea82ea	0.028626878
98	0xbcdecda3	-0.027197665
99	0xbc024a41	-0.007952274
100	0x3c13feab	0.009032886
101	0x3d24bbf9	0.040218327
102	0x3c5ff9de	0.013670413
103	0x3bf9dcc3	0.007625194
104	0xbcafabce	-0.021444228
105	0xb91b2c7b	-0.00014798522
106	0x3c727a7f	0.014799713
107	0xbcde672f	-0.027148811
108	0x3d235d4c	0.039883897
109	0x3c90777c	0.0176351
110	0x3d397ee6	0.045287035
111	0xbc1f20af	-0.009712382
112	0xbcb18e57	-0.021674318
113	0xbca34372	-0.019929621
114	0xbc6dcaaa	-0.014513651
115	0x3cadca6b	0.021214684
116	0x3ca2394d	0.019802714
117	0xbc9dbea7	-0.01925595
118	0x3d1f92eb	0.03895847
119	0xbd4b53b3	-0.04964037
120	0xbd7c728b	-0.061632674
121	0x3d267d20	0.040646672
122	0xbd0a0f91	-0.03370625
123	0xbd8cc99f	-0.06874394
124	0x3d30ade2	0.043134578
125	0xbdc1e628	-0.09467727
126	0xbdc11e98	-0.094296634
127	0xbdde9142	-0.108675495
128	0xbc4a9716	-0.012365123
129	0xbdaa593a	-0.083178
130	0xbd905c78	-0.07048887
131	0xbd54d953	-0.05196507
132	0xbda8db50	-0.082449555
133	0xbcfc4e0d	-0.030798936
134	0xbcc5532c	-0.024087511
135	0xbd81ea8e	-0.06343566
136	0xbd06127d	-0.032732476
137	0xbcb81d6b	-0.022474965
138	0xbcfb5a42	-0.030682687
139	0xbceb7d15	-0.028746167
140	0x3c1e8773	0.009675848
141	0x3bafb281	0.0053618555
142	0x3b6c44c5	0.0036051732
143	0x3c861375	0.0163667
144	0x39b01490	0.00033584656
145	0x3b5efc3e	0.003402486
146	0x3b2bc6f5	0.0026211117
147	0x3d4ba379	0.049716447
148	0xbcb4dbe4	-0.022077508
149	0x3c30b1dc	0.0107845925
150	0x3d49fe82	0.049314983
151	0x3d03afc7	0.032150056
152	0xbb4545d0	-0.0030101426
153	0xbd5ced37	-0.053937163
154	0x3c3534d1	0.011059956
155	0xbc7a0772	-0.015260564
156	0xbcac1ddc	-0.021010332
157	0xbce8e05e	-0.0284273
158	0xbca5b2c2	-0.02022684
159	0xbd3929c6	-0.045205854
160	0x3cc357ed	0.023845637
161	0xba2c0700	-0.00065623224
162	0xbd6e45ee	-0.05817216
163	0xbda97839	-0.08274884
164	0xbd06cf47	-0.03291252
165	0x3a63652c	0.00086744386
166	0xbc780d62	-0.015139909
167	0x3c54e154	0.012993176
168	0x3d63fd8b	0.05566172
169	0x3d8a6ae7	0.06758671
170	0x3d88d5de	0.06681417
171	0x3d7adee4	0.06124772
172	0x3d6fce37	0.05854627
173	0x3d7df342	0.061999567
174	0x3bdeed57	0.0068031955
175	0x3d51c6e1	0.051215056
176	0x39515665	0.00019963978
177	0x3b096977	0.0020967403
178	0xbcdd12fc	-0.026986592
179	0x3d207a33	0.03917904
180	0xbb4f5a2d	-0.0031639442
181	0x3a983b26	0.0011614307
182	0xbbbc20f9	-0.0057412353
183	0xbd731ca0	-0.05935347
184	0xbd4f9a55	-0.050684292
185	0xbcb909fc	-0.022587769
186	0xbd30b28b	-0.04313902
187	0xbce3a192	-0.027787004
188	0xb98cb926	-0.00026840827
189	0x3c27bb30	0.0102375
190	0x3c2b213d	0.010444936
191	0xb9ae5bd3	-0.0003325628
192	0x3c196d30	0.009364411
193	0xbbc221d1	-0.0059244414
194	0xbbb19e78	-0.0054205023
195	0x3bbc2873	0.0057421266
196	0xbc6a8211	-0.014313237
197	0xbc9df625	-0.01928241
198	0x3c99be94	0.018767633
199	0x3d12c5a7	0.035833027
200	0x3cddc233	0.02707014
201	0xbc957ec3	-0.018248921
202	0x3cbb1038	0.022834882
203	0x3c80b0e6	0.015709352
204	0xbb7f8f08	-0.0038995165
205	0xbc239706	-0.009984737
206	0xbc980df3	-0.018561339
207	0x3c9c0309	0.019044416
208	0x3d481c6d	0.048855234
209	0x3d2f66d9	0.042822693
210	0x3d273d21	0.04082978
211	0x3cb29479	0.021799313
212	0xbcb1f566	-0.02172346
213	0x3c751ac9	0.014959999
214	0x3d1132a7	0.035448696
215	0x3d504ec1	0.050856356
216	0xbaf20b8e	-0.0018466578
217	0xbcbde454	-0.023180164
218	0x3d3912ee	0.04518407
219	0x3c946248	0.01811327
220	0x3c9655a8	0.018351391
221	0xbc1dc730	-0.0096300095
222	0x3cec30c1	0.028831841
223	0xbb8af671	-0.004240804
224	0xbb34a1af	-0.0027562191
225	0xbc76be5a	-0.015060032
226	0xbc4ae12e	-0.012382789
227	0xbd9febff	-0.078086846
228	0x3b95b6fa	0.0045689316
229	0xbd528191	-0.051393095
230	0xbd85abfd	-0.06526945
231	0xbd540139	-0.05175898
232	0xbd251be9	-0.04030982
233	0xbd3d61b8	-0.04623577
234	0x3cca121f	0.024666844
235	0xbcd165e6	-0.025561284
236	0x3b0144ab	0.0019724767
237	0xbc07b4cf	-0.008282854
238	0x3d3e18da	0.04641042
239	0x3d1b9157	0.037980404
240	0xbbfb1117	-0.0076619494
241	0xbcbaba57	-0.022793932
242	0xbcf13b3b	-0.029447189
243	0xbb241045	-0.0025034111
244	0xbca46dce	-0.02007189
245	0x3cda611e	0.026657637
246	0xbbfab9c5	-0.00765154
247	0x3cb353c8	0.021890536
248	0x3cdf047b	0.027223816
249	0xbcad783d	-0.021175498
250	0x3caaaeb0	0.02083525
251	0x3bb75fb6	0.0055961264
252	0xbe1b2217	-0.15149723
253	0xbd694d92	-0.056958742
254	0xbd1ec377	-0.03876063
255	0x3d1f9763	0.038962733

deconv1.bias f4 [64]
0	0x3c0fbe4e	0.0087733995
1	0x3d8c0f78	0.06838888
2	0x3d6e8338	0.05823061
3	0xbc031c7e	-0.008002399
4	0xbb5467a3	-0.0032410405
5	0x3cf0a0a8	0.029373482
6	0x3d7f4b8b	0.062327903
7	0x3af23527	0.0018478975
8	0x3ce9ab07	0.028523935
9	0x3d825d61	0.06365467
10	0x3cb6d76e	0.022319522
11	0x3d4755fc	0.048665985
12	0x3d704ee4	0.058668986
13	0xbd11707c	-0.035507664
14	0x3d1c31f6	0.038133584
15	0x3d81a1e6	0.06329708
16	0x3d62d2a0	0.05537665
17	0xbd53f11e	-0.05174362
18	0x3d1c8c4f	0.038219746
19	0x3d6510f2	0.055924363
20	0x3cabd217	0.020974202
21	0x3d9350f2	0.071931735
22	0x3c6d4e4d	0.014484
23	0xbca1bdfa	-0.019743908
24	0x3d1ab214	0.037767485
25	0x3c16f716	0.009214183
26	0xbc984bcb	-0.018590828
27	0x3d88b009	0.06674201
28	0x3d704667	0.05866089
29	0xbd158b81	-0.036509994
30	0x3d7adaca	0.06124381
31	0xbc637c57	-0.013884625
32	0x3cab0156	0.02087466
33	0x3d2517d2	0.04030592
34	0x3d396e6c	0.045271322
35	0x3d416ced	0.04722302
36	0x3d94a685	0.072583236
37	0x3d9a77e3	0.07542398
38	0x3d0c7342	0.034289606
39	0x3d26afcb	0.040694993
40	0x3c5f8f89	0.013645061
41	0xbc23adde	-0.009990184
42	0x3d9946c4	0.074842006
43	0x3c1c704b	0.009548257
44	0x3d76c84f	0.060249623
45	0x3c1a2b1b	0.009409691
46	0x3b30013b	0.0026856202
47	0x3da3062d	0.07960162
48	0x3d7290d2	0.059220143
49	0x3d79358d	0.060842086
50	0x3d9077c1	0.07054091
51	0x3d71936c	0.058978483
52	0x3c362d49	0.011119195
53	0x3c2c683f	0.010522901
54	0x3d1ff816	0.039054953
55	0x3d6baf7c	0.0575404
56	0x3d8a0870	0.067398906
57	0x3d0cedad	0.034406353
58	0xbb263d51	-0.0025366137
59	0xbc95fd1a	-0.018309165
60	0xbd1f8808	-0.03894809
61	0x3cab3087	0.020897163
62	0xbbdd4652	-0.0067527676
63	0x3b49fbaf	0.003082018

deconv2.weight f4 [64, 64, 3, 3]
0	0xbc75c6bd	-0.015000996
1	0xbd08f443	-0.03343607
2	0x3d074316	0.033022963
3	0xbc176188	-0.009239562
4	0xbc93abd6	-0.018026274
5	0x3be35170	0.0069371983
6	0x3c445cfc	0.01198506
7	0xbccbc9e1	-0.024876537
8	0xbb9d4c6f	-0.0048003714
9	0x3ce24d52	0.02762476
10	0xbcfe7fa7	-0.031066729
11	0x3d5925cd	0.053014565
12	0xbca77ca2	-0.020445172
13	0xbc673297	-0.014111183
14	0xbbc8322e	-0.0061094975
15	0x3d35f95f	0.044427272
16	0x3d14b3f3	0.036304425
17	0x3cb662d8	0.02226393
18	0xbc7d8ddb	-0.0154757155
19	0x3bf3a29a	0.007435155
20	0xbc872e3b	-0.016501537
21	0xbbb75e99	-0.0055959937
22	0x3d47c254	0.04876931
23	0xbd0e9a9e	-0.034815423
24	0xbc2f820d	-0.010712159
25	0x3d25ed61	0.040509585
26	0x3b25ab6c	0.0025279177
27	0xbc0d7323	-0.008633408
28	0x3be492aa	0.0069754915
29	0x3c3a8717	0.011384747
30	0xbb97adc1	-0.0046288674
31	0xbca5db9c	-0.02024632
32	0x3d0df629	0.034658585
33	0xbd147b61	-0.036250476
34	0xbd2e5235	-0.042558867
35	0xbd0db406	-0.03459551
36	0x3c4021f2	0.011726843
37	0x3bb64ef6	0.005563612
38	0x3d7e3a24	0.062067166
39	0x3d4be3b0	0.049777687
40	0x3c1d0629	0.009583988
41	0x3d2c008b	0.041992705
42	0x3d882833	0.066482924
43	0x3cd6edbf	0.026236413
44	0x3d82b460	0.0638206
45	0x3c4e5ee8	0.01259587
46	0x3aa671e5	0.0012698738
47	0xbd02bc47	-0.031917837
48	0xbbf8de0c	-0.0075948294
49	0x3c511c01	0.012763024
50	0x3c30ea5f	0.010798066
51	0xbcf6ea33	-0.030140972
52	0xbd1e88c6	-0.038704656
53	0xbc58421e	-0.013199357
54	0xbce1ab2b	-0.02754744
55	0xbca3cb7a	-0.019994486
56	0xbd04afa1	-0.032394055
57	0x3cddc394	0.027070798
58	0x3cb78d15	0.02240614
59	0x3c87e08f	0.01658657
60	0xbd83ba6b	-0.06432041
61	0xbcbb9987	-0.022900356
62	0xbd19848e	-0.03747993
63	0x3c0e30ad	0.008678597
64	0xbd1dcdb5	-0.038526256
65	0xbca90cf6	-0.020636063
66	0x3d06e4f4	0.03293319
67	0xbd03d6d1	-0.032187287
68	0xbcd6a156	-0.026199978
69	0xbcc0bfec	-0.023529015
70	0xbd19568d	-0.037436057
71	0x3cca74dc	0.024713926
72	0x3cc38587	0.023867382
73	0xbc5451ee	-0.012958987
74	0x3d23d8ad	0.04000156
75	0x3c241874	0.010015596
76	0x3c21f254	0.009884436
77	0x3d3bc352	0.04584057
78	0x3d4bf6c6	0.04979589
79	0x3d669632	0.05629558
80	0x3c511825	0.012762104
81	0x3ca3ba80	0.019986391
82	0x3c5af9ec	0.01336525
83	0x3d822bb5	0.06355993
84	0x3cfa3c12	0.030546222
85	0xbbbe17c4	-0.005801173
86	0xbc3a04b0	-0.011353657
87	0x3d9ab04d	0.07553158
88	0x3cab56b6	0.02091537
89	0x3d49e6be	0.04929232
90	0x3d8aff01	0.067869194
91	0x3d3315c6	0.043721937
92	0x3ce3a82c	0.027790152
93	0x3d2886c1	0.041144136
94	0xbbcbc930	-0.006219052
95	0x3c97bb50	0.018521935
96	0x3d109340	0.03529668
97	0x3d904d0a	0.07045944
98	0x3d98ad7a	0.07454963
99	0x3cc56c44	0.024099477
100	0xbd3a7307	-0.045519855
101	0x3cf4fd59	0.029905962
102	0x3b396b10	0.0028292574
103	0xbb87f45e	-0.004149004
104	0x3a350957	0.0006905994
105	0xbc011cb5	-0.007880379
106	0x3c994ba2	0.018712822
107	0x3cf1b4d5	0.029505173
108	0xbc397977	-0.011320463
109	0xbd097cba	-0.033566214
110	0xbcb5a84a	-0.022174973
111	0x3aaf900f	0.0013394373
112	0x3c26f67f	0.010190605
113	0xbc953873	-0.018215394
114	0x3c7ebfdb	0.015548672
115	0xbc2c7639	-0.010526233
116	0xbcc8ce89	-0.024512546
117	0x3d0d2a7a	0.034464337
118	0x3bf84ace	0.007577277
119	0x3d3cd1ad	0.0460984
120	0xba74826e	-0.0009327297
121	0xbc74b787	-0.014936334
122	0xbcb134ba	-0.021631587
123	0xbc07541d	-0.0082598
124	0x3cb65a5f	0.02225989
125	0x3d70458f	0.058660086
126	0xbcc5b314	-0.024133243
127	0xbd31ca0c	-0.043405578
128	0x3c818725	0.015811512
129	0x3ccd5c49	0.025068419
130	0xbc65d4e3	-0.014027807
131	0xbcca8f26	-0.024726462
132	0x3c7e9cfd	0.015540359
133	0xbcafc64d	-0.021456862
134	0xbd1ad1af	-0.037797626
135	0xbc54dcfa	-0.012992138
136	0x3c4a350d	0.01234175
137	0xbc0c84bf	-0.008576571
138	0x3d3c5c8c	0.045986697
139	0xbc377b87	-0.011198885
140	0xbbe303ba	-0.0069279345
141	0xbcf7f44b	-0.030267855
142	0xbd08dc96	-0.033413492
143	0xbcfa08bc	-0.030521743
144	0xbd126990	-0.035745203
145	0xbd093622	-0.03349889
146	0xbd614e9d	-0.055006612
147	0xbd5c4149	-0.0537732
148	0xbbd0adb4	-0.0063683633
149	0xbcf5e6fa	-0.030017365
150	0xbce40844	-0.027835973
151	0xbd68301b	-0.056686502
152	0xbd12c337	-0.035830703
153	0x3c7c9651	0.015416698
154	0x3d3f4c7c	0.0467038
155	0x3d060d4b	0.03272752
156	0x3b0c7b12	0.002143566
157	0xbc5e781f	-0.013578444
158	0xbc18916b	-0.009312014
159	0x3d80140c	0.06253824
160	0x3be0696f	0.006848506
161	0x3d321b05	0.0434828
162	0x3d3a61ec	0.04550354
163	0x3d359e02	0.04434014
164	0x3c98a975	0.01863549
165	0xbc899d50	-0.016798645
166	0xbcfc47d0	-0.030795962
167	0x3d251ba8	0.04030958
168	0x3d185bc4	0.03719689
169	0x3d431df1	0.047635976
170	0xbbd53002	-0.006505967
171	0x3c6d22af	0.014473601
172	0xbcc5ba81	-0.024136784
173	0xbcd7fe60	-0.026366413
174	0xbd17d3bd	-0.037067164
175	0xbd45b406	-0.048267387
176	0xbd4f1033	-0.05055256
177	0xbd724839	-0.05915091
178	0xbce685cc	-0.028139971
179	0x3c26db58	0.010184132
180	0xbd616d84	-0.055036083
181	0xbc5a35fe	-0.013318537
182	0xbbd74a90	-0.006570168
183	0x3cc17b19	0.023618268
184	0x3ce951da	0.028481413
185	0xbce01aa1	-0.027356448
186	0x3c64a678	0.013955705
187	0x3c977715	0.0184894
188	0xbcfef611	-0.031123193
189	0xbd0f4d91	-0.034986082
190	0xba2cb161	-0.0006587711
191	0xbcbb218c	-0.022843145
192	0x3ba21581	0.004946411
193	0xbd86b7b2	-0.06578006
194	0xbd1ae00b	-0.03781132
195	0x3b7d3b59	0.003864011
196	0xbb6b7be9	-0.003593201
197	0xbc2f2673	-0.010690319
198	0xbc9a8c14	-0.018865623
199	0xbb521967	-0.0032058598
200	0x3c151b69	0.009100773
201	0xbd3e9a3c	-0.046533808
202	0xbaaf0810	-0.0013353843
203	0x3ab6908e	0.0013928579
204	0xbcb2cb10	-0.021825343
205	0xbcd7eaa9	-0.026357012
206	0xbd04a35e	-0.03238236
207	0x3cb40f56	0.021979969
208	0x3c9fa2a9	0.019486742
209	0xbd4113a0	-0.047137856
210	0xbc4bafd8	-0.012432061
211	0xbd46766e	-0.048452787
212	0xbc1c2114	-0.009529371
213	0xbd205ed1	-0.039152924
214	0xba0a4e87	-0.0005275984
215	0x3a849994	0.0010116571
216	0x3aaf5e48	0.0013379538
217	0x3b48f656	0.0030664406
218	0x3c2054b8	0.0097858235
219	0xbd267c11	-0.040645663
220	0xbbe202cc	-0.006897306
221	0x3cbb5011	0.022865327
222	0x3c725a7c	0.014792081
223	0x3caa34c6	0.020777117
224	0xbb85afee	-0.0040798103
225	0x3d5702f2	0.052493043
226	0x3cd151f5	0.025551775
227	0x3d49d593	0.049275946
228	0x3c862f28	0.016379908
229	0x3c7cdd7f	0.015433668
230	0xbabfd62a	-0.001463597
231	0x3d985a16	0.074390575
232	0x3d05706c	0.032577917
233	0x3cc4b11e	0.024010237
234	0x3d98a749	0.07453782
235	0x3d8860b0	0.06659067
236	0x3d704019	0.05865488
237	0x3d10c08e	0.035339884
238	0x3d94b5a2	0.07261206
239	0x3d9862e2	0.074407354
240	0x3dafd781	0.08586026
241	0x3d88e2b7	0.066838674
242	0x3d1b03a6	0.037845276
243	0x3c66a042	0.014076294
244	0xbd086991	-0.0333038
245	0xbc0fba10	-0.008772388
246	0xbc942e8a	-0.018088598
247	0xbd32e879	-0.043678734
248	0xbd372c6b	-0.044720095
249	0xbcc747f8	-0.02432631
250	0xbcb68020	-0.022277892
251	0xbd5ebd6f	-0.054379877
252	0x3d535589	0.051595245
253	0xbc4e83f0	-0.012604699
254	0x3d5f8c17	0.05457696
255	0x3d295cec	0.041348383

deconv2.bias f4 [64]
0	0xbc369b4b	-0.011145423
1	0xbda4aeb7	-0.08041137
2	0xbd378b80	-0.044810772
3	0xbe0aa32a	-0.13538805
4	0x3d14100b	0.036148112
5	0xbd4c1e0c	-0.049833342
6	0x3d2ecbb1	0.042674724
7	0xbd39cc36	-0.045360766
8	0xbd38c601	-0.045110706
9	0xbdba0de9	-0.090846844
10	0xbdb390e0	-0.08767867
11	0x3d38bd6a	0.045102514
12	0x3c9a2372	0.01881573
13	0xbdce9f71	-0.10089005
14	0xbcb0d318	-0.021585032
15	0xbe5c9195	-0.2153991
16	0x3b897eb7	0.004196014
17	0xbdbaadfd	-0.09115217
18	0x3d79a2d2	0.060946293
19	0xbb9d072c	-0.0047921147
20	0x3d9deb90	0.077109456
21	0xbdfcb0a5	-0.1233838
22	0x3e34398b	0.17600076
23	0xbba5a066	-0.0050545214
24	0xbd7e363c	-0.06206344
25	0xbe2cf9b5	-0.1689213
26	0x3d4f8c6d	0.05067103
27	0x3e2febcc	0.17179793
28	0xbd908936	-0.07057421
29	0x3a1d7a2b	0.0006007279
30	0xbd69f6b1	-0.05712003
31	0x3d8d3354	0.06894556
32	0xbc94468c	-0.018100046
33	0xbc9e14ef	-0.019297091
34	0xbe521515	-0.20515855
35	0x3e0cdef2	0.13756922
36	0xbdd4ce09	-0.103908606
37	0xbd339ad5	-0.04384883
38	0xbe356b46	-0.17716703
39	0xbdb26ea5	-0.0871251
40	0xbd35def1	-0.044402067
41	0x3d6bfac4	0.057612196
42	0xbd697e2c	-0.057005093
43	0x3e0e218c	0.13879985
44	0x3da26804	0.07929996
45	0xbce6bdc3	-0.028166657
46	0xbdafcb0e	-0.085836515
47	0xbd8a2603	-0.067455314
48	0xbd87c0f6	-0.06628601
49	0xbdc05eeb	-0.09393104
50	0x3cb425b5	0.021990636
51	0x3dc32d55	0.09530131
52	0x3dd94e4a	0.106106356
53	0xbdd47562	-0.103739515
54	0xbbd6d432	-0.0065560574
55	0x3d94938a	0.07254703
56	0x3e448e39	0.19194879
57	0xbca192cd	-0.01972332
58	0x3da140d5	0.07873694
59	0x3e1477d7	0.1449884
60	0x3d02a35b	0.03189407
61	0x3ddf80da	0.10913248
62	0x3d1ff14f	0.03904849
63	0x3c7562f8	0.014977209
