contrastive_save/contrastive_weights_epoch_15.pt (torch, 749116 bytes, 8 tensors)

conv1.weight f4 [64, 3, 3, 3]
0	0xbdc388a5	-0.09547547
1	0xbde87be0	-0.11351752
2	0x3e3de3ce	0.18543932
3	0xbcff3d29	-0.031157093
4	0x3d95a3e5	0.07306651
5	0xbe111296	-0.14167246
6	0x3e01ec41	0.1268778
7	0x3e29ff47	0.16601287
8	0xbd9633ef	-0.07334124
9	0xbe11a999	-0.14224853
10	0xbe0fec44	-0.14054972
11	0x3d465238	0.048418254
12	0x3e356954	0.1771596
13	0x3e24f1fc	0.16107935
14	0xbda12697	-0.078686886
15	0x3c075c7a	0.008261794
16	0xbd05687c	-0.032570347
17	0xbe2ce60c	-0.16884631
18	0x3a8230f1	0.0009932799
19	0x3daf300a	0.085540846
20	0x3ce300a2	0.027710263
21	0x3d9a472c	0.07533106
22	0xbde52815	-0.11189286
23	0xbc06f489	-0.008237013
24	0x3d8cf745	0.068831004
25	0xbd27fd17	-0.04101285
26	0x3e248de4	0.16069752
27	0x3e16c78c	0.14724559
28	0x3e1631f3	0.14667492
29	0xbd442cd5	-0.047894318
30	0x3e23a0a6	0.15979251
31	0xbe049190	-0.12946153
32	0xbc0f6454	-0.008751947
33	0x3e1bb52d	0.15205832
34	0xbd1117c6	-0.035423063
35	0x3c9de571	0.019274445
36	0x3e1d80ad	0.15381117
37	0xbe2f3e17	-0.17113529
38	0xbdc57cac	-0.0964292
39	0xbe0676bd	-0.13131233
40	0xbdee0b80	-0.11623287
41	0x3e353ece	0.1769974
42	0x3dbd6cff	0.09249305
43	0x3de6ae3a	0.112637
44	0x3e080f77	0.1328715
45	0xbe3ed0c0	-0.1863432
46	0x3cf2d7b3	0.029643869
47	0xbd5985ff	-0.053106304
48	0xbe128a59	-0.14310588
49	0xbd77526f	-0.06038135
50	0x3d64b253	0.055834126
51	0x3e2d8f3a	0.16949168
52	0xbde6d3a5	-0.11270837
53	0x3dbbd9ba	0.091723874
54	0x3e40b81b	0.1882023
55	0xbd49f587	-0.04930642
56	0xbe1a481b	-0.15066569
57	0xbde01204	-0.10940936
58	0x3dedc6c0	0.11610174
59	0x3d411ed4	0.04714854
60	0x3da044d3	0.07825627
61	0x3db67e7c	0.08910844
62	0x3e2afcbe	0.16697976
63	0xbd426d46	-0.047467493
64	0xbe0ea3ce	-0.13929674
65	0xbe21f835	-0.1581734
66	0xbd974646	-0.073864505
67	0xbe1a8d23	-0.15092902
68	0xbd27a6aa	-0.040930428
69	0x3e3bc461	0.18336631
70	0x3e41e61b	0.18935435
71	0xbd88de4f	-0.06683027
72	0x3b14f96d	0.0022731677
73	0xbe3a83b8	-0.18214309
74	0x3d16b390	0.036792338
75	0x3c204afc	0.009783503
76	0xbda7c0a5	-0.08191041
77	0xbe327fab	-0.17431514
78	0xbd36d935	-0.04464074
79	0xbc371002	-0.01117325
80	0xbe208412	-0.15675381
81	0xbd856bf2	-0.065147296
82	0x3d7ec8e5	0.062203307
83	0x3e2d53e6	0.16926536
84	0x3d5732be	0.052538626
85	0xbda7aec2	-0.08187629
86	0x3cc2ecdd	0.023794586
87	0x3e36b158	0.17841089
88	0x3e14a753	0.14516954
89	0xbdf07226	-0.11740522
90	0xbd6ac920	-0.057320714
91	0xbe1d05ac	-0.15334195
92	0x3e113b6e	0.14182827
93	0x3cbdc781	0.02316642
94	0x3c34c1cb	0.011032532
95	0x3d2ec3c7	0.042667177
96	0x3dfc0927	0.12306433
97	0x3d670b68	0.056407362
98	0x3cdf42e6	0.02725358
99	0x3d0ef635	0.03490277
100	0xbdf6878b	-0.120375715
101	0xbc93769e	-0.018000897
102	0x3e10ca51	0.14139678
103	0xbd88539f	-0.066565745
104	0xbccd680e	-0.025074031
105	0xbd5f906b	-0.054581087
106	0x3e1acb43	0.151166
107	0x3e3f3c49	0.1867534
108	0xbe2a8f92	-0.1665633
109	0xbe2a62de	-0.16639277
110	0xbe2afbb9	-0.16697587
111	0xbe307c73	-0.17234974
112	0x3e3fd962	0.18735269
113	0x3df4d97d	0.11955545
114	0x3b562817	0.0032677704
115	0x3e4517c7	0.19247352
116	0x3e087f07	0.13329707
117	0x3cf41aea	0.02979799
118	0x3e06292c	0.13101643
119	0xbdca3aac	-0.09874472
120	0x3dc85b65	0.09783057
121	0xbd88763e	-0.06663178
122	0x3da97bb4	0.082755476
123	0x3dc09de2	0.09405114
124	0x3e303c96	0.17210612
125	0x3dab74c4	0.08371881
126	0xbdb82957	-0.0899226
127	0xbe006ab3	-0.12540703
128	0xbc8a2b88	-0.01686646
129	0x3d8eff8d	0.06982336
130	0xbdbabe88	-0.09118372
131	0xbda27196	-0.07931821
132	0xb9a0f0a5	-0.00030696872
133	0xbdbe3512	-0.09287466
134	0xbca1ec43	-0.019765979
135	0xbe2c65d7	-0.16835724
136	0x3cd0e388	0.02549912
137	0xbe3a4eeb	-0.18194167
138	0xbe1454bd	-0.1448545
139	0x3d9be065	0.07611159
140	0x3e1746e2	0.14773133
141	0x3d387a38	0.045038432
142	0x3d97a6c7	0.07404857
143	0x3dbb8d99	0.09157867
144	0xbcab278c	-0.02089288
145	0xbd7b9f7a	-0.061431386
146	0xbdca4041	-0.09875537
147	0xbe22a9b8	-0.15885055
148	0x3d622481	0.055210594
149	0x3e273dfe	0.16332242
150	0xbdb2c0b9	-0.08728165
151	0xbe3cc542	-0.18434623
152	0xbd2b67d5	-0.04184707
153	0xbd8c6c4e	-0.06856595
154	0xbe2822d6	-0.16419539
155	0x3d7462a9	0.059664402
156	0xbd261f49	-0.04055718
157	0xbd8ce90d	-0.068803884
158	0xbd41fa06	-0.04735758
159	0xbd7f76ae	-0.06236904
160	0xbdf46c46	-0.11934714
161	0x3d885f42	0.06658794
162	0xbd05734f	-0.03258067
163	0xbe012c58	-0.12614572
164	0xbe3ef981	-0.18649866
165	0x3d6193d8	0.055072635
166	0x3c9aae77	0.01888202
167	0x3dfe902f	0.124298446
168	0xbe2f9b70	-0.17149138
169	0x3cfba5f2	0.030718777
170	0x3d765110	0.0601359
171	0xbc6ea4e0	-0.014565676
172	0x3d9d01c4	0.076663524
173	0xbe353cf8	-0.17699039
174	0x3dc65c4a	0.096855715
175	0x3d6885f4	0.056768373
176	0xbd5a16d6	-0.053244434
177	0xbe2df626	-0.1698843
178	0xbe42c2ce	-0.19019625
179	0xbd7a8441	-0.061161283
180	0xbd8c214f	-0.068422906
181	0xbe16bac1	-0.14719678
182	0x3e21ad97	0.15788876
183	0xbe16013f	-0.14648913
184	0xbd17c0bd	-0.037049044
185	0x3dca68ab	0.09883245
186	0xbe21196b	-0.15732352
187	0xbdcbbef7	-0.09948533
188	0x3d8318e1	0.0640123
189	0x3dc67359	0.096899696
190	0x3d99df4a	0.07513292
191	0x3e04ee4a	0.12981525
192	0x3d50246b	0.05081598
193	0xbdf99590	-0.1218673
194	0xbd2a38e1	-0.04155815
195	0x3d095bed	0.033534933
196	0xbdb2e7c2	-0.087356105
197	0xbdf40d34	-0.11916581
198	0x3e05d86e	0.13070843
199	0xbc927b38	-0.01788102
200	0xbd148619	-0.036260698
201	0x3e38b65c	0.18038315
202	0x3e1e7759	0.15475215
203	0x3de4f5eb	0.11179718
204	0x3e0895a1	0.13338329
205	0xbd24a1a4	-0.040193215
206	0xbdf67129	-0.12033302
207	0x3e30c18e	0.17261335
208	0x3d145048	0.036209375
209	0x3d972a2a	0.07381089
210	0xbc54b31b	-0.012982155
211	0xbde8a3b0	-0.11359346
212	0x3e06f9f4	0.13181287
213	0x3c824804	0.01590348
214	0x3e3fc9ac	0.18729275
215	0x3de5f16c	0.11227688
216	0x3da40304	0.08008388
217	0xbc0d8712	-0.00863816
218	0xbd86f137	-0.06588977
219	0xbb8a1321	-0.004213706
220	0xbd77d3f2	-0.06050486
221	0xbe287639	-0.16451348
222	0x3b98c3e3	0.0046620234
223	0x3dc2e9e3	0.095172666
224	0x3d53414e	0.05157595
225	0x3d2f2e21	0.0427686
226	0x3e0c00be	0.13672158
227	0x3e0a1955	0.13486226
228	0xba8b7030	-0.0010638293
229	0xbd99cf67	-0.07510262
230	0xbd59f338	-0.053210467
231	0xbd0d31f4	-0.034471467
232	0xbe2281a1	-0.15869762
233	0xbdf959c5	-0.12175325
234	0x3e2d523e	0.16925904
235	0xbceb1ef1	-0.028701277
236	0xbda867d3	-0.08222928
237	0xbe16cfe3	-0.1472774
238	0xbd205c73	-0.039150666
239	0xbd0944fa	-0.033513047
240	0x3dc22085	0.09478859
241	0xbe3f5de9	-0.18688168
242	0x3e1d15c7	0.15340339
243	0x3e0f2f52	0.13982895
244	0xbd83b601	-0.06431199
245	0x3d6c418e	0.057679705
246	0xbd47e70f	-0.04880434
247	0xbd11ec8a	-0.03562597
248	0x3e2f7a13	0.17136411
249	0x3dff89bf	0.12477445
250	0xbb934902	-0.004494787
251	0xbdc41c20	-0.09575677
252	0xbd81b0c0	-0.063325405
253	0x3d8eb708	0.06968504
254	0x3db63c12	0.08898176
255	0xbd111557	-0.035420742

conv1.bias f4 [64]
0	0x3e027bfa	0.12742606
1	0xbe253387	-0.16132937
2	0x3c9bd2a2	0.019021336
3	0xbcb19664	-0.021678157
4	0xbd5c5d69	-0.05380002
5	0xbe4153b6	-0.1887959
6	0xbd747463	-0.059681308
7	0x3d205fba	0.039153792
8	0xbe261d82	-0.16222194
9	0x3ca67cdd	0.020323211
10	0x3c862138	0.016373262
11	0x3b9e6756	0.004834096
12	0xbda353f8	-0.07975
13	0xbe217f61	-0.15771247
14	0xbe38d4e6	-0.18049964
15	0x3d4b007b	0.049561005
16	0x3e16c1eb	0.14722411
17	0x3def19a1	0.1167481
18	0xbdd0c8b4	-0.10194531
19	0xbd70e533	-0.05881233
20	0x3debafa5	0.11508111
21	0xbcf71110	-0.030159503
22	0xbe2818c9	-0.16415705
23	0xbe255637	-0.1614617
24	0xbdf9552d	-0.12174449
25	0xbce557b6	-0.027995925
26	0xbdf205c8	-0.11817509
27	0xbd54e3b8	-0.051974982
28	0x3e1d1f95	0.15344079
29	0x3d6a7d61	0.057248477
30	0xbe2f8e9e	-0.17144248
31	0x3d41eac1	0.04734302
32	0xbc90a0ea	-0.017654855
33	0x3db57639	0.0886044
34	0x3e1e7af4	0.1547659
35	0x3e045284	0.12922102
36	0x3e413878	0.18869197
37	0x3b27e0ba	0.0025616125
38	0x3cf80e98	0.030280396
39	0xbe221cbf	-0.15831278
40	0xbd9b928d	-0.07596312
41	0x3ca61c96	0.020277303
42	0x3d5c8e25	0.053846497
43	0x3cc4404f	0.023956446
44	0x3bc24c71	0.0059295227
45	0xbdd8b2a8	-0.10580951
46	0xbe146622	-0.14492086
47	0x3e2d8542	0.16945365
48	0x3a96ed0e	0.001151474
49	0xbb8e78b1	-0.0043478836
50	0x3e3041f1	0.17212655
51	0xbd96640a	-0.073433
52	0xbe00ee32	-0.12590864
53	0xbd7c8537	-0.06165048
54	0x3d63d5e9	0.055623922
55	0xbdd4ea8a	-0.10396297
56	0x3d93c178	0.072146356
57	0xbd11540f	-0.035480555
58	0x3e1a0f2b	0.15044849
59	0x3dfbd8d5	0.12297217
60	0xbdd41928	-0.10356361
61	0xbdfaebc0	-0.12251997
62	0x3e35a46d	0.17738505
63	0x3dd97f1a	0.10619946

conv2.weight f4 [128, 64, 3, 3]
0	0xbc98fc9d	-0.018675143
1	0x3ab03fbb	0.0013446728
2	0xbd1533e8	-0.036426455
3	0xbcac992f	-0.021069137
4	0xbcd79453	-0.026315844
5	0xbd0bd804	-0.034141555
6	0xbbbe56a0	-0.0058086663
7	0x3c1ee653	0.009698468
8	0x3c9f9dd2	0.019484434
9	0xbd206316	-0.039156996
10	0xbc87a247	-0.016556872
11	0xbcd4729f	-0.025933562
12	0x3c41141a	0.011784578
13	0xbc01336a	-0.007885793
14	0xbca635f4	-0.020289399
15	0x3d17358a	0.036916293
16	0xbd1b879c	-0.037971124
17	0xbb99c9b5	-0.004693235
18	0x3c9be602	0.019030575
19	0x3c2483aa	0.010041157
20	0xbd270fc8	-0.040786535
21	0xbc46b58b	-0.012128244
22	0x39c9c7e3	0.00038486635
23	0x3cac7209	0.02105047
24	0x3a0f3c67	0.0005464018
25	0x3cdf3b09	0.02724983
26	0xbd02bce0	-0.031918406
27	0xbd275c18	-0.04085931
28	0x3cd593ff	0.026071547
29	0x3c64b9f1	0.0139603475
30	0x3ce0099e	0.027348336
31	0xbcae8b6e	-0.02130672
32	0x3cffc4a4	0.031221695
33	0x3c8e0706	0.017337333
34	0x3c8aa726	0.016925406
35	0xbd219b2d	-0.039454628
36	0xbc85f25c	-0.016350918
37	0xbcd1cee2	-0.025611345
38	0xbc820586	-0.015871774
39	0x3ba2806c	0.0049591567
40	0xbc6acab5	-0.014330556
41	0x3d09ebbf	0.03367209
42	0xbd17e3c4	-0.03708245
43	0xbb7d71d5	-0.0038672586
44	0xbc30e0e1	-0.010795803
45	0xbd2a549e	-0.041584603
46	0xbca708a3	-0.02038986
47	0x3d022ca8	0.03178087
48	0xbc894226	-0.016755175
49	0x3c840566	0.016115855
50	0x3cf5fa6b	0.030026635
51	0xbc960f78	-0.018317923
52	0xbd189a30	-0.03725642
53	0x3d11084a	0.035408296
54	0x3c8c5b56	0.017133396
55	0xbd20ecd0	-0.039288342
56	0x3cb62400	0.022233963
57	0xbd00037c	-0.031253323
58	0xbbef1bbd	-0.007297008
59	0x3d20f170	0.039292753
60	0x3ce82046	0.028335702
61	0x3c723930	0.014784142
62	0x3c652136	0.013984969
63	0x3d130ce0	0.03590095
64	0x3c9ae289	0.018906849
65	0x3b8e95dc	0.0043513607
66	0xbc7031a7	-0.014660276
67	0xbcb93f03	-0.022613054
68	0x3ce62e4a	0.028098244
69	0xbd132e01	-0.035932545
70	0xbce0896d	-0.02740928
71	0xbc21f382	-0.009884717
72	0xbd246ff2	-0.040145822
73	0xbd06ba76	-0.032892667
74	0xbb43d4e7	-0.0029881538
75	0x3d248b41	0.040171865
76	0x3cd654ae	0.026163425
77	0x3ce273d8	0.02764313
78	0x3cdc22c5	0.026872048
79	0x3cfa3dc8	0.030547038
80	0x3c3627b9	0.011117869
81	0xbd1829ad	-0.03714912
82	0x3cd95855	0.026531378
83	0xba0330d3	-0.0005004529
84	0xb8eacd3c	-0.000111962174
85	0x3d16ad66	0.03678646
86	0x3c9779e6	0.018490743
87	0x3b8dc764	0.0043267477
88	0xbcccda7d	-0.025006527
89	0xbce3e117	-0.027817292
90	0x3c61a626	0.013772523
91	0xbc1cf12f	-0.009578987
92	0x3bd02fe4	0.0063533653
93	0x3ca8f555	0.020624796
94	0x3c8992da	0.016793657
95	0x3c75c450	0.015000418
96	0x3cacb97c	0.02108454
97	0x3be47bb2	0.0069727534
98	0x3ca50658	0.020144626
99	0xbc2499bd	-0.01004642
100	0xbcf8110f	-0.030281572
101	0xbb6d5453	-0.0036213591
102	0x3b26672a	0.002539108
103	0xbcbb5948	-0.022869721
104	0x3c0a2286	0.008431083
105	0x3ca58dd3	0.020209229
106	0xbd151976	-0.036401235
107	0x3d1ea868	0.038734823
108	0xbd08aaf3	-0.033366155
109	0xbb6e15c7	-0.0036328898
110	0xbc6bd5a5	-0.014394199
111	0x3c77d46c	0.015126329
112	0xbd00a573	-0.031407785
113	0x3c91c328	0.017793253
114	0x3c5aed90	0.013362303
115	0x3b7443db	0.003727189
116	0x3ae0df0e	0.0017156319
117	0x3bfd9282	0.0077384124
118	0x3d206334	0.039157107
119	0x3ce0731e	0.027398642
120	0x3c63edc3	0.013911667
121	0x3c1cae16	0.00956299
122	0xbcdc2ede	-0.026877817
123	0xbd05a8e7	-0.03263178
124	0x3cd02da0	0.02541238
125	0x3ce9735f	0.028497396
126	0x3cbe32e8	0.023217633
127	0x3ca52e8a	0.020163793
128	0xbbf8af26	-0.0075892387
129	0xbc5a8b07	-0.013338811
130	0xbcde0ee3	-0.027106708
131	0xbc8a02d3	-0.01684705
132	0xbbcf07c5	-0.006318065
133	0xbd269e72	-0.04067845
134	0x3c881030	0.016609281
135	0x3c2c4314	0.01051404
136	0xbc06550e	-0.00819899
137	0x3cd3a534	0.02583561
138	0x3d1d837c	0.03845547
139	0xbbbe1084	-0.0058003087
140	0xbd25329e	-0.040331475
141	0xbce42ca9	-0.027853327
142	0x3cdc40eb	0.026886424
143	0x3d25e697	0.04050311
144	0xbd04018e	-0.032228045
145	0x3c65aebe	0.014018713
146	0xbc8daa44	-0.017293103
147	0x3c4ca1cf	0.01248975
148	0x3ce8b119	0.02840476
149	0xbcebe8ce	-0.028797533
150	0x3d2535e9	0.040334616
151	0x3d021ea9	0.03176752
152	0x3b9aea6d	0.0047276528
153	0x3c64aedf	0.013957708
154	0x3c910450	0.017702252
155	0x3c5d86ab	0.013520877
156	0x3c978cf1	0.018499823
157	0x3c363eab	0.01112334
158	0xbd042438	-0.032261103
159	0x3b8ab85f	0.0042334045
160	0x3cc59f6f	0.024123875
161	0x3c263572	0.010144578
162	0xbc2726a2	-0.010202082
163	0x3d0527c9	0.032508645
164	0xbd216aa3	-0.039408337
165	0xbd1200b9	-0.03564522
166	0xbc5f385b	-0.013624276
167	0xbcde6b81	-0.027150871
168	0x3cfcc555	0.030855814
169	0xbd22b283	-0.039721023
170	0xbd192704	-0.037390724
171	0x3ce61705	0.028087148
172	0xbcc1063f	-0.023562549
173	0xbb81b6f6	-0.003958578
174	0xbc7a53bc	-0.015278753
175	0x3c0071a8	0.007839598
176	0x3c3d86d3	0.011567789
177	0x3cc05ee9	0.023482757
178	0x3cc1f269	0.02367516
179	0xbb30e278	-0.0026990455
180	0x3b1e801d	0.0024185248
181	0xbd008840	-0.031379938
182	0x3d03dc42	0.032192476
183	0xbcaa97d1	-0.020824345
184	0x3d26660b	0.04062466
185	0xbc8b8771	-0.017032357
186	0xbbc965a3	-0.0061461492
187	0xbd12c600	-0.03583336
188	0x3cf90fb6	0.030403
189	0xbc0469f6	-0.008081904
190	0x3d29fcff	0.04150104
191	0x3c42ad37	0.011882118
192	0x3c9e42b2	0.019318912
193	0xbc56c166	-0.013107633
194	0x3cf6edd8	0.03014271
195	0xbcb4a432	-0.02205095
196	0x3c034f26	0.008014476
197	0xbb81ab82	-0.003957213
198	0x3b01a102	0.0019779806
199	0xbcc02a78	-0.02345775
200	0x3bb53796	0.005530308
201	0xbcf7c80e	-0.03024676
202	0xbcbeb6ee	-0.023280587
203	0x3bd554e0	0.006510362
204	0x3c83318b	0.016014835
205	0x3c9fadf0	0.01949212
206	0x3c836350	0.016038567
207	0x380818b6	3.244794e-05
208	0xbcd1097d	-0.02551722
209	0xbcb65a91	-0.022259982
210	0x3cbdf425	0.023187706
211	0xbceb8887	-0.028751625
212	0x3b87d6ad	0.0041454644
213	0x3c78bd02	0.015181782
214	0xbd21134a	-0.039325036
215	0xbaf364fa	-0.0018569522
216	0x3bd4c147	0.006492767
217	0x3bf3526f	0.0074255983
218	0xbc38763a	-0.011258656
219	0x3cdddda1	0.02708322
220	0xbceb9b23	-0.028760498
221	0x3cf0c140	0.029389024
222	0xbc13c83e	-0.009019909
223	0x3c4bd188	0.012440093
224	0x3d047887	0.032341506
225	0xbd1463f8	-0.03622815
226	0x3cb9e7a9	0.022693472
227	0x3d05ba18	0.032648176
228	0xbc9525fb	-0.018206587
229	0xbd053af8	-0.03252694
230	0x3cf0e579	0.029406296
231	0xbcb4cb6f	-0.022069661
232	0x3d246208	0.040132552
233	0xbc913913	-0.01772741
234	0x3d16e6c5	0.036841173
235	0x3c195b1d	0.009360102
236	0xbcf2397a	-0.029568423
237	0x3d262eb5	0.040571887
238	0xbc5e0d98	-0.013553046
239	0x3d1274f9	0.035756085
240	0x3ca18bb7	0.019719942
241	0x3c403840	0.011732161
242	0x3bdf99fd	0.0068237768
243	0x3d13bb97	0.03606757
244	0x3bd34696	0.0064476235
245	0x3c13df04	0.009025339
246	0xbb555b87	-0.0032555775
247	0x3cf2277c	0.029559843
248	0x3ccbc939	0.024876224
249	0x3c4d70b5	0.0125390785
250	0x3abd7e61	0.001445722
251	0xbcc5a23d	-0.024125213
252	0x3cfd409a	0.030914593
253	0xbce94896	-0.028476994
254	0x3cbfb1d3	0.023400223
255	0x3cd553ce	0.026040938

conv2.bias f4 [128]
0	0x3a029aa0	0.00049821474
1	0xbd1fe521	-0.039036874
2	0x3cfbab5b	0.030721357
3	0x3caf1e73	0.021376824
4	0x3cfa732e	0.0305725
5	0xbc31ca9b	-0.010851528
6	0x3d12ace4	0.035809413
7	0x3d43e166	0.04782238
8	0x3d2a31cf	0.041551407
9	0x3d0e133d	0.034686316
10	0x3ae95061	0.0017800444
11	0xbd00c277	-0.031435456
12	0xbb562716	-0.0032677106
13	0xbb8bee53	-0.004270354
14	0x3c7e982c	0.01553921
15	0xbd09ca69	-0.0336403
16	0x38b56328	8.649222e-05
17	0x3c85b6aa	0.016322453
18	0x3c995e57	0.018721743
19	0x3ce76cb3	0.028250074
20	0xbd20aaa0	-0.03922522
21	0xbd2e33b4	-0.042529777
22	0xbcb72e28	-0.022360876
23	0x3d054d52	0.03254444
24	0xbcc17fc1	-0.023620488
25	0xbaa5ef0c	-0.0012659742
26	0xbbc4718e	-0.005994982
27	0xbb85a46a	-0.0040784376
28	0x3d17a31a	0.03702078
29	0xbd233ffd	-0.039855946
30	0xbd07cb2c	-0.033152744
31	0xbcf57ba3	-0.029966181
32	0xbbcf3c52	-0.0063243294
33	0x3c4e9bc6	0.0126103815
34	0x3cc7d79d	0.024394805
35	0xbcdffb30	-0.027341455
36	0x3d1e872e	0.038703136
37	0x3cda86d0	0.026675612
38	0x3d26ff1a	0.040770628
39	0xbc4ddba4	-0.012564573
40	0xbc1c6a3d	-0.009546814
41	0x3c641fa9	0.013923564
42	0xbd1713fa	-0.036884286
43	0xbcca3627	-0.024684025
44	0xbc58cf68	-0.013233043
45	0xbce68e59	-0.028144049
46	0xbd03f9ec	-0.032220766
47	0x3ca64fa7	0.020301653
48	0xbc534132	-0.012893962
49	0x3d134cb2	0.035961814
50	0x3c6f0466	0.014588451
51	0x3d2bb01d	0.041916
52	0x3c9375ff	0.0180006
53	0x39317e3e	0.00016927064
54	0x3c9200e3	0.017822688
55	0x3d2eb786	0.04265549
56	0xbd1ebd58	-0.03875479
57	0xbc51c348	-0.012802906
58	0x3c57139b	0.013127233
59	0xbcd0c042	-0.0254823
60	0xbc93edf9	-0.01805781
61	0xbd05498c	-0.032540843
62	0x3c8a029a	0.016846944
63	0xbd33f688	-0.043936282
64	0x3c074a29	0.008257427
65	0xbc8944b5	-0.016756395
66	0xbc06b804	-0.008222584
67	0xbcf40f77	-0.02979253
68	0xbd11f82d	-0.03563707
69	0x3b98e0ad	0.0046654553
70	0x3b816cf6	0.0039497567
71	0x3b5cd273	0.0033694773
72	0x38e030ab	0.000106902175
73	0xbca74687	-0.020419372
74	0xbc0860a9	-0.008323827
75	0xbcf6f610	-0.030146629
76	0xbd084b7d	-0.033275116
77	0xbcbec677	-0.023287995
78	0xbbbdd146	-0.0057927696
79	0x3c80598d	0.015667701
80	0x3ca300a5	0.019897768
81	0x3d0b307b	0.03398178
82	0xbc0ec091	-0.008712904
83	0x3d0e98a7	0.03481355
84	0xbc417ee8	-0.011810042
85	0x3c19432d	0.009354395
86	0x3d2b6f46	0.041854165
87	0x3cf4454b	0.029818198
88	0xbd018ffc	-0.031631455
89	0xbd453ff3	-0.04815669
90	0x3c6f4203	0.014603141
91	0x3d29c57e	0.04144811
92	0x3c4ab597	0.012372396
93	0x3c6cdf65	0.014457558
94	0xbbbd5573	-0.0057780086
95	0x3c9cea78	0.019154772
96	0x3d3edc43	0.046596777
97	0xbd25e415	-0.04050072
98	0x3ce44735	0.027865985
99	0xbbbc5c98	-0.0057483427
100	0xbcc8add4	-0.02449695
101	0xbce7248f	-0.028215675
102	0x3cec34b1	0.028833719
103	0xbbc78ca7	-0.006089765
104	0x3cd3b108	0.025841251
105	0x3a35d7d2	0.0006936762
106	0x3a55304c	0.0008132502
107	0xbbcdb744	-0.0062779505
108	0x3cee4329	0.029084759
109	0xbd22956c	-0.03969328
110	0x3d303cbc	0.04302667
111	0xbcfd4a08	-0.03091909
112	0x3bdf430f	0.006813414
113	0xbc8840dd	-0.016632492
114	0x3cf42624	0.029803343
115	0x3c83b458	0.016077206
116	0x3cc63fbb	0.02420031
117	0x3ba19987	0.004931632
118	0x3af34687	0.0018560447
119	0xbc885ff1	-0.01664731
120	0x3cec7c98	0.028868005
121	0xbca6ecd2	-0.020376597
122	0xbd18c8b6	-0.037300788
123	0x3d0eb792	0.034843035
124	0xbca902d2	-0.020631228
125	0x3c1ca15e	0.009559957
126	0xbcbc38ea	-0.022976357
127	0xbc69c870	-0.014268979

deconv1.weight f4 [128, 64, 3, 3]
0	0x3ce11aaa	0.027478535
1	0xbcc00fa1	-0.023444952
2	0xbcef2ee8	-0.029197171
3	0x3c948db3	0.018133974
4	0x3c9e9b0b	0.01936104
5	0xbc9eca90	-0.019383699
6	0xbcd587d1	-0.026065739
7	0x3c56fda8	0.013122
8	0xbccb5f30	-0.024825662
9	0xbc47ad9f	-0.012187391
10	0x3cc03fff	0.023468016
11	0xbce8c110	-0.028412372
12	0xbc616c78	-0.013758771
13	0xbc8c960e	-0.017161395
14	0xbbe3870f	-0.0069435905
15	0x3aa050b5	0.0012231084
16	0x3a4c6075	0.00077963556
17	0x3bb15b76	0.0054125143
18	0x3ce39ebb	0.02778565
19	0xbc54cee6	-0.012988782
20	0xbbba9fe0	-0.005695328
21	0xbcb8994f	-0.02253404
22	0xbd16148b	-0.036640685
23	0x3cd3b744	0.025844224
24	0x3cfa3229	0.030541496
25	0xbc0f3a4c	-0.008741926
26	0x3c975dc6	0.018477332
27	0xbd1c4394	-0.038150385
28	0xbd04ae32	-0.032392688
29	0x3cd75e8d	0.026290203
30	0x3c70b02e	0.014690442
31	0xbcaa0c20	-0.020757735
32	0xbc06dad6	-0.0082308855
33	0x3ca1cf9a	0.019752312
34	0x3ceecabf	0.029149411
35	0x3c293a0d	0.010328782
36	0xbbfa99b3	-0.007647717
37	0xbb19eab2	-0.0023485837
38	0x3d07ef85	0.033187408
39	0xbd10fbfb	-0.035396557
40	0xbd254be8	-0.040355593
41	0xbd21469e	-0.039373986
42	0x3cedb17b	0.029015293
43	0xbce89692	-0.02839211
44	0x3c109af3	0.008826005
45	0x3c8a2e07	0.01686765
46	0xbccfb4be	-0.02535474
47	0xbccb0851	-0.024784239
48	0xbc965701	-0.018352034
49	0xbceeab4f	-0.02913442
50	0x3d0c574d	0.034262944
51	0x3d278250	0.04089576
52	0xba974685	-0.0011541402
53	0xbb1adac7	-0.0023628937
54	0x3ceddea2	0.029036824
55	0xbb602d16	-0.003420656
56	0xbcc0f110	-0.023552448
57	0xbc8b59f3	-0.017010665
58	0x3bd5ae09	0.0065209907
59	0x3ceb7702	0.02874327
60	0xbc55dc3a	-0.013052994
61	0xbcd5f68c	-0.02611854
62	0xbc802b4c	-0.015645646
63	0xbd27021a	-0.04077349
64	0xbca3b9e9	-0.01998611
65	0xbd193848	-0.03740719
66	0xbc02f48f	-0.007992878
67	0xbb8a5a2f	-0.0042221765
68	0x39d2e19b	0.0004022241
69	0x3c1ded79	0.009639137
70	0x3c5f4039	0.013626152
71	0x39b1f031	0.00033939027
72	0xbca49c63	-0.020094102
73	0x3d046d44	0.032330766
74	0xbc9b50f8	-0.018959507
75	0x3d1ba126	0.03799548
76	0x3d1addb9	0.037809107
77	0x3d2775e0	0.0408839
78	0x3afbe103	0.0019216839
79	0xbd13c5f1	-0.036077444
80	0x3c889b51	0.016675623
81	0x3b352363	0.00276395
82	0xbb0c6581	-0.0021422806
83	0xbd2803a7	-0.04101911
84	0x3cc21119	0.023689793
85	0xba884541	-0.0010396616
86	0x3bee241f	0.0072674896
87	0x3ca1542c	0.019693457
88	0xbc10284c	-0.00879867
89	0xbcf267f6	-0.029590588
90	0xbc87e3e4	-0.016588159
91	0x3cb66b02	0.022267822
92	0xbc0213f3	-0.007939327
93	0x3c36ebe9	0.011164644
94	0xbd0ad60e	-0.033895545
95	0x3bc13086	0.005895677
96	0xbcbeb3df	-0.023279129
97	0x3c009c83	0.007849815
98	0xbcae3c76	-0.021269064
99	0x3a1dafc3	0.0006015265
100	0x3c986769	0.018603997
101	0xbc6b0ef3	-0.014346826
102	0xbd04bab2	-0.03240461
103	0xbcb553bf	-0.02213466
104	0xbc3d7d07	-0.011565453
105	0x3cdc5e11	0.026900323
106	0xbd1704ab	-0.036869686
107	0x3c3e7680	0.011624932
108	0x3d087d55	0.03332265
109	0x3d1b3a59	0.03789744
110	0xbb497447	-0.0030739473
111	0x3c4fb36b	0.012677054
112	0x3c72bd74	0.014815677
113	0x3d0f5c1f	0.034999963
114	0xbb5f61da	-0.0034085424
115	0x3c9d8a56	0.019231003
116	0x3cd4e94c	0.02599015
117	0x3c5a3880	0.013319135
118	0x3cf50f8b	0.029914638
119	0xbb9cf1fb	-0.0047895885
120	0x3a5b657d	0.000836931
121	0x3befabc7	0.0073141786
122	0x3d28200b	0.041046184
123	0xbc5c0bad	-0.013430518
124	0xbd1271f8	-0.03575322
125	0x3d112316	0.03543385
126	0xbd0c135c	-0.03419815
127	0x3d279278	0.040911168
128	0x3d087217	0.03331193
129	0x3cbfbf03	0.023406511
130	0x3d22a427	0.03970733
131	0xbc8eac4e	-0.017416146
132	0x3b822f43	0.003972919
133	0xbd103b30	-0.035212696
134	0xbd09e3ec	-0.03366463
135	0x3d126ef8	0.03575036
136	0x3d1fbdc6	0.03899934
137	0xbd26fb5d	-0.040767062
138	0x3caff181	0.021477463
139	0x3c09a62e	0.008401437
140	0x3c7a36d9	0.015271866
141	0x3d02308f	0.03178459
142	0x3ca36716	0.019946616
143	0xbbaf2008	-0.0053443946
144	0x3d1f7056	0.03892549
145	0x3b9f748b	0.004866188
146	0x3cfa40e4	0.03054852
147	0xbcba33e4	-0.022729822
148	0x3bdcae41	0.00673464
149	0xbc920eea	-0.017829377
150	0x3cd1fa6f	0.025632111
151	0xbd0e520f	-0.034746226
152	0x3beab566	0.0071627377
153	0x3cf2d396	0.029641908
154	0x3d06b6b3	0.03288908
155	0xbc0be430	-0.008538291
156	0xbcd2fc60	-0.025755107
157	0xbcd47f46	-0.025939595
158	0xbc5f9bf0	-0.013648018
159	0xbbdbfcfc	-0.0067135077
160	0xbd17225e	-0.03689801
161	0x3cf881b4	0.030335285
162	0x3c80ab5b	0.015706709
163	0x3c74749b	0.014920379
164	0xbb838176	-0.0040132357
165	0xbd133663	-0.03594054
166	0xbc571ea6	-0.013129866
167	0x3c6d8730	0.014497563
168	0x3b65392b	0.0034976702
169	0xbc606370	-0.013695583
170	0xbcbeb23b	-0.023278346
171	0x3c642d90	0.013926879
172	0x3a59c2c9	0.00083069183
173	0xbcebfe3f	-0.028807757
174	0x3ab7fadf	0.0014036557
175	0x3d0a5d61	0.03378046
176	0xbc1ea63e	-0.00968319
177	0x3c7363eb	0.014855365
178	0x3d28c421	0.041202668
179	0xbc1e41a5	-0.009659206
180	0x3c5105b3	0.012757706
181	0x3c723ba4	0.014784727
182	0x3cffad2d	0.031210506
183	0x3d198ee2	0.03748978
184	0x3c0afb4e	0.008482767
185	0x3ca3dbee	0.020002332
186	0x3d18897e	0.037240498
187	0x3c9c6e28	0.019095495
188	0x3d224544	0.039616838
189	0x3bb685c7	0.0055701467
190	0xbad40b2a	-0.0016177644
191	0x3c4b5682	0.012410762
192	0xbc915aa7	-0.017743422
193	0xbcc6206f	-0.024185387
194	0xbd19a4cf	-0.03751069
195	0xbbcfde80	-0.0063436627
196	0x3c869905	0.016430387
197	0xbd1b1863	-0.037865054
198	0x3cfe41d7	0.031037254
199	0x3d0b198f	0.03395992
200	0xbca914c7	-0.02063979
201	0xbd2910b6	-0.041275702
202	0xbc08d7a6	-0.008352196
203	0xbca0b68b	-0.019618293
204	0x3c53a234	0.01291709
205	0x3cf4e6b3	0.029895162
206	0x3d223e20	0.03961003
207	0xbc7e8418	-0.015534423
208	0xbcadeea6	-0.02123196
209	0xbd1b2d65	-0.03788509
210	0x3d1ba962	0.038003333
211	0x3cf3d138	0.02976285
212	0x3d26d8ab	0.040733974
213	0x3b823007	0.0039730105
214	0xbd12c0e5	-0.03582849
215	0x3b8bef5c	0.004270477
216	0xbc1be3f8	-0.009514801
217	0x3cfd6b2e	0.030934896
218	0x3b664519	0.00351364
219	0x3c70bf59	0.014694058
220	0x3cbaf19b	0.022820285
221	0xbcfa1278	-0.030526385
222	0xb8d82a54	-0.00010307567
223	0xbc41fc23	-0.011839899
224	0xbcf95703	-0.030436998
225	0xbb32007c	-0.0027160933
226	0xbcd74477	-0.026277764
227	0xbb091ae3	-0.0020920567
228	0x3bfd1558	0.0077234916
229	0x3ca22c4d	0.019796515
230	0x3ca717c0	0.020397067
231	0xbc9b39c8	-0.01894845
232	0x3b7fef79	0.003905265
233	0x3c89545f	0.016763864
234	0xbc6e1acc	-0.014532756
235	0x3ca17cc0	0.019712806
236	0xbca87b41	-0.020566585
237	0xbc290ac5	-0.010317509
238	0x3c3a877d	0.011384842
239	0x3bb00e2a	0.0053727822
240	0xbcd8e62e	-0.026476946
241	0x3be3de31	0.0069539775
242	0xbc22d949	-0.0099395
243	0xbd225104	-0.039628044
244	0xbbac8a72	-0.0052655274
245	0xbd267f26	-0.040648602
246	0x3d07fe15	0.033201296
247	0x3d25f8c8	0.04052046
248	0x3d19a7a8	0.037513405
249	0xbb99280b	-0.004673963
250	0xbc4b728a	-0.012417445
251	0x3c4e5a74	0.012594808
252	0xbc1bdfd1	-0.009513811
253	0x3c69e7c1	0.014276446
254	0x3cda63f9	0.026658999
255	0x3c450044	0.012023989

deconv1.bias f4 [64]
0	0x3a953090	0.0011382271
1	0x3d23c43d	0.03998207
2	0x3c68d41f	0.01421073
3	0x3aa26182	0.0012388679
4	0xbc71b742	-0.014753165
5	0x3c99a23c	0.018754117
6	0xbcaf8cd2	-0.021429453
7	0x3ce6ec67	0.028188897
8	0xbc8696b1	-0.016429277
9	0x3bf4b50e	0.0074678725
10	0x3bbffd1c	0.0058590304
11	0xbcdb777d	-0.026790375
12	0xbbb0685e	-0.0053835353
13	0xbc8b3e3c	-0.01699745
14	0xbb5bce22	-0.0033539613
15	0xbcd02a92	-0.025410924
16	0xbd0d9bbc	-0.034572348
17	0x3d166c80	0.036724567
18	0xbd06373a	-0.032767512
19	0x3bda8cc3	0.006669612
20	0xbc9d723f	-0.019219516
21	0xbc96c7ee	-0.01840588
22	0xbbe5b7a7	-0.0070104185
23	0x3ce401dd	0.02783292
24	0x3c8ebf78	0.017425284
25	0xbc53fbde	-0.012938468
26	0x3ca66743	0.02031291
27	0xbce1e081	-0.027572872
28	0xbd176bad	-0.036967922
29	0x3b9003d2	0.0043949867
30	0xbc12ced6	-0.008960446
31	0xbd069f0b	-0.03286652
32	0xbcb03973	-0.021511769
33	0xbbe7eb24	-0.0070775915
34	0xbccbc220	-0.02487284
35	0x3d24de76	0.040251218
36	0xbc4f24f3	-0.012643087
37	0x3d1e2762	0.038611777
38	0xbd3370bb	-0.04380868
39	0xbc3ea65b	-0.011636342
40	0x3d6acf80	0.057326794
41	0x3cd15a3f	0.025555728
42	0xbca6c188	-0.020355955
43	0xbd22239e	-0.03958475
44	0xbca86c1b	-0.020559361
45	0x3c7652ad	0.01503436
46	0x3c114493	0.008866447
47	0x3c22c6c0	0.009935081
48	0xbd11612f	-0.035493072
49	0xbcaed295	-0.021340648
50	0xbc8c79b5	-0.017147878
51	0xbcd76d47	-0.026297225
52	0xbbb0b926	-0.005393165
53	0xbcb7d3e6	-0.022439908
54	0xbd0739a4	-0.033013955
55	0x3c59f7dc	0.013303723
56	0xbcdeaefc	-0.027183048
57	0x3d210f00	0.039320946
58	0xbcd547ee	-0.026035275
59	0x3bf51a18	0.0074799173
60	0xbcb0cba9	-0.021581488
61	0xbd2396a5	-0.039938588
62	0xbc811731	-0.015758129
63	0xbd2bc635	-0.04193707

deconv2.weight f4 [64, 64, 3, 3]
0	0xbbdc29ec	-0.0067188647
1	0x3d214529	0.039372597
2	0x3d143182	0.036180027
3	0x3cc03bff	0.023466108
4	0x3d0e1460	0.0346874
5	0xbcc9e38a	-0.024644632
6	0x3d1b96df	0.03798568
7	0x3cc8d103	0.024513727
8	0x3c57d99d	0.013174442
9	0xbca8ce3f	-0.020606158
10	0x3c41f8e5	0.011839126
11	0x3ba2f1b9	0.0049726632
12	0xbc2313cc	-0.00995345
13	0x3d272392	0.040805407
14	0x3ce4e942	0.027943257
15	0x3c5d453b	0.013505275
16	0x3cb6dd98	0.022322461
17	0xbcd4e07e	-0.025985952
18	0xbd05dd69	-0.032681856
19	0xbd2756c1	-0.04085422
20	0x3d04a082	0.032379635
21	0x3cf06c3d	0.029348487
22	0xbc5d996a	-0.013525346
23	0x3cd1d442	0.025613908
24	0xbbbcc5ae	-0.00576087
25	0xbd09e963	-0.03366984
26	0x3d115f9a	0.035491563
27	0x3bd231d0	0.0064146295
28	0x3bc1ebcf	0.005918003
29	0x3c0b5809	0.008504876
30	0x3c760821	0.0150165865
31	0xbcaf0a14	-0.02136711
32	0x3ccb6216	0.024827044
33	0xbd138686	-0.036016963
34	0xbc2bac94	-0.010478158
35	0xbc978690	-0.018496782
36	0x3d0b5ffd	0.03402709
37	0x3cf66414	0.030077018
38	0xbd1eaa1e	-0.038736455
39	0xbc2f3300	-0.010693312
40	0x3c62c6b2	0.013841318
41	0x3d139c09	0.03603748
42	0xbc2a731f	-0.010403424
43	0xbd24e554	-0.040257767
44	0xbc9b2528	-0.018938616
45	0xbb9c0fc7	-0.004762623
46	0x3c8364a4	0.0160392
47	0xbd2692fa	-0.04066751
48	0xbc9db39e	-0.019250687
49	0xbd240d1f	-0.040051576
50	0xbbfe4b37	-0.007760431
51	0x3c953426	0.018213343
52	0xbd240cf6	-0.040051423
53	0xbcc756b7	-0.024333341
54	0x3d18ff01	0.037352566
55	0xbcc69d68	-0.024244979
56	0xbcb30074	-0.021850802
57	0x3c943899	0.018093394
58	0xbb05725a	-0.0020362348
59	0xbcef8fd9	-0.029243397
60	0xbc1ed49b	-0.009694244
61	0x3b169eb8	0.0022982787
62	0x3d25382b	0.04033677
63	0x3b84b984	0.0040504355
64	0x3cc63f17	0.024200005
65	0xbceb17e6	-0.02869792
66	0x3b0426e4	0.0020164782
67	0xbc5ecc62	-0.013598533
68	0x3b67cb3e	0.0035368945
69	0xbcad9dc5	-0.021193394
70	0xbd0ef3ad	-0.034900356
71	0x3cca0faa	0.024665672
72	0x3cae318c	0.02126386
73	0x3d1362bc	0.035982832
74	0xbca5ea1c	-0.020253234
75	0x3d2375c9	0.03990725
76	0xbbd61d31	-0.0065342416
77	0x3c82c578	0.015963301
78	0xbce43ffc	-0.027862541
79	0x3bc5f5b7	0.0060412544
80	0x3ced2e57	0.02895276
81	0xbce9b801	-0.028530123
82	0xbc0fb54d	-0.008771253
83	0x3c31e434	0.0108576305
84	0x3c3fbe68	0.011703111
85	0x3cd0520d	0.02542975
86	0x3c31841c	0.01083472
87	0x3c0c93ee	0.008580191
88	0x3c92f46f	0.01793882
89	0x3c9ca1e3	0.019120162
90	0xbacec741	-0.0015775935
91	0x3d2ad94e	0.041711144
92	0x3c99c4e3	0.01877064
93	0xbcb6a1fb	-0.022294035
94	0x3c991cf7	0.01869057
95	0xbc660b9a	-0.014040852
96	0xbd1efe57	-0.038816776
97	0x3c2942fe	0.010330914
98	0x3c2f5d5e	0.010703413
99	0xbd148dc7	-0.036268022
100	0x3d09eb3e	0.03367161
101	0xbceee1ad	-0.029160345
102	0x3c8e6f24	0.01738698
103	0x3bfe9c41	0.0077700918
104	0xbd040b83	-0.03223754
105	0x3d05bbb3	0.032649707
106	0xbc70b6e9	-0.014692047
107	0xbb9ebbad	-0.00484415
108	0xbcea753e	-0.028620359
109	0x3ccfa171	0.025345536
110	0x3d23d25e	0.039995544
111	0xbbcc79c4	-0.0062401015
112	0xbbb2c347	-0.005455408
113	0x3ca73668	0.020411685
114	0xbcc06e12	-0.023489986
115	0x3d291017	0.04127511
116	0xbc2a5291	-0.010395662
117	0x3bf48c5f	0.0074630226
118	0xbd08dabd	-0.03341173
119	0xbcc5457b	-0.024080982
120	0xbd1d038c	-0.03833346
121	0x3cd27450	0.025690228
122	0xbd0d6d4c	-0.03452806
123	0x3cd8c272	0.026459906
124	0xbd16114f	-0.0366376
125	0x3c2b6131	0.010460184
126	0xbcb492b8	-0.022042617
127	0x3b8d339a	0.00430913
128	0xbcfd7795	-0.03094081
129	0x3d1d3c35	0.038387496
130	0xbd083a8f	-0.03325897
131	0x3c951604	0.018198974
132	0xbc2cd236	-0.010548165
133	0x3c2191d1	0.0098614255
134	0xba9c91e4	-0.0011945334
135	0xbc35bf04	-0.011092905
136	0x3ce92815	0.028461495
137	0x3c7b6577	0.015344015
138	0xbd008bc4	-0.03138329
139	0x3ca2f77b	0.019893399
140	0x3aca3586	0.0015427328
141	0x3c95641f	0.018236218
142	0xbcaffe7c	-0.021483652
143	0x3c424309	0.011856803
144	0xbc3a6a3c	-0.011377867
145	0xbb0a599c	-0.002111054
146	0x3bd1ba8c	0.006400412
147	0x3d20b084	0.03923084
148	0x3d2e9795	0.04262503
149	0x3c1244d0	0.008927539
150	0x3c88d6fb	0.016704073
151	0x3ca3d1a1	0.01999742
152	0x3cac4f3d	0.021033878
153	0x3cb7012c	0.022339426
154	0xbc66a928	-0.014078416
155	0x3c609af5	0.01370882
156	0xbc411e86	-0.0117870625
157	0xbcb72792	-0.022357736
158	0xbc1c98c7	-0.009557909
159	0x3d1d3355	0.038379032
160	0x3d01b8f9	0.031670544
161	0x3ce380a5	0.027771303
162	0xbb1caded	-0.0023907379
163	0x3d1369fe	0.035989754
164	0x3cfbb6d3	0.030726826
165	0xbd02b45e	-0.031910293
166	0xbc3484b9	-0.011017972
167	0xbd273a34	-0.04082699
168	0x3cdb4298	0.026765153
169	0x3ba85eef	0.00513827
170	0xbb5c3043	-0.0033598102
171	0x3d0d1f17	0.034453478
172	0xbd1e3188	-0.038621455
173	0xbc3ba47c	-0.01145279
174	0xbcda0627	-0.026614262
175	0x3ceabcf4	0.028654553
176	0x3cc96eff	0.02458906
177	0xbc8867fb	-0.016651144
178	0x3d0ac60d	0.033880282
179	0x3b4fafb2	0.0031690416
180	0x3d03183c	0.032005534
181	0xbbbb0fe9	-0.0057086837
182	0xbc1c7044	-0.009548251
183	0x3ce57c00	0.02801323
184	0x3ccc0958	0.0249068
185	0xbcdaa5d5	-0.026690403
186	0x3c8f8bb3	0.017522668
187	0x3cdf0639	0.027224647
188	0x3cd31e33	0.025771236
189	0xbce77dcc	-0.028258227
190	0xbb99a224	-0.004688518
191	0xbcddaa97	-0.027058883
192	0xbc2fa09c	-0.010719445
193	0xbcc53e63	-0.0240776
194	0x3c29351b	0.010327603
195	0xbc41f969	-0.011839249
196	0xbcb8b200	-0.022545815
197	0xbc349bc7	-0.011023468
198	0x3c353756	0.011060556
199	0x3c372219	0.011177563
200	0x3bd3666c	0.0064514186
201	0xbd2baaad	-0.041910816
202	0xbb28b0fc	-0.0025740257
203	0xbc887a0d	-0.01665976
204	0xbcbcb651	-0.023036154
205	0x3d168645	0.036749143
206	0xbcb50c64	-0.022100635
207	0xbd1196e3	-0.035544287
208	0xbc90c990	-0.017674237
209	0xbcc96624	-0.024584837
210	0xbcaca838	-0.021076307
211	0x3c94e621	0.01817614
212	0xbbad1a26	-0.005282658
213	0xbc830bc2	-0.015996817
214	0x3c21672f	0.009851261
215	0x3c74a8ce	0.014932824
216	0x3b6b4b9b	0.0035903219
217	0xbd014d08	-0.031567603
218	0xbcf6b028	-0.030113295
219	0x3aeb4589	0.00179498
220	0xbc0e727c	-0.008694287
221	0xbd1b088a	-0.03784994
222	0xbc8ee015	-0.017440835
223	0x3b9adb74	0.004725868
224	0xbbdb2314	-0.0066875312
225	0x3cfbb541	0.030726077
226	0xbc7991f3	-0.015232551
227	0x3c678f9f	0.014133363
228	0xbcc607ab	-0.024173578
229	0xbd27f932	-0.041009136
230	0xbd1af689	-0.03783277
231	0xbcad4d13	-0.021154916
232	0xbca963e2	-0.02067751
233	0xbd252c1a	-0.04032526
234	0x3d0ea070	0.034820974
235	0x3c51085a	0.012758339
236	0xbcfa7214	-0.030571975
237	0x3cfd7f34	0.030944444
238	0x3d055b09	0.03255752
239	0xbc00c321	-0.007859022
240	0x3b472dad	0.0030392215
241	0x3cdf9f54	0.027297653
242	0x3c817e00	0.015807152
243	0xbbd5fd88	-0.0065304674
244	0xbcc9d5c4	-0.024638064
245	0x3cc321a2	0.023819748
246	0x3d0f9ab7	0.035059657
247	0x3c5f8d71	0.013644562
248	0xbcf743a9	-0.03018363
249	0xbc63f372	-0.013913022
250	0xbc4845ad	-0.012223643
251	0x3cc62767	0.02418871
252	0xbc3b5c8a	-0.011435637
253	0xbd06dffe	-0.03292846
254	0xba471323	-0.0007594099
255	0xbcd71007	-0.02625276

deconv2.bias f4 [64]
0	0x3b01f63a	0.00198306
1	0x3ca7a54c	0.020464562
2	0xbcba53e5	-0.022745082
3	0xbc4435c4	-0.011975709
4	0x3d586f9c	0.052840814
5	0xbc1c4e0c	-0.009540092
6	0xbd2b5fda	-0.041839458
7	0x3ce2525f	0.027627168
8	0xbc83f94a	-0.016110081
9	0xbd1a16e4	-0.037619486
10	0xbd4b8b0e	-0.04969316
11	0xb80df2c5	-3.3843116e-05
12	0xbd056148	-0.032563478
13	0xbc8983d4	-0.016786493
14	0x3c31934d	0.010838342
15	0xbce3816d	-0.027771676
16	0xbd6030cd	-0.05473404
17	0xbc7e1e9c	-0.0155102275
18	0xbca7ad0e	-0.020468261
19	0x3cf3aa85	0.029744396
20	0x3cc65eab	0.024215063
21	0xbd170dc6	-0.03687837
22	0x3d1e02a6	0.038576744
23	0x3d1e7e6c	0.038694784
24	0x3c78c723	0.015184197
25	0x3d8f9920	0.07011628
26	0xbd2fea53	-0.04294808
27	0x3d173ffe	0.036926262
28	0x3cf9f698	0.030513093
29	0xbbaaea1f	-0.0052158977
30	0xbc7a2d6a	-0.015269617
31	0xbc14a580	-0.009072661
32	0xbd3406fd	-0.043951977
33	0xbd6ded4c	-0.058087632
34	0x3d434ddc	0.047681674
35	0x3d4ad647	0.049520757
36	0x3d3c8b8d	0.046031523
37	0x3a76433c	0.0009394174
38	0xbadd0513	-0.0016862474
39	0xba0d8ec2	-0.0005399996
40	0x3cc5947c	0.024118654
41	0xbc1b0aeb	-0.009463052
42	0x3ca741b9	0.020417081
43	0xbc12268a	-0.008920321
44	0x3beb9c14	0.007190237
45	0xbc13fbb8	-0.009032182
46	0x3d43feb9	0.047850344
47	0x3c994d5b	0.018713644
48	0xbc9244f8	-0.017855152
49	0xbc9dfc57	-0.019285364
50	0x3c3c2aac	0.011484783
51	0xbc695e01	-0.014243604
52	0x3cdf7178	0.027275786
53	0xbc0c61e5	-0.008568262
54	0xbcd5b83c	-0.026088826
55	0x3ce11475	0.027475575
56	0x3d794c11	0.06086356
57	0xbd0955c7	-0.03352907
58	0x3900fd2d	0.00012301347
59	0xbcd7fdef	-0.026366202
60	0xbcd2842f	-0.025697796
61	0x3ca6e47e	0.020372625
62	0xbc6cc494	-0.014451165
63	0xbd25df2f	-0.040496048
