contrastive_save/contrastive_weights_epoch_28.pt (torch, 749116 bytes, 8 tensors)

conv1.weight f4 [64, 3, 3, 3]
000000 19 c1 9d 3d c2 a9 d0 bd 49 39 1c 3d 40 22 8f 3d
       0.07702846 -0.10188629 0.03814057 0.069889545
000010 ea b5 a8 3d 6b 7b e3 bd 39 55 12 3e 07 7c e0 bd
       0.08237822 -0.111075245 0.14290322 -0.10961156
000020 53 6b 33 be 93 ca a3 3d 83 d6 14 be dc 1e b4 3d
       -0.1752141 0.07997622 -0.14534955 0.087949485
000030 63 2a 23 be 8b f8 5a bd 4f 18 49 3e 07 cf 66 3d
       -0.15934138 -0.053459685 0.19638179 0.05634978
000040 d3 b7 ee 3d ea 9f 3a 3e 34 f9 3d be 44 8a 22 bc
       0.116561554 0.18225065 -0.18552095 -0.00992066
000050 4b fa 29 be ac ec a5 bc ab 25 63 be 0e a6 0e bc
       -0.16599385 -0.020254456 -0.22182338 -0.008706583
000060 dd 78 6c bd 36 16 02 be 71 c1 dd bd ae 95 03 be
       -0.05773245 -0.12703785 -0.10827912 -0.12850067
000070 23 f7 52 3b 93 b1 04 be ff e9 05 3d 73 cd 04 3d
       0.0032190762 -0.12958364 0.03269386 0.032422494
000080 0a 1c d2 3c b4 f5 21 be 1a 0d 25 3e 17 22 02 3e
       0.025648136 -0.15816385 0.16118279 0.12708317
000090 a5 a2 5d be 9d 5f 03 3e 74 84 bb 3d 93 f8 4c bd
       -0.21644075 0.12829442 0.09156123 -0.050041746
0000a0 d8 79 8e bb d2 5d 30 be f0 e9 59 be 1f 4e 63 be
       -0.004348021 -0.1722329 -0.21280646 -0.2219777
0000b0 ae fb 4c be e9 2c e1 3d 1a 9e f9 bd e1 6a ac 3a
       -0.20017883 0.10994894 -0.121883586 0.0013154411
0000c0 be 48 30 3e fe 7a 03 3e db 56 17 3e 98 99 1c be
       0.17215249 0.12839887 0.14779226 -0.15292966
0000d0 76 6e 00 3d 02 ff 2a 3e 60 33 2f be 79 ea 2e 3b
       0.031355344 0.1669884 -0.17109442 0.002669005
0000e0 af 78 ac bd c4 06 96 bd 7b 83 d6 3b 2a de 94 bd
       -0.08421456 -0.07325509 0.0065464354 -0.07268937
0000f0 4d c5 cb bd d0 b0 ac 3d 69 b9 5d bd ad ca a8 3b
       -0.099497415 0.08432162 -0.0541319 0.005151114
000100 6b 9a e2 3d d5 7a 61 3d 9e 06 2b be ff 79 3a 3e
       0.11064609 0.055048782 -0.16701743 0.182106
000110 d4 a7 2d 3e 11 34 37 3e d0 15 96 3c 76 1d a8 3b
       0.16958553 0.17890956 0.018320948 0.005130465
000120 66 7b c3 bd 4d e9 1a be b3 bc 24 bd 26 05 f0 3d
       -0.09545021 -0.1512806 -0.04021902 0.11719732
000130 82 3e f3 3d 17 3e bd bc 2e 32 ce 3d c8 a7 9a 3c
       0.11877157 -0.023100896 0.10068165 0.018878832
000140 b2 60 b3 bb 9f 4b 4c be 8b f9 28 bd b7 d2 31 3e
       -0.0054741735 -0.19950722 -0.041253608 0.17365538
000150 df ea 82 bc 68 61 b7 3b c4 82 c8 3d 8d 27 31 be
       -0.015981136 0.0055963285 0.097905666 -0.17300244
000160 fa 06 2d 3e 45 91 6f bc b2 20 07 be 0b 6c 68 bb
       0.16897193 -0.014622037 -0.13196066 -0.003546479
000170 88 08 dd 3d a7 5f b2 bc 85 b6 03 be fe 0b a3 3d
       0.10792643 -0.021774126 -0.12862594 0.07961272
000180 bd 98 d7 bc e0 6c ae 3d a8 f6 16 be e2 97 b3 3d
       -0.026317948 0.0851686 -0.1474253 0.08769204
000190 4b 1a 7a 3d a7 61 07 be 8c 1b 98 bd 25 a0 3f 3c
       0.06106023 -0.13220845 -0.07427129 0.011695896
0001a0 78 6b 1a 3e 7d 6b 2e be 59 12 2f 3e db f1 c2 bd
       0.15080059 -0.17033191 0.17096843 -0.095187865
0001b0 fa 58 17 35 3d 79 b3 3b dd 6f 34 3d 0a dd bc 3d
       5.638136e-07 0.005477099 0.044051994 0.09221847
0001c0 a3 78 9c bd f0 06 1e be 38 94 c0 bd 55 79 47 3d
       -0.07640197 -0.15432334 -0.094032705 0.048699696
0001d0 d0 30 20 bd 18 be c3 3c b0 22 c6 bd 33 32 9f bd
       -0.03910905 0.023894355 -0.09674585 -0.077732466
0001e0 84 2c 5f 3e 9b 28 fe 3d 9e 68 3f 3e 3f 6e 11 be
       0.21794325 0.12410089 0.18692252 -0.14202212
0001f0 e3 d7 32 bd 32 e1 a7 bd 35 41 c5 bd 7d 03 5e bd
       -0.043662917 -0.081972495 -0.09631578 -0.054202545
000200 d6 90 50 bd 5e 69 38 be 6d 48 3d bd 0a f0 93 3d
       -0.050919376 -0.18008944 -0.04621165 0.07223518
000210 7b 86 f7 3d 64 a8 3e 3d 83 10 07 bd 4f 96 fb bc
       0.12086197 0.04654731 -0.03297473 -0.030711321
000220 fa 0d 1e 3e 40 8e 25 be c0 d2 ab 3d 7c 36 ea bd
       0.15435019 -0.16167545 0.08389807 -0.11436173
000230 f2 a5 59 be 8d bf 11 3e a9 30 65 3d 31 36 85 3d
       -0.2125471 0.14233227 0.05595461 0.06504477
000240 e0 fa 3b be 09 d4 cc 3d b0 0d fd 3d 5f 05 34 3e
       -0.1835742 0.1000138 0.12356126 0.17580174
000250 6d 62 ed 3d 79 aa 58 be 00 95 ad bd d8 0b 31 be
       0.11591039 -0.2115878 -0.08475685 -0.17289674
000260 9a 0f 9c 3c 04 2f cc 3c 3a d9 e9 bc 5b 95 d7 3d
       0.019050408 0.024924763 -0.028545965 0.10526534
000270 57 41 3a be 6f ec 85 3d 13 20 be bc 8c f7 31 3e
       -0.18188988 0.06539237 -0.023208654 0.17379588
000280 ff a1 02 3e 9b f6 e5 bd 3d 7d 9b bd f8 b6 d3 3d
       0.12757109 -0.11228677 -0.07592247 0.10337633
000290 53 ee 86 bd 56 ae 0c 3b 90 08 34 3e 76 cf c6 bd
       -0.065884255 0.0021466217 0.17581391 -0.09707539
0002a0 d0 70 6d 3b 2d b9 4e 3d 27 94 ed bd 34 21 42 3d
       0.0036230572 0.050469566 -0.116005234 0.047394946
0002b0 40 76 f4 bc b8 53 78 3c 14 08 52 3d c9 e3 13 3d
       -0.029841542 0.015156679 0.051277235 0.036105905
0002c0 06 d0 10 be aa 79 1b be e4 37 f5 3b 27 13 0b be
       -0.14141855 -0.1518313 0.0074834693 -0.13581525
0002d0 8d 56 92 3c 71 e4 be bd ae 9e 41 be 8e f4 06 bd
       0.017863536 -0.093209155 -0.18908188 -0.03294807
0002e0 87 ae d0 bd 68 df 56 be e8 46 44 3d 20 a5 38 bb
       -0.101895384 -0.2098366 0.047919184 -0.0028174594
0002f0 bb 90 c3 3d ca d4 2e be 47 21 30 be 4a 86 49 be
       0.095490895 -0.1707336 -0.17200194 -0.19680133
000300 90 e1 d8 bd 13 74 41 be b8 22 de 3c a6 5d 90 3b
       -0.10589898 -0.18891935 0.027116165 0.004405695
000310 eb 3a 70 be 8c 12 95 bd 7c 8d 87 bd 62 05 c7 bc
       -0.23459975 -0.07278928 -0.06618783 -0.024294559
000320 bb c9 bd 3d f5 f5 47 3e a5 4c 9e bd 66 92 2a be
       0.09266993 0.19527419 -0.077294625 -0.16657409
000330 1d bc 6d 3c 29 b4 bf 3d da a0 6b bd 66 d7 bb bd
       0.014510182 0.09360535 -0.057526447 -0.09171943
000340 0e 41 c3 3d 91 0e 6e 3d 00 c3 49 3e 61 c2 c5 3c
       0.095338926 0.05811936 0.19703293 0.024140539
000350 60 82 8c 3d 19 3b 02 3d ac 7f b3 bd 86 e1 62 bd
       0.068608046 0.03179464 -0.08764586 -0.055390857
000360 a2 e3 13 be 42 fa 24 3e 03 4b c7 bd 6d 2e ab bd
       -0.14442304 0.16111091 -0.09731104 -0.083584644
000370 c7 6a 27 be 36 14 39 3e 11 ad 02 be 70 df 4e be
       -0.16349326 0.18074116 -0.12761332 -0.20202422
000380 94 d4 ac 3d 80 cb 22 3d 27 36 0e 3e a5 c2 e5 3d
       0.084389836 0.039744854 0.13887845 0.11218766
000390 01 4d c5 3d d9 7c 11 be ed fd 16 3e 9b 7d b3 3d
       0.09633828 -0.14207782 0.14745302 0.08764192
0003a0 69 dd c7 3d 55 84 23 be b8 b5 23 3e c9 53 d9 3d
       0.097590275 -0.1596845 0.15987289 0.10611684
0003b0 0e 4c 5a 3d 5d e6 e6 bd 5a 91 c1 3c 60 d7 26 3d
       0.053295188 -0.11274407 0.02362888 0.04073274
0003c0 34 95 81 3d 1b b9 ea bd d1 75 4b be 4c b6 80 bd
       0.06327286 -0.11461087 -0.19869162 -0.0628477
0003d0 04 c0 25 be d7 06 02 3c 34 7f 32 be 36 ca d7 3d
       -0.1618653 0.007936201 -0.17431337 0.105366156
0003e0 7c 3c e1 bd 20 16 30 be 0a df b4 bd aa 7a 03 be
       -0.109978646 -0.1719594 -0.08831604 -0.12839761
0003f0 6f e0 5f bd b0 db 53 be 5b 83 51 bd 1a a9 d1 bb
       -0.054657396 -0.20689273 -0.05115066 -0.0063983323

conv1.bias f4 [64]
000000 76 b4 73 3d 31 2e be bc 81 94 8c bd 0f b5 88 3d
       0.059498273 -0.023215385 -0.06864262 0.06675159
000010 b8 1e ba bb 44 16 31 bd 23 15 f7 bd c5 ed 61 3c
       -0.0056799315 -0.043234125 -0.120645784 0.013789599
000020 80 bc 66 bd 38 ec 7e 3d 94 c2 e3 bd 09 f9 a4 bd
       -0.05633211 0.062236995 -0.11121097 -0.08055312
000030 e0 a6 df 3c db cc e8 3d ef 7c 5d 3d 00 ed ae 3d
       0.027301252 0.11367198 0.054074224 0.08541298
000040 ed f8 ff bc d2 ff 0d ba e5 98 da bd fa 9e 34 ba
       -0.031246627 -0.00054168433 -0.106736936 -0.00068901444
000050 c0 d9 29 3d b2 3e a1 bd 29 02 d5 3d 37 4b c5 bd
       0.04146743 -0.07873286 0.10400803 -0.09633487
000060 c0 27 3f bd 07 2f cf 3d c6 a9 2b be ae b8 3b bc
       -0.046668768 0.10116392 -0.16763982 -0.011457605
000070 92 cf 96 3b d6 74 15 3e 24 fb 9c 3a 1f d1 f7 bd
       0.004602381 0.1459535 0.0011976701 -0.121004336
000080 3b 30 fc bd cb e7 e1 bd d9 91 4e be 6d 48 e7 bd
       -0.12313887 -0.11030539 -0.20172824 -0.11293111
000090 70 5f 6d bc 2c d2 c9 3d 24 f8 94 bd a3 83 3c 3e
       -0.014488086 0.0985454 -0.072738916 0.1840959
0000a0 61 e1 61 ba af ff 19 3c 63 c0 bb bd e3 5a bc 3d
       -0.0008616653 0.009399339 -0.09167554 0.09197023
0000b0 45 ba 23 be b8 38 01 be fa 85 fc bd 00 6b 91 bd
       -0.15989025 -0.12619293 -0.123302415 -0.07100487
0000c0 6f a5 d5 3b 10 00 ed 3c 5f da fd bc 06 d0 60 3d
       0.0065199654 0.028930694 -0.030987917 0.054885887
0000d0 2e de 0f 3e 9a 51 a2 3b 73 01 6a 3d b2 d4 ac bd
       0.14049599 0.0049535753 0.05713029 -0.08439006
0000e0 7b ec 99 bc 54 bd 1f 38 a3 63 09 3d a6 2b 48 bd
       -0.01878952 3.808488e-05 0.033542287 -0.04886975
0000f0 57 00 83 3d 63 1d 7b 3d fc d3 d5 38 c2 da ea 3c
       0.06396549 0.061307322 0.00010196117 0.028668765

conv2.weight f4 [128, 64, 3, 3]
000000 94 fa 34 bc ca 1e 99 3c bc 86 a1 3c d2 e6 56 bd
       -0.011046071 0.01869144 0.019717567 -0.05246622
000010 bb f5 b4 3c 59 18 d4 bc bc 8c 35 bc 98 6c 2d bd
       0.02208983 -0.025890516 -0.011080917 -0.04233989
000020 d4 d0 55 bb 43 33 9d 3c a7 b8 b5 bc c3 25 8b bc
       -0.0032625692 0.019189483 -0.022182776 -0.01698578
000030 c3 8f 30 bd 22 5d f1 bc 45 fa 1f bd d7 66 26 3c
       -0.04310585 -0.029463354 -0.039057035 0.010156355
000040 d2 93 25 bd f2 fc 1a 3d 23 8e 7e bc 63 40 4d bc
       -0.040424176 0.037838884 -0.015536818 -0.012527558
000050 f4 a8 8b ba 12 8e 51 3c 2a a1 32 3d f0 51 cd 3c
       -0.001065521 0.01279022 0.04361073 0.025063485
000060 ea c1 c0 bb e2 f9 30 3d 0e 39 b4 bb 22 bc 7e bc
       -0.0058824914 0.043207057 -0.0054999655 -0.015547784
000070 73 cd 01 3c 5a 25 84 3c 32 e1 14 3d 26 9c dc bc
       0.007922518 0.016131092 0.036347575 -0.026929926
000080 a6 9d f2 3b 63 3c c2 3c bc 64 0c 3d bc 16 78 bc
       0.007404047 0.023710435 0.034275755 -0.015142139
000090 dc bb 1f 3d 4e e1 c9 3b d8 52 16 3d c5 2a ad 3d
       0.038997516 0.0061608916 0.0367001 0.08455423
0000a0 95 08 0c 3d 16 34 c1 3d 66 0e 3e 3d 31 0e 40 3c
       0.034187872 0.09433763 0.04640045 0.0117221335
0000b0 24 87 ab 3d 80 b6 01 3d ed ee 19 3d 71 c6 ab 3b
       0.083753854 0.031668186 0.037581373 0.005242162
0000c0 e1 d7 8b 3c 3f fd 59 3b 73 3a 04 3d 75 b0 19 bd
       0.017070713 0.0033262519 0.032282304 -0.0375218
0000d0 88 22 2a bd 27 e3 88 3c 83 f1 10 3d 7b c8 9a bd
       -0.041536838 0.016709877 0.035386574 -0.0755777
0000e0 d9 52 88 bd 44 67 05 bd 4f 73 3c bc 21 e1 84 bd
       -0.06656427 -0.032569185 -0.011502101 -0.064882524
0000f0 cd d3 05 bd bb d4 89 3c 77 ae 46 bd 64 6d d7 3b
       -0.032672692 0.01682507 -0.048506226 0.0065743197
000100 fb 20 8b bb 7c ac 45 3c ef 29 82 bc a1 9f 4c bd
       -0.004245875 0.012065049 -0.015889136 -0.04995692
000110 f2 bb 43 bd 46 76 97 3b a9 07 5f bd 8c 79 3e bd
       -0.04778666 0.0046222536 -0.054450665 -0.046502635
000120 ec ce dd bc 84 92 8b bc 80 c6 dc ba fc fb 29 3d
       -0.027076207 -0.017037638 -0.0016843826 0.041500077
000130 07 b5 1a 3d 72 00 ff 3b 48 5b 4e bc d8 1e c7 bc
       0.037770297 0.0077820355 -0.012595005 -0.0243067
000140 ce 3c 39 3c a2 44 38 bc 48 9e 87 bc 7d 38 87 3c
       0.011306001 -0.011246832 -0.016554967 0.016506428
000150 8d 0c 0f bd 08 86 04 bd 4f 81 1e bd ee 17 28 bd
       -0.03492408 -0.032354385 -0.038697537 -0.041038446
000160 7a 55 01 3d 93 53 0f bd 00 45 02 3c 7a 5c 08 bd
       0.031575657 -0.034991812 0.007951021 -0.033291318
000170 63 39 39 bc e2 0c c4 bc fe 47 ef 3b e8 07 52 bd
       -0.011305186 -0.023931924 0.0073022833 -0.05127707
000180 a3 b7 08 3b fb 3d 0c bc 54 9e 23 bd ce 27 f6 bc
       0.002086141 -0.008559699 -0.039945915 -0.030048277
000190 17 f5 d7 bb 82 a4 a2 bb 48 b1 b0 bc 84 76 e9 bc
       -0.0065904963 -0.0049634585 -0.02156891 -0.028498895
0001a0 1c 99 41 3a f4 a9 01 bd 0b 39 8d 3c 18 74 7b 3b
       0.0007385181 -0.03165622 0.017239114 0.0038368758
0001b0 38 dd 1b 3d 2c 45 c0 3c ce 19 6c 3d 27 32 1c 3b
       0.038052768 0.023470484 0.057641797 0.0023833604
0001c0 91 76 25 3d 22 f3 64 3d b5 9b 33 3d fa 7e a4 3c
       0.040396277 0.055895932 0.043849666 0.020080078
0001d0 ca 06 20 bc cd 35 7f 3c f3 8f 17 3d b1 ae 0d 3d
       -0.009767244 0.015576792 0.037002515 0.034590427
0001e0 99 a8 fc 3c 81 16 72 3b 7d e0 9d 3c 54 37 9f bb
       0.030842112 0.0036939683 0.019272083 -0.0048588905
0001f0 b8 03 3d bd 8e bf 34 bd 69 6b aa b9 e8 4d dc bb
       -0.046146125 -0.044127993 -0.00032504954 -0.0067231543
000200 17 ed 49 3c a2 48 08 3d 61 d9 b2 3c 6c 25 98 3b
       0.012324593 0.033272393 0.02183217 0.004643133
000210 44 c6 5f 3d da 7c e6 3c e7 7f d3 3c 50 a9 2d 3d
       0.05463244 0.028135706 0.025817825 0.042397797
000220 ad c0 0d 3d 2f de 0c bc a9 dd 82 bb 26 50 7a 3c
       0.034607578 -0.008597895 -0.003993709 0.015277898
000230 5c 6b 54 3c 10 e0 6a bc cf 62 0d 3d 89 d7 98 3a
       0.01296505 -0.014335647 0.03451806 0.0011660914
000240 1c c6 e2 3c 66 5a 69 3d eb 99 88 3d 96 a1 ed 3c
       0.027682357 0.056970976 0.066699825 0.029007714
000250 98 0e 85 3d ed c7 5e 3d a8 e5 77 3d 83 3d 9f bc
       0.06496924 0.054389883 0.06052175 -0.01943851
000260 2d 8c d3 bb 8e 6c 07 3d 0b 22 b0 3c 3e e7 84 3d
       -0.0064559192 0.03306251 0.021500608 0.064894184
000270 70 21 56 bb f7 be ca bc 04 b0 14 3d c0 2c 06 3d
       -0.003267374 -0.024749262 0.036300674 0.03275752
000280 6e 2c 9c 3c 18 ae ff bc 11 29 73 3c f8 7b f3 3c
       0.019064154 -0.031210944 0.014841334 0.029722199
000290 c5 a6 29 bd e5 3a e0 bc 6b 8a 5a bd 0d d3 aa bb
       -0.04141881 -0.027371833 -0.053354662 -0.0052131475
0002a0 ec d1 34 3d 61 38 13 bd d5 16 34 bd fa da 8b 3d
       0.04414551 -0.03594244 -0.043967087 0.06828876
0002b0 a5 03 98 3d fd 30 ba 3d 5e 87 c5 3c 53 1a 55 3d
       0.0742257 0.09091375 0.0241124 0.052027058
0002c0 f4 07 96 3d b0 9e 2e 3d b6 90 b1 3d eb 23 90 3d
       0.07325736 0.042631805 0.086701795 0.07038101
0002d0 42 63 0d 3d 03 61 cb 3c 04 8b cc 3b 4b 6e 6d bc
       0.034518488 0.024826532 0.006242158 -0.014491628
0002e0 d0 99 71 3c 6d 5c 8e bb 23 82 24 3d 15 e2 29 3d
       0.014746144 -0.004344514 0.04016317 0.041475374
0002f0 d5 db 83 3d e2 a3 8b bd 4f ba 90 bd 69 6d 68 bd
       0.06438414 -0.068183675 -0.070667855 -0.056744967
000300 f1 fc b9 bc 6a 77 da bc 0f 3e 9b 3c 13 d0 e2 bc
       -0.02270362 -0.02666827 0.01895049 -0.027687108
000310 c8 25 37 bd 18 69 f0 3c ca 93 3a 3d ff 29 f8 3c
       -0.044713765 0.029346988 0.0455511 0.030293463
000320 ac 44 a2 bc 99 5a 29 3d 70 ab c6 3a 40 28 23 3d
       -0.019808136 0.041346166 0.0015157294 0.039833307
000330 0e 64 29 3d b1 00 28 3c 46 5d 10 3d 3f 23 4a bd
       0.041355185 0.010254071 0.035245202 -0.04935002
000340 00 97 24 bd a0 66 b5 3c e0 29 e3 bc ad d7 02 bd
       -0.040183067 0.022143662 -0.027729928 -0.031943966
000350 26 18 dc 3b 8c 77 b1 3b b8 36 c2 3c 18 d8 1d 3d
       0.006716746 0.0054158624 0.023707733 0.03853616
000360 81 98 02 bc 97 87 5a 3d 30 23 42 3d 1c d2 f6 3c
       -0.00797093 0.053351965 0.04739684 0.030129485
000370 6e f0 a8 bc f3 d9 ae 3c 92 67 7a 3c 15 a6 b7 bc
       -0.020622458 0.02134416 0.015283482 -0.022418061
000380 9a c3 9a 3c 5e 67 3a 3c 3c 80 3a 3d f1 03 67 bc
       0.018892098 0.011377184 0.04553245 -0.014100061
000390 3d 53 5f 3b 10 d7 51 3c 37 27 c0 bc 40 c1 a4 ba
       0.0034076713 0.012807623 -0.0234562 -0.00125698
0003a0 00 d6 d1 3c 6c a7 39 bb 0a 4a c4 bc 68 19 2a bd
       0.025614738 -0.002832855 -0.023961086 -0.041528136
0003b0 09 1b 83 bd 8d 3c 09 bc f2 2b 10 3c 88 aa 21 bd
       -0.06401641 -0.008376253 0.00879954 -0.039469272
0003c0 5d 5b 26 3c 03 cf 4e bb 0b e5 5b bd 5c cc 62 bc
       0.010153619 -0.0031556494 -0.05368523 -0.013842668
0003d0 33 14 92 bc 72 dc 3a bd a9 78 26 bd b0 c8 04 bd
       -0.017831897 -0.04562039 -0.040642414 -0.032417953
0003e0 6f eb 51 bd 23 64 04 bc 8c 7b 5b bd e6 ee 18 bd
       -0.051249918 -0.008080515 -0.05358462 -0.037337206
0003f0 bc e5 d4 bd 04 4b cf bd 47 d7 4a bd 8e a4 9b bd
       -0.10395381 -0.1012173 -0.04952171 -0.07599746

conv2.bias f4 [128]
000000 48 e5 d9 bc 78 12 75 bc 17 36 00 3c 54 b8 3e 3a
       -0.026598588 -0.014958017 0.007825396 0.0007275392
000010 b7 47 34 bc 61 b2 a1 bc 9f 31 6d 3d 91 30 68 3b
       -0.011003426 -0.019738378 0.05790865 0.0035429338
000020 5b ee 37 ba 35 6a 06 3c 72 5d 44 3d aa bc 05 3c
       -0.0007016414 0.008204033 0.04794068 0.008162657
000030 d7 84 41 bc c7 78 86 bb 28 21 20 3c 5e 36 54 3d
       -0.011811457 -0.0041037533 0.00977353 0.05180966
000040 d1 d0 4f 3c 65 ea f9 3c 07 11 9b bc 2d 76 3d 3d
       0.012684063 0.030507276 -0.018929018 0.04625528
000050 ae 08 12 3d b0 ee 36 bd 84 d0 44 3a a8 00 9f bc
       0.03565281 -0.044661224 0.0007507878 -0.019409493
000060 48 77 13 3b 25 8b d5 bc fe bb 40 3c 29 80 16 bd
       0.0022501517 -0.026067326 0.011763571 -0.036743317
000070 93 b5 3e bd f0 7f 82 bc ff 2f a3 3c 79 04 06 bc
       -0.04655988 -0.015930146 0.019920347 -0.008179777
000080 0c cc 40 3d 75 6f 8f 3c 79 65 c6 ba 86 7d d4 3c
       0.047069594 0.017509202 -0.0015136442 0.02593876
000090 c9 66 3d bc 4b c8 fe bc 94 76 f4 bc b9 21 63 3b
       -0.01156015 -0.031101367 -0.029841699 0.0034657551
0000a0 b0 ae 9f 3c fe 37 4f 3c da 6f a3 b8 64 f2 0c bc
       0.019492477 0.012647627 -7.79328e-05 -0.008602712
0000b0 e7 3d bd 3b 89 14 c6 bc 8e 90 eb 3c 39 f6 83 3b
       0.0057752016 -0.024179714 0.028755452 0.0040271548
0000c0 f9 72 35 bd f5 5b 3b bc 67 48 15 bd 2d f3 5f bb
       -0.0442991 -0.0114354985 -0.036446 -0.0034172044
0000d0 80 44 2f bd 28 11 37 3d 50 7c 31 bc 36 07 12 bd
       -0.042789936 0.044694096 -0.010832861 -0.035651408
0000e0 33 67 0e 3d 06 90 11 bc 3e 34 34 bc 98 6c 65 bc
       0.034766387 -0.0088844355 -0.010998784 -0.014002942
0000f0 38 95 25 bd 37 09 fb bc 38 bb db 3c cb 89 7b bc
       -0.04042551 -0.030644042 0.026822671 -0.015352677
000100 1d 12 4c 3d f2 7d 7f 3d 01 fb 1d 3d ac de 11 bd
       0.04982196 0.06237597 0.038569454 -0.035612747
000110 87 28 8c 3c 87 5b b2 3c 06 e1 68 3c c2 1f f1 3b
       0.017109169 0.02177216 0.014213806 0.007358522
000120 bd f8 0d bd da 3a f3 3c 2e f3 8c bb e1 ac 9c bc
       -0.034661043 0.029691149 -0.00430145 -0.019125404
000130 59 1f da 39 33 e1 bb 3c 44 d5 2e 3c a2 d4 15 3d
       0.00041603556 0.022934532 0.010670964 0.036579736
000140 7d 20 0d 3b 96 24 8e 3c c6 fc 08 3d 12 ba 1a bd
       0.0021534257 0.01735143 0.03344419 -0.037775107
000150 bf b5 2d 3a 1a 83 63 39 97 98 42 3d 4a aa a3 3b
       0.00066265085 0.00021697246 0.047508802 0.0049946653
000160 6d 4c 67 3c 96 50 4b 3d 2c c1 9c 3c 2a 6e 09 3d
       0.014117342 0.0496374 0.01913508 0.033552326
000170 e0 3c f8 3c 17 96 29 bc d2 61 59 3d 55 fb 19 3c
       0.030302465 -0.010350726 0.053071804 0.009398301
000180 da 05 76 bc 58 ac 9b bc c2 e7 93 bc e6 3f d9 3c
       -0.015016044 -0.019003078 -0.018054847 0.026519727
000190 26 ca 0d bd 37 23 53 bc 34 c1 33 3d ed ca cd bc
       -0.034616612 -0.012886814 0.043885425 -0.025121177
0001a0 f3 06 f1 bc 25 d0 44 3d 20 57 8a bc fe e8 2c 3d
       -0.029422259 0.048050065 -0.016887248 0.042214386
0001b0 02 0d b6 3c 06 f6 02 bd 47 d1 af bc ce 67 5b bd
       0.022223 -0.031972907 -0.021462096 -0.053565793
0001c0 24 e1 b0 3c cb 65 c1 bc 55 93 9d 3c af f4 f2 bc
       0.02159173 -0.023608109 0.019235292 -0.02965769
0001d0 90 5e 7b 3d 46 4f bc 3c ba c0 5c bb 16 77 bf 3c
       0.06136948 0.02298702 -0.003368421 0.023372214
0001e0 6c f6 d9 bc e0 ee 0c bd de f0 9a 3c 32 9c ce bc
       -0.02660676 -0.034407496 0.018913683 -0.025220964
0001f0 e9 58 81 3d 53 e6 18 3c 1e 52 ba bc 9c 13 db 3c
       0.063157864 0.009332257 -0.022744235 0.026742749

deconv1.weight f4 [128, 64, 3, 3]
000000 71 78 04 bc 6a 07 98 bc 21 6a 30 3b c2 11 96 bc
       -0.008085356 -0.018558223 0.0026918727 -0.018319014
000010 9b c2 6d 3c e6 9b 99 3c 9d f4 25 3d 6a 46 9d 3c
       0.01451173 0.018751096 0.040516485 0.019198615
000020 80 48 15 bc 2e 2e b4 3c b6 18 f4 3c 2e aa dd 3a
       -0.009111524 0.021994676 0.02979694 0.0016911679
000030 95 52 1f 3d b9 c2 b1 bc 7a fc 03 bc c6 17 85 3c
       0.038897116 -0.021699296 -0.008055801 0.016246688
000040 5a 8c 90 3c d9 57 e4 3c 3a d6 6a bd 48 1b a6 bc
       0.01764505 0.02787392 -0.05733321 -0.02027668
000050 73 c0 a3 bc 40 5a c8 bb 18 cf 12 3b 4c 34 c7 ba
       -0.019989228 -0.0061142743 0.002240127 -0.0015198081
000060 cc f0 91 bc 58 37 57 bd 60 88 fa bc 41 bd 1f 3d
       -0.017815016 -0.052543014 -0.030582607 0.038998846
000070 c6 70 8e bc b4 cd 15 3d ce 29 df bc 62 82 31 3c
       -0.017387759 0.036573127 -0.027241614 0.010834308
000080 6b cb b4 bc 19 62 0e 3b a9 68 6e bc e1 0f b8 bb
       -0.022069653 0.0021725951 -0.01455132 -0.0056171273
000090 3c 67 f4 3a 9a 48 d0 bc a0 6b 40 3c ff 72 56 3d
       0.0018646489 -0.025425244 0.01174441 0.052355763
0000a0 2e 23 36 3d 56 e2 ae bc 78 bf 2a bb a4 aa 33 3c
       0.044467144 -0.02134816 -0.0026054066 0.010965977
0000b0 9f 4d 82 bb fe 1f 96 3b 18 da 1f 3c 7f 51 ef 3c
       -0.0039765383 0.0045814505 0.009756587 0.029213665
0000c0 57 ef 3a 3d 27 2a 1d 3c 13 c1 1c bd 87 f8 bd bc
       0.04563841 0.009592569 -0.038270067 -0.023189796
0000d0 8d b4 c4 bb dd 4c 59 bc a5 4d 26 bd 6a c9 6b 3c
       -0.0060029686 -0.013262955 -0.04060139 0.014391283
0000e0 53 5a 53 bd 29 6f 21 bd db d4 0c bd 62 9b 70 bd
       -0.05159981 -0.03941265 -0.034382682 -0.058741935
0000f0 d0 96 23 3b d4 39 3d bc 80 ae 19 3c cf 15 90 bb
       0.0024961717 -0.011549432 0.009379983 -0.004397131
000100 67 13 94 bc 68 38 7e bb 30 44 9b 3c 3a 3c 97 3a
       -0.018075658 -0.0038790945 0.018953413 0.0011538335
000110 4a 0c 20 3d 49 f6 4d 3d a1 c3 d5 bc ce d9 de bc
       0.03907422 0.050283704 -0.02609426 -0.027203467
000120 bf f7 90 bc 97 12 e2 bb 46 b3 bd bc a2 32 33 3c
       -0.01769626 -0.0068991887 -0.023156773 0.010937365
000130 59 a2 e8 bc f3 36 7a 3c a4 94 bc 3c 12 7b db 3c
       -0.028397726 0.01527189 0.023020096 0.026792083
000140 91 d1 1e bd 55 69 a1 3c 27 f2 aa bc 67 94 c6 bc
       -0.038774077 0.019703547 -0.02086742 -0.024240686
000150 f0 9c 48 bb 74 4a e6 3c 96 b7 23 3d 61 42 80 bc
       -0.003061112 0.028111674 0.039970003 -0.015656652
000160 5d f6 f2 3c 73 bf 27 3d 83 02 e8 3b 1e 3f 88 3c
       0.02965849 0.040954065 0.0070803775 0.01663166
000170 cc 31 20 bd 3c 94 4d 3c 7a ea 0a 3d fc c1 08 bd
       -0.03910999 0.012547549 0.03391502 -0.033388123
000180 4c 41 24 3d e6 c6 d9 3c bf 59 13 bd 44 88 43 bc
       0.040101334 0.0265841 -0.03597426 -0.011934344
000190 02 8d 0f 3c 5b 74 1c 3d 9c 31 93 3c 61 18 75 3c
       0.008761646 0.038196903 0.017967992 0.014959426
0001a0 ad cb 84 bc a7 ee b5 3b c5 10 be 3c ac 63 ab bc
       -0.016210401 0.005552131 0.023201356 -0.02092155
0001b0 0a 5d be 3c ac ec 8d 3b 64 e4 10 3d 09 93 d3 bc
       0.023237724 0.004331192 0.03537406 -0.025826948
0001c0 ba 7b 0b bd 39 96 e9 bc 56 7c f2 bc 78 e0 2b 3c
       -0.03405354 -0.028514015 -0.029600304 0.010490529
0001d0 ac 23 36 3c c8 af 11 3c a0 40 c5 3c 77 7f 93 bc
       0.011116903 0.008892007 0.024078667 -0.018005116
0001e0 ee 0e 0b bd 05 53 d2 3c d3 6a 26 3b 46 1b 0d bd
       -0.033949785 0.025674352 0.0025393262 -0.034449838
0001f0 83 17 14 3d f1 53 4f bd fa 94 08 bd a8 fe 84 bd
       0.036155235 -0.050617162 -0.0333452 -0.06493884
000200 50 e2 86 3c fa 37 a6 bc 1a f6 29 bd 7a 69 32 bd
       0.016465336 -0.020290364 -0.041494466 -0.04355762
000210 63 43 ad bc 7d 90 52 bc 97 f1 b5 bc ad 64 3a bd
       -0.021150297 -0.0128518315 -0.022209926 -0.04550617
000220 f9 fb 96 bc e4 be 31 3b b3 b9 e5 bc c9 e3 f6 bc
       -0.018430697 0.0027121836 -0.02804265 -0.030137913
000230 03 c8 a0 3c 2b 5f d0 39 15 3e b7 bb 5a 5d 97 3c
       0.019626623 0.00039743757 -0.0055921176 0.01847713
000240 7b ec a1 ba 65 da be 3a 33 d7 ff 3a e1 e1 44 3d
       -0.0012353802 0.0014560936 0.001951909 0.048066977
000250 03 c2 c1 bc 8e 72 25 3c 36 57 3e 3d 07 8d f0 3c
       -0.023652082 0.010098113 0.04646989 0.029364122
000260 a7 47 aa bb cb b4 54 bd ce 2c 37 3c 25 d3 85 bc
       -0.00519653 -0.05193023 0.011180116 -0.016336033
000270 6b 0f d7 bc 86 33 12 bd 93 b0 ea bc 78 70 5c bd
       -0.026252469 -0.035693668 -0.02864865 -0.053818196
000280 44 ea 53 3c aa b4 54 bc d0 5e 31 bd 8e 1a 8d bd
       0.012934271 -0.012982527 -0.04330331 -0.068898305
000290 d5 a1 b0 bc a0 24 12 3b 9f ea 64 bc 31 7e 38 3c
       -0.021561543 0.0022299662 -0.013971954 0.011260555
0002a0 76 40 4c 3d 12 7b 7e 3d 08 df 6e 3d 1f 9a 73 3d
       0.049866162 0.062129088 0.058318168 0.059473153
0002b0 3f e0 6c 3d ec c2 74 3d b1 a7 a3 3b f0 49 51 3d
       0.057831045 0.059756204 0.0049943556 0.051095903
0002c0 2b 99 3c ba 60 92 5f bb ab 47 f7 bc 95 49 0f 3d
       -0.00071944547 -0.0034114346 -0.030185541 0.034982283
0002d0 d5 56 ce 3a 49 ff 45 3b c1 3f 10 bb 05 62 7a bd
       0.0015742431 0.0030211976 -0.0022010657 -0.061128635
0002e0 c0 14 64 bd 35 84 d0 bc 64 a3 42 bd fa 38 11 bd
       -0.05568385 -0.025453666 -0.047519103 -0.035454728
0002f0 9c 35 9b bb 12 bf 6a 3c ce 00 fe 3b 5f b6 70 bb
       -0.0047366153 0.014327781 0.007751561 -0.0036729795
000300 95 ba ba 3b 79 f0 8b bc 00 a5 8d bc 59 74 04 b9
       0.005698512 -0.01708244 -0.017290592 -0.00012631844
000310 69 7f e6 bc e6 7a 09 bd 03 a3 93 ba 6c 76 ac 3c
       -0.028136926 -0.03356447 -0.0011263791 0.021052562
000320 e2 27 80 3c 8c ea 0f bd 09 74 30 3c 6c 45 df 3b
       0.015644018 -0.03513579 0.010769852 0.0068136957
000330 fa 44 95 bc 21 26 a1 bc fa 5a ce bc 67 fe 51 bc
       -0.018221367 -0.019671502 -0.025189865 -0.012817002
000340 fa 4b ae 3c d4 c9 a8 3c 71 1f 25 3c 13 cd 96 bb
       0.021276463 0.020604052 0.010078297 -0.0046020835
000350 59 14 30 bd 66 5f 85 bc a5 da 08 3c 19 0d eb 3c
       -0.042988155 -0.016280841 0.00835291 0.028692769
000360 48 33 f3 39 64 3b c7 bc 00 76 36 3d b9 73 96 3c
       0.0004638678 -0.024320312 0.044546127 0.018365728
000370 80 bd 77 3c 71 72 3a bc cd bf ce 3c a9 79 2d bc
       0.015120864 -0.011379824 0.025237942 -0.010588088
000380 f8 47 c5 bb 05 9d fb 3b 48 31 0e 3c 56 5b 62 bd
       -0.0060205422 0.0076786303 0.008678742 -0.055262886
000390 2d 87 aa 3c b9 1b 17 bd 86 5c 46 bd 2f 61 03 bd
       0.02081641 -0.036891673 -0.04842808 -0.032075103
0003a0 9f 5a b9 bc eb 3b d2 bc 69 13 99 3c 5a 2a 07 bd
       -0.02262622 -0.025663337 0.018686013 -0.032999374
0003b0 a9 bd 19 bb 95 0c 90 bc 2a 3c 12 3d 39 37 fb 3c
       -0.0023458994 -0.017584125 0.03570191 0.03066598
0003c0 0e 17 89 bc 57 c4 07 bd a1 cf 13 bd ac fa 8f bc
       -0.016734626 -0.03314623 -0.036086682 -0.017575584
0003d0 16 cf f8 bc de dc 8f 3c aa 59 8e bc fb a1 8b 3c
       -0.030372184 0.017561372 -0.01737674 0.017045012
0003e0 be 87 bb 3c ac 82 e6 bc 54 64 95 3c 5d 72 3c 3b
       0.022891875 -0.028138481 0.018236317 0.002875469
0003f0 ef 1e 65 bd 65 44 cc bc 1a b8 38 bd 19 0a 22 3d
       -0.055937704 -0.024934957 -0.045097448 0.03956041

deconv1.bias f4 [64]
000000 ed 96 1d bc 11 3b 4f 3d 62 f5 4e 3d 04 96 b8 bc
       -0.009618503 0.05059344 0.050526984 -0.02253247
000010 a2 f9 44 bc f4 d8 6a 3c 02 1f 4b 3d df eb 1c 3c
       -0.012022408 0.014333952 0.04959012 0.00957772
000020 da fb 57 3c 7a d0 4d 3d 82 89 74 3c 00 8f d9 3c
       0.013182605 0.050247647 0.014925363 0.026557446
000030 88 c0 11 3d 17 49 fb bc 5b c0 ae 3c dc 33 60 3d
       0.035584003 -0.0306745 0.021331957 0.054736957
000040 c0 7a 27 3d 86 0c 29 bd a4 f4 b3 3c fd f6 d1 3c
       0.040888548 -0.04127171 0.02196724 0.025630469
000050 66 ce 53 3b 31 48 73 3d 0a 56 5a 3c 9b 12 88 bc
       0.0032319068 0.05939502 0.013326177 -0.016610434
000060 8e 7e fe 3c 4d f4 04 bc b6 cc a0 bc 77 9f 72 3d
       0.031066205 -0.0081148865 -0.019628864 0.05923411
000070 83 ac b4 3c 48 94 0b bd fd 27 5b 3d 2b 9a 8d bc
       0.022054916 -0.03407696 0.053504933 -0.017285427
000080 40 da 00 bb 73 97 8d 3c c8 6e c9 3c 9b aa 11 3d
       -0.0019661337 0.01728413 0.024588957 0.035563093
000090 a0 b9 77 3d b9 01 8a 3d 03 c7 f8 3c f4 82 b6 3c
       0.06047976 0.0673861 0.030368334 0.02227924
0000a0 38 40 8a 3c 8a 54 eb bc 4e 12 69 3d 73 a7 f4 bb
       0.016876325 -0.028726835 0.056902222 -0.0074662506
0000b0 70 de 3d 3d f2 c6 9e 3b eb f8 b4 bb b5 4d 84 3d
       0.04635471 0.0048454935 -0.0055228374 0.06460134
0000c0 4f 4f 31 3d ba ac 34 3d 85 1a 5d 3d fa 37 44 3d
       0.043288525 0.044110037 0.05398037 0.047904946
0000d0 b4 da eb 3b c4 9f 92 bb 1f c6 03 3d 1b f9 0c 3d
       0.0071977023 -0.004474612 0.032171365 0.034417253
0000e0 36 9c 62 3d 28 ed af 3c 18 fe a3 bc 1d ff be bc
       0.055324756 0.02147539 -0.020018622 -0.023315007
0000f0 ef a6 17 bd c6 3e 66 bc 1e d6 b2 bb d7 3e 28 bc
       -0.037024435 -0.014053052 -0.0054576537 -0.010268888

deconv2.weight f4 [64, 64, 3, 3]
000000 87 ce b9 39 cc 07 b1 bc c0 4a 2f 3d 5c 6d 9d 3b
       0.00035439825 -0.021610163 0.042795897 0.0048042964
000010 39 ad 05 bc 63 bd 75 3c 9f 41 bf 3c fc be 95 bc
       -0.008158975 0.014998767 0.02334672 -0.018279545
000020 16 e4 ff b8 c0 38 bf 3c 0d 96 d4 bc fd ad 56 3d
       -0.00012201832 0.02334249 -0.025950456 0.052412022
000030 dd fc 94 bc 8d 8b 10 bb 7c 47 43 3a f1 92 1e 3d
       -0.01818698 -0.0022055835 0.00074493117 0.038714353
000040 77 97 26 3d 61 37 ac 3c 90 f1 75 bc 2a 3e 15 3c
       0.040671792 0.0210225 -0.015011206 0.009109059
000050 cc 53 3c bc c5 4a 8c bb 45 de 50 3d 47 e3 ef bc
       -0.011494588 -0.004281374 0.050993223 -0.029283179
000060 cc 24 d9 bb ce 51 37 3d b4 24 31 3c 61 ea 90 b9
       -0.006626701 0.04475575 0.010811973 -0.00027640446
000070 c1 51 0f 3c eb f7 a8 3c 3b 3d b6 ba 8c 98 c9 bc
       0.008747519 0.020626029 -0.0013903746 -0.024608873
000080 01 a6 1b 3d 81 ce d0 bc 74 55 26 bd cc 25 c9 bc
       0.03800011 -0.025489094 -0.04060884 -0.024554156
000090 46 63 ff b9 a6 3d 05 3b fc d5 54 3d 5a 2a 38 3d
       -0.00048711355 0.0020330935 0.051961884 0.044962265
0000a0 04 72 69 3c 4c 22 25 3d 29 e3 5f 3d 33 1b ca 3c
       0.014248375 0.04031591 0.054659996 0.024671173
0000b0 2f 76 63 3d 05 a8 38 3c 47 45 d0 3b fc e3 fb bc
       0.05553263 0.011270528 0.0063559148 -0.03074836
0000c0 fc bb c2 bb 9d fa a9 3c db d3 7f 3c ff 98 0d bd
       -0.0059428196 0.020749385 0.015614475 -0.034569737
0000d0 96 24 16 bd c8 06 75 bc 34 c7 a5 bc 06 0d b6 bc
       -0.036655985 -0.01495523 -0.020236589 -0.022223007
0000e0 16 65 f2 bc eb cf e6 3c 65 76 5c 3c 82 da 48 3c
       -0.029589217 0.028175315 0.013455962 0.012259128
0000f0 26 b8 63 bd 0b 27 cb bc 27 d0 0b bd 9d 6e db 3b
       -0.05559554 -0.02479889 -0.034134056 0.0066965357
000100 47 1b 07 bd 42 06 a7 bc ba 56 12 3d 62 f5 b1 bc
       -0.032984998 -0.020388726 0.03572724 -0.021723453
000110 5e b0 a7 bc 17 2b e9 bc 66 b8 0b bd 20 04 b9 3c
       -0.02046984 -0.02846293 -0.034111403 0.022584975
000120 d7 37 67 3c c3 df 50 bc 62 1d 0d 3d 02 93 e8 3b
       0.014112434 -0.012748661 0.03445185 0.007097603
000130 14 77 8e 3c 6c d2 44 3d d7 b3 1d 3d 72 43 65 3d
       0.017390765 0.048052236 0.038501587 0.055972524
000140 0a 4c d8 3b 1f ca 99 3b f6 74 e1 3b 17 8e 4e 3d
       0.0066008614 0.004693284 0.006880398 0.050428476
000150 3e 40 be 3c 2c 00 8a bb 52 da 80 bc d6 49 81 3d
       0.023223992 -0.0042114463 -0.015729103 0.06312911
000160 a7 8e 8b 3c 3d d9 23 3d 46 32 7d 3d e7 c1 3c 3d
       0.017035795 0.040002096 0.061815523 0.046083357
000170 63 b5 b7 3c 5c c6 1c 3d 58 bf ac ba 15 ae 84 3c
       0.02242536 0.038275108 -0.0013179583 0.01619629
000180 54 70 be 3c 83 1e 85 3d 5b 9a 80 3d 71 5c 89 3c
       0.023246922 0.0649996 0.06279441 0.016767712
000190 f5 9a 3f bd e6 09 ae 3c f0 77 02 3b f0 a3 d3 3a
       -0.046778638 0.021244954 0.0019907914 0.001614688
0001a0 cb 67 1b ba 36 c9 85 bc e9 be 91 3c 26 11 ab 3c
       -0.0005928247 -0.016331296 0.017791228 0.0208822
0001b0 64 5d 91 bc e3 ce 3c bd a7 41 cc bc 5a de 1b bc
       -0.017744727 -0.04609574 -0.02493365 -0.009513462
0001c0 31 cc cf bb 90 c1 d2 bc f7 44 96 3c ff c9 53 bc
       -0.00634148 -0.025727063 0.018343432 -0.012926578
0001d0 ae 36 93 bc 76 d4 c8 3c a1 73 1d 3a f5 24 1b 3d
       -0.01797041 0.024515372 0.0006006305 0.03787704
0001e0 55 fd 14 bc fd 39 ac bc 1f 06 e9 bc 62 d8 9c bc
       -0.009093602 -0.021023745 -0.028445302 -0.019146148
0001f0 84 2e 46 3c be 23 48 3d bc 27 65 bc 03 96 1f bd
       0.012096051 0.04886221 -0.013986524 -0.03896142
000200 86 68 e8 3c be 76 ee 3c ce 16 85 bc 72 78 9d bc
       0.028370153 0.029109355 -0.016246226 -0.019222472
000210 73 79 e2 3c d4 22 86 bc 37 3c cb bc 60 5f ea ba
       0.027645802 -0.01637403 -0.024808986 -0.0017881207
000220 8c a7 c8 3c 73 57 e6 3b df 4a 65 3d 4e 2a c7 ba
       0.024493955 0.0070294677 0.055979606 -0.0015195103
000230 2e 65 e7 3b 58 4f 98 bc 4a fc c3 bc c0 18 7f bc
       0.007061622 -0.018592522 -0.023924012 -0.015569866
000240 b6 36 4d bc fc 96 7c bc 44 b7 04 bd 64 33 1c bd
       -0.012525251 -0.015416857 -0.03240134 -0.038134947
000250 18 92 69 3b 0a 73 82 bc db 09 33 bc 8c 72 3b bd
       0.0035640057 -0.015923996 -0.010927643 -0.045763537
000260 5a eb aa bc ff 08 1a 3c 5e 4b 52 3d 1c b7 f7 3c
       -0.020864177 0.009401559 0.051341407 0.03023868
000270 96 b5 64 3b f1 1a 9e ba 21 9f 61 bb a8 28 5d 3d
       0.0034898273 -0.0012062473 -0.0034427124 0.05399385
000280 8a dc 1b 3c 38 3e 21 3d 71 4c 0d 3d 2b cc 12 3d
       0.00951303 0.039365977 0.03449673 0.03583924
000290 38 15 c7 3b ca af cc bc 45 40 15 bd 00 57 f9 3c
       0.0060755275 -0.024986167 -0.036438245 0.030436993
0002a0 e0 89 d1 3c 91 05 1e 3d 8b ea a3 bc 35 5c 6d 3c
       0.02557844 0.038579527 -0.0200093 0.014487316
0002b0 d6 0b e6 bc ce 29 d6 bc fc 06 0d bd eb 6f 4a bd
       -0.028081816 -0.02614298 -0.03443049 -0.04942314
0002c0 9f bf 42 bd 91 ec 4e bd 1e ae bb bc ba f7 a0 3c
       -0.047546025 -0.050518576 -0.022910174 0.019649375
0002d0 c8 df 4c bd ca 8d 93 bc d5 fb b9 bb ad 45 b5 3c
       -0.050018102 -0.018011946 -0.0056757727 0.02212795
0002e0 33 f8 8b 3c 05 80 0a bd f8 cf a9 3c fd 57 75 3c
       0.017086124 -0.033813495 0.02072905 0.014974591
0002f0 fe 35 ef bc ce 92 aa bc f3 90 62 3c e1 f7 5f bc
       -0.02920055 -0.020821955 0.013828504 -0.013669939
000300 ff c5 a8 3c c8 8e 50 bd 0d c0 dc bc 09 54 41 3c
       0.020602224 -0.050917417 -0.026947046 0.011799821
000310 cd dd 1f 3b 6a 08 09 bc ef 7a e0 bb c8 0b cf 3a
       0.0024393678 -0.0083638225 -0.0068505923 0.0015796358
000320 f5 be 9f 3c 1c 11 1b bd c2 db b1 3a 6f 12 0b 3c
       0.019500235 -0.037858114 0.0013569521 0.008488282
000330 64 cc 8c bb d9 f0 5e bc d2 35 81 bc ae c0 05 3d
       -0.004296826 -0.013607227 -0.015772734 0.032654457
000340 20 b7 e5 3c 8f 16 0e bd 69 7f d8 bb dc cc 38 bd
       0.028041422 -0.034689482 -0.0066069853 -0.045117244
000350 9e 36 20 bb 24 60 fa bc 83 7b b0 3b a4 9a 27 3c
       -0.0024446617 -0.030563422 0.0053858175 0.01022974
000360 f6 46 34 b9 23 bc eb bb e2 6d 87 3b 6f dc 29 bd
       -0.00017192573 -0.0071940585 0.004132972 -0.041469987
000370 6a 53 8b bc 83 24 92 3c 0f 41 a6 3c 66 1b 8a 3c
       -0.017007548 0.017839676 0.020294694 0.016858768
000380 f4 25 43 bb 9e df 2e 3d ef b3 cc 3c 2d 39 36 3d
       -0.002977726 0.042693727 0.024988143 0.04448812
000390 35 40 3a 3c 25 18 9d 3c 11 a5 89 ba a9 07 75 3d
       0.011367847 0.019176552 -0.0010501464 0.05982176
0003a0 88 0b d0 3c ee 11 68 3c 4f d4 5b 3d cf 74 4a 3d
       0.025396124 0.014164431 0.05366927 0.049427804
0003b0 78 37 0d 3d e1 fb 92 3c 68 bb 74 3d b8 1e 5f 3d
       0.034476727 0.01794237 0.059749037 0.054472655
0003c0 65 f9 7e 3d 86 da 45 3d b4 7f 4a 3c f1 22 50 3c
       0.06224956 0.048304103 0.012359548 0.012703643
0003d0 04 c3 23 bd 5b 8f 32 bc 58 86 bf bc 2e 07 5a bd
       -0.039980903 -0.010898436 -0.02337949 -0.053229503
0003e0 3c 7f 4f bd 15 39 c3 bc 26 df c6 bc 74 f3 5b bd
       -0.05065845 -0.02383093 -0.024276327 -0.053698972
0003f0 47 96 31 3d 73 a1 4d bc 43 e5 47 3d 1a 9d 1e 3d
       0.043356206 -0.0125506995 0.048802625 0.038724042

deconv2.bias f4 [64]
000000 95 49 a5 bc c3 d0 ac bd 81 57 9b bc 64 19 9d bd
       -0.020176688 -0.08438256 -0.018962624 -0.076708585
000010 b0 53 1b 3c a2 0e 50 bd 6a 68 66 3d cf de 63 bd
       0.009480402 -0.050795205 0.05625192 -0.05563241
000020 98 ea 6e bd 8e 86 65 bd e0 de 89 bd 1e e0 20 3c
       -0.058329195 -0.056036524 -0.06731963 0.009819059
000030 fc b1 d8 3c 93 c7 82 bd 11 d2 93 bb 27 67 e5 bd
       0.026452057 -0.06385722 -0.004511126 -0.112013154
000040 c2 b8 3c 3b 96 55 b9 bd b7 e9 f7 3c 0a ac 88 3b
       0.0028796648 -0.09049527 0.030262811 0.0041708993
000050 3e 70 a5 3d 38 10 a0 bd 1e a3 04 3e 9d 40 85 bc
       0.08078049 -0.078155935 0.1295285 -0.016266162
000060 48 4a fb bc 46 bb 04 be cf b9 13 3d 35 1f fa 3d
       -0.030675068 -0.12962064 0.036065873 0.122129835
000070 a3 1f 91 bd 67 48 78 bb 3c 03 34 bd 94 fa 28 3d
       -0.07086112 -0.0037884952 -0.043948397 0.041254595
000080 00 4c c5 bc 05 74 e3 bc d7 93 06 be 61 86 a0 3d
       -0.024084091 -0.027765283 -0.13142334 0.07838131
000090 30 57 70 bd ee 94 3b bd ba 49 f6 bd ce 4f bd bd
       -0.0586769 -0.045796327 -0.12025781 -0.09243737
0000a0 fd 91 3c bd 3a a5 91 3d 05 f9 86 bd 28 03 ca 3d
       -0.046037663 0.071115926 -0.065904655 0.09863883
0000b0 5a 9d 49 3d 40 d3 36 bd 47 5a 6a bd 06 86 88 bd
       0.049222328 -0.044635057 -0.057215 -0.06666188
0000c0 b0 55 65 bd 7e b6 a5 bd 79 24 6b bb 85 48 a4 3d
       -0.05598992 -0.08091448 -0.0035879894 0.080216445
0000d0 7c 15 af 3d a9 e7 ae bd 27 98 b9 3a ec c3 65 3d
       0.0854902 -0.085402794 0.0014159725 0.05609505
0000e0 ca 45 fe 3d fc 6c 58 bc a3 d2 9a 3d 50 ea bf 3d
       0.12415655 -0.013209578 0.07559707 0.093708634
0000f0 4e 49 34 3d 76 7f 84 3d d1 8a 2d 3d 1c 0b eb 3c
       0.04401522 0.06469624 0.042368714 0.02869182
