contrastive_save/contrastive_weights_epoch_69.pt (torch, 749116 bytes, 8 tensors)

conv1.weight f4 [64, 3, 3, 3]
000000 75 15 94 3d 13 ea d8 bd 3f 45 03 3d 13 6a 86 3d
       0.07230655 -0.10591521 0.03204846 0.06563201
000010 bb 53 a0 3d 83 4e f0 bd 38 f1 0a 3e 87 aa eb bd
       0.0782847 -0.11733725 0.1356858 -0.11507135
000020 f8 7b 39 be d1 cd b8 3d 53 44 0a be 3e a4 c5 3d
       -0.18113697 0.09023631 -0.13502626 0.09650467
000030 d0 a6 17 be a3 bb 2e bd 61 83 52 3e 36 3e 83 3d
       -0.14809728 -0.042659413 0.2055793 0.0640835
000040 a5 c9 01 3e 7f 92 46 3e 50 66 45 be 30 79 80 bc
       0.12674578 0.19391821 -0.1927731 -0.015682787
000050 75 a4 32 be a3 05 d7 bc e2 b4 6a be df 26 8a bc
       -0.17445548 -0.026247805 -0.22920564 -0.016864238
000060 4e b7 96 bd 65 c6 0d be e5 2a ea bd 2e 30 0a be
       -0.07359181 -0.13845213 -0.11433963 -0.13494942
000070 85 0d f0 bb f2 b5 0e be 61 35 dc 3c 1b 47 ea 3c
       -0.0073258304 -0.13936594 0.026880922 0.028598359
000080 d1 3f 9f 3c c1 6d 1f be ee f6 23 3e 9c 3f 02 3e
       0.01943961 -0.15569212 0.16012165 0.12719578
000090 e3 d5 6a be 59 fe e5 3d 55 d5 90 3d 3a 71 8a bd
       -0.22933154 0.112301536 0.0707194 -0.067598775
0000a0 fb 7b 6a bc 14 94 44 be 1f 5e 63 be 00 3d 6f be
       -0.014311786 -0.19197112 -0.22203873 -0.23363113
0000b0 fd bd 5d be 1f 4f f1 3d d4 c6 e9 bd 6f 48 df 3b
       -0.21654506 0.11782669 -0.114148766 0.0068140547
0000c0 24 51 38 3e 0c 1f 0e 3e 7e a1 1e 3e 7a fa 12 be
       0.17999703 0.13879031 0.15491292 -0.14353362
0000d0 42 a6 25 3d c2 13 32 3e b3 09 35 be 97 37 ea ba
       0.04044176 0.1739035 -0.17679481 -0.001786935
0000e0 ca 99 b5 bd 9e 75 9f bd 34 8d 62 3b fd 4f 9c bd
       -0.088672236 -0.077861056 0.0034569027 -0.07632444
0000f0 2a 1a d3 bd 53 34 a6 3d b4 a0 6c bd 05 b6 81 3b
       -0.10307725 0.08115449 -0.057770446 0.003958466
000100 58 0e e3 3d 7e 44 63 3d cf 1c 2b be a7 0c 3c 3e
       0.1108672 0.05548524 -0.16710208 0.18364201
000110 48 ec 2e 3e 68 a7 38 3e 62 61 a5 3c ed 8f e2 3b
       0.17082322 0.1803261 0.020188037 0.00691413
000120 ae 70 c2 bd 12 27 19 be c2 4e 1e bd f6 2c f4 3d
       -0.09494148 -0.1495631 -0.038649328 0.11922638
000130 2c 7d fa 3d 8d 20 a6 bc 73 86 d5 3d 84 40 bb 3c
       0.12230906 -0.020279193 0.10426035 0.022857912
000140 bd c1 07 bb d1 f6 4f be f0 d7 17 bd 7c ab 3b 3e
       -0.0020714842 -0.20308997 -0.03707117 0.18327135
000150 91 98 bb bc 53 da ca 3b ca f8 d6 3d c6 db 39 be
       -0.022899898 0.006190577 0.104966715 -0.18150243
000160 c5 c7 2b 3e 75 b2 4d bc c0 6c 0b be 3c 32 f7 3a
       0.16775425 -0.0125547545 -0.13615704 0.0018859576
000170 7e ee f4 3d 8c 1f f8 bc 9d e0 02 be 2f 1a b4 3d
       0.11959551 -0.03028848 -0.12780996 0.087940566
000180 68 bb 1b bd dd f9 a8 3d 04 98 15 be ba 36 ab 3d
       -0.03802052 0.08250783 -0.1460877 0.08360048
000190 2e 61 84 3d 49 29 fb bd a4 4e a5 bd a0 1d 42 3c
       0.06463848 -0.12263734 -0.0807164 0.011847883
0001a0 c5 c8 21 3e 10 58 36 be a7 27 2e 3e 03 94 bd bd
       0.15799244 -0.1780703 0.17007314 -0.092567466
0001b0 78 76 6b 3c db ea b1 3b 02 2b 02 3d 72 98 e8 3d
       0.014371507 0.0054296083 0.031779297 0.11357202
0001c0 6d 85 99 bd 48 49 2d be 05 3e c2 bd 5b df 24 3d
       -0.07496152 -0.16922486 -0.094844855 0.04025207
0001d0 95 86 8a bd d3 10 05 3d 28 7b c2 bd c7 c1 a3 bd
       -0.06763951 0.032486748 -0.094961464 -0.079959445
0001e0 82 87 6f 3e 87 70 07 3e 7e d9 41 3e 3f 3b 0b be
       0.23391536 0.1322652 0.18930623 -0.1359682
0001f0 d0 98 24 bd 0a e3 b2 bd 17 8c af bd 36 5d 44 bd
       -0.040184796 -0.087347105 -0.08571642 -0.047940455
000200 62 26 3a bd 16 21 25 be 14 50 f6 bc c0 29 b3 3d
       -0.04544676 -0.16125903 -0.030067481 0.087481976
000210 97 02 0b 3e 17 5d 73 3d 78 89 e7 bc 99 34 ee bc
       0.13575207 0.05941495 -0.028263792 -0.029077815
000220 89 3a 24 3e c4 0b 25 be 91 e0 b7 3d 8d ae db bd
       0.16037954 -0.1611777 0.089783795 -0.10726652
000230 97 2e 5b be 0f cf 23 3e 07 36 8c 3d 74 55 87 3d
       -0.21404491 0.15996955 0.068462424 0.06608096
000240 5c 99 43 be b5 89 d1 3d 12 8e f4 3d 20 d5 2d 3e
       -0.1910147 0.10231344 0.1194116 0.16975832
000250 02 c2 ea 3d 60 35 64 be 45 9e a1 bd a5 5c 32 be
       0.11462785 -0.22285986 -0.07891516 -0.17418154
000260 6c ee fd 3b 3d be a6 3c a3 a3 ce bc 9e b1 cd 3d
       0.0077493694 0.020354385 -0.025224512 0.100436434
000270 8d 3f 3c be 1a cd 89 3d dc 0d 07 bd 34 fe 38 3e
       -0.18383618 0.06728573 -0.0329722 0.18065721
000280 38 2f 04 3e b2 78 f9 bd e6 77 86 bd d9 90 f9 3d
       0.12908638 -0.12181224 -0.065658376 0.121858306
000290 44 f6 01 bd 82 7f 91 3c 25 50 48 3e b6 ca 9f bd
       -0.031728998 0.017760996 0.19561823 -0.07802336
0002a0 03 10 df 3c 87 53 8b 3d 17 8f f4 bd 7b 25 9f 3c
       0.027229315 0.06803041 -0.11941355 0.019427052
0002b0 6c 74 70 bd 42 f3 f9 bb cd 24 a6 3c 6a ee 52 3c
       -0.05870478 -0.0076278755 0.02028122 0.012874225
0002c0 29 43 30 be 0a df 37 be 8c db 3a bc 1d c7 1c be
       -0.1721312 -0.17956176 -0.011404883 -0.1531033
0002d0 85 95 29 ba b9 ab fb bd dc 3c 59 be 8e d0 74 bd
       -0.00064691185 -0.12288613 -0.21214622 -0.059769206
0002e0 d8 bb f8 bd e2 15 75 be 70 b8 26 3c 1d 81 c7 bc
       -0.12145203 -0.23934129 0.010175809 -0.024353558
0002f0 71 34 83 3d 02 e5 7d be 4d 5d 84 be 28 8f 8b be
       0.06406487 -0.24794391 -0.25852433 -0.27257657
000300 19 6a 3b be 69 ab 8c be 85 5b 7a bd 81 c7 87 bd
       -0.18302192 -0.27474526 -0.061122436 -0.06629849
000310 f7 2a a1 be d6 13 15 be 75 31 73 bd 1f 36 a9 bc
       -0.31478092 -0.14558348 -0.059373338 -0.02065569
000320 e0 74 c7 3d ff 2b 4c 3e 4d d7 93 bd 8c ab 27 be
       0.09739089 0.19938658 -0.072188 -0.16374034
000330 a3 81 a3 3c ec 0d c8 3d 57 00 52 bd 47 34 b5 bd
       0.019959277 0.097682804 -0.051269855 -0.08847862
000340 da 75 c5 3d 58 88 75 3d 51 77 4b 3e 21 f7 df 3c
       0.09641619 0.05994448 0.19869734 0.02733952
000350 b2 59 90 3d a4 a9 0c 3d 83 c2 ad bd dd 4a 52 bd
       0.07048358 0.03434147 -0.08484366 -0.051340926
000360 6c 2f 10 be 34 5e 2b 3e 59 91 b4 bd 5d 31 ac bd
       -0.1408059 0.16735154 -0.08816785 -0.08407853
000370 70 93 25 be 97 d2 3e 3e f8 43 04 be 48 b0 50 be
       -0.16169524 0.18635021 -0.12916553 -0.20379746
000380 5b 7d af 3d 74 43 3c 3d 75 45 17 3e 23 c4 fa 3d
       0.085688315 0.045962766 0.1477259 0.12244441
000390 44 9b c9 3d e2 2d 0d be ac 33 1e 3e 96 e1 b4 3d
       0.09844068 -0.13787034 0.15449399 0.088320896
0003a0 c5 cd c7 3d ec 2f 21 be b1 00 24 3e c3 8c de 3d
       0.09756044 -0.15740937 0.16015889 0.10866692
0003b0 b7 39 69 3d 49 04 f0 bd a3 16 a9 3c 0e 1f 25 3d
       0.056939807 -0.11719567 0.020640677 0.04031282
0003c0 41 c7 68 3d c8 98 fa bd 42 93 51 be 99 7c 0d be
       0.05683065 -0.12236172 -0.2046633 -0.13817061
0003d0 b2 89 64 be 44 00 8d bd 3d f2 72 be 49 d2 50 3d
       -0.22318152 -0.06884816 -0.23725219 0.050981794
0003e0 f3 fd 35 be 62 d9 73 be 0c 0d 16 be cd f7 4b be
       -0.17772655 -0.23813394 -0.14653414 -0.19918747
0003f0 94 96 c3 bd 7f 6b 76 be ee 5d ca bd 29 a4 21 bd
       -0.09550205 -0.24064444 -0.09881197 -0.039463196

conv1.bias f4 [64]
000000 d2 dd 5a 3d 06 75 0a bc 24 9c 8a bd df aa 57 3d
       0.0534342 -0.008450752 -0.06768063 0.05265319
000010 9e 8d 55 39 e7 9c 02 bd f4 d5 ca bd 64 d2 bb 3c
       0.0002036602 -0.031887915 -0.099040896 0.02292747
000020 53 42 51 bd cf d2 17 3d 5a b8 e0 bd b9 01 95 bd
       -0.051088642 0.037066277 -0.10972662 -0.07275719
000030 b5 a7 a7 3c 47 ae ac 3d e8 70 40 3d 39 b2 8c 3d
       0.020465711 0.08431678 0.046982676 0.06869931
000040 9d ee c6 bc b6 f7 66 ba c5 c5 b3 bd a9 0f fa b9
       -0.024283702 -0.00088107155 -0.08777956 -0.00047695384
000050 33 66 3a 3d 3c 03 a7 bd d5 cb 98 3d ea c8 c6 bd
       0.04550762 -0.08154914 0.07460753 -0.0970629
000060 da 33 5b bd a9 ea b6 3d 05 b8 2c be e4 35 0c ba
       -0.053516246 0.089314766 -0.16867073 -0.00053486065
000070 84 b9 10 3b a6 d4 ed 3d 74 55 4a b9 29 c5 0c be
       0.0022083232 0.11612825 -0.00019296055 -0.13747086
000080 20 3f f7 bd 7c 88 e7 bd 94 c8 59 be 3f df ed bd
       -0.12072587 -0.11305329 -0.2126792 -0.116148464
000090 b3 ef 6f b8 b1 db a1 3d a6 41 b7 bd fe 8c 2a 3e
       -5.7205278e-05 0.07903231 -0.08948068 0.16655347
0000a0 79 a8 68 ba 70 83 96 39 ef 2d ec bd 13 f4 72 3d
       -0.0008875202 0.00028708158 -0.11532199 0.0593148
0000b0 80 32 2a be 12 16 04 be 11 6e 03 be 46 37 90 bd
       -0.16620827 -0.12899044 -0.12834956 -0.070417926
0000c0 e0 81 96 3c d9 a4 02 3d dc 4c c5 bc 5b 7b 54 3d
       0.018372476 0.031895492 -0.024084501 0.051875453
0000d0 e1 f8 a7 3d fe fe c5 3b fc 4b 07 3d 93 cb 93 bd
       0.08201767 0.0060423603 0.03303145 -0.07216563
0000e0 c9 a0 54 ba cb ba d0 b9 b6 5c f6 3c 7b 8e 4a bd
       -0.0008111117 -0.00039812023 0.030073505 -0.049452286
0000f0 96 eb 37 3d 1f 43 2c 3d b4 dd c4 38 98 0d 5c 3c
       0.044902407 0.0420562 9.387304e-05 0.013430975

conv2.weight f4 [128, 64, 3, 3]
000000 c4 b9 3a bc 3d 83 af 3c 01 f2 a1 3c 88 65 46 bd
       -0.011396829 0.021424884 0.019768717 -0.04843667
000010 d0 e6 ea 3c 59 22 ba bc d2 d2 ff bb ca 1f 17 bd
       0.028674513 -0.022721456 -0.007807114 -0.03689555
000020 df ae c0 ba b1 6b 92 3b 7b 25 19 bd 20 fd ff bc
       -0.0014700553 0.004468404 -0.03738926 -0.03124863
000030 d4 bb 72 bd 5d 6e 3a bd 77 db 5b bd 57 66 d0 bb
       -0.059261158 -0.045515407 -0.053676095 -0.006359856
000040 31 e3 68 bd 09 94 bc 3c 73 39 a7 bc ce ce 65 bc
       -0.05685729 0.023019807 -0.020413136 -0.014026357
000050 6a e3 0f 3b 63 4e 11 3c a5 60 37 3d 7b cf f2 3c
       0.0021955618 0.0088687865 0.0447699 0.02963995
000060 a6 b7 45 bb 8e 2e 4f 3d 04 9f 7f 3b ca b6 a1 bc
       -0.0030169277 0.050581507 0.0039004693 -0.01974048
000070 f9 4c 22 3c 9c 2b 3d 3c 8d ef 0d 3d b8 b8 c7 bc
       0.009906047 0.011546042 0.03465228 -0.024380073
000080 e6 72 5e 3b e6 b6 ca 3c b7 22 1c 3d ec 25 97 bc
       0.0033942997 0.024745416 0.038119044 -0.0184507
000090 66 b5 a0 3d 80 45 43 3d af 15 9b 3d 59 b3 f1 3d
       0.07847099 0.047673702 0.07572495 0.11801786
0000a0 92 01 8d 3d f0 1c 01 3e ed 2b c7 3d 85 ca 70 3d
       0.06885065 0.12608695 0.09725175 0.058786888
0000b0 74 81 04 3e b2 a0 14 3d b6 e5 2e 3d 72 13 f8 bb
       0.12940007 0.036286063 0.04269954 -0.0075706774
0000c0 93 31 9f 3c 55 92 01 3c 5a 38 e0 3c 8f 5e 2d bd
       0.019432819 0.007908423 0.02737062 -0.042326506
0000d0 49 4b 21 bd e3 37 03 3c 7f 3b 9a 3d 24 9f 73 bd
       -0.03937844 0.00800893 0.07530879 -0.05947794
0000e0 89 ba dd bd 16 0f cf bc 9d bc 95 bb e1 dc 8e bd
       -0.108265944 -0.025275748 -0.0045696036 -0.06975723
0000f0 be c0 0b bd fa ec bf 3b b5 92 98 bd e5 29 c9 3c
       -0.03411936 0.005857107 -0.07449857 0.02455611
000100 36 65 75 3c 1c e9 ff 3c 5a 94 52 ba 32 1b 0b bd
       0.014977744 0.031239085 -0.00080329704 -0.033961482
000110 42 4a 01 bd 46 aa 93 3c c9 f9 26 bd e7 d8 03 bd
       -0.03156496 0.018025529 -0.040765557 -0.032189276
000120 e8 f9 eb bc a0 12 91 bc e6 05 2d bb 0c 13 28 3d
       -0.028805688 -0.017709076 -0.002640122 0.04103379
000130 5e 21 1b 3d 84 45 11 3c 97 55 9a bc 24 7c e8 bc
       0.03787362 0.0088666715 -0.01883964 -0.028379507
000140 48 6b 30 3c d2 4c 93 3c ce cf 6f 3c bb 2d 4b 3d
       0.010767765 0.017980967 0.014636947 0.04960416
000150 1b ac 87 bb 9f 6f 00 3a 31 45 79 bb 2d 52 0d bc
       -0.0041403896 0.00048994453 -0.0038035626 -0.008625549
000160 ae 59 87 3d 9f c7 b8 3a 11 95 8b 3c 2d 12 f9 bc
       0.06608902 0.0014097578 0.017038854 -0.030404175
000170 c8 07 9e bc 64 63 4c bc 25 f5 ff 3b 50 11 93 bd
       -0.01929082 -0.012474868 0.007811206 -0.071810365
000180 fb 9d 09 3c 2f d6 11 bc a6 6a 53 bd 65 2c f4 bc
       0.008399482 -0.008901163 -0.05161538 -0.029806325
000190 6f 97 bd bb 25 87 8a bb 14 c7 b0 bc 32 b6 de bc
       -0.0057858746 -0.0042275363 -0.021579303 -0.027186487
0001a0 a3 39 21 3b e5 ce f9 bc 13 80 a6 3c 00 f8 d0 3b
       0.0024601005 -0.030494163 0.020324742 0.00637722
0001b0 3e 71 03 3d de 8d b1 3c 65 0d 79 3d 05 3a f0 bb
       0.032090418 0.021674093 0.06080379 -0.007331135
0001c0 43 8e 0c 3d f7 ca 64 3d ca 08 15 3d 0c ab 85 3c
       0.03431536 0.055857625 0.036385335 0.016316913
0001d0 67 49 ff bb 6d ce 09 3c a0 25 02 3d 3b 9e e0 3c
       -0.0077907327 0.008411032 0.031774163 0.0274192
0001e0 f4 d7 c9 3c 77 b6 0d bb 6b ae 22 3c 20 4e 5d bc
       0.024639107 -0.002162365 0.00992928 -0.013507396
0001f0 3b 68 62 bd 35 fc 6a bd 9c 30 c9 3c c5 8d 4c 3c
       -0.055275183 -0.05736943 0.024559312 0.012484972
000200 86 75 de 3c 9e f7 63 3d fd 77 1a 3d 52 de 82 3c
       0.027155649 0.055656068 0.037712086 0.015975151
000210 47 01 9c 3d 01 be 2f 3d 4b 0b 11 3d 25 b2 23 3d
       0.07617431 0.04290581 0.03541116 0.039964814
000220 d0 66 0b 3d 84 36 06 bc dd f5 1d b9 76 46 9f 3c
       0.034033597 -0.0081917085 -0.00015064278 0.019442778
000230 8c d2 85 3c b8 30 e7 bb 49 6b 27 3d a7 b7 ab 3b
       0.016335748 -0.0070553683 0.0408738 0.005240399
000240 d4 ac 2b bc fa 80 94 3c a4 7c 19 3d 5b 10 7b 3c
       -0.010478217 0.018127907 0.037472382 0.015323724
000250 e1 6c 42 3d 6d fc fe 3c 8b c5 8d 3d 6d 33 cf bc
       0.047467116 0.031126225 0.06922444 -0.025293076
000260 a3 a6 f5 bc ac 67 19 3d a2 8b bd 3c ab 69 6b 3d
       -0.029986685 0.037452385 0.023137871 0.05747382
000270 bc c2 87 bb ee 1b 03 bd 56 94 3c 3c 17 33 c4 3c
       -0.004143087 -0.032009058 0.011509975 0.023950143
000280 6a d4 44 3b 03 9e 88 bd d3 3c d9 3c 88 38 51 3d
       0.0030033835 -0.06670763 0.026518261 0.051079303
000290 84 0d aa bc a1 96 92 bc 3d 2b 03 bd 71 84 90 3c
       -0.020758398 -0.017894091 -0.032023657 0.017641278
0002a0 eb e6 52 3d d2 71 c3 bc b3 38 e4 bc 13 e2 aa 3d
       0.05148975 -0.023857985 -0.027859068 0.083439015
0002b0 3c 77 d3 3d ea e7 02 3e f8 27 dd 3c a8 a4 92 3d
       0.103254765 0.1278378 0.026996598 0.07160312
0002c0 8b 27 c9 3d 84 76 73 3d 8c c7 ee 3d 81 f9 c8 3d
       0.09821995 0.059439197 0.11659154 0.09813214
0002d0 01 c3 22 3d 06 3d eb 3c e1 6d 45 3c bf bf 1f bc
       0.03973675 0.028715622 0.012050123 -0.009750306
0002e0 c8 de 93 3c c8 ec c6 39 a2 54 43 3d 09 31 41 3d
       0.018050566 0.0003794192 0.047688134 0.047165904
0002f0 e1 82 92 3d 5f 1f e3 bd 8e c3 7f bd 13 ba 49 bd
       0.071538694 -0.11089968 -0.062442355 -0.04924972
000300 1a 92 40 bd 04 42 78 bb a9 24 f6 3c 4d 50 5a bc
       -0.047014333 -0.0037881145 0.030046778 -0.013324809
000310 bb a8 84 bb af cf 6c 3d 15 d7 63 3d 26 24 21 3d
       -0.0040484346 0.05781525 0.05562504 0.039341114
000320 e0 b0 33 bc 89 a4 54 3d 00 db 1c 3c c3 e9 41 3d
       -0.010967463 0.051914725 0.009573698 0.047342073
000330 a6 06 4e 3d d3 5e 8b 3c ac 6d 2a 3d e7 1e be bd
       0.05029931 0.01701299 0.041608498 -0.09283238
000340 52 ab a9 bd 45 49 59 bc e6 87 8e bd 27 73 8d bd
       -0.0828463 -0.013262098 -0.06959514 -0.06906729
000350 5c 3c ed bc cb b5 f0 bc 55 43 1b bc f3 da 86 3b
       -0.028959446 -0.02938356 -0.009476502 0.0041154562
000360 cb db 3d bc 7a 1c 52 3d 83 5d 46 3d 39 ec cf 3c
       -0.011588047 0.05129669 0.048429023 0.025381194
000370 3f c8 c1 bc 3b 5e ae 3c d7 32 3f 3c 19 2c bf bc
       -0.023655055 0.021285167 0.011669836 -0.023336457
000380 9d 03 a7 3c e9 8b 6a 3c b5 22 4a 3d 35 1d 30 bc
       0.020387465 0.014315584 0.049349505 -0.010749151
000390 55 df 85 3b 3e 19 4b 3c ac 14 c4 bc e6 47 12 ba
       0.004085461 0.012396155 -0.023935638 -0.0005580172
0003a0 9b de cb 3c d7 b2 a0 bb 4c 70 33 3a b9 da 6d bc
       0.02488642 -0.004904132 0.00068450416 -0.01451748
0003b0 1d 5b 20 bd f2 d8 a1 3c 9a 7f 26 3d 8d b3 27 bc
       -0.039149392 0.019756768 0.040649034 -0.010235679
0003c0 2e 69 2a 3d b0 d5 02 3d 8e 1d b4 bc 9b 9a 77 bc
       0.041604213 0.03194207 -0.021986749 -0.015112544
0003d0 81 14 8f bc d7 6e 6e bd 39 49 18 bd fd 73 cc bc
       -0.017465832 -0.058211174 -0.037179206 -0.024957651
0003e0 c9 c9 51 bd 6f c9 bc bc 7e 89 78 bd 69 b4 40 bd
       -0.051217828 -0.02304527 -0.060677998 -0.047047053
0003f0 90 c0 3c be 73 64 3f be c2 91 17 be b2 b4 19 be
       -0.18432832 -0.18690662 -0.14801696 -0.15010336

conv2.bias f4 [128]
000000 71 50 9a bc d7 4d ac bc 39 af 78 39 df 54 15 bb
       -0.018837186 -0.02103321 0.00023716399 -0.0022786183
000010 b5 e6 c2 bc 25 e5 bb bc 5b ac 7c 3d e1 00 0f 3c
       -0.02379165 -0.022936413 0.06168781 0.008728237
000020 6a a4 03 3b e9 e7 69 39 1e cb 1f 3d 99 5b 11 3d
       0.0020087012 0.00022307005 0.039012067 0.035487745
000030 87 ce 16 bc e8 ca 83 3b 36 cd 72 3c 4e 8c 78 3d
       -0.009204513 0.004021991 0.014819434 0.06068068
000040 e5 24 bf 3b 87 dc 0b 3d e3 5a ca bc e9 9b 62 3d
       0.0058332556 0.03414586 -0.024701541 0.05532447
000050 96 54 41 3d e9 4d 80 bd 5f 41 76 bb 06 6b dd bc
       0.047199808 -0.0626486 -0.0037575585 -0.027028572
000060 ff 02 36 3a 1e ca 41 bd 87 ba 93 ba f2 35 2c bd
       0.00069431955 -0.047311895 -0.00112708 -0.042043634
000070 24 cd 26 bd 87 38 c5 bc cf e3 d7 3c 97 14 4c bc
       -0.04072298 -0.024074806 0.026353745 -0.012456081
000080 ee 91 4a 3d 61 3a 89 3c 6d 05 6f bc 60 6b ee 3c
       0.049455576 0.01675147 -0.014588696 0.029103935
000090 e1 b7 9b bc b8 c3 1b bd a1 de 9e bc 6e 34 9d bb
       -0.019008579 -0.03802845 -0.019393267 -0.00479751
0000a0 f7 9a a1 3c 3d 7d 39 3c 81 e3 25 3c 5c da 6e bc
       0.019727213 0.011321363 0.010125042 -0.014578428
0000b0 90 1d 6a 3c 1e 2e 68 bd 39 87 b7 3c c8 ff 5b 3c
       0.014289275 -0.056684606 0.022403346 0.013427682
0000c0 50 1c 44 bd b2 04 fa bb e7 f7 1e bd 62 b9 ec bb
       -0.047878563 -0.0076299543 -0.038810637 -0.007224248
0000d0 90 00 3f bd 41 0d 6b 3d cc a0 a0 bc 47 b2 5c bd
       -0.046631396 0.057385687 -0.019607924 -0.053880956
0000e0 ac 69 0c 3d 92 98 5b bc fe 9e 79 39 64 33 13 bc
       0.034280464 -0.013403075 0.0002380572 -0.00898442
0000f0 29 a0 8b bd e9 ab 1a bd 6f 78 0f 3d 4a 25 b7 bc
       -0.068176575 -0.037761603 0.035026964 -0.022356648
000100 59 19 57 3d 8d 00 a6 3d 97 b3 2c 3d eb f0 25 bd
       0.052514408 0.08105574 0.042163458 -0.04051296
000110 53 08 6a 3c c2 ca b5 3c 5a a4 2e 39 3b ef 18 3c
       0.014284211 0.022191409 0.00016655159 0.009334381
000120 3a b1 28 bd 88 70 0a 3d 26 bb cb 38 91 f2 98 bc
       -0.04118464 0.033798724 9.7146534e-05 -0.018670352
000130 40 ea 0d 3c a1 39 26 3d a6 30 8f 3c 79 23 57 3d
       0.008661807 0.040582303 0.017479252 0.052524064
000140 e6 b8 c0 3b 4e e6 0f 3d 69 51 14 3d de c4 51 bd
       0.0058814166 0.035131745 0.03621045 -0.051213138
000150 45 c0 81 bc 40 db 89 b8 b8 87 3a 3d 1f 24 ff 3b
       -0.015838752 -6.5735076e-05 0.045539588 0.0077862884
000160 6b 50 d4 3b a1 7f 70 3d 71 68 0b 3d e4 d1 52 3d
       0.006479313 0.058715466 0.03403515 0.0514697
000170 3e bf f7 3c 23 57 b0 bb ed 09 80 3d fd 76 0d 3c
       0.030242559 -0.0053814813 0.06251893 0.008634326
000180 f0 ac 69 bb 2c 77 c3 bc f5 2d 98 bb ab 3e 12 3d
       -0.0035656057 -0.023860537 -0.0046441504 0.035704296
000190 f5 b7 e9 bc 4e 65 7d bb 19 03 50 3d 60 93 b7 bc
       -0.0285301 -0.0038665119 0.050784204 -0.022409141
0001a0 c1 7f 11 bd 38 ec 39 3d b1 1d 90 bc ad 15 42 3d
       -0.035522226 0.04539129 -0.017592283 0.047383953
0001b0 89 5d d9 3c d0 2e ee bc 3d 99 3d bd 2e 31 84 bd
       0.026533859 -0.029075056 -0.046288718 -0.06454693
0001c0 d6 f1 0a 3d dd b6 70 bd f7 59 87 3c 44 eb e2 bc
       0.03392204 -0.058768142 0.01652239 -0.027700074
0001d0 21 fc 8d 3d bc 93 dd 3c 82 94 93 bb e4 02 98 3c
       0.069328554 0.027047984 -0.0045037875 0.018556066
0001e0 04 4b fa bc 1d b5 f9 bc 98 29 ba 3c 84 5d 15 bd
       -0.030553348 -0.03048187 0.022724912 -0.036466137
0001f0 61 0c a1 3d 7f 71 79 3c cb 2d 9e bc f2 2e e6 3c
       0.07863689 0.0152248135 -0.019308945 0.028098557

deconv1.weight f4 [128, 64, 3, 3]
000000 b0 ee 8a 37 34 61 56 bc 74 32 19 3c 4b ba 53 bc
       1.656203e-05 -0.0130846985 0.009350408 -0.012922834
000010 3c 68 8d 3c 55 1c ba 3c e4 a1 40 3d 7e 3b bd 3c
       0.017261617 0.022718588 0.04702939 0.023099657
000020 da 48 7c bb 1c ad 11 3d 25 a5 24 3d 03 78 5e 3c
       -0.0038495571 0.03556548 0.040196557 0.013578418
000030 e2 61 4a 3d 63 74 6b bc 1d f2 6a 39 e5 9b e0 3c
       0.049409755 -0.0143710105 0.00022406173 0.027418086
000040 e7 18 d9 3c c1 d5 1d 3d 3f 92 a5 bd 60 4f 25 bd
       0.026501132 0.03853393 -0.08084535 -0.0403589
000050 d7 02 2c bd 1f 6b 08 bd a8 eb af bc f4 cd e3 bc
       -0.041994896 -0.033305284 -0.021474674 -0.027808167
000060 f4 af 48 bd ce 99 a4 bd 1f 4e 7a bd ad a5 9d 3d
       -0.048995927 -0.080371484 -0.06110966 0.07697616
000070 c3 49 95 3c c2 27 95 3d d9 6b 21 bd e2 28 51 bb
       0.018223649 0.07282974 -0.039409492 -0.0031915237
000080 a6 f0 21 bd 26 85 2a bd e8 1b 92 bd 8d 3c 7b bd
       -0.03953614 -0.041630886 -0.07134229 -0.061337043
000090 ef 6d 6f 3c 1d 7e 8d bc 91 19 af 3c 0a bb 7d 3d
       0.014613613 -0.01727205 0.021374496 0.061945952
0000a0 4d 5e 49 3d a4 db 78 bc 22 46 12 3c 36 cd 8d 3c
       0.049162198 -0.015189085 0.008927854 0.017309766
0000b0 d9 08 80 3b d8 fa 3c 3c bc 16 3e 3c 14 a4 ed 3c
       0.0039073047 0.011534415 0.0116021 0.029008903
0000c0 1a 85 37 3d 81 1b 1a 3c c0 00 23 bd 09 4e 90 bc
       0.04480467 0.0094059715 -0.039795637 -0.017615335
0000d0 dc 47 4c bb 8f 30 a4 bc c5 07 f8 bc eb 67 ca 3c
       -0.0031170761 -0.020042686 -0.030277142 0.024707755
0000e0 e8 35 45 bd d5 6c bb bc a5 a1 8f bc e2 11 4b bd
       -0.048147112 -0.022879044 -0.017533133 -0.0495776
0000f0 3a ab af 3c c8 88 f8 3b f9 da a3 3c 6a 18 46 3c
       0.021443952 0.007584665 0.020001875 0.012090782
000100 49 0f a4 bb df 68 03 3c ae 00 08 3d 4a 76 43 3c
       -0.005006705 0.008020609 0.033203773 0.011930058
000110 7f db 46 3d 73 3a 83 3d 07 f9 81 bc d6 31 96 bc
       0.04854917 0.06407633 -0.015865816 -0.01833431
000120 ce 69 43 bb 1f 42 09 3b b0 a1 96 bc b6 bc a5 3c
       -0.0029817703 0.0020943952 -0.018387645 0.020231586
000130 ab 75 cb bc e1 56 6c 3c 69 a1 ea 3c 32 4e dc 3c
       -0.024836382 0.01442501 0.02864142 0.026892755
000140 6c 3e 2d bd a1 de e6 3c ed 76 5d bc 04 0a a7 bc
       -0.04229586 0.02818233 -0.013517124 -0.020390518
000150 5e b7 6d 3b 5f 3b 0a 3d 94 59 2a 3d 55 7d 2b bc
       0.0036272625 0.033748027 0.041589335 -0.010466893
000160 0a bf 0a 3d b3 09 23 3d 8c 8f a5 bb 77 06 36 3b
       0.033873595 0.03980417 -0.0050525125 0.002777485
000170 7e a4 44 bd ad 05 12 3c e3 4a fc 3c d0 0b e6 bc
       -0.048008434 0.008912486 0.030797428 -0.028081805
000180 cd 01 24 3d 86 24 eb 3c 1f 97 db bc b6 2a e9 bb
       0.04004078 0.02870394 -0.026805459 -0.0071156872
000190 6b 54 24 3c 31 d1 28 3d 4f a8 74 3c be 76 13 3c
       0.010029892 0.041215125 0.014932706 0.009000478
0001a0 e3 8f a4 bc 14 1d a5 3a b9 7c 85 3c d6 62 d2 bc
       -0.020088142 0.0012597167 0.016294824 -0.025681894
0001b0 8b fc 1b 3d 83 99 82 3c 19 3d 33 3d 19 b5 3b bc
       0.03808264 0.01594234 0.04375944 -0.011456751
0001c0 e4 1a bf bc c6 92 af bc 57 4f 83 bc 7f 3e a2 3c
       -0.023328252 -0.021432292 -0.016029043 0.019805191
0001d0 b0 0c 97 3c 7d 36 93 bc ec 77 22 3d ee ea 44 bd
       0.018438667 -0.017970318 0.039665148 -0.04807561
0001e0 89 8a 78 bd c1 0d 28 3d 2a 20 05 bd 12 a5 8a bd
       -0.060678992 0.04102874 -0.032501377 -0.06769766
0001f0 0d fd 32 3d 41 33 bf bd 9d 60 c1 bd 62 d5 e1 bd
       0.04369836 -0.09335948 -0.09442256 -0.11027028
000200 94 27 62 bc 5f 7e af bd 02 07 9a bd 27 d2 63 bd
       -0.0138033815 -0.08569025 -0.07520868 -0.05562034
000210 9e 9d ad bd 19 57 13 bd 04 a0 e5 bc ce 64 84 bd
       -0.08477329 -0.035971735 -0.028030403 -0.064645395
000220 8e a3 0b bd d1 23 c1 bc 4d 86 04 bd 11 6c fa bc
       -0.034091525 -0.023576649 -0.03235464 -0.030569108
000230 0a 26 05 3c 00 be 4a 3b a0 42 99 3a ed 55 68 3c
       0.008126745 0.0030936003 0.001169283 0.014180643
000240 0f 1d eb 39 74 b7 68 3b 97 cb 3c 3b e6 da 4c 3d
       0.00044844343 0.0035509737 0.0028807872 0.050013445
000250 05 05 b2 bc 3f 0a 38 3c c5 1f 4b 3d 90 f3 04 3d
       -0.02173091 0.011232912 0.049590845 0.03245884
000260 cf 8d 2b bb aa 4a 63 bd a4 da 1a 3c 56 c3 89 bc
       -0.0026177054 -0.055491127 0.009451542 -0.016816776
000270 88 3b bc bc 49 8e f9 bc 59 13 b6 bc 8c 60 42 bd
       -0.022977605 -0.030463355 -0.022226023 -0.047455356
000280 79 33 b0 3c ea fc 41 bb 69 9f 6a bd 7e b4 a7 bd
       0.02150892 -0.0029600211 -0.05728093 -0.08188723
000290 eb 3c 04 bd 5a cc 99 3a e7 03 73 bc f3 6f 55 3c
       -0.03228466 0.0011733875 -0.014832473 0.013027179
0002a0 6b 90 63 3d 07 44 8a 3d e4 19 88 3d 60 ea 7d 3d
       0.05555765 0.067512564 0.06645563 0.061991096
0002b0 95 ec 72 3d 8b 49 80 3d 9b 75 f3 3b 26 82 54 3d
       0.059307653 0.06264027 0.007429791 0.05188193
0002c0 52 82 4b 3a a9 7a 29 3b ab 99 d8 bc d4 52 22 3d
       0.00077632547 0.0025860465 -0.026440462 0.039629772
0002d0 06 70 e3 ba 58 30 25 3b 3e aa 8b bb aa e4 6e bd
       -0.0017352111 0.0025205817 -0.004262238 -0.05832354
0002e0 6a c7 4b bd 5b 48 b0 bc 68 25 2e bd bf 23 df bc
       -0.049750723 -0.021518877 -0.042516142 -0.027238725
0002f0 ec 22 01 3a 7c 09 1c 3c 7a e9 19 3c fa de b4 ba
       0.0004926163 0.009523746 0.009394044 -0.0013799362
000300 53 08 0b 3c 27 49 eb bb 3f 1f db bb 25 36 9f 3b
       0.008485871 -0.0071803513 -0.0066870744 0.0048587495
000310 55 b8 7f bc a2 a0 a8 bc 36 66 96 3c 5a cb 11 3d
       -0.015607913 -0.020584408 0.018359285 0.03559432
000320 b5 88 dc 3c fb 1b 98 bc ea a3 b9 3c d5 08 80 3c
       0.026920656 -0.01856803 0.022661168 0.015629211
000330 9d 7b 89 bb 80 0f 26 bc ce 7b 98 bc cb 64 aa 3c
       -0.004195644 -0.010135531 -0.018613722 0.020800015
000340 fe 22 50 3d a0 5e 38 3d 64 2e 2e 3d bb 31 c2 3c
       0.05081462 0.045012116 0.04252471 0.023705354
000350 fc 7f a0 bc 37 e9 87 3c ff af 18 3d 2f b4 58 3d
       -0.019592278 0.016590698 0.037277218 0.05290621
000360 c9 fd 9a ba 54 92 b9 bc 0c 0d 3b 3d 6c ff 96 3c
       -0.0011824901 -0.022652782 0.04566674 0.018432342
000370 d1 f8 97 3c 94 6a 1a bc 07 eb eb 3c 69 58 8e bb
       0.018551262 -0.009424824 0.028798593 -0.0043440354
000380 ce 97 34 bb 74 f6 7d bc 3b 87 51 bc 7f 62 a0 bd
       -0.0027556303 -0.015500654 -0.012788589 -0.07831287
000390 06 ac 7a 3b c4 78 55 bd a5 ba 86 bd 2a cd 56 bd
       0.0038249507 -0.052117124 -0.06578568 -0.052441753
0003a0 49 e3 27 bd 3a 33 3f bd 98 97 cc 3c fc 0b d0 bc
       -0.04098824 -0.046679713 0.02497463 -0.02539634
0003b0 2b 63 0e 3b ab f8 05 bc 67 13 3e 3d 6b cb 1b 3d
       0.002172659 -0.008176963 0.046405222 0.03803579
0003c0 d2 4e fb bb 33 71 bb bc 8e 11 f1 bc d9 ff 3d ba
       -0.007669308 -0.022881126 -0.029427316 -0.0007247902
0003d0 ae 0e 95 bc 74 65 e9 3c 46 ff ba bb f5 03 c4 3c
       -0.018195476 0.02849076 -0.0057067005 0.023927668
0003e0 6a 09 ef 3c f7 6e 9d bc 5f 46 bb 3c 8e 16 f7 3b
       0.029179294 -0.019217951 0.022860704 0.0075405305
0003f0 07 f9 18 be ff 77 6b bd 7c 34 22 bd ee 90 1b 3d
       -0.14938746 -0.057487484 -0.039600834 0.037980013

deconv1.bias f4 [64]
000000 29 67 d2 3b 65 16 8c 3d f6 0d 71 3d d8 d5 1c bc
       0.006420989 0.06840209 0.058851205 -0.009572469
000010 00 0f 3a bb 76 b9 f2 3c 8a 4c 7a 3d 14 1b ce 3a
       -0.0028390288 0.02962945 0.06110815 0.0015724623
000020 99 f3 dc 3c df f5 82 3d e2 0d ae 3c 04 d5 45 3d
       0.026971625 0.063945524 0.021246854 0.04829885
000030 8c ea 6f 3d 5b 04 09 bd 50 fe 17 3d 16 ff 81 3d
       0.05857329 -0.03345142 0.037107766 0.06347482
000040 d3 84 6b 3d 9b 48 5b bd c8 aa 17 3d 6f 55 68 3d
       0.057499718 -0.05353604 0.037028104 0.0567221
000050 dc a1 a0 3c 35 13 91 3d ca 92 75 3c bc 42 ab bc
       0.01960843 0.070837416 0.0149886105 -0.020905845
000060 49 8d 12 3d ee 1b 07 3c d9 4e 8b bc 66 a4 87 3d
       0.03577927 0.008246405 -0.01700537 0.066231534
000070 48 d8 6a 3d 84 d1 11 bd 6f 8d 79 3d ca b5 5d bc
       0.057335168 -0.0356002 0.060925897 -0.013532111
000080 1b 87 a7 3c 29 ea 26 3d 3d 09 33 3d 0e 99 44 3d
       0.020450165 0.040750656 0.043709982 0.047997527
000090 8b e6 92 3d cc c6 9a 3d 61 f2 10 3d 86 56 24 3d
       0.07172879 0.07557449 0.0353874 0.040121578
0000a0 f7 89 4c 3c 05 6d 33 bc dd cc 99 3d cb a2 21 3c
       0.012484065 -0.010951285 0.07509778 0.009865473
0000b0 75 8d 76 3d e4 ce 27 3c 7d 79 e7 3a fc 14 9f 3d
       0.060193498 0.010242198 0.0017660108 0.07767674
0000c0 3f b1 72 3d c4 46 79 3d 3f b6 8f 3d a8 06 6e 3d
       0.059251066 0.060858503 0.070171826 0.058111817
0000d0 4e 91 35 3c 5e bc 29 3c d8 ea 1e 3d e3 aa 68 3d
       0.011082007 0.010359852 0.038798183 0.056803595
0000e0 31 e0 86 3d 19 99 0f 3d 8d 1c 24 bb ff ed 99 bc
       0.0658573 0.035058115 -0.0025041432 -0.018790243
0000f0 1b c5 22 bd 1c b5 96 3c b1 8b 40 bb df 9a e6 3a
       -0.039738756 0.018396907 -0.0029380138 0.0017593763

deconv2.weight f4 [64, 64, 3, 3]
000000 5e 78 5f bc ef 2f 04 bd 08 da 0b 3d 5d 07 02 bc
       -0.013639538 -0.032272276 0.034143478 -0.007936326
000010 1e bc 8a bc b1 0e 03 3c 65 24 59 3c 11 2e c3 bc
       -0.016935404 0.007999108 0.013253306 -0.023825677
000020 98 b6 77 bb 58 01 d8 3c 31 04 03 bd 98 b7 54 3d
       -0.0037798043 0.026367828 -0.03198642 0.0519329
000030 17 19 b0 bc 4e 0a 73 bc 67 bd e4 bb 3f d1 30 3d
       -0.021496339 -0.014834 -0.0069805863 0.043168303
000040 49 07 11 3d b2 6e ad 3c 3c 66 62 bc 32 2e 17 3c
       0.03540734 0.021170948 -0.01381832 0.009227322
000050 4f d3 6e bc 48 e2 7d bb 09 4a 4f 3d a5 7d 06 bd
       -0.014576747 -0.003873961 0.050607715 -0.032834668
000060 73 f5 12 bc 7a 4c 2d 3d 80 ad 93 3b ca 0f f0 bb
       -0.0089696525 0.04230926 0.004506767 -0.007326101
000070 e6 05 03 3c b0 63 4f 3c bf ca 64 bb d1 21 9f bc
       0.007997012 0.012658045 -0.0034910885 -0.019425305
000080 41 79 12 3d be bd 0e bd 32 21 2a bd c3 35 08 bd
       0.035760168 -0.03484892 -0.041535564 -0.033254396
000090 89 27 2a 3c fb c9 94 3b af 1f 79 3d 19 97 47 3d
       0.0103854025 0.0045406795 0.06082123 0.048728082
0000a0 2e 72 11 3c 86 27 28 3d 4e a1 85 3d de ff cf 3c
       0.00887732 0.041053317 0.06524907 0.025390562
0000b0 64 6b 80 3d 48 8b 34 3c e4 56 0d b9 ba d6 08 bd
       0.06270483 0.011019535 -0.00013479177 -0.033407904
0000c0 cb f1 15 bc ac 24 3a 3c 93 df 18 3c 7d 4b 02 bd
       -0.009151886 0.011361282 0.009330648 -0.031810272
0000d0 0f 9e 24 bd 3f 67 72 bc 99 1b da bc 56 10 9f bc
       -0.0401898 -0.014795124 -0.026624488 -0.01941697
0000e0 a8 bd 01 bd 52 8c e3 3c fb 6b ba 3c c1 ec 8b 3c
       -0.03167501 0.02777687 0.022756567 0.017080666
0000f0 3d df 81 bd 90 6f b7 bc d7 a5 16 bd 14 9a f2 3b
       -0.063414074 -0.022392064 -0.03677925 0.0074036215
000100 f3 17 22 bd 37 ca b2 bc c9 29 02 3d ba ab 07 bd
       -0.03957362 -0.02182494 0.03177813 -0.033122756
000110 74 67 df bc c5 94 cb bc b5 a4 1d bd 2b 4a c0 3c
       -0.02727101 -0.024851212 -0.038487155 0.023472866
000120 18 45 ba 3c 12 bd 60 bc 97 09 20 3d a5 6f 15 3c
       0.022738025 -0.013716953 0.039071646 0.009120856
000130 a8 7b 19 3c 41 f1 38 3d d8 52 47 3d f2 a8 63 3d
       0.009367861 0.045151953 0.04866299 0.05558104
000140 cd cc 41 3c d1 fb 99 3c 03 24 4d 3c 43 f7 7f 3d
       0.0118286135 0.018796833 0.012520793 0.062491667
000150 76 31 f3 3c c1 38 cf bb c1 bd 45 bc 62 c2 98 3d
       0.02968667 -0.0063239043 -0.012069167 0.074589506
000160 d2 2e a6 3c 9f 96 46 3d b0 7c 88 3d 0c d8 2f 3d
       0.020285998 0.048483487 0.06664407 0.042930648
000170 aa b1 da 3c 97 9e 23 3d 4e 9b e5 bb c7 15 8f 3c
       0.026696045 0.039946165 -0.007007039 0.017466439
000180 10 e6 09 3d 91 b6 8d 3d a1 9c 95 3d f0 02 be 3c
       0.03366667 0.069195874 0.07305265 0.02319476
000190 07 93 3d bd bd c8 ec 3c ed 47 0d 3b 3e 38 99 bb
       -0.046282794 0.028904313 0.0021557764 -0.004675894
0001a0 8d 45 b2 b8 21 79 0e bc 6a 46 94 3c e3 3a ea 3c
       -8.500656e-05 -0.008695872 0.018099982 0.028592533
0001b0 a6 e9 3d bc 00 94 0b bd 5e ea b6 bc 18 93 7a 3a
       -0.011591351 -0.03407669 -0.022328552 0.0009558662
0001c0 05 25 1d 3c ca 73 97 bc 11 b0 80 3c 3c 48 2d bc
       0.009591346 -0.01848783 0.015708955 -0.010576304
0001d0 85 6a c6 bc 9a 83 0d 3d cd 82 00 3c 0a cd 3d 3d
       -0.024220714 0.034549333 0.007843685 0.04633812
0001e0 03 a1 53 ba 3d 5d 70 bc c0 e4 ae bc b1 05 08 bc
       -0.0008073004 -0.014670667 -0.02134931 -0.008302138
0001f0 b7 8b b6 3c 20 a5 70 3d 89 36 bc bc e2 ea 2d bd
       0.022283418 0.058751225 -0.022975223 -0.04246033
000200 5a 8f 8b 3c e0 33 d5 3c bb d7 59 bc 21 4d c2 bc
       0.017036129 0.026025712 -0.013296063 -0.023718419
000210 a5 10 89 3c 32 38 a8 bc c4 c7 15 bd 82 e2 35 bc
       0.01673157 -0.020534609 -0.036567464 -0.011101367
000220 42 17 6a 3c b8 70 d5 bb 33 a8 43 3d 82 2d 1a bc
       0.014287772 -0.0065136813 0.04776783 -0.009410264
000230 44 8f a2 bb 80 5f e9 bc 0d f0 01 bd d6 40 ea bc
       -0.0049609262 -0.02848792 -0.03172307 -0.02859537
000240 8c 34 0c bd c8 cd 03 bd 79 4f 5b bd 00 63 57 bd
       -0.0342298 -0.03217867 -0.053542588 -0.052584648
000250 6b 72 b0 bb c1 bc ec bc 4b 93 da bc f2 4b 64 bd
       -0.0053847334 -0.028898599 -0.026681563 -0.05573649
000260 a0 4b 0e bd 27 73 65 3c b5 36 3b 3d 50 f6 00 3d
       -0.03474009 0.014004505 0.04570647 0.031484902
000270 9d 31 84 3a 15 34 6a bc 72 1a 28 bc 6e 32 7a 3d
       0.0010085587 -0.014294644 -0.010260211 0.06108325
000280 60 28 bf 3b e9 db 2c 3d e2 56 34 3d 3b 1a 30 3d
       0.0058336705 0.04220191 0.04402817 0.042993765
000290 70 56 8c 3c e4 b7 94 bc 97 28 03 bd d8 5f 1f 3d
       0.01713106 -0.018154092 -0.03202113 0.038909763
0002a0 ae 2d 12 3d c0 82 3d 3d e8 24 04 bc 8b b5 83 3c
       0.035688095 0.04626727 -0.00806544 0.016077777
0002b0 47 82 ba bc b6 66 cb bc bd 87 10 bd ba 5f 3f bd
       -0.0227672 -0.02482925 -0.0352857 -0.04672215
0002c0 f0 0a 48 bd 6e b7 69 bd c7 5f d7 bc 14 1a 48 3c
       -0.048838556 -0.057059698 -0.026290787 0.012213249
0002d0 3a e1 5c bd 74 aa 4d bc 11 0d b9 bb 87 c5 c8 3c
       -0.05392573 -0.012552846 -0.0056473096 0.02450825
0002e0 09 de ed 3c 1b 5f da bc c8 98 76 3c d1 69 9d 3c
       0.029036539 -0.026656678 0.015051074 0.019215496
0002f0 d9 74 f7 bc 62 cc 0a bd 86 73 b1 39 04 9c b4 bc
       -0.030207084 -0.03388632 0.00033846142 -0.02204705
000300 a1 a9 c7 3b eb a5 84 bd b1 48 17 bd f0 5d 9e 3b
       0.0060932194 -0.06476959 -0.03693456 0.0048329756
000310 71 65 36 bb e7 f6 23 bc a2 27 8e bc bd 35 01 bb
       -0.002783146 -0.010007597 -0.017352883 -0.0019715868
000320 93 3b 2c 3c 97 97 38 bd 3d f1 ac b8 2b 5e 35 3b
       0.0105122505 -0.045066442 -8.246533e-05 0.0027674537
000330 d2 76 a4 bc 05 02 cb bc b3 68 fb bc 25 27 ad 3c
       -0.02007619 -0.024781236 -0.030689573 0.02113683
000340 d4 00 98 3c 01 22 44 bd d0 9d 5d bc 52 57 4b bd
       0.018555082 -0.04788399 -0.013526395 -0.049643822
000350 62 b8 2c bc 80 6f 24 bd 07 ba d2 ba da 2f cc 38
       -0.010542007 -0.040145397 -0.0016077169 9.736391e-05
000360 5f de 27 3b 5f ec 7d 3b 65 01 2f 3c df bd 20 bd
       0.0025614721 0.0038745624 0.010681485 -0.039243575
000370 f6 4a c2 bb 1f 17 c4 3c e8 d2 86 3c f1 29 b4 3c
       -0.005929346 0.023936806 0.01645799 0.021992655
000380 c1 b6 34 bb 13 51 55 3d f2 d6 d0 3c 87 f0 48 3d
       -0.002757475 0.05207927 0.025493119 0.04905751
000390 71 ba 84 3c 88 63 7f 3c 3e 14 ba ba 6b 48 97 3d
       0.016202183 0.015587695 -0.0014196706 0.073868595
0003a0 29 6e 04 3d ce fe c1 3c 24 83 93 3d 0b 93 83 3d
       0.03233162 0.02368107 0.072027475 0.064245306
0003b0 3b 58 65 3d 68 35 07 3d 5f 58 90 3d d8 5c 93 3d
       0.055992346 0.033009917 0.070481054 0.07195443
0003c0 8e 91 aa 3d 5d 13 84 3d d2 0e 10 3d 43 50 72 3c
       0.083285436 0.06449006 0.035170384 0.014789644
0003d0 41 54 06 bd 91 bd 04 bc 15 3f 8f bc a7 19 31 bd
       -0.032795195 -0.008101837 -0.017486135 -0.043237355
0003e0 0d f3 34 bd 57 87 c0 bc a5 69 b0 bc 4e 73 5b bd
       -0.044177104 -0.023502035 -0.02153475 -0.05357676
0003f0 45 e1 4b 3d b9 2d 68 bc 54 7d 58 3d 60 59 22 3d
       0.04977538 -0.014171057 0.052853897 0.039636016

deconv2.bias f4 [64]
000000 45 cf 33 bc 99 3d a6 bd 3c fe 32 bd cc de 08 be
       -0.01097471 -0.081172176 -0.043699488 -0.1336624
000010 b1 31 0d 3d e6 fe 4b bd cb ee 31 3d d9 9c 3c bd
       0.034471218 -0.049803637 0.04344062 -0.04604802
000020 f5 9e 3c bd ed cb b5 bd c4 59 af bd 4f 38 32 3d
       -0.04605003 -0.088767864 -0.08562043 0.04351073
000030 db bb 96 3c 5e 95 c9 bd 3c 31 a6 bc e7 20 59 be
       0.018400123 -0.09842943 -0.020287149 -0.21203957
000040 9d a4 64 3b 80 d4 ba bd 68 b2 79 3d a2 59 be bb
       0.0034888156 -0.091225624 0.060961157 -0.005809025
000050 76 d6 9e 3d 1a 00 fb bd a7 e6 31 3e f0 fb af bb
       0.07755749 -0.12255879 0.17373143 -0.0053706095
000060 08 cf 80 bd 50 e4 29 be 0a ea 50 3d 4e 3b 2c 3e
       -0.06289488 -0.16591 0.051004447 0.16819498
000070 42 f1 90 bd 2c 51 9d 38 9f 3e 66 bd 5f 6b 89 3d
       -0.07077266 7.501463e-05 -0.056212064 0.067099325
000080 ae 42 9c bc 01 de a7 bc 79 07 50 be 65 b8 0c 3e
       -0.019074764 -0.020491602 -0.2031535 0.13742216
000090 8e 37 d0 bd 9f 74 34 bd 46 54 34 be 17 58 b2 bd
       -0.10166846 -0.04405653 -0.17610273 -0.08708208
0000a0 06 db 35 bd cb 4c 70 3d f8 a6 6a bd 37 c1 0b 3e
       -0.04439833 0.058666985 -0.05728814 0.13647924
0000b0 f2 9c 9d 3d 0b 26 ed bc 63 c8 ab bd 0c e9 87 bd
       0.076959506 -0.028948804 -0.0838783 -0.06636247
0000c0 e8 f7 84 bd aa 64 bf bd 92 f6 ad 3c aa 76 c4 3d
       -0.06492597 -0.09345372 0.021235738 0.09592946
0000d0 46 33 d6 3d c5 cb d3 bd fa 6e 00 bc 05 92 93 3d
       0.104589984 -0.103416 -0.007838959 0.072055854
0000e0 f7 dd 41 3e 84 1a ad bc 4b 89 a2 3d 0a 74 13 3e
       0.18932329 -0.021130808 0.07936343 0.14399734
0000f0 f8 51 05 3d bd 75 da 3d 9d 7c 21 3d 28 80 83 3c
       0.032548875 0.10666988 0.03942548 0.01605232
