contrastive_save/contrastive_weights_epoch_32.pt (torch, 749116 bytes, 8 tensors)

conv1.weight f4 [64, 3, 3, 3]
00000000: f80f 9c3d 17df d1bd 0164 183d 258d 8d3d
00000010: 77a9 a73d b737 e5bd 812a 113e 3beb e1bd
00000020: 8521 34be 404f a43d 586b 14be b01d b43d
00000030: f8d1 22be 0689 58bd ed55 493e b8b5 663d
00000040: 1be4 ef3d c66a 3b3e 10cb 41be fb54 58bc
00000050: ad02 2ebe e1e6 c3bc 3a7f 66be 4416 4abc
00000060: 695a 7fbd 0ed1 05be 80dd e3bd d47b 06be
00000070: 6ceb 27b9 5806 08be 7b06 f93c 3dec f53c
00000080: cb01 bc3c 4dc3 23be 84df 223e 32c3 ff3d
00000090: 35fb 5fbe b379 003e df5c b53d 718f 55bd
000000a0: c723 cdbb 8551 33be 110a 5cbe 4bcc 65be
000000b0: 692a 50be 831e e43d fd13 f7bd 06b4 1b3b
000000c0: 52ee 313e 2a2a 053e 64a1 183e ac03 1bbe
000000d0: 4a62 063d 4f2d 2c3e c94b 2fbe cc6d 2b3b
000000e0: 2d96 acbd f602 96bd 8ccb d73b f0e8 94bd
000000f0: 17a6 cbbd 14dc ac3d 3eab 5dbd 30d7 be3b
00000100: bf10 e43d ce64 643d 313d 2abe 5f48 3b3e
00000110: fb67 2e3e 8b14 383e 912e 9d3c 66cd c23b
00000120: 2b10 c2bd b129 1abe 94ef 21bd bbb0 f13d
00000130: 8ef7 f43d 1726 b7bc 2910 d03d 9e3e a23c
00000140: 9f64 98bb 766d 4dbe 3859 2abd 4324 323e
00000150: c023 8fbc 0013 a13b 5ba8 c83d 51eb 32be
00000160: 291c 2c3e 88e5 76bc 991f 08be c168 68bb
00000170: a186 de3d 282e bebc 6027 04be bde6 a33d
00000180: 36b9 e6bc cdc9 ac3d 263e 17be d7cb b23d
00000190: 2bd7 7b3d a132 06be da8b 99bd b646 413c
000001a0: 7166 1b3e 905a 2fbe 3907 2f3e b602 c2bd
000001b0: 55d7 01ba ac21 853b 3caa 2c3d 7ca6 bb3d
000001c0: 3d7b a0bd 8466 20be e66e c1bd 96ee 423d
000001d0: 82d6 27bd 5d7e df3c dc83 c0bd 4d81 99bd
000001e0: fef9 623e f23a 023e c473 423e bdd3 0dbe
000001f0: 3c82 24bd 3416 a2bd 944e bfbd 4832 54bd
00000200: c20f 45bd dd48 35be 3cb5 32bd de22 9a3d
00000210: 5311 fd3d 5f29 4a3d e76d f8bc 274e 02bd
00000220: 2bb8 1d3e 90e4 25be 7455 aa3d dde6 eabd
00000230: 8679 5abe a6f4 113e e6cb 653d 2945 843d
00000240: e320 3ebe a838 ca3d 70fd f93d 650f 323e
00000250: 6933 ea3d cef1 5abe 02c7 afbd 7588 32be
00000260: b633 8b3c e89e bc3c f0b3 f5bc e577 d33d
00000270: 5fee 3bbe 3894 823d 1a27 d3bc 5ade 303e
00000280: 2406 013e 87d8 eabd 1362 94bd c377 dc3d
00000290: 3dd2 6bbd c4ff e43b 174c 383e a684 bcbd
000002a0: 79fb 383c 5190 5f3d 69ea ebbd 8079 393d
000002b0: a44d 00bd c2fc 863c 28f3 4c3d e9dc 0d3d
000002c0: c15d 14be d1a6 1abe 5413 dc3b 40de 0dbe
000002d0: 62e0 9f3c ee62 c2bd 5f57 42be 5674 fbbc
000002e0: bbe2 d2bd c261 5abe 9501 493d d3b3 8ebb
000002f0: 3600 bc3d ade0 36be 4ead 39be 5b72 52be
00000300: ee18 eabd 127e 4abe cea3 8d3c a0fe 53bb
00000310: 0fea 78be 73fe a4bd 5e24 87bd 832a cbbc
00000320: f4d2 bc3d 3072 473e e7b7 9ebd ba50 2bbe
00000330: 9498 693c a6a5 be3d 5b30 6cbd 9fb4 bfbd
00000340: 3d8c be3d 3fba 643d f069 473e 311e b53c
00000350: 47d6 873d dc70 f23c e2fb b7bd 6003 6bbd
00000360: dd7f 11be 1365 273e f9b6 c1bd ca43 a7bd
00000370: f444 25be e462 3b3e 5008 01be 0d10 4dbe
00000380: 19ea b03d 05f7 2e3d 4b49 113e e44a ec3d
00000390: 4080 ca3d 5fbb 0ebe 2ccd 193e bcea b73d
000003a0: a87b cc3d 300e 21be 415a 263e ac9a de3d
000003b0: f57c 653d ff8f e2bd e699 d33c c5f9 2f3d
000003c0: 0d11 853d b727 e7bd 5493 49be 2278 8cbd
000003d0: fdec 2abe d7f1 ca3a 2a4e 37be a6e4 ce3d
000003e0: 3587 ecbd 14bc 34be eead bdbd 2ad7 08be
000003f0: 0deb 6ebd a331 57be 2a60 64bd 3285 17bc
0.07620233 -0.10247629 0.037204746 0.06911687 0.0818662 -0.111922674 0.1417637 -0.11031195
-0.17590912 0.08022928 -0.14494073 0.08794725 -0.15900409 -0.05286505 0.19661684 0.056325644
0.117134295 0.1830245 -0.18925118 -0.013203855 -0.16993208 -0.023913803 -0.2250947 -0.01233441
-0.06234208 -0.1306803 -0.11126232 -0.13133174 -0.00016014063 -0.1328367 0.030398598 0.030019874
0.022950074 -0.1599247 0.15905577 0.124884024 -0.21873172 0.12546425 0.088556044 -0.05213875
-0.0062603685 -0.17511566 -0.21488215 -0.22441213 -0.20328678 0.11138632 -0.12064359 0.0023758425
0.17376068 0.13004366 0.14905316 -0.1513812 0.03280858 0.16814159 -0.17118753 0.0026157973
-0.08427081 -0.073247835 0.006585544 -0.07270992 -0.099437885 0.08440414 -0.054118387 0.005823992
0.111360066 0.055760197 -0.16624905 0.18289326 0.17031853 0.17976587 0.019187244 0.0059448956
-0.0947574 -0.15054967 -0.03953512 0.11801287 0.1196128 -0.02235703 0.10159332 0.019805249
-0.004650667 -0.20061287 -0.041588992 0.17396645 -0.017473102 0.004915595 0.09797736 -0.17472579
0.16807617 -0.015069373 -0.13293304 -0.0035462829 0.10865522 -0.023215368 -0.12905645 0.08002994
-0.028164487 0.08436928 -0.14769801 0.087302856 0.061484497 -0.13105251 -0.07497378 0.011796644
0.15175797 -0.1712439 0.17092599 -0.09473173 -0.00049530464 0.004062852 0.042154536 0.09162614
-0.07836006 -0.15664107 -0.0944498 0.047590815 -0.040976055 0.027281934 -0.0940015 -0.07495365
0.22165677 0.12717798 0.18989474 -0.13850303 -0.040163264 -0.07914391 -0.093411595 -0.051805764
-0.04811073 -0.17703576 -0.04362987 0.07526182 0.1235682 0.04935586 -0.030325843 -0.031812813
0.15402286 -0.16200471 0.0831708 -0.11469815 -0.2133542 0.14253482 0.056102656 0.06458504
-0.18567233 0.098740876 0.122065425 0.17388685 0.11435587 -0.21381304 -0.085828796 -0.17434867
0.016992431 0.023024991 -0.029993027 0.103256024 -0.1835265 0.06375927 -0.025775481 0.1727232
0.12599999 -0.114670806 -0.07245269 0.1076503 -0.057573546 0.0069884975 0.17997776 -0.09204988
0.0112904245 0.05458099 -0.115193196 0.045281887 -0.031324044 0.016477946 0.05003658 0.034634504
-0.1448889 -0.15102698 0.0067161713 -0.13854313 0.019516174 -0.094915256 -0.18978642 -0.030695122
-0.10297152 -0.21326354 0.049073774 -0.004354933 0.09179728 -0.17859145 -0.18132517 -0.20551436
-0.11430536 -0.19774655 0.017290022 -0.0032347813 -0.24308036 -0.08056345 -0.06598733 -0.024800545
0.092199236 0.19477153 -0.0774992 -0.16730013 0.014257569 0.09308939 -0.057663303 -0.093606226
0.09304092 0.05584168 0.19474006 0.022109123 0.06632667 0.029594831 -0.0898359 -0.057376266
-0.14208932 0.1634715 -0.094587274 -0.081672266 -0.16139585 0.18299443 -0.12600827 -0.20025654
0.086384006 0.042716045 0.14188115 0.11537722 0.09887743 -0.13938664 0.15019673 0.08980319
0.09984523 -0.15728068 0.16245367 0.10869345 0.05602737 -0.11062621 0.02583022 0.04296281
0.06497393 -0.11286872 -0.19685107 -0.06858851 -0.16691966 0.0015483451 -0.17900911 0.10102205
-0.11549226 -0.17649871 -0.0926169 -0.13363329 -0.05832963 -0.21015029 -0.05575577 -0.009248065

conv1.bias f4 [64]
00000000: de85 6c3d 58e2 a8bc 58e9 8bbd 7c56 843d
00000010: 0e8e babb 021f 35bd 5681 eebd 2713 823c
00000020: d3af 5abd 2103 763d 3a8e debd e5ad a4bd
00000030: 792a ca3c 45b0 e33d b107 4b3d 7192 a73d
00000040: d57f ffbc 38f9 a9b9 7854 d3bd e3c1 ae39
00000050: 7043 253d 2321 a0bd 7c0f ce3d 5cdb c3bd
00000060: 6011 3ebd e845 cd3d 1d5f 2dbe f30c 2fbc
00000070: 20c5 763b 39d9 113e 875c 9f3a e915 febd
00000080: 791a fabd c9b7 e0bd 6e11 4fbe 1975 e8bd
00000090: 5530 58bc 0328 c23d 7b08 98bd d4f8 393e
000000a0: 09ae 1939 89e0 c93b 7e57 bfbd 5700 b23d
000000b0: 67f2 22be cd82 00be d11a fcbd 754f 8fbd
000000c0: 738f 123c bf43 f23c d971 00bd 0408 573d
000000d0: ad00 093e 2b07 aa3b 656e 5d3d 0780 a9bd
000000e0: 6105 94bc b260 bdb8 71cc f23c a1e8 47bd
000000f0: 13c5 7b3d 35f2 703d 8343 863a b751 b13c
0.057744853 -0.020615742 -0.06831616 0.06461808 -0.005693204 -0.044219024 -0.116457626 0.015878273
-0.053390335 0.060061578 -0.10866971 -0.0804098 0.024678456 0.11117605 0.049567882 0.08182228
-0.031188885 -0.00032419874 -0.103188455 0.00033332323 0.040347517 -0.0781882 0.10061547 -0.09563324
-0.04640329 0.10023099 -0.16930814 -0.01068424 0.0037654117 0.1424302 0.0012158313 -0.12406523
-0.122120805 -0.10972554 -0.20221493 -0.113504596 -0.013195117 0.09480288 -0.074234925 0.18161327
0.0001465605 0.0061608 -0.0934286 0.08691471 -0.15912782 -0.12549897 -0.12309802 -0.06997577
0.008945334 0.02957332 -0.031358574 0.05249788 0.13379164 0.005188843 0.05406036 -0.082763724
-0.018068971 -9.030233e-05 0.0296385 -0.048805837 0.06146724 0.058824737 0.0010243509 0.02164541

conv2.weight f4 [128, 64, 3, 3]
00000000: 8c96 48bc 20af 913c 8ecd 973c dd1b 5abd
00000010: 2083 b03c f982 dbbc fb88 44bc 554e 30bd
00000020: 232c 8ebb 2129 9a3c 6210 b9bc 533e 8dbc
00000030: 2a31 33bd 93e3 f6bc 291c 22bd 9a76 1a3c
00000040: 52fc 28bd e556 183d 815f 81bc b7bc 4abc
00000050: 5f83 74b9 f86e 4e3c f17a 343d b8ce d43c
00000060: d72a afbb e5ac 353d b772 86bb 97d8 90bc
00000070: 7907 cf3b 239b 6e3c 8aeb 0c3d d808 eabc
00000080: ec36 ba3b fd81 b33c 145a 063d b67b 8bbc
00000090: 788b 353d cd2d 3d3c 5ac1 283d 1755 b43d
000000a0: 539e 1a3d e674 c73d 5733 5a3d f954 943c
000000b0: 9622 b73d cbae 003d e7f6 153d 6c24 693b
000000c0: 04a2 823c a84f d63a 10d5 fa3c 7a1b 23bd
000000d0: 3ab4 31bd 290b 733c e9cc 213d 686a a4bd
000000e0: b5cb 9dbd 86ed 04bd 665f 6cbc 0319 93bd
000000f0: 74f8 05bd fb83 3c3c 498f 61bd 94f0 043c
00000100: da78 3bbb 0503 573c 84cd 70bc b189 48bd
00000110: aa86 40bd ce7a ba3b e29a 5bbd 0c6b 3bbd
00000120: 1b3c dfbc 47f7 89bc 9c1c 9cba 7ba3 293d
00000130: e82e 1b3d 8709 073c 7d30 58bc 35e1 c8bc
00000140: 6f2e 413c cbc9 2dbc 0447 80bc 3f16 903c
00000150: 35ba 0bbd 2b01 00bd 460c 19bd b5a3 24bd
00000160: 1f2a 063d 259d 09bd 4757 a73b 28d0 1ebd
00000170: 5471 92bc 1137 e0bc f7db 833a 214a 74bd
00000180: edc6 11bb 9aef 6ebc 6350 3ebd 362b 01bd
00000190: 7686 02bc 1c61 cfbb 52a7 bdbc 3e1c f5bc
000001a0: e1e2 2aba d7f4 07bd 517b 823c bbc3 203b
000001b0: 05a4 193d e633 be3c f839 6d3d 4386 c93a
000001c0: d109 233d 02fc 643d e669 313d 1fb4 a13c
000001d0: f08f 1dbc 4a05 633c 24c2 103d 0f53 063d
000001e0: a737 ef3c bd11 013b 5deb 8c3c dfd1 ddbb
000001f0: d888 45bd 5cdf 3ebd 0506 713a 99e3 c7bb
00000200: eb3f 493c d804 0c3d 9a76 b43c e421 863b
00000210: 70b1 623d 4101 e63c 17d5 cc3c b843 263d
00000220: 4471 073d b015 22bc d58e a6bb 3939 6a3c
00000230: 79a0 443c 4e3d 78bc 27e2 093d b351 3939
00000240: b0b1 ab3c fbab 533d 32a6 813d 3949 cf3c
00000250: 6037 7e3d e322 513d a240 7c3d 9673 a5bc
00000260: aad2 15bc 3536 083d fe06 ad3c a700 823d
00000270: afe5 8abb 87fc dcbc 98d4 023d f301 fb3c
00000280: c8cd 783c 4749 18bd da34 833c 4c0f 083d
00000290: dc22 16bd acde dabc 04e2 4ebd d483 91ba
000002a0: c24f 393d 484b 0cbd 5517 29bd e90a 933d
000002b0: c88a a03d 5ebc c53d 35b7 d33c b16d 613d
000002c0: 303a 9e3d 3986 3a3d 5982 b93d ffb5 983d
000002d0: 7a0f 0e3d a5cd cc3c 9a6f e13b 7caa 6bbc
000002e0: 84d2 713c 2779 83bb b32b 263d 9af4 2a3d
000002f0: d20f 853d 7dd3 acbd 9d3a a9bd 4780 84bd
00000300: d3f1 19bd 9d62 12bd 82c0 453c 6f20 0fbd
00000310: 7444 43bd 32dd dd3c bdf6 3b3d fdb7 fa3c
00000320: e0f7 9fbc 95b7 2a3d 55e3 dd3a a4b9 233d
00000330: 6d02 2a3d 01e0 283c 4e97 103d cdee 4bbd
00000340: 48ab 25bd 9c68 bb3c f959 e3bc 562f 00bd
00000350: 1842 fd3b f423 e73b f891 d13c 9361 253d
00000360: b81b fbbb a874 5c3d f59b 463d 49ae f73c
00000370: 12f0 a5bc 8a8d b63c 94c1 7d3c 74ae b2bc
00000380: 98ea a23c 946b 2f3c de7f 373d d2f2 74bc
00000390: 4b66 273b d3d3 3e3c 9283 cabc ab8d 08bb
000003a0: 3f5c c83c 8a82 8abb 5187 b5bc 7f27 23bd
000003b0: 66fb 7fbd 8fd0 d0bb 61a8 353c d69b 18bd
000003c0: be70 4d3c 24a9 c6b9 b6b5 51bd 7b1d 8fbc
000003d0: abec b0bc 49d3 4abd 2e33 39bd 452c 17bd
000003e0: 97af 63bd 1aaa 60bc f56c 72bd 2871 2ebd
000003f0: dcb4 eabd 05e3 e7bd 8602 81bd c957 b0bd
-0.012242924 0.017783701 0.018530633 -0.05324923 0.0215469 -0.026795851 -0.011995549 -0.043043453
-0.0043387576 0.01881844 -0.02259082 -0.017241633 -0.04374806 -0.030137813 -0.039577637 0.009427691
-0.041256256 0.037192244 -0.01579261 -0.012374095 -0.00023318593 0.012599699 0.04406256 0.025977477
-0.005345683 0.04435434 -0.0041030305 -0.017681403 0.0063180295 0.014563355 0.034404315 -0.02856867
0.0056828167 0.02191257 0.03280075 -0.017026763 0.04432246 0.011546564 0.04120002 0.08805292
0.037748646 0.097390935 0.053271618 0.018106924 0.089421436 0.031416696 0.036612418 0.0035574688
0.015946396 0.0016350644 0.030619174 -0.039821126 -0.043384768 0.014834204 0.03950206 -0.08028108
-0.0770487 -0.032453083 -0.014427042 -0.07182505 -0.032707646 0.011506076 -0.055068288 0.008113999
-0.0028605969 0.0131232785 -0.014697436 -0.048959438 -0.047003426 0.005690909 -0.053614505 -0.045756385
-0.02725034 -0.016841544 -0.0011910382 0.041415673 0.03788653 0.008242018 -0.013195154 -0.02452145
0.011790856 -0.010607193 -0.015658863 0.017588733 -0.034113128 -0.031251114 -0.03736522 -0.040195186
0.032755014 -0.03359713 0.00510684 -0.038772732 -0.017876305 -0.027370008 0.0010060061 -0.059641007
-0.0022243813 -0.014583493 -0.04646338 -0.03153535 -0.007966628 -0.006328715 -0.023151074 -0.029920693
-0.0006518793 -0.03319248 0.015927942 0.0024530727 0.037509937 0.023218106 0.05791661 0.0015375096
0.039804284 0.055904396 0.043313883 0.019739209 -0.009616837 0.0138562415 0.035341397 0.032794055
0.029201342 0.001969441 0.017202074 -0.0067694033 -0.048226207 -0.04659973 0.00091943174 -0.00610013
0.012283306 0.034184307 0.02202921 0.0040933955 0.055345 0.02807677 0.025003953 0.040591925
0.033067003 -0.009892866 -0.005082945 0.0142958695 0.01200115 -0.015151335 0.03366294 0.0001767341
0.020958751 0.051677685 0.06330527 0.02530347 0.06206453 0.05105866 0.061585076 -0.020196717
-0.0091444645 0.03325482 0.021121498 0.06347781 -0.004238806 -0.026975883 0.031941026 0.030640578
0.015185781 -0.037179258 0.016016413 0.033217713 -0.03665434 -0.026717506 -0.050508514 -0.001110191
0.04524208 -0.03425148 -0.041282017 0.07179815 0.078389704 0.09655069 0.025844196 0.05503625
0.07725942 0.04553816 0.09058065 0.07456588 0.03468273 0.025000403 0.006879759 -0.014383908
0.0147596635 -0.004012245 0.04056902 0.041737176 0.06497158 -0.08438776 -0.08263133 -0.064697795
-0.037584137 -0.035738576 0.012069823 -0.03494304 -0.047672704 0.027083013 0.045889605 0.03060531
-0.019527376 0.041678984 0.0016928712 0.039971963 0.04150622 0.010307313 0.035300545 -0.049788285
-0.04044655 0.02287703 -0.027752863 -0.031295143 0.0077288263 0.0070538465 0.025582299 0.040376257
-0.0076632164 0.05382219 0.048488576 0.030234473 -0.020256076 0.022284288 0.015488047 -0.021811701
0.019887254 0.010706801 0.044799678 -0.014950471 0.002554315 0.0116471825 -0.02472094 -0.0020836394
0.024458049 -0.0042269873 -0.02215925 -0.03983259 -0.06249561 -0.0063725184 0.011087508 -0.03725799
0.012539087 -0.00037891523 -0.051198684 -0.017470112 -0.021597227 -0.049517903 -0.045214824 -0.036907453
-0.055587377 -0.01371243 -0.05918594 -0.042588383 -0.114602774 -0.113225974 -0.062993094 -0.08610494

conv2.bias f4 [128]
00000000: 97b9 d9bc 96a1 86bc 7f04 0c3c c6db e83a
00000010: e512 4bbc 61b2 a1bc 2a1d 6d3d 4c93 553b
00000020: d885 f3b8 a121 f03b 027e 3f3d e0e5 413c
00000030: e9fa 51bc 852a 8abb 12e0 403c 56b8 583d
00000040: 432c 453c a75f f73c aab5 9dbc 76c1 3d3d
00000050: 5279 103d 1d83 41bd 951c b13a 5ca7 9dbc
00000060: 7afd 1e3b d6f2 e9bc 4d4d 203c 2bc2 08bd
00000070: ba4f 41bd 45fd 7dbc f880 aa3c 3b57 13bc
00000080: 4087 3f3d 9a82 8f3c aa48 92bb 1a64 de3c
00000090: df92 4dbc 5985 04bd 1990 e4bc abc6 363b
000000a0: acaa 933c 10ff 4f3c 1cc4 c5ba 82e5 0ebc
000000b0: 3153 0d3c e289 ebbc 1866 e43c b2be a33b
000000c0: a70a 37bd f4e4 13bc 0347 1fbd 3f79 67bb
000000d0: 83e8 2cbd d711 3a3d 8f75 49bc d8b0 15bd
000000e0: fd8b 113d 19b6 0ebc 65f0 15bc 1a77 6cbc
000000f0: fec2 28bd c139 04bd ffdf f03c 6b98 8cbc
00000100: 4024 483d 69e7 823d 2f45 233d f1db 1abd
00000110: 53af 913c dcd9 a93c 07cb 4a3c 3111 113c
00000120: c9ad 10bd f1ef f23c 796d 96bb 39e9 a3bc
00000130: e26b 1a3a d491 c33c 2276 383c 95aa 113d
00000140: 2903 173b 186d b03c 6a9b 023d cd7a 1ebd
00000150: 6a4c 05bb 07ee ee3a 2277 3a3d ae90 a13b
00000160: 8d65 693c 03b5 4b3d 4bcd b13c 91de 133d
00000170: 391e f63c ffc8 29bc 99f5 563d 4640 063c
00000180: e620 73bc 68c5 92bc 4279 6dbc 5aa1 df3c
00000190: 26ca 0dbd a754 62bc 236d 383d d161 51bc
000001a0: 197c f4bc 5de7 3d3d f7d8 7cbc b9c0 293d
000001b0: 8f9c c83c 04ba 0abd 6130 b6bc d8f4 5fbd
000001c0: dc37 ba3c 2fb2 d4bc 07a5 a03c 952f f6bc
000001d0: c423 7b3d f145 b73c 3a4a 43bb f95f c83c
000001e0: 20aa d5bc 81a5 06bd d977 9e3c a09b cebc
000001f0: 6da0 833d 8a2b 2c3c 6c66 a9bc 3c81 d33c
-0.026577754 -0.016434472 0.008545994 0.0017765693 -0.0123946415 -0.019738378 0.05788914 0.0032589016
-0.00011612073 0.0073282276 0.04675103 0.011834592 -0.012816169 -0.0042164945 0.0117721725 0.05291017
0.012034479 0.030196978 -0.019251663 0.046327077 0.03527195 -0.04724418 0.0013512546 -0.019244842
0.002425997 -0.028558176 0.009784055 -0.033388298 -0.047195174 -0.015502279 0.02081345 -0.008992965
0.046759844 0.01751833 -0.0044642286 0.027147342 -0.012547224 -0.032353733 -0.027900742 0.0027889411
0.018025719 0.012695089 -0.0015088352 -0.008721711 0.008625791 -0.028752271 0.027880713 0.004997098
-0.044687893 -0.009026755 -0.03888608 -0.003532007 -0.042213928 0.04542717 -0.012296095 -0.036545604
0.035533894 -0.008710408 -0.009151553 -0.014432693 -0.041201584 -0.03228164 0.029403685 -0.017162522
0.048862696 0.06391794 0.0398609 -0.03780741 0.017783796 0.020733766 0.012377507 0.008854196
-0.035321984 0.029655429 -0.004590687 -0.02000867 0.00058907096 0.023873247 0.011258634 0.03556307
0.0023042655 0.021536395 0.031886496 -0.03869133 -0.0020339736 0.0018228897 0.04552377 0.0049305772
0.014245403 0.049733173 0.021704337 0.036100928 0.030043708 -0.010362863 0.052480314 0.008194035
-0.014839387 -0.017916396 -0.014494242 0.027298618 -0.034616612 -0.013814128 0.045025956 -0.012779669
-0.02984433 0.046363223 -0.015432588 0.04144356 0.024488715 -0.033868805 -0.022239866 -0.05467686
0.022731714 -0.02596387 0.019609941 -0.030051986 0.061313406 0.022372218 -0.002979888 0.024459826
-0.026082098 -0.03287268 0.019344257 -0.025220692 0.06427083 0.010508427 -0.020678721 0.02581846

deconv1.weight f4 [128, 64, 3, 3]
00000000: 84c3 cebb 6897 8bbc 67b4 8a3b ca5e 8abc
00000010: 1f01 803c cc67 a23c d0f8 2b3d 1caf a63c
00000020: 3a35 03bc c10a bf3c 7a70 ff3c b42e 6a3b
00000030: 4aba 233d 39df a8bc bac6 d7bb 80cc 913c
00000040: b38d 9d3c d00f f53c 7db8 80bd 743f d0bc
00000050: 4af3 cdbc 1220 43bc a69f 50bb e07b e4bb
00000060: 26d0 c2bc ee23 6ebd 6751 14bd 5c27 243d
00000070: 7cbd 83bc 5394 1c3d 8b20 bcbc 6c11 8f3c
00000080: d3bb 76bc 0203 4cbc d75d e2bc 7d08 97bc
00000090: c42b 063b 667b d0bc 6b91 453c a4b0 553d
000000a0: 47a1 343d 2252 afbc 94a5 28bb 13c2 303c
000000b0: 72d4 80bb d2b2 713b ea79 f93b c569 d73c
000000c0: 5d6b 323d a394 e23b 9974 29bd a8d1 cdbc
000000d0: acc5 08bc e832 86bc a9ee 1cbd 067e 8a3c
000000e0: 7ed7 4bbd af74 16bd 85dc 00bd 0d8a 67bd
000000f0: 8b66 a63b db2e 0fbc 7ca1 3b3c 810f 3eba
00000100: ef0a 76bc 11b9 8dba 0811 b73c 75d4 803b
00000110: 0756 2a3d a29b 5b3d ba6c bfbc 2a9f cabc
00000120: 8501 60bc e227 74bb 71cc a8bc d722 673c
00000130: cae5 d5bc 76d5 8a3c 343b d13c 5c64 e93c
00000140: dcc0 19bd b4fd a53c ceb9 a8bc b1c2 c9bc
00000150: b56b 43bb b6ab e43c 882a 203d 7232 85bc
00000160: 8e57 ec3c 8565 213d 9e81 a33b e564 643c
00000170: 3b52 2ebd bcda 3b3c d10d 053d 377f 10bd
00000180: 4d62 1f3d f545 ce3c ed5a 1bbd 56b5 38bc
00000190: 9808 143c cd07 1e3d 92eb 913c 3bb4 6c3c
000001a0: c5fa 87bc 6b28 af3b e282 b93c a435 afbc
000001b0: 21ea ac3c efdc 043b 2324 073d df05 e6bc
000001c0: 11ba 15bd 56ea febc b4bc 01bd 0045 053c
000001d0: 81d3 0f3c 3451 cd3b 959f ea3c 5b0c d7bc
000001e0: 9eae 14bd b4fe f83c 52a5 02bc 8b76 19bd
000001f0: c813 233d 16ea 7dbd fbd2 22bd 42d5 90bd
00000200: 496b 463c fe34 d6bc e546 3bbd 3f19 38bd
00000210: d1da f9bc 0a91 9cbc fa83 ccbc 1931 41bd
00000220: abea a4bc 3fef 5539 2f2b f1bc 753f 01bd
00000230: 6232 8e3c 06d0 dbba d4a5 fbbb 336d 7d3c
00000240: 4d09 3ebb 6fc2 88b9 47ec 91b7 db43 3e3d
00000250: 4fac cfbc 1995 063c 2a5e 373d 4bf8 e13c
00000260: 69dd e9bb b10e 58bd 9eb5 2c3c 2219 89bc
00000270: ae8b d8bc cf32 12bd ff9f e8bc b38c 5cbd
00000280: 45e5 563c f1dc 4cbc d21f 36bd 16da 8fbd
00000290: 5887 bcbc d773 2d3b d88e 62bc 8a82 383c
000002a0: b25b 4f3d b60b 803d a0b0 6f3d 4a8b 723d
000002b0: b881 6b3d d66e 743d b6db 933b 52ae 4e3d
000002c0: ab98 9dba b0c4 59bb b748 f8bc a561 0f3d
000002d0: 4da1 053b 167d 7a3b eb82 d6ba d7d3 76bd
000002e0: 22fb 5ebd 107e c8bc be27 40bd aafc 0cbd
000002f0: 66d2 83bb 9905 4d3c 7197 d33b 4fc1 a4bb
00000300: 0dc1 973b c4fe 8fbc d3e6 91bc 4c7b 83ba
00000310: 77a9 e8bc 359a 0abd b042 f5ba d8de a13c
00000320: 3c69 653c ddb7 14bd 5f9e 143c a5fd 9c3b
00000330: c4c3 a1bc 779a b1bc c740 e1bc e6d7 4ebc
00000340: 9826 ae3c b39b a53c caa2 213c 032e a5bb
00000350: 394f 33bd 927d 88bc 7cad fd3b ad4b e33c
00000360: 4c8a 1eba 084f d0bc 733d 303d 70c7 8a3c
00000370: 9fd3 5f3c e10f 59bc ccc5 c13c 9970 47bc
00000380: eab7 03bc f631 653b 861d 923b 1888 75bd
00000390: a449 8a3c f459 27bd e29f 58bd 1f57 16bd
000003a0: 1c5a dfbc 29aa fcbc 315f ac3c 39da f8bc
000003b0: bc95 ab34 4a06 73bc 969b 1e3d 55c2 083d
000003c0: 42e0 65bc 5530 f7bc d1bc 08bd 532f 6cbc
000003d0: 2c75 e2bc 2238 a43c bc7c 70bc 54fa 9d3c
000003e0: fe50 cc3c 5a05 d5bc 4b73 a33c aff5 913b
000003f0: 9603 7bbd 6020 d4bc d0d1 33bd db60 3c3d
-0.0063099284 -0.01703997 0.0042329314 -0.016890902 0.015625535 0.019824885 0.041985333 0.02034717
-0.008008296 0.023320558 0.031181563 0.0035733404 0.03997258 -0.020614253 -0.0065849693 0.017797709
0.019232607 0.029914767 -0.06285188 -0.025420882 -0.025140423 -0.011909502 -0.003183344 -0.006972775
-0.023780894 -0.058139734 -0.036210444 0.0400766 -0.016081564 0.03822739 -0.022964736 0.017464362
-0.015059429 -0.012451889 -0.027632637 -0.018436665 0.0020472864 -0.025449466 0.012058596 0.05217041
0.04409912 -0.021401469 -0.0025733458 0.010788458 -0.0039315755 0.0036880267 0.0076134102 0.026295552
0.04355942 0.0069146915 -0.04137096 -0.025124386 -0.00834791 -0.016381696 -0.03831354 0.016905796
-0.049766056 -0.036732372 -0.031460304 -0.05652814 0.005078142 -0.008739199 0.011452075 -0.0007250235
-0.015017255 -0.00108126 0.022346988 0.003931577 0.04158595 0.05361522 -0.023367275 -0.024734098
-0.013672237 -0.0037255217 -0.020605298 0.014107428 -0.026110549 0.01694749 0.025540926 0.028490238
-0.03753744 0.020262577 -0.020596411 -0.024628969 -0.0029818837 0.02791391 0.03910306 -0.016259406
0.028850343 0.039403457 0.004989817 0.013940071 -0.04255889 0.011465725 0.03248388 -0.03527757
0.038912106 0.025179842 -0.03792851 -0.011273703 0.009035252 0.03858166 0.017812524 0.014447267
-0.016599068 0.0053453944 0.022645418 -0.021387883 0.021107735 0.0020273288 0.032993447 -0.028078971
-0.0365544 -0.0311176 -0.031674102 0.008134127 0.008778454 0.0062657837 0.028640548 -0.026251009
-0.03629934 0.03039489 -0.007973986 -0.037466567 0.039813787 -0.06199082 -0.039751988 -0.07071926
0.01211054 -0.026148316 -0.045721907 -0.04494595 -0.030499848 -0.019112129 -0.024965275 -0.047165964
-0.02013143 0.00020402389 -0.029439537 -0.031554658 0.017358009 -0.001677037 -0.0076796804 0.01546793
-0.0028997243 -0.00026084806 -1.7395372e-05 0.04645143 -0.025350718 0.008214259 0.044767536 0.027584216
-0.00713699 -0.052748386 0.010541348 -0.016735617 -0.026433792 -0.035692986 -0.028396605 -0.05384512
0.013116186 -0.012503848 -0.04446394 -0.070240185 -0.023013756 0.002646675 -0.013828002 0.011261592
0.050624557 0.06252234 0.058518052 0.059214868 0.057496756 0.059676014 0.0045122756 0.050459214
-0.0012023648 -0.0033228807 -0.03030811 0.03500523 0.0020390332 0.003822153 -0.0016365921 -0.06026062
-0.054438718 -0.024474174 -0.0469129 -0.034420647 -0.004022884 0.012513542 0.006457262 -0.005027927
0.0046311677 -0.017577536 -0.01781026 -0.0010031252 -0.02840112 -0.03383847 -0.0018711891 0.01975958
0.014002141 -0.03630816 0.009070962 0.004790979 -0.019746669 -0.0216801 -0.027496709 -0.012624716
0.021258637 0.020215845 0.009865472 -0.0050408854 -0.043776724 -0.01666144 0.007741628 0.027746046
-0.00060478295 -0.02542831 0.043027353 0.016940802 0.013661294 -0.013248415 0.023653887 -0.0121728415
-0.008039454 0.0034972406 0.004459086 -0.059944242 0.016880818 -0.04085727 -0.05288685 -0.03670418
-0.027264647 -0.030842857 0.021041485 -0.030377494 3.1960178e-07 -0.014833042 0.038722597 0.033388454
-0.014030518 -0.030174414 -0.033383194 -0.01441558 -0.027643763 0.020046297 -0.0146781765 0.019284405
0.024940964 -0.026003528 0.019952437 0.0044543366 -0.061282717 -0.025894344 -0.043901265 0.045990806

deconv1.bias f4 [64]
00000000: 6f2a 04bc dd69 5b3d 7244 513d 9886 9ebc
00000010: 1077 1ebc d682 913c 4bb4 503d 8205 443c
00000020: cc4d 683c ae42 523d 8f1e 863c 6146 e33c
00000030: 1943 143d aef5 f2bc 74b2 bf3c 3ed4 603d
00000040: f8dd 243d 2824 2ebd 9d93 bd3c bb5a e03c
00000050: 616a 823b d713 793d 7da0 6b3c a74f a3bc
00000060: 961c ff3c 2a5a e5bb 2da4 99bc c1f6 773d
00000070: 0bc2 d03c 4e57 11bd f0fb 573d ffd1 74bc
00000080: 8ab9 0b3a aaf1 9e3c 8316 d43c f145 193d
00000090: 96c9 7b3d 6a7b 8f3d 5dcb f03c 482b ca3c
000000a0: c9e2 943c 84d8 c0bc d5e4 633d 66b0 b4bb
000000b0: 828c 443d 22f9 d93b 713a adbb c34a 873d
000000c0: 5431 343d cf9a 323d 7d15 613d a80e 483d
000000d0: 06d8 0b3c 5c96 9dbb 9406 013d 38a5 173d
000000e0: f610 653d c2ca bd3c 5f3e 84bc 9c58 b5bc
000000f0: 4a7e 16bd 0dd6 12bc 83df cabb e9e0 2abc
-0.008066758 0.053567756 0.051090665 -0.019351289 -0.009671941 0.017762583 0.05095319 0.011964204
0.0141787045 0.051333122 0.016371993 0.02774352 0.0361968 -0.029658165 0.023400523 0.05488991
0.04025075 -0.04251495 0.023141677 0.027387014 0.0039799665 0.060809936 0.014381525 -0.019935442
0.03114156 -0.006999274 -0.018755043 0.060538057 0.025483152 -0.03548365 0.0527305 -0.014942645
0.00053300767 0.019402344 0.02588964 0.037420217 0.061471544 0.07005961 0.029393846 0.024678841
0.018174546 -0.023540743 0.055638153 -0.0055141924 0.04798556 0.0066520134 -0.005286508 0.066060565
0.043992355 0.04360467 0.054952133 0.048842102 0.008535391 -0.004809184 0.031500414 0.0370228
0.05592438 0.023167972 -0.016143022 -0.022136979 -0.036741532 -0.0089621665 -0.0061911955 -0.010429599

deconv2.weight f4 [64, 64, 3, 3]
00000000: 723c dcb9 76e1 b5bc 5bc7 2d3d 4d7e 773b
00000010: a88a 12bc e18f 6c3c de62 b83c f615 9abc
00000020: 1e6b d1b9 8eaa c23c 3c76 dabc 112b 573d
00000030: cb6f 98bc 15d7 78bb 1ff5 7db8 9701 223d
00000040: 6e51 253d c917 b03c c35a 6bbc 20fe 1f3c
00000050: 81e1 38bc 4fa9 69bb e5cd 533d 61df edbc
00000060: 7e8d d3bb 6e17 383d cdcd 2b3c 411c a0ba
00000070: 6556 093c c771 9e3c 649e 09bb 5ed4 c9bc
00000080: cdcf 173d 9037 e0bc cbe6 2abd 5369 d9bc
00000090: 5ed5 973a 56f5 2f3b 8b08 5b3d 62ce 3b3d
000000a0: 116e 663c 54bd 273d d7f9 673d b54e d13c
000000b0: f255 6a3d 2ca1 343c 8562 a93b 9d15 00bd
000000c0: cba5 e0bb ecdc 9a3c f7ed 6b3c dccd 0cbd
000000d0: d3f3 18bd 848c 75bc 6b76 b0bc a872 b7bc
000000e0: c4e8 f9bc 1bd8 e13c edf4 653c 76d0 463c
000000f0: 7b61 6bbd 3ed7 d0bc 828f 11bd c5d2 d83b
00000100: ac9e 0bbd 9e76 a9bc d81c 0f3d 5fea c0bc
00000110: 4c64 b0bc 20b3 e4bc a4a6 0dbd 707f bb3c
00000120: 73e4 7c3c 604d 4ebc 6b15 113d 5941 fa3b
00000130: 6df1 883c b130 453d 023e 253d 29e2 673d
00000140: db0e 033c c3cc d63b fbb6 fd3b 1ce6 543d
00000150: c88d c63c 27f1 8abb 29ed 77bc 0ac8 843d
00000160: ff5d 913c 220d 293d ebeb 813d eff1 3f3d
00000170: 49e5 c23c 53c7 213d 9411 6eba de90 8c3c
00000180: e62f d03c 2822 883d db93 843d f7cc 8a3c
00000190: e588 42bd 3f4b b03c f95d b53a ed41 9c38
000001a0: b1a8 9aba 0f4a 80bc e374 8f3c 7d8c b03c
000001b0: ad77 94bc 81db 3bbd ea78 d2bc c5f3 15bc
000001c0: 34e0 b0bb abd6 d2bc b1e6 8e3c a035 5abc
000001d0: 60e1 9dbc 8a55 d13c d3db b23a 7217 1e3d
000001e0: f91d 08bc 78ad a7bc 0c38 e5bc 4f5c 96bc
000001f0: ebd4 503c f41f 4a3d c78a 6fbc 158e 1fbd
00000200: 0978 e03c 3a3b ef3c 7f3c 7dbc 01a6 9ebc
00000210: a0c9 da3c 00e0 87bc c741 d4bc 5287 24bb
00000220: 2d1f c23c edd0 b93b 1118 613d d378 25bb
00000230: de78 b23b bc1f a7bc 5180 d1bc 9b7b 92bc
00000240: 0db5 74bc bb80 8dbc b7ca 0ebd d2d7 22bd
00000250: a820 283b 0f36 8fbc 8ace 50bc db41 40bd
00000260: f9c6 b8bc 09fc 303c d718 533d f83d 003d
00000270: dbbb 843b 04c5 f8ba ae07 59bb 2cea 643d
00000280: 9cec 263c a14e 273d 808f 143d 1f80 193d
00000290: aac1 033c fada bebc 89e9 0ebd 2d6c 043d
000002a0: 359f e23c 2306 263d d015 91bc 3274 5b3c
000002b0: 5a5f edbc e1dc dfbc a1ca 12bd 2088 4fbd
000002c0: cb2b 49bd f337 57bd dd69 cbbc 049e 8e3c
000002d0: 5f6e 4fbd ef0c 8fbc bfc5 c1bb 39bf b63c
000002e0: ec4e 973c 51d7 07bd 9f9d a03c b536 763c
000002f0: f0bf f4bc 5b92 b5bc 5de8 463c 7b30 70bc
00000300: 9213 953c 2567 5bbd 3d22 edbc 965b 243c
00000310: 162b 133a 7b7f 1dbc 786e f2bb b966 063b
00000320: 56a3 9e3c a8fb 19bd 1bd9 263b 9eeb 153c
00000330: 8612 a7bb fb6c 5fbc ed3e 85bc 1b1d 023d
00000340: ddf8 de3c 7281 12bd 8343 eabb b790 3abd
00000350: 86f7 4abb 40a1 febc 6f1f a43b 5cc4 1e3c
00000360: 354a 083a 7e43 b7bb 6448 ab3b 122a 29bd
00000370: 14d5 81bc cb68 973c 4401 9c3c baea 873c
00000380: 5439 73bb 4321 383d d66f d53c f1ec 3b3d
00000390: e722 543c db40 a03c 6575 d1b9 7cb7 7f3d
000003a0: a4c0 dc3c 3da6 823c 6599 663d 651f 543d
000003b0: b169 193d 9c68 a73c 908e 7d3d b57f 6a3d
000003c0: 5eef 853d 0d3b 513d 00c3 803c 44f5 3a3c
000003d0: 6080 26bd 85a7 42bc 3052 c4bc 1927 5abd
000003e0: 68b9 50bd 3429 cbbc 1493 cbbc 5b30 5fbd
000003f0: b855 313d bd09 61bc c277 463d db97 1a3d
-0.00042006705 -0.022202235 0.04242645 0.003776449 -0.008944191 0.0144386 0.022508081 -0.0188093
-0.00039943395 0.023762967 -0.026667707 0.052531306 -0.018607995 -0.0037969996 -6.0548187e-05 0.039552297
0.04036086 0.021495717 -0.014364901 0.009765178 -0.011284233 -0.0035653894 0.05171003 -0.02903718
-0.006456076 0.04494422 0.010486078 -0.0012215452 0.0083824145 0.019341363 -0.002099895 -0.024637397
0.03706341 -0.027370244 -0.041724008 -0.02653948 0.0011583974 0.0026849112 0.053474944 0.04585112
0.014064328 0.04095204 0.05663475 0.025550226 0.05721087 0.0110247545 0.005169215 -0.031270612
-0.0068557016 0.018904172 0.014399997 -0.03437601 -0.037341904 -0.014987115 -0.021540841 -0.02239354
-0.0305065 0.027568867 0.014035446 0.012134662 -0.05746601 -0.02549326 -0.03553725 0.0066169226
-0.03408687 -0.020686444 0.034939617 -0.023549257 -0.0215322 -0.027917445 -0.03458275 0.022887915
0.015435326 -0.01259169 0.035420816 0.0076371846 0.016716683 0.04814214 0.04034234 0.056612168
0.007999147 0.006555171 0.0077427602 0.051977262 0.024237528 -0.0042401734 -0.015132227 0.06483467
0.017745016 0.04127229 0.06343826 0.046861585 0.023790972 0.03949673 -0.0009081599 0.017158922
0.025413465 0.0664714 0.06473514 0.016943438 -0.047493834 0.021520255 0.001383721 7.450939e-05
-0.0011799542 -0.015660314 0.01751179 0.021551365 -0.018123472 -0.045863632 -0.025692422 -0.0091523575
-0.005397821 -0.025737127 0.017443987 -0.013318449 -0.019272506 0.025553484 0.0013645835 0.038596578
-0.008307927 -0.020468459 -0.027980827 -0.018354563 0.012746076 0.04934688 -0.014620489 -0.03895386
0.027400987 0.029203046 -0.015456318 -0.019366266 0.02670747 -0.016586304 -0.025910271 -0.0025105071
0.023696506 0.005670658 0.054954592 -0.0025249019 0.0054465374 -0.020400874 -0.025573881 -0.017881205
-0.014935744 -0.017273298 -0.034861293 -0.039756604 0.002565423 -0.017481832 -0.012744555 -0.046937805
-0.022555815 0.010802277 0.05153736 0.031309098 0.0040507144 -0.0018979614 -0.003311615 0.055887386
0.010188248 0.04084647 0.036269665 0.0374757 0.008041779 -0.023297776 -0.034890685 0.032329727
0.027663806 0.040533196 -0.017710596 0.013394402 -0.028976131 -0.027327003 -0.035837773 -0.05066693
-0.04911403 -0.05254359 -0.024830753 0.017409332 -0.050642367 -0.017462222 -0.0059134657 0.022307979
0.01847025 -0.033164326 0.01960641 0.015027692 -0.02987668 -0.022164514 0.012140361 -0.014659996
0.018197808 -0.053565163 -0.02894699 0.010031601 0.0005614025 -0.009612913 -0.007398423 0.0020508005
0.019364994 -0.037593514 0.0025458995 0.009150414 -0.0050986437 -0.013636823 -0.016265357 0.03176604
0.027218277 -0.03576798 -0.0071491613 -0.045548167 -0.003097029 -0.03108275 0.00500863 0.00969037
0.0005199046 -0.0055927625 0.0052271355 -0.041299887 -0.015848674 0.018482586 0.019043572 0.016591419
-0.0037113028 0.044953596 0.026054304 0.04588026 0.0129477745 0.019562175 -0.00039951052 0.062430844
0.026947327 0.01594841 0.056298632 0.051787753 0.03745431 0.020435624 0.061903536 0.057250697
0.06539796 0.051081706 0.015717983 0.011411015 -0.04064977 -0.01188076 -0.023964971 -0.053259943
-0.050958067 -0.02479992 -0.024850406 -0.054489475 0.04329464 -0.013735232 0.048454054 0.037742477

deconv2.bias f4 [64]
00000000: e57c 97bc 5b07 acbd 6544 b8bc 8008 aabd
00000010: fe15 3d3c 5f83 4bbd 9a37 603d 6353 5dbd
00000020: ee33 6abd fdde 74bd 28c1 8dbd 30d3 5c3c
00000030: a8af d23c adbd 8cbd 9e8e c9bb 34e9 fdbd
00000040: c010 8b3b c14a babd 9f91 093d 77e5 fc3a
00000050: 993a a43d 77e6 a8bd 2d0e 0a3e 825b 6abc
00000060: d5aa 10bd b6ab 08be 7852 1a3d 7369 023e
00000070: 5b32 90bd a8c5 4abb 15fc 3cbd b8c4 323d
00000080: 7629 bfbc 273b dbbc d8e3 0dbe 8d99 af3d
00000090: 2639 81bd 76ea 38bd 42fa 00be 8ac7 bbbd
000000a0: 8ea6 39bd 9cbd 8f3d 3b2c 84bd 2caf d13d
000000b0: f6b6 573d 10c1 2fbd b08d 7cbd c32d 88bd
000000c0: 4d45 66bd 16b2 a8bd d221 2ab9 b59c a83d
000000d0: d536 b43d 9d14 b4bd c04d b039 64c6 6d3d
000000e0: 8a25 043e 9026 5cbc 2614 9c3d f3dd ca3d
000000f0: dcaf 2c3d d592 8f3d d749 2c3d fc96 db3c
-0.018492172 -0.083998404 -0.02249355 -0.083024025 0.011540888 -0.049685832 0.054740526 -0.054034602
-0.05717843 -0.05978297 -0.06921607 0.013478085 0.025718525 -0.06872115 -0.0061510345 -0.123979956
0.00424394 -0.090962894 0.03358614 0.001929446 0.08018989 -0.08247083 0.1348197 -0.014304044
-0.035319168 -0.13346753 0.037676305 0.12735538 -0.070408545 -0.0030940566 -0.04613884 0.043644637
-0.0233352 -0.026761604 -0.13856447 0.08574209 -0.06309728 -0.045145474 -0.12595466 -0.091689184
-0.045324855 0.07018587 -0.06453749 0.102384895 0.05266472 -0.042908728 -0.06165856 -0.06649353
-0.056218434 -0.08237092 -0.00016225062 0.082330145 0.08799521 -0.08792994 0.00033627264 0.05805053
0.12904945 -0.013436928 0.076210305 0.09905615 0.0421599 0.07010428 0.042062607 0.026805393
