contrastive_save/contrastive_weights_epoch_6.pt (torch, 749104 bytes, 8 tensors)

conv1.weight f4 [64, 3, 3, 3]
000000 03 7a 13 3e af 3d d7 3d 4a 69 28 3e b3 92 92 3b
       0.14402013 0.10509812 0.16446415 0.0044730543
000010 de 61 e1 bd 3d 42 8f 3c aa de 29 3e 95 9c e3 bd
       -0.11004995 0.01748764 0.16588846 -0.1111385
000020 ae ab 41 be e7 8c d8 3d 81 cc 0b be 34 26 c6 bd
       -0.18913147 0.1057375 -0.13652231 -0.096752554
000030 b7 ee d8 bc 43 03 1b 3e e0 ea 32 be 2f f5 e1 3c
       -0.026481016 0.15137963 -0.1747241 0.027582733
000040 11 a3 55 bb 08 96 18 be ef 00 04 bc 87 40 2f 3e
       -0.0032598416 -0.14900982 -0.008056863 0.17114459
000050 40 85 32 3c a3 d2 b6 3d 52 1d 61 bd d4 8e fa bc
       0.010896027 0.089268945 -0.054959603 -0.030585684
000060 c9 7f dd 3d 1b 8d c3 3d f3 a5 12 be 00 ab 8f bd
       0.10815389 0.09548398 -0.14321117 -0.070150375
000070 4e 23 7f 3c ac a3 96 3d dd dc 34 3d a5 03 ba 3d
       0.015572382 0.07355437 0.044155944 0.090827264
000080 6e cc 00 3e 28 b4 01 3e 17 ab d0 bd 77 8c 17 3e
       0.12577984 0.1266638 -0.10188883 0.14799677
000090 d7 49 94 bc 47 ff 86 bd 56 db 32 be 1e 1b 60 3d
       -0.018101616 -0.06591659 -0.17466483 0.05471336
0000a0 8c dd 60 bd 59 50 28 be 1c 99 15 3e 4a 83 35 bb
       -0.054898784 -0.164369 0.14609188 -0.0027696663
0000b0 cf 7f 3d be 09 d4 4c 3d fb 84 c5 bb ed 7b eb 3d
       -0.18505786 0.0500069 -0.0060278154 0.11498246
0000c0 4a 1c 16 be ec 1e 13 3e ea 38 0e 3e 48 d7 d4 bd
       -0.14659229 0.14367265 0.13888898 -0.10392624
0000d0 d3 97 40 3e 78 eb 1c be 1d 12 26 3e 78 ec 1b 3c
       0.18807916 -0.15324199 0.16217847 0.009516828
0000e0 e8 14 3e be 7d 29 09 3d 70 68 05 3e 20 5a f1 bd
       -0.18562663 0.033486832 0.13028121 -0.11784768
0000f0 28 2c f9 3d 20 1b dd 3d b2 dc 30 be 10 6f 08 be
       0.12166625 0.10796189 -0.17271689 -0.13323617
000100 c2 dd fa bd d8 66 fa bd 82 dc 10 3e d8 9c 2b 3e
       -0.12249328 -0.12226647 0.14146617 0.1675905
000110 6a c0 c0 bd ae 22 25 3c 7a 3a e4 3d 8d 88 fd 3d
       -0.094117 0.010079069 0.11143966 0.123795606
000120 cb 6a e1 bd d4 81 cb bd d6 ae 47 bd 23 33 1f bc
       -0.11006697 -0.09936872 -0.04875072 -0.009716782
000130 4c 62 91 3d 57 be 52 3c a2 65 c6 bd 3b ec 49 3e
       0.07098827 0.012862763 -0.09687354 0.19719021
000140 36 ea fe bc bc 9d 38 be a3 7e 26 be 06 97 28 be
       -0.03111754 -0.18028921 -0.16259246 -0.16463861
000150 7b 9f 14 3e 9a 01 46 3d 2b 22 b9 3c 9e ab 86 bb
       0.14513962 0.04834137 0.0225993 -0.004109814
000160 5d 6a 1d 3e 49 0a d2 bd 33 e6 ee bd 1e 5d 3e be
       0.15372606 -0.10255868 -0.11665001 -0.18590209
000170 0c e8 f5 bc 39 ae 1d 3e 40 bc 4b bd 6d 28 e4 3d
       -0.030017875 0.15398492 -0.049740076 0.11140523
000180 de df b3 3d 20 6e 2f be 2c 6a 3a 3e ec 62 1d be
       0.08782934 -0.17131853 0.18204564 -0.15369767
000190 c2 70 83 3d 1c f8 e2 bd 8d 12 36 3c df 39 27 3e
       0.06417991 -0.11082479 0.011112821 0.1633067
0001a0 8b 01 00 3d 59 56 07 3e 6f f8 27 be ce f5 34 bd
       0.03125147 0.13216533 -0.16403364 -0.04417973
0001b0 50 06 3a be 9b d3 e0 3d 94 54 45 be f1 a1 1e be
       -0.1816647 0.109778605 -0.19270545 -0.15491463
0001c0 53 26 2b be 25 9e 5f 3d fb e1 b6 bd f8 1f 22 3c
       -0.16713838 0.054594178 -0.08929821 0.009895317
0001d0 95 94 2f be 66 c6 36 be 42 55 22 3e dd 45 b2 3d
       -0.17146523 -0.1784912 0.15852836 0.087047316
0001e0 84 20 b9 bc a8 5f 04 bd 2b 1f 3a be 40 96 28 bc
       -0.022598512 -0.032317787 -0.18175952 -0.010289729
0001f0 fe 7f f4 bb bc d6 af 3d aa 2b 57 be 83 02 4b be
       -0.007461547 0.08585879 -0.2101275 -0.19825177
000200 f4 40 ca bd 4c 97 0a 3d 6c 0b b6 3c 09 e0 3a be
       -0.0987567 0.033835694 0.022222243 -0.18249525
000210 21 d5 48 bd 98 fa f8 ba 0b 58 fb 3d 06 61 e7 bc
       -0.04903138 -0.0018995581 0.12272652 -0.028244507
000220 bd e1 8f 3d 3f ab 2f 3e f9 0a f4 3c 53 6f cd bd
       0.07025478 0.17155169 0.029790388 -0.10030999
000230 f5 52 01 3e 4c 1a 23 be 69 e0 20 3e e7 d8 11 3d
       0.12629302 -0.15928 0.15710606 0.035607245
000240 32 69 c7 bd ec 89 32 bd 61 35 ab 3d 34 a4 b6 3a
       -0.09736861 -0.043588564 0.083597906 0.0013934434
000250 c1 36 bf bc e0 fd 49 bd 42 e5 1c 3e 7e 1b 14 3e
       -0.023341538 -0.04931438 0.1532183 0.14463612
000260 7c f5 11 3e 69 64 1c be 63 dc 19 be 12 f8 f5 3c
       0.14253801 -0.15272678 -0.15025477 0.030025516
000270 81 04 66 3d 80 59 b3 bd 9b 2a e9 3c 22 2e 04 be
       0.05615664 -0.08757305 0.028462699 -0.12908223
000280 44 06 93 bc bc f4 3e 3d d2 0d b0 bd 2f 89 35 be
       -0.017947324 0.046620116 -0.08596386 -0.17728113
000290 5a 99 40 be b8 98 3c 3d f9 29 47 3d 05 55 09 3d
       -0.18808499 0.04604408 0.048624013 0.033528347
0002a0 47 08 b4 3d 37 46 a4 bd ad ac 1b bc 95 b6 35 3e
       0.08790641 -0.08021205 -0.009501618 0.17745431
0002b0 41 c5 1c 3d a1 54 12 be 6a 11 4b be cf 9e e6 3c
       0.038274053 -0.14290096 -0.19830862 0.028151898
0002c0 c7 f3 f8 3d 00 9f 3a be 4b ff 57 3c 72 90 2b 3d
       0.12155872 -0.18224716 0.013183425 0.0418858
0002d0 c0 d2 84 bd 34 94 10 3e f6 ee 3f be 65 cf 25 3e
       -0.0648551 0.14119035 -0.187435 0.16192396
0002e0 75 22 07 bd e5 1a a9 3a 5e 90 c2 3d c1 1a 67 3c
       -0.032991845 0.0012901692 0.09500192 0.0141055
0002f0 72 de bf 3d c2 46 38 be 89 13 44 3e dd ac ca 3c
       0.093686 -0.17995742 0.19148077 0.02474063
000300 c0 99 f1 bc e2 ba 42 be f0 6a df bd f5 54 25 be
       -0.029492259 -0.19016603 -0.109090686 -0.1614569
000310 e6 8f fd 3d b9 8f 88 3b f6 ff fe 3d ac 44 25 3d
       0.12380962 0.0041675237 0.124511644 0.040348694
000320 81 93 28 3d 1d ce c1 3d 95 ef 42 3e 1c 02 a6 3b
       0.041156296 0.09463141 0.19036706 0.0050661694
000330 e1 9c 04 be 07 d0 3e 3e 20 f9 2c 3e a3 41 1e 3e
       -0.1295047 0.18634044 0.16891909 0.15454726
000340 c3 90 2e be 02 e2 fc bd 42 54 01 3e 33 3f 16 3e
       -0.1704741 -0.12347795 0.12629798 0.14672546
000350 cf 2a 16 bd e3 f2 ea 3c 2b ea 19 be 88 21 b2 bd
       -0.03666192 0.02868027 -0.15030734 -0.08697802
000360 76 88 f0 bd 81 1f 9c 3d 51 d2 42 3e a4 e0 c5 3d
       -0.11744778 0.076231964 0.19025542 0.096619874
000370 a7 e1 c6 3d a8 8e de bd 97 37 71 bd f2 5e 0d be
       0.097110085 -0.10867053 -0.058890905 -0.1380575
000380 97 b0 3f be 84 4b 09 be 6e 89 7b 3d a5 02 83 3d
       -0.18719707 -0.13407713 0.06141036 0.06396989
000390 43 af fb 3d a6 e7 a6 bd ba b6 f2 3d 33 64 06 3e
       0.12289288 -0.08149652 0.118512586 0.1312416
0003a0 30 a5 c1 bc d6 a4 1d 3e 01 71 cb bd 4e 12 3b 3d
       -0.023638338 0.15394911 -0.09933663 0.045671754
0003b0 1f 1e 16 be 0b db 8e bd 3a 6f 3c 3e 74 19 79 bd
       -0.14659928 -0.06975373 0.18401805 -0.06081529
0003c0 18 2e 46 3e 1f 60 be bd e9 39 04 be e7 c4 ca bb
       0.19353521 -0.092956774 -0.12912716 -0.0061880234
0003d0 74 e7 91 3d e3 04 af 3c 47 e8 e9 3d 16 2a 3f be
       0.07124224 0.021364635 0.114212565 -0.18668398
0003e0 63 80 da 3c ae 3b 2a 3d 5d 99 13 3e e6 b4 dd bd
       0.026672548 0.04156082 0.14413972 -0.10825519
0003f0 1c 94 30 3c cd f0 e1 bc f5 92 40 be 81 84 30 3b
       0.0107774995 -0.027580643 -0.1880606 0.0026934447

conv1.bias f4 [64]
000000 af 38 d8 bd f7 78 b6 bd 61 a7 4d bd ac c7 c7 3c
       -0.105576865 -0.08909791 -0.050208453 0.024387203
000010 96 1c a8 3d 5b 26 33 be fa c9 21 3e b3 4e 1a be
       0.08208577 -0.174951 0.15799704 -0.15069084
000020 a9 d0 b0 bd b7 c4 ca 3d 8f d3 7b bd 34 30 e4 3d
       -0.08633549 0.09900802 -0.061481055 0.111420065
000030 bf 66 16 3d d4 28 24 3e 00 d0 97 bd 03 e8 84 3b
       0.03671908 0.160312 -0.0741272 0.0040559783
000040 8f 90 1d bb 8d 55 8b bd 94 3e 41 be c7 d1 fe 3d
       -0.0024042462 -0.06803427 -0.18871528 0.124423556
000050 8a 14 da 3d db c2 c6 bd 85 da 4a be 20 9e c2 3d
       0.10648449 -0.097051345 -0.19809921 0.09502816
000060 9c 98 28 3e 28 68 9c 3d 71 94 f3 bd de 69 c0 3d
       0.16464466 0.07637054 -0.11893547 0.093951926
000070 47 69 8c 3d ed 70 36 3d c3 79 15 3e b6 4b 44 be
       0.068560176 0.04454129 0.1459723 -0.19169506
000080 9d a5 28 bd d5 f0 72 bd d5 e0 c4 3d 9a 25 d7 bd
       -0.041173566 -0.059311707 0.09613196 -0.10505219
000090 ee c4 ca 3d a4 b0 8a 3d db a0 37 bd 4b f3 ed bd
       0.099008426 0.06771973 -0.044831138 -0.1161867
0000a0 3a 0f 79 bc e4 e5 49 be bf 4d 65 bc cc 14 89 bb
       -0.015201384 -0.19716603 -0.013995587 -0.0041833874
0000b0 ed 6d eb 3c 44 cf 94 3b 3e 8e ae bd 6f ae ef bc
       0.02873894 0.0045413096 -0.08523224 -0.029257981
0000c0 a4 02 44 bd 67 0f bd 3c 77 25 94 bd ef 52 08 bc
       -0.04785408 0.023078633 -0.07233708 -0.008320554
0000d0 d3 63 c1 3d 95 63 9c 3d 50 93 00 3e 17 f9 82 3d
       0.09442868 0.07636181 0.12556195 0.06395166
0000e0 39 75 6f bd 20 8a 99 3c 50 14 b9 bd 25 4a cf 3c
       -0.0584614 0.018742621 -0.090370774 0.02530391
0000f0 00 d1 ef ba 41 6c 15 3e a5 7b d4 3b 83 98 a4 bd
       -0.001829654 0.14592077 0.006484466 -0.08036902

conv2.weight f4 [128, 64, 3, 3]
000000 9f b9 d9 3c 54 25 ee bc f3 c6 ad bc c8 66 af 3b
       0.026577769 -0.029070534 -0.02121303 0.0053528287
000010 07 2e ec bc 9e 9b 3e bd ed 1a 45 3c ca f8 4d 3c
       -0.028830541 -0.046535127 0.012030345 0.012571523
000020 cd 34 13 3c 2d 64 28 bd a0 77 39 bd c8 c0 73 bd
       0.008984757 -0.04111116 -0.0452801 -0.059510022
000030 d8 79 ba bb 88 cc 5b bd 77 7f cb bc f3 93 c4 bc
       -0.0056907944 -0.053661853 -0.024841053 -0.023996329
000040 dc f0 36 bd 27 f7 5b bd e5 cc 2f bd 3c a6 87 bd
       -0.044663295 -0.0537025 -0.042920012 -0.066235036
000050 20 f9 cf bd 00 84 93 3b 54 5a c8 bc 46 0d 7c 3a
       -0.10154939 0.0045018196 -0.024457134 0.0009615015
000060 57 8a 19 3b b1 fd f1 bc fa c2 33 bd 6a 04 88 3c
       0.0023428404 -0.029539915 -0.043887116 0.016603667
000070 69 9c 87 bc 4c 99 0f 3d 1a 4c bb 3b 46 20 f6 3c
       -0.016554074 0.035058305 0.005715859 0.030044686
000080 63 1e 22 3d 16 87 da 3b 11 e7 02 bd 99 a3 10 3d
       0.03957976 0.0066689355 -0.031958643 0.03531227
000090 31 79 7e 3c ea 62 e2 bb 4f 73 44 bb 6a 12 70 bc
       0.015531824 -0.006908764 -0.0029975956 -0.014652828
0000a0 83 2d 19 bc 29 cc 0d bb dd d5 d4 bc 60 2b b9 bc
       -0.00934923 -0.0021636582 -0.025980884 -0.02260369
0000b0 05 72 2b bd 94 4c a2 bb 8d 8f 19 bd 35 7c e6 bb
       -0.041856784 -0.0049529765 -0.037490416 -0.0070338496
0000c0 a2 a3 81 bc b5 9c 17 3d d9 31 76 3c db 71 eb bc
       -0.015825097 0.03701468 0.015026533 -0.028740814
0000d0 e8 e4 81 bc 87 a8 0f bc b1 85 8a bc 04 b5 21 bd
       -0.015856221 -0.008768207 -0.016909452 -0.03947927
0000e0 d5 51 0d 3d eb 8a ea 3c c9 1f 1c bd fb 69 03 3d
       0.03450187 0.028630694 -0.03811625 0.032083493
0000f0 6d b8 80 bb a2 a3 d6 bc 0f 6d a8 3c f4 73 29 3d
       -0.0039282353 -0.026201073 0.020559816 0.041370347
000100 5c 1b 03 3c 89 51 07 bd 4e ff 21 3c b8 56 03 3d
       0.008002128 -0.033036742 0.00988753 0.032065123
000110 74 3a bc bc 30 35 8c bc c5 d3 5a 3c 88 0a c6 bc
       -0.022977091 -0.017115206 0.013356154 -0.024174944
000120 8f 87 a6 bc 47 84 8c 3b 72 dd 09 bc e2 cb 31 bc
       -0.020328311 0.0042882296 -0.008414613 -0.010851832
000130 44 ef 41 3c ec 57 67 bd 35 0a ba bc a2 dc 5b bd
       0.0118368305 -0.056480333 -0.022709945 -0.05367721
000140 89 68 4d 3c a9 26 c3 3c e7 31 2e bd 9e 99 77 bc
       0.01253713 0.023822146 -0.04252806 -0.015112309
000150 8d fa 13 bd 8c 43 2d bd f1 78 c3 3b c0 3b ae 3c
       -0.036127616 -0.042300746 0.005965345 0.021268725
000160 ac e3 25 bd 90 08 16 bd d7 ed d7 3c ec 04 2e bd
       -0.040500328 -0.03662926 0.026358528 -0.042485163
000170 0b 66 cc bc d6 a7 49 bd 4c 69 40 bd c0 f7 42 3b
       -0.024951002 -0.049232326 -0.04697542 0.0029749721
000180 b1 55 c1 bb 25 7b 1c bc 94 ce a8 bb 5d a2 1d bd
       -0.005900108 -0.009550844 -0.005151579 -0.03848492
000190 4f 0c 47 bd be 40 9f bd 6a 1f de 3a 83 4c 02 bd
       -0.048595723 -0.077760205 0.0016946618 -0.03181125
0001a0 08 85 d9 bb 86 3a df bc ca 5e a7 bc d8 b2 89 bc
       -0.006638173 -0.027249586 -0.020430941 -0.016808912
0001b0 da 98 22 3c 23 86 55 3b 5b 97 d8 bc d8 61 b6 3c
       0.009924138 0.0032581172 -0.02643936 0.022263452
0001c0 77 58 d2 3b 6c bc 5c bc d0 6c bd 3c 13 63 d2 3a
       0.0064192372 -0.013472658 0.023123175 0.0016051255
0001d0 b1 bd b9 3c 42 ed 93 bc a9 9d 3f 3c 79 39 89 bc
       0.02267346 -0.01805747 0.011695304 -0.016751038
0001e0 fd 92 d0 ba 45 78 3d 3b ac 52 e0 bc 21 e6 d6 bc
       -0.0015912947 0.0028910798 -0.027383171 -0.02623278
0001f0 f9 10 46 bd 85 38 1f bc 65 e7 ee bc 81 d4 fb b9
       -0.04835603 -0.009718065 -0.029163072 -0.00048032778
000200 de de 05 bd 1e 4e 63 3c ac e1 30 3c e9 db a8 3c
       -0.032683246 0.013873605 0.010795992 0.020612674
000210 e7 81 51 bd 74 c6 aa 3c b5 18 10 bd e0 90 17 3d
       -0.051149275 0.020846583 -0.035179812 0.037003398
000220 e8 5f ac 3b d1 54 66 bb d6 1f 64 3a 39 40 0f 3d
       0.0052604564 -0.003514577 0.00087022537 0.034973357
000230 bd a4 91 ba 48 4f 9c 3c 16 56 30 bd 95 a0 4e bc
       -0.0011111718 0.019080773 -0.043050848 -0.012611528
000240 ad 2a 12 bd 8e 9a 9a bb d4 7e 38 bd 59 c8 94 bd
       -0.03568523 -0.0047181314 -0.045042828 -0.07264776
000250 d7 7e 9c bc a2 c7 a0 bc f4 14 0b bd 05 0e 6e bd
       -0.01910345 -0.019626442 -0.03395553 -0.05811884
000260 53 d0 15 bd 4d 5a 12 bd 10 ed bb bb eb 02 88 bd
       -0.036575627 -0.03573065 -0.005735047 -0.066411816
000270 d9 71 43 bd eb c9 61 bd 58 49 20 bd 83 c4 44 bd
       -0.047715995 -0.055124205 -0.039132446 -0.04803897
000280 2a ed 30 bc 24 ac f3 3c 3e 17 28 bd 3d 4f fc bb
       -0.010798732 0.029745169 -0.04103779 -0.0076998756
000290 77 bb 1e bd ae cc da bc 7d bf ed 3c d4 d2 c9 bb
       -0.038753 -0.026708927 0.029021973 -0.006159166
0002a0 89 2d 11 ba cf 29 f6 3c c5 bb 98 bc 0e 3c b4 3b
       -0.00055380963 0.030049233 -0.018644223 0.005500323
0002b0 76 4e af ba 73 d0 2d bd 31 b9 b1 3c 6e 5d 4a bd
       -0.0013374824 -0.04243512 0.021694751 -0.049405508
0002c0 12 17 2f bd 13 19 24 3c ef 44 0f 3b 3b 14 11 3b
       -0.04274661 0.010015744 0.0021861156 0.0022137302
0002d0 c0 1e 00 bd a4 de f0 3b 44 06 ea bc 35 0a 9f 3b
       -0.031279325 0.0073507596 -0.02856744 0.0048535117
0002e0 ce ab aa 3c e7 a0 05 3c 42 24 d3 bc 4d 30 34 bc
       0.020833876 0.008156038 -0.025774125 -0.010997844
0002f0 55 75 65 bd 26 6a 7e bc 1e c3 23 3d d2 67 96 3c
       -0.0560201 -0.015528237 0.039981 0.018360052
000300 e2 c5 1d 3a 67 85 19 bc 4c c6 a9 3c fa 52 a0 3c
       0.00060185615 -0.0093701845 0.020724438 0.019570816
000310 5c 4c 00 3c c4 e4 d9 3c 0d 43 e6 3c 96 ea d6 3c
       0.0078307055 0.026598342 0.028108144 0.026234906
000320 e2 04 1b 3d 4a d3 13 bd 85 16 9a ba 04 3f 34 3c
       0.037846453 -0.036090173 -0.0011755979 0.011001352
000330 f2 a3 9f bc 7e 49 a6 bc 59 9f f8 bb 6e b1 d9 bc
       -0.019487355 -0.020298716 -0.007587355 -0.026573863
000340 98 9c 1e bc d9 f1 8e 3b 86 16 26 3d b0 39 26 3d
       -0.00968089 0.0043623266 0.040548824 0.04058236
000350 86 de a1 bc 95 26 4c 3c 2b 7b 3d bb d0 b8 43 3d
       -0.019759428 0.012460371 -0.0028912525 0.047783673
000360 02 06 c6 3c 17 c7 8f ba 20 6f 0f 3d b0 eb 3b bc
       0.024172787 -0.0010969368 0.035018086 -0.0114697665
000370 d3 6b c8 3c b8 1a 62 bc a2 58 44 3c 71 a2 2a 3c
       0.024465477 -0.013800316 0.011984022 0.010414706
000380 06 66 2a bd 7c 83 3f 3c eb df 18 bd b6 26 8e 3c
       -0.041601203 0.011689063 -0.03732292 0.017352443
000390 ae 77 a7 bc e2 98 ef 3b 93 15 0f 3b 58 0b bf 3c
       -0.02044281 0.007311926 0.0021832928 0.023320839
0003a0 f6 4c 87 bc ad 7f 5f 3c c7 3d 02 3c 78 a6 79 bb
       -0.01651619 0.01364128 0.007949299 -0.0038093608
0003b0 40 40 d2 bc 3c b8 16 bd ed 53 01 3a 30 f4 36 3c
       -0.025665402 -0.036796793 0.00049334654 0.011166617
0003c0 05 60 ca 3c f0 d4 64 bb 67 49 06 bd c7 01 2b bd
       0.024703989 -0.003491696 -0.032784846 -0.041749742
0003d0 4c 2d 38 bd 85 87 11 3d bd 47 e3 3c bd 58 f8 3c
       -0.044965073 0.035529632 0.027744168 0.030315751
0003e0 2d a5 0b bc 68 0a 19 bd c8 e0 05 bc b9 55 15 3c
       -0.008523268 -0.03736344 -0.008171268 0.009114676
0003f0 65 2c f9 bc 3b f5 02 3d 99 0c 64 3c b2 4e 23 3d
       -0.030416677 0.03197215 0.013919019 0.03986997

conv2.bias f4 [128]
000000 87 81 0d 3d 26 b6 fe 3b d8 8e 04 3b 59 38 e8 3c
       0.034547355 0.0077731786 0.0020226743 0.028347181
000010 14 e6 9a 3c 57 09 16 bd 58 93 51 3c ce 93 c2 3c
       0.018908538 -0.03663 0.012791477 0.02375212
000020 bd 56 4e bc 4c 93 17 3d 02 a1 33 bd fc e2 b9 bc
       -0.012593922 0.037005708 -0.04385472 -0.022691242
000030 4c c1 12 3b 14 18 b3 bc 3f 83 dc 3c fe f7 e5 3c
       0.0022393046 -0.021862067 0.026918052 0.028072353
000040 5e 72 f6 3c cd 7b 12 bd 8f d6 8c bc f0 28 0d bd
       0.030083831 -0.035762597 -0.017192153 -0.03446287
000050 25 7d 4d 3c 77 70 9a 3c bd 50 ef bc 77 1c a1 3b
       0.012542044 0.018852456 -0.029213304 0.0049167234
000060 09 29 af 3c 73 09 35 3c 91 04 3a bd 4f 18 0e bc
       0.021381872 0.011049616 -0.04541451 -0.008672788
000070 28 a1 04 3c 84 3a f7 3c 9c 06 50 3d e3 3f c1 bc
       0.008095063 0.03017927 0.050787553 -0.023590034
000080 e5 9a 23 bb 4b 3f 27 3d f9 ee 9d bc d3 01 03 bc
       -0.002496415 0.040831845 -0.01927899 -0.00799604
000090 23 a1 f9 bc b1 0b 32 bc 9f 69 e4 3c 9b b3 a6 bc
       -0.030472344 -0.010867045 0.027882395 -0.020349314
0000a0 34 95 fc 3c 97 28 a9 3c 10 6c 21 3d c3 24 49 bc
       0.030832864 0.020649238 0.039409697 -0.012276831
0000b0 1e fe 11 3d fc e6 ae bb 8a 2d 75 3c 13 e6 96 3c
       0.035642736 -0.005337594 0.014964471 0.018420255
0000c0 09 ed 13 bc b3 ea cb 3c 86 9b f7 3c a9 1b 6e bb
       -0.009028682 0.024892187 0.030225527 -0.0036332405
0000d0 63 ba 7b bc 0a e4 80 bc 4b f8 a2 3c 24 bd 27 bd
       -0.015364262 -0.015733737 0.019893786 -0.040951863
0000e0 6e bf 09 3d f4 cb e2 3c b3 6a 14 bd be b4 27 3d
       0.033629827 0.027685143 -0.03623457 0.040943854
0000f0 43 39 dc 3c 70 4e cf bc a0 7d 97 38 61 e8 23 bb
       0.026882773 -0.025305957 7.2236406e-05 -0.0025010335
000100 18 a8 21 bc 6a 64 1e bd 23 1f 09 3c 05 50 8f bc
       -0.009866737 -0.03866998 0.00836924 -0.017494211
000110 02 2d b3 3c 9e c7 25 bd f1 1b c8 3a 5e 73 e8 bc
       0.021872047 -0.040473573 0.0015267116 -0.028375324
000120 71 f3 06 3c 11 21 17 3d f8 9e c9 bc a9 fd e7 bc
       0.008236752 0.03689677 -0.024611935 -0.028319197
000130 99 87 0b bd 1b b0 38 3d 28 5a fd 3c bd b8 06 bd
       -0.034064863 0.045089822 0.030926779 -0.032891024
000140 ce 18 25 3d c0 09 14 bd 4a fd 13 3b 32 02 5a 3d
       0.04030686 -0.03614211 0.0022581392 0.05322475
000150 bf 55 3d bc 1e 6e e0 3c f8 24 03 3d 2f af 25 3b
       -0.011556088 0.027396258 0.032017678 0.002528142
000160 1f c6 db 3a 56 5c a8 bc 59 cf f2 b9 eb 9e 36 3d
       0.0016767419 -0.020551842 -0.00046312323 0.04458515
000170 9c df 3b bc e1 fc d4 3c 1f 20 7f 3b 6b e2 0b bd
       -0.011466887 0.025999488 0.0038929058 -0.034151476
000180 b6 2e 70 bc b6 3b fe bc be 5c d1 3b 76 f2 f9 bc
       -0.014659574 -0.031034332 0.0063892296 -0.030511122
000190 72 da ab bc 0e d3 93 bc 54 6f 18 bc fa c1 29 bd
       -0.020978186 -0.018044975 -0.009303886 -0.041444756
0001a0 8b 41 82 bc 35 36 fd 3c 35 aa 93 bb 03 35 0a bc
       -0.015900394 0.030909637 -0.0045063742 -0.008435491
0001b0 c4 89 09 3d 4c 7d 2f 3b 7f 65 71 3b ce df f3 3b
       0.03357865 0.0026777564 0.0036834178 0.007442451
0001c0 67 75 fe bb c1 1e f0 bc 1b 9c b3 bc 90 5e 67 bb
       -0.0077654603 -0.02931154 -0.021925023 -0.0035304166
0001d0 22 74 a5 bc 76 48 29 bd 0e 43 79 3b a0 d4 fd bc
       -0.020196978 -0.04132887 0.0038034352 -0.030985177
0001e0 d8 35 89 bb 0e f2 e0 3c 0e f3 c0 b9 70 6e 11 bd
       -0.004187327 0.02745917 -0.00036802184 -0.035505712
0001f0 fa 69 03 bd 92 39 41 3c b2 07 53 bc f8 0a 01 bc
       -0.03208349 0.011793511 -0.012880253 -0.00787615

deconv1.weight f4 [128, 64, 3, 3]
000000 f2 88 0a bd 72 fd d3 3b 78 99 38 bd 1f 0f 24 bd
       -0.033822007 0.006469422 -0.045068234 -0.040053483
000010 84 e5 c7 3c 4d 13 3e bd c8 db 8c bc 1f 29 fe bc
       0.024401434 -0.046405125 -0.017194644 -0.031025467
000020 34 ff a2 bc 8e 3e 43 3c 04 9d dd ba e5 cf 6b 3d
       -0.019897081 0.01191677 -0.0016907756 0.05757131
000030 d0 67 47 3c 7c 73 de 3b 30 0c 08 3d 7d 63 08 3c
       0.012170747 0.006788669 0.033214748 0.008324501
000040 38 84 c6 bc 15 54 4a bc ef b9 3b 3b b1 20 33 bd
       -0.024232969 -0.012349148 0.002864476 -0.04373235
000050 2a 07 b5 3c 93 b3 9a 3c 45 b5 8b bc 84 13 89 bc
       0.022098143 0.018884456 -0.01705421 -0.016732939
000060 66 4e 1f 3d ac 87 d1 bc a4 d4 16 3c 31 56 09 3d
       0.038893126 -0.025577389 0.009205971 0.033529464
000070 0a ad 9f 3c f7 fa 93 bc 17 84 10 3d 1e 2d 5f 3c
       0.019491691 -0.018064005 0.03528222 0.013621597
000080 e8 c4 19 bd 34 fc e4 bc e4 03 a1 ba 3c 53 59 bc
       -0.0375413 -0.027952291 -0.0012284485 -0.0132644735
000090 ef 62 13 bb c1 cf 64 3c 6b 23 23 bd 44 d3 11 bd
       -0.002248939 0.013965548 -0.0398287 -0.03560187
0000a0 62 32 2d 3d 50 f0 8c 3c bc 3e ba 3b 45 54 e5 3c
       0.042284377 0.017204434 0.005683748 0.027994284
0000b0 c9 ce 32 3d 10 04 9e 3c ee ae d9 bc e7 cd 22 bd
       0.043654237 0.019289047 -0.02657267 -0.039747145
0000c0 ad 1f ca 3c aa 26 e0 bc 79 ce 25 bd fc 18 7b 3c
       0.024673307 -0.027362186 -0.04048011 0.015325781
0000d0 62 59 05 3c c4 c1 8f 3b 4f 47 43 3b 0a 24 68 bd
       0.008138986 0.0043871123 0.0029797142 -0.056674995
0000e0 e4 f1 7a bd 56 df 5d bd 58 94 ed bc 72 fe 4d bd
       -0.06126584 -0.054168068 -0.0290014 -0.050291486
0000f0 19 ee 70 bd 14 e4 4d 3c 41 19 8a bd ea 2e b2 3c
       -0.058820818 0.012566585 -0.06743098 0.021750886
000100 b1 69 d3 3c 1c 90 67 3d 2d 31 c8 3b 82 c6 0d 3d
       0.025807234 0.056533918 0.006109378 0.03461314
000110 db 72 69 3d eb 35 5f 3d 5d 83 b9 3c dd 19 7b 3b
       0.0569943 0.05449478 0.022645647 0.0038314976
000120 60 11 49 3c 90 6c 20 bb 42 25 ab bc 62 44 39 bd
       0.012272209 -0.002447877 -0.02089179 -0.04523123
000130 10 60 9b 3c 39 6a 45 3c 88 05 30 bd 8a fd ea 3c
       0.018966705 0.012049251 -0.042974025 0.02868535
000140 d7 ac 26 bd f4 a0 35 bd eb 38 b7 3c ea c7 0f 3c
       -0.040692177 -0.04434295 0.022366008 0.008775691
000150 d8 5e 2e 3c 16 e3 c0 3c cf aa 6c 3c b7 af 20 3c
       0.01064273 0.023545783 0.014445021 0.009807519
000160 a9 8a 9d 3c 4e 6b 06 3d d7 e4 56 bd 11 75 40 bd
       0.019231157 0.032817177 -0.052464332 -0.046986643
000170 92 2e 39 bd df 54 90 bd e7 c9 96 bc d4 30 8b bc
       -0.04521043 -0.07047438 -0.018406821 -0.016991057
000180 99 a9 47 bd 37 ab bd bc b5 cd d8 bc 2b 0b 89 bd
       -0.048745725 -0.02315293 -0.026465276 -0.06691583
000190 59 1c 0b bc 19 a9 07 bd 3f 96 8a bd 17 b7 d8 bc
       -0.008490645 -0.03312025 -0.067669384 -0.026454492
0001a0 ad 13 83 bd 7b a5 a3 3b 73 a4 3e 3c 50 7c 49 bd
       -0.06400237 0.004994092 0.011635887 -0.04919082
0001b0 90 9d 2d 3d 2e 8e 23 bb b4 54 9f 3c ae 74 e2 bc
       0.04238659 -0.0024956572 0.01944957 -0.027643528
0001c0 2a 97 d0 3c a2 89 2c bb 69 95 b0 3a 6d a6 09 3d
       0.025462706 -0.0026327153 0.0013472262 0.03360598
0001d0 15 11 db 3c 6c 07 09 bc 64 6e ff bc 45 dc 2a bd
       0.026741544 -0.008363586 -0.031180568 -0.04171397
0001e0 b4 04 0f 3d 14 e0 db 3c d3 e8 43 bd 30 4d 86 bc
       0.034916595 0.026840247 -0.04782946 -0.016394228
0001f0 2f 39 ec bc d5 5d 89 3c 86 f0 17 3d b8 e7 c1 bc
       -0.028835861 0.016768375 0.037094615 -0.023670062
000200 df dc 14 3d 7e 05 02 3d 9b fb 5a 3c 3d f2 aa 3b
       0.03634345 0.03174352 0.0133656515 0.0052168653
000210 24 a7 06 bd 03 73 1a 3d d4 a8 12 bd 6d 00 20 3d
       -0.03287424 0.03770734 -0.03580554 0.039062906
000220 ad 13 19 bd 4e c9 05 3d 96 1c a9 bb 8e aa 25 bd
       -0.03737228 0.032662682 -0.0051608784 -0.040445857
000230 93 a8 1a 3d 61 3b b1 3c 5b e4 c7 3c 47 32 37 bd
       0.03775842 0.02163476 0.02440088 -0.044725683
000240 d3 c6 2b 3d 10 d1 d4 3c a5 47 cf 3c de a1 1c bc
       0.04193766 0.025978595 0.025302717 -0.0095600765
000250 a1 3c 5a bc 29 7a 12 bd 32 9f 69 3b 00 2a 6f 3c
       -0.013320119 -0.035761032 0.0035647866 0.014597416
000260 52 00 0f bd f5 cf a8 3c a4 74 e9 bc f5 27 05 bd
       -0.034912415 0.020606974 -0.028498001 -0.03250881
000270 db 15 14 3c 75 b9 ca bc 1b d3 10 3d 3e ed a8 bc
       0.009038414 -0.024746636 0.035357576 -0.020620938
000280 86 fc 90 bc a1 93 fe bb 59 75 57 bb b9 a7 ff bc
       -0.017698538 -0.0077690636 -0.003287634 -0.031207906
000290 f2 10 ba bc 74 c9 12 3c 00 58 dd 3c a4 26 11 bb
       -0.022713158 0.008959163 0.0270195 -0.0022148276
0002a0 21 6f 06 3d 9b 7d b9 3b 44 41 68 3c aa 93 1a bc
       0.032820825 0.0056607253 0.014175717 -0.00943462
0002b0 9b 70 f7 3b 07 da e1 3c 03 c6 bd bc 81 ae b0 3c
       0.0075512654 0.027569784 -0.023165708 0.021567585
0002c0 b0 6f 6b 39 88 02 10 bd a1 c1 0d bc 68 7f 04 bd
       0.00022452953 -0.035158664 -0.008652122 -0.032348067
0002d0 37 ce 00 3d 7b a1 e2 3b c7 b7 b8 bc fc fa d7 3b
       0.03144666 0.0069162226 -0.02254857 0.006591199
0002e0 90 59 f4 bc 27 bb c5 3b 7e 78 84 3c df 93 0a bc
       -0.029827863 0.006034273 0.016170736 -0.008458107
0002f0 98 66 f0 bc e7 dd d4 bc 0f 5f 7f bc db 69 26 bc
       -0.029345796 -0.025984718 -0.015586629 -0.010157074
000300 1b bb 66 bc 8d 43 06 bb 7c 0d 66 3c ea 1c 17 3d
       -0.014082695 -0.002048704 0.014041301 0.03689281
000310 2b 42 0c bd bd 3d 7d bc aa 38 13 bc 79 6f 61 bd
       -0.03424279 -0.015456614 -0.008985678 -0.05503795
000320 22 47 43 bd 41 c2 60 bd 17 43 40 bd bf e8 3e bd
       -0.04767526 -0.054872755 -0.04693898 -0.046608683
000330 e2 cd 76 bd e3 16 71 3c 5b 77 51 bd 9e df 82 3c
       -0.06025494 0.014714929 -0.051139217 0.01597577
000340 66 d2 94 3c 33 98 d3 3c 8d 26 ea bb 8f a6 cf bc
       0.018166732 0.02582941 -0.007145709 -0.025347976
000350 b1 6e c3 3c 4b 2c 34 3c 8f 15 f8 bc b6 b4 c3 bc
       0.023856493 0.010996888 -0.030283717 -0.02388988
000360 dc 29 25 3d 28 76 1b 3d c7 b8 e9 bc d5 e6 bb bc
       0.040323123 0.03795448 -0.028530492 -0.022937218
000370 a3 cc 5b 3b 2d d5 02 3d 63 e4 37 bc f5 45 47 3c
       0.003353872 0.03194158 -0.011223885 0.012162675
000380 05 27 93 bc 2d c2 54 3c bc 24 ba 3c 83 44 69 3b
       -0.017962942 0.012985748 0.022722594 0.0035593815
000390 4f f0 07 3d 98 12 43 bc 5e 27 4a 3d 27 ff aa bc
       0.03318816 -0.011906289 0.04935395 -0.02087362
0003a0 6b d4 ca 3b 98 dc 5b bc a6 f4 1f 3d fe b5 a7 bc
       0.006189873 -0.013419293 0.039051674 -0.020472523
0003b0 34 1b 18 3d da 0b 24 3d 91 31 fb bc e9 fa 9a bc
       0.037135318 0.040050365 -0.030663284 -0.018918471
0003c0 3a 7c f8 3c 9f 3d de bc bb 07 0c bc fe be 2e bc
       0.030332673 -0.027128993 -0.008546765 -0.010665653
0003d0 f7 6e 81 bc 01 2f ee 3b 90 7e f1 bc 3f 4e 14 3c
       -0.015799982 0.007268787 -0.029479295 0.009051858
0003e0 8d ad 46 3c 05 8e ae 3c 14 60 07 3d c6 7f 73 3c
       0.012126339 0.021307955 0.03305061 0.0148620065
0003f0 a4 cf 6e bc 03 ed 15 3d fd 24 08 3b f0 a1 54 bd
       -0.014575873 0.036602985 0.0020774 -0.051912248

deconv1.bias f4 [64]
000000 6b e0 87 bc d0 51 33 bd 35 79 25 3d fe 18 84 3c
       -0.016586503 -0.043779194 0.040398795 0.016125198
000010 e1 e7 0f 3d f5 26 33 3b 75 3e db 3c ca 14 cf 3c
       0.035133246 0.0027336453 0.02676318 0.025278468
000020 6c 14 83 bc ee be 4d 3d 21 15 34 3b a9 4e 29 3d
       -0.016000949 0.050230913 0.0027478414 0.04133478
000030 60 2d 1c 3d 41 e9 6b 3d 76 09 21 3d 66 d6 dd bb
       0.03812921 0.057595495 0.039315663 -0.006769943
000040 cf 75 10 3d 64 3f a2 3b b1 b5 e0 bc 16 58 21 bd
       0.0352686 0.0049514044 -0.027430387 -0.039390646
000050 f1 60 0e 3b 47 28 a5 3b ef fc 1e 3d 0c 35 8a 3d
       0.0021725262 0.005040202 0.038815435 0.06748399
000060 59 56 29 bd 4a 77 e3 3c df 25 12 bc 94 4f 2a 3d
       -0.041342113 0.027766842 -0.008920162 0.041579798
000070 e4 75 38 3d 03 e9 b9 bc d3 38 82 bc a6 0d 71 3d
       0.045034304 -0.022694116 -0.015896237 0.058850907
000080 11 9f 23 3d 10 5e 1e 3d e1 22 9d 3c 7d 9a 27 3d
       0.03994662 0.038663924 0.01918167 0.040918816
000090 df 20 34 bd 28 3f 1f 3d 6a eb 88 3c 80 31 42 3d
       -0.04397666 0.03887859 0.016713817 0.047410488
0000a0 63 6d 1d 3d 2c 9e 43 3d 1e 00 7d bc 26 4e f6 bc
       0.038434397 0.047758266 -0.0154419225 -0.030066561
0000b0 00 22 18 3d f1 1c 74 bc fd fd f7 3a 23 8f d9 bc
       0.0371418 -0.014899478 0.0018920299 -0.02655751
0000c0 6c fa 76 bb 93 f4 08 bd 0c 37 62 3d 75 4b 45 3d
       -0.0037685884 -0.03343637 0.055228278 0.048167665
0000d0 3d b7 de bc a9 09 57 3d 59 5d c4 3c f1 c9 a2 3c
       -0.027186984 0.052499447 0.023970293 0.019871684
0000e0 70 39 e9 3b 5c 84 6d 3c a4 9e 43 3d f8 66 3a bd
       0.007117443 0.014496889 0.047758713 -0.045508355
0000f0 0d 2d 0e bd 4d 60 d3 bc 0a f6 89 3c 3a 5a 49 3d
       -0.034710933 -0.025802756 0.016840953 0.049158312

deconv2.weight f4 [64, 64, 3, 3]
000000 7c a7 ef 3c 08 36 1a bd 50 5d 4c bc d9 1b d9 3c
       0.029254667 -0.037649184 -0.012473419 0.026502537
000010 86 f3 cf 3c 15 7a 8d 3c f0 bc 05 bd 3c 8f 2b bc
       0.025384676 0.017270127 -0.032650888 -0.010471161
000020 46 07 11 3c 48 c6 e8 3b d1 f1 07 bd b1 a7 4e 3a
       0.008851832 0.007103715 -0.0331896 0.00078832643
000030 9b 84 c7 bc 99 de 24 bd e9 6b 06 bd 2d 3f 9f bc
       -0.024355223 -0.04025135 -0.032817755 -0.019439304
000040 dc 52 ac 3c 82 87 b4 bb be 0d 08 3d e9 a5 03 3d
       0.021035604 -0.005509318 0.03321623 0.032140646
000050 55 62 0d 3d 3d 22 8d 3c 01 95 de bc 68 cf 82 ba
       0.034517605 0.01722824 -0.02717066 -0.0009980025
000060 02 38 17 3d 18 4e a4 3c 6a 96 06 bd 75 19 b9 bc
       0.036918648 0.02005677 -0.03285829 -0.022595147
000070 6d da d8 bc fe f1 0f 3d 7e 93 f9 3c 9f c2 14 bc
       -0.026471341 0.03514289 0.030465838 -0.009079604
000080 72 8e f2 3c 0c b8 25 3d d5 33 e6 bc 54 59 75 bc
       0.029608939 0.040458724 -0.028100887 -0.014974911
000090 10 af 15 bd 57 94 03 3d 08 58 6a bc 58 6f 87 bc
       -0.036543906 0.03212389 -0.014303215 -0.016532585
0000a0 30 df 00 3d 79 40 9d 3c 6e 01 ca bb 80 7f 00 3d
       0.03146285 0.019195782 -0.006164721 0.031371593
0000b0 07 4a dc 3c 57 f0 27 3d b4 13 33 3d 10 df 76 3c
       0.026890768 0.04100069 0.043719962 0.015067831
0000c0 24 0a 96 3b ee 82 15 3d 1b 67 01 bc 62 b4 17 3d
       0.0045788456 0.036501817 -0.007898117 0.03703726
0000d0 34 6a 25 3d b3 a6 38 3d c8 42 b6 bc 92 cc cd 3a
       0.040384486 0.04508085 -0.02224864 0.0015701225
0000e0 ba 58 00 bc 6f f8 a9 3c 04 8e dd bc 9b 26 0c 3b
       -0.007833654 0.020748345 -0.027045257 0.0021385315
0000f0 9b 46 bf bb fc 74 b7 ba b3 60 c7 b9 f0 10 46 bc
       -0.0058372742 -0.0013996656 -0.00038028284 -0.012088999
000100 47 83 ba bc ba fb a6 bc fa 21 f7 bb 53 b1 92 3c
       -0.022767676 -0.020383704 -0.007541892 0.01790682
000110 11 a0 02 3d 8b 0f 56 bc 10 29 bf 3c 79 3c 03 3d
       0.031890932 -0.013065229 0.02333501 0.032040093
000120 e0 e5 e4 3b c3 30 1d 3d d8 ed 9e 3c c0 fb 0e bd
       0.006985411 0.03837658 0.019400522 -0.034908056
000130 54 b0 23 bd 93 87 1c 3d 97 57 8b 3a 61 98 b6 3c
       -0.03996308 0.03821523 0.0010630962 0.022289457
000140 8d 1a 4a bc c5 d1 5a bc 11 d4 48 bc 99 d3 b6 3c
       -0.012335432 -0.013355677 -0.012257592 0.022317695
000150 25 0e d6 bb 3c 7b a1 3c 05 9e ca bc 28 b7 81 bc
       -0.006532448 0.019712083 -0.024733553 -0.015834406
000160 19 ac ab 3c 88 d1 c3 3c 67 9c 0f 3a 22 f9 2b bd
       0.020956086 0.023903623 0.0005478323 -0.04198564
000170 ab 58 c3 3c ab 0e 11 3d 59 c9 07 bd b0 d1 0e 3d
       0.023845991 0.03541438 -0.033151004 0.034867942
000180 a8 50 48 3c aa ba 88 3c cf 5a 9a 3c fb c5 77 bc
       0.012226261 0.01669057 0.018842129 -0.015122886
000190 6d 25 8e 3c b0 e5 ad bb 4a 8d ed 3c 49 04 61 3c
       0.01735183 -0.005306922 0.028998036 0.013733932
0001a0 9c 1c 37 3d 69 dc 49 bc 66 11 5d 3d be 91 18 3d
       0.04470502 -0.012320616 0.05397167 0.037248366
0001b0 a6 42 14 3d 4a d1 09 3d fe bb fc 3c 2b 1e 21 b9
       0.036196373 0.03364686 0.03085136 -0.00015365395
0001c0 0a 83 95 bc ad f5 ed bc dd 73 11 3c 3e d9 ec bb
       -0.01825096 -0.029047811 0.008877722 -0.0072280457
0001d0 8b a6 bc bc 2d 6e 91 bc 89 81 c6 3c 21 a0 fc 3a
       -0.023028633 -0.017752731 0.024231689 0.0019273796
0001e0 b0 94 19 bb d2 31 1d bd ac f0 1f 3d 26 d8 d8 bc
       -0.0023434572 -0.03837759 0.039047882 -0.026470255
0001f0 8c fe b7 b9 d1 23 15 bd e3 2a 01 bd b6 01 f2 bc
       -0.00035094132 -0.03641111 -0.03153504 -0.029541831
000200 96 26 1a 3d af 85 f2 bc 33 43 fb bb 1b 73 c8 3a
       0.037634455 -0.02960476 -0.007667923 0.0015293093
000210 a6 55 4c 3c 23 b2 c0 3c b6 1b 0f 3d b4 6a f5 3a
       0.012471592 0.023522442 0.034938537 0.0018723817
000220 fb de 37 bc c6 de b4 3b 51 12 6c 3c 21 2b 53 3c
       -0.011222596 0.0055197207 0.014408664 0.012888701
000230 3a bb e9 bc 16 36 1d bb ac 16 05 3c de e9 de bc
       -0.02853166 -0.0023988537 0.008123081 -0.027211126
000240 06 05 51 bc 4b f2 a0 bb 75 dc 02 bd 91 9d 05 3d
       -0.012757545 -0.004911696 -0.031948525 0.03262097
000250 1d ee 11 bd b2 7b 93 3c e7 a0 c0 3c d0 cd 8e 3c
       -0.035627473 0.018003318 0.023514224 0.017432123
000260 69 95 be 3c d1 93 d7 bb be 44 09 bd 79 05 0a bd
       0.023264604 -0.0065789004 -0.033512823 -0.033696625
000270 f0 4c de 3c 80 32 ca bc 78 b0 8a 3c 73 82 9e 3b
       0.027136296 -0.024682283 0.01692985 0.004837328
000280 b0 51 34 3c f8 ce 40 3c ad ff 2a 3d 13 75 04 bd
       0.011005804 0.011768095 0.041747738 -0.032338213
000290 f2 ac 0c 3c 0e 09 cc 3c e0 d2 12 3d 2b 0a 0a bd
       0.008586155 0.024906661 0.035845637 -0.033701103
0002a0 75 14 bd bc 59 0a 0b 3d 6a f9 ba bc 9a fd 1e 3c
       -0.023081044 0.033945415 -0.022824008 0.009704018
0002b0 90 08 3b 3d 11 e6 14 3d 33 1a ea 3c 99 82 4b 3d
       0.045662463 0.03635222 0.028576946 0.049685095
0002c0 2f fd 9c 3b 70 a7 9a 3c b1 59 02 3d 87 9d 6c 3d
       0.004790924 0.018878669 0.031823818 0.057767417
0002d0 44 a2 19 3d a1 50 44 3c 8c 98 97 3c 37 f5 18 3d
       0.037508264 0.011982114 0.018505357 0.03734323
0002e0 f4 ca 76 3c 7b d4 fa bc bb 83 0c bd 59 07 aa bc
       0.015063036 -0.030618897 -0.034305315 -0.020755457
0002f0 cd 13 d4 bb 6d c4 cb bc 59 9d a4 3c 6a c7 ce 3b
       -0.006472087 -0.024873937 0.02009456 0.006310393
000300 c9 a7 93 bc ee e5 01 3c b9 a2 71 3a fa c3 39 3d
       -0.018024342 0.007928355 0.0009217668 0.045352913
000310 cc e2 ca 3c 54 e8 8b bc 39 96 b4 bb 57 c3 04 bc
       0.024766348 -0.017078556 -0.005511072 -0.008103213
000320 13 bf a5 bc 45 31 3c 3d 66 09 d5 3c 4d 02 8a 3c
       -0.020232713 0.045945425 0.026005458 0.0168468
000330 37 cc 83 3c 48 83 a7 bc 57 b4 5f 3c 07 0b 2f bd
       0.016088588 -0.020448342 0.013653836 -0.042735126
000340 83 76 05 3c 90 4a d8 bb 9a 4a 0c bd 08 d5 f1 bc
       0.008145931 -0.0066006854 -0.034250833 -0.029520527
000350 7e 4d 22 3d 0d 43 80 3c d8 61 e3 bb c2 b9 01 bd
       0.039624684 0.015656972 -0.006939154 -0.031671293
000360 a3 a7 ca 3c a2 6f 77 bc d4 a6 cd 3a 6e 31 10 bd
       0.024738139 -0.015102299 0.0015689977 -0.03520339
000370 07 49 16 bd 58 e0 da bc 73 5f 6c 3c 28 8a e0 3c
       -0.036690738 -0.026718304 0.014427054 0.027409628
000380 e0 6b f2 bb 85 5c ad 3c 0e 04 55 bc 1d 98 3c 3d
       -0.0073981136 0.02116228 -0.013001455 0.046043504
000390 c4 9c 8d 3c 17 9f 12 3d c8 f8 63 bc 2b ec c8 bc
       0.017286666 0.03579625 -0.013914295 -0.024526676
0003a0 59 aa 33 3d 93 57 b0 3b 77 be 06 3d b6 82 b1 bc
       0.043863628 0.0053815334 0.032896485 -0.021668773
0003b0 ca e3 cb bc 20 f1 00 bd cb f6 1d bc 28 8b 2b bd
       -0.024888892 -0.031479955 -0.00964136 -0.041880757
0003c0 da 5c 06 bd 8d 4e 09 3d 7b 08 e7 bc 2a fc 53 3c
       -0.032803394 0.033522177 -0.028202286 0.012938539
0003d0 69 87 7a 3c 6c ad 8f 3c 0e 7f 0e 3c bc 4a f4 3b
       0.015291073 0.017538749 0.008697284 0.007455198
0003e0 4c 19 97 bc 97 8c ed 3a 61 f6 1b 3c cb b9 52 bc
       -0.01844468 0.0018123564 0.0095191905 -0.012861679
0003f0 89 a4 2d bc 5f 5f 10 ba 6f 89 76 bc 0e 65 1d bd
       -0.01059831 -0.00055073755 -0.015047415 -0.03842645

deconv2.bias f4 [64]
000000 13 79 46 3c 08 17 51 bd 10 81 53 3c 53 1f 07 bd
       0.012113827 -0.051047355 0.012909189 -0.032988857
000010 d8 fe 21 bc 6a 8e e2 bc a9 bf 3b 3d 45 ff 73 3d
       -0.00988742 -0.027655799 0.04583708 0.059569616
000020 1a 9d 62 bd 19 67 a2 3d b2 67 23 bb 53 00 d4 3b
       -0.055325605 0.079298206 -0.0024933633 0.006469765
000030 5d cb 1f 3c 6f 9b 0f bc 91 3c c7 3c be d5 e3 3c
       0.009753075 -0.008765086 0.024320873 0.027811881
000040 2d 6d 94 bc 69 36 5e bd 23 3a 6a 3c f5 08 83 bc
       -0.018118465 -0.05425111 0.014296087 -0.015995482
000050 ce ad 7b 3d 45 ba 6c bc 5f f2 c5 bd 73 74 22 3c
       0.06144505 -0.014448707 -0.09665369 0.009915459
000060 83 fb 2e 3d ac d0 f1 3c 13 c8 32 3d bd e1 68 bb
       0.04272033 0.029518448 0.043647837 -0.003553494
000070 4b 44 77 3d 78 b9 ba bd 1f 86 87 3d 9c 20 3b bd
       0.060367864 -0.091174066 0.066173784 -0.045685396
000080 7d 26 40 bc 4b 4f ad bc 0b 2a 45 3d db 5d 4a bc
       -0.011727926 -0.021155974 0.0481358 -0.012351478
000090 b2 cd ca 3c 36 b6 80 bd c1 ae c3 bc 52 79 3b 3c
       0.024756286 -0.06284754 -0.02388704 0.011442499
0000a0 92 59 56 3d 97 51 c0 bd cc 2f a5 bc d6 0f 67 3d
       0.052331515 -0.09390562 -0.020164393 0.056411587
0000b0 ef 4d 37 bd 15 66 75 3d 7c dd 95 3c 06 67 6f bd
       -0.044752058 0.059911806 0.018294089 -0.05844786
0000c0 62 f5 b1 bd e8 04 d3 3c f7 8d 99 bd 52 81 63 3d
       -0.08689381 0.025759175 -0.07497781 0.05554325
0000d0 0f 14 83 bd cb 4e 38 bd a1 2c 5f 3d 04 e9 f8 3c
       -0.0640031 -0.044997018 0.05448592 0.030384548
0000e0 e7 87 a8 bc d2 a8 8c bd 76 31 6e ba b4 41 f9 3c
       -0.020572616 -0.068681374 -0.000908635 0.030426838
0000f0 35 ed 1f 3d 2c 77 c4 3b de 4f 01 3d 15 a3 2f 3c
       0.039044578 0.0059956517 0.031570308 0.010720034
