contrastive_save/contrastive_weights_epoch_18.pt (torch, 749116 bytes, 8 tensors)

conv1.weight f4 [64, 3, 3, 3]
-0.09524466 -0.11329362 0.18565078 -0.030924631 0.07328997 -0.14146386 0.12710367 0.16622953
-0.073138975 -0.14231557 -0.1406238 0.04833041 0.1770945 0.16100468 -0.07877803 0.008189105
-0.03265279 -0.16894363 0.0009043696 0.08544445 0.027599817 0.07524562 -0.11198848 -0.008349311
0.06873912 -0.041114606 0.16058017 0.14723054 0.14665668 -0.047908325 0.15978828 -0.12946717
-0.00875953 0.15206352 -0.03541895 0.019279482 0.15399085 -0.17095914 -0.09624912 -0.13111961
-0.11604273 0.17718548 0.09269637 0.11283816 0.1330732 -0.18612042 0.029863508 -0.05288263
-0.14287102 -0.060148284 0.05606524 0.1697381 -0.11246375 0.09196934 0.18799174 -0.049512777
-0.15087004 -0.10962181 0.1158916 0.046941664 0.07804299 0.08889562 0.16677214 -0.047595542
-0.13942151 -0.15829681 -0.073993996 -0.15105683 -0.04105542 0.18323633 0.1892241 -0.06695561
0.002208815 -0.18220356 0.03673224 0.009717297 -0.08197422 -0.17437656 -0.044707317 -0.0112399
-0.15681607 -0.065123975 0.062230103 0.16929679 0.052565653 -0.08184735 0.023827132 0.17844242
0.14520103 -0.11737273 -0.057258956 -0.15327671 0.14189745 0.023233052 0.011101331 0.04273891
0.123136744 0.056479353 0.027326794 0.034998536 -0.120276846 -0.01789829 0.14149748 -0.066463016
-0.024968255 -0.0544742 0.1512729 0.1868609 -0.16625056 -0.16608024 -0.16666692 -0.17202754
0.18767706 0.11987374 0.0035940784 0.19280235 0.13362062 0.029985357 0.13120319 -0.0985624
0.09802746 -0.06643376 0.082947664 0.09425275 0.17230935 0.083916634 -0.089792915 -0.12527813
-0.016742693 0.06996313 -0.091044016 -0.07918441 -0.00016289824 -0.092729114 -0.019626833 -0.16835724
0.02549912 -0.18194167 -0.1448545 0.0761116 0.14773136 0.045038443 0.07404857 0.091578715
-0.02089288 -0.061431386 -0.09875537 -0.15885055 0.055210605 0.16332243 -0.08728165 -0.18434623
-0.04184703 -0.06856595 -0.16419539 0.059664402 -0.04055718 -0.068803884 -0.047357548 -0.06236903
-0.11934714 0.06658796 -0.03258067 -0.12614572 -0.18649866 0.055072658 0.018882042 0.124298476
-0.17149138 0.030718777 0.06013592 -0.014565671 0.076663524 -0.17699039 0.096855715 0.05676839
-0.053244404 -0.1698843 -0.19019625 -0.06116126 -0.068422906 -0.14719678 0.15788876 -0.14648913
-0.03704903 0.09883245 -0.15732352 -0.09948533 0.06401229 0.095654555 0.07384422 0.12852034
0.04955628 -0.123173945 -0.042869188 0.0322901 -0.08864417 -0.12045872 0.1309704 -0.0176645
-0.03605033 0.18063092 0.15495077 0.11199116 0.13364871 -0.039972946 -0.1201175 0.17318115
0.036732763 0.07433114 -0.012434233 -0.11309179 0.13231304 0.016465677 0.18781264 0.11279466
0.08008419 -0.0086379 -0.065889545 -0.0042135594 -0.0605048 -0.16451348 0.004662304 0.09517271
0.05157608 0.04276897 0.13672172 0.13486236 -0.0010637266 -0.0751026 -0.053210456 -0.034471184
-0.15869762 -0.12175323 0.16925925 -0.028701032 -0.08222906 -0.14727716 -0.03915064 -0.033513036
0.09478885 -0.18688168 0.15340343 0.13909306 -0.065065324 0.05693299 -0.04954227 -0.036380608
0.17061491 0.12405662 -0.0052316873 -0.09649134 -0.063244194 0.069748536 0.08905239 -0.03534121
00000000: a20f c3bd 7c06 e8bd 3d1b 3e3e a755 fdbc
00000010: 0d19 963d e7db 10be 7727 023e 1338 2a3e
00000020: e3c9 95bd 2cbb 11be afff 0fbe 1cf6 453d
00000030: 4358 353e 69de 243e 6056 a1bd 992b 063c
00000040: efbe 05bd 8fff 2cbe 3713 6d3a 80fd ae3d
00000050: 0319 e23c 601a 9a3d 375a e5bd 8ccb 08bc
00000060: 19c7 8c3d ca67 28bd 216f 243e 9ac3 163e
00000070: 2b2d 163e 853b 44bd 8a9f 233e 0b93 04be
00000080: 2284 0fbc 8ab6 1b3e 7613 11bd 01f0 9d3c
00000090: c7af 1d3e ea0f 2fbe 421e c5bd 3844 06be
000000a0: d0a7 edbd 1c70 353e 98d7 bd3d b117 e73d
000000b0: 5744 083e 5a96 3ebe 51a4 f43c 759b 58bd
000000c0: c84c 12be 0c5e 76bd aaa4 653d d3cf 2d3e
000000d0: 6553 e6bd 6c5a bc3d e880 403e e9cd 4abd
000000e0: ad7d 1abe 6681 e0bd 9358 ed3d e745 403d
000000f0: 01d5 9f3d e80e b63d 51c6 2a3e 8bf3 42bd
00000100: 83c4 0ebe 8f18 22be 2a8a 97bd a4ae 1abe
00000110: ba29 28bd 4ea2 3b3e f6c3 413e 0620 89bd
00000120: c4c1 103b 9293 3abe 8c74 163d 4c35 1f3c
00000130: 1ae2 a7bd c58f 32be 051f 37bd 8f27 38bc
00000140: 6494 20be b85f 85bd fee4 7e3d 235c 2d3e
00000150: 154f 573d 959f a7bd 1e31 c33c 9cb9 363e
00000160: 94af 143e 1d61 f0bd 5e88 6abd 92f4 1cbe
00000170: 914d 113e 3e53 be3c 5be2 353c ff0e 2f3d
00000180: 1e2f fc3d e556 673d 71dc df3c a05a 0f3d
00000190: b553 f6bd 6f9f 92bc b7e4 103e c31d 88bd
000001a0: 3a8a ccbc 5720 5fbd 48e7 1a3e 7758 3f3e
000001b0: 963d 2abe f010 2abe bcaa 2abe fd27 30be
000001c0: 6a2e 403e 5d80 f53d a18a 6b3b fb6d 453e
000001d0: d8d3 083e daa3 f53c 215a 063e 15db c9bd
000001e0: 9fc2 c83d 6c0e 88bd 77e0 a93d 9607 c13d
000001f0: dd71 303e 7cdc ab3d 59e5 b7bd e948 00be
00000200: f927 89bc d448 8f3d 4975 babd 702b a2bd
00000210: aacf 2ab9 c3e8 bdbd 74c8 a0bc d765 2cbe
00000220: 88e3 d03c eb4e 3abe bd54 14be 66e0 9b3d
00000230: e446 173e 3b7a 383d c7a6 973d 9f8d bb3d
00000240: 8c27 abbc 7a9f 7bbd 4140 cabd b8a9 22be
00000250: 8424 623d ff3d 273e b9c0 b2bd 42c5 3cbe
00000260: cb67 2bbd 4e6c 8cbd d622 28be a962 743d
00000270: 491f 26bd 0de9 8cbd fdf9 41bd ab76 7fbd
00000280: 466c f4bd 455f 883d 4f73 05bd 582c 01be
00000290: 81f9 3ebe de93 613d 83ae 9a3c 3390 fe3d
000002a0: 709b 2fbe f2a5 fb3c 1551 763d daa4 6ebc
000002b0: c401 9d3d f83c 35be 4a5c c63d f985 683d
000002c0: ce16 5abd 26f6 2dbe cec2 42be 3b84 7abd
000002d0: 4f21 8cbd c1ba 16be 97ad 213e 3f01 16be
000002e0: b9c0 17bd ab68 ca3d 6b19 21be f7be cbbd
000002f0: e018 833d 89e6 c33d a33b 973d d69a 033e
00000300: 87fb 4a3d 9f42 fcbd 9a97 2fbd a042 043d
00000310: 138b b5bd 10b3 f6bd 1b1d 063e 24b5 90bc
00000320: 83a9 13bd 50f7 383e 6aab 1e3e 9f5b e53d
00000330: 35db 083e acba 23bd 2a00 f6bd 6656 313e
00000340: 1875 163d ed3a 983d f4b8 4bbc ab9c e7bd
00000350: 127d 073e 07e3 863c f551 403e e300 e73d
00000360: 2e03 a43d fb85 0dbc 19f1 86bd e611 8abb
00000370: e2d3 77bd 3976 28be 3ec6 983b e9e9 c23d
00000380: 7141 533d 842e 2f3d c700 0c3e 5c19 0a3e
00000390: be6c 8bba 64cf 99bd 35f3 59bd a831 0dbd
000003a0: a181 22be c259 f9bd 4c52 2d3e 6d1e ebbc
000003b0: b667 a8bd d3cf 16be 6c5c 20bd f744 09bd
000003c0: a820 c23d e95d 3fbe ca15 1d3e 696e 0e3e
000003d0: f840 85bd 9132 693d d6ec 4abd d503 15bd
000003e0: adb5 2e3e 6611 fe3d 936e abbb 409d c5bd
000003f0: 2c86 81bd 52d8 8e3d 1961 b63d f2c1 10bd

conv1.bias f4 [64]
0.12895562 -0.161393 0.018747794 -0.02134178 -0.053409945 -0.18879585 -0.059681278 0.036477502
-0.16222171 0.018496899 0.015488614 0.004699022 -0.07973272 -0.15771173 -0.18049757 0.05371149
0.14711675 0.11882221 -0.1015182 -0.05868041 0.11608617 -0.030581549 -0.16415703 -0.16167173
-0.1217408 -0.028576298 -0.12046353 -0.05128147 0.15360193 0.0588029 -0.17383707 0.04764899
-0.017654406 0.08952802 0.15594222 0.12892954 0.18929456 0.003235646 0.03236147 -0.15838857
-0.07506491 0.019765038 0.05374366 0.024253901 0.005870828 -0.105808385 -0.14607994 0.17069179
0.002037279 -0.0035946749 0.17463224 -0.0734163 -0.12620844 -0.0639574 0.054240856 -0.10397239
0.072162196 -0.035479266 0.14833356 0.122549444 -0.10356304 -0.122519344 0.1794178 0.10559124
00000000: f10c 043e 3544 25be f994 993c f5d4 aebc
00000010: 63c4 5abd b353 41be 5b74 74bd 6f69 153d
00000020: 731d 26be cf86 973c f5c3 7d3c 41fa 993b
00000030: e94a a3bd 2f7f 21be 5bd4 38be 9400 5c3d
00000040: c6a5 163e 0f59 f33d c6e8 cfbd df5a 70bd
00000050: 96be ed3d 2886 fabc c818 28be 468d 25be
00000060: 3e53 f9bd d718 eabc 95b5 f6bd 850c 52bd
00000070: d349 1d3e 4fdb 703d 5802 32be 962b 433d
00000080: f99f 90bc 775a b73d 51af 1f3e 1b06 043e
00000090: 6fd6 413e 220d 543b 768d 043d 9d30 22be
000000a0: a2bb 99bd 4aea a13c 5022 5c3d 1eb0 c63c
000000b0: 1360 c03b 11b2 d8bd fb95 15be d4c9 2e3e
000000c0: df83 053b a394 6bbb cbd2 323e 495b 96bd
000000d0: c93c 01be 19fc 82bd a92b 5e3d 7aef d4bd
000000e0: c6c9 933d b552 11bd c1e4 173e 34fb fa3d
000000f0: dc18 d4bd 6ceb fabd 4db9 373e 3840 d83d

conv2.weight f4 [128, 64, 3, 3]
-0.018628301 0.0013984279 -0.036366243 -0.021024179 -0.026264578 -0.034083255 -0.0057645645 0.00974759
0.019538878 -0.039106265 -0.016499551 -0.025870577 0.0118323695 -0.007832373 -0.02023155 0.036959916
-0.037922956 -0.0046408274 0.019041933 0.010052123 -0.040775497 -0.012117548 0.00039501887 0.021060662
0.00055713975 0.027259925 -0.031908453 -0.04081199 0.026141671 0.014046 0.027390692 -0.021242822
0.03130114 0.01737214 0.016979506 -0.039387457 -0.01632052 -0.025580807 -0.015841534 0.0049857255
-0.014304397 0.033697173 -0.037059132 -0.0038454283 -0.01077519 -0.041584603 -0.02038986 0.03178087
-0.016755175 0.016115855 0.030026635 -0.018317923 -0.03725642 0.035408296 0.017133396 -0.039288342
0.022233963 -0.031253323 -0.007297008 0.039292753 0.028335702 0.014784142 0.013984969 0.035788763
0.018828278 0.0043007853 -0.014770882 -0.02268933 0.028050598 -0.036047477 -0.027490597 -0.009937762
-0.04014589 -0.032892756 -0.0029882542 0.040171824 0.026163349 0.027643064 0.026871994 0.030546965
0.01111781 -0.037107952 0.026588123 -0.0004343768 -6.614026e-05 0.036849294 0.018563794 0.00437224
-0.024942894 -0.027743105 0.013756268 -0.009591323 0.006345709 0.020606587 0.016778829 0.014989919
0.021064794 0.0069552227 0.020130422 -0.010041654 -0.030276941 -0.003616788 0.002543705 -0.022865258
0.0084353965 0.020213835 -0.036396854 0.03873914 -0.03336607 -0.0036327438 -0.014394114 0.015126459
-0.031407654 0.01779348 0.013362503 0.0037274393 0.001715913 0.0077383188 0.039156973 0.0273986
0.013911642 0.00956296 -0.026877785 -0.032631867 0.025412407 0.028497439 0.023217814 0.020163924
-0.007589079 -0.013338492 -0.027106568 -0.016846927 -0.0063177273 -0.04067826 0.016609397 0.010586832
-0.008132014 0.025895564 0.038525514 -0.0057366923 -0.040275827 -0.027785951 0.026947338 0.040556382
-0.03224011 0.014006572 -0.017305266 0.012477762 0.028392771 -0.028809687 0.0403227 0.031755358
0.0047153416 0.013988811 0.017729847 0.013546008 0.018531851 0.01115178 -0.03223484 0.0042669442
0.024153722 0.0101725 -0.010339016 0.03237993 -0.03953064 -0.035781756 -0.013752989 -0.027273437
0.03071814 -0.039851174 -0.037515573 0.028166804 -0.023467982 -0.0038556685 -0.015198969 0.007935197
0.0116720935 0.023558699 0.023766618 -0.0025986286 0.0024135339 -0.03138773 0.0321831 -0.020826882
0.040619813 -0.017038435 -0.006146012 -0.03583498 0.03040062 -0.008025141 0.04157313 0.011965358
0.019376233 -0.013034513 0.030227667 -0.021995865 0.008085245 -0.0038753024 0.0019779813 -0.02345775
0.005530308 -0.03024676 -0.023280587 0.0065103606 0.016014835 0.01949212 0.016038567 5.4372318e-05
-0.025495954 -0.022239573 0.023210324 -0.028729584 0.004166592 0.015204905 -0.039302465 -0.0018350681
0.0064928243 0.0074257483 -0.011258438 0.027083145 -0.028760662 0.02938893 -0.009020109 0.012439818
0.032341234 -0.03621984 0.02270104 0.032654848 -0.01819804 -0.032519404 0.02941304 -0.022061016
0.040140282 -0.017720545 0.036820114 0.0093751205 -0.029528758 0.040547 -0.013541504 0.035792056
0.019684669 0.011730939 0.0068456666 0.03636783 0.006767201 0.009355428 -0.0029548132 0.029880416
0.02520825 0.012836179 0.0017623189 -0.023797864 0.030992392 -0.028382452 0.02350436 0.026118597
00000000: 619a 98bc 744b b73a c5f4 14bd e63a acbc
00000010: d028 d7bc e29a 0bbd ace4 bcbb 5bb4 1f3c
00000020: ff0f a03c e42d 20bd 112a 87bc 88ee d3bc
00000030: 8edc 413c 5a53 00bc a3bc a5bc 4863 173d
00000040: 1a55 1bbd 1512 98bb d4fd 9b3c a9b1 243c
00000050: 3504 27bd ae88 46bc 891a cf39 6987 ac3c
00000060: 040d 123a 3550 df3c 70b2 02bd 792a 27bd
00000070: 0f27 d63c 3221 663c 7262 e03c 6d05 aebc
00000080: a035 003d 0550 8e3c 9b18 8b3c be54 21bd
00000090: 9cb2 85bc d78e d1bc 1bc6 81bc 4c5f a33b
000000a0: fd5c 6abc 0c06 0a3d 51cb 17bd 9503 7cbb
000000b0: 6c8a 30bc 9e54 2abd a308 a7bc a82c 023d
000000c0: 2642 89bc 6605 843c 6bfa f53c 780f 96bc
000000d0: 309a 18bd 4a08 113d 565b 8c3c d0ec 20bd
000000e0: 0024 b63c 7c03 00bd bd1b efbb 70f1 203d
000000f0: 4620 e83c 3039 723c 3621 653c 3d97 123d
00000100: c33d 9a3c 9aed 8c3b 9201 72bc f9de b9bc
00000110: 5eca e53c 85a6 13bd f633 e1bc ffd1 22bc
00000120: 0470 24bd 8eba 06bd 96d6 43bb 368b 243d
00000130: 8554 d63c b573 e23c a822 dc3c a13d fa3c
00000140: 7a27 363c 82fe 17bd 56cf d93c 11bd e3b9
00000150: c8b4 8ab8 49ef 163d 1913 983c 0245 8f3b
00000160: 0a55 ccbc 8245 e3bc f861 613c ed24 1dbc
00000170: aaef cf3b 25cf a83c c173 893c 4798 753c
00000180: 1390 ac3c a3e8 e33b 8ee8 a43c c085 24bc
00000190: 5907 f8bc a207 6dbb 4ab4 263b ec4f bbbc
000001a0: 9e34 0a3c 7c97 a53c de14 15bd efac 1e3d
000001b0: dcaa 08bd 5413 6ebb 4ad5 6bbc f8d4 773c
000001c0: 50a5 00bd a2c3 913c 66ee 5a3c 0e48 743b
000001d0: 7ce8 e03a b991 fd3b 1063 203d 0773 e03c
000001e0: a8ed 633c f6ad 1c3c cd2e dcbc fea8 05bd
000001f0: ae2d d03c 7673 e93c 4933 be3c d02e a53c
00000200: cfad f8bb b189 5abc 980e debc 9102 8abc
00000210: f004 cfbb 3f9e 26bd 6e10 883c 6474 2d3c
00000220: 243c 05bc ef22 d43c eecc 1d3d ddfa bbbb
00000230: 44f8 24bd 5d9f e3bc aac0 dc3c 731e 263d
00000240: 350e 04bd d27b 653c c6c3 8dbc 876f 4c3c
00000250: f597 e83c 4b02 ecbc 6a29 253d e811 023d
00000260: 2783 9a3b 5331 653c 2f3e 913c 13f0 5d3c
00000270: 1cd0 973c f5b5 363c ae08 04bd b9d1 8b3b
00000280: 07de c53c 8faa 263c fa64 29bc d1a0 043d
00000290: e1ea 21bd e48f 12bd 3754 61bc 8b6c dfbc
000002a0: 9ca4 fb3c fc3a 23bd eea9 19bd 12be e63c
000002b0: ed3f c0bc 62af 7cbb 1905 79bc a102 023c
000002c0: 4f3c 3f3c 2cfe c03c 36b2 c23c c14d 2abb
000002d0: 612c 1e3b 6c90 00bd 6dd2 033d 239d aabc
000002e0: f660 263d 3094 8bbc 7c64 c9bb b3c7 12bd
000002f0: b90a f93c e27b 03bc 9648 2a3d 590a 443c
00000300: e8ba 9e3c b68e 55bc 03a0 f73c ac30 b4bc
00000310: fa77 043c c9f8 7dbb 05a1 013b 782a c0bc
00000320: 9637 b53b 0ec8 f7bc eeb6 bebc dd54 d53b
00000330: 8b31 833c f0ad 9f3c 5063 833c d50d 6438
00000340: e4dc d0bc c42f b6bc 9423 be3c 4e5a ebbc
00000350: e887 883b fe1d 793c 9ffb 20bd ab86 f0ba
00000360: c2c1 d43b b153 f33b 5075 38bc 79dd dd3c
00000370: 7b9b ebbc 0ec1 f03c 14c9 13bc 61d0 4b3c
00000380: 3e78 043d 415b 14bd 88f7 b93c 17c1 053d
00000390: 0e14 95bc 1133 05bd 9ef3 f03c 4eb9 b4bc
000003a0: 236a 243d ad2a 91bc b0d0 163d 1b9a 193c
000003b0: 4be6 f1bc 9c14 263d 2fdd 5dbc b19a 123d
000003c0: be41 a13c 2033 403c 9d51 e03b 6ff6 143d
000003d0: 65bf dd3b 8247 193c 8aa5 41bb c6c7 f43c
000003e0: 8881 ce3c d64e 523c 9cfd e63a bdf3 c2bc
000003f0: c2e3 fd3c 5182 e8bc 378c c03c abf6 d53c

conv2.bias f4 [128]
0.00092910515 -0.039036945 0.030287676 0.022237131 0.030368423 -0.010901657 0.03871513 0.051909078
0.04335665 0.03464216 0.0017799567 -0.031435456 -0.0026132436 -0.004269362 0.015942575 -0.033640478
-0.00037467186 0.01852208 0.018471545 0.029730989 -0.039224792 -0.043447558 -0.022372382 0.034096137
-0.024903659 -0.0028254557 -0.005994465 -0.0040781572 0.037049115 -0.039792467 -0.03310465 -0.032296713
-0.006778489 0.012316211 0.02626691 -0.027439203 0.03869239 0.028957803 0.040752538 -0.012565369
-0.009546794 0.013122179 -0.0368843 -0.026107319 -0.013979662 -0.03010891 -0.031570666 0.020376507
-0.013749028 0.03609964 0.014158081 0.04194843 0.017970238 3.160757e-05 0.018793313 0.042917494
-0.038980547 -0.012798426 0.013124708 -0.025493892 -0.018058114 -0.03254161 0.017948557 -0.044040136
0.0073230425 -0.01675736 -0.007356593 -0.032116435 -0.03562701 0.0042798775 0.0039497567 0.0032981283
0.0007348632 -0.02054195 -0.007906206 -0.03098366 -0.0345165 -0.023287114 -0.005999367 0.015359463
0.019876542 0.034961343 -0.008712371 0.03551881 -0.011810045 0.009390239 0.041846283 0.027548652
-0.031631462 -0.051253494 0.016785817 0.04203477 0.012460103 0.0133313695 -0.005350422 0.019022286
0.048365194 -0.040528152 0.027587857 -0.005732666 -0.024390996 -0.028214592 0.028832957 -0.0061856206
0.025841264 0.00067336764 0.00080712675 -0.010610225 0.029308857 -0.039637364 0.043505203 -0.031113412
0.008020955 -0.016129728 0.03001825 0.014617294 0.02558053 0.0012969071 0.0030922547 -0.016647212
0.029915342 -0.022111671 -0.038161255 0.034917716 -0.02063193 0.008850164 -0.023218822 -0.015446214
00000000: 318f 733a 34e5 1fbd dc1d f83c a52a b63c
00000010: 33c7 f83c dd9c 32bc c293 1e3d 9d9e 543d
00000020: be96 313d f0e4 0d3d 704d e93a 77c2 00bd
00000030: f442 2bbb 01e6 8bbb 019a 823c 99ca 09bd
00000040: 9b6f c4b9 9ebb 973c a351 973c 678e f33c
00000050: 2daa 20bd 11f6 31bd 4946 b7bc 64a8 0b3d
00000060: c202 ccbc 482b 39bb 386d c4bb 10a2 85bb
00000070: d0c0 173d 6dfd 22bd be98 07bd 8f49 04bd
00000080: 161e debb efc9 493c b42d d73c 2ec8 e0bc
00000090: e97b 1e3d ea38 ed3c 22ec 263d fade 4dbc
000000a0: 286a 1cbc 68fe 563c fe13 17bd 04df d5bc
000000b0: f40a 65bc f6a6 f6bc 3e50 01bd a2ec a63c
000000c0: 9a43 61bc 37dd 133d 4cf7 673c 1ed2 2b3d
000000d0: 5236 933c 5f92 0438 6ff4 993c 41ca 2f3d
000000e0: 11aa 1fbd 7db0 51bc 0409 573c 91d8 d0bc
000000f0: 9cee 93bc 5a4a 05bd da08 933c 6e63 34bd
00000100: 22f6 ef3b bb46 89bc 930f f1bb 868c 03bd
00000110: a1ed 11bd 373e 8c3b f66c 813b 6925 583b
00000120: d6a3 403a 9747 a8bc 0889 01bc 72d1 fdbc
00000130: 2c61 0dbd 9ec4 bebc 5796 c4bb 42a6 7b3c
00000140: 21d4 a23c a033 0f3d 55be 0ebc 2c7c 113d
00000150: eb7e 41bc 84d9 193c 0267 2b3d b6ad e13c
00000160: fe8f 01bd 2fef 51bd 6982 893c a72c 2c3d
00000170: 7625 4c3c d16b 5a3c 9852 afbb a0d4 9b3c
00000180: 951a 463d d900 26bd eeff e13c 16d9 bbbb
00000190: a0cf c7bc 4a22 e7bc 1833 ec3c bfb0 cabb
000001a0: 0fb1 d33c f084 303a 5c95 533a 82d6 2dbc
000001b0: 2119 f03c ca5a 22bd 8332 323d 8ee1 febc
000001c0: 536a 033c 7e22 84bc d5e8 f53c 607d 6f3c
000001d0: 428e d13c fbfc a93a 6da7 4a3b bc5f 88bc
000001e0: 0511 f53c 8923 b5bc fa4e 1cbd e105 0f3d
000001f0: 4b04 a9bc 4700 113c 6635 bebc 1e12 7dbc

deconv1.weight f4 [128, 64, 3, 3]
0.027371613 -0.023552062 -0.029301913 0.018016793 0.019243924 -0.01949759 -0.026188457 0.012999348
-0.02494457 -0.012123752 0.023529647 -0.02835407 -0.0136910295 -0.01709587 -0.006881531 0.0012944303
0.0008485646 0.005478015 0.027771205 -0.013004517 -0.005711466 -0.022548044 -0.03665602 0.025828414
0.03052809 -0.008756637 0.018462153 -0.03811591 -0.032356627 0.026328046 0.014725963 -0.020720702
-0.008192343 0.019788334 0.029186806 0.010367528 -0.007786209 -0.002487003 0.033052973 -0.03554578
-0.04050407 -0.039518017 0.028859125 -0.02854679 0.008676399 0.016882412 -0.025339672 -0.02477078
-0.018336497 -0.029118516 0.034277312 0.04091184 -0.0011377687 -0.0023485199 0.029035423 -0.0034213148
-0.023552299 -0.017012045 0.006520331 0.028743412 -0.013054542 -0.026119143 -0.015645528 -0.040717598
-0.019931369 -0.03734939 -0.007933649 -0.0041643977 0.00046260713 0.009699736 0.013684819 0.00040048387
-0.019980745 0.032441705 -0.018846272 0.03810946 0.037919562 0.040996905 0.0020340164 -0.0359692
0.01678702 0.00260626 -0.0023022154 -0.041180957 0.023528103 -0.0012033163 0.0071023335 0.019530958
-0.008962883 -0.029755823 -0.016510224 0.02234563 -0.007862302 0.011242753 -0.033817466 0.0059730294
-0.0232018 0.00792725 -0.021192431 0.0006029478 0.018606769 -0.014342546 -0.032402985 -0.022132019
-0.011561191 0.026902197 -0.03686664 0.0116297295 0.033322312 0.03789707 -0.0030749154 0.012677042
0.014815778 0.034999337 -0.0034084169 0.019231226 0.025989784 0.013319134 0.029914638 -0.004789573
0.0008369278 0.0073141754 0.041046176 -0.013430525 -0.03575323 0.03543384 -0.03419815 0.040911168
0.03331193 0.023406511 0.03970733 -0.017416146 0.003972918 -0.035212696 -0.03366463 0.035753235
0.039000787 -0.04076561 0.021480335 0.008402743 0.015273067 0.03178656 0.019947069 -0.005343997
0.038925562 0.004866268 0.030548595 -0.02272972 0.0067346864 -0.01782935 0.025632221 -0.03474619
0.0071628015 0.029899776 0.033145647 -0.008287209 -0.025485832 -0.02567244 -0.013386892 -0.006437797
-0.036625102 0.030601792 0.015706709 0.014920379 -0.0040132357 -0.03594054 -0.013129866 0.014497563
0.0034976702 -0.013695583 -0.023278346 0.013924559 0.0008303697 -0.028807204 0.001402137 0.03378083
-0.0096817985 0.014854394 0.041203428 -0.009657275 0.012756676 0.014783721 0.031209448 0.03748873
0.008481541 0.020001046 0.03723937 0.01909413 0.039615568 0.0055642715 -0.0016235196 0.01240497
-0.017749311 -0.024191177 -0.03751643 -0.006349452 0.01642474 -0.03787062 0.031034093 0.033956632
-0.020643016 -0.041278776 -0.00835535 -0.019621402 0.012913981 0.029892014 0.03960689 -0.01547196
-0.02116888 -0.0378219 0.03806629 0.029826377 0.040797565 0.0040355097 -0.035765503 0.004333478
-0.009609022 0.030841012 0.0034209262 0.014597482 0.022724245 -0.030621117 -0.00019854284 -0.01193471
-0.030530447 -0.0027343994 -0.026295042 -0.002110226 0.0077050645 0.019779172 0.020378852 -0.018966911
0.0038880184 0.016745722 -0.014647859 0.019598573 -0.020680385 -0.010432817 0.011270411 0.005259136
-0.02659021 0.006841792 -0.010050669 -0.039628364 -0.0052658366 -0.040646672 0.033201136 0.040520217
0.03751554 -0.0046745953 -0.012418036 0.012596795 -0.009510575 0.014278909 0.026661357 0.012027968
00000000: 6f3a e03c 41f0 c0bc 910a f0bc f497 933c
00000010: 6fa5 9d3c 69b9 9fbc 2d89 d6bc 38fb 543c
00000020: 8e58 ccbc b4a2 46bc 3fc1 c03c cb46 e8bc
00000030: 5750 60bc a30c 8cbc 777e e1bb e0a9 a93a
00000040: 3572 5e3a ec80 b33b 7080 e33c e610 55bc
00000050: 4027 bbbb adb6 b8bc 9f24 16bd 1c96 d33c
00000060: 0c16 fa3c ff77 0fbc f13d 973c 6e1f 1cbd
00000070: 6288 04bd eaad d73c 2a45 713c 76be a9bc
00000080: 2d39 06bc 251b a23c 2b19 ef3c 90dc 293c
00000090: 7523 ffbb fdfc 22bb 8e62 073d 7498 11bd
000000a0: 99e7 25bd a5dd 21bd f969 ec3c f5da e9bc
000000b0: 7427 0e3c fc4c 8a3c 2595 cfbc 17ec cabc
000000c0: 6c36 96bc f489 eebc 5e66 0c3d 2c93 273d
000000d0: 2f21 95ba a0e9 19bb b2db ed3c 2338 60bb
000000e0: c0f0 c0bc d85c 8bbc 80a8 d53b 4e77 eb3c
000000f0: b8e2 55bc d0f7 d5bc 0d2b 80bc 7fc7 26bd
00000100: 1c47 a3bc adfb 18bd 23fc 01bc 8075 88bb
00000110: 148a f239 a4eb 1e3c 4b36 603c 09f8 d139
00000120: a9ae a3bc 98e1 043d 7f63 9abc aa18 1c3d
00000130: 8b51 1b3d 5fec 273d 224d 053b 7154 13bd
00000140: ef84 893c c9cd 2a3b c4e0 16bb 5dad 28bd
00000150: 02be c03c 98b8 9dba b1ba e83b 63ff 9f3c
00000160: 0ed9 12bc 7cc2 f3bc 7340 87bc 2f0e b73c
00000170: e2d0 00bc 8633 383c 2f84 0abd 67b9 c33b
00000180: b411 bebc 4ce1 013c c09b adbc 240f 1e3a
00000190: 396d 983c 00fd 6abc feb8 04bd 354e b5bc
000001a0: 266b 3dbc ff61 dc3c 7901 17bd 9f8a 3e3c
000001b0: fa7c 083d f539 1b3d 8584 49bb 5eb3 4f3c
000001c0: e0bd 723c 775b 0f3d bf5f 5fbb ce8a 9d3c
000001d0: 87e8 d43c 7f38 5a3c 8b0f f53c daf1 9cbb
000001e0: 4665 5b3a c0ab ef3b 0920 283d b40b 5cbc
000001f0: fb71 12bd 1323 113d 5c13 0cbd 7892 273d
00000200: 1772 083d 03bf bf3c 27a4 223d 4eac 8ebc
00000210: 402f 823b 303b 10bd ece3 09bd fc71 123d
00000220: 4abf 1f3d d7f9 26bd 87f7 af3c a9ab 093c
00000230: e33b 7a3c a032 023d 0968 a33c b21c afbb
00000240: 6970 1f3d 3775 9f3b 0c41 fa3c ae33 babc
00000250: a5ae dc3b db0e 92bc aafa d13c 0552 0ebd
00000260: efb5 ea3b 60f0 f43c bbc3 073d 13c7 07bc
00000270: aac7 d0bc 024f d2bc b254 5bbc 28f4 d2bb
00000280: 3404 16bd 9cb0 fa3c 5bab 803c 9b74 743c
00000290: 7681 83bb 6336 13bd a61e 57bc 3087 6d3c
000002a0: 2b39 653b 7063 60bc 3bb2 bebc d523 643c
000002b0: 2bad 593a 16fd ebbc e9c7 b73a c55d 0a3d
000002c0: 68a0 1ebc d85f 733c edc4 283d 8c39 1ebc
000002d0: 6101 513c 6c37 723c f5aa ff3c c88d 193d
000002e0: 29f6 0a3c 3cd9 a33c 4f88 183d 4b6b 9c3c
000002f0: ef43 223d 7e54 b63b 47cc d4ba 373e 4b3c
00000300: 0167 91bc 932c c6bc d4aa 19bd 100f d0bb
00000310: 2d8d 863c 391e 1bbd 363b fe3c 1c16 0b3d
00000320: 8b1b a9bc ef13 29bd e1e4 08bc 10bd a0bc
00000330: 2a95 533c 19e0 f43c d63a 223d 1b7e 7dbc
00000340: 5c6a adbc 23eb 1abd 66eb 1b3d 7256 f43c
00000350: 591b 273d 4f3c 843b d97e 12bd d9ff 8d3b
00000360: 296f 1dbc 4aa6 fc3c 9e31 603b 472a 6f3c
00000370: 3228 ba3c 23d9 fabc f02f 50b9 cd89 43bc
00000380: fd1a fabc 9c33 33bb b368 d7bc b84b 0abb
00000390: c47a fc3b ee07 a23c 8df1 a63c 7f60 9bbc
000003a0: 20ce 7e3b 532e 893c 93fd 6fbc 308d a03c
000003b0: e969 a9bc 68ee 2abc 88a7 383c d554 ac3b
000003c0: b6d3 d9bc 1c31 e03b 90ab 24bc 5a51 22bd
000003d0: 0a8d acbb 207d 26bd eafd 073d 87f8 253d
000003e0: e5a9 193d 592d 99bb 0575 4bbc ca62 4e3c
000003f0: 3ed2 1bbc 16f2 693c eb68 da3c f410 453c

deconv1.bias f4 [64]
0.00078110024 0.04247721 0.013474179 0.0019632017 -0.015999429 0.019521678 -0.021430628 0.031187657
-0.013240682 0.005856414 0.006350936 -0.026590148 -0.005675068 -0.016996248 -0.0033539818 -0.025410173
-0.034569036 0.042889126 -0.032767512 0.0066617792 -0.019225538 -0.018534133 -0.00703339 0.028128708
0.016448561 -0.013065876 0.019263176 -0.02755668 -0.036959767 0.0037345719 -0.009658654 -0.037751436
-0.021480666 -0.006949469 -0.024936186 0.041895866 -0.012699873 0.042874835 -0.04510183 -0.011734873
0.06344138 0.025521496 -0.020585746 -0.042469334 -0.021067228 0.014370969 0.0047532977 0.010877279
-0.035590548 -0.02381 -0.017188814 -0.02619626 -0.005393382 -0.025099223 -0.033101995 0.012737423
-0.026246957 0.044428397 -0.02821111 0.00631869 -0.021677287 -0.041793473 -0.014378315 -0.042087946
00000000: c0c2 4c3a 95fc 2d3d cec2 5c3c 0fa9 003b
00000010: 3c11 83bc edeb 9f3c 498f afbc 427d ff3c
00000020: 72ef 58bc 29e7 bf3b 831b d03b 95d3 d9bc
00000030: ecf5 b9bb b73b 8bbc 7ace 5bbb ff28 d0bc
00000040: 4398 0dbd 82ac 2f3d 3a37 06bd 0e4b da3b
00000050: e07e 9dbc e5d4 97bc 5a78 e6bb 2d6e e63c
00000060: 22bf 863c 4212 56bc cfcd 9d3c 8cbe e1bc
00000070: 2063 17bd b8bf 743b 553f 1ebc 40a1 1abd
00000080: 39f8 afbc 5fb8 e3bb f946 ccbc 009b 2b3d
00000090: 2113 50bc 869d 2f3d b2bc 38bd a043 40bc
000000a0: 8eed 813d 7512 d13c 70a3 a8bc 53f4 2dbd
000000b0: 2e95 acbc 3674 6b3c 8dc1 9b3b 9d36 323c
000000c0: 65c7 11bd 300d c3bc 8ecf 8cbc 8a99 d6bc
000000d0: f8ba b0bb e39c cdbc f595 07bd a0b0 503c
000000e0: dc03 d7bc 8dfa 353d fc1a e7bc 030d cf3b
000000f0: 9194 b1bc a22f 2bbd 0693 6bbc 6964 2cbd

deconv2.weight f4 [64, 64, 3, 3]
-0.006779887 0.039313115 0.036116306 0.023423832 0.034646384 -0.024690293 0.037955027 0.024484063
0.0131396325 -0.020631474 0.0118140355 0.0049468647 -0.009971496 0.040787492 0.027924519 0.013492108
0.022309488 -0.02599984 -0.032594938 -0.04076911 0.032469597 0.029414808 -0.013460577 0.025684075
-0.00570753 -0.033617534 0.035549726 0.0066539478 0.0061548976 0.008748722 0.015227823 -0.02115797
0.025044221 -0.035823867 -0.010286506 -0.018296497 0.033742532 0.029793622 -0.039024506 -0.010957762
0.013577768 0.035768475 -0.01065325 -0.040507138 -0.019193742 -0.004751361 0.016052818 -0.040659416
-0.019217482 -0.040016267 -0.0077312286 0.01825918 -0.04000396 -0.024292566 0.037615635 -0.023984209
-0.021582467 0.018323727 -0.0018079177 -0.02900641 -0.0094858445 0.0025053793 0.04055319 0.0039273533
0.024076091 -0.028821783 0.001892557 -0.013723265 0.0034123322 -0.02131661 -0.035024427 0.024541853
0.02128585 0.03600467 -0.020230306 0.03992473 -0.0065169684 0.015981825 -0.027847636 0.006056111
0.028968938 -0.02830658 -0.008548006 0.01108328 0.011914577 0.025641048 0.011048684 0.008781817
0.018140376 0.019324712 -0.001342837 0.04194439 0.019009564 -0.022084046 0.01889936 -0.013825577
-0.038624156 0.010522712 0.010902143 -0.036266413 0.033674605 -0.029160425 0.017402794 0.0077872025
-0.03222397 0.03267312 -0.0146675855 -0.0048235604 -0.02855114 0.02541435 0.040066563 -0.006183031
-0.0053986283 0.020470897 -0.023441173 0.04132366 -0.010344341 0.0074235 -0.033450887 -0.024120897
-0.03836922 0.025655046 -0.03456432 0.026427012 -0.036670078 0.010426623 -0.022132192 0.0042205337
-0.031032654 0.038310617 -0.03333483 0.018119322 -0.010616303 0.009793899 -0.0012660449 -0.010932222
0.028621674 0.015506796 -0.0312348 0.0200415 0.0016938857 0.018375719 -0.021344326 0.011999357
-0.011071186 -0.0018064195 0.006712358 0.03950501 0.042897504 0.009208328 0.016955802 0.020248177
0.021293584 0.022318618 -0.014097836 0.01368623 -0.011797871 -0.022367422 -0.009571165 0.03837412
0.031666532 0.027763361 -0.002350038 0.036030844 0.03076776 -0.03187022 -0.010977581 -0.04078671
0.02680448 0.0051778513 -0.0033202993 0.034411322 -0.038663197 -0.011496854 -0.02664369 0.028625429
0.02455721 -0.016671963 0.033859577 0.003145504 0.032048345 -0.0056669535 -0.009504257 0.028049521
0.024942115 -0.02665251 0.01755545 0.027256627 0.02580604 -0.027999373 -0.0044294805 -0.026798235
-0.010468121 -0.023825938 0.010581044 -0.011595853 -0.022301994 -0.010777778 0.010946449 0.01106335
0.006335582 -0.042016704 -0.0026801925 -0.016767826 -0.023136027 0.036648937 -0.022202777 -0.03574454
-0.01787307 -0.02478995 -0.021249605 0.018004116 -0.005461898 -0.016152533 0.009696332 0.014770158
0.0036103663 -0.031547148 -0.030094454 0.0018215695 -0.008667334 -0.037824966 -0.017410485 0.0047563957
-0.006659065 0.030375453 -0.01557954 0.013774374 -0.024469988 -0.04130249 -0.038140003 -0.02141561
-0.020936215 -0.04059883 0.03513897 0.013074501 -0.030248573 0.031231474 0.03284314 -0.007565222
0.0033046731 0.027562277 0.01608063 -0.006774145 -0.02487986 0.023571616 0.034843486 0.013430054
-0.030405343 -0.014111018 -0.012420599 0.02398393 -0.011670802 -0.033161577 -0.0009991489 -0.026459131
00000000: d029 debb ca06 213d b1ee 133d 56e3 bf3c
00000010: 5ee9 0d3d 4c43 cabc bb76 1b3d cd92 c83c
00000020: 9d47 573c 5603 a9bc a88f 413c 4f19 a23b
00000030: 7c5f 23bc c910 273d f6c1 e43c 010e 5d3c
00000040: 63c2 b63c 9efd d4bc 4582 05bd 83fd 26bd
00000050: d7fe 043d 53f7 f03c c189 5cbc 6967 d23c
00000060: 3b06 bbbb 8ab2 09bd 979c 113d 5c09 da3b
00000070: 06af c93b cd56 0f3c 1e7e 793c 7b53 adbc
00000080: 8a29 cd3c 0cbc 12bd bc88 28bc 89e2 95bc
00000090: 9c35 0a3d c111 f43c 29d8 1fbd 2f88 33bc
000000a0: 4975 5e3c f781 123d f88a 2ebc d0ea 25bd
000000b0: 323c 9dbc 4eb1 9bbb 3381 833c 7d8a 26bd
000000c0: fb6d 9dbc 19e8 23bd 3f56 fdbb 4794 953c
000000d0: 31db 23bd 3401 c7bc da12 1a3d 887a c4bc
000000e0: b7cd b0bc a41b 963c a7f7 ecba da9e edbc
000000f0: 846a 1bbc 4a31 243b 1a1b 263d 07b1 803b
00000100: 393b c53c a91b ecbc ad0f f83a 8cd7 60bc
00000110: 6fa1 5f3b 2ca0 aebc c675 0fbd ff0b c93c
00000120: aa5f ae3c a279 133d 07ba a5bc 1d88 233d
00000130: 4b8c d5bb 51ec 823c ba20 e4bc 5772 c63b
00000140: 4450 ed3c 33e3 e7bc f00c 0cbc a596 353c
00000150: 5c35 433c 2d0d d23c 8a05 353c 9ce1 0f3c
00000160: 209b 943c dc4e 9e3c 2202 b0ba e1cd 2b3d
00000170: f2b9 9b3c 9ae9 b4bc d5d2 9a3c ac84 62bc
00000180: 5d34 1ebd 7467 2c3c e79e 323c 178c 14bd
00000190: 62ee 093d d8e1 eebc 4e90 8e3c ca2b ff3b
000001a0: 48fd 03bd 40d4 053d 5050 70bc f50e 9ebb
000001b0: 15e4 e9bc c131 d03c d61c 243d 069b cabb
000001c0: fae6 b0bb 95b2 a73c b407 c0bc 0043 293d
000001d0: 507b 29bc d540 f33b cc03 09bd 3099 c5bc
000001e0: 0b29 1dbd 882a d23c 5193 0dbd 767d d83c
000001f0: 5d33 16bd 6dd4 2a3c 924e b5bc 674c 8a3b
00000200: 3138 febc 98eb 1c3d 1a8a 08bd f96e 943c
00000210: 01f0 2dbc 9776 203c 6bf1 a5ba 101d 33bc
00000220: 0078 ea3c 3710 7e3c 20e0 ffbc 122e a43c
00000230: 5f05 de3a ad88 963c 4cda aebc f398 443c
00000240: eb63 35bc 61c5 ecba 57f3 db3b 01d0 213d
00000250: 4bb5 2f3d 87de 163c e5e6 8a3c 81df a53c
00000260: e26f ae3c 89d5 b63c 9cfa 66bc 363c 603c
00000270: dc4b 41bc e23b b7bc 60d0 1cbc 2e2e 1d3d
00000280: c4b4 013d fd6f e33c 1803 1abb 1495 133d
00000290: ab0c fc3c 598a 02bd 50db 33bc f70f 27bd
000002a0: 1295 db3c f7aa a93b 6199 59bb e3f2 0c3d
000002b0: 4d5d 1ebd 4d5d 3cbc de43 dabc e07f ea3c
000002c0: 342c c93c a493 88bc 57b0 0a3d cd24 4e3b
000002d0: 2045 033d dab1 b9bb beb7 1bbc 1cc8 e53c
000002e0: 6853 cc3c 5d56 dabc 72d0 8f3c 4a49 df3c
000002f0: 3067 d33c f15e e5bc 2d25 91bb f987 dbbc
00000300: 7b82 2bbc 9d2e c3bc 1d5c 2d3c 88fc 3dbc
00000310: acb2 b6bc 4795 30bc bc58 333c 0e43 353c
00000320: b79a cf3b b519 2cbd 2ba6 2fbb ae5c 89bc
00000330: c487 bdbc 321d 163d 99e2 b5bc de68 12bd
00000340: 8b6a 92bc 4b14 cbbc a713 aebc 5e7d 933c
00000350: b9f9 b2bb 5152 84bc 5ddd 1e3c 88fe 713c
00000360: e59b 6c3b 9537 01bd a588 f6bc bbc1 ee3a
00000370: 6f01 0ebc 5aee 1abd 6fa0 8ebc 8adb 9b3b
00000380: 4934 dabb f1d5 f83c 5441 7fbc e9ad 613c
00000390: 4975 c8bc cd2c 29bd b138 1cbd ca6f afbc
000003a0: 6d82 abbc f54a 26bd e1ed 0f3d 6f36 563c
000003b0: dbcb f7bc 26d9 ff3c 8786 063d afe5 f7bb
000003c0: 3793 583b 49ca e13c 86bb 833c a6f9 ddbb
000003d0: d9d0 cbbc 4319 c13c 0bb8 0e3d bb09 5c3c
000003e0: a014 f9bc e631 67bc c57f 4bbc f279 c43c
000003f0: e436 3fbc 6fd4 07bd e0f5 82ba d2c0 d8bc

deconv2.bias f4 [64]
0.0044656615 0.021296535 -0.0259013 -0.0165558 0.056682456 -0.0063872663 -0.04758933 0.028263872
-0.017162662 -0.039598897 -0.05411876 0.0017401055 -0.034207024 -0.016343728 0.01326459 -0.030061485
-0.06009895 -0.013693069 -0.020236045 0.031292286 0.023154568 -0.038926817 0.04002137 0.043021347
0.016153535 0.0785526 -0.048614543 0.041752208 0.03522545 -0.008426253 -0.017531494 -0.00541907
-0.044425666 -0.06558903 0.050747275 0.05533006 0.04755215 0.0006100631 -0.0047153314 0.002321431
0.023926506 -0.007194916 0.022875305 -0.011611292 0.0038910368 -0.008390365 0.050933607 0.021844808
-0.01761067 -0.020565167 0.014766255 -0.018205265 0.028707225 -0.0077291187 -0.02482231 0.028117422
0.06695507 -0.036345366 0.003084009 -0.029070253 -0.026142187 0.023216069 -0.018448582 -0.043148905
00000000: af54 923b 1276 ae3c f72e d4bc 07a0 87bc
00000010: dd2b 683d 464c d1bb 07ed 42bd a389 e73c
00000020: b698 8cbc 7432 22bd a2ab 5dbd 4014 e43a
00000030: aa1c 0cbd 48e3 85bc b953 593c 8143 f6bc
00000040: 512a 76bd e558 60bc 10c6 a5bc 572c 003d
00000050: a6ae bd3c ba71 1fbd 73ed 233d 2737 303d
00000060: 6b54 843c 30e0 a03d 0b20 47bd 5d04 2b3d
00000070: 9048 103d 440e 0abc 359e 8fbc 7492 b1bb
00000080: b0f7 35bd 8b53 86bd 60dc 4f3d c6a1 623d
00000090: 0bc6 423d a4ec 1f3a 1183 9abb 2623 183b
000000a0: 8501 c43c 54c3 ebbb fe64 bb3c 4a3d 3ebc
000000b0: c400 7f3b be77 09bc c29f 503d e2f3 b23c
000000c0: 4044 90bc 4878 a8bc 2aee 713c 3523 95bc
000000d0: 6a2b eb3c 8c44 fdbb 2858 cbbc 8256 e63c
000000e0: bd1f 893d e1de 14bd 161d 4a3b bd24 eebc
000000f0: 2428 d6bc a02f be3c 7b21 97bc e8bc 30bd
