contrastive_save/contrastive_weights_epoch_19.pt (torch, 749116 bytes, 8 tensors)

conv1.weight f4 [64, 3, 3, 3]
-0.0951208 -0.11317261 0.18576618 -0.03079999 0.07341131 -0.14134909 0.12722485 0.16634744
-0.0730269 -0.14231652 -0.14062779 0.048320156 0.17709452 0.16100088 -0.07878901 0.00818542
-0.032659993 -0.16895774 0.00090275897 0.08543945 0.027588457 0.075245574 -0.11199242 -0.00836065
0.06873617 -0.04112145 0.16056636 0.14722513 0.14665 -0.04791376 0.1597872 -0.1294693
-0.008762366 0.15206641 -0.035417195 0.019281605 0.15405421 -0.1708976 -0.09618619 -0.13105199
-0.11597608 0.17725147 0.0927686 0.112909466 0.13314487 -0.18604596 0.0299364 -0.05280821
-0.14279215 -0.060070515 0.056142658 0.16982163 -0.1123812 0.09205229 0.18792982 -0.04957373
-0.15093054 -0.10968415 0.11582971 0.046880696 0.07798104 0.08883361 0.16671123 -0.047632296
-0.13945746 -0.15833265 -0.074031115 -0.15109381 -0.041091524 0.18319944 0.18918714 -0.0669913
0.002190476 -0.18222122 0.03671469 0.009698442 -0.08199273 -0.17439432 -0.04472568 -0.011258572
-0.15683375 -0.065146476 0.06220932 0.16927768 0.052544605 -0.08186716 0.023808852 0.1784225
0.1451816 -0.11739117 -0.057274852 -0.15329082 0.14188547 0.023219155 0.01108879 0.04272769
0.12312461 0.056467995 0.027316013 0.034992576 -0.1202812 -0.017900996 0.14149398 -0.06646554
-0.02496953 -0.05447611 0.1512716 0.18686011 -0.16613702 -0.16596662 -0.16655487 -0.17191082
0.18779404 0.119988784 0.0037117985 0.19292106 0.13373704 0.030054053 0.13127196 -0.09849569
0.09809939 -0.0663615 0.08301755 0.09432587 0.17238323 0.08398805 -0.089741476 -0.12522712
-0.016693603 0.0700179 -0.09098935 -0.07913205 -0.00010687376 -0.09267268 -0.019572975 -0.16835724
0.02549912 -0.18194167 -0.1448545 0.07611161 0.14773138 0.045038447 0.07404857 0.09157873
-0.02089288 -0.061431386 -0.09875537 -0.15885055 0.05521061 0.16332245 -0.08728165 -0.18434623
-0.041847013 -0.06856595 -0.16419539 0.059664402 -0.04055718 -0.068803884 -0.047357533 -0.062369026
-0.11934714 0.06658797 -0.03258067 -0.12614572 -0.18649866 0.055072665 0.018882053 0.12429849
-0.17149138 0.030718777 0.060135923 -0.014565668 0.076663524 -0.17699039 0.096855715 0.0567684
-0.053244397 -0.1698843 -0.19019625 -0.061161254 -0.068422906 -0.14719678 0.15788876 -0.14648913
-0.03704902 0.09883246 -0.15732352 -0.09948533 0.06401228 0.09523785 0.07341116 0.1280854
0.049133737 -0.123614214 -0.0433107 0.031873647 -0.08907757 -0.12089371 0.13108218 -0.017570212
-0.03595789 0.18073626 0.15503775 0.11207667 0.13376138 -0.03987813 -0.120024286 0.17335945
0.0368944 0.07449208 -0.01226386 -0.11293931 0.1324655 0.0166417 0.18797186 0.11295362
0.08008434 -0.0086377915 -0.06588943 -0.0042134845 -0.06050478 -0.16451348 0.00466241 0.095172726
0.051576123 0.042769108 0.13672176 0.1348624 -0.0010636774 -0.07510259 -0.053210452 -0.034471072
-0.15869762 -0.121753216 0.1692593 -0.02870094 -0.08222899 -0.1472771 -0.03915063 -0.033513036
0.09478894 -0.18688168 0.15340343 0.13883466 -0.065330215 0.05667083 -0.049801636 -0.036646236
0.17035125 0.12380417 -0.005491385 -0.09675003 -0.06322306 0.069762886 0.089069605 -0.035321284
00000000: b2ce c2bd 0bc7 e7bd 7d39 3e3e 4350 fcbc
00000010: ab58 963d d1bd 10be 3b47 023e fc56 2a3e
00000020: 218f 95bd 6cbb 11be bb00 10be 5beb 453d
00000030: 4458 353e 6add 243e 225c a1bd 241c 063c
00000040: 7cc6 05bd 4203 2dbe 21a7 6c3a e1fa ae3d
00000050: 3001 e23c 5a1a 9a3d 485c e5bd 1cfb 08bc
00000060: 8dc5 8c3d f76e 28bd 826b 243e 2fc2 163e
00000070: 6b2b 163e 3841 44bd 419f 233e 9a93 04be
00000080: 0790 0fbc 4cb7 1b3e 9f11 11bd 75f4 9d3c
00000090: 63c0 1d3e c8ff 2ebe 44fd c4bd 7e32 06be
000000a0: de84 edbd 6981 353e 77fd bd3d 143d e73d
000000b0: 2157 083e d582 3ebe 2e3d f53c 6c4d 58bd
000000c0: 1b38 12be 800c 76bd d8f5 653d b9e5 2d3e
000000d0: 1d28 e6bd e985 bc3d ad70 403e d30d 4bbd
000000e0: 898d 1abe 15a2 e0bd 2138 ed3d f905 403d
000000f0: 86b4 9f3d 65ee b53d 59b6 2a3e 151a 43bd
00000100: f0cd 0ebe f421 22be a09d 97bd 56b8 1abe
00000110: 964f 28bd a298 3b3e 46ba 413e bc32 89bd
00000120: 178e 0f3b 3398 3abe 2562 163d 37e6 1e3c
00000130: ceeb a7bd 6d94 32be 4632 37bd e075 38bc
00000140: 0799 20be 846b 85bd 33cf 7e3d 2157 2d3e
00000150: 0339 573d f8a9 a7bd c80a c33c 63b4 363e
00000160: 7caa 143e c86a f0bd 0999 6abd 45f8 1cbe
00000170: 6d4a 113e 1936 be3c c2ad 353c 3b03 2f3d
00000180: c128 fc3d fc4a 673d d5c5 df3c 6054 0f3d
00000190: fd55 f6bd 1ca5 92bc cce3 103e 161f 88bd
000001a0: e68c ccbc 5722 5fbd f1e6 1a3e 4258 3f3e
000001b0: d31f 2abe 27f3 29be 5c8d 2abe 6409 30be
000001c0: 154d 403e aebc f53d a541 733b 198d 453e
000001d0: 5df2 083e eb33 f63c 286c 063e 1cb8 c9bd
000001e0: 55e8 c83d 8ae8 87bd 1b05 aa3d ec2d c13d
000001f0: 3b85 303e ed01 ac3d 61ca b7bd 8a3b 00be
00000200: 06c1 88bc 8b65 8f3d a058 babd fc0f a2bd
00000210: 6a21 e0b8 2dcb bdbd 8157 a0bc d765 2cbe
00000220: 88e3 d03c eb4e 3abe bd54 14be 67e0 9b3d
00000230: e546 173e 3c7a 383d c7a6 973d a18d bb3d
00000240: 8c27 abbc 7a9f 7bbd 4140 cabd b8a9 22be
00000250: 8524 623d 003e 273e b9c0 b2bd 42c5 3cbe
00000260: c667 2bbd 4e6c 8cbd d622 28be a962 743d
00000270: 491f 26bd 0de9 8cbd f9f9 41bd aa76 7fbd
00000280: 466c f4bd 465f 883d 4f73 05bd 582c 01be
00000290: 81f9 3ebe e093 613d 89ae 9a3c 3590 fe3d
000002a0: 709b 2fbe f2a5 fb3c 1651 763d d7a4 6ebc
000002b0: c401 9d3d f83c 35be 4a5c c63d fb85 683d
000002c0: cc16 5abd 26f6 2dbe cec2 42be 3984 7abd
000002d0: 4f21 8cbd c1ba 16be 97ad 213e 3f01 16be
000002e0: b7c0 17bd ac68 ca3d 6b19 21be f7be cbbd
000002f0: df18 833d 100c c33d 9758 963d d228 033e
00000300: 7540 493d 7329 fdbd 9066 31bd f18d 023d
00000310: 4d6e b6bd 1f97 f7bd 683a 063e 68ef 8fbc
00000320: 9548 13bd ed12 393e 37c2 1e3e 7488 e53d
00000330: bef8 083e 4057 23bd 4bcf f5bd 2485 313e
00000340: 951e 173d 4e8f 983d 5bee 48bc ba4c e7bd
00000350: 09a5 073e 2d54 883c b27b 403e 3a54 e73d
00000360: 4203 a43d 8685 0dbc 0af1 86bd 4511 8abb
00000370: dcd3 77bd 3976 28be 21c7 983b ebe9 c23d
00000380: 7c41 533d a92e 2f3d ca00 0c3e 5e19 0a3e
00000390: 176b 8bba 63cf 99bd 34f3 59bd 8a31 0dbd
000003a0: a181 22be c059 f9bd 4f52 2d3e 3c1e ebbc
000003b0: ac67 a8bd cfcf 16be 695c 20bd f744 09bd
000003c0: b420 c23d e95d 3fbe ca15 1d3e ac2a 0e3e
000003d0: d9cb 85bd ac1f 683d cdfc 4bbd 5d1a 16bd
000003e0: 8f70 2e3e 0a8d fd3d 13f1 b3bb e124 c6bd
000003f0: 177b 81bd d8df 8e3d 206a b63d 0dad 10bd

conv1.bias f4 [64]
0.12953478 -0.16140139 0.018673081 -0.021253675 -0.05328107 -0.18879583 -0.059681267 0.035855412
-0.1622217 0.018000618 0.015301511 0.004668165 -0.07972712 -0.1577114 -0.18049707 0.054463238
0.14703865 0.11954574 -0.10142373 -0.058586568 0.11651277 -0.030678606 -0.16415702 -0.16173758
-0.121739626 -0.028727915 -0.12107454 -0.05091732 0.1537051 0.059204474 -0.17450078 0.047735706
-0.017654302 0.08985309 0.15643841 0.12897821 0.18954654 0.0034976061 0.032949667 -0.15844564
-0.0747659 0.019634072 0.053719364 0.024360651 0.0058505903 -0.1058077 -0.14648624 0.17113943
0.0023772933 -0.0033641055 0.17540257 -0.07341346 -0.12632939 -0.06461024 0.0537755 -0.103975214
0.07217762 -0.03547899 0.14786968 0.122395255 -0.103562824 -0.12251914 0.18013194 0.10541305
00000000: c4a4 043e 6846 25be 4af8 983c 301c aebc
00000010: 403d 5abd b253 41be 5874 74bd 20dd 123d
00000020: 721d 26be 0876 933c 30b3 7a3c 68f7 983b
00000030: f947 a3bd 197f 21be 39d4 38be d814 5f3d
00000040: 4d91 163e 66d4 f43d 3fb7 cfbd 78f8 6fbd
00000050: 3f9e ee3d b351 fbbc c718 28be 899e 25be
00000060: a052 f9bd ce56 ebbc eef5 f7bd ae8e 50bd
00000070: df64 1d3e 6480 723d 55b0 32be 8486 433d
00000080: c19f 90bc e604 b83d 6431 203e dd12 043e
00000090: 7d18 423e 1838 653b 3bf6 063d 933f 22be
000000a0: dd1e 99bd a2d7 a03c d608 5c3d fd8f c73c
000000b0: 4fb6 bf3b b5b1 d8bd 7d00 16be 2d3f 2f3e
000000c0: 5dcc 1b3b 5378 5cbb bb9c 333e cc59 96bd
000000d0: 7e5c 01be 6052 84bd b343 5c3d f5f0 d4bd
000000e0: dcd1 933d 6b52 11bd 266b 173e 5daa fa3d
000000f0: bf18 d4bd 51eb fabd 8274 383e cce2 d73d

conv2.weight f4 [128, 64, 3, 3]
-0.018608412 0.0014210002 -0.03634111 -0.021005029 -0.026243059 -0.03405904 -0.005745971 0.009768132
0.01956148 -0.03908469 -0.016475383 -0.025844233 0.011852668 -0.0078098467 -0.020207243 0.036978316
-0.037902784 -0.0046189297 0.01904659 0.01005659 -0.040770948 -0.012113183 0.00039917414 0.021064764
0.00056151167 0.02726408 -0.031904355 -0.040792864 0.026169393 0.014079467 0.027407791 -0.021217536
0.031332128 0.017385907 0.017000621 -0.03936141 -0.01631006 -0.025570357 -0.01583121 0.0049944483
-0.014295878 0.033705343 -0.037052006 -0.0038387682 -0.010768952 -0.041584603 -0.02038986 0.03178087
-0.016755175 0.016115855 0.030026635 -0.018317923 -0.03725642 0.035408296 0.017133396 -0.039288342
0.022233963 -0.031253323 -0.007297008 0.039292753 0.028335702 0.014784142 0.013984969 0.035748065
0.018800654 0.004283764 -0.014810548 -0.022715645 0.028035093 -0.036088925 -0.027518867 -0.009955297
-0.040145915 -0.032892793 -0.0029882952 0.040171802 0.026163328 0.027643036 0.026871974 0.030546937
0.011117783 -0.037092343 0.026609648 -0.0004096674 -4.8284197e-05 0.03687361 0.018591579 0.0043901526
-0.02491809 -0.027714636 0.013752077 -0.009593946 0.0063449917 0.020601561 0.016775122 0.014987945
0.02105892 0.0069502927 0.020126859 -0.010040065 -0.03027538 -0.0036152708 0.002545219 -0.022863753
0.008436821 0.020215392 -0.03639541 0.03874056 -0.03336607 -0.0036327231 -0.0143941175 0.015126493
-0.03140764 0.017793538 0.013362545 0.0037275045 0.001715995 0.007738272 0.039156903 0.027398575
0.013911632 0.009562946 -0.026877789 -0.0326319 0.025412394 0.028497446 0.023217892 0.020163985
-0.007589029 -0.013338385 -0.027106507 -0.016846895 -0.0063176076 -0.0406782 0.016609436 0.010620358
-0.008100948 0.02592351 0.03855768 -0.0057072146 -0.04024973 -0.027755085 0.02697552 0.040581398
-0.032240465 0.014006257 -0.017305635 0.012477509 0.028392475 -0.028810013 0.040322468 0.03175511
0.004715004 0.014004765 0.01774434 0.013559655 0.018548166 0.011166679 -0.03222076 0.0042839437
0.024169272 0.010187305 -0.010385769 0.032336675 -0.039571453 -0.03582835 -0.013796213 -0.027314322
0.030671027 -0.039894987 -0.03755739 0.028197493 -0.023431685 -0.003816542 -0.015168054 0.007972083
0.011711938 0.023588067 0.023801856 -0.0025602162 0.0024139928 -0.031388342 0.032181963 -0.020825373
0.040620435 -0.017038187 -0.0061432645 -0.035833027 0.030402372 -0.008003837 0.04160028 0.011996596
0.019397896 -0.013006785 0.030259676 -0.021975107 0.008112002 -0.0038444274 0.0019779815 -0.02345775
0.005530308 -0.03024676 -0.023280587 0.00651036 0.016014835 0.01949212 0.016038567 6.1905695e-05
-0.025488704 -0.02223263 0.023218121 -0.028722033 0.0041737854 0.015212919 -0.03929473 -0.0018275635
0.0064928303 0.0074257995 -0.011258372 0.027083106 -0.028760727 0.029388856 -0.009020214 0.012439699
0.032341108 -0.03621729 0.02270326 0.032656744 -0.018195383 -0.032517225 0.029414987 -0.022058295
0.04014256 -0.01771853 0.03681676 0.009385422 -0.029509451 0.040542297 -0.013532412 0.03581004
0.019675571 0.0117349075 0.0068582105 0.03647968 0.0068861693 0.00947797 -0.0028426135 0.029999971
0.025331683 0.012946891 0.0018802754 -0.023676189 0.031024154 -0.028344361 0.023545796 0.026150437
00000000: ab70 98bc db40 ba3a 6ada 14bd bd12 acbc
00000010: affb d6bc 7e81 0bbd b348 bcbb 840a 203c
00000020: 663f a03c 4517 20bd 62f7 86bc 49b7 d3bc
00000030: b131 423c bee9 ffbb a989 a5bc 9376 173d
00000040: f33f 1bbd 645a 97bb 9807 9c3c 65c4 243c
00000050: 70ff 26bd 5f76 46bc 3f48 d139 0390 ac3c
00000060: 6932 133a eb58 df3c 24ae 02bd 6b16 27bd
00000070: 3261 d63c 91ad 663c 4e86 e03c 66d0 adbc
00000080: 1e56 003d e46c 8e3c e344 8b3c 6e39 21bd
00000090: ad9c 85bc ed78 d1bc 74b0 81bc 78a8 a33b
000000a0: 4239 6abc 9d0e 0a3d d8c3 17bd d893 7bbb
000000b0: 4270 30bc 9e54 2abd a308 a7bc a82c 023d
000000c0: 2642 89bc 6605 843c 6bfa f53c 780f 96bc
000000d0: 309a 18bd 4a08 113d 565b 8c3c d0ec 20bd
000000e0: 0024 b63c 7c03 00bd bd1b efbb 70f1 203d
000000f0: 4620 e83c 3039 723c 3621 653c 906c 123d
00000100: d403 9a3c d15e 8c3b f1a7 72bc 2916 babc
00000110: daa9 e53c fbd1 13bd 3f6f e1bc 8b1b 23bc
00000120: 0b70 24bd 98ba 06bd 46d7 43bb 308b 243d
00000130: 7a54 d63c a673 e23c 9d22 dc3c 923d fa3c
00000140: 5d27 363c 24ee 17bd 7afc d93c a1c8 d6b9
00000150: c384 4ab8 c808 173d 5e4d 983c 45db 8f3b
00000160: 0621 ccbc ce09 e3bc 6450 613c ed2f 1dbc
00000170: a6e9 cf3b 9bc4 a83c fb6b 893c ff8f 753c
00000180: c283 ac3c 48bf e33b 15e1 a43c 167f 24bc
00000190: 1304 f8bc 2eee 6cbb b0cd 263b c44c bbbc
000001a0: 983a 0a3c c09a a53c 5a13 15bd 6cae 1e3d
000001b0: dcaa 08bd fb12 6ebb 4ed5 6bbc 1cd5 773c
000001c0: 4ca5 00bd c1c3 913c 93ee 5a3c 2649 743b
000001d0: 3deb e03a 5591 fd3b fd62 203d fa72 e03c
000001e0: 9ded 633c e7ad 1c3c cf2e dcbc 07a9 05bd
000001f0: a72d d03c 7a73 e93c 7333 be3c f12e a53c
00000200: 64ad f8bb 3e89 5abc 770e debc 8002 8abc
00000210: ef03 cfbb 2f9e 26bd 8310 883c 0301 2e3c
00000220: d7b9 04bc 8a5d d43c a8ee 1d3d 9603 bbbb
00000230: e7dc 24bd a25e e3bc c4fb dc3c ae38 263d
00000240: 940e 04bd 807a 653c 8cc4 8dbc 776e 4c3c
00000250: 5697 e83c fa02 ecbc 2c29 253d a511 023d
00000260: 5280 9a3b 3e74 653c 945c 913c 5129 5e3c
00000270: 53f2 973c 72f4 363c eaf9 03bd 5360 8c3b
00000280: a3fe c53c a7e8 263c 1329 2abc 7673 043d
00000290: ad15 22bd bfc0 12bd 8309 62bc 49c2 dfbc
000002a0: ce41 fb3c ed68 23bd c7d5 19bd 6efe e63c
000002b0: cef3 bfbc f31e 7abb 6e83 78bc 579d 023c
000002c0: 6ee3 3f3c c33b c13c 1cfc c23c 4dc9 27bb
000002d0: 1434 1e3b 1091 00bd 3cd1 033d f999 aabc
000002e0: 9d61 263d ab93 8bbc 704d c9bb a7c5 12bd
000002f0: 650e f93c 8722 03bc 0e65 2a3d 5f8d 443c
00000300: 56e8 9e3c 691a 55bc 24e3 f73c 2405 b4bc
00000310: 34e8 043c caf2 7bbb 06a1 013b 782a c0bc
00000320: 9637 b53b 0ec8 f7bc eeb6 bebc dc54 d53b
00000330: 8b31 833c f0ad 9f3c 5063 833c 5ed3 8138
00000340: b0cd d0bc 3421 b6bc ee33 be3c 784a ebbc
00000350: 40c4 883b 9b3f 793c 83f3 20bd db8a efba
00000360: cfc1 d43b 1f54 f33b 0975 38bc 64dd dd3c
00000370: 9e9b ebbc e6c0 f03c 85c9 13bc e1cf 4b3c
00000380: 1c78 043d 9558 14bd 30fc b93c 14c3 053d
00000390: 7c0e 95bc c830 05bd b3f7 f03c 99b3 b4bc
000003a0: 866c 243d 7326 91bc 2ccd 163d 50c5 193c
000003b0: cebd f1bc ae0f 263d 0db7 5dbc 8cad 123d
000003c0: aa2e a13c c543 403c d7ba e03b b86b 153d
000003d0: 60a5 e13b 7d49 1b3c 244b 3abb 80c2 f53c
000003e0: 6484 cf3c 321f 543c 9373 f63a 91f4 c1bc
000003f0: 5e26 fe3c 6f32 e8bc 1de3 c03c 7139 d63c

conv2.bias f4 [128]
0.0010918328 -0.039037004 0.030190878 0.02258691 0.030321196 -0.010935425 0.0396519 0.053364106
0.04402802 0.03460105 0.0017798874 -0.031435456 -0.0022194902 -0.0042686975 0.016087193 -0.033640523
-0.0005013121 0.019298546 0.01839808 0.030126775 -0.039224666 -0.04369803 -0.022372909 0.034600165
-0.025258163 -0.0031937663 -0.0059942924 -0.004077833 0.0370516 -0.039769348 -0.033090543 -0.032914266
-0.006908809 0.01215289 0.02685104 -0.02744443 0.038676687 0.029770922 0.040747244 -0.012566144
-0.009546785 0.012926953 -0.03688431 -0.026520915 -0.014165461 -0.030581042 -0.03134454 0.020402161
-0.013960037 0.03610404 0.014200841 0.04195116 0.017963344 -4.885006e-07 0.0191561 0.043014914
-0.03904448 -0.012796042 0.01312398 -0.025498122 -0.018057875 -0.032541886 0.018290158 -0.043960642
0.007130085 -0.01675768 -0.0070245992 -0.03273891 -0.03562375 0.0042535393 0.0039497567 0.0033420844
0.0009611053 -0.020576403 -0.007772774 -0.031183833 -0.034826986 -0.023286773 -0.006016897 0.01526687
0.019825855 0.035271604 -0.008712299 0.035714656 -0.011810045 0.009413911 0.04183651 0.026905337
-0.031631455 -0.05204917 0.017517364 0.042152394 0.0124010425 0.013106599 -0.0051454096 0.019001812
0.04902763 -0.04054893 0.027532844 -0.0057298597 -0.024360862 -0.028214512 0.028832735 -0.0062706764
0.025841236 0.0006730441 0.0008048904 -0.011713944 0.029402407 -0.0396144 0.043616317 -0.031183166
0.0084224865 -0.0159305 0.03010355 0.014228419 0.025889758 0.00033297567 0.0036098904 -0.016647164
0.030368136 -0.022677097 -0.03839892 0.034949116 -0.020633265 0.008566673 -0.023277592 -0.01583685
00000000: d41b 8f3a 44e5 1fbd dc52 f73c 2f08 b93c
00000010: 2864 f83c 7f2a 33bc 086a 223d 5294 5a3d
00000020: ba56 343d d5b9 0d3d 1c4b e93a 77c2 00bd
00000030: de74 11bb 6ee0 8bbb 4ac9 833c a5ca 09bd
00000040: 7c6a 03ba fc17 9e3c 92b7 963c 6dcc f63c
00000050: 0baa 20bd b5fc 32bd 6447 b7bc e7b8 0d3d
00000060: 35ea cebc 824e 51bb c56b c4bb 589f 85bb
00000070: 6bc3 173d 2fe5 22bd f389 07bd 1cd1 06bd
00000080: 4a63 e2bb ea1c 473c b6f6 db3c 24d3 e0bc
00000090: 726b 1e3d 26e2 f33c 95e6 263d 3ae2 4dbc
000000a0: 1e6a 1cbc 92cb 533c 0114 17bd 6442 d9bc
000000b0: 4016 68bc 1885 fabc 2263 00bd 6f22 a73c
000000c0: a4b8 64bc d4e1 133d a5aa 683c fbd4 2b3d
000000d0: dd27 933c 8121 03b5 41ed 9c3c 6830 303d
000000e0: 1bed 1fbd 7da6 51bc f605 573c 70e1 d0bc
000000f0: 1cee 93bc a44a 05bd 3ed5 953c 1310 34bd
00000100: 7da3 e93b 6747 89bc 9c2e e6bb 3c19 06bd
00000110: 36ea 11bd 4661 8b3b f66c 813b df06 5b3b
00000120: aff2 7b3a d88f a8bc c1b2 febb 3d75 ffbc
00000130: bea6 0ebd e7c3 bebc 6429 c5bb e521 7a3c
00000140: d569 a23c f578 103d 08be 0ebc 8849 123d
00000150: eb7e 41bc ce3c 1a3c c35c 2b3d 9568 dc3c
00000160: fc8f 01bd 8331 55bd 9380 8f3c fda7 2c3d
00000170: be2d 4b3c 10bd 563c d39a a8bb b0a9 9b3c
00000180: 32d1 483d a316 26bd 8f8c e13c 8cc1 bbbb
00000190: 6e90 c7bc 1f22 e7bc a132 ec3c 3f7a cdbb
000001a0: 00b1 d33c 3a6f 303a 48ff 523a d8eb 3fbc
000001b0: 51dd f03c b642 22bd 06a7 323d d773 ffbc
000001c0: 78fe 093c ae80 82bc b89b f63c 511e 693c
000001d0: c216 d43c 3d93 ae39 e993 6c3b a25f 88bc
000001e0: 99c6 f83c 52c5 b9bc 3048 1dbd ce26 0f3d
000001f0: 1807 a9bc 3b5b 0c3c a6b0 bebc 48bc 81bc

deconv1.weight f4 [128, 64, 3, 3]
0.027332248 -0.02359163 -0.029340582 0.017973632 0.019200705 -0.019539699 -0.026233621 0.012954149
-0.024988519 -0.012097245 0.023555344 -0.028329656 -0.0136629995 -0.017068734 -0.006855743 0.0013238072
0.00087702373 0.0055051036 0.027767217 -0.01300902 -0.0057161306 -0.022551876 -0.036660377 0.025823914
0.03052457 -0.008760667 0.018457923 -0.038102675 -0.032342773 0.02634259 0.01473957 -0.020706521
-0.00817755 0.019802114 0.02920112 0.0103823785 -0.007837422 -0.0025382643 0.033003196 -0.03560078
-0.040558804 -0.03957111 0.028801737 -0.028603718 0.0086213825 0.016886478 -0.025335524 -0.02476722
-0.0183321 -0.029113946 0.034281306 0.040916447 -0.0011329828 -0.0023445368 0.029034944 -0.0034215334
-0.023552235 -0.017012518 0.006520115 0.028743481 -0.013055063 -0.026119344 -0.01564547 -0.040696274
-0.019910635 -0.0373276 -0.007910919 -0.0041423687 0.00048555594 0.009723189 0.013707367 0.00042386743
-0.019929772 0.03249149 -0.018795477 0.038160704 0.037969302 0.041047633 0.0020845074 -0.03592049
0.016836895 0.002557623 -0.0023517453 -0.041231338 0.023477847 -0.0012543286 0.007050568 0.019480474
-0.009014052 -0.029807637 -0.016485022 0.022370692 -0.007837563 0.011268 -0.033792265 0.005997871
-0.023176756 0.007952185 -0.021167833 0.0006031276 0.018607406 -0.01434137 -0.032402724 -0.022131426
-0.011560013 0.026902571 -0.036865864 0.011631118 0.033322364 0.037897155 -0.0030750537 0.012677301
0.014816062 0.034999322 -0.0034080376 0.01923161 0.02598994 0.013319139 0.02991464 -0.0047895587
0.00083693536 0.0073141814 0.04104617 -0.01343052 -0.03575323 0.035433833 -0.03419815 0.040911168
0.03331193 0.023406511 0.03970733 -0.017416146 0.0039729173 -0.035212696 -0.03366463 0.03575381
0.03900086 -0.040765543 0.021480985 0.008402848 0.015273135 0.031786866 0.019946884 -0.0053442097
0.03892559 0.004866311 0.030548627 -0.022729682 0.006734716 -0.017829336 0.025632272 -0.034746177
0.007162839 0.029995224 0.033240553 -0.00819452 -0.025386177 -0.025573593 -0.013290448 -0.0063356915
-0.036524016 0.030700207 0.015706709 0.014920379 -0.0040132357 -0.03594054 -0.013129866 0.014497563
0.0034976702 -0.013695583 -0.023278346 0.013923443 0.00083004223 -0.028807223 0.0014012891 0.0337807
-0.009681562 0.014853949 0.041203693 -0.00965665 0.012756345 0.01478338 0.031209067 0.03748831
0.008481104 0.020000571 0.037238937 0.019093638 0.039615083 0.005562305 -0.0016254561 0.012403024
-0.017751316 -0.024193125 -0.03751835 -0.0063513517 0.016422838 -0.037872493 0.031032942 0.033955418
-0.020644251 -0.04127999 -0.008356614 -0.019622667 0.012912744 0.029890727 0.03960561 -0.0154515635
-0.02114824 -0.03780119 0.038086772 0.029847126 0.040818267 0.0040558362 -0.03574495 0.0043540094
-0.00963632 0.030813819 0.003394099 0.014569397 0.022696309 -0.030648604 -0.00022620367 -0.011962122
-0.030557489 -0.0027393354 -0.026299577 -0.0021151348 0.007700117 0.019774623 0.02037395 -0.018971875
0.0038835136 0.016740846 -0.014679233 0.019567361 -0.020711454 -0.010464155 0.011239253 0.0052281804
-0.026620904 0.006811306 -0.010080839 -0.039628457 -0.005265896 -0.040645815 0.03320116 0.040520225
0.03751646 -0.004674729 -0.012418126 0.012597676 -0.0095097255 0.014279442 0.026661737 0.012029105
00000000: e1e7 df3c 3c43 c1bc a95b f0bc 703d 933c
00000010: cc4a 9d3c b811 a0bc e4e7 d6bc a43d 543c
00000020: b9b4 ccbc 8633 46bc 23f7 c03c 9813 e8bc
00000030: c6da 5fbc bbd3 8bbc 24a6 e0bb 9983 ad3a
00000040: 11e8 653a 2864 b43b 1378 e33c c923 55bc
00000050: 614e bbbb b6be b8bc 3129 16bd ac8c d33c
00000060: aa0e fa3c e788 0fbc 1235 973c 8d11 1cbd
00000070: db79 04bd 6acc d73c 3d7e 713c b9a0 a9bc
00000080: 21fb 05bc 0b38 a23c 3037 ef3c da1a 2a3c
00000090: 8868 00bc 0259 26bb 5c2e 073d 20d2 11bd
000000a0: fd20 26bd 5115 22bd 9ff1 eb3c 5852 eabc
000000b0: b340 0d3c 8355 8a3c 728c cfbc a0e4 cabc
000000c0: 332d 96bc 5f80 eebc 8e6a 0c3d 0198 273d
000000d0: 9880 94ba cda6 19bb b1da ed3c ce3b 60bb
000000e0: 9ef0 c0bc d65d 8bbc b0a6 d53b 7377 eb3c
000000f0: e7e4 55bc 3cf8 d5bc ee2a 80bc 23b1 26bd
00000100: a11b a3bc d3e4 18bd cd9c 01bc b5bc 87bb
00000110: 3792 fe39 034e 1f3c dd94 603c 863a de39
00000120: c343 a3bc cc15 053d f9f8 99bc 664e 1c3d
00000130: b385 1b3d 9021 283d 3b9c 083b 5d21 13bd
00000140: 87ed 893c cb9d 273b bd1f 1abb 31e2 28bd
00000150: 9d54 c03c 4968 a4ba 7308 e73b 8495 9f3c
00000160: adaf 13bc 252f f4bc 990b 87bc be42 b73c
00000170: 1f69 00bc 6b9d 383c c269 0abd ca89 c43b
00000180: 2edd bdbc e249 023c 2a68 adbc 351b 1e3a
00000190: 8f6e 983c 11f8 6abc b8b8 04bd f74c b5bc
000001a0: 3566 3dbc c862 dc3c a900 17bd 7290 3e3c
000001b0: 087d 083d 0c3a 1b3d d786 49bb 74b4 4f3c
000001c0: 11bf 723c 735b 0f3d 6259 5fbb 9c8b 9d3c
000001d0: dbe8 d43c 8538 5a3c 8c0f f53c bbf1 9cbb
000001e0: c865 5b3a cdab ef3b 0720 283d af0b 5cbc
000001f0: fb71 12bd 1123 113d 5c13 0cbd 7892 273d
00000200: 1772 083d 03bf bf3c 27a4 223d 4eac 8ebc
00000210: 3f2f 823b 303b 10bd ece3 09bd 9672 123d
00000220: 5ebf 1f3d c5f9 26bd e4f8 af3c 19ac 093c
00000230: 2c3c 7a3c f232 023d a667 a33c 7b1e afbb
00000240: 7170 1f3d 9375 9f3b 1d41 fa3c 9933 babc
00000250: e4ae dc3b d40e 92bc c5fa d13c 0252 0ebd
00000260: 40b6 ea3b 8bb8 f53c 3f27 083d 4f42 06bc
00000270: acf6 cfbc b67f d1bc 2ec0 59bc a29b cfbb
00000280: 359a 15bd 007f fb3c 5bab 803c 9b74 743c
00000290: 7681 83bb 6336 13bd a61e 57bc 3087 6d3c
000002a0: 2b39 653b 7063 60bc 3bb2 bebc 271f 643c
000002b0: 3197 593a 20fd ebbc 76ab b73a a25d 0a3d
000002c0: 6a9f 1ebc fa5d 733c 34c5 283d ed36 1ebc
000002d0: fdff 503c fd35 723c 28aa ff3c 588d 193d
000002e0: 54f4 0a3c 3dd8 a33c db87 183d 436a 9c3c
000002f0: 6d43 223d ff43 b63b 420d d5ba 0e36 4b3c
00000300: 356b 91bc a930 c6bc d7ac 19bd 001f d0bb
00000310: 3089 863c 3020 1bbd cc38 fe3c d614 0b3d
00000320: 221e a9bc 3515 29bd 2eea 08bc b7bf a0bc
00000330: f98f 533c 66dd f43c 7e39 223d 8e28 7dbc
00000340: 133f adbc 6cd5 1abd e000 1c3d f681 f43c
00000350: 0e31 273d d2e6 843b 4c69 12bd 14ac 8e3b
00000360: a8e1 1dbc 436d fc3c 886f 5e3b 7bb4 6e3c
00000370: 9ced b93c c812 fbbc 1631 6db9 c7fc 43bc
00000380: b353 fabc 6c86 33bb 3672 d7bc 139e 0abb
00000390: 4351 fc3b 64fe a13c 45e7 a63c e86a 9bbc
000003a0: 8c82 7e3b 1924 893c 2a81 70bc bb4b a03c
000003b0: 11ab a9bc d971 2bbc d824 383c 2851 ab3b
000003c0: 1514 dabc 6031 df3b 1a2a 25bc 7351 22bd
000003d0: 8a8d acbb 3a7c 26bd f1fd 073d 89f8 253d
000003e0: dcaa 193d 782e 99bb 6575 4bbc 7c66 4e3c
000003f0: aece 1bbc 52f4 693c b769 da3c b915 453c

deconv1.bias f4 [64]
0.0007516508 0.043289375 0.013292682 0.0021842676 -0.016273852 0.0197701 -0.021430548 0.032183938
-0.012113613 0.0054770713 0.006490743 -0.026516514 -0.0057401084 -0.016995357 -0.0033539871 -0.025412591
-0.03456747 0.044862617 -0.032767512 0.006655321 -0.019228276 -0.018570906 -0.0070404788 0.028207863
0.016223319 -0.013095427 0.019058734 -0.027549274 -0.03696308 0.003610046 -0.009860776 -0.038774326
-0.021466477 -0.006872597 -0.024957301 0.042435553 -0.012723618 0.044253957 -0.045417797 -0.011764516
0.06544276 0.025510633 -0.020644616 -0.04311471 -0.021155613 0.0142462 0.0040831096 0.011189768
-0.035631105 -0.0243808 -0.01720204 -0.02616532 -0.0053934767 -0.025690507 -0.033122484 0.01261902
-0.025915794 0.04604392 -0.028667025 0.0060694525 -0.02170808 -0.042210728 -0.013938871 -0.042139664
00000000: 6e0a 453a 3350 313d 8dc9 593c ee25 0f3b
00000010: be50 85bc e8f4 a13c 1e8f afbc 4ed3 033d
00000020: 2d78 46bc 0179 b33b 4cb0 d43b 2939 d9bc
00000030: 8517 bcbb d939 8bbc 91ce 5bbb 112e d0bc
00000040: 9f96 0dbd ddc1 373d 3a37 06bd e114 da3b
00000050: 9e84 9dbc 0322 98bc d1b3 e6bb 2d14 e73c
00000060: c4e6 843c 348e 56bc 1021 9c3c 04af e1bc
00000070: 9966 17bd 8696 6c3b 188f 21bc d4d1 1ebd
00000080: 77da afbc 8633 e1bb 4173 ccbc e7d0 2d3d
00000090: b976 50bc a343 353d 0308 3abd f5bf 40bc
000000a0: db06 863d adfb d03c e61e a9bc 0d99 30bd
000000b0: 894e adbc e568 693c 9bcb 853b 4a55 373c
000000c0: ecf1 11bd 3eba c7bc 4beb 8cbc a758 d6bc
000000d0: c3bb b0bb e674 d2bc 71ab 07bd 02c0 4e3c
000000e0: 5c4d d4bc 8d98 3c3d 1cd7 eabc 42e2 c63b
000000f0: 25d5 b1bc 28e5 2cbd dd5f 64bc a49a 2cbd

deconv2.weight f4 [64, 64, 3, 3]
-0.006800301 0.03929331 0.03609491 0.023410052 0.03463308 -0.024705293 0.037945237 0.024474688
0.0131283365 -0.020637382 0.011808251 0.004940779 -0.009974878 0.04078424 0.027920904 0.0134904375
0.022307912 -0.026001805 -0.032566987 -0.040741835 0.032498714 0.029435202 -0.013440813 0.02570592
-0.0056918003 -0.03360226 0.03556722 0.0067362217 0.0062361374 0.008832701 0.015299527 -0.02108719
0.025118101 -0.035758868 -0.010222197 -0.018228866 0.03364944 0.029701065 -0.03911895 -0.011042926
0.013493112 0.03568155 -0.010732851 -0.040586364 -0.019275296 -0.0047469325 0.016058125 -0.04065601
-0.019205386 -0.04000348 -0.007720571 0.018275565 -0.039986897 -0.02427791 0.037699208 -0.023901649
-0.021496877 0.018394902 -0.0017376418 -0.028932676 -0.00942276 0.0025677858 0.040619276 0.003891316
0.024039896 -0.028858103 0.001856851 -0.013759134 0.0033763233 -0.021351691 -0.03505971 0.024506405
0.02129146 0.036010157 -0.02022438 0.039928686 -0.006513086 0.015986169 -0.027844599 0.006059138
0.02897245 -0.028234618 -0.008476348 0.011156026 0.011981513 0.025707759 0.011116611 0.00884493
0.018203367 0.019388935 -0.00126762 0.04201886 0.01908636 -0.02201833 0.018964496 -0.013757875
-0.03856496 0.010581477 0.010963673 -0.03627064 0.03367086 -0.029165195 0.017403318 0.0077881487
-0.03222419 0.032676175 -0.014664224 -0.004821499 -0.028533423 0.025431843 0.040084943 -0.0061698393
-0.0053856187 0.02048487 -0.02343101 0.041333742 -0.010333233 0.0074048648 -0.03346928 -0.0241397
-0.038386375 0.025638042 -0.034581613 0.02641085 -0.036686085 0.010410224 -0.022160927 0.0041922918
-0.031062193 0.038286865 -0.033358153 0.018094439 -0.0106368875 0.009773626 -0.0012878813 -0.010882432
0.028671144 0.015557424 -0.031190028 0.020085966 0.0017396973 0.018416937 -0.02130333 0.01204178
-0.010972138 -0.0017083203 0.006813413 0.03959163 0.04298323 0.009297481 0.017034154 0.020325901
0.021374866 0.022306371 -0.014109607 0.013673302 -0.011806721 -0.022375839 -0.009580874 0.03836724
0.03166006 0.027755471 -0.002337377 0.036043625 0.03078053 -0.031857964 -0.010965334 -0.040774398
0.026816238 0.0051896884 -0.0033083933 0.03440085 -0.038673464 -0.011508036 -0.02664962 0.028619623
0.024550414 -0.016674886 0.033856697 0.0031415848 0.0320667 -0.0056489804 -0.009485404 0.028065357
0.024957571 -0.026636012 0.01756997 0.027270874 0.025821285 -0.027919317 -0.004349551 -0.02671749
-0.0103916405 -0.02374954 0.010658385 -0.011522689 -0.022228846 -0.010703632 0.010914495 0.011031447
0.006302981 -0.042045366 -0.0027088474 -0.016797237 -0.023162408 0.036622565 -0.022229996 -0.03580917
-0.01793699 -0.02485638 -0.021304168 0.01795017 -0.005518622 -0.016200526 0.00964874 0.0147195505
0.003620973 -0.031536415 -0.030084295 0.0018343237 -0.008654476 -0.037812747 -0.01739655 0.0047703753
-0.0066457796 0.03026343 -0.015690008 0.01365924 -0.024561912 -0.041393045 -0.03823589 -0.021494532
-0.021014154 -0.040682442 0.035242792 0.013177436 -0.03014267 0.03132328 0.032934178 -0.007470812
0.003388338 0.02764541 0.01616732 -0.006853211 -0.024958057 0.023490839 0.03477504 0.013362415
-0.030475898 -0.014172591 -0.012481629 0.023919795 -0.011745383 -0.03323528 -0.0010754341 -0.026522906
00000000: 0fd5 debb 06f2 203d 42d8 133d 70c6 bf3c
00000010: 6bdb 0d3d c162 cabc 776c 1b3d 247f c83c
00000020: 3c18 573c ba0f a9bc 6577 413c 42e6 a13b
00000030: ac6d 23bc 600d 273d 61ba e43c ff06 5d3c
00000040: 15bf b63c bd01 d5bc f664 05bd e9e0 26bd
00000050: 5f1d 053d 1822 f13c db36 5cbc 3995 d23c
00000060: 4882 babb 86a2 09bd efae 113d 86bb dc3b
00000070: 8358 cc3b 08b7 103c deaa 7a3c 0bbf acbc
00000080: 7ac4 cd3c e477 12bd 007b 27bc b454 95bc
00000090: ffd3 093d a64f f33c 313b 20bd 64ed 34bc
000000a0: 3712 5d3c d126 123d d7d8 2fbc e33d 26bd
000000b0: 3ae7 9dbc 288c 9bbb 548c 833c eb86 26bd
000000c0: 9d54 9dbc b0da 23bd d8fc fcbb a3b6 953c
000000d0: 4dc9 23bd 78e2 c6bc 7c6a 1a3d 64cd c3bc
000000e0: 381a b0bc e8b0 963c 95c1 e3ba 3804 edbc
000000f0: ec61 1abc 4c48 283b 6660 263d 7305 7f3b
00000100: 51ef c43c d467 ecbc 9561 f33a fe6d 61bc
00000110: 4e45 5d3b bee9 aebc c59a 0fbd a8c1 c83c
00000120: 6e6b ae3c 637f 133d 99ad a5bc 438c 233d
00000130: ba6b d5bb 6df5 823c 5b1a e4bc bc8b c63b
00000140: a257 ed3c 494c e7bc 61e0 0abc c4c7 363c
00000150: 1c4e 443c 1499 d23c 7222 363c 53ea 103c
00000160: 3a1f 953c 8bd5 9e3c 4526 a6ba f81b 2c3d
00000170: ff5a 9c3c c95f b4bc 6e5b 9b3c b668 61bc
00000180: 4bf6 1dbd ee5d 2d3c faa0 333c 8690 14bd
00000190: 75ea 093d d9eb eebc 6791 8e3c ba33 ff3b
000001a0: 83fd 03bd 74d7 053d 3742 70bc aafd 9dbb
000001b0: edbe e9bc 7156 d03c 1c30 243d 5d2c cabb
000001c0: d879 b0bb e3cf a73c 64f2 bfbc 924d 293d
000001d0: b84c 29bc 82a4 f23b 1517 09bd 9fc0 c5bc
000001e0: 083b 1dbd df06 d23c 73a5 0dbd 915b d83c
000001f0: 2644 16bd a58f 2a3c d58a b5bc 7e5f 893b
00000200: 2476 febc b0d2 1c3d 8fa2 08bd ca3a 943c
00000210: 5746 2ebc 8f21 203c 20ce a8ba 3a4c 32bc
00000220: bfdf ea3c 91e4 7e3c 3b82 ffbc 538b a43c
00000230: 8e06 e43a 1edf 963c 5284 aebc e34a 453c
00000240: 7bc4 33bc b8e9 dfba 0d43 df3b d52a 223d
00000250: 2f0f 303d 7654 183c 368b 8b3c 8182 a63c
00000260: 581a af3c dabb b63c fb2b 67bc fc05 603c
00000270: fa70 41bc 894d b7bc 19f9 1cbc f826 1d3d
00000280: fbad 013d 715f e33c ae2e 19bb 7ba2 133d
00000290: 7327 fc3c 7f7d 02bd f2a7 33bc 0e03 27bd
000002a0: baad db3c 430e aa3b a1d1 58bb e8e7 0c3d
000002b0: 1168 1ebd 348c 3cbc 4e50 dabc b373 ea3c
000002c0: f31d c93c c599 88bc 52ad 0a3d 0ce3 4d3b
000002d0: 5f58 033d 151b b9bb ab68 1bbc 52e9 e53c
000002e0: d273 cc3c c433 dabc e6ee 8f3c 2b67 df3c
000002f0: 2987 d33c 0db7 e4bc ae86 8ebb a3de dabc
00000300: b341 2abc 658e c2bc 82a0 2e3c a9c9 3cbc
00000310: 4519 b6bc 495e 2fbc b6d2 323c 3ebd 343c
00000320: 3d89 ce3b c337 2cbd eb86 31bb 5c9a 89bc
00000330: 17bf bdbc 8b01 163d ae1b b6bc a3ac 12bd
00000340: 98f0 92bc 9b9f cbbc 1486 aebc 3c0c 933c
00000350: 8fd5 b4bb f7b6 84bc c015 1e3c 452a 713c
00000360: d94d 6d3b 542c 01bd 5773 f6bc b16d f03a
00000370: 81cb 0dbc 8ae1 1abd 3683 8ebc cf50 9c3b
00000380: d7c4 d9bb 03eb f73c 5588 80bc 01cb 5f3c
00000390: 1036 c9bc c18b 29bd 3d9d 1cbd 4d15 b0bc
000003a0: e025 acbc a2a2 26bd bf5a 103d 2ce6 573c
000003b0: c3ed f6bc d74c 003d fde5 063d b7cd f4bb
000003c0: e10e 5e3b a078 e23c 5471 843c e790 e0bb
000003d0: d774 ccbc dc6f c03c 4670 0e3d 08ee 5a3c
000003e0: 97a8 f9bc 2834 68bc bf7f 4cbc 72f3 c33c
000003f0: b56f 40bc b821 08bd 95f5 8cba 9146 d9bc

deconv2.bias f4 [64]
0.005097673 0.021535961 -0.02675453 -0.017815854 0.05779024 -0.0055576446 -0.049212094 0.028502882
-0.017452924 -0.040179893 -0.055368014 0.0021731672 -0.034659497 -0.01621351 0.013959518 -0.030757867
-0.061602835 -0.013222619 -0.020178897 0.03169361 0.022854168 -0.039573353 0.04044769 0.04422394
0.016390696 0.08088669 -0.050245978 0.0431353 0.03653739 -0.0093689 -0.018141465 -0.0044482085
-0.04455779 -0.06769139 0.0516604 0.05697531 0.047954462 0.00054350524 -0.0055699614 0.0030905453
0.023859 -0.006585964 0.023511805 -0.012343862 0.003026656 -0.008207909 0.051810667 0.02271144
-0.017586835 -0.020932287 0.015647968 -0.019284252 0.029131401 -0.00756892 -0.024483815 0.02823175
0.06871691 -0.037132274 0.003920011 -0.029832805 -0.026251407 0.024026545 -0.019567903 -0.043937873
00000000: 610a a73b 2f6c b03c 512c dbbc 8ef2 91bc
00000010: 75b5 6c3d e71c b6bb 9f92 49bd e07e e93c
00000020: 6ff9 8ebc ac93 24bd 92c9 62bd b26b 0e3b
00000030: 1ef7 0dbd 32d2 84bc 76b6 643c ecf7 fbbc
00000040: 4153 7cbd afa3 58bc 374e a5bc 29d1 013d
00000050: aa38 bb3c ab17 22bd 7aac 253d 2a24 353d
00000060: c845 863c eca7 a53d bace 4dbd a4ae 303d
00000070: 3ba8 153d 0480 19bc 699d 94bc 47c2 91bb
00000080: 3b82 36bd c9a1 8abd db99 533d f15e 693d
00000090: e66b 443d 057a 0e3a 3984 b6bb bf8a 4a3b
000000a0: f373 c33c 12cf d7bb d49b c03c e93d 4abc
000000b0: dd5a 463b 777a 06bc 6c37 543d 580d ba3c
000000c0: 4412 90bc 307a abbc 2b30 803c 02fa 9dbc
000000d0: faa4 ee3c b404 f8bb 4892 c8bc 4546 e73c
000000e0: 74bb 8c3d 0318 18bd 7073 803b ed63 f4bc
000000f0: 310d d7bc 51d3 c43c de4c a0bc 33f8 33bd
