contrastive_save/contrastive_weights_epoch_61.pt (torch, 749116 bytes, 8 tensors)

conv1.weight f4 [64, 3, 3, 3]
00000000: a4d9 933d 4063 d9bd 142c 033d 9c18 863d
00000010: eb26 a03d 0ffc efbd 2a55 0b3e 7b62 ebbd
00000020: 133e 39be 3b11 b53d df2b 0cbe a2f0 c13d
00000030: 50ae 19be b5cd 35bd c9cf 503e 4f95 803d
00000040: fc33 003e 14bb 443e 9d9d 43be 2def 66bc
00000050: 30e2 30be 0e67 ccbc cf9c 68be f805 75bc
00000060: 4539 90bd 7df4 0abe d82a e6bd 933c 0bbe
00000070: 8d73 febb c03d 0fbe b38c d33c 3034 dd3c
00000080: 8598 953c 56e4 21be db1b 223e 2a02 003e
00000090: 0b67 68be e808 ec3d 53f1 983d eeda 83bd
000000a0: 2212 4abc 0df5 40be 57a1 61be c7ce 6cbe
000000b0: 8cb7 5abe 53a8 f13d 6ba5 e9bd f33e ed3b
000000c0: e569 383e cd95 0d3e 1497 1e3e 7c35 13be
000000d0: bcaa 243d 8a13 323e d44a 33be d807 a4b9
000000e0: 9a8a b2bd 6559 9cbd 252c 983b c3aa 99bd
000000f0: 2951 d0bd bee3 a83d 0b17 67bd b1d7 903b
00000100: eb68 e33d 0ed4 633d 77d7 2abe 7fea 3b3e
00000110: c1d4 2e3e fea3 383e 649d a43c daca dd3b
00000120: c060 c2bd 945f 19be c139 1fbd f6a0 f33d
00000130: db32 f93d 336b aabc f46a d43d a03e b63c
00000140: 3d5e 2dbb 790b 50be 5b2b 1ebd 2620 393e
00000150: e2ab b8bc fe68 ab3b 00b8 d23d b055 39be
00000160: 3103 2b3e cf5b 61bc 48b0 0abe 1ec5 463a
00000170: b057 f03d 11c8 ecbc 9f2f 03be 10b6 b03d
00000180: ee31 14bd d885 a93d 9ae8 15be 492b ae3d
00000190: 4173 843d 6614 fdbd 38ee a1bd 40a0 4b3c
000001a0: 4a38 213e 588e 34be c9ce 2e3e 1320 bdbd
000001b0: a73c 3d3c f781 4e3b 462d 033d 6e5d df3d
000001c0: 9b80 9fbd 39fb 2cbe f92a c4bd da27 213d
000001d0: 57f9 83bd 0669 fa3c 2936 c5bd 6ea9 a4bd
000001e0: 8098 6b3e f416 043e b7b6 3f3e 6f73 0dbe
000001f0: 5930 2dbd ef91 b3bd 1e65 afbd 34d1 43bd
00000200: 9ece 36bd e82a 27be 85d2 05bd 2bcc ae3d
00000210: 520e 093e 1b2c 6a3d df26 e9bc f27a eabc
00000220: ded3 233e 4ad7 23be 47b9 b63d c148 dcbd
00000230: 2a4f 59be b06f 213e d3e2 893d b0b9 883d
00000240: f97f 44be daff cb3d 67db f13d 3d85 2c3e
00000250: 500c e73d ea14 64be 17a4 a7bd 5c22 34be
00000260: 056b ee3b 96c1 aa3c c3e7 d7bc 84b6 cd3d
00000270: 1934 3cbe ad4a 883d b1cf 02bd 2f59 373e
00000280: 3a6c 033e a6be f7bd 052e 89bd 1928 f63d
00000290: 76e3 0abd 4b12 873c 94af 463e cf18 a4bd
000002a0: 8879 d53c 7d61 883d 7c43 f8bd 098f df3c
000002b0: a900 4ebd e2ac 73ba 22ec fa3c 21ba ac3c
000002c0: a541 29be ee91 2cbe cbce 63bb b4f3 15be
000002d0: b865 ae3a ff4f f6bd fb91 59be c627 60bd
000002e0: 89c6 f3bd de43 77be fcfa 6c3c 1106 c5bc
000002f0: f12b 763d 62e9 70be e675 7abe 45f3 85be
00000300: b104 30be 5624 85be 5acf 41bd 6478 66bd
00000310: 747f 9abe 277f 09be 590e 67bd b387 90bc
00000320: 1af7 cc3d ebf3 4e3e a8b8 8dbd 0796 24be
00000330: b74b b93c e1ed cd3d 6039 47bd 705b b3bd
00000340: 0c7d c73d ea88 783d cc2c 4c3e 12cf e53c
00000350: 3dda 913d e831 0f3d 7770 acbd 316e 50bd
00000360: e891 10be 034d 2a3e fbc5 b7bd 3f59 abbd
00000370: 54a5 25be f9cd 3d3e 11dd 03be 95fe 4fbe
00000380: f16a af3d 48de 383d 14b8 153e 0422 f73d
00000390: 8c78 c93d 50be 0dbe 99e4 1c3e 2fbc b43d
000003a0: d05c c83d 8f76 21be 9c40 233e 0cc5 db3d
000003b0: 81f9 623d ee89 efbd e805 a83c 4fdf 213d
000003c0: db53 6a3d 98cf f8bd 661a 51be 2d32 f3bd
000003d0: ff39 54be cb13 4dbd cc9e 61be 5fad 853d
000003e0: 38c0 24be 2d33 61be 60ee 05be 1dc3 38be
000003f0: 10c6 b3bd b5eb 6fbe fd4a b9bd 75c5 06bd
0.07219246 -0.106146336 0.032024458 0.065476626 0.07819923 -0.11717998 0.13606706 -0.11493393
-0.18090086 0.08841177 -0.1368861 0.09469725 -0.15007901 -0.04438563 0.20391764 0.06278478
0.1251983 0.1921199 -0.19103093 -0.01409511 -0.17273784 -0.024951484 -0.22716068 -0.014955036
-0.07042173 -0.13569827 -0.112386405 -0.13597326 -0.0077652396 -0.139884 0.025823927 0.027002424
0.018261204 -0.1580976 0.15830939 0.12500826 -0.22695558 0.11525136 0.07467904 -0.06438242
-0.012333425 -0.1884348 -0.22034203 -0.23125754 -0.2135908 0.117996834 -0.11408504 0.00724017
0.18009146 0.13826676 0.15487319 -0.14375871 0.040201887 0.17390266 -0.17509013 -0.00031286362
-0.087178424 -0.07634238 0.0046439343 -0.07503273 -0.1017173 0.082465634 -0.05641846 0.0044202437
0.11103996 0.055622153 -0.16683756 0.18351172 0.17073347 0.18031308 0.020094581 0.0067685666
-0.0949111 -0.14977866 -0.038873438 0.11895935 0.12167903 -0.02080307 0.10371962 0.022246659
-0.0026453875 -0.20316876 -0.038615566 0.1807867 -0.022542898 0.005231022 0.102890015 -0.18099093
0.16700436 -0.013754799 -0.13543808 0.00075824733 0.11735475 -0.028903993 -0.12811135 0.08628476
-0.03618043 0.08277482 -0.14639512 0.0850435 0.064672954 -0.12357406 -0.07906765 0.012428343
0.15744129 -0.17632425 0.1707107 -0.09234633 0.011550105 0.003151057 0.032025598 0.10906492
-0.077882014 -0.16892709 -0.09578509 0.039344646 -0.06444042 0.030567657 -0.09629471 -0.08040129
0.23007393 0.12899381 0.18722044 -0.13813566 -0.042282436 -0.08768069 -0.085642084 -0.047806934
-0.04463064 -0.16324961 -0.03267147 0.08535036 0.13384369 0.05717097 -0.028460918 -0.028623078
0.1599879 -0.16000095 0.089220576 -0.10756064 -0.21221605 0.15765262 0.067327164 0.06676042
-0.19189443 0.09960909 0.11809426 0.16847701 0.11281645 -0.22273603 -0.081855945 -0.17591232
0.0072759413 0.020844262 -0.02635563 0.10044578 -0.18379249 0.06654868 -0.03193635 0.17905115
0.12834254 -0.1209691 -0.06698231 0.12019367 -0.03390833 0.016488215 0.19402915 -0.08012544
0.026058927 0.066592194 -0.121222466 0.027289884 -0.0502936 -0.0009295476 0.030630175 0.021084847
-0.16528948 -0.16852543 -0.003476071 -0.14643747 0.0013305461 -0.12026977 -0.21247093 -0.05472543
-0.11903102 -0.24146983 0.014464136 -0.024050744 0.0601005 -0.23526528 -0.24459037 -0.26162162
-0.1718929 -0.26004285 -0.047316886 -0.056267157 -0.30175364 -0.13427411 -0.056410167 -0.017642831
0.100080684 0.20210235 -0.06919986 -0.16072856 0.022619111 0.100551374 -0.0486387 -0.08757675
0.09740648 0.060677446 0.19938964 0.02805284 0.07121704 0.034959704 -0.084198885 -0.050886337
-0.14118159 0.1663094 -0.08973309 -0.08366632 -0.16176349 0.18535604 -0.12877299 -0.20311959
0.08565319 0.04513386 0.14621001 0.12067035 0.098374456 -0.1384213 0.15321578 0.08824956
0.097833276 -0.15767883 0.15942615 0.10730943 0.055413727 -0.1169623 0.020510629 0.039519604
0.057208877 -0.1214897 -0.20420226 -0.11874805 -0.20725249 -0.050067704 -0.22033232 0.065272085
-0.1608895 -0.21992178 -0.13079214 -0.1804318 -0.08778012 -0.23429759 -0.09047506 -0.032903153

conv1.bias f4 [64]
00000000: 4940 643d c0ee 29bc 4282 8bbd bb16 623d
00000010: 54dc c83a 0248 1abd f526 ccbd 3ca6 a93c
00000020: b8e4 53bd 1ce9 253d d2ab debd b3ba 98bd
00000030: 2558 923c f2a7 b93d 1875 3b3d 3878 933d
00000040: 8524 e4bc b78a 58ba fdf5 b7bd 1399 86ba
00000050: b893 3a3d a5a2 a4bd 136e a93d 8414 c9bd
00000060: ad6b 50bd 70d1 bc3d f554 2cbe bf42 e5ba
00000070: b350 dc39 026e f93d bd7b 83ba eb96 0abe
00000080: 15c8 f5bd a319 e5bd 08d5 57be ed48 ebbd
00000090: 339a 9fbb 3f79 a33d fb4f b2bd f430 2e3e
000000a0: 8e07 dab8 3796 34ba 6da1 e7bd 7a31 843d
000000b0: 08d9 27be 07e2 02be 431f 00be edf4 90bd
000000c0: 7189 6e3c 6853 013d 15f9 e5bc 0667 573d
000000d0: 5927 bf3d 4006 9b3b 59ba 133d 4bda 9abd
000000e0: 919c f7ba 3d21 bbba 932c ea3c d16f 45bd
000000f0: c4ac 463d edad 3e3d e80f c73a ea0e 2e3c
0.05572537 -0.010371864 -0.06811954 0.05519746 0.0015324452 -0.03766633 -0.09968368 0.02070915
-0.051731795 0.040505514 -0.10872616 -0.07457485 0.017864296 0.09065236 0.045765966 0.07200664
-0.027849445 -0.0008260416 -0.089824654 -0.0010269008 0.04555103 -0.080388345 0.08272948 -0.09818366
-0.050883938 0.092196345 -0.16829284 -0.0017491205 0.00042021796 0.121791855 -0.0010031384 -0.13534133
-0.12001053 -0.111865304 -0.21077359 -0.11488519 -0.004870677 0.0798211 -0.08706661 0.17010862
-0.00010396457 -0.0006888839 -0.113100864 0.064547494 -0.16391385 -0.12781535 -0.12511925 -0.07077966
0.014559136 0.031573683 -0.028072873 0.052588485 0.09333677 0.0047309697 0.036066387 -0.07561167
-0.0018891265 -0.0014276874 0.028585708 -0.04820234 0.048504606 0.046552587 0.0015187236 0.010623673

conv2.weight f4 [128, 64, 3, 3]
00000000: da7e 2abc 33ef b13c 14cb a53c facd 45bd
00000010: d221 e73c 6c8f bbbc 0418 febb 77f3 18bd
00000020: a35e caba 4871 da3b 2757 11bd 433e f8bc
00000030: 50f3 69bd 1268 33bd e858 59bd 370d 92bb
00000040: d0c8 62bd 4c2c c13c 9fcb a9bc 6755 6dbc
00000050: 166b 7c3a 8142 093c 3ac9 333d 1b4d e63c
00000060: fc8f 96bb 0485 473d b2fe c13a 8a26 9abc
00000070: 57f0 1f3c f332 493c 027a 0f3d f4f6 cabc
00000080: c492 773b 248c c93c 4a70 193d 97c2 97bc
00000090: 516a 943d 0216 273d c32a 8d3d 03fc e43d
000000a0: c883 7e3d 518f f43d 6d16 b33d 5655 493d
000000b0: 329f f43d bc6f 123d 7175 293d aaef 77bb
000000c0: 6bab 973c e0c5 b63b f0ec ef3c 436d 2ebd
000000d0: d030 2abd dc18 263c b529 923d cf76 87bd
000000e0: 7a3f ddbd 7808 fbbc b4aa 6dbc 7b35 b2bd
000000f0: a752 07bd 9eaa 0cbb 23fe a5bd 1291 9b3c
00000100: 61e5 0f3c c134 cb3c 949d c9bb 3e45 23bd
00000110: 9155 1abd d6f9 523c 3b66 3dbd 8123 1bbd
00000120: 7cdb 06bd 00aa b4bc b030 debb cac7 153d
00000130: 8b11 083d 9a20 8c3b 9127 b4bc 55ad 02bd
00000140: 49b5 e13b e3a7 183c b805 c03b 5b97 263d
00000150: a979 55bc b1e9 0abc 99ad 53bc 630a 93bc
00000160: ea5a 683d ee94 04bc a0a1 843c 1131 f8bc
00000170: 079c 8abc 9e21 69bc ea2b ed3b e25a 8cbd
00000180: 6b06 e83b ef2a 1dbc a9e6 4bbd db16 efbc
00000190: 472f a7bb 3e1f 5dbb 069b abbc 871b dabc
000001a0: 14d3 4a3b 26b3 f5bc c345 a93c e7bf e13b
000001b0: abe2 ee3c 15ce 933c 1805 673d ab4f 1fbc
000001c0: fc76 003d fbd3 543d 9ba9 093d c372 533c
000001d0: 2c21 47bc eea4 313c 7482 0a3d b288 f33c
000001e0: c6bb dd3c 587e d438 1cc1 4e3c c7f7 2ebc
000001f0: f94a 57bd 85ff 5dbd 392f a93c b7d3 183c
00000200: 1227 c83c 30b5 543d fd00 0f3d 7ce0 5e3c
00000210: ad3b 943d 8242 243d 15e9 073d fe18 293d
00000220: 5459 0f3d b6c6 f0bb 01dd 6a39 8c60 a13c
00000230: 3d8f 883c ac17 f2bb bb10 263d fe68 ac3b
00000240: b658 71bb c834 c73c db3d 303d cc40 963c
00000250: f755 4c3d 01a9 0c3d bb57 8f3d 7004 c7bc
00000260: e759 d9bc 9e10 163d c7e5 b63c 39de 763d
00000270: ff9a 9abb 25a5 04bd eff7 823c 2d7f c93c
00000280: de52 623b bc1f 79bd c97f a93c 732c 313d
00000290: 0e85 f2bc 0a7e c3bc 0e60 25bd a6bd fa3b
000002a0: e90f 3e3d b772 f9bc 4fe4 15bd 6932 a83d
000002b0: 3bc9 cf3d f915 ff3d 9faf e13c af97 913d
000002c0: 4253 c53d 7940 6d3d 5b02 eb3d 006b c43d
000002d0: 8693 1d3d 6285 e13c c1f8 2b3c 64db 33bc
000002e0: 7166 8a3c 7dc3 94ba bfb6 3c3d 4b1c 3b3d
000002f0: d8c2 8e3d 51ba d6bd 0766 82bd 75f5 51bd
00000300: 112d 3dbd 9d97 1fbc 054e d23c e9a1 89bc
00000310: a28a 23bc 7e59 563d 0573 5d3d c740 1c3d
00000320: 83c8 43bc 6b98 4d3d 8b08 0c3c 901a 3f3d
00000330: b0d8 473d d68b 843c 477f 283d 790e aebd
00000340: 7933 98bd b372 adbb 288b 7bbd 6238 7abd
00000350: 9b89 acbc 3c26 b3bc f85c f2ba 95e0 443c
00000360: 62fe 49bc 7fd3 4f3d c40f 433d 3a52 ca3c
00000370: cdd5 c5bc 4d4d a83c 1229 313c 5879 c6bc
00000380: eb07 9d3c 4592 5c3c 5ab0 453d 2489 45bc
00000390: 0cca 723b 490f 443c ce87 cabc 42ba 7dba
000003a0: f08a c83c 1b79 b2bb e85d d6bb d697 b3bc
000003b0: ad4f 3fbd 688a 493c cd13 073d c6ed 92bc
000003c0: 00fa 093d 69b3 c13c 91db f7bc 3ef0 b1bc
000003d0: 2715 c7bc e3d4 81bd 0f9a 40bd 81ee 0ebd
000003e0: a153 77bd dc42 efbc aef7 8abd b7a8 5cbd
000003f0: 3630 2ebe 6163 30be 9650 05be 6910 0dbe
-0.01040622 0.021720504 0.020238437 -0.048292138 0.028214369 -0.022895537 -0.0077543277 -0.03734156
-0.0015439581 0.006666336 -0.035483506 -0.030303126 -0.057116807 -0.04380042 -0.053063303 -0.0044571417
-0.05536729 0.023580693 -0.020726977 -0.014485694 0.0009628994 0.008377672 0.043893076 0.028112939
-0.004594801 0.048710838 0.0014800637 -0.018817205 0.009761891 0.012280214 0.035028465 -0.02477596
0.0037776688 0.024602957 0.037460603 -0.018525405 0.07246841 0.040792473 0.06892922 0.1118088
0.062137395 0.11941398 0.08744512 0.04915365 0.119444266 0.03575109 0.041371766 -0.003783206
0.018514356 0.0055777878 0.029287785 -0.04258467 -0.041550457 0.010137763 0.07136861 -0.06614458
-0.10803123 -0.030643687 -0.014506031 -0.08701607 -0.033037808 -0.0021464 -0.08105113 0.018990073
0.008782716 0.024805428 -0.006152818 -0.039860956 -0.03767926 0.012876948 -0.046240073 -0.037875656
-0.03292416 -0.022053719 -0.0067807063 0.036567487 0.033219855 0.0042763473 -0.021991523 -0.031903584
0.006888066 0.009317371 0.0058600567 0.040671688 -0.013029494 -0.008478568 -0.012919807 -0.017949289
0.056727327 -0.008092148 0.01619035 -0.030296834 -0.016920103 -0.014229206 0.007237901 -0.06853272
0.007080843 -0.009592756 -0.04978052 -0.029185703 -0.0051020714 -0.0033740546 -0.020947944 -0.026624454
0.0030948566 -0.029992651 0.020663148 0.0068893316 0.029160818 0.018042604 0.056401342 -0.009723584
0.031363472 0.051959973 0.033609014 0.012905779 -0.012153905 0.010842545 0.033815816 0.029728267
0.027067076 0.00010132481 0.012619283 -0.010679192 -0.052561734 -0.05419876 0.0206524 0.0093278205
0.024432693 0.051930606 0.034913052 0.013603326 0.07237945 0.04010249 0.03318127 0.0412836
0.0349973 -0.007347907 0.0002239831 0.019699357 0.016669864 -0.007388076 0.0405433 0.0052615395
-0.0036826557 0.02431716 0.04302774 0.018341444 0.04988667 0.034340862 0.06999155 -0.024294108
-0.026532127 0.03663694 0.022326363 0.06027052 -0.004718184 -0.032384057 0.015987365 0.024596775
0.0034534256 -0.06082128 0.020690816 0.04325528 -0.029604461 -0.023863811 -0.040374808 0.0076520024
0.04640189 -0.030450208 -0.036594685 0.0821274 0.101458035 0.12455363 0.027549563 0.071090095
0.09635021 0.057922814 0.11475059 0.09590721 0.038470767 0.027529422 0.010496319 -0.0109776
0.016894551 -0.0011349764 0.046072718 0.04568128 0.06970757 -0.10484756 -0.063671164 -0.051259477
-0.046185557 -0.009740737 0.025671968 -0.016800838 -0.009981783 0.05233144 0.05406477 0.038147714
-0.011949661 0.050194185 0.008546959 0.04665619 0.048790634 0.01617996 0.041137006 -0.08498854
-0.07431693 -0.005293214 -0.061412007 -0.061088927 -0.02106171 -0.021868818 -0.0018490842 0.012016435
-0.012328716 0.050738808 0.047622457 0.024697412 -0.0241498 0.020544672 0.010813015 -0.024227783
0.019168815 0.013462608 0.048263885 -0.012056623 0.00370467 0.011966535 -0.02472296 -0.00096789387
0.024480313 -0.005446566 -0.006541956 -0.021922987 -0.046706844 0.012301065 0.032977868 -0.017935645
0.033685684 0.02364512 -0.030256065 -0.021721002 -0.024302078 -0.06339433 -0.04702192 -0.034895424
-0.06038249 -0.029206686 -0.067855224 -0.053871837 -0.17010579 -0.1722541 -0.13019022 -0.13775791

conv2.bias f4 [128]
00000000: d4ac a2bc 5bb4 c2bc a5ca 4ab9 5a8f 063a
00000010: 31fb b8bc 25e5 bbbc 5e53 7d3d 1b78 053c
00000020: 7ae2 143b 293e f53a d867 263d 4087 f83c
00000030: 30e9 30bc 3c64 913a 1836 5a3c 47da 7a3d
00000040: f08e b93b 28aa 083d bcad c3bc 9759 5c3d
00000050: 8a92 393d b4fe 6dbd 9a4b 45bb 53c8 dfbc
00000060: 51d9 90b9 b08c 2bbd d00f de3a 809f 28bd
00000070: efca 27bd 3f57 acbc d7fd df3c d2a0 4abc
00000080: 29f8 473d 9695 813c a425 e9bb ba52 eb3c
00000090: f6ef 97bc dadb 22bd 4744 adbc d9de 93bb
000000a0: bc25 b63c 22fd 6b3c ccdc 1a3c 865f 68bc
000000b0: f5ff 3a3c df42 41bd c4b2 b83c 22f3 423c
000000c0: 4b84 3bbd 3a0c 02bc 1c49 20bd 71c5 e2bb
000000d0: 4cef 3fbd 8ecb 613d c75f 9bbc 7154 4abd
000000e0: b003 0a3d 9919 6abc 93ef 8eba 110a 30bc
000000f0: 4652 80bd 33c6 0dbd c271 0c3d 45bf adbc
00000100: 7e13 593d fa86 9e3d 236f 293d 2467 1abd
00000110: 7f80 643c 844a a13c d1cd 2c3b ed07 2d3c
00000120: 0b2b 23bd 4002 0c3d c315 aeba 2373 8bbc
00000130: a20c e53b 415a 1b3d 2dbe 873c 00b1 453d
00000140: 947b bd3b c188 053d 4612 133d 035e 49bd
00000150: c704 2bbc 4ae4 71ba 3ac8 383d 9c71 c33b
00000160: 63f3 093c a825 683d d797 f73c 9995 523d
00000170: 0fb8 f83c eecb 92bb f6c6 7d3d 2b44 253c
00000180: cf02 90bb ce82 b9bc fb97 f3bb b087 0b3d
00000190: eebb ecbc d159 c3bb e769 4f3d 019f acbc
000001a0: 2cc2 13bd 51b9 3c3d 8fd6 60bc 2eab 393d
000001b0: fca9 c73c 0b4e e0bc 66c0 20bd 1055 77bd
000001c0: 21a0 013d 137d 51bd c8b3 8e3c 274e fabc
000001d0: 450d 8b3d 4613 db3c 91f5 4cbb e402 983c
000001e0: 363e ddbc 016d f5bc 8a33 bc3c bf6d 12bd
000001f0: 9afb 9b3d a648 7a3c a654 adbc 185e da3c
-0.019857801 -0.02376764 -0.00019339712 0.00051330554 -0.022580715 -0.022936413 0.061847083 0.008146311
0.0022717998 0.0018710542 0.040626377 0.03033793 -0.010797784 0.0011092494 0.013318561 0.06124332
0.0056627914 0.0333654 -0.023886554 0.053796377 0.045305766 -0.058104232 -0.0030104876 -0.027317202
-0.00027627734 -0.041882217 0.0016941968 -0.041167736 -0.040965017 -0.021037696 0.02734272 -0.012367444
0.04882065 0.015818398 -0.007115083 0.02872597 -0.01854704 -0.039760448 -0.021150721 -0.0045126495
0.02223479 0.014403613 0.009452056 -0.014182931 0.011413564 -0.047182914 0.02254618 0.011898788
-0.04578046 -0.007937485 -0.039132223 -0.0069205095 -0.04685907 0.055125766 -0.018966569 -0.049396936
0.033694923 -0.0142883295 -0.0010905139 -0.0107445875 -0.062656924 -0.034612846 0.034288175 -0.021209368
0.052997105 0.077405885 0.041365754 -0.03769602 0.0139466515 0.019688852 0.0026367793 0.010560972
-0.03983597 0.034181833 -0.0013281632 -0.017022675 0.0069900313 0.03792787 0.016570175 0.048264503
0.005782554 0.03260112 0.0359061 -0.049161922 -0.010438151 -0.0009227438 0.045112826 0.005964471
0.008419844 0.056676537 0.03022377 0.0514122 0.030361203 -0.0044798767 0.061957322 0.010087053
-0.004394866 -0.02264538 -0.007433889 0.03406495 -0.028898206 -0.0059616347 0.050638106 -0.021071913
-0.03607385 0.04607517 -0.01372303 0.045329265 0.024373047 -0.027380964 -0.039245985 -0.060383856
0.03164685 -0.05114467 0.01741971 -0.030554844 0.0678964 0.026742589 -0.0031274299 0.018556066
-0.027007204 -0.029959204 0.022973794 -0.035749193 0.076163486 0.01527611 -0.021158528 0.026656196

deconv1.weight f4 [128, 64, 3, 3]
00000000: 0881 e3ba 9912 6cbc a591 fb3b b9e8 67bc
00000010: 8170 863c 7199 af3c 8804 3b3d d0c1 b43c
00000020: d3d3 b0bb e177 063d 9585 1d3d 0704 433c
00000030: 245e 413d a13f 80bc 872b 6aba 985d d03c
00000040: a26f ce3c cf8f 183d b787 adbd f8b9 35bd
00000050: ba37 39bd 7a2c 12bd 4cf6 c4bc 28f8 f0bc
00000060: 491e 4cbd f0c7 a6bd 67a7 7abd c53e 8a3d
00000070: 6a59 1a3c d434 833d 17ba 23bd 73c5 2fbb
00000080: 1bbc 1ebd eb6c 1bbd c187 7dbd f918 62bd
00000090: 1b8d 4c3c 4a3c 96bc 9a16 a63c 7fda 753d
000000a0: f543 463d 08dd 82bc be52 da3b 9d3e 853c
000000b0: 3c77 323b 0430 363c 6aed 393c f9a2 e93c
000000c0: fa56 3a3d 5ee2 193c 33a0 23bd da4c 98bc
000000d0: 260e 62bb 5b2a 97bc 553f 10bd 1527 a13c
000000e0: 4343 55bd 8497 edbc 0377 c2bc 42f5 5ebd
000000f0: 2728 6e3c d975 373a 5d4c 713c aa04 133c
00000100: cd22 01bc 5ff2 a93b 4603 fa3c 07b0 1b3c
00000110: 6d40 3d3d e2bf 7c3d 6cfd 92bc 0f3e a6bc
00000120: 1845 0ebc 2631 3abb d2a0 babc de3b 7e3c
00000130: 9c2c ecbc afb5 343c 0f33 ca3c 6e14 c13c
00000140: d0ac 38bd 4cdd c43c 3ea8 8fbc 6192 c4bc
00000150: 9d11 f3b9 4605 f43c 9973 1c3d 5cf3 71bc
00000160: 8beb f33c 1ffb 153d 5cb9 deba 12b2 d13b
00000170: b4e8 39bd b477 283c f064 033d bbd0 e8bc
00000180: 8184 233d 50f7 e63c 78f9 ebbc a058 ebbb
00000190: 5ed6 2f3c 2f75 2a3d 8011 873c 3394 363c
000001a0: abfb 95bc d222 503b f0d7 983c f879 c2bc
000001b0: 4017 0d3d 93d0 563c f7e8 2a3d 54fb 72bc
000001c0: bdc7 d4bc 0059 bebc d2ae 98bc 86b8 933c
000001d0: 0fde 8c3c a2a1 44bc 25c1 2e3d 9e27 2fbd
000001e0: 200f 62bd 0b2b 313d dd9b e7bc 1742 78bd
000001f0: 5111 433d 5342 b3bd 0aa8 b0bd c598 dcbd
00000200: ca99 64bc 915e a2bd a319 a2bd 3942 7cbd
00000210: e11b 9cbd cde7 20bd 6001 07bd 1c6d 87bd
00000220: 651a 16bd 2466 c9bc 5027 17bd d400 14bd
00000230: 1ccd 883b f49f 54bb f4d6 c9bb c3da 083c
00000240: 3527 faba f59d 9b3a 6182 533a f5c4 423d
00000250: 1ed6 c5bc 518f 143c fcef 3f3d 6b72 f33c
00000260: 16b1 aabb 7015 66bd 65a4 073c 2068 94bc
00000270: 90c0 c7bc 26a3 04bd 09b7 c6bc 5362 4abd
00000280: ccb0 9b3c 2d2e b7bb 6152 60bd 2c75 a3bd
00000290: d055 ffbc cfa3 b03a 07a1 75bc 20b7 413c
000002a0: 5c1d 5e3d 10f0 863d 967a 823d 903d 7d3d
000002b0: 1842 733d e5ba 7f3d 2e5d ec3b 5dc2 543d
000002c0: 429f 223a 19c9 fa3a a6b5 dbbc 6f95 1f3d
000002d0: b124 68bb 14e4 6f39 9bd3 cbbb 1924 7cbd
000002e0: 904f 5bbd 411c ccbc 0bd6 3fbd e04e 03bd
000002f0: 4cfc 71bb d5ea 103c bbb9 f03b a6f6 66bb
00000300: df08 de3b 468a 2abc 16b2 23bc c0d7 3b3b
00000310: f982 9dbc 7234 c6bc afb2 593c 6141 013d
00000320: 0418 c03c 97e2 bdbc 0c25 9c3c 0d48 4e3c
00000330: 7c2e 0bbc 5df8 5bbc 97c8 aebc cddf 473c
00000340: ba90 2f3d e5aa 1a3d 964e 0b3d 8e0d 823c
00000350: 6f11 dbbc dba6 013c a478 ef3c 3967 3a3d
00000360: 3c59 a5b9 1185 b9bc 7f17 3a3d 27f9 9a3c
00000370: 73f8 943c b110 21bc 439c e83c e8e5 b0bb
00000380: 4a58 61bb cc76 1abc 74d8 e2bb 0d00 94bd
00000390: 079c 063c ff5b 44bd 753d 7bbd 0ae6 43bd
000003a0: b7f5 15bd 99d7 2bbd 92ce cc3c 9818 d2bc
000003b0: 4737 223b ad34 10bc 8802 3b3d 4ba1 1b3d
000003c0: 8861 08bc 5dc8 c0bc ca80 efbc 6d8a 97bb
000003d0: 3f3b b0bc d8f6 cd3c d06b 0cbc 6156 b13c
000003e0: f6a5 da3c e4d0 b3bc 3fa0 a83c 7837 a23b
000003f0: bd9f 0abe fc31 5dbd 8630 2cbd a716 183d
-0.001735718 -0.014408731 0.0076772743 -0.0141546065 0.016411068 0.021435471 0.04565862 0.022065073
-0.005396345 0.03282917 0.038457472 0.011902816 0.04720892 -0.01565534 -0.00089328777 0.025435254
0.025199715 0.03724652 -0.08473151 -0.044366807 -0.04521916 -0.035686947 -0.024043225 -0.029415205
-0.04983357 -0.08143604 -0.061194804 0.067502536 0.009420732 0.064065605 -0.03997239 -0.002682057
-0.03875361 -0.03794567 -0.061897043 -0.055199597 0.012484814 -0.018339295 0.02027445 0.060022827
0.048404653 -0.015974537 0.0066626957 0.016265208 0.0027231714 0.011119846 0.011348108 0.028520094
0.045493104 0.009392349 -0.0399477 -0.018591333 -0.0034493296 -0.018452814 -0.035216648 0.019671956
-0.0520661 -0.029002912 -0.02373839 -0.054433115 0.01453594 0.00069984567 0.014727679 0.00897328
-0.007881832 0.0051863636 0.030519139 0.009502417 0.04620402 0.06170643 -0.017943107 -0.020293264
-0.008683465 -0.0028410642 -0.022781763 0.015517203 -0.028829865 0.011029645 0.02468255 0.023569312
-0.04508668 0.024031304 -0.017536279 -0.02399558 -0.00046361695 0.02978767 0.03819618 -0.014767494
0.029775402 0.03661644 -0.0016992497 0.0063994015 -0.04538794 0.010282446 0.032078683 -0.028419843
0.039921287 0.0281941 -0.02880548 -0.007182196 0.010732261 0.04161566 0.016487837 0.011143732
-0.018308481 0.0031759036 0.018657655 -0.0237398 0.034446 0.013111251 0.04172608 -0.014830429
-0.025974149 -0.023235798 -0.018638048 0.018032324 0.01719573 -0.012001427 0.042664666 -0.04276239
-0.055190206 0.04325394 -0.028272564 -0.060609903 0.047623936 -0.08752885 -0.08625801 -0.10771326
-0.013952682 -0.07928193 -0.07915046 -0.061586592 -0.07622505 -0.039283562 -0.032960296 -0.06612608
-0.036646266 -0.024584837 -0.036902726 -0.036133602 0.0041748416 -0.0032443972 -0.0061596576 0.008352938
-0.0019085171 0.0011872636 0.0008068439 0.047551114 -0.02414995 0.009067372 0.046859726 0.029717645
-0.0052090986 -0.05617279 0.008278941 -0.018116057 -0.024383813 -0.032382153 -0.0242572 -0.049410176
0.019005202 -0.0055902214 -0.054766063 -0.07981333 -0.031168848 0.0013476553 -0.014992005 0.011823446
0.054227218 0.06588757 0.06371038 0.06182629 0.059389204 0.062434096 0.0072132563 0.05194317
0.0006203541 0.0019133418 -0.026820015 0.03896087 -0.003542226 0.00022877782 -0.0062202937 -0.061557863
-0.053542674 -0.024915816 -0.046834987 -0.032057643 -0.0036924062 0.008845051 0.0073463595 -0.0035242229
0.00677596 -0.0104089435 -0.009991189 0.0028662533 -0.019227492 -0.02419493 0.01328723 0.03155649
0.023448952 -0.023179336 0.019060634 0.01259042 -0.008494969 -0.013425914 -0.021335883 0.012199354
0.04286263 0.037760634 0.034010492 0.015875604 -0.026741711 0.007913317 0.02923233 0.045508597
-0.00031537737 -0.022646459 0.045432564 0.018917633 0.018184876 -0.00983064 0.028394824 -0.0053985007
-0.00343849 -0.009427737 -0.006922776 -0.07226572 0.008215911 -0.047939297 -0.061337907 -0.047826804
-0.036611285 -0.041953657 0.025000844 -0.025646493 0.0024752186 -0.008801621 0.04565671 0.037995618
-0.0083240345 -0.02353304 -0.029236216 -0.004624656 -0.021512626 0.025142118 -0.008570626 0.021647634
0.026690464 -0.021950193 0.020584224 0.00495046 -0.13537498 -0.054002747 -0.042038463 0.037130978

deconv1.bias f4 [64]
00000000: 90b3 a03b 39d6 873d c9c5 673d 15c1 28bc
00000010: e114 2abb cfec e93c e711 693d a487 9c3b
00000020: aac3 cd3c e720 7c3d 05cf b23c cc9f 373d
00000030: df3f 563d 23c5 06bd 63da 0d3d 989e 7d3d
00000040: cfbf 5e3d 1df9 50bd 69bb 133d 09b2 483d
00000050: bec1 913c 920e 8c3d 0ddd 673c b142 b1bc
00000060: 7764 173d b299 dd3b b4ea 90bc 9592 863d
00000070: ca9a 483d 9679 18bd 6122 723d 182d 4bbc
00000080: 6bfc 7e3c 555c 143d c08b 263d 2f72 3e3d
00000090: 40f8 8d3d 6ed0 963d f241 013d 7440 173d
000000a0: c406 733c 8c1e 60bc 775b 923d 3a55 db3b
000000b0: 1ab9 6a3d 15a6 193c 950c 0a3b e425 9b3d
000000c0: 472b 653d 5a10 693d 33f2 8b3d 5ffe 633d
000000d0: 18ae 1d3c b396 ba3b c73f 0e3d 3d6d 5f3d
000000e0: 0cac 863d 3ef4 053d aecc ccbb 8792 b0bc
000000f0: 0e3a 19bd be19 673c 48aa a6bb 2029 913a
0.004904218 0.066326566 0.056585107 -0.010299941 -0.0025952386 0.028555302 0.05690184 0.004776912
0.025117714 0.061554816 0.02182723 0.04483013 0.052307006 -0.032902848 0.034632098 0.061918825
0.05438214 -0.051018823 0.0360674 0.048997913 0.017792579 0.068387166 0.014151824 -0.021638246
0.036961045 0.0067627067 -0.01769004 0.06570927 0.048975743 -0.03722533 0.059114818 -0.012400888
0.015563111 0.036220867 0.04066062 0.046495613 0.069321156 0.073639736 0.03155703 0.0369267
0.014833156 -0.013679158 0.07146352 0.0066935094 0.057305433 0.009377976 0.0021064628 0.075755864
0.055949476 0.05690036 0.06833305 0.05566251 0.009624027 0.0056942343 0.03472879 0.054547537
0.06575784 0.03270363 -0.0062499857 -0.021554245 -0.03740888 0.0141052585 -0.005086217 0.0011074878

deconv2.weight f4 [64, 64, 3, 3]
00000000: a94d 30bc 1453 f5bc 1836 153d d4f9 b2bb
00000010: f75b 77bc bc89 213c 1b9f 7d3c c681 b6bc
00000020: f3cc 11bb cef0 da3c 0535 f7bc 88fa 583d
00000030: 711f a6bc 9966 47bc 4111 a3bb 0379 313d
00000040: 8234 183d 420c b53c b793 75bc dc8f 093c
00000050: 96a0 76bc e178 9cbb 57a5 4c3d aabd 07bd
00000060: 6e81 20bc 1305 2a3d e670 893b 7dc8 eabb
00000070: 0842 e43b 3335 513c 546a 89bb 6acc afbc
00000080: e42e 0f3d 04e9 0cbd d1bc 2ebd 1f31 07bd
00000090: 7edf 283c 9a02 c13b 6bb7 7a3d 881e 4c3d
000000a0: 80c3 3c3c 3b10 2f3d 72de 853d 4f23 df3c
000000b0: e8fb 813d 8049 343c 6e98 2e3a 80f5 06bd
000000c0: 9255 14bc 4870 483c a2f1 233c f9f4 03bd
000000d0: 6da2 22bd 325f 70bc 538f dabc 53e3 abbc
000000e0: 2197 05bd 4164 db3c 886e a53c b176 773c
000000f0: 6202 82bd 703d c6bc 6bef 1abd d16f da3b
00000100: 6bc8 20bd 0f3f b5bc 5729 013d 4164 04bd
00000110: e641 ddbc 7090 d4bc 4309 1dbd bd7a bb3c
00000120: 1d65 b83c 2977 4abc 425f 223d 1249 223c
00000130: f811 413c e4cd 3f3d eeea 453d 999f 693d
00000140: 47ca 4a3c 42be 923c d055 563c 937a 7d3d
00000150: fdbe f63c e771 92bb 5f93 38bc 8803 983d
00000160: 7d4a ae3c 3caf 463d 6639 8c3d 57a6 3d3d
00000170: 0dcc e93c e292 2c3d 8e24 60bb 09a8 a03c
00000180: d8b7 0b3d f008 913d bd38 963d 449c b63c
00000190: b709 3ebd c546 e33c 9761 083b 2c0b 7fbb
000001a0: 07cd a3b9 03a0 1fbc f3cc 943c 14fb e03c
000001b0: 9c22 7dbc 0909 20bd f07a d2bc 1611 5bbb
000001c0: ef7f 8b3b c1fe b6bc 41a8 623c a05c 5cbc
000001d0: 9547 d1bc 193b 043d f49a c73b 56ba 343d
000001e0: 9a03 3cbb 3562 86bc bc12 c0bc 745a 37bc
000001f0: c707 9f3c a235 643d 6d24 b8bc 3ced 2fbd
00000200: b88a 913c fb6d d23c c3be 70bc 2622 c4bc
00000210: 3ca0 903c 66e7 aabc c2e6 11bd 04db 0fbc
00000220: ee4a 893c d182 71bb 7a96 4b3d d47b f7bb
00000230: 6e5e 27bb 96b8 d9bc 481a f8bc 8a10 d8bc
00000240: f492 06bd 0d89 01bd d3df 55bd 13f5 56bd
00000250: d172 cabb 3b4e edbc 4cba d7bc f0c8 66bd
00000260: fcda 0dbd f451 753c 0767 463d e392 073d
00000270: b614 4c3b 7676 2abc c31a f2bb b3b4 7c3d
00000280: de47 083c 066a 323d d171 333d ec6d 313d
00000290: 91ee 883c 5ae6 91bc 850d ffbc 43c8 1f3d
000002a0: 2d13 113d 4eb2 3e3d 47b5 0dbc e1d5 5a3c
000002b0: d80d d8bc 3897 e2bc 13aa 19bd 4c19 4cbd
000002c0: 7bae 51bd c1ad 6ebd 424b e8bc 47b4 333c
000002d0: a130 5abd 6ca1 5bbc a7c3 bcbb f3e8 c63c
000002e0: 4ac0 df3c 6e38 e3bc ff46 823c ccf4 963c
000002f0: af5d f7bc 71fd f3bc 8d8f 8e3b 7031 99bc
00000300: 7e4a 233c a96f 7abd 62e3 09bd 1808 f93b
00000310: 8998 b9b9 a745 01bc 5e02 6cbc 98cc 3b35
00000320: 32d3 5d3c 10d3 2cbd 2f88 073b 7268 bc3b
00000330: bce4 80bc 12dd abbc abba d5bc 811c b23c
00000340: 2b6c 983c 9358 40bd 3593 63bc d34f 4fbd
00000350: a092 2ebc ca59 22bd a81a e1ba 6a8d 4b3a
00000360: b76b 333b 35d1 283b b5b5 253c a457 1fbd
00000370: d57c e8bb 86a2 c13c 2359 903c 0271 b13c
00000380: 89db 0dbb 6408 513d 1658 d43c 099a 473d
00000390: 0e82 823c c678 883c 6b56 72ba 866c 933d
000003a0: 6b32 013d d3e5 b73c 0bcd 933d c164 853d
000003b0: 8f95 633d 3391 0a3d d2d6 933d 4423 943d
000003c0: 54cf a93d 7660 853d 2f2f 0d3d 795e 443c
000003d0: 061e 15bd de1d 32bc 3bdb a9bc 62d1 40bd
000003e0: 7a14 42bd fbba d2bc 4297 c4bc 8ea6 63bd
000003f0: a713 453d ae26 71bc 13f5 523d 636a 1d3d
-0.010760703 -0.029946841 0.03642854 -0.0054619107 -0.01509761 0.009859499 0.015479828 -0.022278678
-0.0022247403 0.026726153 -0.030176649 0.0529733 -0.020278664 -0.012170457 -0.004976422 0.043328296
0.03715945 0.022100572 -0.014988831 0.008396115 -0.015052935 -0.004775152 0.049962368 -0.033139862
-0.009796483 0.041508745 0.0041943667 -0.0071650133 0.0069658794 0.012769031 -0.0041935835 -0.021459777
0.034956828 -0.03440191 -0.042660538 -0.03300583 0.010307191 0.0058902027 0.061210077 0.049833804
0.01152122 0.042740088 0.06536569 0.027238516 0.063468754 0.011003852 0.0006660287 -0.03294897
-0.009053605 0.012233801 0.01000634 -0.032216046 -0.039705683 -0.014671134 -0.02667967 -0.02098242
-0.03261483 0.026781203 0.020194307 0.015103982 -0.06348111 -0.024199218 -0.037825983 0.0066661616
-0.039253633 -0.022124795 0.031533565 -0.032322172 -0.027008962 -0.02594778 -0.03833891 0.022885675
0.022509152 -0.012357512 0.039641626 0.009905117 0.011784069 0.046827212 0.04831975 0.05703697
0.012377328 0.017912988 0.013081983 0.061884474 0.030120367 -0.0044691446 -0.011265605 0.074225485
0.021275753 0.04850696 0.068468854 0.046301212 0.028539682 0.042132266 -0.0034201476 0.019611375
0.034110874 0.07081783 0.07335041 0.02229131 -0.046395984 0.027743706 0.0020810121 -0.003891657
-0.0003124254 -0.00974274 0.018164134 0.027463473 -0.015450146 -0.039071117 -0.025693387 -0.0033426932
0.004257194 -0.022338273 0.01383406 -0.013449818 -0.025546828 0.032282922 0.00609147 0.044123016
-0.002868867 -0.01640425 -0.023446433 -0.011190999 0.019412888 0.05571521 -0.022478307 -0.042950854
0.017766342 0.025687208 -0.014693919 -0.023942064 0.01765453 -0.020862292 -0.03562046 -0.008780245
0.016759362 -0.0036851654 0.049704053 -0.0075526033 -0.0025538462 -0.026577275 -0.03028597 -0.026375074
-0.03285499 -0.031624842 -0.05221541 -0.052479815 -0.006178238 -0.028967967 -0.02633395 -0.056343973
-0.034632668 0.014973152 0.0484381 0.033099066 0.0031140274 -0.01040422 -0.007388444 0.061695766
0.008317916 0.043558143 0.043809716 0.04331772 0.01671532 -0.017810035 -0.031134376 0.039009344
0.035418678 0.046556763 -0.008649177 0.013356657 -0.026373789 -0.027659997 -0.03751571 -0.049828812
-0.05119179 -0.058271173 -0.028356198 0.010968274 -0.053269032 -0.013405185 -0.0057606283 0.024281
0.02731337 -0.027736869 0.015902994 0.018427275 -0.030196039 -0.029783936 0.0043506087 -0.018700331
0.009966491 -0.061141644 -0.033664115 0.007599842 -0.00035399597 -0.007890142 -0.014404861 6.996065e-07
0.013539122 -0.042193472 0.0020680537 0.0057497555 -0.015734069 -0.020979438 -0.026089987 0.021742107
0.018606266 -0.04695947 -0.013890077 -0.050613236 -0.010655075 -0.03963641 -0.0017174082 0.0007764908
0.0027377435 0.0025759463 0.010114123 -0.03890194 -0.0070949593 0.023637068 0.017620629 0.021660332
-0.0021645746 0.051033393 0.025920909 0.048730884 0.015931156 0.016659152 -0.00092444447 0.071984336
0.031542223 0.022448456 0.07216843 0.06513358 0.055562552 0.03382988 0.07218708 0.07233289
0.08291498 0.06512539 0.034468826 0.011985415 -0.036405586 -0.010871379 -0.02073442 -0.047074683
-0.04738281 -0.025723925 -0.023997907 -0.05557876 0.048114445 -0.014718695 0.051503252 0.038431536

deconv2.bias f4 [64]
00000000: 99b0 4cbc caf4 a6bd 974d 1fbd 11a8 ffbd
00000010: 2722 f93c f6b5 4cbd 7821 393d bef3 40bd
00000020: a809 45bd 12a3 a7bd 14d8 aabd 4b12 183d
00000030: f1a8 b03c e449 bdbd 183d 93bc 7c82 49be
00000040: fa4a 483b 27d4 bbbd e677 5e3d 96d1 18bb
00000050: cd39 9e3d e48a f1bd e482 2b3e ec95 03bc
00000060: 0d1c 72bd 1e0f 22be 4864 463d ec95 243e
00000070: a57a 92bd b3f2 e53a 8d4d 5dbd d76a 823d
00000080: 7267 a8bc 1301 b6bc 2ab5 45be e841 023e
00000090: c802 c2bd 0615 3abd c990 2bbe b465 b3bd
000000a0: ed0a 3bbd f596 783d 5a0f 71bd 3d28 033e
000000b0: 0e7a 983d 2f35 01bd 0a87 a3bd da13 88bd
000000c0: e3fd 81bd 0610 c0bd 016a 8c3c 8377 bf3d
000000d0: 7a0e cd3d 3135 ccbd 8325 eabb 2a53 903d
000000e0: 6efe 343e 901e a1bc af5a a13d 71ed 0b3e
000000f0: 04bc 073d 5d55 cc3d 1194 263d 2b6b 8c3c
-0.012493276 -0.081521586 -0.038892355 -0.12483228 0.030411793 -0.04997822 0.045197934 -0.04710745
-0.048104912 -0.081854 -0.08341995 0.03712682 0.021564933 -0.09242609 -0.017973468 -0.19678682
0.0030562268 -0.09171324 0.054313563 -0.0023318282 0.077258684 -0.117940694 0.1674915 -0.00803135
-0.059108783 -0.15826079 0.04843548 0.16072816 -0.07152299 0.0017543643 -0.054029036 0.06368034
-0.02055714 -0.02221731 -0.1930739 0.12720454 -0.09473187 -0.045430206 -0.1675445 -0.08759633
-0.045664717 0.06069084 -0.05885253 0.12808318 0.07445155 -0.03154486 -0.07984741 -0.066444114
-0.06347253 -0.09378056 0.01714039 0.09348967 0.10012527 -0.09971083 -0.007145585 0.07047112
0.17675182 -0.019667894 0.07878625 0.13664795 0.03313829 0.09977219 0.04066855 0.017140945
