contrastive_save/contrastive_weights_epoch_73.pt (torch, 749116 bytes, 8 tensors)

conv1.weight f4 [64, 3, 3, 3]
00000000: 8005 953d e908 d8bd e5d4 043d 813a 873d
00000010: 2cf4 a03d 98c6 efbd 8718 0b3e 3441 ebbd
00000020: 554c 39be 5611 bb3d cf38 09be e9e3 c73d
00000030: 8980 16be 12fc 2abd 3586 533e bc04 853d
00000040: deab 023e cda0 473e 47ad 45be 82ce 82bc
00000050: 62c9 32be 51f9 d7bc 8e25 6bbe 7ad3 8bbc
00000060: be4e 98bd 866b 0ebe 8b7b eabd 8aad 0abe
00000070: 588d 03bc c1a2 0fbe 2f51 d93c 80ec ea3c
00000080: a601 9e3c 65c7 1fbe d0d2 233e 1b7b 023e
00000090: 0bea 6abe 0044 e53d c541 8e3d 7568 8abd
000000a0: 7dca 5fbc 26f5 44be be45 63be 6125 6fbe
000000b0: 111d 5ebe f93c f13d 5fc4 e9bd dbeb db3b
000000c0: 5155 383e 8c66 0e3e 89c2 1e3e 1e03 13be
000000d0: afdd 253d 5818 323e 8e55 35be 9aa5 fbba
000000e0: 0fe0 b5bd 67ed 9fbd b863 633b 8d55 9cbd
000000f0: 626b d3bd c703 a63d 65d9 6cbd 7c41 823b
00000100: 6b75 e33d 2829 643d f903 2bbe e16a 3c3e
00000110: f14b 2f3e bce6 383e c4f9 a73c 0383 ef3b
00000120: 4cd6 c1bd fcae 18be c858 1cbd 0107 f53d
00000130: 50db fb3d a5c8 a0bc 31aa d63d 036a c03c
00000140: 964d b6ba 7fdd 4fbe 1668 14bd e2ec 3c3e
00000150: 6a46 bbbc e7c0 e03b 6a49 d93d 2dc2 39be
00000160: dc7a 2c3e 43d8 40bc b9e8 0abe 2be1 583b
00000170: 2ab4 f83d e668 f5bc 7aba 01be f482 b73d
00000180: 51b3 1abd f0e9 aa3d f17f 14be 0d06 ac3d
00000190: c1a0 863d 853f f8bd 797e a4bd 3a5d 513c
000001a0: 232f 233e c4e1 35be d32d 2f3e 9c7d bbbd
000001b0: e73f 803c 9f51 b63b 3062 ee3c a4d2 e93d
000001c0: 0770 9cbd caaf 31be 8750 c1bd 44a8 213d
000001d0: a9fd 92bd 6474 0b3d 7b8c c0bd a3b0 a3bd
000001e0: a203 713e dc35 083e dfc0 413e aab9 09be
000001f0: 63df 20bd 884c b3bd 4d66 b0bd afa2 46bd
00000200: fffd 3fbd beea 25be 824e fdbc e166 b03d
00000210: 7d08 0b3e b36b 723d 7194 f2bc 9028 f8bc
00000220: 1328 233e c1a6 26be 7874 b53d d848 debd
00000230: ca22 5dbe 360b 233e 4c3f 8a3d 232f 843d
00000240: d4f7 44be 90a3 cf3d 66d8 f13d 015a 2c3e
00000250: f710 e83d aa18 66be 8dca a3bd d0a7 33be
00000260: 404e c83b ca43 9c3c eda7 d5bc 105f cb3d
00000270: c7a9 3dbe f188 873d 9176 0dbd d803 383e
00000280: 7224 033e 6d99 fcbd 1d1c 84bd f223 fc3d
00000290: 64d6 fabc 4adf 9a3c 7793 493e 2cb2 9dbd
000002a0: 9dd9 e73c 02a5 8d3d e8bf f2bd 4d78 a43c
000002b0: a36c 73bd e934 04bc 57ac 9e3c a0ab 3a3c
000002c0: 3024 31be a456 38be 2acc 3fbc c16a 1dbe
000002d0: 4a9e 813b 4d65 f2bd 092e 55be 3260 67bd
000002e0: dfc2 eebd 419d 70be b869 673c d9c6 93bc
000002f0: 7fea 8e3d 3794 81be c466 87be 50e7 8dbe
00000300: 0716 3fbe 39ba 8fbe 8b27 89bd 3968 8dbd
00000310: 95ad a3be 4eb7 19be 4563 72bd a5b7 a7bc
00000320: 1537 c83d 408b 4c3e 7d65 93bd 9d79 27be
00000330: df80 a63c 8a9a c83d cd92 50bd ab31 b2bd
00000340: 4a61 c83d 93c0 7b3d 430c 4d3e ae64 ec3c
00000350: 7247 933d c4ff 123d dfa0 aabd c524 4cbd
00000360: 4e92 11be 5959 2a3e a12c b6bd 049a afbd
00000370: 8b03 27be e6d2 3d3e e2d4 05be d36c 52be
00000380: c3af ac3d 48a0 383d 5eb9 163e ade2 f93d
00000390: 762c c73d d422 0ebe 1498 1d3e efb5 b23d
000003a0: e638 c53d 9a3a 22be 759f 223e 736f dc3d
000003b0: b426 653d ce96 f3bd da49 9c3c 00eb 1f3d
000003c0: 08d5 613d daa5 febd e26e 53be b3ee 14be
000003d0: c326 6abe 7640 9abd 2a72 79be 90b4 3c3d
000003e0: 75e1 3bbe 10be 7abe 8ba9 1bbe dcc2 52be
000003f0: 5519 cebd 632b 7bbe 63f3 d4bd 3fa0 35bd
0.0727644 -0.105485745 0.032429595 0.066029556 0.07859072 -0.117078006 0.13583575 -0.11487046
-0.18095525 0.09134166 -0.13400577 0.09760267 -0.1469747 -0.0417443 0.20656665 0.06495044
0.12760875 0.19494934 -0.19304381 -0.015967611 -0.17459634 -0.026364 -0.22963545 -0.017068613
-0.07436894 -0.13908204 -0.11449345 -0.13542762 -0.008029304 -0.1402693 0.02652797 0.028677225
0.019287895 -0.15603407 0.15998387 0.12742274 -0.22940843 0.111946106 0.06946138 -0.06758205
-0.013659117 -0.19234142 -0.22194573 -0.23354103 -0.21690775 0.11779208 -0.11414408 0.006711466
0.18001296 0.13906306 0.15503897 -0.14356658 0.040494617 0.17392099 -0.17708418 -0.0019199133
-0.088806264 -0.07808953 0.0034696888 -0.07633505 -0.10323216 0.08106189 -0.05782451 0.0039750915
0.1110638 0.055703312 -0.16700734 0.18400146 0.17118813 0.18056768 0.02050484 0.007309319
-0.09464702 -0.14910501 -0.038170606 0.119642265 0.1229769 -0.019626925 0.1048168 0.02348805
-0.001390862 -0.20299338 -0.036232077 0.18449739 -0.022860724 0.0068589333 0.10609706 -0.18140478
0.16843742 -0.011770311 -0.13565339 0.0033093195 0.121437386 -0.029957246 -0.12668791 0.08960524
-0.037768666 0.08345401 -0.14501931 0.083995916 0.0657363 -0.121214904 -0.08031935 0.012778575
0.1593595 -0.17761904 0.17107324 -0.091548175 0.015655471 0.005563929 0.029099554 0.1141713
-0.07638555 -0.17352214 -0.094391875 0.03946711 -0.07177288 0.034046546 -0.094017945 -0.07992675
0.23536542 0.13301796 0.1892123 -0.13449731 -0.03927554 -0.087548316 -0.08613262 -0.04849499
-0.04687309 -0.16202828 -0.030921225 0.086133726 0.13577457 0.05918474 -0.029611798 -0.03029278
0.15933256 -0.16274549 0.08860105 -0.108537376 -0.21595302 0.15922245 0.06750354 0.06454303
-0.19235164 0.10138619 0.11808853 0.16831209 0.11331361 -0.22470346 -0.07997618 -0.17544484
0.0061128438 0.019075293 -0.02608105 0.09930241 -0.18521796 0.066179164 -0.0345369 0.17970216
0.12806872 -0.12333951 -0.06450675 0.123115435 -0.030619808 0.0189053 0.1968516 -0.07699999
0.028302008 0.06916238 -0.118530095 0.020076895 -0.059429776 -0.008069255 0.019369287 0.011393458
-0.1729896 -0.18001801 -0.011706391 -0.15372755 0.003955637 -0.11835728 -0.20818342 -0.056488223
-0.116582625 -0.23497488 0.014124326 -0.018039154 0.0697832 -0.2530839 -0.2644559 -0.2771554
-0.18660747 -0.28071764 -0.06696995 -0.069046445 -0.3196837 -0.15011331 -0.059176702 -0.02047331
0.09776131 0.19974995 -0.07197092 -0.16354986 0.020325122 0.09795101 -0.05092125 -0.0870088
0.097841814 0.06146295 0.20024209 0.028856602 0.071913615 0.03588845 -0.08331465 -0.049839754
-0.14215967 0.16635646 -0.08895231 -0.08574298 -0.16309945 0.18537483 -0.1306949 -0.20549326
0.084319614 0.04507473 0.1471915 0.12201438 0.09725277 -0.13880473 0.15390044 0.08726107
0.09629993 -0.15842667 0.1588114 0.10763445 0.055945113 -0.11893998 0.019078184 0.039042473
0.055134803 -0.124339774 -0.20647767 -0.14544182 -0.22866349 -0.07531826 -0.24359956 0.046070635
-0.18347724 -0.24486566 -0.15201394 -0.20582145 -0.100634255 -0.2452827 -0.10397985 -0.044342276

conv1.bias f4 [64]
00000000: bc37 5c3d 8c47 dfbb 312a 8bbd d5f0 4f3d
00000010: b2b5 01bb 053b 00bd 4232 c9bd f3b3 c83c
00000020: 88e5 57bd ae8f 1b3d fbbd e0bd 2d14 91bd
00000030: a306 ac3c bc9a a53d 1cd0 3b3d 1e72 883d
00000040: df89 b9bc b701 1fba 4079 afbd 3f3a f6b9
00000050: 320d 373d 77d9 a9bd 7f93 903d a474 c8bd
00000060: 8ae5 5bbd fc71 b43d 7014 2dbe a899 41ba
00000070: a8af cf3a cab3 e63d 128e 4cba 1c72 0abe
00000080: 79cf f6bd 2cd8 e8bd fc4c 5bbe 3923 edbd
00000090: 60d0 c139 64ff 9c3d ec61 b5bd d843 293e
000000a0: 532c 483a b4b9 123a fac6 eebd c334 623d
000000b0: 641d 29be 5e2e 04be 4873 02be 1425 94bd
000000c0: 64de 8c3c 73e9 033d 2db0 b5bc adf7 533d
000000d0: c7f9 9b3d 89c5 8b3b 6851 023d 8c1a 8ebd
000000e0: 7d4e 693a aa23 75ba 2dc8 ec3c 43f3 47bd
000000f0: 7853 333d c029 2c3d cb5d 343b 3edf 423c
0.05376409 -0.006813949 -0.06795157 0.050766785 -0.0019792137 -0.031306285 -0.09824039 0.024499869
-0.052709132 0.03797882 -0.10973736 -0.07083926 0.020999258 0.08086154 0.045852765 0.06662391
-0.02264875 -0.0006065624 -0.085680485 -0.00046964173 0.04469032 -0.08293431 0.07059383 -0.097878724
-0.053685702 0.08810803 -0.16902328 -0.0007385262 0.0015845196 0.11264761 -0.00078031525 -0.13520092
-0.12051291 -0.113693565 -0.21416086 -0.11578984 0.0003696708 0.076658994 -0.08856568 0.16529787
0.00076359994 0.000559713 -0.116590455 0.0552261 -0.16515118 -0.12908313 -0.12739289 -0.072336346
0.017195888 0.032205056 -0.022178734 0.051749874 0.076160006 0.0042654914 0.031815916 -0.06938657
0.00088999403 -0.00093513227 0.028904045 -0.048815977 0.043780774 0.042032003 0.0027521725 0.011894045

conv2.weight f4 [128, 64, 3, 3]
00000000: 561a 01bc 5f4e cf3c 50ca bf3c 1156 36bd
00000010: 69da 063d 6870 99bc 7c7c 7cbb 99d0 05bd
00000020: 3b69 233b 88f9 0dbb baa2 34bd e391 1abd
00000030: f2e8 86bd 9db3 55bd f529 76bd 6c7f 54bc
00000040: ddf8 81bd 16b5 883c 9f0a c6bc 44ac 90bc
00000050: 8f03 93ba 196a a93b 58f2 283d 8917 d83c
00000060: e633 c8bb f0d3 423d a2d7 8d3a 7722 94bc
00000070: c645 393c fa00 473c e7e3 153d ba3a bbbc
00000080: a8f7 8b3b 2201 dc3c 4ebd 223d f087 8dbc
00000090: 6f4f ac3d 0370 5a3d 1d51 a53d b8e8 fc3d
000000a0: 65c0 973d 4895 053e 6e02 d73d b031 873d
000000b0: 4931 0b3e 8e8c 0e3d f389 303d e34a 05bc
000000c0: 329c 973c 52cb 133c 8c6e df3c 4ce1 30bd
000000d0: 64ca 1cbd 1c5a fa3b b9c9 843d 3f67 46bd
000000e0: 3ed4 d5bd da3a f9bc 28a4 903b 0bf3 63bd
000000f0: c025 24bd de69 873c 11b3 7abd 5bf4 c53c
00000100: 591e 6b3c 8eb5 f83c 24c0 cdba a76d 0fbd
00000110: 5320 06bd 9ede 8a3c 2e76 2cbd 0d71 09bd
00000120: 1f92 efbc 620a 94bc 5f14 47bb 3c05 273d
00000130: 6830 1a3d ea24 0f3c 9ae5 a2bc 07a2 efbc
00000140: 6d5b 273c e769 c13c effb a53c ad87 623d
00000150: 590c dd3a bf5c ce3b 1174 083b 4daf 21bb
00000160: 3be3 933d 0044 f93b 8065 743c f427 07bd
00000170: 54fd babc 35eb 60bc 4929 c13b c693 9bbd
00000180: 7c18 df3b 81a5 2abc 7765 61bd 589f 0abd
00000190: 5fba 1fbc 7269 08bc 873c d1bc f739 febc
000001a0: f2a7 beba 237e 0cbd 7270 883c 3dbb 293b
000001b0: bfe1 073d 2ef3 be3c 3375 803d 6ede d6bb
000001c0: 3c8b 113d 9f42 6b3d 9df4 183d ef5d 913c
000001d0: 077c c5bb 84e2 083c 9f12 023d f6eb de3c
000001e0: 2e3f c93c d6ea 16bb b8f0 1c3c 506b 62bc
000001f0: 3fbb 63bd 79ed 6cbd 2851 bf3c 6d9a 313c
00000200: 8895 cf3c 2a9e 5e3d c7ea 123d 5b93 653c
00000210: ec6e 993d d578 283d f5fd 083d 138e 1e3d
00000220: e5aa 063d 845c 15bc 3b66 60ba b011 9a3c
00000230: 4427 823c 4038 eebb 5a8e 263d 1672 a53b
00000240: bfc0 14bc a685 9a3c 691c 1c3d 2529 983c
00000250: 4664 4d3d 7beb 083d 5a02 963d e1e7 b1bc
00000260: 143b e0bc 8f33 1f3d f41d c93c c1a9 713d
00000270: aec5 10bb 2973 f5bc 8d5b 523c 4b76 d13c
00000280: fcfd af3b e269 86bd 909d c33c 8849 443d
00000290: 8655 bdbc 1027 aabc fa68 0fbd 9f3a 833c
000002a0: 14bc 433d a7f3 e2bc 63ca f5bc 53ce ab3d
000002b0: ed8a d63d 0d5f 043e f558 dc3c 10f8 933d
000002c0: 5b89 ca3d 63be 783d a19c f13d 75af cb3d
000002d0: fc48 203d 6cd2 e43c a363 3b3c ca2d 2bbc
000002e0: 840b 8d3c fc7f 58b9 49b9 403d 8f1e 3e3d
000002f0: 5c93 913d 2562 e6bd 27aa 82bd 1e31 50bd
00000300: 1841 3dbd c4cb 30bb 0f7f 003d bed8 33bc
00000310: 0bce 3abb 19d9 753d 8a12 613d fe1d 1e3d
00000320: 808c 3ebc a671 523d d60d 103c daa4 3e3d
00000330: 2596 4b3d e1bf 843c aad4 263d d173 c8bd
00000340: e7a5 b4bd 7a1d 96bc a2a2 98bd 9a54 97bd
00000350: 3627 0abd 4bee 08bd ce4a 5ebc a7bb 1bb9
00000360: 3b17 5ebc bc40 4b3d e936 403d 74bb bf3c
00000370: 2203 d0bc 1448 a13c a2ce 203c 1aa0 cbbc
00000380: c2ba 9b3c 77b5 7e3c eb8f 4f3d 8e82 18bc
00000390: 4ebc a53b bc54 5b3c 78cf b9bc da5b d839
000003a0: dc21 d43c 85b0 74bb d59a 45bb 1fb1 97bc
000003b0: 65de 31bd ab5d 853c 15fb 163d c0be 6abc
000003c0: 36a4 1c3d 235f e83c 3025 d3bc 584b c6bb
000003d0: 4d06 0cbc f682 4ebd db68 dfbc 35a0 76bc
000003e0: 59e9 2abd 9d32 79bc ee5e 55bd ad82 1cbd
000003f0: ee23 40be 4586 43be 5e8d 1dbe 4873 1cbe
-0.007879814 0.025305925 0.0234119 -0.044515673 0.032923136 -0.018730357 -0.0038526347 -0.032669637
0.0024934548 -0.0021663625 -0.0441005 -0.037736785 -0.065873995 -0.052173246 -0.060098607 -0.012969833
-0.06346295 0.016687911 -0.024174986 -0.017660268 -0.001121627 0.0051701185 0.041246742 0.02637841
-0.0061097024 0.0475654 0.001082171 -0.01808284 0.011308139 0.012146229 0.036594298 -0.022855151
0.0042714663 0.026856009 0.039731316 -0.017276734 0.08413588 0.05332948 0.08072112 0.12349075
0.07409743 0.13045228 0.1049851 0.06601274 0.1359302 0.034802012 0.04310031 -0.00813553
0.018507097 0.009020643 0.027274393 -0.04318361 -0.038278952 0.0076401364 0.06483788 -0.048438307
-0.104408726 -0.03042357 0.0044141 -0.055651706 -0.040075064 0.016529974 -0.061205927 0.02416437
0.014350497 0.03036001 -0.0015697521 -0.035016682 -0.03274567 0.016951855 -0.042104892 -0.03355508
-0.02924448 -0.018071357 -0.0030377132 0.040776476 0.03764382 0.008736828 -0.019884873 -0.029252065
0.010214669 0.023610068 0.020261733 0.05530517 0.0016864642 0.0062976773 0.0020821134 -0.0024671138
0.07221075 0.007606983 0.014916778 -0.032997087 -0.022825874 -0.013727953 0.005894814 -0.07596545
0.0068083387 -0.010415436 -0.055028405 -0.03384337 -0.009749024 -0.008325921 -0.025541557 -0.0310335
-0.0014545901 -0.03429998 0.01665518 0.0025898956 0.033174273 0.023309316 0.06272354 -0.0065572774
0.035533175 0.05743658 0.037342656 0.017744986 -0.006026748 0.008354787 0.03175604 0.027212124
0.02456626 -0.0023028157 0.009578876 -0.013819531 -0.055598494 -0.05784366 0.023354128 0.010840041
0.025339857 0.054350056 0.035868432 0.014012183 0.0749186 0.04113086 0.033445317 0.03870971
0.03287782 -0.009116296 -0.00085601554 0.018807262 0.015887864 -0.007269889 0.0406631 0.0050490005
-0.009079157 0.018862557 0.03811303 0.018574307 0.050144456 0.033427697 0.07324667 -0.021717014
-0.02737192 0.03886753 0.024550416 0.05899978 -0.0022090483 -0.02996214 0.01283921 0.025569102
0.0053708535 -0.06563164 0.023878843 0.047921687 -0.02311207 -0.02077058 -0.035012223 0.016019164
0.047786787 -0.027704073 -0.030003732 0.083889626 0.10475717 0.12926884 0.026897887 0.072250485
0.0988948 0.060728442 0.11797453 0.09945575 0.039132103 0.027932368 0.011437329 -0.010447929
0.017217405 -0.00020647043 0.0470517 0.04641586 0.07108185 -0.11249188 -0.0638011 -0.05082809
-0.046204656 -0.0026976923 0.031371173 -0.010976968 -0.002850416 0.060021494 0.05494932 0.03860282
-0.0116301775 0.051377915 0.008792361 0.046543933 0.049703736 0.016204776 0.040730156 -0.09787715
-0.08820706 -0.018324602 -0.07452895 -0.07389183 -0.0337288 -0.03343038 -0.0135676395 -0.00014851858
-0.013555343 0.049622282 0.046927366 0.023404814 -0.025392119 0.01968769 0.00981489 -0.024856616
0.019009952 0.015546194 0.05067436 -0.00930847 0.005057848 0.0133869015 -0.022681937 0.00041267165
0.025895052 -0.003733666 -0.0030152102 -0.018517075 -0.043424983 0.016280016 0.036860544 -0.014327705
0.03824254 0.028365677 -0.025774568 -0.006051462 -0.008546424 -0.050417863 -0.027271679 -0.015052845
-0.041726444 -0.015209821 -0.052092485 -0.03821056 -0.18763706 -0.19094189 -0.15385959 -0.15278351

conv2.bias f4 [128]
00000000: 2299 96bc 315f bebc 48d0 02bb 5d0f 2ebb
00000010: 036a c5bc 25e5 bbbc 9e6e 773d 89e6 303c
00000020: 3640 9338 b2c7 39bb ae38 1d3d 96fe 163d
00000030: 28a9 46bc 95d0 ce3b a796 8d3c 00a8 7e3d
00000040: e01b 303b bab7 113d 5d77 cdbc a647 693d
00000050: 86fe 423d 8581 83bd f3a5 9cbb 31a8 f0bc
00000060: 5826 ac3a 1443 40bd c6af 81bb 445d 2fbd
00000070: 1008 24bd 8416 c4bc fdc1 e23c bea0 68bc
00000080: be00 4b3d c2e3 8b3c 64b8 6abc a1c4 ef3c
00000090: 9190 a5bc 73e8 15bd 6c17 9cbc 26ed bebb
000000a0: da5e b43c 219e 453c 322c 393c e4a0 82bc
000000b0: 4956 7b3c b6ba 6dbd 5c9d ba3c 22a5 773c
000000c0: 1493 42bd e9b3 d7bb 64df 23bd 40da c5bb
000000d0: ed17 4bbd ac28 703d 114a a4bc d281 6ebd
000000e0: 3d14 163d 8ffc 6ebc 468e ba39 822b e9bb
000000f0: 9b8a 95bd ab78 16bd acae 0b3d e538 d3bc
00000100: 34b1 563d 1cb0 a83d 2d8a 2e3d 84c9 30bd
00000110: 4ac8 463c 8ee5 983c a819 64bb 347d 213c
00000120: afc6 23bd 864f 0e3d 4d33 fa39 0e48 90bc
00000130: 9ece 1e3c aac7 2f3d e60d 943c 489e 5c3d
00000140: eb8e 863b 96bd 163d 3966 1e3d 2b17 56bd
00000150: 81ba 80bc d29c fcb9 485d 3c3d 74d9 073c
00000160: c99d c43b 8809 6f3d 5671 153d 3ed0 5e3d
00000170: 0447 013d 3235 88bb 98a3 833d 1c14 b83b
00000180: fa12 3fbb e694 d7bc 7556 acbb 9212 143d
00000190: 54d0 f7bc df98 b7bb 6734 5b3d 5c70 bbbc
000001a0: 950f 18bd ca47 3f3d e904 83bc 9303 3e3d
000001b0: 599b eb3c 3f80 01bd bab7 4fbd accc 80bd
000001c0: 9c85 043d 32ef 7abd 3a93 703c 3655 ecbc
000001d0: 5a86 8d3d 35ec e13c 72a3 8bbb e402 983c
000001e0: 0f01 fbbc b821 00bd 4099 b53c 1804 1dbd
000001f0: 2ea4 a33d 0b4b 833c bc86 b1bc 3003 eb3c
-0.018383566 -0.02323875 -0.001996057 -0.002655945 -0.024098402 -0.022936413 0.060408227 0.010797151
7.0214664e-05 -0.0028347787 0.038384132 0.036863886 -0.012125291 0.006311486 0.01728375 0.062171936
0.0026872084 0.035575606 -0.02508133 0.056953095 0.047606014 -0.06421188 -0.004780525 -0.029377075
0.0013133986 -0.04693897 -0.0039577214 -0.042813554 -0.04004675 -0.023936518 0.027680391 -0.01419848
0.049561255 0.017076377 -0.014326189 0.029268565 -0.020210536 -0.036598634 -0.019054137 -0.00582661
0.022017885 0.012061627 0.011302041 -0.01594586 0.015340396 -0.05803939 0.022780113 0.015115054
-0.047503546 -0.0065827263 -0.040007964 -0.0060379803 -0.049583364 0.058632538 -0.020054849 -0.058229275
0.036640394 -0.014586582 0.00035582687 -0.0071157822 -0.073018275 -0.03673617 0.034102127 -0.025783965
0.052415088 0.08236715 0.042612243 -0.04316093 0.012132714 0.018664148 -0.0034805331 0.009856511
-0.0399844 0.03474381 0.00047721938 -0.017612483 0.009692816 0.042915024 0.018073034 0.053861886
0.0041063926 0.036801897 0.038671706 -0.05226819 -0.015713932 -0.00048182026 0.045987397 0.008291591
0.006000255 0.0583587 0.03648504 0.054397814 0.031561866 -0.004156732 0.064276874 0.0056176316
-0.0029155598 -0.026316117 -0.00525933 0.036150523 -0.030250706 -0.0056029405 0.05351677 -0.022880726
-0.037124235 0.046699323 -0.015993552 0.046390127 0.028760599 -0.031616446 -0.050712325 -0.06289038
0.032353982 -0.06126327 0.014683539 -0.028849225 0.06910391 0.027578453 -0.0042614276 0.018556066
-0.030640153 -0.031282157 0.022167802 -0.038333982 0.07990299 0.016026994 -0.021670692 0.028688043

deconv1.weight f4 [128, 64, 3, 3]
00000000: aac1 7eba 3e45 6bbc 2e03 073c 4487 67bc
00000010: 6c42 813c e192 af3c ecd2 3b3d 6666 b13c
00000020: 3c9f a4bb e678 183d bf6d 2a3d d32e 753c
00000030: f28a 503d a170 56bc bfb2 b93a 5e0c ec3c
00000040: 4f88 e33c a6e7 223d a6c2 a3bd ad05 21bd
00000050: c2ef 28bd 5fdc 06bd 1595 abbc 59e1 e2bc
00000060: 14c1 49bd e4d9 a4bd 399e 7cbd 52f4 b33d
00000070: eee5 ea3c e2be a93d da02 12bd 46dc 1c37
00000080: 0c7c 17bd 7c1e 27bd 1b64 90bd 13cb 78bd
00000090: 65c5 743c ef04 8fbc 016a ad3c 7ecb 7e3d
000000a0: ce16 483d 7f7c 7ebc 4821 1a3c 4bd3 8c3c
000000b0: 2394 7a3b c7e1 263c ab56 343c 07e0 f33c
000000c0: 259e 313d 76a8 173c ee4c 1fbd 1ed1 91bc
000000d0: e751 37bb 5f26 a4bc 5166 f2bc 5cf7 ce3c
000000e0: 2798 45bd 2705 b1bc 572b 86bc 4b4b 49bd
000000f0: 5c6f be3c d9d1 173c fbd8 aa3c 67e9 773c
00000100: d8c4 f8ba 0c0c 383c 6db7 133d c1ab 723c
00000110: efe7 523d 00df 883d e413 57bc 8af8 7ebc
00000120: 97b8 6fbb 5552 893a dbdd a0bc 97f6 9d3c
00000130: b80d d6bc 8c54 533c 534d e03c 3e80 cf3c
00000140: c75e 34bd da48 e23c 44e7 6abc b757 b0bc
00000150: 48c6 413b 9775 063d 29fd 243d eeab 34bc
00000160: 593d 073d 0241 1d3d dbf3 d2bb d828 203a
00000170: 510f 4fbd c430 123c 3cc8 f73c cec6 eabc
00000180: 213b 263d e0d1 eb3c ad93 dabc 7a8f fdbb
00000190: 4b51 163c c6ba 253d 8919 5c3c 0f03 f13b
000001a0: ddf4 b0bc 8b6e 0dba 55e6 6b3c 1bb7 e0bc
000001b0: 4c8e 203d dfc2 893c d79b 353d c8ba 2bbc
000001c0: 94dc b8bc 5ab7 abbc c144 7dbc 66e4 a43c
000001d0: dfb2 983c 548a a5bc ef84 283d 6875 43bd
000001e0: 6cdb 7fbd 663a 313d 5710 00bd aaf0 8ebd
000001f0: 527e 3a3d 2761 bdbd d8c6 c2bd 903c debd
00000200: f8b7 43bc 83bb a9bd 4c2c 8dbd 3787 4dbd
00000210: 2e89 abbd f675 f8bc 8e49 bdbc 8c52 7ebd
00000220: 3587 febc 0b85 abbc 0041 e9bc 6cee d6bc
00000230: 310a 453c a8a2 043c 9889 d93b f590 9d3c
00000240: 219a e73a a7ec 9c3b 840d 7a3b f588 513d
00000250: 8496 a9bc df38 443c 1601 503d 9790 093d
00000260: 6496 e2ba fc91 53bd 14d3 5d3c 0815 52bc
00000270: 7df5 97bc f427 d3bc 0251 90bc b601 2fbd
00000280: 4741 d93c 976c 013b 3cd4 70bd 1fbd aabd
00000290: bba4 08bd b217 583a 6409 79bc 1024 573c
000002a0: d988 643d 76ab 8a3d a29a 893d d54a 803d
000002b0: 042e 753d 10ce 813d 482e 073c 8949 573d
000002c0: c290 cf3a 9f61 713b bd01 d1bc 0fb4 263d
000002d0: cf67 f9ba 5b4b 293b 8273 91bb 1c58 6cbd
000002e0: 2a04 48bd b4e1 aabc fa70 28bd 9597 d1bc
000002f0: 851f e53a ce51 f33b 10c0 033c c081 2fbb
00000300: 11a3 dd3b 3670 04bc 8e96 f6bb fada 513b
00000310: af31 86bc 908f aebc 82e9 963c d6c9 0f3d
00000320: e3d9 d53c 7803 9abc 779a b33c 1812 6f3c
00000330: 11b7 94bb 40ad 33bc c092 a1bc d85d a33c
00000340: c1b4 4a3d 42ba 303d c909 2b3d 0df1 b73c
00000350: 3f10 afbc de8b 823c 6c26 143d 3319 523d
00000360: d091 e8ba 34eb bbbc 5c37 3a3d ac5f 963c
00000370: 42b9 993c 3d37 17bc 3446 f03c ffe0 6dbb
00000380: 165e 15bb f057 88bc acf3 62bc 6d0e a3bd
00000390: ac12 5e3b f6e4 56bd 1b01 88bd b0fe 58bd
000003a0: 1499 29bd 532a 42bd 9348 cc3c 7e97 cdbc
000003b0: 9da1 203b ef0d ffbb 27ad 403d 3cf3 1d3d
000003c0: 6713 e9bb c373 b5bc fdf7 ecbc 5044 46ba
000003d0: fa94 96bc 73b1 e83c 0077 c4bb 8463 c03c
000003e0: 51c9 ec3c b862 9fbc ad59 b83c e292 f13b
000003f0: 0fe3 1bbe 0691 64bd 476c 1abd d152 2d3d
-0.0009718189 -0.01435977 0.008240504 -0.014131371 0.015778743 0.021432342 0.045855448 0.021655273
-0.005023865 0.037224673 0.04160857 0.014964777 0.05091376 -0.013088376 0.001416765 0.02881449
0.027774958 0.0397717 -0.079961106 -0.039312053 -0.041244276 -0.032925006 -0.020945111 -0.027695345
-0.0492564 -0.08049372 -0.06167433 0.08786835 0.028674092 0.08288361 -0.03564725 9.349611e-06
-0.036983535 -0.040800557 -0.070503436 -0.06074054 0.014939641 -0.017458407 0.02116871 0.062205784
0.048849873 -0.015532612 0.009407349 0.017190596 0.003823527 0.010185665 0.011006991 0.02976991
0.04336371 0.009256473 -0.038891725 -0.01779991 -0.0027972402 -0.020037828 -0.029589804 0.025264435
-0.048240807 -0.021608902 -0.016378088 -0.04914407 0.02324646 0.00926634 0.020855417 0.015131331
-0.0018979562 0.011233341 0.0360636 0.014811457 0.05149072 0.06683159 -0.013127301 -0.015562186
-0.003657853 0.0010476807 -0.019637039 0.019282622 -0.026129588 0.0128985755 0.027380621 0.025329705
-0.0440357 0.027622629 -0.014337365 -0.0215262 0.0029567648 0.032826986 0.040280495 -0.011027319
0.03301749 0.038392074 -0.0064377612 0.0006109602 -0.050551716 0.008922759 0.030246846 -0.02865925
0.040583733 0.0287866 -0.026681745 -0.007738051 0.009174655 0.040461324 0.013433822 0.007355101
-0.021601135 -0.00053951953 0.014398177 -0.027431061 0.039198205 0.016816555 0.044338074 -0.010481544
-0.022566117 -0.020961452 -0.015458287 0.02012844 0.01863998 -0.020207562 0.0411424 -0.04771939
-0.062465116 0.043268584 -0.031265583 -0.06979497 0.045530625 -0.09247046 -0.09510583 -0.10851395
-0.011945717 -0.08287718 -0.068932146 -0.05017778 -0.08375774 -0.030329686 -0.023106363 -0.06209044
-0.031070331 -0.020937463 -0.028473377 -0.026236735 0.012026356 0.008095421 0.006638717 0.01923416
0.0017669835 0.0047889533 0.0038155029 0.051156003 -0.020701654 0.01197645 0.050782286 0.033585157
-0.0017287252 -0.051652893 0.0135390945 -0.012822397 -0.018549675 -0.025775887 -0.017616753 -0.04272624
0.026520384 0.0019748562 -0.058796152 -0.08336853 -0.033360224 0.0008243277 -0.015199993 0.013131157
0.05579457 0.06770985 0.06718947 0.06264273 0.059858337 0.063381314 0.00825078 0.052560363
0.0015835988 0.0036831868 -0.025513524 0.04069906 -0.001902813 0.002583227 -0.0044388184 -0.057701215
-0.048832096 -0.020859577 -0.041123368 -0.025584975 0.0017480707 0.0074255234 0.008041397 -0.0026780218
0.006763824 -0.008083394 -0.0075252717 0.003202139 -0.016381113 -0.02130869 0.018421892 0.035104595
0.026104873 -0.018800482 0.02192424 0.014591716 -0.004538425 -0.010966599 -0.019723296 0.01994221
0.049488787 0.04314638 0.04175738 0.02245381 -0.021370051 0.015935834 0.036169454 0.051293563
-0.0017743651 -0.022939302 0.04546295 0.018356167 0.018765096 -0.009229478 0.02933035 -0.0036297438
-0.0022791675 -0.016643494 -0.013852041 -0.07961736 0.003388564 -0.052464448 -0.06640836 -0.052977264
-0.041405752 -0.047403645 0.02493695 -0.025096651 0.0024510392 -0.0077836434 0.04704013 0.038562045
-0.0071129086 -0.022149926 -0.028926844 -0.000756328 -0.018381584 0.028404927 -0.005995631 0.023484953
0.028904589 -0.019456252 0.022503698 0.007372246 -0.15223335 -0.055802368 -0.037700918 0.042315308

deconv1.bias f4 [64]
00000000: f2a9 1c3c 4822 8c3d 682e 713d db66 00bc
00000010: e2bf 3ebb 804c f63c a4c3 793d 3508 653a
00000020: 28d2 f23c dd46 843d 4d21 b03c 896d 493d
00000030: a1b9 753d 985a 10bd 05e6 243d 8de3 823d
00000040: 7f30 6d3d 4f9e 59bd ec7b 253d 022e 6a3d
00000050: 0d18 ac3c 6d23 903d c439 803c 90b4 aebc
00000060: aee8 1b3d 6efd 283c 555d 96bc 52c2 893d
00000070: 840b 733d 2e7f 11bd 6185 7e3d 9fed 4dbc
00000080: 2b59 ae3c a892 273d 0fb8 393d a4a4 433d
00000090: e9c4 953d 8e8a 993d 8049 0c3d b09d 2c3d
000000a0: 844a 623c 0fb1 18bc a0c7 9b3d 50c0 413c
000000b0: c321 773d 807c 3d3c 964b 493b d7c4 a13d
000000c0: e51c 783d 191e 7f3d 1d45 923d a91e 703d
000000d0: c567 363c 0598 393c b27a 213d 6c76 703d
000000e0: d731 873d a73d 143d 6d5f c0ba f415 93bc
000000f0: a91a 22bd 562b bf3c 88c7 01bc cd15 873b
0.0095620025 0.06842476 0.058882147 -0.007837023 -0.002910607 0.030065775 0.060977593 0.00087368797
0.029641226 0.064588286 0.021500254 0.049176726 0.059991483 -0.035242647 0.040258426 0.06391058
0.057907578 -0.05312949 0.040401384 0.057172783 0.021007562 0.07038007 0.015652545 -0.021326333
0.038063698 0.010314329 -0.018355051 0.06726517 0.059337154 -0.03552168 0.06213892 -0.01256886
0.021282753 0.040911347 0.045341548 0.047764435 0.07312948 0.0749713 0.034249783 0.04214257
0.013811711 -0.009319558 0.07606435 0.011825636 0.060334932 0.011565328 0.0030715219 0.07898872
0.06057443 0.062284563 0.071420886 0.05862299 0.011133139 0.011327748 0.039423652 0.058706686
0.06601303 0.03619161 -0.0014676877 -0.017954804 -0.039576206 0.023336094 -0.007921107 0.004122472

deconv2.weight f4 [64, 64, 3, 3]
00000000: 4ae3 81bc 1e94 0bbd 6472 043d a787 23bc
00000010: 3ae4 97bc 3454 d03b 2d7a 383c 39cd cfbc
00000020: 645a afbb b3b1 e33c 39f7 ffbc be3c 593d
00000030: 48bc a7bc 9877 6dbc 8c59 cfbb ce38 373d
00000040: ab4f 143d 142a b73c 90a7 74bc cf35 003c
00000050: 6448 85bc ba65 a8bb 011c 493d 8dde 0dbd
00000060: ef24 29bc 1145 273d 2f1c 303b 94d4 08bc
00000070: 2c59 f53b 858b 3d3c 4ba4 89bb a92a a0bc
00000080: e367 0f3d d815 14bd 388d 2cbd e56d 0dbd
00000090: 5369 3c3c 6130 a53b ec36 7d3d b2fe 493d
000000a0: 021d 103c a9de 293d a0d1 873d 1b70 d23c
000000b0: 172b 823d cff1 4e3c 24e4 903a 13f1 02bd
000000c0: f52d f9bb 1fbc 4d3c ecb4 2e3c 844e f5bc
000000d0: b4b3 1ebd 435f 57bc cf4d e2bc 7baa a1bc
000000e0: 1166 04bd 1e9c de3c fa4e bb3c e83d 8a3c
000000f0: b02f 84bd b516 babc d791 19bd e874 173c
00000100: f079 1cbd 7fe1 a4bc b5c7 083d 8cf5 02bd
00000110: 8fa0 d3bc bd92 babc 5084 17bd de96 cf3c
00000120: e053 c53c bfb3 56bc 902a 243d 0a59 243c
00000130: f8f8 1b3c 3019 3b3d 138a 4d3d 6265 663d
00000140: 9515 543c 9ff2 aa3c e20a 633c 0b9b 833d
00000150: 34a1 fe3c 4c21 b9bb dabe 34bc ccf7 9b3d
00000160: a266 ad3c ac8d 4b3d e773 8b3d 173d 323d
00000170: 0c11 e43c 651e 293d 7d29 d4bb 648e 973c
00000180: d598 123d 0399 903d f46b 993d 0c6b c53c
00000190: 1afb 3abd d979 f63c a81a 2d3b cdf4 92bb
000001a0: 38b4 2b3a 98df febb dc52 983c a973 f33c
000001b0: 30fd 22bc edc2 02bd a1d2 aabc 3536 383b
000001c0: e22c 433c 9a72 89bc f344 863c a6b1 1abc
000001d0: 256e c2bc 8053 123d a9f2 0c3c 5adf 403d
000001e0: 4613 5a39 d020 65bc 3be7 a9bc 88c9 e6bb
000001f0: 1772 bf3c e475 743d a63a c9bc 1bb6 32bd
00000200: cf01 7a3c 9c57 cb3c 1a24 66bc e23b cdbc
00000210: 302e 753c 5525 b2bc 8b54 1dbd e2bc 50bc
00000220: 6a2c 4c3c 053b 0ebc 768d 3d3d c4fe 33bc
00000230: bac1 e4bb e652 f6bc 2cf0 07bd 73a4 fabc
00000240: 0a09 14bd f8ec 09bd 21af 62bd 5377 5cbd
00000250: 9c82 cabb ed8b f5bc 1aa6 e4bc d36f 67bd
00000260: 8396 12bd e86a 703c 9f94 3a3d 666c 023d
00000270: 58e8 973a da7b 75bc d0b7 2bbc 08e0 7d3d
00000280: de62 bf3b 6004 2f3d 0149 383d 6cf8 323d
00000290: f1c1 943c 4bf5 8ebc 385d 01bd 57a4 223d
000002a0: 6f78 163d 8ea6 403d 5940 e2bb c4a3 803c
000002b0: cfea b9bc 55dd cdbc 826c 13bd 496c 40bd
000002c0: 8da3 4abd bf2c 6fbd 668c debc e421 333c
000002d0: 7fbc 63bd 2681 5dbc 6e69 e4bb e078 be3c
000002e0: 224c e93c 3676 e1bc cf17 593c f010 953c
000002f0: b372 01bd c372 10bd 10ec 6bba ca51 bcbc
00000300: 0d15 993b cf21 87bd f499 1bbd ac36 793b
00000310: 272d 69bb 933d 2ebc cce8 a2bc aa6d 7cbb
00000320: bcaf 073c f453 42bd 11b1 fcba c9eb 333a
00000330: bc11 bdbc 7fea dfbc fc1c 09bd a0b7 ac3c
00000340: f23c 993c 030e 45bd 3f86 56bc beaa 48bd
00000350: d600 28bc 429b 23bd 2ae8 9cba 6873 2f39
00000360: c08c ad3a ad6d 5d3b f95d 233c 2be9 26bd
00000370: d0ea d9bb 6627 bc3c 822c 6e3c 4a0f ab3c
00000380: d12e 87bb e68a 583d 1315 d13c 0909 4a3d
00000390: 136d 873c 4e27 793c 420e daba a34e 993d
000003a0: 4e0d 063d 5fec c53c a45c 973d 72c7 863d
000003b0: 9676 6e3d 488a 0d3d 2fb9 923d f419 973d
000003c0: 9fc9 ae3d fe60 873d 7761 193d 2c57 783c
000003d0: 3dd8 02bd 160c f4bb 79e1 89bc f7cc 2cbd
000003e0: 77fd 30bd 852d bebc 9933 acbc c065 59bd
000003f0: cb2e 573d c73c 44bc 88e7 623d 0f97 2c3d
-0.01585545 -0.034076802 0.032335654 -0.0099810725 -0.018541444 0.006357694 0.011259598 -0.025366412
-0.0053513516 0.027794695 -0.031245815 0.053036444 -0.020475522 -0.014493845 -0.0063278135 0.044731908
0.03620879 0.022358932 -0.014932528 0.007825329 -0.01626987 -0.00513908 0.049098972 -0.03463607
-0.010323747 0.04083735 0.0026872267 -0.008351464 0.0074874368 0.011568909 -0.0042004935 -0.019551592
0.035011183 -0.036153644 -0.042126864 -0.03452863 0.011499721 0.0050411676 0.061819956 0.049315162
0.0087959785 0.04147211 0.0663178 0.025688222 0.06355875 0.012630894 0.0011054319 -0.031968188
-0.0076043555 0.012557059 0.010663252 -0.029944666 -0.038745597 -0.013145271 -0.027624993 -0.019734612
-0.0323239 0.027174052 0.022864807 0.016875222 -0.06454408 -0.022715906 -0.0374926 0.009244181
-0.038202226 -0.020127056 0.03339358 -0.031972453 -0.025833396 -0.022775048 -0.036991417 0.025340494
0.024087846 -0.013104378 0.040079653 0.010030994 0.009519808 0.045678318 0.050180506 0.05624903
0.012944599 0.020867644 0.013857575 0.064260565 0.031082727 -0.0056497212 -0.011031831 0.07615623
0.021167103 0.049695656 0.06809216 0.04351529 0.02784016 0.041288752 -0.0064746724 0.018500514
0.035790283 0.07060435 0.074912935 0.024098895 -0.045649625 0.030087398 0.0026413593 -0.004484749
0.0006549987 -0.0077781193 0.018594198 0.029718237 -0.00994806 -0.031924177 -0.020852389 0.0028108482
0.011912556 -0.01677828 0.0163903 -0.009441769 -0.023734162 0.035724163 0.008602777 0.047088005
0.0002079728 -0.013984874 -0.020740142 -0.0070430674 0.023369832 0.05968274 -0.024564099 -0.0436307
0.01525922 0.024822049 -0.014046693 -0.025052968 0.014964625 -0.021746317 -0.038410705 -0.012740346
0.012461761 -0.008681064 0.046277486 -0.010986034 -0.006981102 -0.030068826 -0.03318803 -0.030595994
-0.036141433 -0.033673257 -0.055342797 -0.053824734 -0.0061801206 -0.029973948 -0.027911235 -0.05650313
-0.03578807 0.014673926 0.045551892 0.031841658 0.001158963 -0.014983142 -0.010480836 0.06198123
0.0058406433 0.04272878 0.044991497 0.043693945 0.018158885 -0.01745095 -0.03158304 0.039707508
0.03673595 0.04703384 -0.0069046435 0.01570309 -0.022694973 -0.025129953 -0.035992153 -0.04697827
-0.04947238 -0.058392283 -0.027166557 0.010933373 -0.055599686 -0.013519561 -0.006970576 0.023250997
0.028478686 -0.027522188 0.013250305 0.018196553 -0.031603526 -0.035265695 -0.00089997146 -0.022988219
0.004671699 -0.06598245 -0.037988618 0.0038026972 -0.0035579891 -0.010634798 -0.019886397 -0.0038517513
0.008281644 -0.047443345 -0.0019278844 0.0006863443 -0.023079745 -0.027333496 -0.033474907 0.021083653
0.018705819 -0.048109066 -0.01309353 -0.048990957 -0.010254106 -0.039942987 -0.0011971046 0.00016732293
0.0013240799 0.0033787296 0.009971135 -0.04074971 -0.0066503063 0.022968005 0.014536979 0.020881314
-0.004125454 0.05286684 0.025522744 0.049325023 0.016531503 0.015207125 -0.0016636329 0.07485702
0.032727532 0.024160562 0.07390717 0.0658101 0.05821856 0.034555703 0.07164227 0.07377997
0.0853455 0.06610297 0.037446465 0.015157502 -0.031944502 -0.00744773 -0.016831147 -0.042187657
-0.043210473 -0.023215065 -0.021020697 -0.053075552 0.05253486 -0.011977381 0.055396587 0.04213625

deconv2.bias f4 [64]
00000000: 9d2a 34bc 1522 a3bd bf26 3fbd 6d59 0dbe
00000010: caa7 1a3d 525c 47bd 1173 293d a03f 37bd
00000020: 0d14 34bd 6de2 bcbd 61b8 b6bd 7b1e 423d
00000030: 9e19 963c c8f1 d3bd fd8a babc 1a88 60be
00000040: e110 293b a700 babd ee18 813d 9fbb cfbb
00000050: fd57 9d3d 71d1 febd 2709 373e d7fe 83bb
00000060: f571 81bd caf1 2fbe 697c 523d f501 333e
00000070: 3776 8ebd d9d1 1dba 3e31 73bd 6770 8f3d
00000080: d1a0 89bc 85ce 90bc 5eba 53be 08c2 0e3e
00000090: 14ff d7bd 48cc 37bd 59c2 37be 4990 b1bd
000000a0: 8c3b 30bd 8c1c 683d aa80 65bd a544 113e
000000b0: 85a3 a43d 3027 ddbc ab8e b3bd 7fe3 8abd
000000c0: 9f32 87bd f31f c1bd 314c b83c 58a4 c43d
000000d0: 8fe3 de3d 0782 d7bd a3f9 ddbb c020 953d
000000e0: 428b 493e 1a62 a7bc 26da a03d 887a 163e
000000f0: 49f9 ff3c 3321 e23d 94ba 1a3d 83b6 6e3c
-0.010996488 -0.07965485 -0.04666781 -0.13803644 0.037757672 -0.048672028 0.0413695 -0.044738412
-0.043964434 -0.09222875 -0.08921886 0.04739235 0.018322762 -0.103488505 -0.022771353 -0.21926919
0.0025797414 -0.09082156 0.06303583 -0.006339505 0.07682798 -0.124422915 0.17874585 -0.004028182
-0.06320564 -0.17182079 0.051388178 0.17481215 -0.069561414 -0.00060203444 -0.059373133 0.07003861
-0.016800316 -0.017676601 -0.20676562 0.13941205 -0.10546699 -0.044872552 -0.17945231 -0.08670098
-0.04302554 0.05666785 -0.056030907 0.14186342 0.080390014 -0.026996225 -0.08767446 -0.06781673
-0.06601452 -0.09429922 0.022497268 0.096016586 0.10883247 -0.105228476 -0.006774144 0.07281637
0.19682029 -0.02043252 0.078541085 0.1469518 0.031246798 0.110414885 0.03777559 0.014569881
