contrastive_save/contrastive_weights_best.pt (torch, 749068 bytes, 8 tensors)

conv1.weight f4 [64, 3, 3, 3]
000000 50 5f ec 3c 2d 4c 23 bd 89 f5 1e be 2a 78 93 3d
       0.028854042 -0.03986757 -0.15523352 0.07200654
000010 55 60 06 be c8 99 38 bd ea ab 1b bd 42 91 1e bd
       -0.13122685 -0.045068532 -0.038005747 -0.038712747
000020 83 e4 3a 3e 7c 82 25 be 04 9b 01 be c0 d4 dd 3c
       0.18251233 -0.16163057 -0.1265679 0.027078986
000030 65 07 2c be de 69 ab bd c1 0a 0f bd 2f 58 0e be
       -0.16799696 -0.08369802 -0.034922365 -0.13900827
000040 3a 83 3f 3e 9f ae 52 bd 3b 6b 86 bb 62 cb 36 be
       0.18702403 -0.051436063 -0.0041021383 -0.17851022
000050 f3 e1 9f bc 2a a8 82 3d 94 f7 f9 3b d1 84 30 3e
       -0.01951692 0.06379731 0.0076283906 0.17238165
000060 9a d7 cb bd 34 16 c6 bd da 3b 24 be 8a de a6 3c
       -0.09953232 -0.09672204 -0.16038457 0.020369787
000070 4c 02 12 be c9 0a 19 be 60 c9 9d bd 4b f4 d6 bd
       -0.14258689 -0.1494552 -0.07704425 -0.10495814
000080 8e 45 40 be 34 6a 57 3d ff de cd bd 12 a8 29 3d
       -0.18776533 0.052591518 -0.10052299 0.04142005
000090 48 84 51 3d 93 9a bd 3d 99 58 9d bd 8b 84 1b be
       0.051151544 0.09257998 -0.07682914 -0.1518728
0000a0 c0 96 2f 3e c4 4b bd 3c fc d3 0f 3e 93 45 d9 bd
       0.1714735 0.023107417 0.1404571 -0.10608973
0000b0 40 9a be b9 90 6b 14 bd ee 3c dd 3d 78 29 76 bd
       -0.0003635455 -0.036235392 0.10802637 -0.06009814
0000c0 06 2d 42 bc ac 8b ad 3d 5b 01 ab 3d 08 ba 9d bd
       -0.011851555 0.08473906 0.08349868 -0.07701498
0000d0 e6 9c 33 3e 65 a7 d2 bd 48 93 cc bc 92 e4 cf 3c
       0.17540321 -0.10285834 -0.024972573 0.025377546
0000e0 58 73 53 bd e7 4e 34 3e 90 61 36 be 23 0c aa 3d
       -0.051623672 0.17608224 -0.17810655 0.08303096
0000f0 ed 4e 07 3d fc b9 2f 3e 20 30 bb 3d d5 70 3f be
       0.033034254 0.17160791 0.091400385 -0.18695386
000100 2a 8d 17 be 31 62 8a 3d 76 c0 ef 3d d2 a3 e9 bd
       -0.14799944 0.0675701 0.11706631 -0.11408199
000110 c3 5a 0e 3e c6 90 0e 3d cb 38 1d 3e d7 ad d2 3d
       0.1390181 0.034806035 0.15353696 0.102870636
000120 8e 85 dd 3d b6 71 f9 bc 81 be 2c bd 28 e8 38 bc
       0.10816489 -0.03044973 -0.042173866 -0.011285819
000130 d0 23 e6 3d a2 dd d8 3d da f4 e4 bc 79 e8 ac 3a
       0.112372994 0.10589148 -0.027948786 0.0013191841
000140 a3 15 a8 3d e7 cb dd bd 99 50 f1 3d 98 53 26 be
       0.08207252 -0.10829907 0.11782951 -0.16242826
000150 0f a2 bc bd dd 4e 0e be 90 98 29 be 23 6f 39 be
       -0.09210598 -0.13897271 -0.16562104 -0.18108802
000160 f8 d6 1a 3e c3 26 92 3d ea 39 11 be 92 b3 89 3d
       0.15121067 0.071362995 -0.14182249 0.067237034
000170 f8 a7 fd bc 81 26 ba bd 18 f4 a5 bd a3 56 41 bd
       -0.030963883 -0.09089375 -0.08103198 -0.047201764
000180 f2 05 ab bd 46 19 64 bc d0 cd 11 3e 71 54 ad bd
       -0.08350743 -0.013922041 0.14238667 -0.084633715
000190 12 8d b8 bd 30 d3 12 3e d8 6c c0 3d 63 20 c5 3d
       -0.09011282 0.14338374 0.0939576 0.09625318
0001a0 26 09 40 be 1c 23 45 3d 85 ed 36 bd 16 66 63 bc
       -0.1875349 0.048129186 -0.04466011 -0.01387932
0001b0 02 9f a9 bd f2 75 93 3d a4 16 11 be 7f 76 23 be
       -0.082822815 0.07200231 -0.14168793 -0.15963171
0001c0 67 0d de 3d f7 e2 07 bd 8a b8 15 be 3c c8 b9 bd
       0.108424 -0.033175435 -0.14621177 -0.09071395
0001d0 e6 19 df bd eb 81 13 be 51 37 38 be a9 59 15 bd
       -0.108936116 -0.14405029 -0.17989852 -0.03646246
0001e0 6d 93 71 bd 13 e2 8b 3d 3b cf 26 3d da 5d 19 bd
       -0.058978487 0.068302296 0.040724974 -0.03744302
0001f0 e1 bc de bd 1c a3 1b bd 36 ab 3a be 38 ca df bd
       -0.108758695 -0.03799735 -0.18229374 -0.10927242
000200 66 a8 6f 3c c8 72 d0 bc 50 40 e7 3d f1 05 77 3d
       0.014627552 -0.025445357 0.112915635 0.0603084
000210 92 08 e3 bd 1c 1e c1 bd ff 06 fc 3b c6 da 0b 3e
       -0.11085619 -0.09429571 0.0076912637 0.13657674
000220 6e da 1e 3e fa c2 42 be e7 32 80 3d bc 88 88 bc
       0.15513012 -0.1901969 0.06259709 -0.016666763
000230 ea b6 44 3e 5e 16 00 bc c9 e9 3b 3d 6e c5 c0 3d
       0.19210401 -0.007817833 0.04587725 0.09412657
000240 6e 6d 38 3e c9 8c 90 3d 0a 4d f8 ba f3 36 48 3c
       0.18010494 0.07058103 -0.0018943858 0.012220132
000250 01 e9 c1 3d d5 ed 9a 3c 58 91 82 bc 41 fa 36 bd
       0.0946827 0.018912235 -0.015938446 -0.044672254
000260 10 1e bf bc fd c9 52 bd 77 ba 2e 3e 55 f0 c1 3d
       -0.023329765 -0.051462162 0.17063318 0.09469668
000270 dd d1 74 bd c8 a1 ff bd d0 86 a9 3b d6 70 01 3b
       -0.059770454 -0.12482029 0.0051735416 0.0019751093
000280 b4 33 26 be fd 38 b3 bd 7a 92 2d bd 3d 88 88 bd
       -0.1623066 -0.08751104 -0.04237602 -0.066666104
000290 64 4d 1e 3e e4 a0 03 3e ca 45 bb bd d5 20 8f bc
       0.1545921 0.12854344 -0.091441706 -0.01747171
0002a0 fe 1e fe 3d b6 b2 a5 bc ce 3f 1b 3e 45 09 ee bd
       0.12408255 -0.020226818 0.15161058 -0.11622862
0002b0 42 2f e6 3d 18 3f 12 3e 32 90 2c be 4e cd 0a 3e
       0.112394825 0.14281881 -0.16851881 0.1355488
0002c0 e4 36 c5 bd 9c 02 f7 bd 75 96 0a 3e 8c f0 2a 3e
       -0.0962961 -0.120610446 0.13533957 0.16693324
0002d0 4d 86 3e 3e cc 80 a1 3d f8 68 7b bb 69 f7 d3 3d
       0.18605919 0.07885894 -0.0038362127 0.10349924
0002e0 1a fc 9f bd f3 e9 23 be 31 b7 8e bd 62 3d e9 bc
       -0.078117564 -0.16007213 -0.06968535 -0.028471652
0002f0 a9 f3 1b 3e b4 a2 99 bc 85 dd 16 bc 3f ca 75 bd
       0.15229668 -0.01875434 -0.009208088 -0.06000733
000300 ab cd 11 3b e9 44 34 bd e6 18 53 bd 13 41 23 3e
       0.0022247832 -0.04401103 -0.051537417 0.15942793
000310 11 cd 31 3e d3 c5 1a be 39 cb 45 be 93 5c 2d 3c
       0.17363383 -0.15114526 -0.19315805 0.010581153
000320 dd f5 a0 3d a8 35 3e 3e 8c 85 12 3e 36 bc c5 bc
       0.07859395 0.18575156 0.14308757 -0.024137598
000330 03 fc f1 3d df 89 11 bc d5 e8 97 bd c8 45 2d 3e
       0.118156455 -0.008882969 -0.07417456 0.1692115
000340 d1 29 3e 3e 42 7c 53 3d a8 6f 58 bd 6f ae 80 bc
       0.18570639 0.051632173 -0.05284086 -0.015708176
000350 38 87 ae bd a8 a6 eb bd 97 c2 3c 3e 26 76 94 bd
       -0.08521885 -0.115063965 0.18433605 -0.072490975
000360 1a 7d 0f be ec f4 c1 3d c8 f0 12 bd 6b bb 1e be
       -0.14012566 0.09470543 -0.03587416 -0.15501182
000370 dc 8d 28 bc 7f 65 f5 3b 0f c6 1d be 69 b5 2f be
       -0.010287728 0.007488906 -0.15407585 -0.17159046
000380 06 5a 3d 3e 47 a1 af bd 7c b0 c7 bd 9c 07 5f 3d
       0.18491372 -0.08575683 -0.097504586 0.054450616
000390 b6 40 ab 3d c8 2c 5d 3d 07 3f 3b 3e 2f 4b 1e bd
       0.08361952 0.053997785 0.18285762 -0.03864592
0003a0 7f 48 e1 bc a5 d0 85 bd 01 df d9 3d 55 83 8b 3c
       -0.02750039 -0.065339364 0.10638238 0.017030397
0003b0 62 bc 0b 3e 2e 6f 02 be 1f 01 bd bd 33 59 89 bd
       0.13646081 -0.12737724 -0.092287295 -0.067064665
0003c0 04 03 11 be 63 af 73 3d 57 6f 31 be 30 c8 5f 3d
       -0.14161307 0.059493434 -0.17327629 0.054634273
0003d0 25 01 de bd e2 f9 12 be f1 f1 08 be e0 72 77 3d
       -0.10840062 -0.14353135 -0.13373543 0.060412288
0003e0 dd a9 14 be 50 3f ef 3d a7 0c 58 3d 7c 4b a7 bd
       -0.14517923 0.11681998 0.05274644 -0.081686944
0003f0 1f f3 e9 bc c3 f7 a3 3d 91 6b d9 3d c8 65 2f 3e
       -0.028558312 0.08006241 0.1061622 0.1712867

conv1.bias f4 [64]
000000 de ae 28 bd b8 55 93 3d 53 18 11 3e fc 96 9f 3d
       -0.04118239 0.07194084 0.14169435 0.0779247
000010 5e 97 27 3e f4 46 17 3d c0 82 3d be d6 a5 23 bd
       0.16366336 0.0369329 -0.18506908 -0.039953075
000020 4c 65 13 3e c4 d4 85 bd 73 3b 23 3c 6e 05 44 be
       0.1439411 -0.065347224 0.009962904 -0.19142696
000030 7c 01 eb bc c8 f4 89 3d c2 af 00 3e 26 62 fd bc
       -0.028687231 0.067361414 0.12567046 -0.03093059
000040 30 81 f1 3d a8 f5 01 3e e8 cd 30 be d8 08 44 be
       0.11792219 0.12691367 -0.17266047 -0.19143999
000050 ea 01 33 be 54 58 ed 3b 8a 59 a0 3d 1d 4b 1c 3e
       -0.17481199 0.0072431955 0.07829578 0.15263028
000060 e2 4a 7b bd d8 76 85 3d 05 5f 2e bc 09 69 19 3e
       -0.06135071 0.06516808 -0.010642772 0.14981474
000070 b2 2e 50 3d 8e 61 07 3c 00 42 bd 3c 66 e8 06 3e
       0.050825782 0.008263005 0.02310276 0.1317459
000080 33 c2 3e bd 89 9c 32 3e ae 81 33 3e 29 e2 fa 3d
       -0.04657192 0.17442526 0.17529938 0.12250168
000090 a8 ac e6 3c fb 98 0f be 1b 97 06 3e f9 2f 39 be
       0.0281585 -0.14023201 0.1314358 -0.18084706
0000a0 d4 5e 21 bd 26 26 10 be 5d 93 19 bd c6 53 3c 3e
       -0.039397076 -0.14077052 -0.037494052 0.18391332
0000b0 bf b4 df bd 67 0a 18 3d e3 d5 0b 3e 7c 84 5b 3d
       -0.109231465 0.037119295 0.1365581 0.053593144
0000c0 ae e9 9f bc 9a d1 6f bd e6 8b da 3d b1 d8 e8 3a
       -0.019520607 -0.0585495 0.10671215 0.0017764774
0000d0 50 ce 81 bc 9d c2 09 3e 8f 38 ee bd 7c cb a0 3d
       -0.015845448 0.13453145 -0.116318814 0.078513116
0000e0 6e 1d b6 3d bc 46 40 be 22 62 fa bd 19 3d 5d bd
       0.08892332 -0.18776983 -0.122257486 -0.054013345
0000f0 1d 13 03 3e 2f 24 9c bd ef bc 40 3e 98 18 2a be
       0.1280026 -0.07624089 0.18822072 -0.16610944

conv2.weight f4 [128, 64, 3, 3]
000000 00 8a f2 3a e8 35 92 bc 3b e0 7c 3c 56 75 21 3c
       0.0018504262 -0.01784797 0.01543432 0.009854635
000010 ab c0 92 bb 16 fe 57 bb 9b 43 a5 3c 2c d3 08 bd
       -0.004478534 -0.0032957844 0.020173838 -0.033404514
000020 d6 48 06 3c 1c 4f 1c 3d fb b6 2e 3c 05 0e 9d bc
       0.008196076 0.038161382 0.010663743 -0.019171724
000030 5c 58 c3 bc 5c 26 f8 bc 29 0b 27 3c e1 ff 07 bd
       -0.023845844 -0.030291729 0.010195532 -0.03320301
000040 d0 e4 2f 3c cd 6f 18 bd 8a 15 ce 3c 7e 21 28 3c
       0.0107357055 -0.037215997 0.025156755 0.010261891
000050 42 87 06 bc 28 aa dd bc 16 1e 07 bd 82 c6 cb bc
       -0.008210959 -0.027058676 -0.032987677 -0.02487493
000060 f4 07 f5 bc e6 bf bf bc 12 34 c8 bb 8d 55 0b bd
       -0.029911019 -0.023406934 -0.006109723 -0.034017134
000070 f0 6a f8 bc 1d 34 00 bd 02 a1 6c 3c 51 70 f2 bb
       -0.03032443 -0.0312997 0.014442684 -0.007398643
000080 97 f6 77 bc 0a 11 e9 bc f4 52 d6 bc c8 e7 1a 3c
       -0.015134475 -0.028450508 -0.026162602 0.009454675
000090 c3 93 35 3b 8b ef ba 3c 24 d3 a6 bc 84 6e c3 3c
       0.002770648 0.022819301 -0.020364352 0.023856409
0000a0 11 c1 3f 3c 94 03 02 bc d6 81 3f bc 69 10 6d bc
       0.011703745 -0.007935423 -0.01168867 -0.0144692445
0000b0 3a 20 c2 bb ce b4 01 bd 4e bc 81 ba 9a e0 f4 3c
       -0.005924252 -0.03166657 -0.0009898038 0.029892255
0000c0 25 7e 2d bd b2 d0 df bc 51 de d5 3b 22 89 2b 3b
       -0.04235663 -0.027321193 0.0065267463 0.0026174267
0000d0 0c 6f ef 3a 62 36 3d 3c 12 0b 6e 3c ad 87 ac 3c
       0.0018267347 0.01154861 0.014529007 0.021060789
0000e0 f5 89 19 bd f7 5c ec bc 4c cd 98 bc 65 cc 91 3b
       -0.03748508 -0.028852923 -0.01865258 0.0044494146
0000f0 9c ec 94 bc 12 a5 e8 3a 96 67 04 bd 80 bb 38 bc
       -0.01817923 0.001774939 -0.03232535 -0.011275172
000100 a4 c6 9f 3c 95 e7 1e 3d 36 9f 0a bd 8d 0d 8a 3c
       0.019503899 0.038795073 -0.03384324 0.016852165
000110 58 38 d7 bc 5d a2 4f 3c 53 c8 89 3c c4 53 0e 3c
       -0.026271984 0.012672988 0.016819155 0.0086869635
000120 09 b8 0f bd 73 a4 2e 3b 55 ac a4 bc 67 fd 69 3c
       -0.03508762 0.0026648312 -0.020101706 0.014281607
000130 75 33 c8 bc cd e5 35 bd f0 41 d2 3b e0 61 a1 3c
       -0.0244386 -0.04440861 0.006416552 0.01969999
000140 51 06 7e bc 8e d9 73 3c b4 10 e9 3a 54 a2 6b bc
       -0.015504436 0.014883412 0.0017781467 -0.014381964
000150 ba e5 64 3c 9e f7 18 3c f3 39 ce bb 45 92 d9 bc
       0.013970787 0.00933638 -0.006293529 -0.026559005
000160 a7 b9 90 bc 3b 40 88 bb 29 ff 1d bd c5 4e 00 bd
       -0.017666651 -0.0041580475 -0.038573418 -0.03132512
000170 b9 b4 bb 3c cc de 12 3c 76 ac ba 3c 3b 09 27 bc
       0.022913324 0.008964252 0.022787314 -0.010195072
000180 59 72 32 bb da ac c9 3c fb e1 98 bc 0d 89 14 bd
       -0.00272288 0.024618555 -0.018662443 -0.036263514
000190 89 36 f2 bc f7 45 2d 3d 3e fc ab ba 5b 37 44 bc
       -0.02956702 0.04230305 -0.0013121439 -0.011976088
0001a0 e8 19 ad 3c 4a 76 d2 bc 61 9e f2 bc 1f ff 88 3c
       0.021130517 -0.02569117 -0.029616537 0.016723214
0001b0 3a ca 09 bd 1f 3c 04 3d 74 d7 2b 3c da 18 ae bc
       -0.033640124 0.0322839 0.01048838 -0.021252085
0001c0 59 3c a8 bc 30 2d ef bb b6 80 63 bc 3f 6f f0 bc
       -0.020536589 -0.007299088 -0.013885668 -0.029349921
0001d0 a0 30 44 bc e4 94 48 3c 21 01 a0 bb 5e 7e 36 3d
       -0.011974484 0.01224253 -0.004882947 0.044554107
0001e0 04 d5 dc bc 45 85 25 3b b9 04 17 3b 12 7e b0 3c
       -0.026957043 0.0025256437 0.0023043586 0.02154449
0001f0 c1 17 e3 bc 1f 7a d8 3b 3e 0c 4e 3c 8c cb e9 3a
       -0.027721288 0.006606355 0.012576161 0.0017837151
000200 da 4d 17 bd 11 a7 89 3c 7b 49 88 3c 91 6d ea bc
       -0.03693948 0.016803296 0.0166366 -0.028616698
000210 34 69 5d 3b 6a f9 82 3c 82 b9 f0 3c 87 23 fa bc
       0.003378463 0.01598807 0.029385332 -0.030534519
000220 7c c7 2c 3d 74 2a eb 3c 4f ee 89 3c 7d 4a 4c bc
       0.04218243 0.028706767 0.016837267 -0.012468931
000230 10 97 14 3c 34 a9 1f 3d 8c 14 e0 bc 5e c1 13 bd
       0.009069219 0.038979724 -0.027353548 -0.03607308
000240 ef c7 14 3d 13 95 b8 3c 3d e9 aa 3c 94 ad be 3b
       0.036323484 0.022532022 0.02086317 0.005819032
000250 d3 35 e2 bc b4 9a f2 bc a1 9a b6 3c e1 e6 99 bc
       -0.027613556 -0.029614784 0.02229053 -0.01878685
000260 64 fd e9 bc 18 fe 04 3d 10 d2 cd bb 69 69 6a 3c
       -0.028563209 0.032468885 -0.006281145 0.014307358
000270 62 09 1a 3d 82 74 13 bd 22 e9 13 3a 4b a5 22 3c
       0.037606604 -0.035999782 0.00056423445 0.009927104
000280 f1 8b f8 bb 84 34 a6 bc 28 47 d2 3c ad ef 19 bd
       -0.0075850417 -0.020288713 0.025668696 -0.03758209
000290 5d 79 0a 3d 4e 01 c5 3b b7 0a d2 3b b4 95 0b bc
       0.033807147 0.0060121184 0.0064099687 -0.008519579
0002a0 2c a3 89 bc da 04 19 bc 54 36 b4 3c 08 41 f5 3c
       -0.01680144 -0.009339536 0.021998562 0.029938236
0002b0 7b d1 bf bc 5e 85 98 3c 60 c5 bc bb 8b 29 12 bc
       -0.023415318 0.018618282 -0.0057608336 -0.008921037
0002c0 60 65 fd 3c 4b 75 b6 bc d6 f3 47 3b 70 86 6c bc
       0.030932128 -0.022272727 0.0030510328 -0.014436349
0002d0 70 16 14 bd 3f 97 e6 3c 1c 54 22 bc ef 52 a2 3a
       -0.03615421 0.028148292 -0.009907749 0.0012384335
0002e0 ab 3a 91 3c f9 a0 96 3c 23 0e 91 bc f0 46 c6 3c
       0.01772817 0.018387305 -0.017706936 0.024203748
0002f0 72 be 9a 3c 44 41 ac 3c c6 d1 cb 3c 19 09 16 3d
       0.01888964 0.021027215 0.024880301 0.03662977
000300 7a d3 5c 3c a4 ea 09 3d 0a 87 17 3c 4b 4b 96 3c
       0.013478154 0.033671036 0.009248504 0.01834645
000310 7c 65 0c 3d f9 05 0d 3d 92 1e c3 bc a8 26 06 bd
       0.03427647 0.034429524 -0.023818288 -0.03275171
000320 94 cc c5 bc be 16 21 bd b3 0e b5 3c 0e 5d 19 3d
       -0.024145402 -0.03932833 0.022101736 0.03744226
000330 41 f1 0e bd a9 f5 18 bd 6c a5 7c bc 5c 39 c2 3c
       -0.034898046 -0.037343655 -0.015420299 0.023708992
000340 28 35 37 bc 7e 2b c1 ba 71 c6 4f 3b 94 6c d3 3c
       -0.011182107 -0.0014737693 0.0031703974 0.02580861
000350 94 d1 a3 3c 51 f0 3c bc 80 d6 c1 3b c1 87 ac ba
       0.019997396 -0.011531905 0.005915463 -0.0013163016
000360 08 cd f8 bb e4 72 a6 3c c4 3c bc 3c ab ea 83 3c
       -0.007592801 0.020318456 0.022978194 0.01610311
000370 c7 a0 32 3b 55 be 03 3d 4c 8f 87 3c 2c 51 bf 3b
       0.0027256475 0.032163937 0.016547821 0.005838534
000380 75 9c 8a 3c a7 13 17 3d 34 c6 9b ba 39 cf 21 3c
       0.016920308 0.036883976 -0.0011884631 0.009876066
000390 7c 71 1a 3d c5 53 cf bc 89 28 6c bc cd 93 1e 3d
       0.037705883 -0.0253085 -0.014413961 0.038715173
0003a0 c4 2e 6c bc 06 d6 1a 3c 93 db bd bc a4 3c 08 bd
       -0.014415447 0.009450441 -0.02317599 -0.033260956
0003b0 eb 27 e2 bc 0a d3 31 3c 45 56 d3 bc 50 cb 1a bd
       -0.027606925 0.010853538 -0.025797972 -0.03779155
0003c0 04 94 15 3c 19 88 23 bc 04 d4 27 3d e3 44 1b bd
       0.009129528 -0.009981179 0.04097368 -0.037907492
0003d0 09 4f c6 3c c3 de 66 3c 05 9e 8a 3b 8d 22 16 3d
       0.024207609 0.0140911965 0.004230263 0.036654044
0003e0 42 4e e2 bb 74 dd 75 bc a8 84 ef 3c ee 7d 08 bc
       -0.0069063017 -0.015006412 0.02923806 -0.008330805
0003f0 64 c6 e6 bc 82 ed 26 bc 5f 1a 88 bc 21 da bf bc
       -0.028170772 -0.010188462 -0.016614137 -0.023419442

conv2.bias f4 [128]
000000 f6 1c c8 bb c7 36 27 bd 7b 9e c3 bc 8b 9e 82 3c
       -0.006106968 -0.040823724 -0.02387928 0.01594474
000010 7f d3 ec bc bd 4c 0d 3d 22 d3 27 bd f5 d0 db 3c
       -0.028909443 0.03449701 -0.040972836 0.026833037
000020 c3 1a b9 3c 20 5d 77 bc 60 fc cd 3b 3b 42 16 3d
       0.022595769 -0.015097886 0.006286189 0.036684256
000030 75 c8 d8 bc 13 6c 16 bc 64 41 ed ba 95 4b 23 3d
       -0.026462773 -0.00918104 -0.0018101153 0.039867003
000040 cf 5c e7 3c e1 14 e5 3c 9b 3d 82 3c e2 d7 4c 3c
       0.028242497 0.027964057 0.015898516 0.012502642
000050 40 3d 8a bc 45 1a 6c 3c fe 5f a5 3c ba 39 47 bc
       -0.01687491 0.01441056 0.020187374 -0.012159759
000060 4e 32 93 bc f7 04 77 b9 8a ac a7 3c d6 25 5f bc
       -0.017968323 -0.00023557605 0.020468015 -0.013619861
000070 30 e1 83 bc 83 d8 13 3d db 42 99 3c 2c 46 f2 b8
       -0.016098589 0.036095154 0.018708637 -0.0001155253
000080 1a 74 ee bc b2 37 c9 3c a0 88 90 bc 5c 1b 21 3d
       -0.029108096 0.02456269 -0.017643273 0.039332733
000090 fc 18 07 bd 29 24 44 bb c2 cc bc 39 14 71 6a bc
       -0.03298281 -0.002992878 0.0003601071 -0.0143091865
0000a0 23 1f 04 3c 2b ad 8e 3c 01 42 27 3b 93 85 64 3c
       0.008064064 0.017416557 0.002552152 0.013947862
0000b0 fc fa 4e 3c ab a5 91 bc 04 bc 0a bd f2 f8 e0 bc
       0.0126330815 -0.017779192 -0.033870712 -0.027462456
0000c0 79 af dd 3c 18 0d 1e 3d 9c ee 92 bc be 13 e8 bc
       0.027061211 0.038586706 -0.017936043 -0.028329726
0000d0 30 1b 04 3d ba f2 0b bd b5 ce f3 3c c9 53 90 3c
       0.03225249 -0.03416703 0.029761652 0.017618077
0000e0 a7 39 1a 3c 91 07 30 3d 3c 55 67 3c 54 ba aa bb
       0.009413159 0.042975966 0.014119443 -0.0052102003
0000f0 ae ed 1e bc ba 5e 19 bd 2b c2 ad bc 14 be dd 3c
       -0.009700222 -0.037443854 -0.02121075 0.027068175
000100 a6 13 f5 bb 56 8f 1b bd 2c 8c a8 3c 0d bd 14 3d
       -0.007479149 -0.037978493 0.020574652 0.036313105
000110 85 2f f6 3b 16 dc 26 3d e2 ba 2b 3b ab f8 df bc
       0.007512989 0.040737234 0.002620392 -0.027340254
000120 ee c5 46 bb 61 10 18 3d 78 3e 0c bd c5 cd 97 bc
       -0.0030330378 0.037124995 -0.034239262 -0.018530736
000130 5d 28 63 bc 4f d2 00 bd 2f cc 04 bd be d0 b9 bc
       -0.013864604 -0.031450566 -0.032421287 -0.022682544
000140 50 64 ab 3c 1d 27 1b bd 4b 58 0d 3d 80 6f e8 ba
       0.020921856 -0.0378791 0.03450803 -0.0017733425
000150 f2 e5 19 bc 40 8a 28 bd 5f af 34 3c 0f 53 00 3c
       -0.009393202 -0.04114747 0.01102814 0.007832303
000160 58 f6 dc bc 53 c0 25 bc 7c fd 0e bc c6 1d 2a 3c
       -0.026972935 -0.010116654 -0.008727428 0.010383075
000170 ca 33 21 bd e7 96 29 3c ac 79 18 3d f2 e1 09 3d
       -0.03935603 0.010350919 0.03722541 0.033662744
000180 ca 4b 45 3c aa 5c b9 3c bf 5f 94 bb f1 22 04 3d
       0.012041995 0.022627193 -0.0045280154 0.032259885
000190 ae 72 a0 3c 10 f8 bb 3c 79 b3 98 3b 35 c8 a8 3c
       0.019585934 0.022945434 0.0046600667 0.020603279
0001a0 3a 74 eb bc 45 9e 7c bc 54 22 1d ba 2a 84 30 3d
       -0.028741945 -0.015418594 -0.000599419 0.04309479
0001b0 78 7e 34 3d c7 d5 f9 bc 56 08 f4 bc ac cb 08 bc
       0.044065922 -0.030497445 -0.029789131 -0.00834934
0001c0 3c e0 55 bb 21 b2 d1 3c 7d 5b fd 3c a7 b7 b5 bc
       -0.0032634875 0.025597634 0.030927414 -0.022182299
0001d0 63 14 db bc af 99 8d bc c9 3e df 3c 91 a0 a5 3b
       -0.02674312 -0.017285196 0.027251618 0.0050545414
0001e0 68 98 10 bd 92 20 25 ba 29 62 13 3d 83 42 db bc
       -0.035301596 -0.0006299104 0.035982285 -0.026765114
0001f0 b7 9c 3b 3b 75 52 aa 3c 3d 6c fe bc a6 59 b4 bc
       0.0028627345 0.020791272 -0.031057471 -0.022015404

deconv1.weight f4 [128, 64, 3, 3]
000000 3e f8 af bc ab a2 cd 3c 9b dc 26 3d db be 5c bc
       -0.021480676 0.02510198 0.04073773 -0.013473238
000010 20 a2 a7 3c 36 ba c6 3b f6 99 ac 3b 54 15 13 bc
       0.02046305 0.0060646785 0.005267377 -0.008977253
000020 b8 48 a9 3c 1e 46 1a 3d c1 f6 ff bc 8a 6e 25 3d
       0.020664558 0.037664525 -0.031245591 0.04038862
000030 35 54 45 3c e0 bb cd bc c6 58 8d 3c d2 08 07 bd
       0.012044002 -0.025114 0.017254245 -0.032967396
000040 ba 92 12 3d 0f 7c 81 bc 61 22 f0 3c 0f 92 24 bc
       0.03578446 -0.015806226 0.029313268 -0.010044589
000050 c0 38 1c 3d 26 75 0f bc b2 1a 51 3c 61 7e bd bc
       0.03814006 -0.008755958 0.012762712 -0.023131551
000060 40 41 d6 bc 42 5e 17 bc 5e 1a 03 bd 10 f6 8e bc
       -0.02615416 -0.009238781 -0.032007568 -0.017451316
000070 e0 d3 78 bc a9 3a 90 3c 32 7f c6 bc 14 bd 11 3d
       -0.015187234 0.017606096 -0.024230573 0.03558071
000080 2b 2e 08 3d 02 c7 18 3d 34 75 d4 bc 4a 20 5e 3a
       0.033247154 0.037299164 -0.025934793 0.00084734394
000090 60 d7 bd bc c5 e4 d9 3b c0 9f 2c 3d fb ff b9 3c
       -0.023173988 0.006649586 0.042144537 0.022705069
0000a0 40 2d d1 3b 00 b7 42 3c f2 33 85 bc 8d fd e1 3c
       0.006383568 0.011884451 -0.016260121 0.027586723
0000b0 7f d9 a7 bc 8e 27 cb 3a bb be 6e bc 06 cd 3f 3c
       -0.020489452 0.0015499459 -0.014571841 0.011706596
0000c0 fa 0d 26 3d a8 23 04 3d d6 3a 83 ba b5 17 0c 3d
       0.040540673 0.032260567 -0.0010012041 0.034202296
0000d0 35 dd 34 3c 61 aa 88 bc ee c7 95 3c 84 06 b9 ba
       0.011039068 -0.016682805 0.01828381 -0.0014116322
0000e0 98 8f 6b bb 68 32 e2 3c ff bd e1 3b 65 ac 11 bd
       -0.0035943743 0.027611926 0.0068891044 -0.0355648
0000f0 43 2b 1a bd 6e c1 99 bc 70 41 0b 3d dc e7 45 3c
       -0.037638914 -0.018768992 0.033997953 0.012079205
000100 04 94 83 3c dd de b5 3c 01 29 fa bc e1 01 67 bc
       0.01606179 0.022200996 -0.03053713 -0.014099569
000110 df e1 1c 3d 10 e2 59 39 b2 85 18 3d 34 5f 84 bc
       0.038301345 0.00020778948 0.037236877 -0.016158678
000120 c0 ad f0 bc b2 27 f3 3a c6 e6 5e bc 69 23 86 3c
       -0.029379725 0.0018551259 -0.013604825 0.016374307
000130 dc a8 18 3d a7 69 24 3d f8 f9 b6 bc c6 ea f5 3c
       0.03727041 0.04013982 -0.022335991 0.030019175
000140 28 ad 26 3d e6 08 12 bd 98 6a ac 3c bc f2 ed 3c
       0.04069248 -0.035653017 0.021046922 0.029046409
000150 8c d3 84 bc 2a 89 16 3d 03 5f 69 bc 9b 69 0b bd
       -0.016214155 0.036751904 -0.014243844 -0.03403626
000160 53 c5 01 3a f4 fe 0d 3d be 7d 80 ba 7e 8c 5b bc
       0.0004950363 0.03466697 -0.0009803099 -0.013400195
000170 48 8e f5 3a 93 91 0c bd 77 51 b9 bc e0 dc 6f 3c
       0.001873442 -0.034318518 -0.022621853 0.014640063
000180 61 7d dc 3b 27 34 83 bc be f0 c6 3b da 43 8f 3c
       0.0067288135 -0.01601608 0.006071179 0.017488409
000190 dd af a4 bc 8c d9 20 bc 2f e9 ed b8 92 42 07 bd
       -0.02010339 -0.009817492 -0.000113444745 -0.03302247
0001a0 7a fa 34 3c 67 ed b9 3c c0 75 80 3a 57 58 1e 3d
       0.011046046 0.02269621 0.0009800717 0.038658466
0001b0 42 12 41 3c a2 50 99 bc a0 16 27 3d e5 51 ab bb
       0.011784138 -0.018715207 0.04079306 -0.0052282684
0001c0 b3 46 8b bc 24 1c 2c bd 15 08 04 3d 0b ea 60 ba
       -0.017001485 -0.042019024 0.03223427 -0.0008579797
0001d0 7b dd 15 3d f6 40 14 3d c6 4a c1 bc 78 44 23 3d
       0.036588173 0.036194764 -0.023595225 0.03986022
0001e0 c1 66 25 3d c1 b8 db bb f6 e6 03 3b 6a 9f 34 3d
       0.040381197 -0.006705374 0.0020126677 0.04409734
0001f0 7b 9f 89 3b be 07 2e 3b f0 6c d1 bc 00 1e f3 bb
       0.0041999198 0.0026554908 -0.02556464 -0.0074193478
000200 0e 57 43 3c 3c 64 fc 3a 49 b1 28 3d eb 47 8e bc
       0.011922611 0.0019255946 0.041184697 -0.017368278
000210 a7 84 30 bc d6 30 7a 3c e2 13 2c 3d 9f 80 13 3d
       -0.010773814 0.015270432 0.04201115 0.036011335
000220 c5 f6 34 bc a1 d6 c7 bc d6 f3 a7 3c 16 d6 76 bc
       -0.011045163 -0.024394335 0.020502012 -0.0150656905
000230 c8 54 1b bc 26 d0 08 bd a0 6b cc bc 49 7d d9 bc
       -0.009480663 -0.03340163 -0.024953663 -0.026548998
000240 76 16 95 bc 2e c4 13 3b 25 d9 dc 3c 14 82 2a bc
       -0.018199187 0.0022547352 0.026959011 -0.01040699
000250 4c d7 89 bc 31 ee 18 bd 46 5a 46 3c f6 f9 ab bc
       -0.016826294 -0.037336532 0.012106484 -0.020993214
000260 85 6b 34 3c ff 34 71 3c 16 28 82 39 75 a2 15 3d
       0.011011963 0.014722108 0.000248254 0.036531884
000270 05 eb 1a bd 36 4d 2e bc 6a 2e be 3c bf d0 dc bc
       -0.03782179 -0.010638526 0.023215491 -0.026955007
000280 61 f1 36 bc 35 d6 65 bc 56 8b 3e bc 2b 09 9c 3c
       -0.011165948 -0.014028122 -0.0116299 0.01904734
000290 9d 00 15 3c 5e 02 d3 bc 7c 54 e4 bc 7f 95 67 bc
       0.0090943845 -0.025757965 -0.027872317 -0.014134764
0002a0 65 6b 1b bd f9 16 60 bb 76 64 fc bc 94 fc 30 3d
       -0.037944216 -0.003419338 -0.030809622 0.043209627
0002b0 b2 ca 0e 3d 7c 4b 11 bc cc 85 58 bc 9d c9 24 3c
       0.034861274 -0.0088680945 -0.013215493 0.010057834
0002c0 e3 f3 d8 bb fb 41 8a bc a1 ca 9e 3c 3c e6 4e 3c
       -0.0066208704 -0.016877165 0.01938373 0.012628134
0002d0 d2 62 9a bb 13 0f 02 3b 4c f6 13 3d 4c 2f 35 bc
       -0.0047114873 0.001984541 0.03612356 -0.01105864
0002e0 0f 93 eb 3a de de f7 bc 96 79 1e 3d e8 c9 36 3c
       0.0017972904 -0.030257639 0.038690172 0.011156537
0002f0 72 0d 2d 3d 73 cf 9d 3c 2b 0a 1d 3d d4 a1 7b bc
       0.04224915 0.019263959 0.038339775 -0.015358407
000300 a0 c9 7b bc a9 3f b0 3b f8 62 46 bc 98 f4 5f bc
       -0.015367895 0.0053786826 -0.012108557 -0.013669156
000310 3d 15 02 bd 7a 6c 03 bd 17 40 84 bb 3e a2 16 3b
       -0.031758536 -0.032085873 -0.0040359604 0.0022984887
000320 d3 2e 0e 3d 32 e1 d0 bc c4 c5 02 bd 34 33 0b bb
       0.034712624 -0.025498006 -0.031926885 -0.0021240236
000330 13 8d ed bc b7 7a 86 3c eb c4 b3 3c 5a 1f 6a 3c
       -0.028997933 0.016415937 0.021944484 0.014289701
000340 1b 87 bb bc ca 30 0e 3c 7f 3c 8a 3c 60 02 bd bc
       -0.022891572 0.008678624 0.01687455 -0.023072422
000350 42 a4 02 bd 66 e7 99 3c 7c 29 ef bc f9 ab 18 3d
       -0.03189493 0.018787097 -0.029194586 0.03727338
000360 ac 7a dc bb 89 ea 1b bb da 9b 0e 3b 47 dd ee 3b
       -0.006728491 -0.0023790917 0.0021760375 0.007289562
000370 71 9b 0e 3d 00 dd 08 3d cd f2 10 bc 16 df 2b 3c
       0.03481621 0.033413887 -0.008846951 0.0104902
000380 5b aa 80 bc f3 fd 5b 3b 10 e5 86 3c eb 12 cc bc
       -0.015706232 0.0033568114 0.016466647 -0.024911365
000390 64 ec 2d 3d f8 59 17 bd f2 59 b5 3c 7d 03 8c 3c
       0.042461768 -0.036951035 0.022137616 0.017091507
0003a0 61 c7 39 3c 76 d0 dd bc 09 c4 26 3d 6c d6 45 bc
       0.01133904 -0.027076941 0.040714297 -0.012075048
0003b0 ac 52 26 bc 9e 05 d1 3a 95 24 ac bb 90 db 70 bc
       -0.010151546 0.0015947109 -0.0052533844 -0.014700785
0003c0 ed a3 16 bd 1b 42 7c 3b bc 56 8f 3c dc 0e 5a 3c
       -0.036777426 0.003849155 0.017497413 0.013309207
0003d0 37 b0 ae 3c 2b e9 0e bc 43 a0 ed 3b 83 ad 4d bc
       0.02132426 -0.008722584 0.0072517707 -0.012553575
0003e0 2d 65 cc ba 7a 1f 23 bd ff 02 3b bc cf bc bd bc
       -0.0015594118 -0.03982494 -0.011414289 -0.02316132
0003f0 8d aa d5 3c ee 60 cc 3c 2f d7 02 3d 4c d9 95 3c
       0.026082302 0.024948563 0.031943496 0.018292092

deconv1.bias f4 [64]
000000 46 d8 f2 bc f4 e5 2d bd c0 c0 6d 3c 9d 8b 0a 3c
       -0.029644143 -0.04245563 0.014511287 0.008456138
000010 61 a3 c4 3b 50 6b 27 3d 4d 71 9a 3c 89 f9 10 3d
       0.0060009216 0.040873826 0.018852854 0.035394225
000020 fa 51 0b bd c4 3e 03 3d f6 92 a7 3c 54 bb 8b bc
       -0.034013726 0.03204228 0.020455819 -0.017057098
000030 c0 74 97 3c 6a 2b d5 3c 01 78 04 3b 61 79 80 bc
       0.018488288 0.026021678 0.002021313 -0.015682878
000040 37 75 09 bd e6 86 b8 bc 60 0f 9a 3c 40 3e 7b bc
       -0.03355905 -0.022525262 0.01880616 -0.015334666
000050 6c 49 bb bb 8f 9b 3f 3c 52 5a 74 3b f1 42 a4 bc
       -0.0057155397 0.011694803 0.003728528 -0.020051451
000060 36 35 d0 3b 8a f4 1c bd 02 8b a5 bc 87 a7 e9 3c
       0.0063539995 -0.038319148 -0.020207886 0.028522266
000070 fd a0 11 3c 20 07 3d 3d ee e5 d1 3b 95 31 ac 3b
       0.00888848 0.046149373 0.0064055836 0.005254934
000080 d7 a3 21 3d 4c 29 36 3d 8d 5d 25 bd 77 5a 1c bd
       0.03946289 0.044472978 -0.04037242 -0.03817221
000090 b2 3a 99 3a 97 5f a2 3c 43 e3 2b bb b0 b1 e4 bc
       0.0011690466 0.019820971 -0.0026227988 -0.02791676
0000a0 98 80 28 3d 01 21 26 bd 46 7d 5d 3c 43 52 cb 3b
       0.04113826 -0.04055882 0.013518637 0.0062048747
0000b0 2d 51 15 bc 8a 6e 09 bc 32 79 13 3d 8c b5 3a 3d
       -0.009113592 -0.008388171 0.036004253 0.045583293
0000c0 b2 66 fc bc 7f f5 03 3c 52 fa 95 3b e7 af 1c 3d
       -0.030810688 0.008054136 0.0045769596 0.03825369
0000d0 e9 27 20 bc 27 08 5e bb da 7d a6 3c ff 0a 3a bc
       -0.00977514 -0.003387937 0.020323683 -0.011355161
0000e0 68 97 1d 3d d6 18 20 3d 6e f9 1a bd 73 fc 94 bc
       0.03847447 0.039086185 -0.03783553 -0.018186783
0000f0 26 5c 05 bb fe 24 60 3c 35 9d a2 3b 33 5a 42 3c
       -0.0020349114 0.013680695 0.004962588 0.0118623255

deconv2.weight f4 [64, 64, 3, 3]
000000 a8 6d 8f bc a8 31 54 bc ca 51 ad 3b 59 0a 8e 3c
       -0.017508343 -0.012951292 0.005289291 0.017338919
000010 c3 11 f9 bc c9 9d 91 bc 87 20 e1 3c 3e ea 68 bb
       -0.030403977 -0.017775433 0.02748133 -0.003554001
000020 74 a7 13 bd 51 5f 19 3d 10 61 e0 39 eb 8c 3d 3b
       -0.036048368 0.037444416 0.00042796927 0.0028923105
000030 58 8d 16 3d 55 0a 08 bd c4 cb 25 bd 5c 8c 3c bc
       0.03675589 -0.03321298 -0.04047753 -0.011508074
000040 47 f0 9b 3c 40 e5 87 3c 5a 1e f0 ba fc 6b 95 3c
       0.019035472 0.016588807 -0.0018319592 0.018239968
000050 c4 b7 f2 bc f3 65 7c 3b 7d da 85 3c 08 89 13 bd
       -0.029628642 0.0038512915 0.016339535 -0.036019355
000060 0a 34 0a 3c 76 dd 83 bc 2e a0 b5 bc ec 68 bc 3c
       0.008435259 -0.016096812 -0.022171106 0.02299925
000070 4d 8e a3 bc f7 67 94 bc 37 a0 bd bc c6 af c8 3c
       -0.019965315 -0.01811598 -0.023147685 0.024497878
000080 88 83 03 bd e5 82 dc 3c ed e6 2d 3d 04 87 95 ba
       -0.03210786 0.026917884 0.042456556 -0.0011408036
000090 f9 35 3a bb 2f ad e4 ba 86 18 c7 3c f3 41 41 bb
       -0.0028413518 -0.0017446632 0.024303686 -0.0029488772
0000a0 bf f8 bf 3b e6 35 52 3c 87 f0 19 3d 75 b0 2d 3c
       0.0058585103 0.012830233 0.0375829 0.010601153
0000b0 ed ef 72 bc ea 5f 83 3c bb c2 a3 3b 2f a7 a6 bc
       -0.014827711 0.016036946 0.004997579 -0.020343391
0000c0 73 3e b8 3c 77 dc c0 3c 5c 2d ad bc 16 67 19 3c
       0.022490716 0.023542626 -0.021139793 0.0093629565
0000d0 85 ba 92 3b ac 0f 43 3c 18 90 da bc 11 de 4f bc
       0.0044778013 0.011905592 -0.026680037 -0.012687222
0000e0 df c3 7f bc 82 b0 16 3d 97 b1 12 bd 19 bc 11 bc
       -0.015610664 0.036789425 -0.035813894 -0.008894944
0000f0 34 8d 00 bd 70 0b da bc da 02 73 bc e1 4b c2 3c
       -0.03138466 -0.026616782 -0.014832223 0.023717823
000100 bc 48 e6 bc 22 44 04 bd 59 8d 94 bc 1f 0a 0c 3d
       -0.028110854 -0.03229154 -0.018133806 0.03418934
000110 73 23 09 bc f5 c2 0d 3c 0c de 22 3d b7 89 d8 3c
       -0.008370268 0.008652438 0.03976254 0.026432855
000120 c1 d5 10 3d df e8 8d 3b 07 d9 14 bd 05 00 1b 3d
       0.0353601 0.004330739 -0.036339786 0.037841816
000130 ec 1d 0a bd 65 0e d6 b9 b0 0d ac bc 1f e8 d9 3c
       -0.033719942 -0.00040827986 -0.02100262 0.026599942
000140 03 60 a3 3c 5a 04 a5 3b 4c d7 3d bc 21 e6 86 3c
       0.019943243 0.005035919 -0.011586975 0.016467156
000150 d5 1f 9e ba 83 af 07 3b 24 6c 1a 3d b3 90 7a 3c
       -0.001206393 0.0020703978 0.037700787 0.015293288
000160 c2 e4 9b 3b da d6 9d bc 1a a6 b5 bb cb 0c 95 3c
       0.0047574947 -0.019267488 -0.0055434825 0.018194577
000170 67 f1 9e 3c df 72 ec 3c fa 65 12 3d 89 49 b0 bc
       0.019402219 0.028863369 0.035741784 -0.02151944
000180 a0 d8 a5 3b 57 40 d2 3c 0a a7 68 3c 1b 5c ec bc
       0.005061224 0.025665445 0.0141999815 -0.028852513
000190 66 6a 08 bb dd 9f b8 3c ff 04 df bc de 04 19 3b
       -0.0020815372 0.022537166 -0.027224062 0.0023348848
0001a0 71 0b b1 3c 94 76 d5 bb 54 35 af 3c 68 1a 17 3d
       0.021611901 -0.0065143798 0.021387734 0.036890417
0001b0 02 8d ed 3c f4 f8 31 3c 1d 3f 19 bc 17 83 97 bc
       0.028997902 0.010862578 -0.009353426 -0.018495126
0001c0 f6 b8 31 3c 72 04 da 3c fe 56 51 bc 6f 1b 5f 3b
       0.010847321 0.026613448 -0.012777088 0.0034043451
0001d0 29 1a 22 3d 50 fa 9c bc 6e eb cd bb 0f 09 d9 bb
       0.03957573 -0.019162327 -0.006284169 -0.0066233943
0001e0 ba 4d 11 bd 41 6a bb bc 3e 3d 9e 3c d6 d3 81 bc
       -0.035474516 -0.022877814 0.019316312 -0.015848082
0001f0 eb 52 88 3c 8b 85 8e 3c 81 12 e0 3c 46 0a 02 3d
       0.0166411 0.017397663 0.027352573 0.03174808
000200 c3 83 d6 bc fb a6 ad bc 47 87 de 3c d2 68 50 bb
       -0.026185876 -0.021197787 0.027164115 -0.003180076
000210 f4 ba 0d bd e4 fd 9c 3c 48 3e 86 bc 71 88 f7 bc
       -0.03460212 0.019164033 -0.01638712 -0.030216428
000220 04 5d 11 3d 36 27 a0 bc 82 70 e0 ba d1 df e1 bc
       0.035489097 -0.019549947 -0.0017123374 -0.027572544
000230 52 1b a9 3c 0e 66 c5 3c d3 3a 73 3c 1a 4f 1a bd
       0.02064291 0.024096515 0.014845568 -0.037673093
000240 c2 a5 0a bd 58 32 40 bc 30 cd 32 bc ad 8d 94 3c
       -0.033849485 -0.011730753 -0.010913178 0.018133963
000250 e9 4f 1e bd 1f 6b 8d bc 47 ef e2 3c 22 a3 08 bc
       -0.038650427 -0.017262993 0.027701987 -0.008339675
000260 b3 38 1a 3d e1 b0 f8 3c d5 3d ed bc cc b2 2e 3b
       0.03765173 0.03035778 -0.028960148 0.0026656864
000270 3c 8e 0c bd 96 7d 02 3d bb cf 75 3c 93 ff 32 bc
       -0.034315333 0.03185805 0.01500314 -0.010925191
000280 f6 70 f9 3c 42 67 ff 3c 48 13 27 bd 58 e9 06 bd
       0.030449372 0.031177167 -0.040789872 -0.032937378
000290 c6 49 5c bc 7d 41 1c 3c 43 28 17 3d 5a 7d 0f 3d
       -0.013445323 0.009537098 0.03690363 0.035031654
0002a0 fc 5a ad bc 52 58 fb 3c f7 7a 86 3b 9b ee 1b bc
       -0.021161549 0.030681763 0.004104014 -0.009517337
0002b0 3a 08 22 3d bb 14 da 3b 07 1a 5d 3c 7f 4b 05 bd
       0.039558627 0.0066553033 0.013494975 -0.0325427
0002c0 08 76 79 3c 4d 2d 01 3d 4f b2 4a 3b 6e 9f e0 3c
       0.015225895 0.031537343 0.0030929034 0.027419772
0002d0 b0 cd 96 3a 57 5d 89 bc 7a cc e2 bc 76 90 4e 3c
       0.0011505391 -0.01676814 -0.027685393 0.012607684
0002e0 7e eb ea 3c 10 ce ad bc 11 17 05 bd 3c 0b 21 3d
       0.028676745 -0.021216422 -0.0324927 0.039317355
0002f0 54 72 0b 3d 5d d6 d0 3c c8 bb 77 3c 94 d8 1f 3c
       0.03404458 0.025492841 0.015120454 0.009756226
000300 95 59 d9 bc 9e 48 53 bc c8 d6 f3 3c 6c d4 14 3d
       -0.026531974 -0.012895731 0.029765502 0.036335394
000310 42 08 67 bc a2 66 07 bb ac 35 11 bd 75 b1 f9 3b
       -0.01410109 -0.002066054 -0.035451576 0.0076200315
000320 39 03 b9 bb 7c 0b 1f bd 1b a8 98 3b 61 c3 05 bc
       -0.005646136 -0.03882931 0.0046587116 -0.008164258
000330 28 4e 9f ba b9 49 cf 3c 29 f4 01 3c b5 e9 cb bc
       -0.001215403 0.025303708 0.0079317475 -0.024891714
000340 21 c9 f3 bc b7 1f a8 bc af 81 bf 3c a7 52 14 bd
       -0.029758992 -0.020522935 0.023377268 -0.036211636
000350 a0 90 5f 3b 69 7a a8 bc fb 3a e7 3c 04 e2 e8 3c
       0.0034113303 -0.020566182 0.028226366 0.028428085
000360 99 2a 25 3d 86 9c 9e 3a 68 f2 01 bc 0d a1 19 3d
       0.040323827 0.0012101091 -0.007931329 0.037507106
000370 41 72 87 bc 96 12 2e bc 38 6c 1a 3d 76 e2 1b 3d
       -0.016533973 -0.010624548 0.03770086 0.038057767
000380 8b 43 17 bd 27 03 a9 bc 3a 4b 9b bc ac eb d1 bb
       -0.03692965 -0.020631386 -0.01895677 -0.006406268
000390 42 ed 02 3d 89 f0 98 3c 73 c1 21 3c c0 3f 4b 3b
       0.031964548 0.018669384 0.009872782 0.003101334
0003a0 0a 00 6b bc f9 fa c2 3c 42 8b 72 3b 33 0b 10 bd
       -0.014343271 0.023801314 0.0037009274 -0.03516693
0003b0 83 ac ff bc 3c 9d af ba 03 16 ec 3c 2a f0 15 bd
       -0.03121019 -0.00133983 0.02881909 -0.03660599
0003c0 23 e6 c8 bc 62 bb 25 3d 7a 2a 24 3d fa 49 0a bd
       -0.0245238 0.040461905 0.04007957 -0.033761956
0003d0 aa 5e dd 3a e3 9d b5 bc bc 9d b1 3b 8f 18 8d bb
       0.0016889174 -0.022170013 0.0054204147 -0.004305906
0003e0 c1 8c 05 3d a8 3a ee 3b 9a b4 15 3d 35 65 64 bc
       0.032604937 0.007270176 0.03654919 -0.013940145
0003f0 78 d3 03 3c a5 46 68 bc a3 92 cd 3c b4 81 1b bd
       0.008046024 -0.014176999 0.025094336 -0.03796549

deconv2.bias f4 [64]
000000 4c ff 92 bc 4a e9 16 3a 60 6d 5d 3c ba 43 ec 3c
       -0.017944 0.00057568087 0.013514847 0.028840888
000010 45 5a e6 3c fe 9a 17 bc e3 c6 c1 ba 10 bf 05 3d
       0.028119216 -0.009253262 -0.0014784004 0.032652915
000020 1a c5 ed bc 0d 6f 74 bc 9d 6f 0d 3d e1 71 a8 3c
       -0.02902465 -0.014919055 0.03453027 0.020562114
000030 be 72 1a bd ef e2 92 3c 5c ae 34 bd 6e fd 12 3b
       -0.037707083 0.017930476 -0.044111595 0.0022428888
000040 bc 2a 31 3b 6f e1 82 bc c0 a2 c5 3c 78 cb 9b 3c
       0.0027033528 -0.015976636 0.024125457 0.01901792
000050 fa 8f ab bc 2c 42 16 bd 5e b3 07 bd c4 c2 90 3c
       -0.020942677 -0.0366842 -0.033130042 0.017670996
000060 9f 9c 0e 3d e9 48 20 3d be e7 07 bc b3 cf aa 3b
       0.034817334 0.039132033 -0.008294998 0.005212748
000070 8d e3 c1 bb ac 83 76 3a 7f 45 51 bc b0 82 ea bc
       -0.0059170187 0.0009403776 -0.012772917 -0.02862677
000080 82 5c c0 bb 5e 8b e7 3c ff b7 df bc ad 6a 82 bc
       -0.005870403 0.028264698 -0.027309416 -0.015920008
000090 96 c2 45 bc 04 42 4e 3c c2 72 35 3d c9 cd b4 3b
       -0.012070319 0.012588982 0.044298895 0.0055176956
0000a0 5e 85 d6 3c 9c 0b 90 3c bd 6f c3 bc 55 3e e8 bb
       0.026186641 0.01758366 -0.023856992 -0.0070875087
0000b0 fb 8f 11 3d 81 25 71 bb c0 96 e5 bc a1 c7 b2 bc
       0.0355377 -0.0036796036 -0.028025985 -0.021823706
0000c0 c8 2d bf 3c 91 06 27 bc 81 91 b4 3c 38 2a 89 bb
       0.02333726 -0.010194437 0.022042038 -0.004185941
0000d0 4d 6c 34 3d 9d a1 8f 3c 07 70 fd 3c 5f 0f 56 bb
       0.044048596 0.017533118 0.030937208 -0.003266297
0000e0 49 0d 43 bc 8b 33 e8 bb 1d 8f dc 3c bb fb f7 3c
       -0.011905023 -0.0070862225 0.02692371 0.030271402
0000f0 37 f9 24 bc 5d c1 b9 3c fd 76 8b bc 46 ec 5c bc
       -0.010069183 0.02267521 -0.017024511 -0.013484066
