contrastive_save/contrastive_weights_epoch_12.pt (torch, 749116 bytes, 8 tensors)

conv1.weight f4 [64, 3, 3, 3]
00000000: a7e4 c3bd 4fd5 e8bd 8db8 3d3e 7c57 00bd
00000010: 2b4b 953d dd3c 11be c9be 013e c0d3 293e
00000020: ea86 96bd a9ac 11be 0bee 0fbe 5b51 463d
00000030: 0d66 353e 92f0 243e 1d25 a1bd a932 073c
00000040: b86a 05bd 68e4 2cbe 5336 843a ab3a af3d
00000050: 3a38 e33c 1a4e 9a3d 171d e5bd e078 06bc
00000060: 2bff 8c3d b0e4 27bd 3596 243e 8dc4 163e
00000070: 582f 163e c83a 44bd 509b 233e e596 04be
00000080: a6af 0fbc 43ae 1b3e 7f33 11bd 66ac 9d3c
00000090: 2451 1d3e 456d 2fbe 2cdc c5bd daa8 06be
000000a0: 7c6f eebd 590d 353e e304 bd3d 7846 e63d
000000b0: 23db 073e 290f 3fbe d9e7 f03c e480 5abd
000000c0: 62cb 12be a655 78bd 2db1 633d 5c4c 2d3e
000000d0: 4059 e7bd d153 bb3d f5f8 403e 26f8 48bd
000000e0: 7009 1abe fa8e dfbd d247 ee3d 271d 423d
000000f0: 7cc9 a03d 7902 b73d 353d 2b3e 51d2 41bd
00000100: 527e 0ebe 0dd3 21be c0f7 96bd bb66 1abe
00000110: 1310 27bd 51ec 3b3e d20d 423e a291 88bd
00000120: 48fa 193b 1271 3abe 84fd 163d a393 213c
00000130: 3599 a7bd ab6c 32be 5d84 36bd 35c0 35bc
00000140: 8070 20be 8067 85bd aad0 7e3d 3255 2d3e
00000150: db38 573d 8dab a7bd 11f5 c23c 8db1 363e
00000160: 27a8 143e ce70 f0bd d418 6bbd db19 1dbe
00000170: 9526 113e 6d20 bd3c 2b74 333c 686e 2e3d
00000180: 02dc fb3d ffb3 663d 1893 de3c 0477 0e3d
00000190: 95c7 f6bd 1d7b 94bc 88a9 103e 1c95 88bd
000001a0: 7171 cebc 9c1a 60bd 69a9 1a3e 741a 3f3e
000001b0: eed4 2abe 3aa8 2abe 6c40 2bbe f3c3 30be
000001c0: 9291 3f3e be4b f43d def6 433b 56ce 443e
000001d0: b036 083e d2c9 f23c fdfe 053e fa8c cabd
000001e0: 9202 c83d 47cf 88bd de24 a93d cf42 c03d
000001f0: a10e 303e d11a ab3d 775e b8bd 1885 00be
00000200: a5f7 8abc bac5 8e3d 51f8 babd 13a9 a2bd
00000210: ee05 ddb9 f271 bebd 2bd6 a2bc d765 2cbe
00000220: 88e3 d03c eb4e 3abe bd54 14be 65e0 9b3d
00000230: e246 173e 387a 383d c7a6 973d 948d bb3d
00000240: 8c27 abbc 7a9f 7bbd 4140 cabd b8a9 22be
00000250: 8024 623d fe3d 273e b9c0 b2bd 42c5 3cbe
00000260: db67 2bbd 4e6c 8cbd d622 28be a962 743d
00000270: 491f 26bd 0de9 8cbd 0ffa 41bd ae76 7fbd
00000280: 466c f4bd 415f 883d 4f73 05bd 582c 01be
00000290: 81f9 3ebe d393 613d 70ae 9a3c 2f90 fe3d
000002a0: 709b 2fbe f2a5 fb3c 0751 763d e3a4 6ebc
000002b0: c401 9d3d f83c 35be 4a5c c63d f285 683d
000002c0: de16 5abd 26f6 2dbe cec2 42be 4784 7abd
000002d0: 4f21 8cbd c1ba 16be 97ad 213e 3f01 16be
000002e0: bfc0 17bd ab68 ca3d 6b19 21be f7be cbbd
000002f0: e118 833d 7b29 c83d c4a6 9b3d 91d3 053e
00000300: 8d9c 533d 00c7 f7bd 5d96 26bd 22ca 0c3d
00000310: 7d20 b1bd 1643 f2bd 2941 053e 17ef 96bc
00000320: 0fb9 16bd 5d21 383e f4eb 1d3e 2fe2 e33d
00000330: 64fd 073e 17e1 26bd b78d f7bd 57b9 2f3e
00000340: 8b51 103d 3e2d 953d ebfd 64bc 339b eabd
00000350: 1bff 053e e91d 743c 61ca 3e3e 91f4 e33d
00000360: e202 a43d e387 0dbc 54f1 86bd 3a14 8abb
00000370: 02d4 77bd 3976 28be c4c1 983b dde9 c23d
00000380: 2a41 533d d42d 2f3d b800 0c3e 4e19 0a3e
00000390: 3773 8bba 6acf 99bd 41f3 59bd 3932 0dbd
000003a0: a181 22be cc59 f9bd 3352 2d3e 641f ebbc
000003b0: ed67 a8bd f4cf 16be 805c 20bd 0445 09bd
000003c0: 6220 c23d e95d 3fbe c415 1d3e 7ab5 0f3e
000003d0: 52a2 82bd 6364 6e3d f6cd 45bd 1ac5 0fbd
000003e0: e802 303e ed46 003e bd8e 82bb cb10 c3bd
000003f0: 5a40 82bd 7f2e 8e3d 28b1 b53d 7335 12bd
-0.09565096 -0.113688104 0.18527432 -0.03133343 0.07289728 -0.14183374 0.12670435 0.16584682
-0.073499516 -0.14226021 -0.1405565 0.04841743 0.1771471 0.16107395 -0.07868407 0.008251824
-0.032572478 -0.16884005 0.0010086991 0.08556112 0.027736772 0.07534428 -0.11187189 -0.00820753
0.06884607 -0.040989578 0.16072924 0.14723416 0.14666498 -0.04790762 0.15977216 -0.12948187
-0.008769905 0.15203194 -0.0354495 0.019247245 0.15362984 -0.17131527 -0.09661135 -0.1315035
-0.11642358 0.17680873 0.09229448 0.112439096 0.13267188 -0.18658127 0.029407429 -0.053345576
-0.14335397 -0.060628556 0.05558889 0.1692366 -0.1129632 0.09146846 0.1884497 -0.049064778
-0.15042663 -0.109159425 0.116347924 0.047391083 0.0785093 0.089360185 0.16722567 -0.047319714
-0.13915375 -0.15803166 -0.07371473 -0.15078251 -0.040786814 0.18351866 0.18950585 -0.06668402
0.0023495127 -0.18207195 0.036862865 0.0098618595 -0.08183519 -0.17424266 -0.044559825 -0.011093189
-0.15667915 -0.06513882 0.062210716 0.1692703 0.052544456 -0.081870176 0.023798497 0.17841168
0.1451727 -0.11740266 -0.057396725 -0.15341894 0.14174874 0.02308675 0.01095299 0.04258576
0.122978225 0.056324 0.02716975 0.03478147 -0.12049786 -0.018125111 0.14127171 -0.06669065
-0.025200577 -0.054712877 0.15103687 0.18662435 -0.16682789 -0.16665736 -0.16723794 -0.17262249
0.18707874 0.11928509 0.0029901783 0.19219336 0.13302112 0.029637251 0.13085552 -0.098901704
0.09766115 -0.0668016 0.08258985 0.09387743 0.1719308 0.08354724 -0.09002393 -0.12550771
-0.01696379 0.06971307 -0.09129394 -0.079424046 -0.00042156823 -0.09299077 -0.019877514 -0.16835724
0.02549912 -0.18194167 -0.1448545 0.07611159 0.14773133 0.045038432 0.07404857 0.09157863
-0.02089288 -0.061431386 -0.09875537 -0.15885055 0.05521059 0.16332242 -0.08728165 -0.18434623
-0.04184709 -0.06856595 -0.16419539 0.059664402 -0.04055718 -0.068803884 -0.047357615 -0.06236904
-0.11934714 0.06658793 -0.03258067 -0.12614572 -0.18649866 0.055072617 0.018882006 0.124298446
-0.17149138 0.030718777 0.060135867 -0.014565679 0.076663524 -0.17699039 0.096855715 0.056768365
-0.053244464 -0.1698843 -0.19019625 -0.061161306 -0.068422906 -0.14719678 0.15788876 -0.14648913
-0.03704905 0.09883245 -0.15732352 -0.09948533 0.0640123 0.09773537 0.076001674 0.13068987
0.05166297 -0.12098503 -0.04067074 0.034372456 -0.08648775 -0.11829202 0.13013138 -0.018424554
-0.03679758 0.17981477 0.1542204 0.111271255 0.13280255 -0.040742006 -0.12087577 0.17160545
0.035234015 0.0728402 -0.013976554 -0.11455383 0.13085596 0.014899709 0.18631889 0.11130632
0.08008362 -0.008638355 -0.065889984 -0.004213837 -0.06050492 -0.16451348 0.0046617705 0.09517262
0.051575817 0.042768314 0.13672149 0.13486215 -0.0010639195 -0.07510264 -0.0532105 -0.034471724
-0.15869762 -0.121753305 0.16925888 -0.028701492 -0.08222947 -0.14727765 -0.039150715 -0.033513084
0.09478833 -0.18688168 0.15340334 0.14034072 -0.063786164 0.058201205 -0.048292123 -0.03510008
0.17188609 0.12527056 -0.003984301 -0.095246874 -0.0635993 0.06942462 0.088716805 -0.035695504

conv1.bias f4 [64]
00000000: 0c4e 013e 1724 25be 33ce 9e3c e59b b2bc
00000010: f1e2 5dbd b653 41be 6874 74bd b631 2d3d
00000020: 961d 26be 87a3 b63c e218 8f3c de82 a43b
00000030: df5b a3bd 877f 21be 6dd5 38be 57ff 3a3d
00000040: 4aa8 163e 6a88 eb3d 2607 d2bd 775b 71bd
00000050: ae7a ea3d c5c9 f1bc c918 28be e820 25be
00000060: d856 f9bd d2fe debc ec45 edbd 9236 55bd
00000070: 483f 1d3e 0e09 633d 2f24 2dbe 073f 403d
00000080: 81a2 90bc cfdb b33d e1cd 1d3e c4fa 043e
00000090: 19e6 403e 53a1 da3a f4da e43c 7c15 22be
000000a0: 1877 9dbd bfed ab3c de38 5d3d de3f c23c
000000b0: e194 c43b b6b2 d8bd ce6d 13be 32a6 2c3e
000000c0: 8acb 013a af57 a4bb 79b2 2d3e 1570 96bd
000000d0: aaee 00be 774b 72bd 0a5c 683d a6e4 d4bd
000000e0: 29cb 933d 4b57 11bd 41be 1c3e 9886 fc3d
000000f0: 5919 d4bd 25ec fabd 7fd9 333e 5526 db3d
0.12627429 -0.16127048 0.019385433 -0.021802852 -0.054171506 -0.1887959 -0.059681326 0.042283736
-0.16222224 0.022294773 0.01746792 0.0050204834 -0.079765074 -0.15771304 -0.18050165 0.045653667
0.14712635 0.11500628 -0.1025527 -0.05892512 0.114491805 -0.029515157 -0.16415705 -0.16125834
-0.12174767 -0.027221117 -0.11585602 -0.052053995 0.15356171 0.055428557 -0.16908334 0.046935108
-0.017655613 0.087821595 0.15410568 0.12986284 0.18837775 0.0016680158 0.027936436 -0.15828508
-0.07688731 0.02098739 0.05400931 0.023712095 0.005999193 -0.105809614 -0.14397356 0.16860273
0.0004951289 -0.0050153355 0.16962613 -0.07345597 -0.12591043 -0.059154 0.0567284 -0.10395174
0.07216484 -0.03548364 0.15306951 0.12330359 -0.10356397 -0.12252072 0.17563437 0.10700671

conv2.weight f4 [128, 64, 3, 3]
00000000: d032 99bc 143d ac3a 9758 15bd afcc acbc
00000010: efd0 d7bc f0fb 0bbd fa24 bfbb 6e70 1e3c
00000020: b25a 9f3c aa82 20bd faea 87bc 8bc4 d4bc
00000030: e79a 403c a2bc 01bc 4d81 a6bc 3219 173d
00000040: aba6 1bbd fddb 9abb b8d1 9b3c 215c 243c
00000050: bd19 27bd 46dc 46bc 0120 c539 755f ac3c
00000060: d6d0 0c3a 9828 df3c e2c5 02bd e87a 27bd
00000070: 4a32 d53c f6c2 633c 8dd2 df3c a5e4 aebc
00000080: 1151 ff3c ccd7 8d3c 0e5a 8a3c 88cc 21bd
00000090: 3c2d 86bc 270a d2bc b940 82bc 2aa5 a13b
000000a0: 9b37 6bbc 1ed1 093d 6dfd 17bd 57fb 7ebb
000000b0: 5c3f 31bc 9e54 2abd a308 a7bc a82c 023d
000000c0: 2642 89bc 6605 843c 6bfa f53c 780f 96bc
000000d0: 309a 18bd 4a08 113d 565b 8c3c d0ec 20bd
000000e0: 0024 b63c 7c03 00bd c01b efbb 70f1 203d
000000f0: 4620 e83c 3039 723c 3621 653c 5376 133d
00000100: c582 9b3c 7166 903b e58c 6ebc 11a0 b8bc
00000110: 29a0 e63c dbc1 12bd 5de3 dfbc ec00 21bc
00000120: e36f 24bd 60ba 06bd 9ed3 43bb 4b8b 243d
00000130: c754 d63c ee73 e23c d922 dc3c e13d fa3c
00000140: e027 363c 7c46 18bd 2606 d93c c19a 0fba
00000150: 5c63 14b9 a380 163d 200e 973c e2d5 8c3b
00000160: 2034 cdbc a64d e4bc e100 623c f5a0 1cbc
00000170: ebb6 d03b f524 a93c c5bd 893c 020e 763c
00000180: 2aea ac3c ad32 e53b a22f a53c 6bb0 24bc
00000190: 0c1c f8bc c0ab 6dbb 220e 263b e963 bbbc
000001a0: 560d 0a3c c182 a53c cf1e 15bd 17a3 1e3d
000001b0: 14ab 08bd 9318 6ebb 1ad6 6bbc bbd3 773c
000001c0: a3a5 00bd bdc2 913c d8ec 5a3c 2a40 743b
000001d0: 3cd7 e03a 4293 fd3b 5363 203d 4873 e03c
000001e0: dced 633c 2cae 1c3c cc2e dcbc d6a8 05bd
000001f0: b12d d03c 5b73 e93c a332 be3c 492e a53c
00000200: 1cb0 f8bb f08b 5abc 220f debc fa02 8abc
00000210: ac09 cfbb 8d9e 26bd 0810 883c cfd4 2b3c
00000220: dfb5 06bc 9e7c d33c 1a69 1d3d 6ec4 bebb
00000230: 4544 25bd db5e e4bc d016 dc3c 50d6 253d
00000240: f6e4 03bd eb21 663c 4870 8dbc 8f14 4d3c
00000250: e9ea e83c 86ae ebbc ce52 253d c63b 023d
00000260: f7d4 9b3b 3e83 643c b8f3 903c df6e 5d3c
00000270: 3376 973c 761b 363c ea2a 04bd 4455 8a3b
00000280: 278c c53c 9a15 263c 781e 25bc 4ea4 053d
00000290: 0bf3 20bd c47e 11bd 6a45 5dbc 217b ddbc
000002a0: ecc9 fd3c 2435 22bd 74ad 18bd f49d e53c
000002b0: 0f97 c1bc 8d38 84bb 3044 7bbc 459d fe3b
000002c0: 9143 3c3c 48ec bf3c cf66 c13c 60c1 35bb
000002d0: 178b 1f3b 4a75 00bd ddf0 033d 8879 aabc
000002e0: 2777 263d 1563 8bbc 11f8 c8bb f9b6 12bd
000002f0: 232f f93c 1220 05bc b6c3 293d d8a2 413c
00000300: dee7 9d3c f1a7 57bc 9766 f63c ebfb b4bc
00000310: 906e 023c 85b7 83bb 04a1 013b 782a c0bc
00000320: 9637 b53b 0ec8 f7bc eeb6 bebc e054 d53b
00000330: 8b31 833c f0ad 9f3c 5063 833c fe38 5237
00000340: 5f32 d1bc 2082 b6bc 69c9 bd3c 66b2 ebbc
00000350: d533 873b a766 783c 8c28 21bd 6100 f6ba
00000360: 4bc1 d43b c051 f33b 6c76 38bc b6dd dd3c
00000370: 009b ebbc 57c1 f03c b0c7 13bc 63d2 4b3c
00000380: d378 043d 636d 14bd abd5 b93c c5b1 053d
00000390: 3239 95bc d643 05bd d0d4 f03c d9de b4bc
000003a0: 0259 243d d149 91bc a410 173d 0692 193c
000003b0: a647 f2bc d25b 263d 99cb 5dbc f770 123d
000003c0: c6f2 a13c 999c 403c 38ca df3b 6ac0 123d
000003d0: ccee ca3b d08b 0f3c b20b 65bb f810 f03c
000003e0: 099d c93c 588e 493c 4868 9c3a d2c7 c7bc
000003f0: b0df fc3c 5dc4 e9bc 6e24 bf3c aef3 d43c
-0.018700987 0.0013140761 -0.03646144 -0.021093694 -0.026344744 -0.034175813 -0.0058332654 0.00967036
0.019452427 -0.03918711 -0.016591538 -0.025972625 0.011755682 -0.007918509 -0.020325327 0.036889262
-0.038000744 -0.0047259317 0.0190209 0.010031731 -0.04079603 -0.012137478 0.00037598613 0.021041611
0.0005371695 0.027241036 -0.031926997 -0.040888697 0.026024956 0.013901463 0.027322078 -0.02134926
0.031166585 0.017314814 0.016888645 -0.039501697 -0.016378991 -0.025639607 -0.015900003 0.004933019
-0.014356519 0.033646695 -0.03710692 -0.0038907134 -0.010818329 -0.041584603 -0.02038986 0.03178087
-0.016755175 0.016115855 0.030026635 -0.018317923 -0.03725642 0.035408296 0.017133396 -0.039288342
0.022233963 -0.031253323 -0.007297009 0.039292753 0.028335702 0.014784142 0.013984969 0.036001515
0.018983254 0.004406743 -0.014559959 -0.022537263 0.028152542 -0.035829406 -0.027330095 -0.00982688
-0.040145766 -0.032892585 -0.0029880772 0.040171903 0.026163472 0.02764317 0.026872085 0.030547084
0.011117905 -0.037176594 0.02649219 -0.0005478077 -0.00014151394 0.03674377 0.018439353 0.0042979578
-0.02504927 -0.027869057 0.013794155 -0.0095598595 0.006369462 0.020647505 0.016814122 0.015017988
0.021107752 0.0069945664 0.020164315 -0.010051827 -0.030286811 -0.00362657 0.0025338014 -0.02287479
0.008426031 0.02020395 -0.036406334 0.038729753 -0.033366278 -0.0036330565 -0.0143943075 0.015126164
-0.031407963 0.017793054 0.013362132 0.003726969 0.0017153989 0.0077385018 0.039157223 0.02739872
0.013911691 0.00956301 -0.026877783 -0.032631718 0.025412412 0.028497389 0.023217505 0.020163672
-0.0075893532 -0.013339028 -0.027106825 -0.016847122 -0.0063182916 -0.04067855 0.016609207 0.010487749
-0.008222072 0.025816258 0.03843031 -0.005821756 -0.04034831 -0.027877262 0.026866347 0.040487587
-0.032200776 0.014046173 -0.017265454 0.012517109 0.028432326 -0.028769743 0.04036217 0.031795286
0.004755612 0.013947306 0.01769434 0.013515203 0.018488979 0.011114946 -0.03226749 0.0042215902
0.024114681 0.010136986 -0.010078065 0.032627396 -0.039294284 -0.035521284 -0.013505319 -0.027036252
0.030980073 -0.03960146 -0.037274793 0.02802942 -0.0236316 -0.0040350617 -0.015336081 0.007770213
0.011490718 0.023428097 0.023608593 -0.0027733669 0.0024344379 -0.031361856 0.032212127 -0.020809904
0.040640976 -0.01701502 -0.0061330874 -0.035819028 0.030417984 -0.008125322 0.04144641 0.01181861
0.019275602 -0.013162599 0.030078216 -0.02209278 0.0079609305 -0.00401968 0.001977981 -0.02345775
0.005530308 -0.03024676 -0.023280587 0.006510362 0.016014835 0.01949212 0.016038567 1.2530245e-05
-0.025536714 -0.022278845 0.023167329 -0.02877159 0.004126052 0.015161193 -0.03934531 -0.0018768423
0.006492769 0.007425517 -0.011258703 0.02708326 -0.028760433 0.029389067 -0.009019777 0.012440297
0.03234179 -0.03623713 0.022684893 0.032640237 -0.01821575 -0.032535397 0.029398352 -0.022078918
0.040123947 -0.017735394 0.036881104 0.009373194 -0.02957518 0.04061491 -0.013537311 0.035752263
0.019769084 0.011756086 0.0068295263 0.03582803 0.0061930176 0.008761361 -0.0034949598 0.029304966
0.024611013 0.012302004 0.0011932934 -0.024387274 0.030868381 -0.028536016 0.0233328 0.025995102

conv2.bias f4 [128]
00000000: 40a6 3539 c6e4 1fbd c480 003d 848d aa3c
00000010: f271 fc3c 78cf 30bc 23b4 083d 3012 363d
00000020: 7734 213d 4dcd 0d3d fd51 e93a 77c2 00bd
00000030: f86c 5abb a4ef 8bbb 428c 743c 3dca 09bd
00000040: 039e ae39 8f60 633c baf0 9a3c b751 d83c
00000050: 4eab 20bd 3f15 2abd 6801 b7bc ed45 ff3c
00000060: ea3f b6bc de11 4b3a d175 c4bb 059e 85bb
00000070: 4f67 173d 648b 23bd f90b 08bd 08a8 e1bc
00000080: a29d bcbb 03d8 4f3c b302 b73c 92b9 debc
00000090: 0697 1e3d 8469 c73c 2f12 273d 90df 4dbc
000000a0: 4a6a 1cbc 047a 733c f713 17bd e736 bfbc
000000b0: 3a21 4bbc 54da d1bc 5254 06bd 2440 a63c
000000c0: 5606 42bc 03ca 113d 1db1 803c d1af 2b3d
000000d0: 79a0 933c 568b d239 cb71 8b3c 69a6 2d3d
000000e0: add8 1dbd 35c2 51bc 811d 573c 25aa d0bc
000000f0: a6eb 93bc d948 05bd 439b 823c 720f 32bd
00000100: ce75 1a3c d742 89bc 99f3 11bc 2c22 debc
00000110: a402 12bd 2fa4 a43b f66c 813b ca36 803b
00000120: e843 b6b9 e703 a6bc 7de5 0ebc 0b4d eebc
00000130: 7e73 03bd c9c7 bebc 9d11 b3bb d977 833c
00000140: 050e a13c c6b1 073d 1dc3 0ebc c078 0b3d
00000150: e57e 41bc fa76 1a3c 0540 2b3d d5a5 033d
00000160: 0190 01bd e418 37bd 9595 523c 6c66 263d
00000170: 0a6d 443c 90a0 833c 77aa c1bb f0bb 9e3c
00000180: f29f 363d b6c4 26bd 2703 e83c f9b0 bcbb
00000190: 3648 c9bc f220 e7bc 6535 ec3c e16c cbbb
000001a0: d8b0 d33c c7ec 413a 1173 563a 5ce9 b8ba
000001b0: 4119 ed3c b39b 22bd adc6 2c3d ca09 fcbc
000001c0: 5515 ba3b f13c 8bbc 9b45 f33c 1984 8f3c
000001d0: b432 ba3c c13d 173c 613a a13a 1560 88bc
000001e0: 1b4f e83c 3fff 99bc bdd9 15bd 4880 0e3d
000001f0: d807 a9bc af97 253c 90f3 babc 55e3 59bc
0.00017323438 -0.039036535 0.0313728 0.020819433 0.030816052 -0.010791652 0.033374917 0.04445094
0.039356675 0.03461962 0.0017800924 -0.031435456 -0.003332911 -0.0042705107 0.014926018 -0.033640135
0.00033305594 0.013878002 0.018913615 0.026406152 -0.03922587 -0.041524168 -0.022339538 0.031161273
-0.022247273 0.0007746498 -0.00599549 -0.0040776753 0.036963757 -0.039927855 -0.033214543 -0.027545944
-0.005756096 0.012685779 0.022340154 -0.027188096 0.038718246 0.024342306 0.040788826 -0.0125655085
-0.009546826 0.014860634 -0.036884274 -0.02334161 -0.012398059 -0.025616802 -0.032795258 0.020294257
-0.011842331 0.035593044 0.015709454 0.04191572 0.018020855 0.00040158135 0.017022034 0.04239503
-0.038536716 -0.01280265 0.013129593 -0.025471756 -0.018056702 -0.032540176 0.015943175 -0.04347176
0.009427501 -0.016755505 -0.008908176 -0.027115904 -0.03564705 0.005024455 0.0039497567 0.0039127814
-0.0003476434 -0.020265533 -0.008721706 -0.029089471 -0.032092564 -0.023288624 -0.005464746 0.016048359
0.019660005 0.033128522 -0.008713511 0.034050703 -0.011810039 0.00942778 0.0418091 0.03214057
-0.031631473 -0.044701472 0.012853046 0.04062502 0.011988888 0.016067773 -0.0059102136 0.019376725
0.04458613 -0.040714942 0.028321816 -0.0057584015 -0.024570566 -0.028213952 0.028834054 -0.0062080477
0.025841162 0.00073976483 0.00081805984 -0.0014107632 0.028942706 -0.039699268 0.04218166 -0.030766387
0.0056788125 -0.016996833 0.029696276 0.017519044 0.022729255 0.009231032 0.0012300723 -0.016647378
0.028358033 -0.018798469 -0.036584605 0.034790307 -0.020633623 0.010106965 -0.022821218 -0.013298829

deconv1.weight f4 [128, 64, 3, 3]
00000000: e0b1 e13c 5479 bfbc 449c eebc a135 953c
00000010: 8142 9f3c d228 9ebc 4ad6 d4bc 8a60 583c
00000020: b2b4 cabc 2703 48bc 9518 c03c b1e3 e8bc
00000030: 50d0 61bc 6fc4 8cbc a62d e4bb 27cc 9c3a
00000040: d3cc 453a c99b b03b 05be e33c ab8b 54bc
00000050: 4a16 babb 757a b8bc e303 16bd 86d9 d33c
00000060: 4a50 fa3c 4ff9 0ebc 4e7f 973c c455 1cbd
00000070: 6bc1 04bd 8235 d73c d563 703c 4d34 aabc
00000080: c52f 07bc a1a8 a13c efa1 ee3c fde3 283c
00000090: df3b f8bb 8c33 15bb 1e38 083d 83a6 10bd
000000a0: 08f7 24bd 4ff5 20bd d669 ee3c 08e1 e7bc
000000b0: 63f6 113c b811 8a3c 63d1 cfbc 9922 cbbc
000000c0: 5374 96bc 13c9 eebc 8449 0c3d 8373 273d
000000d0: a029 99ba 9cb4 1bbb 80e1 ed3c 9122 60bb
000000e0: 14f1 c0bc 1957 8bbc 36b3 d53b 0577 eb3c
000000f0: 56d6 55bc 59f5 d5bc 492b 80bc da18 27bd
00000100: afe6 a3bc 5651 19bd 8d59 03bc 221f 8bbb
00000110: 925a c539 d385 1d3c 00dc 5e3c e147 a439
00000120: 89aa a5bc 15e7 033d db5f 9cbc a219 1b3d
00000130: 6258 1a3d 42ee 263d 3f12 eb3a d349 14bd
00000140: 9b8d 873c 9dc6 3e3b 6ea6 02bb e066 27bd
00000150: 5d4b c33c f4dc 68ba e51e f33b d08f a23c
00000160: e3ab 0dbc 5d29 f1bc 2b7d 88bc 8ad1 b53c
00000170: 3b45 03bc f3b8 353c 2523 0bbd 23cb be3b
00000180: 834b bfbc 37d6 fe3b 38d4 aebc 4096 1d3a
00000190: fa63 983c 691c 6bbc 67bb 04bd 2457 b5bc
000001a0: 8b8a 3dbc 345c dc3c d306 17bd 3767 3e3c
000001b0: d97d 083d e63a 1b3d 6f66 49bb e7b4 4f3c
000001c0: ccbe 723c f25c 0f3d e45c 5fbb f88a 9d3c
000001d0: cbea d43c 8038 5a3c 8b0f f53c 00f2 9cbb
000001e0: a165 5b3a cbab ef3b 0a20 283d ab0b 5cbc
000001f0: f771 12bd 1623 113d 5c13 0cbd 7892 273d
00000200: 1772 083d 03bf bf3c 27a4 223d 4eac 8ebc
00000210: 462f 823b 303b 10bd ece3 09bd a86a 123d
00000220: d2ba 1f3d 44fe 26bd f9e8 af3c 599b 093c
00000230: 272c 7a3c 272d 023d 5663 a33c 132f afbb
00000240: 4370 1f3d 4574 9f3b d040 fa3c ff33 babc
00000250: 19ae dc3b f00e 92bc 53fa d13c 1152 0ebd
00000260: 33b5 ea3b 1b79 f13c 870a 063d dd85 0ebc
00000270: eb69 d4bc cce9 d5bc 7160 62bc 19e1 e1bb
00000280: c3dc 17bd dd15 f73c 5bab 803c 9b74 743c
00000290: 7681 83bb 6336 13bd a61e 57bc 3087 6d3c
000002a0: 2b39 653b 7063 60bc 3bb2 bebc 0d32 643c
000002b0: cda5 593a 7000 ecbc 0704 b83a 555c 0a3d
000002c0: 2bae 1ebc 7663 733c bfc2 283d 204b 1ebc
000002d0: f40a 513c e440 723c beaf ff3c 3790 193d
000002e0: f900 0b3c b2de a33c ec8a 183d 0571 9c3c
000002f0: ba46 223d 58ad b63b f26f d3ba 496a 4b3c
00000300: 9b50 91bc 9716 c6bc f29f 19bd 42b6 cfbb
00000310: e4a2 863c 9813 1bbd 1746 fe3c 911b 0b3d
00000320: 6c10 a9bc 050f 29bd 8ad0 08bc feb2 a0bc
00000330: 40a9 533c 49ea f43c dd3f 223d ab9a 7fbc
00000340: 0d7b aebc cc73 1bbd 2a63 1b3d 8943 f33c
00000350: e791 263d 0c02 803b f506 13bd dfbd 893b
00000360: 123c 1abc 763e fe3c c1cc 6c3b 8171 723c
00000370: 81c9 bb3c 1a3d f9bc 5ab5 45b4 414f 40bc
00000380: 8483 f8bc 749a 30bb 7b19 d7bc ecb7 07bb
00000390: c5c9 fd3b 9057 a23c 6144 a73c ac0c 9bbc
000003a0: e2a3 803b d680 893c 9acd 6bbc 55a0 a23c
000003b0: a658 a7bc aaba 26bc 10d1 3c3c 529a b43b
000003c0: 9ec2 d7bc e85d e83b 0e9e 20bc 8550 22bd
000003d0: 7886 acbb 9f80 26bd 8bfe 073d 5df9 253d
000003e0: 27a6 193d 3f20 99bb be6e 4bbc 1956 4e3c
000003f0: c6cc 1bbc acfc 693c 266e da3c 0911 453c
0.027550638 -0.023373283 -0.029127248 0.018214049 0.019440891 -0.019306574 -0.025981087 0.01320661
-0.024744365 -0.012207783 0.023449222 -0.028428884 -0.013782576 -0.01718351 -0.0069634495 0.0011962698
0.0007545475 0.005389665 0.02780057 -0.012972753 -0.0056789266 -0.02251933 -0.0366248 0.02586056
0.030555863 -0.008726432 0.01849332 -0.03816773 -0.03241102 0.026270632 0.014672239 -0.020776892
-0.008251135 0.019733729 0.02912995 0.010308263 -0.0075754966 -0.002276632 0.033256643 -0.035315048
-0.04027465 -0.039296445 0.0291032 -0.028305545 0.008908841 0.016854152 -0.025368398 -0.02479677
-0.018366015 -0.029148614 0.034249797 0.040881645 -0.0011685379 -0.0023758775 0.02903819 -0.003420029
-0.023552455 -0.017009305 0.0065216077 0.028743276 -0.01305159 -0.026117967 -0.01564564 -0.040795185
-0.02000746 -0.037431084 -0.008016956 -0.0042456547 0.00037642248 0.009614426 0.013602257 0.00031334072
-0.020222919 0.0322028 -0.019088676 0.037866242 0.037681945 0.040754564 0.0017934515 -0.036203217
0.016547015 0.0029110082 -0.0019935626 -0.040869594 0.023839647 -0.0008883022 0.0074194544 0.019843966
-0.008646938 -0.029438669 -0.016661247 0.022194643 -0.008012111 0.011091459 -0.033969063 0.0058225556
-0.023351436 0.0077770012 -0.021341428 0.00060114637 0.01860236 -0.014350035 -0.032405283 -0.022136278
-0.011568676 0.026899435 -0.036871742 0.011621288 0.033323143 0.037897967 -0.0030731221 0.012677408
0.014815997 0.03500075 -0.0034082467 0.019231305 0.025990864 0.013319135 0.029914638 -0.004789591
0.0008369331 0.0073141805 0.04104618 -0.013430516 -0.035753217 0.03543385 -0.03419815 0.040911168
0.03331193 0.023406511 0.03970733 -0.017416146 0.0039729206 -0.035212696 -0.03366463 0.035746247
0.038996525 -0.04076983 0.021473395 0.008398854 0.015269316 0.031781342 0.019944828 -0.005346188
0.03892542 0.0048661553 0.030548483 -0.022729872 0.0067346212 -0.017829388 0.02563206 -0.034746233
0.007162714 0.029476693 0.032724883 -0.008698908 -0.025929412 -0.02611246 -0.013816939 -0.006893289
-0.03707577 0.030161792 0.015706709 0.014920379 -0.0040132357 -0.03594054 -0.013129866 0.014497563
0.0034976702 -0.013695583 -0.023278346 0.013927949 0.00083025993 -0.028808802 0.0014039286 0.03377946
-0.00968508 0.014855256 0.04120135 -0.009661466 0.012758959 0.014785979 0.03121173 0.03749105
0.008484119 0.02000365 0.03724186 0.01909686 0.03961823 0.0055748634 -0.0016131385 0.012415477
-0.017738631 -0.024180694 -0.03750605 -0.0063388655 0.016435094 -0.037860483 0.03103928 0.033961836
-0.020637713 -0.04127409 -0.008350501 -0.0196166 0.01291877 0.029896872 0.039611686 -0.015600841
-0.02129891 -0.03795223 0.037936367 0.02969529 0.040666487 0.003906494 -0.035895307 0.0042035426
-0.009413736 0.031035643 0.0036132785 0.014797569 0.022923233 -0.030424643 -1.841303e-07 -0.011737646
-0.030336149 -0.002694753 -0.026257267 -0.0020708991 0.007745 0.019817144 0.020418348 -0.01892694
0.0039257864 0.016785067 -0.014392281 0.019851843 -0.020428013 -0.01017634 0.011524454 0.0055115605
-0.026337918 0.0070912726 -0.009803308 -0.03962757 -0.0052650534 -0.040650006 0.033201735 0.040521014
0.03751197 -0.0046730335 -0.01241654 0.0125937695 -0.009509271 0.014281433 0.026663851 0.012027987

deconv1.bias f4 [64]
00000000: b508 0a3b f614 1b3d aa04 793c 330b 1b3a
00000010: 0e91 5cbc 5d10 943c 056f afbc 57ec d13c
00000020: 81ed a3bc b0eb 1a3c c28e af3b f5fb dcbc
00000030: 24d1 a4bb a53e 8bbc c5cd 5bbb eb42 d0bc
00000040: 829d 0dbd 344f 003d 3a37 06bd 7738 da3b
00000050: c165 9dbc 8bbe 95bc 641c e5bb 8fc2 e03c
00000060: b76d 993c 1826 51bc 74ba b43c 22f0 e1bc
00000070: 0837 17bd 096e af3b d722 06bc 8e5d d4bc
00000080: 9e5f b0bc 5b63 e7bb 9e35 cbbc 4596 1e3d
00000090: a77e 4ebc 5e30 0f3d d451 2ebd 4e08 3ebc
000000a0: d3f2 533d 04a5 d13c afa5 a4bc 2e86 13bd
000000b0: 53b7 a1bc 0b12 823c d5d0 753c a010 173c
000000c0: 7a1e 11bd b2ee 91bc 9b21 8cbc 3382 d8bc
000000d0: 0bb8 b0bb 34fc 9abc 71ba 06bd 3b1b 663c
000000e0: d13d e5bc 70b0 0d3d 521f bfbc 886a 163c
000000f0: 4f02 b0bc 280d 1bbd 39e7 8bbc a825 2bbd
0.0021062319 0.037861787 0.015198866 0.00059144496 -0.013462318 0.018074209 -0.021415243 0.025625391
-0.020010712 0.009455606 0.005357594 -0.026975611 -0.0050298143 -0.016997645 -0.0033539396 -0.025422534
-0.03457404 0.031325534 -0.032767512 0.006659563 -0.01921356 -0.018279335 -0.00699191 0.027436523
0.018729074 -0.01276543 0.022061564 -0.027580325 -0.036917716 0.0053536934 -0.008187017 -0.025923517
-0.021529969 -0.0070614046 -0.02480584 0.038717527 -0.012603438 0.034958236 -0.042558506 -0.01159866
0.051745247 0.02559138 -0.020098535 -0.036016636 -0.019740736 0.015877744 0.015003403 0.009220272
-0.035429455 -0.017814014 -0.017105868 -0.026429271 -0.0053930334 -0.018919088 -0.032892648 0.014044578
-0.027983578 0.034592092 -0.023330364 0.0091806725 -0.021485476 -0.037854344 -0.017078029 -0.04178396

deconv2.weight f4 [64, 64, 3, 3]
00000000: af2b d9bb 97a3 213d 4893 143d 34d8 c03c
00000010: 3d61 0e3d b741 c9bc b6d9 1b3d 2555 c93c
00000020: 9af3 583c 3371 a8bc 8db2 423c 4068 a43b
00000030: 5374 22bc 474b 273d eb39 e53c fed1 5d3c
00000040: f223 b73c 3099 d4bc 5761 06bd 45d9 27bd
00000050: 731a 043d 4788 ef3c 045d 5fbc 5aea d03c
00000060: 7df9 bfbb 154f 0abd 7cf5 103d 145e c93b
00000070: 1e26 b93b 07e1 063c 5dfd 713c b50c b1bc
00000080: c153 c93c 6479 14bd 8674 2fbc 5777 99bc
00000090: 7196 0c3d 08d0 f83c 1371 1dbd 7e97 2abc
000000a0: 5561 673c 23c6 143d b806 26bc 2fca 23bd
000000b0: 20e7 98bc f568 9abb 38ca 833c 0b5c 26bd
000000c0: b971 9dbc 02ee 23bd 632b fdbb f25d 953c
000000d0: 6ff9 23bd aa24 c7bc 42b3 173d e331 c9bc
000000e0: 8c9f b5bc 56d7 913c 666a 18bb 11fb f1bc
000000f0: 094c 23bc a7ca 043b 4214 243d d6dc 883b
00000100: 354a c73c 060e eabc c1a1 0c3b 5da9 5cbc
00000110: f44b 703b 938c acbc 1a6a 0ebd 3b21 cb3c
00000120: 6beb ad3c c63f 133d cf31 a6bc fc56 233d
00000130: 6e12 d7bb 0c86 823c 6578 e4bc bf13 c53b
00000140: 63f3 ec3c b992 ebbc 5d6b 13bc 1f29 2e3c
00000150: cc2b 3c3c 2588 ce3c 8aea 2d3c fb1f 093c
00000160: 9039 913c 07e4 9a3c 45ec f2ba dbb8 293d
00000170: 5f7c 973c cbbc b8bc 5403 973c 8e50 6abc
00000180: a3fc 1fbd 9349 253c d650 2b3c f98a 14bd
00000190: 9cec 093d 35d9 eebc be56 8e3c 2830 fe3b
000001a0: be15 04bd 5aa7 053d 710c 71bc 5b49 9fbb
000001b0: d24f ebbc fac6 ce3c b963 233d c094 cfbb
000001c0: 6ede b5bb 446c a63c 7526 c1bc c6b3 283d
000001d0: 19cb 2bbc 79c7 f43b d5d3 08bd 3b36 c5bc
000001e0: 0700 1dbd 627a d23c 7769 0dbd 5ac4 d83c
000001f0: 9710 16bd 5367 2b3c 4c9e b3bc ceff 903b
00000200: 1f80 fcbc 22ac 1d3d 47cb 07bd e5f9 953c
00000210: 4230 2bbc 9732 233c 7a31 8fba 54c8 38bc
00000220: 65a3 e73c c256 783c f145 01bd fe82 a13c
00000230: beba b23a 3efd 933c aa65 b1bc df6d 3f3c
00000240: e40e 40bc fbd9 20bb 2452 c63b e661 1f3d
00000250: ed49 2d3d a0f6 0c3c 0b60 863c 5e5b a13c
00000260: 35cc a93c b42e b73c ae53 66bc 44fb 603c
00000270: 59eb 40bc 5310 b7bc c65d 1cbc 153a 1d3d
00000280: f5be 013d 7c93 e33c 5d19 1fbb ec42 133d
00000290: 0269 fb3c a6db 02bd cb23 35bc 8561 27bd
000002a0: f3f3 da3c 3821 a73b fea4 5ebb e362 0d3d
000002b0: 15ee 1dbd 768f 3abc 0c96 d9bc da2c eb3c
000002c0: c9e2 c93c fe07 88bc f4f5 0a3d 94d3 523b
000002d0: 92e7 023d fc8c bcbb 7b35 1dbc 8125 e53c
000002e0: 89b4 cb3c 69fe dabc 053b 8f3c e9b6 de3c
000002f0: 9cca d23c 0ca4 e9bc c442 a2bb 7bd3 dfbc
00000300: b3e0 33bc 1160 c7bc eaef 243c d324 46bc
00000310: 88c9 babc 26cc 38bc 5294 373c 2581 393c
00000320: 882b d83b 4119 2bbd 018f 1fbb d653 87bc
00000330: bc9c bbbc b913 173d 8fef b3bc daa1 10bd
00000340: 8be1 8ebc ee74 c7bc f5eb aabc 43a1 963c
00000350: 5b04 a6bb 266e 81bc eca1 243c 3ffa 773c
00000360: 02c5 6c3b b935 01bd e67e f6bc 866f ed3a
00000370: 3b2e 0ebc c6f5 1abd 93c5 8ebc b444 9b3b
00000380: 71ab dabb 7c32 ff3c 84a1 72bc a8a2 6e3c
00000390: dde7 c2bc 256b 26bd ac5e 19bd 046d aabc
000003a0: 0086 a6bc 2cb2 23bd ed3b 0d3d d279 4b3c
000003b0: 0443 fdbc 8ee7 fa3c d30f 043d 6f06 06bc
000003c0: e48c 333b 7b2b dd3c b5fb 7d3c b215 cdbb
000003d0: fd9d c7bc d561 c53c b9a1 103d b7a5 633c
000003e0: 7f2d f5bc e013 60bc 7067 44bc 4221 c83c
000003f0: 08c1 36bc 72ba 05bd 2909 f9b9 eef1 d4bc
-0.006627522 0.039462652 0.03627327 0.023540594 0.034760702 -0.024567468 0.038049422 0.024576733
0.013241673 -0.02056179 0.01188339 0.0050173104 -0.009915429 0.040843274 0.027981719 0.013538836
0.022356007 -0.025951952 -0.032807674 -0.04097869 0.032251786 0.029239787 -0.0136330165 0.025502373
-0.0058585987 -0.033766825 0.035390362 0.006145248 0.005650296 0.008232362 0.014769879 -0.021612504
0.02457607 -0.03624858 -0.010708934 -0.018733663 0.03432316 0.030372635 -0.038437914 -0.010412095
0.014122327 0.03632177 -0.010133438 -0.03998774 -0.018664896 -0.004712219 0.016087636 -0.040615123
-0.019219266 -0.040021904 -0.0077261194 0.018233273 -0.0400328 -0.024309475 0.037036188 -0.02455992
-0.022170804 0.017802875 -0.0023256778 -0.029538663 -0.009966859 0.0020262392 0.04005838 0.0041767163
0.024327377 -0.02857114 0.0021458718 -0.013468114 0.0036666365 -0.021063125 -0.034769155 0.024796119
0.02123042 0.03594949 -0.020287422 0.039877877 -0.0065634763 0.01593306 -0.02788944 0.006014317
0.02892465 -0.028756486 -0.008997765 0.010629921 0.011485051 0.025211403 0.0106150005 0.008369441
0.017727643 0.01890756 -0.0018533549 0.041436058 0.018491922 -0.022550961 0.018434204 -0.014301432
-0.039059293 0.010088342 0.0104562845 -0.036265347 0.033672914 -0.029156307 0.017375346 0.0077572055
-0.032247297 0.032630302 -0.014712439 -0.0048610396 -0.028724585 0.025241364 0.039890025 -0.006334871
-0.0055501973 0.020315297 -0.023577908 0.04118707 -0.010485434 0.007470068 -0.033405144 -0.02407371
-0.038330104 0.025693122 -0.034524407 0.026460815 -0.036636915 0.010461646 -0.021926068 0.0044250255
-0.030822812 0.038494237 -0.033152845 0.018307636 -0.010448517 0.009960792 -0.0010924779 -0.011278231
0.028276155 0.015157403 -0.031560842 0.019715782 0.0013635976 0.018065091 -0.021654923 0.01168391
-0.0117223 -0.002454399 0.0060522724 0.038911723 0.04230683 0.008603722 0.016403219 0.019696888
0.020727256 0.022361137 -0.014058037 0.013731781 -0.011774861 -0.022346651 -0.009543842 0.03838547
0.03167625 0.027780287 -0.0024276592 0.035952494 0.03068972 -0.031947754 -0.011055897 -0.040864486
0.026727652 0.0051003955 -0.0033972855 0.034518134 -0.03855713 -0.011386743 -0.026560806 0.02870791
0.024644272 -0.016605373 0.033925965 0.0032169567 0.031959124 -0.0057541113 -0.00959527 0.027971985
0.02486636 -0.02673264 0.017484197 0.027186828 0.025731377 -0.028520606 -0.0049518067 -0.027322521
-0.010978865 -0.0243378 0.010066966 -0.0120937405 -0.022801176 -0.0112791415 0.011204796 0.011322294
0.006596986 -0.04177213 -0.0024346712 -0.016519468 -0.022901885 0.036884043 -0.021964816 -0.035310604
-0.017441532 -0.024347749 -0.020864466 0.018387442 -0.005066437 -0.015799593 0.010048371 0.015135347
0.0036128168 -0.031545375 -0.030089807 0.0018114902 -0.008678014 -0.037832044 -0.017428195 0.0047384147
-0.0066732694 0.031152003 -0.014809016 0.014565147 -0.023792202 -0.040629525 -0.0374438 -0.020803936
-0.020327568 -0.03996484 0.034480978 0.012419181 -0.030915745 0.030627992 0.032241654 -0.008180245
0.002739721 0.026998272 0.015501906 -0.00625869 -0.024367327 0.024094502 0.03531048 0.01389449
-0.02992892 -0.013676614 -0.011987552 0.024429921 -0.011154421 -0.03264851 -0.00047499806 -0.025994267

deconv2.bias f4 [64]
00000000: a4e9 8bba eab5 a03c f1b0 9dbc 8130 e4bb
00000010: d15e 483d f1c2 57bc b84f 12bd b089 df3c
00000020: f66a 73bc 4978 12bd 9498 38bd e7ac 1cbb
00000030: bc18 fcbc 4fbc 8dbc 4df9 073c 3978 d2bc
00000040: 10a8 48bd a23a 91bc 3149 abbc 91d6 e43c
00000050: 67a4 cf3c 93c5 0fbd e850 183d b95f 0b3d
00000060: 0c18 643c c453 793d f1ec 17bd 30a5 023d
00000070: 9a86 d03c 90da 05bb 5fb1 4fbc 33f3 59bc
00000080: 09ee 31bd 3591 4cbd 511e 373d ba7e 313d
00000090: 5a44 353d 56d2 c83a f8a3 cd3a 25f5 82bb
000000a0: c912 c73c 806e 45bc f183 8f3c 6cc8 c1bb
000000b0: 4d32 363c 850b 1ebc 4db5 363d feea 7c3c
000000c0: ebc4 96bc dbee 93bc 0ec6 f93b e04a 20bc
000000d0: 1752 d33c 9c3e 23bc 19b5 e1bc 15a6 d83c
000000e0: 7597 5f3d d2e9 f9bc a257 4fbb bc32 c0bc
000000f0: eb5e cfbc 8dfd 8d3c 6228 25bc fd44 1bbd
-0.0010674489 0.019617993 -0.019249411 -0.00696379 0.04891855 -0.013169036 -0.035720557 0.027287334
-0.014857044 -0.035759244 -0.045067385 -0.0023906769 -0.030773513 -0.017301707 0.008299184 -0.025692092
-0.048988402 -0.017728154 -0.020908924 0.027934344 0.025346948 -0.03510053 0.037186533 0.034026835
0.013921749 0.0608709 -0.0370912 0.031895816 0.025454808 -0.0020424463 -0.012676566 -0.013302612
-0.0434399 -0.049943168 0.044706646 0.043333746 0.04425464 0.0015321474 0.0015689125 -0.0039965087
0.02430095 -0.012050271 0.01751897 -0.0059137847 0.011120391 -0.009646301 0.044606496 0.015436886
-0.018404445 -0.018058231 0.007622487 -0.009783477 0.02579598 -0.009963658 -0.027552174 0.026446382
0.0545878 -0.030507002 -0.0031637927 -0.023461692 -0.025313815 0.017332816 -0.010080429 -0.03790759
