contrastive_save/contrastive_weights_epoch_27.pt (torch, 749116 bytes, 8 tensors)

conv1.weight f4 [64, 3, 3, 3]
00000000: 16ae 1c3e 2cd6 e83d 59dd 303e a798 4b3c
00000010: e91c d3bd da31 c23c 0260 313e 5865 d7bd
00000020: 591a 3dbe 330c d83d f318 0dbe 399f cabd
00000030: e4c2 e1bc ca47 183e fa26 37be fc1c d43c
00000040: a118 e1bb 968a 1ebe cde2 d1bb b130 303e
00000050: 1b1d 323c bf10 b93d 7b05 63bd 92fd 04bd
00000060: 2afa de3d 2448 c13d e018 16be 7b9c 8cbd
00000070: d1a3 8b3c 9934 9b3d 669a 3b3d 8e75 be3d
00000080: ecd4 023e 2b18 053e 1686 cbbd 6d98 183e
00000090: 44e2 d2bc 9688 96bd 4a0f 3abe 06f7 423d
000000a0: 4433 7bbd 8d7d 2fbe 6aee 0f3e 129c 14bc
000000b0: 6925 46be 58fa 3f3d b3cd 17bc 3fb7 e63d
000000c0: a3b8 18be fd5d 113e 6727 0c3e a86a d5bd
000000d0: 59ad 3f3e e7f1 1fbe e827 213e 1759 a93a
000000e0: cbfe 49be c8a3 023d 3a3e 033e fcd9 01be
000000f0: b3aa f43d 328f dc3d 9df4 36be 7b56 0fbe
00000100: 627f 07be 0595 0abe 883c 0e3e 15ee 283e
00000110: dc46 d4bd e6a8 f33b cb24 e43d c2de f13d
00000120: c483 d7bd bfe2 c7bd d4ed 4bbd f970 c0b9
00000130: f9bb a53d 91ac 813c ba81 b3bd 741e 573e
00000140: d25e c5bc 630a 30be 6658 19be 6f3d 18be
00000150: d787 353e 0f01 a13d 9026 5d3d c89f 133d
00000160: fb17 413e 7552 83bd c389 07be 2d5d 49be
00000170: b341 1bbd d856 243e bdcf 36bd fc9d f03d
00000180: 60db cf3d 014a 26be a1b7 463e e5e0 26be
00000190: 12be 713d 5b38 e7bd 09aa c83c 0256 323e
000001a0: 6ec5 313d ce26 1c3e 3dde 18be c3c1 d3bc
000001b0: 9ff7 4abe d41f af3d ef3a 60be 8987 2fbe
000001c0: 4702 3fbe 4943 013d 8154 c8bd d7cc 78bb
000001d0: ec19 48be f472 1cbe 231b 333e 0c0e d73d
000001e0: 38a3 27b9 a3c8 2ebc 5d0b 20be 54f1 973c
000001f0: ad9f 943c 5148 d73d 65c1 4fbe 16de 4bbe
00000200: 5628 cebd f4c3 2a3d 1c6f f73c 5f02 33be
00000210: 92b2 0fbd 694a 283c 9cb7 003e d28f 1abd
00000220: 6ffc 7e3d e81d 293e 08b6 a93c 32ce dbbd
00000230: 33ad f73d b6e9 2bbe afaf 193e 9c80 fd3c
00000240: 1c09 d1bd 983d 3fbd 93c9 a73d ff76 2ebb
00000250: 6e11 cfbc 41e2 4bbd f4c6 193e f293 123e
00000260: 00b9 123e 99a0 19be 7e19 15be bb5e 153d
00000270: 6814 733d 42b9 a7bd 665e 133d d517 00be
00000280: d469 45bc 6d6f 613d 00d3 adbd ad5d 35be
00000290: 395d 43be 475b 3a3d 79ef 473d ec36 053d
000002a0: 1787 af3d 4927 a8bd 8f8b 35bc 4288 343e
000002b0: 982f 183d 0a7b 15be 728c 4dbe 5c45 e13c
000002c0: 191f f73d d1b5 3dbe c6bf 403c 503a 2b3d
000002d0: 972c 80bd 83f0 113e 4be4 40be c807 273e
000002e0: 792a 01bd 8265 073b e111 c43d 0555 713c
000002f0: 207f c23d 5815 3cbe cf6f 413e d82d b63c
00000300: af4c 0bbd f2ad 46be dcf9 e5bd f955 2abe
00000310: 9430 f23d 9a9f a4ba 0f54 023e 5956 343d
00000320: 9dc4 373d 71e7 c53d ff66 453e 78f8 033c
00000330: 80d0 02be 82b6 3f3e dcdb 2d3e 8647 193e
00000340: d4d5 32be 0543 03be 1d71 f63d 6d6d 103e
00000350: f80c 2dbd c181 b13c c3e2 21be 75b5 c2bd
00000360: fb89 fcbd d684 973d 001f 413e 8199 bc3d
00000370: 8bd5 bf3d e0a9 e5bd f9e4 82bd 13cb 13be
00000380: 3340 45be 5a04 0dbe d887 793d c5c0 823d
00000390: 2071 f83d f6e0 a7bd d7e6 f13d fc23 053e
000003a0: 28b9 d0bc 3941 1c3e 89ff d3bd 76c6 3a3d
000003b0: 614e 16be 763d 92bd c458 3c3e ba93 7cbd
000003c0: c390 453e bfb4 c3bd 3f50 06be ec62 03bc
000003d0: 4a03 8f3d 4dc8 a83c 5d72 e63d d34b 40be
000003e0: 6f6b d83c 4baa 243d 9a18 133e 364c dcbd
000003f0: dedc 91bb c88a 2bbd fe30 4fbe 97bd 48bc
0.15300784 0.11368975 0.17271937 0.012426532 -0.103082485 0.023705412 0.1732178 -0.10517377
-0.18467082 0.10549202 -0.13779049 -0.098936506 -0.027558751 0.14871135 -0.17885962 0.025892727
-0.006869391 -0.15482554 -0.0064052106 0.17206074 0.010871197 0.09036397 -0.05542515 -0.032468386
0.10887559 0.09437588 -0.14657927 -0.06865784 0.017045887 0.075783916 0.045801543 0.092997655
0.12776536 0.129975 -0.09937684 0.14901896 -0.025742657 -0.073502705 -0.18169895 0.04759886
-0.061328188 -0.17137738 0.14055791 -0.009070413 -0.19350208 0.046869606 -0.009265351 0.1126542
-0.14914183 0.1419601 0.13686906 -0.10420734 0.1871847 -0.15619622 0.1573788 0.0012920228
-0.19726102 0.031894475 0.12816706 -0.1268081 0.11946621 0.107695 -0.1786675 -0.13997833
-0.13232186 -0.13533409 0.13890278 0.16497071 -0.10365078 0.0074359057 0.1113983 0.11810066
-0.10523179 -0.09760045 -0.049787357 -0.00036705265 0.080924936 0.015829356 -0.08764978 0.2100771
-0.024093065 -0.17191462 -0.14975128 -0.14867185 0.177276 0.0786153 0.053991854 0.03604105
0.18856804 -0.06412212 -0.13236146 -0.1966445 -0.037904453 0.16048753 -0.04463171 0.11748883
0.10149264 -0.16239168 0.19405986 -0.16296728 0.059019156 -0.11290046 0.024495142 0.17415622
0.043401174 0.15249178 -0.14928527 -0.025849229 -0.19821022 0.085509926 -0.21897481 -0.17141546
-0.18653212 0.03155831 -0.09781743 -0.003796389 -0.19541138 -0.15278226 0.1749082 0.10500726
-0.00015987165 -0.010667953 -0.15629335 0.018547691 0.018142546 0.1051184 -0.20288618 -0.19908938
-0.10066287 0.04169078 0.030204348 -0.17481373 -0.035082407 0.010271647 0.12570041 -0.037734814
0.06225246 0.16515315 0.020716682 -0.10732688 0.12093582 -0.16788372 0.15008424 0.030945115
-0.102068156 -0.0466896 0.08192744 -0.002662122 -0.025276866 -0.04977632 0.15017301 0.14314249
0.14328384 -0.1500267 -0.14560506 0.036467295 0.059345633 -0.08189632 0.035978697 -0.12509091
-0.012049157 0.055037905 -0.08487511 -0.17711516 -0.1907853 0.045497205 0.048812363 0.03252308
0.08570688 -0.08210618 -0.011080637 0.17630103 0.037154764 -0.14597717 -0.20073107 0.027498893
0.12066478 -0.18526389 0.011764472 0.041803658 -0.06258505 0.14251904 -0.18837087 0.16311562
-0.031534646 0.0020659869 0.09573723 0.014729743 0.094969034 -0.18367517 0.18890308 0.022238657
-0.034008678 -0.19402292 -0.112292975 -0.16634358 0.11825672 -0.0012559772 0.12727378 0.04402766
0.04486524 0.096632846 0.19277571 0.008054845 -0.12774849 0.18721965 0.16978401 0.1496869
-0.17464381 -0.12818535 0.120332934 0.14104243 -0.042248696 0.021668317 -0.15809159 -0.095072664
-0.12331005 0.07398383 0.18859482 0.09208966 0.09366902 -0.11214042 -0.06391329 -0.14432935
-0.19262771 -0.13771191 0.060920566 0.06384424 0.12130952 -0.08197205 0.11811607 0.13002008
-0.025478914 0.15259255 -0.10351474 0.045599423 -0.14678337 -0.07140629 0.18393236 -0.06166432
0.19293503 -0.09555959 -0.13116549 -0.00801919 0.06983049 0.020603323 0.11252282 -0.18778925
0.026418416 0.040201467 0.14364854 -0.107567236 -0.0044513782 -0.0418804 -0.20233533 -0.012252233

conv1.bias f4 [64]
00000000: f87b d9bd 08e9 bbbd c6d3 d9bc 66d6 95b9
00000010: f252 953d 2a60 4abe 7f28 ef3d 3192 1ebe
00000020: 7786 c8bd 4e9e b23d 07c2 a7bd d9b8 ce3d
00000030: 29d1 f73c 0b6c 0d3e 26d9 84bd 79c1 d33b
00000040: 7660 f9b9 30a5 08bd 943e 41be eb9e f13d
00000050: 83ff b73d 5efa a0bd f4bf 58be 0ec8 b03d
00000060: 0839 153e 2c6f 3a3d 6e84 0cbe c79a 823d
00000070: 05d8 fe3c 0847 fa3c 5aad 043e 8a72 51be
00000080: 16b8 f2bc af13 8fbd 8598 ae3d 79ec d9bd
00000090: 8c75 b83d 8c2a 693d 2688 59bd a6bd e4bd
000000a0: ccbb 013a 983d 55be 3cb2 fa3b 0a22 433c
000000b0: 486a 373b 990d 933a 40b9 c4bd efdd 2f39
000000c0: 956d acbc 76a8 3d3c 19b5 96bd d4fe 4f3b
000000d0: ea42 ae3d 54c8 393d c377 e23d 0786 4a3d
000000e0: fc52 33bd afa7 653c ec7c c5bd 817d 8b3c
000000f0: 3eb4 14ba 3da5 e83d 994b 6db9 015b aebd
-0.10619348 -0.091753066 -0.02659024 -0.00028579234 0.07291211 -0.19763246 0.11677646 -0.15485455
-0.09791272 0.087216005 -0.08191305 0.10093851 0.030251103 0.13810746 -0.0648673 0.0064622727
-0.0004756485 -0.03336066 -0.18871528 0.11797889 0.08984282 -0.07860254 -0.21166974 0.086319074
0.14572537 0.045516178 -0.13722393 0.06377178 0.031108866 0.030551448 0.12956753 -0.2045385
-0.029628795 -0.06986176 0.085251845 -0.10640807 0.09006795 0.05692534 -0.053108357 -0.11168985
0.00049489434 -0.20824277 0.0076506417 0.011909971 0.0027986933 0.0011219262 -0.09605646 0.00016771977
-0.021048347 0.011575809 -0.073587604 0.0031737583 0.085088566 0.045357063 0.11057999 0.049444225
-0.043780312 0.01401703 -0.096429676 0.017027618 -0.000567261 0.11359642 -0.00022630244 -0.08513451

conv2.weight f4 [128, 64, 3, 3]
00000000: 5be8 0a3d edda 32bd 85f7 ecbc 229c a73c
00000010: 4e31 1abd 660a 66bd 5e03 1c3d 727b 223c
00000020: 9aa3 c1bb 26fb 41bd 0463 47bd bcf2 81bd
00000030: 5d50 c5bb 3e03 60bd 7ccc 08bd 2efe b3bc
00000040: e79a 3cbd 42a1 82bd 7423 c2bc 97f7 46bd
00000050: 26b0 d3bd 5c50 a53c efdd a4bc 49c9 ca3b
00000060: 2ac5 0f3d 310b afbc 7854 11bd acd0 a53d
00000070: a53b 823d 36ad c93d 600a c23d 6fe0 a63d
00000080: 4e02 c03d 566e 9a3d 954b 953c a85f a63d
00000090: ab05 473d e9db a03c 3cb9 a83c 18e7 953a
000000a0: a250 77ba a3d2 c03b c2c4 d0bc 4649 d3bc
000000b0: 305d 41bd 4370 84bc 3ecd 3fbd adbc 16bc
000000c0: 6a0b c6bc e5be e23c 3280 3b3c 044b 0abd
000000d0: e4df b2bc e1b6 55bc 764c c13b 7107 83bc
000000e0: 41e7 5a3d 22b1 413d af1d 9bbc 2ad1 4f3d
000000f0: 8256 143c 5030 33bc 7fc8 233d bd7c 693c
00000100: b0b4 a6bc 6b88 7dbd 0368 97bc 974e 723b
00000110: 2d92 4bbd 2e54 31bd fc9c 5fbc 3e20 47bd
00000120: 6e76 f8bc 180b 42bc f7f7 d4bc 039e a7bc
00000130: 7921 a6bb bf02 91bd 90f7 0cbd cc8d 8bbd
00000140: 327e bd3b fbbf 983c 86fd 35bd cabd a3bc
00000150: f7f6 12bd 813b 38bd c23d 453b 0315 933c
00000160: a010 2dbd b870 29bd d001 f73c 232f 14bd
00000170: c5dc 52bc d328 33bd bea9 25bd c17b 6a3c
00000180: cfde bdba eb83 bcba 62e6 b33b a44d 05bd
00000190: 3604 3abd f4c6 91bd 41d7 013c 4b8c ddbc
000001a0: cde5 a73a 8129 b1bc a6e9 9fbc 1cef 7ebc
000001b0: 7aaf 013d 329b c53c 776f 56bb e6dd 053d
000001c0: 38a6 7e3c dd55 efba 9e8c d43c 8bdd 443b
000001d0: 1469 d73c fe12 adbb 6de7 c53c 7b3c 2bbb
000001e0: 689e 183b 64a9 103c 5ec9 a1bc a10f f9bc
000001f0: b53b 48bd 078c 18bc 2e29 06bd 30db 4ebb
00000200: 2697 05bd 49b2 1c3c a307 833c c148 0c3d
00000210: ab7f 26bd f631 123d 3dd9 1bbc 5f72 753d
00000220: acb3 0a3d 606a c33c f576 883c cbfc 8c3d
00000230: 3eab ef3c e18a 0e3d f434 9dbc d3ae c73c
00000240: 7420 96bd d45e 9ebd 66ac 26be 13f3 c9bd
00000250: 003f c3bd 21ac e9bd b227 70bd 7d6e 0ebe
00000260: f302 0dbe 1910 f4bd 0c41 34bd 324b bfbd
00000270: 648f aabd a1e3 8fbd 4d1a 57bd 62f5 60bd
00000280: 3ec1 a4bc bd51 993d 3e17 28bd 3d4f fcbb
00000290: 77bb 1ebd aecc dabc 7dbf ed3c d4d2 c9bb
000002a0: 892d 11ba cf29 f63c c5bb 98bc 8412 403d
000002b0: 8bde 013d da89 7cbc 6e03 313d 2ae9 0bbd
000002c0: b477 f6bc 7ca4 8d3c f773 8b3b 37be be3b
000002d0: 162c bcbc 5467 0b3c eed9 cbbc 7583 49bb
000002e0: 5779 783c fdb8 0cba eb98 25bd b319 e9bc
000002f0: 69a8 93bd da64 8bbb c631 593d dfe1 0d3d
00000300: 0c2f 4c3c bd12 933b 5e59 133d 0cfb 083d
00000310: f720 bc3c 7073 343d 6e9f cf3c 487f b43c
00000320: def7 093d 0f01 24bd 0545 aabb 14fb e93b
00000330: 1508 c1bc 9aba c6bc 10f6 22bc c0ba 02bd
00000340: 1c40 5cbc 483e c43a a765 0d3d 8389 0a3d
00000350: 4cfd d4bc d517 e63b dcae 14bc a0fe 263d
00000360: 84b1 a43c fc58 3cba 2ad7 143d f941 8fbc
00000370: a98c 803c a350 89bc 4525 97bb fe89 08bb
00000380: fcae 5cbd 08af f93c a58b 8dbc 0e2f 0a3d
00000390: 5350 a7bb 77e3 b33c 75dc 773c 5748 e63c
000003a0: 2e66 87bb 2bb6 be3c 0e7a cabb 28fa 8fbc
000003b0: cb5c 1dbd ea2e 4fbd 180d 39bc bea2 bfba
000003c0: 0fae 443c ecf5 5cbc d1c9 28bd 1fc1 30bd
000003d0: 42c1 3dbd 7904 0e3d b594 a03c 7ca5 b83c
000003e0: 96d8 6fbc 84ad 5abd 8d34 b2bc 12df 57bb
000003f0: e4a6 09bd c145 d53c f34e 7f3c 5b3b cb3c
0.033912998 -0.043665815 -0.02892662 0.020460192 -0.037644677 -0.05616226 0.03808915 0.009917127
-0.0059093954 -0.047358654 -0.048678413 -0.06345126 -0.006021543 -0.054690592 -0.033398136 -0.021971788
-0.046046164 -0.06378414 -0.023698546 -0.048575964 -0.10336332 0.02017992 -0.020125357 0.006188546
0.03510014 -0.021367641 -0.035480946 0.080964416 0.063590325 0.098474905 0.09474635 0.08148276
0.093754396 0.07540576 0.018224517 0.08123714 0.04858939 0.019636111 0.02059614 0.0011436669
-0.00094343175 0.005884485 -0.025484446 -0.025791775 -0.04720801 -0.016166812 -0.046826594 -0.009200257
-0.024175365 0.027678916 0.011444138 -0.033762947 -0.021835275 -0.01304409 0.0058990074 -0.01599476
0.053443197 0.047288068 -0.018935053 0.050736584 0.009053828 -0.010936812 0.03998613 0.014250931
-0.02034983 -0.061897676 -0.018482214 0.0036973113 -0.04969995 -0.04329317 -0.013648268 -0.048614733
-0.03032991 -0.011843465 -0.025997145 -0.020461088 -0.005069908 -0.07080602 -0.03441578 -0.06814155
0.005782866 0.01864623 -0.044431232 -0.01998796 -0.035880055 -0.044978622 0.0030096625 0.017954355
-0.042252183 -0.041367263 0.030152231 -0.036177766 -0.012870018 -0.043740105 -0.040445082 0.014311732
-0.0014485958 -0.0014382576 0.0054901103 -0.032544747 -0.045414172 -0.071180254 0.007924856 -0.027044436
0.0012809575 -0.021626236 -0.019520592 -0.015559938 0.031661488 0.024121854 -0.0032720247 0.032682322
0.015542559 -0.0018259842 0.025945958 0.0030039276 0.026295222 -0.005281805 0.024158204 -0.0026128578
0.0023287777 0.008829448 -0.01974934 -0.03040296 -0.048885066 -0.009310729 -0.032754116 -0.0031563751
-0.03261485 0.009563991 0.015994852 0.03424907 -0.040649097 0.035692178 -0.009512243 0.059923526
0.033862755 0.023854434 0.016658286 0.06884154 0.02925646 0.034800414 -0.01919029 0.024375355
-0.07330409 -0.07732931 -0.16276702 -0.09860816 -0.09533501 -0.11409784 -0.058631606 -0.13909335
-0.13770656 -0.11917133 -0.044007346 -0.09340514 -0.08328131 -0.07025839 -0.052515317 -0.054921515
-0.020111676 0.074862935 -0.04103779 -0.0076998756 -0.038753 -0.026708927 0.029021973 -0.006159166
-0.00055380963 0.030049233 -0.018644223 0.046892658 0.031706374 -0.015413726 0.04321616 -0.03415791
-0.030086376 0.017290346 0.0042557674 0.005821015 -0.02297024 0.008508522 -0.02488419 -0.003074852
0.015165648 -0.00053681416 -0.040429037 -0.028454637 -0.07209856 -0.004253966 0.053025983 0.034639236
0.012462389 0.0044883178 0.0359739 0.033442542 0.022964938 0.044055402 0.025344577 0.022033349
0.03368365 -0.040040072 -0.005196216 0.0071405265 -0.023563424 -0.0242589 -0.009946361 -0.03191638
-0.013443019 0.0014972175 0.03452077 0.033822548 -0.025999688 0.007021884 -0.009074893 0.040770173
0.020104177 -0.00071848906 0.03633801 -0.017487513 0.015692072 -0.016762083 -0.004612597 -0.0020834203
-0.053877816 0.03047897 -0.017278502 0.03373628 -0.005106011 0.02195905 0.015128245 0.028110666
-0.004132054 0.023280224 -0.006179101 -0.017575338 -0.038418572 -0.05058185 -0.011294626 -0.0014620645
0.012004389 -0.013486367 -0.041208092 -0.043152925 -0.046326883 0.034672234 0.019602159 0.022539847
-0.01463904 -0.053388134 -0.021753574 -0.0032939357 -0.033606425 0.026034238 0.015582788 0.024808576

conv2.bias f4 [128]
00000000: 189e 043d 48bd 8e3c 5462 723c 53cf 1b3d
00000010: 3c12 9e3c 41ae 23bd e1b7 8f3b 49cd 983c
00000020: bcc0 71bc 7409 283d aaf8 3bbd 5462 0abd
00000030: 4649 9b3c adea 76bc 0f82 b53c b5d4 1e3d
00000040: 439e 163d ae6a 26bd 45a7 91bc 6e3e 0cbd
00000050: 870f 083c ab89 a73c 52c6 cabc 96ba 683c
00000060: 3a1c 0d3d 9a95 1b3c 528b 25bd 5d73 0fbc
00000070: 14b9 e13b 6d12 1e3d 86e2 8e3d e6c1 d7bc
00000080: c0fb aebb a0d0 453d 62ad 2bbc 0029 80bc
00000090: 7323 07bd 8113 20bc c423 353c 9c9c 99bc
000000a0: 824a 053d 26e7 bb3c f686 143d 733a f7bb
000000b0: 90ec ef3c b495 7f3a 7c15 ddba 4dd3 c83c
000000c0: df9f 45bc c284 bc3c ed4a 053d c4e8 03bc
000000d0: 3349 a2bc 59b5 f2bb 5501 ac3c a5fc 54bd
000000e0: e613 fa3c 1c5d 163d bf7f 42bd 71aa 103d
000000f0: 222f 013d c865 0ebd b28f 45bb 4b2f 08bc
00000100: e66c 9fbc 41ac 3abd b7a3 a93c 0288 bdbc
00000110: a695 cd3c 331b 31bd 1bb3 80bb b113 b1bc
00000120: 7dca 143c 7ee1 233d fd6c e4bc 3ca9 36bd
00000130: 8a9b 0dbd 6eb4 453d d0c6 b83c 77f2 b2bc
00000140: e132 303d 8d82 17bd 5249 76bc 21fa 833d
00000150: 4db6 b1bc 937f 053d 834d 0f3d ce35 223b
00000160: 3eec 543a 0c9b a1bc b5f6 e3bb f75b 5b3d
00000170: c994 7bbb 4de8 c13c 2581 88ba 48db 07bd
00000180: 8809 9dbc 9b59 1ebd 1034 ff39 d59d 17bd
00000190: 8741 d4bc f40d c1bc 5f9d c9bc f0fc 3cbd
000001a0: b1ac 57bc 687d 0f3d bc88 5abc 5f41 33bc
000001b0: c3ce 043d 18eb 9c3b 083b 1e3c cf62 0f3c
000001c0: 4733 b3bb f6c3 15bd 7eba 0abd b0f0 3a3c
000001d0: e6e6 22bd 3bf8 4ebd 4e46 763c 0d5f 0dbd
000001e0: c7b8 b73b dc84 fd3c 1744 7339 a560 16bd
000001f0: 3379 0dbd b4a1 9d3c ca99 88bc 6ed2 15bc
0.032377332 0.01742424 0.014793951 0.038039517 0.019295804 -0.039961103 0.0043859337 0.018652575
-0.014755424 0.04102464 -0.04589144 -0.03378518 0.018955838 -0.0150705995 0.022156743 0.038777072
0.036772024 -0.04062908 -0.017779956 -0.034239225 0.008304483 0.020451387 -0.02475277 0.014204642
0.034450747 0.009496117 -0.04041607 -0.008755532 0.006888518 0.03859179 0.069768 -0.026337575
-0.0053400695 0.048294663 -0.010478349 -0.01564455 -0.03299279 -0.009770275 0.0110558905 -0.018751435
0.03254176 0.022937369 0.03626152 -0.0075448095 0.029287606 0.00097497855 -0.0016867365 0.024514819
-0.012062042 0.023012523 0.032542158 -0.008051101 -0.019810295 -0.007406872 0.020996729 -0.051998753
0.030527066 0.03670989 -0.04748511 0.035318796 0.03153909 -0.034765035 -0.0030145464 -0.008312057
-0.019461107 -0.04557443 0.020707948 -0.023136143 0.025095772 -0.04323883 -0.003927601 -0.021615835
0.00908148 0.040009968 -0.027884 -0.04459499 -0.03457216 0.048267774 0.022555739 -0.021844132
0.043017272 -0.036989737 -0.015032129 0.06444193 -0.021693373 0.032592367 0.03498603 0.0024751308
0.0008122361 -0.019727252 -0.0069569 0.0535545 -0.0038388243 0.02367034 -0.0010414465 -0.033168107
-0.019169584 -0.038659673 0.0004867618 -0.037015755 -0.025910152 -0.023566224 -0.024611173 -0.046139657
-0.013163731 0.035031706 -0.013338264 -0.010940879 0.032423746 0.0047887675 0.009657629 0.008751585
-0.005468759 -0.036563836 -0.03386926 0.011409923 -0.039770983 -0.0505297 0.01503141 -0.034514476
0.005606744 0.030947141 0.00023199651 -0.03671326 -0.034539413 0.019242145 -0.016674895 -0.009144409

deconv1.weight f4 [128, 64, 3, 3]
00000000: 4e66 a1bd 0026 a4bc a918 97bd 2fb5 80bd
00000010: d105 983c 130d 6abd 14fe 23bd 15ac 21bd
00000020: e9ac 09bd 5ccb 8d3c f668 b53a 1050 743d
00000030: c219 683c c7ed db3b bdc6 043d ecb2 fd3b
00000040: a861 d9bc b6cc 7abc 7a4e acbc 6b37 6fbd
00000050: f54b 853c d999 983a 8a39 d7bc 152a 8ebc
00000060: 0db1 ee3c 643e debc c0db 833c 9df2 453c
00000070: 3368 4abb 9d6e 1abd 0fde 2c3c e2ff 49bc
00000080: 72c3 77bd b10a 4fbd 9a8b cbbc ba0e 0abd
00000090: 1a02 8f3b fc9a 963c 30d4 03bd 8e7a f7bc
000000a0: dcb5 3a3d 6b2d c43c 30f2 623c dab7 0c3d
000000b0: 5ef6 5b3d 5976 38bc 8724 53bd a22a 89bd
000000c0: b8c5 283b c1ea 33bd 2348 74bd 25f8 94bb
000000d0: 8a14 dbbb fab4 5abc f24f 89bd b718 ccbd
000000e0: 92af f9bd dc17 d1bd 1802 53bd 74ca babd
000000f0: 9b53 e9bd 983f b1bc 3cee f6bd d897 fc3c
00000100: 18ec f73c a7cf 7a3d 6061 2d3c c816 0e3d
00000110: d864 6b3d fac2 683d 6096 aa3c 0ec9 193b
00000120: 431a af3c 1bcf 80bb 8d94 b3bc 642c 37bd
00000130: ab94 403c 7791 b93b a547 7cbd c082 b43b
00000140: 9858 82bd 34ed 7abd ceb0 183d ae50 2d3d
00000150: f50d 29bd cdf1 ce3c 47b3 f83c 8e9b 77bd
00000160: fac7 253b faba f33c d9f7 89bd 4726 2abd
00000170: b1d9 46bd 1740 9abd 8767 bbbb f2dc 6fbc
00000180: 8468 82bd 1ba4 c0bc ef8c 1ebd ba47 9dbd
00000190: 977b eabb 8aee 2abd bb71 8abd 0491 8cbc
000001a0: 565f 87bd 4f36 82b8 3511 5c3c c6f4 75bd
000001b0: e48c 433d 426e 03bc 6d25 453c e61d 47bc
000001c0: 98e1 0b3d a3d6 2c3c 17cc bb3c 1d71 5c3d
000001d0: 7215 5f3d c726 3b3c 42ee a9bc 8501 e2bc
000001e0: d792 193d 12ab c33c 0520 41bd 5870 b2bc
000001f0: 2fe9 1dbd 66cb 2b3c 4d0a 773b d2fb 8abd
00000200: 0e26 8ebc 209e 783c 2257 67bc a48c febc
00000210: e89c 12bd 4f1d bf3c 0391 70bd 0cf8 bd3c
00000220: 895f 5bbd bf78 a23c 8539 e5bc 7baa 81bd
00000230: 8377 963c e50b a8bb 5b5c 0fbb bd8d 8abd
00000240: a875 7b3d f15c 2b3d 4043 1b3d f1a4 02bc
00000250: 672d 6ebc a661 24bd 7bee f6bb 6504 d13a
00000260: 73ee 52bd 5c9b 213c f469 1fbd 5dff 1ebd
00000270: 11b6 bcbb baaf 21bd d5ca ca3c 33d3 13bd
00000280: 9c92 07bd 7301 9bbc 7e61 a9bb 95d8 0abd
00000290: dc32 debc c686 b23c 9e64 203d 5724 0b3c
000002a0: da8a 503d 1e90 be3c 4ef7 f93c d9d0 163c
000002b0: 3cda 3c3c 6116 6a3c 118b 4fbc f509 943c
000002c0: 9fee 15bc 095f b4bc 6f89 7ebb 98cb 0abd
000002d0: d40c 343d 8dfe 6d3b 0ca3 05bd a9c4 383c
000002e0: bbde 23bd f63d 32bc 4a85 743c 1037 c9bc
000002f0: 5245 58bd 7805 04bc a86f bebc f19f 0bbd
00000300: 1dd7 b03a 36fe 33bc af9f 20bc fe43 553d
00000310: 2fc3 30bd 686d 22bd 17f4 0abd eec9 86bd
00000320: 3fe4 82bd e67b 69bd 4a50 10bd c282 29bd
00000330: 4fbf 6fbd c0f3 ec3c 33c4 33bd 2193 a33c
00000340: e4d9 943c 85e2 eb3c 0061 cbbb fed4 e4bc
00000350: b37c c83c 9c8b 4d3c dad8 02bd f1a7 b6bc
00000360: e893 653d 51f2 373d 3335 d8bc 66ab efbb
00000370: 811a 2c3c 49c7 0d3d e705 ac3b 8e3c a83c
00000380: 41d2 65bc f3fc 263c 831e 933c 3bfa e33a
00000390: f12e e03c 02b7 9fbc 9a52 373d 65e7 debc
000003a0: 945c e1ba 9b10 97bc accc 903d 181b abb9
000003b0: cd59 5c3d f70d 693d 784f d1bc d5a9 89bc
000003c0: 2576 1f3d 06d8 f7bc 3cfc 67bc 3282 26bd
000003d0: 9ff1 03bd df34 9fbc 65c0 83bd cfdd 41bc
000003e0: 621f b6bc 6732 e8bb 1525 503c f4c3 8dbc
000003f0: d937 debc 439e af3c dd1c 43bc 45e7 77bd
-0.07880841 -0.020037651 -0.073777504 -0.06284558 0.018557461 -0.057141375 -0.04003723 -0.03947075
-0.033612166 0.017308883 0.0013840485 0.059646666 0.014166297 0.006711695 0.032416094 0.0077422764
-0.026535824 -0.015307596 -0.021033514 -0.05840246 0.01627157 0.001164253 -0.026272554 -0.01735405
0.029137159 -0.02712936 0.016095996 0.012081769 -0.0030884861 -0.037703145 0.01055099 -0.012329074
-0.060489126 -0.050547305 -0.02484684 -0.03370545 0.004364264 0.01838445 -0.03218478 -0.030209806
0.04558359 0.023947438 0.013851687 0.034355022 0.05370175 -0.011258685 -0.051548507 -0.06697585
0.0025752615 -0.04392505 -0.059639107 -0.0045461827 -0.006685798 -0.013348812 -0.067047015 -0.099656515
-0.121916905 -0.10209629 -0.05151567 -0.09120646 -0.113928996 -0.02163677 -0.12057158 0.030834123
0.030263945 0.06123319 0.010582298 0.034689695 0.05746922 0.05682657 0.020823658 0.0023465785
0.021374827 -0.003930939 -0.02192142 -0.04472007 0.011754195 0.0056630927 -0.061591763 0.0055087507
-0.06364554 -0.06126137 0.03727799 0.04231327 -0.041273076 0.025261784 0.030358924 -0.060451083
0.0025296197 0.029752243 -0.06736726 -0.04154041 -0.04854745 -0.075317554 -0.0057191285 -0.01464008
-0.06367591 -0.023515752 -0.038708623 -0.076796964 -0.0071558463 -0.041731395 -0.067599736 -0.017158993
-0.06609981 -6.208999e-05 0.013431837 -0.060047887 0.047741786 -0.008021893 0.012032849 -0.012153124
0.03415069 0.01054922 0.022924466 0.05381881 0.05446381 0.011422819 -0.020743493 -0.027588615
0.037493553 0.023885284 -0.047149677 -0.021782085 -0.03855246 0.010485506 0.0037695349 -0.06786312
-0.01735213 0.015174419 -0.014119895 -0.031072922 -0.03579417 0.023329405 -0.058732044 0.023189567
-0.053557906 0.019832967 -0.027981529 -0.06331345 0.018367535 -0.005128371 -0.0021875117 -0.06765316
0.061391503 0.041836683 0.03790593 -0.007973895 -0.014537192 -0.040132187 -0.0075357533 0.0015946744
-0.051496934 0.009863701 -0.038919404 -0.038817752 -0.0057590087 -0.039474227 0.024754921 -0.036090087
-0.033098802 -0.01892159 -0.0051690927 -0.033897955 -0.027123861 0.02179278 0.039158456 0.008492551
0.05091367 0.02326208 0.030513432 0.009205067 0.0115266405 0.014287562 -0.012667433 0.018071154
-0.00915113 -0.022017973 -0.003883924 -0.03388557 0.043957546 0.0036315054 -0.032626197 0.011277356
-0.040007334 -0.01087903 0.014924357 -0.024562389 -0.052800484 -0.0080579445 -0.023246601 -0.03408808
0.0013491843 -0.010985902 -0.009803697 0.052066796 -0.04315489 -0.03965512 -0.03392419 -0.06581484
-0.06391191 -0.057002924 -0.03523282 -0.041384466 -0.058532055 0.028924823 -0.043888282 0.019967617
0.018170305 0.028794536 -0.0062066317 -0.027933594 0.024473524 0.0125454925 -0.031945087 -0.022296878
0.056049258 0.044908825 -0.026392555 -0.0073141335 0.010504366 0.03461388 0.005249727 0.020536687
-0.014027179 0.010192144 0.017958885 0.00173933 0.027366133 -0.019496445 0.04475651 -0.027209947
-0.0017193728 -0.018440535 0.07070288 -0.00032635848 0.05379658 0.056898084 -0.025550589 -0.016804615
0.03893103 -0.030254375 -0.014159258 -0.040651508 -0.03221285 -0.01943439 -0.06433181 -0.011832668
-0.022231761 -0.0070860866 0.012704154 -0.017305352 -0.02712624 0.02143777 -0.011908737 -0.06052329

deconv1.bias f4 [64]
00000000: 164d 47bb 09f7 70bd 3057 1c3d 3075 8a3c
00000010: 9129 373d a917 a43c a3ac 153d ba9c 0b3d
00000020: d65b 8eba 0457 a53d d991 973c 8dd1 743d
00000030: 88de 793d 310a 943d cf24 6a3d 384c 233b
00000040: 9154 743d ed73 e23b 2e7d 75bc be49 33bd
00000050: 4125 903c d6f8 353c bd99 413d e850 a63d
00000060: d5b1 20bd 4741 0c3d 2c2b 20bb ffcd 603d
00000070: 92b2 903d 0561 3b3b 16f4 cc3b 2898 9f3d
00000080: b97a 613d 3a61 5d3d c907 bc3c f7be 1e3d
00000090: d934 18bd 42c6 2d3d d4ad c43c 9e66 663d
000000a0: e198 463d 7962 723d be96 81bc a69a b1bc
000000b0: fa70 623d 12ea d43b 25a3 713c a0de 473b
000000c0: 1758 563b c07e 5cbc 860a aa3d 507a 733d
000000d0: d211 d6bb 6135 833d 277d b93c 789e cc3c
000000e0: cbf0 763c 7c37 143d 9987 833d 2347 11bd
000000f0: 98eb febc 3172 4dba 20c2 f43c 66c0 8b3d
-0.0030410937 -0.05882934 0.038169086 0.016901582 0.044717375 0.020030813 0.036541592 0.034085013
-0.001086111 0.080732375 0.018502163 0.059770156 0.061003238 0.07228506 0.05716401 0.0024917256
0.05965096 0.006910792 -0.014983458 -0.043771498 0.017595889 0.01110669 0.047265757 0.081209004
-0.039232094 0.03424194 -0.0024439795 0.054883953 0.070653096 0.0028591764 0.0062546832 0.077926934
0.055048678 0.0540478 0.022952931 0.038756337 -0.037159774 0.0424254 0.024008669 0.056250207
0.04848564 0.059175942 -0.01581895 -0.021680187 0.055283524 0.00649763 0.014748369 0.0030497685
0.0032706314 -0.013457954 0.083027884 0.05944282 -0.006532886 0.064066656 0.022642685 0.024977908
0.015072058 0.036185727 0.064223476 -0.035468232 -0.0311182 -0.0007837145 0.029877722 0.068238065

deconv2.weight f4 [64, 64, 3, 3]
00000000: ad27 203d ada5 ffbc 3928 0dbb 445c df3c
00000010: 8c64 bb3c bad1 983c 1a99 03bd 219c 54bc
00000020: 22c3 263c 9af7 86bb f23e 37bd 63f5 0cbc
00000030: d089 24bd 3400 67bd d1c6 40bd fb24 11bd
00000040: 5678 983b e911 a6bc 22e9 263d 201f 243d
00000050: f12c 2f3d 746f c73c e284 a1bc 3e41 df3b
00000060: 54b0 323d 304d df3c cf48 d0bc 8e27 a9bb
00000070: 07cb 27bc 6fe5 583d cfff 383d 5d27 9c3b
00000080: 9272 3a3d fdb5 633d 76ec 5ebc 3688 f93a
00000090: b331 d6bc bf90 363d d3aa 1bbb 6758 55bb
000000a0: 93e2 3f3d 20da 0d3d a604 a13b 1f8e 363d
000000b0: b26a 253d f903 513d c92a 4b3d b3fb d23c
000000c0: a194 bb3b 2207 093d 00c2 ccbb f45b 1e3d
000000d0: fcc6 1b3d 9280 413d 9020 7bbc f41c 283c
000000e0: 46a3 e2ba 9d1f 003d c647 72bc f0db 433c
000000f0: f3f6 6b3b 0f38 1f3c 5fd5 073c 44a3 bcbc
00000100: 2311 fcbc 74ac 04bd a46f 20bc 0245 983c
00000110: 0e85 ea3c 0a00 70bc 7ffb c83c d6b8 f13c
00000120: 3137 b33c e55c 4a3d 19aa 0f3d a9b7 f3bc
00000130: c376 1ebd 3996 343d 4078 ac3b 43d9 ba3c
00000140: 27d9 f1bb c801 cabc e088 afbc 61a7 213c
00000150: ab43 4cbc 1e59 803c 7685 04bd 564b bbbc
00000160: c52c 803c ecdd 733c 2933 e6b9 b4e6 21bd
00000170: ea34 c03c 46bd 273d 3e5c c7bc c160 283d
00000180: 1cf6 8a3c 9477 c83c fe4b c63c 7f9e c2bc
00000190: aaeb 333c d1f1 35bc 84a2 b73c 560d 163c
000001a0: ba5a 263d 24bc a1bc f9a7 463d bb32 033d
000001b0: 8ba4 293d bfae 103d dbd8 0a3d f868 8a3b
000001c0: 6efd 8dbc d4aa dbbc 743a 813c 6545 6ebb
000001d0: 014b 93bc 759a 2ebc 0e9d 0c3d 3f27 243c
000001e0: c6f0 ea3b f1d3 d3bc 89f7 4a3d d7c4 83bc
000001f0: b15a 563c b4d2 cdbc 33ae 3cbd b01c 29bd
00000200: e7b7 c93c 46b2 20bd 59f5 6fbc bc6e dfbb
00000210: 2216 163b 01df 823c 61fd d33c 2406 12bc
00000220: 42a4 98bc 733b a0bb 7362 393c ba63 533c
00000230: 0888 01bd 873b b8bb 2530 ff3b e794 fbbc
00000240: 202c 41bc b6fb 3eba c042 e9bc 2b24 183d
00000250: fd2b e4bc b5fb d03c 051c d93c 4644 c13c
00000260: 0d4d f03c f553 80bb b07b f8bc 9e3a 00bd
00000270: 4032 013d 1e3d 9fbc 5400 b13c c6de 283c
00000280: a3aa 8d3c 9361 913c 17d2 183d fd36 1abd
00000290: 3901 7d3b 5a25 a23c bc0e f73c 313a 1fbd
000002a0: 3bda d7bc 9497 f73c 5685 d4bc a9a6 4b3c
000002b0: cc99 433d e7c5 223d 05e3 f93c cc1c 4f3d
000002c0: 301d e43b 6896 a53c fc60 033d 8d79 723d
000002d0: 8f0b 623d 630f da3c 1aff 103d 8a6f 513d
000002e0: ad10 d53c abc3 8ebc 416a 9ebc 2b88 07bc
000002f0: ca6f 063c 05fc cdbc e5e1 973c 46da 133c
00000300: 8ac2 b5bc 6fa4 103b c1f1 0cb9 1533 263d
00000310: ac7c 973c 3a2b 99bc 0686 023c 9ac4 b23a
00000320: 5f1e d6bb ac49 573d 17f2 eb3c ea27 c53c
00000330: 3b94 c03c ebd6 87bc 4fa1 b43c d521 14bd
00000340: d700 723c 21ea b4ba d3f8 cfbc c4ce a6bc
00000350: 197e 433d 578d cb3c 93b1 2a3b de96 babc
00000360: 726d 393c 0b88 c9bc 7811 4abc 9866 23bd
00000370: 1f14 1abd 926e 03bd dbed 243c 58b8 d93c
00000380: 5bc3 4ebc bf87 183c 4a59 aebc f82c 103d
00000390: d8cb 413c 9b46 0a3d 2449 98bc 4ced f5bc
000003a0: 22ba 2a3d 1afe fa39 22c8 903c f394 05bd
000003b0: c022 20bd 2561 24bd 644f 69bc 1792 4cbd
000003c0: 0615 2cbd 2472 e63c 0072 18bd 6327 f93c
000003d0: 1b94 f43c 6f2a 0b3d a479 a83c 50f1 893c
000003e0: 14b0 e1bb 574c 6c3c 6f33 a33c e592 bdb7
000003f0: 1ff1 debc 4ad7 55bc bbf4 fabc 9b5c 42bd
0.039100338 -0.03120693 -0.0021538867 0.027265675 0.022875093 0.018654693 -0.03212843 -0.012976677
0.010178359 -0.004118872 -0.044737764 -0.008603427 -0.04017049 -0.056396678 -0.047064606 -0.035435658
0.004653017 -0.020272212 0.040749677 0.040068746 0.04276747 0.024345137 -0.019716684 0.0068131974
0.04362519 0.027258486 -0.025425343 -0.005162186 -0.010241277 0.05295318 0.045165833 0.0047654347
0.04551942 0.05559348 -0.013606181 0.0019037786 -0.026146745 0.044571634 -0.0023752942 -0.0032553913
0.046846937 0.03463185 0.004913884 0.04456913 0.040384956 0.05102918 0.04960135 0.025754785
0.005724505 0.033454068 -0.0062487125 0.038661912 0.038031563 0.047241755 -0.015327588 0.010260809
-0.0017291091 0.03128015 -0.01478762 0.011954293 0.0036005348 0.009717955 0.008290618 -0.02302707
-0.03076989 -0.032391027 -0.009792242 0.018587593 0.028627899 -0.014648447 0.024533985 0.029507082
0.021876903 0.049404997 0.035074327 -0.029750662 -0.03868748 0.044088576 0.0052633584 0.022808677
-0.007380623 -0.024659052 -0.021427572 0.009866566 -0.012467305 0.015667494 -0.03235384 -0.022863071
0.015646348 0.014884453 -0.00043907136 -0.039526656 0.023462731 0.04095199 -0.024335977 0.041107897
0.016963057 0.024471082 0.024206158 -0.023757217 0.01098148 -0.011105017 0.02241636 0.009158453
0.040613867 -0.019743033 0.048500035 0.032030802 0.041416686 0.0353229 0.033898216 0.004223939
-0.017332759 -0.026814856 0.015774943 -0.003635728 -0.0179801 -0.010656943 0.034329467 0.010019123
0.0071698157 -0.025857897 0.049552474 -0.016085071 0.013083146 -0.025124885 -0.046064567 -0.041287124
0.024623824 -0.039232515 -0.014645898 -0.0068186205 0.0022901376 0.015975477 0.025877656 -0.008912597
-0.018633012 -0.0048898994 0.011314976 0.012902195 -0.03162387 -0.0056223306 0.0077877217 -0.03071065
-0.011790305 -0.00072854327 -0.028474212 0.037143867 -0.027853006 0.025510648 0.026502619 0.023592126
0.029333616 -0.0039162585 -0.030332416 -0.0313059 0.031542063 -0.019438323 0.021606602 0.01030702
0.01729328 0.017746722 0.037309732 -0.037650097 0.0038605465 0.019793201 0.030158393 -0.038873855
-0.026349178 0.030223645 -0.025942486 0.012429872 0.047754094 0.039739516 0.03050376 0.050564572
0.0069614872 0.02021332 0.032074913 0.05919795 0.055186804 0.026618665 0.035399534 0.051131763
0.026008928 -0.017427286 -0.019337775 -0.008272211 0.0082053635 -0.025144586 0.018540332 0.009024208
-0.02218749 0.0022070666 -0.00013441501 0.04057606 0.018492065 -0.01869737 0.007966524 0.0013638914
-0.0065343822 0.052560493 0.02880196 0.024066884 0.023508182 -0.016581973 0.022049574 -0.036165077
0.014770708 -0.0013802686 -0.025387203 -0.020362265 0.047727678 0.02484767 0.0026045784 -0.022777017
0.011317598 -0.024601003 -0.012333266 -0.039892763 -0.037616845 -0.03208787 0.010066475 0.02657716
-0.012619819 0.009309708 -0.02128281 0.035199136 0.011828385 0.03375874 -0.018589564 -0.030020379
0.041681416 0.00047873036 0.017673556 -0.032612752 -0.03909564 -0.040131707 -0.01424012 -0.04994401
-0.042012237 0.028130598 -0.037218094 0.030414289 0.029855778 0.033976015 0.020565815 0.0168387
-0.006887445 0.014422498 0.019921986 -2.2598959e-05 -0.027214585 -0.013051817 -0.030634275 -0.047451597

deconv2.bias f4 [64]
00000000: 10f2 933c 35b1 aebd 225f c83c 3584 63bd
00000010: b4e5 06bd 82df febc 9748 793d c5e0 b93d
00000020: 8bc9 97bd 95f7 fe3d 3cb4 15bc 4e6a 8f3c
00000030: 9f5a 1b3d e930 75bd 491e 493d 8d8c 4b3d
00000040: b3e7 4bbd 9c25 d1bd da44 fe3c 285c f2bb
00000050: 8e6f d83d 7f1e 86bc da67 f6bd 9ce0 c03c
00000060: d2c1 663d 8953 2b3d 7cd5 4a3d 1f9b 5abc
00000070: 74f3 a43d 6ff1 0bbe e730 e23d f034 96bd
00000080: 6e8b e5bc 9014 05bd 9e0b 8a3d 21d3 0ebd
00000090: e712 873c 3c79 eabd fb9b 0cbd 9ff5 173c
000000a0: 079e 7c3d 926e ecbd b4b8 23bd 454d 173e
000000b0: 486b 93bd ae83 a33d 0505 443d 3e08 fcbd
000000c0: a0cf 09be 94f0 a43d 74a0 ddbd 940e c13d
000000d0: 67b6 d2bd f1cc bdbd 4872 ed3d 075b c33d
000000e0: 9fa1 08bd 2a3c a4bd a48f 31bb 4a7d 443d
000000f0: 363a 503d a0b0 61bb 5b85 483d a208 bd3c
0.01805976 -0.08529893 0.024459425 -0.055546004 -0.032933906 -0.031112436 0.060860243 0.090760745
-0.07411488 0.12449566 -0.0091372095 0.017506745 0.03792822 -0.059861097 0.049101148 0.049694587
-0.049781512 -0.102122515 0.03103869 -0.00739624 0.10568152 -0.016371964 -0.12031527 0.023544602
0.056337185 0.041827712 0.04952 -0.013342648 0.080542475 -0.13666318 0.11044484 -0.07334316
-0.028020587 -0.032490313 0.06740497 -0.034869317 0.016488506 -0.11448905 -0.034328442 0.009274869
0.061674144 -0.11544527 -0.03997107 0.1477557 -0.07198197 0.079841 0.04785635 -0.123062596
-0.13458109 0.08053699 -0.1082162 0.09426609 -0.10288697 -0.09267605 0.11594063 0.095388465
-0.03335726 -0.08019288 -0.0027093673 0.047971047 0.050836764 -0.0034437552 0.048955303 0.023075406
