contrastive_save/contrastive_weights_epoch_40.pt (torch, 749116 bytes, 8 tensors)

conv1.weight f4 [64, 3, 3, 3]
000000 80 dd 9b 3d 8a e2 d1 bd 5b 2d 16 3d f5 ad 8d 3d
       0.07610607 -0.10248287 0.036664348 0.06917945
000010 af f6 a7 3d 6a fe e5 bd f0 ab 10 3e 30 12 e2 bd
       0.08201348 -0.11230166 0.14128089 -0.11038625
000020 48 43 34 be 8f 8a ac 3d 19 68 10 be 5e 0b bb 3d
       -0.17603791 0.084248655 -0.1410221 0.091330275
000030 ed 72 1e be a5 0e 47 bd ee 43 4d 3e 23 ad 75 3d
       -0.15473528 -0.04859795 0.20045444 0.05997957
000040 5b bc f8 3d d6 3e 40 3e 3e 16 41 be 85 d0 48 bc
       0.12145301 0.1877397 -0.18856141 -0.012256746
000050 e6 f2 2d be 15 24 bd bc 61 a7 65 be b5 4d 42 bc
       -0.1698719 -0.023088494 -0.22427131 -0.011859347
000060 3e 11 82 bd 3f c1 05 be fc 2a e1 bd 3c 0e 08 be
       -0.06350945 -0.13061999 -0.10994527 -0.1328668
000070 13 21 20 bb 1c 5f 0a be c5 46 ec 3c 00 c4 ec 3c
       -0.0024433776 -0.13512844 0.02884234 0.028902054
000080 0f 12 ae 3c 9c 5d 23 be cf ac 22 3e 10 1a ff 3d
       0.021248845 -0.15953678 0.15886234 0.12456143
000090 e9 02 64 be eb 63 f8 3d 71 ff a9 3d 43 2e 6b bd
       -0.22266735 0.12128433 0.08300675 -0.057417165
0000a0 40 cc 19 bc 25 0c 39 be 76 0d 5f be 5d d1 68 be
       -0.009387076 -0.18071039 -0.21782479 -0.22736116
0000b0 4c f8 54 be 24 fa e6 3d 92 20 f4 bd 1e b8 54 3b
       -0.20797843 0.11278179 -0.11920275 0.0032458375
0000c0 0d 34 33 3e 70 fd 06 3e b3 ad 19 3e ac 32 19 be
       0.17500325 0.13182616 0.15007667 -0.14960736
0000d0 76 6c 0d 3d a9 36 2d 3e 92 69 31 be fb d3 49 3a
       0.034527265 0.16915382 -0.17325428 0.0007699129
0000e0 1b 5a b0 bd 11 e2 99 bd b6 7c a1 3b 86 86 98 bd
       -0.08610936 -0.07513822 0.004928197 -0.07447533
0000f0 fc 2d cf bd b9 91 a9 3d 67 b5 64 bd 98 f8 89 3b
       -0.10116193 0.082797475 -0.05583706 0.004210543
000100 1d 39 e1 3d 1b c7 5e 3d 32 b7 2b be 7d 06 3a 3e
       0.109972216 0.0543891 -0.16769102 0.18166538
000110 5f 0c 2d 3e 0d d9 36 3e 3a 1b 94 3c be 14 9c 3b
       0.1689925 0.17856236 0.018079389 0.004763215
000120 4e d2 c5 bd 4d d8 1b be f1 f2 28 bd 97 64 ee 3d
       -0.09659253 -0.15219231 -0.041247312 0.1164028
000130 83 15 f2 3d 80 19 c4 bc 8b 49 cd 3d 1f db 97 3c
       0.11820509 -0.02393794 0.10023793 0.018537102
000140 ad 57 c7 bb cf 83 4f be 91 52 2c bd 79 dd 32 3e
       -0.00608345 -0.20265125 -0.04207093 0.17467298
000150 85 08 a6 bc 4d 49 73 3b b0 0e c9 3d 61 34 36 be
       -0.020267734 0.0037122548 0.098172545 -0.17793418
000160 4a 77 2a 3e 79 a9 82 bc 0c bb 09 be 07 30 52 bb
       0.16647068 -0.015949951 -0.13450259 -0.0032072084
000170 5d f6 e1 3d 87 96 d2 bc 05 b8 04 be ae 0c a6 3d
       0.11033318 -0.025706543 -0.12960823 0.08107887
000180 8e 8d 00 bd 17 41 aa 3d 07 97 17 be 35 22 b0 3d
       -0.031384997 0.08313196 -0.14803706 0.086002745
000190 11 16 7d 3d ce 81 04 be 49 72 9d bd 5f 12 3b 3c
       0.061788622 -0.12940142 -0.07687814 0.011417954
0001a0 f5 ab 1c 3e 4f ac 31 be 1a 67 2e 3e e0 8d c1 bd
       0.15299971 -0.17350887 0.17031518 -0.09450889
0001b0 ed 41 49 b9 a1 5a 7a 3a 61 a5 19 3d 5c 90 be 3d
       -0.00019193413 0.0009550248 0.037511233 0.09304878
0001c0 37 e9 a5 bd ba 1a 25 be 35 1b c6 bd c8 1d 30 3d
       -0.08101123 -0.16123477 -0.09673158 0.04299715
0001d0 b2 b5 43 bd e4 ca f7 3c 33 08 bd bd 63 15 97 bd
       -0.0477807 0.030248113 -0.092300795 -0.07377126
0001e0 77 07 67 3e 83 b8 04 3e c6 2d 44 3e d8 37 0b be
       0.22561441 0.1296101 0.19158086 -0.13595521
0001f0 90 30 1d bd 55 c7 a0 bd 7d 44 b4 bd c2 2a 44 bd
       -0.03837639 -0.078505196 -0.088021256 -0.04789234
000200 4a d3 33 bd 20 c6 2d be cd c2 19 bd 01 09 a7 3d
       -0.043902673 -0.1697011 -0.037539292 0.08156014
000210 de 7e 04 3e 9e c2 5d 3d 25 1d d5 bc 12 94 fd bc
       0.12939021 0.05414068 -0.026014874 -0.030954394
000220 9e c5 1f 3e 6e b9 24 be f9 aa ad 3d bf d9 e5 bd
       0.15602729 -0.16086361 0.08479876 -0.112231724
000230 b0 c7 59 be 76 44 16 3e 07 ef 72 3d a2 57 84 3d
       -0.21267581 0.14674553 0.059309985 0.06462027
000240 e4 08 41 be 22 af c8 3d b2 21 f5 3d eb aa 2f 3e
       -0.18851048 0.09799029 0.119693175 0.17155044
000250 fc e3 e7 3d 1e 46 5f be 50 fa ae bd 3d 23 34 be
       0.113227814 -0.21804091 -0.08543837 -0.17591567
000260 f4 ee 42 3c 3a 2c b3 3c d9 9c f3 bc 35 fa ce 3d
       0.011897791 0.021871675 -0.029737877 0.10106317
000270 61 5d 3c be b0 e1 82 3d 9a e4 ee bc bf 48 32 3e
       -0.18394996 0.06390703 -0.02916174 0.17410563
000280 f7 b6 00 3e 4b 80 f2 bd 0b 50 9a bd 66 8b da 3d
       0.12569796 -0.11840876 -0.07534798 0.106711194
000290 f5 f7 77 bd d6 04 9f 3b 50 5a 38 3e 62 30 c9 bd
       -0.060539205 0.0048528714 0.18003201 -0.098236814
0002a0 a4 97 30 3c 7e 67 5f 3d 63 29 fd bd 0e 6c 31 3d
       0.010778341 0.054542057 -0.123614095 0.04331594
0002b0 51 dd 08 bd dc 13 16 3c 34 05 42 3d 7d 63 0a 3d
       -0.03341419 0.009160008 0.047368243 0.033786286
0002c0 c2 13 21 be 36 f5 1c be cf a8 e1 3b 7a d5 12 be
       -0.15730193 -0.15327916 0.0068865786 -0.14339247
0002d0 e9 23 a1 3c fb 7d c4 bd 78 39 4e be c7 7a 06 bd
       0.019670444 -0.09594341 -0.2013911 -0.032831933
0002e0 da f1 d0 bd b9 c8 67 be 70 a4 38 3d 92 12 65 bb
       -0.102023795 -0.22635163 0.045078695 -0.0034953696
0002f0 9b a9 ac 3d 55 c5 45 be 48 f1 4a be eb a8 61 be
       0.08430787 -0.19313557 -0.19818604 -0.22037093
000300 ab 07 05 be ea d0 5a be dc 3c 65 b9 58 fc 8d bc
       -0.12991206 -0.21368757 -0.00021861814 -0.017332241
000310 5f 49 84 be f7 0e c1 bd 67 8e 78 bd bc 85 a8 bc
       -0.25837228 -0.094266824 -0.06068268 -0.020571582
000320 90 e5 c5 3d c0 b4 4b 3e 29 ce 94 bd b4 40 27 be
       0.09662926 0.1989317 -0.072658844 -0.16333276
000330 d9 2b 9b 3c 46 9b c7 3d 55 ae 57 bd c7 d6 ba bd
       0.018941807 0.09746413 -0.05265649 -0.09122997
000340 3c de c1 3d 84 dc 6b 3d 4c 0e 49 3e 7d 5a c7 3c
       0.09466216 0.057583347 0.1963436 0.02433514
000350 d5 67 8b 3d f6 20 01 3d de d2 b3 bd 03 29 61 bd
       0.06806914 0.031525575 -0.08780454 -0.054970752
000360 2a 2b 13 be b8 23 26 3e 9a 1b c3 bd 7d 1f ac bd
       -0.14371935 0.16224563 -0.09526749 -0.084044434
000370 c7 47 27 be 97 fb 39 3e 2e cb 03 be 50 ae 4f be
       -0.16335975 0.1816238 -0.12870476 -0.20281339
000380 e0 ae ac 3d 35 a8 2a 3d c6 9c 10 3e 19 80 eb 3d
       0.08431792 0.04166432 0.14122304 0.11499042
000390 60 c1 c6 3d d6 3d 10 be 55 ba 18 3e c5 4a b3 3d
       0.09704852 -0.14086089 0.1491483 0.087544955
0003a0 7f ed c7 3d 61 f5 22 be 7e 5c 22 3e 52 49 d7 3d
       0.09762096 -0.15913917 0.15855595 0.105120316
0003b0 4d d9 57 3d 58 32 ec bd a3 04 af 3c ea 57 1f 3d
       0.05269747 -0.1153304 0.021364516 0.0389022
0003c0 0a ec 74 3d 26 df f1 bd fc 9f 4e be c3 1f a4 bd
       0.059795417 -0.1181014 -0.20178217 -0.080138706
0003d0 66 d7 34 be b2 40 33 bc 75 b1 40 be c7 c8 bd 3d
       -0.17660293 -0.0109407175 -0.18817694 0.09266811
0003e0 14 15 01 be 0f 21 3e be 32 dc ce bd 04 38 13 be
       -0.12605697 -0.18567298 -0.10100593 -0.14376837
0003f0 d2 f1 89 bd 02 3a 5f be 30 bc 87 bd b1 4b 88 bc
       -0.06735577 -0.21799472 -0.06627691 -0.016637655

conv1.bias f4 [64]
000000 56 e6 69 3d 43 e2 85 bc e6 5c 92 bd 6a 26 77 3d
       0.05710443 -0.016343242 -0.07146625 0.06033937
000010 a3 3c 9f ba 05 9f 32 bd f4 5c ec bd 7a 27 80 3c
       -0.0012148808 -0.043608684 -0.11541167 0.015643824
000020 0a d6 5b bd 22 15 5b 3d e4 16 e0 bd 3e 54 a2 bd
       -0.05367092 0.05348695 -0.10941866 -0.07926224
000030 71 42 c2 3c 98 f4 d6 3d 92 43 38 3d da 31 9c 3d
       0.023713322 0.10495871 0.044986315 0.07626696
000040 b7 23 01 bd a6 ec 81 ba 36 40 cb bd 7d 22 a6 ba
       -0.0315282 -0.0009912446 -0.09924357 -0.0012675073
000050 b7 cc 28 3d e3 ac a0 bd 94 ed c5 3d d5 27 c6 bd
       0.041210856 -0.078454755 0.09664455 -0.09675566
000060 25 cb 47 bd dc 27 c8 3d d6 f5 2f be 20 de 0c bc
       -0.048777718 0.097732276 -0.17183623 -0.008597881
000070 55 5e 21 3b c3 16 0b 3e bb e0 34 3a 8a 73 04 be
       0.0024622877 0.13582902 0.00068999425 -0.129347
000080 fe 5f fd bd aa 60 de bd e2 ec 52 be 29 97 e7 bd
       -0.12371825 -0.10858281 -0.20598176 -0.113081284
000090 57 76 1f bc d7 72 b8 3d 35 b8 9f bd 16 fb 37 3e
       -0.009732804 0.09006279 -0.077988066 0.17966875
0000a0 37 35 08 bb ff 25 a9 3a 5d 43 d0 bd 19 d4 a2 3d
       -0.0020783672 0.0012905 -0.101690985 0.07950611
0000b0 86 4a 27 be 8c 13 00 be 79 3a fe bd da 41 8e bd
       -0.16337022 -0.12507457 -0.124134965 -0.06946154
0000c0 36 86 42 3c 72 12 fc 3c c9 57 04 bd 59 31 57 3d
       0.011872819 0.030770514 -0.03231028 0.052537296
0000d0 0d 2f fb 3d 5c 73 90 3b fc 88 3c 3d e5 e6 a4 bd
       0.122648336 0.004408283 0.046029076 -0.08051852
0000e0 e5 72 6f bc 46 9d 44 ba e5 63 fb 3c 8d 81 48 bd
       -0.014614795 -0.0007500242 0.030687282 -0.048951674
0000f0 23 28 69 3d b4 af 59 3d 67 e1 02 3b 19 b6 33 3c
       0.056923043 0.05314608 0.0019970776 0.010968708

conv2.weight f4 [128, 64, 3, 3]
000000 42 4e f3 bb 38 34 bf 3c 0a 88 bf 3c cb 7d 43 bd
       -0.0074251005 0.02334033 0.023380298 -0.047727387
000010 2f 3b e3 3c 74 2d af bc 1a ce e4 bb 73 07 19 bd
       0.027738182 -0.021383978 -0.006982577 -0.03736062
000020 5a 68 1e 3a 6d 35 2c 3c 46 39 ff bc e0 94 d4 bc
       0.0006042771 0.010510785 -0.03115524 -0.025949895
000030 54 08 57 bd f5 cc 1f bd ae d9 46 bd f9 c3 12 3a
       -0.052498177 -0.03901382 -0.04854744 0.000559866
000040 93 e3 4d bd bd 40 e7 3c d2 81 94 bc e1 92 62 bc
       -0.05026586 0.028229112 -0.01812831 -0.013828964
000050 bb ff 12 ba 5c 72 2a 3c 74 21 31 3d 49 3c d4 3c
       -0.0005607565 0.010403242 0.043244794 0.025907652
000060 49 a9 c2 bb d5 80 38 3d c9 7e 4c bb af e0 94 bc
       -0.0059405905 0.04504474 -0.00312035 -0.018173544
000070 7e d8 f6 3b db 21 74 3c 08 b6 0c 3d 15 62 df bc
       0.007533132 0.01490065 0.034353286 -0.027268449
000080 1d 60 c3 3b 6d b0 b8 3c 11 df 0c 3d ee 84 8a bc
       0.0059623853 0.022545064 0.03439242 -0.016909089
000090 b0 b0 59 3d 5b 59 aa 3c fd 85 4d 3d 17 92 c2 3d
       0.053147018 0.020794561 0.05017661 0.09500521
0000a0 6e af 38 3d a4 99 d4 3d 35 ef 82 3d b9 13 e7 3c
       0.045089178 0.10380867 0.06393281 0.028207647
0000b0 33 6c cb 3d 6d 96 0e 3d 9f 34 1c 3d 12 bc 49 3b
       0.09932747 0.034811426 0.03813612 0.0030782265
0000c0 26 75 94 3c ef 93 13 3b 69 fb 04 3d 1e 46 24 bd
       0.018122267 0.0022518595 0.032466326 -0.04010593
0000d0 d3 a7 2e bd 67 c7 82 3c 1d 03 18 3d 8a 08 a8 bd
       -0.04264052 0.015964223 0.037112344 -0.08204754
0000e0 02 94 b4 bd 03 9c 19 bd e3 58 81 bc 5c c4 a3 bd
       -0.08817293 -0.0375023 -0.015789455 -0.07996437
0000f0 bd 38 1e bd de a9 1b 3c 57 1f 86 bd e5 50 16 3c
       -0.03862833 0.009500949 -0.06548946 0.00917456
000100 91 4c f6 ba 75 9d 62 3c f5 b0 6c bc e4 1d 48 bd
       -0.0018791129 0.013831486 -0.014446487 -0.04885663
000110 26 d2 40 bd a4 64 b5 3b 5d 2b 5d bd 65 15 3d bd
       -0.047075413 0.005535679 -0.053996433 -0.04616298
000120 45 f1 e7 bc c3 64 90 bc 2e b1 f8 ba d0 a9 25 3d
       -0.028313288 -0.017626172 -0.0018973702 0.04044515
000130 37 c3 17 3d a5 dd fe 3b 9b e9 77 bc c7 ea d4 bc
       0.037051406 0.007777887 -0.0151313795 -0.025990857
000140 0e 77 39 3c c5 e3 59 bb ae 40 00 bc 39 fe d3 3c
       0.011319889 -0.0033247333 -0.007827921 0.025878059
000150 23 82 d9 bc 67 9c bc bc 1d 1c ea bc eb 06 05 bd
       -0.026551312 -0.023023797 -0.028577859 -0.0324773
000160 76 0a 29 3d a6 11 c9 bc d0 28 2c 3c 8f 60 0b bd
       0.041269742 -0.024544548 0.010507777 -0.034027632
000170 17 10 78 bc f1 a3 b4 bc 94 e4 7a 3b 05 47 78 bd
       -0.015140555 -0.02205083 0.0038283216 -0.060614605
000180 87 c6 e0 3a de b3 4a bc 81 a8 3b bd 7a 0f 08 bd
       0.001714901 -0.012371985 -0.045814995 -0.033217885
000190 e5 e0 1b bc c3 a2 fe bb cf b9 cc bc 40 d7 00 bd
       -0.009514068 -0.0077708676 -0.024990944 -0.03145528
0001a0 7e b1 02 bb cb 9f 0e bd a4 18 72 3c 92 1b a2 3a
       -0.001994222 -0.03482036 0.014776383 0.0012367836
0001b0 28 61 16 3d b2 a2 bc 3c 9e 39 70 3d 16 11 8a b8
       0.03671375 0.023026798 0.058648698 -6.583535e-05
0001c0 b3 8c 1e 3d 4a 28 65 3d 49 0d 2d 3d 52 3e 9d 3c
       0.0387084 0.055946626 0.042248998 0.019194756
0001d0 ce 82 15 bc b1 38 55 3c 47 04 0f 3d 4e 3a 03 3d
       -0.009125425 0.013014005 0.03491619 0.032038026
0001e0 ba 3c eb 3c 38 aa cb 3a 9b 24 83 3c c0 01 fc bb
       0.02871548 0.00155384 0.016008666 -0.0076906383
0001f0 8e 2a 4a bd 60 6f 47 bd a8 6c eb 3b 4e 11 94 ba
       -0.04935699 -0.0486902 0.0071845837 -0.0011296661
000200 64 7c 82 3c 41 11 23 3d 5c af d6 3c 2d af de 3b
       0.015928455 0.039811376 0.026206665 0.006795785
000210 42 78 78 3d c4 7f 02 3d 6e 4c df 3c c6 3a 2d 3d
       0.06066156 0.031860128 0.027258124 0.04229238
000220 11 b6 10 3d f2 7e ea bb 82 b6 ef ba 7c 9b 91 3c
       0.035329882 -0.0071562463 -0.0018288644 0.017774336
000230 c0 c9 7d 3c d5 7b 38 bc e9 4f 19 3d b1 c7 6b 3b
       0.0154899955 -0.011259993 0.037429724 0.003597718
000240 40 21 4f 3c 1a fc 33 3d 23 88 70 3d af 2b b7 3c
       0.012642205 0.043941595 0.05872358 0.022359697
000250 77 37 6f 3d f6 cd 3e 3d 9c 4d 85 3d 1e f7 a6 bc
       0.058402505 0.04658314 0.065089434 -0.020381507
000260 c0 a7 58 bc 06 23 1d 3d eb ec cb 3c 1f 70 86 3d
       -0.0132235885 0.03836348 0.024893245 0.06564354
000270 64 15 f7 b9 a9 b3 d2 bc b5 f9 f2 3c 2f a1 06 3d
       -0.00047127448 -0.025720434 0.029660085 0.03286856
000280 be e7 6a 3c 76 ed 29 bd 2d 3e 9f 3c a8 45 1f 3d
       0.014337478 -0.041486226 0.019438827 0.03888479
000290 80 28 00 bd 68 f5 c6 bc 4c 81 3a bd 49 0a 73 3b
       -0.031288624 -0.02428694 -0.045533463 0.0037084988
0002a0 80 7a 44 3d bb 2c fe bc a4 fc 1a bd f2 f4 a1 3d
       0.047968388 -0.031027189 -0.037838593 0.07908048
0002b0 f8 90 b6 3d 96 b7 e0 3d 21 12 f6 3c 1a f2 81 3d
       0.08914369 0.10972516 0.030037941 0.06345005
0002c0 9a e1 b2 3d 03 d7 5a 3d d0 9f d1 3d fe a6 af 3d
       0.08734436 0.053427707 0.1023556 0.08576773
0002d0 a5 79 1d 3d 85 82 ea 3c 6b d0 36 3c 2c d9 2f bc
       0.038446087 0.02862669 0.011158089 -0.01073293
0002e0 86 d1 94 3c 04 5e eb b8 b2 f5 37 3d 49 0f 3b 3d
       0.018166315 -0.00011223185 0.044912048 0.045668874
0002f0 93 24 8e 3d 5d f8 cb bd 94 5c ae bd 85 7c 84 bd
       0.0694057 -0.09959481 -0.085137516 -0.06469063
000300 cb 15 45 bd 7f ce 06 bd 49 e2 6d 3c 1c 67 04 bd
       -0.048116487 -0.032911774 0.014519283 -0.032324895
000310 8e 90 14 bd 3a 4f 10 3d d8 65 42 3d d7 02 03 3d
       -0.03627067 0.035231806 0.047460407 0.03198513
000320 be e0 94 bc c6 8d 31 3d 70 9e 3e 3b 7d 6e 28 3d
       -0.018173572 0.043348096 0.0029086135 0.041120995
000330 c1 43 2f 3d 98 30 38 3c 76 89 14 3d 26 58 6f bd
       0.042789225 0.011242054 0.036263905 -0.058433674
000340 c9 0b 48 bd ac dd 85 3c 55 0e 12 bd 8a d2 1b bd
       -0.048839364 0.016341053 -0.0356582 -0.038042583
000350 a0 0c aa 3a 22 7d c4 3a e0 84 a6 3c 74 23 0d 3d
       0.0012973733 0.0014990906 0.020327032 0.03445764
000360 a4 e0 1e bc 7b 6d 55 3d af ac 43 3d a1 31 e6 3c
       -0.009697113 0.05210636 0.047772106 0.028099837
000370 c6 fa b3 bc d5 3d b0 3c f0 cb 61 3c cf 1a bb bc
       -0.021970164 0.021513859 0.013781533 -0.022839932
000380 4b 9e 9f 3c c0 9f 3f 3c e5 14 3c 3d 34 cf 66 bc
       0.01948466 0.011695802 0.045918364 -0.014087487
000390 70 8b 54 3b 86 0f 43 3c d0 d2 ca bc 34 ea a8 ba
       0.0032431744 0.011905557 -0.024758726 -0.0012887181
0003a0 fd 5c ca 3c 2f 55 95 bb db ee 99 bc 15 94 11 bd
       0.024702543 -0.004557274 -0.018790653 -0.035541613
0003b0 4a f2 6f bd 48 5a 05 bb a1 a2 89 3c bb b6 02 bd
       -0.058580674 -0.0020348001 0.01680118 -0.031912547
0003c0 ad 50 91 3c 54 ea cf 3b a1 e8 37 bd 6f cc 97 bc
       0.017738665 0.0063450728 -0.044899587 -0.018530099
0003d0 21 70 b5 bc 76 8b 55 bd d8 89 3f bd d7 1b 19 bd
       -0.022148194 -0.052134953 -0.046762317 -0.037380066
0003e0 59 92 69 bd c2 d4 93 bc 5d 88 80 bd 10 e9 3c bd
       -0.057024334 -0.018045787 -0.06276009 -0.046120703
0003f0 46 2b 09 be f5 8d 09 be 46 69 af bd a0 5a d7 bd
       -0.13395414 -0.13433059 -0.08565001 -0.10515332

conv2.bias f4 [128]
000000 59 c2 d1 bc bb 4b 9e bc f8 5d 15 3c 1b 56 1e 3a
       -0.025605367 -0.01932322 0.009116642 0.00060400524
000010 20 2d 81 bc 61 b2 a1 bc b2 68 74 3d 5b 06 a1 3b
       -0.015768588 -0.019738378 0.059670158 0.0049140877
000020 af f2 16 3a ca 08 01 3c 66 42 3a 3d 90 a8 9a 3c
       0.00057582086 0.007875631 0.04547348 0.018879205
000030 1b 7c 5c bc d0 c3 0c bb 43 24 2c 3c 21 15 64 3d
       -0.013457323 -0.0021479018 0.010506692 0.055684213
000040 05 31 11 3c 2e 54 02 3d 1d e0 a6 bc 94 ec 48 3d
       0.008861785 0.03181856 -0.020370537 0.049053743
000050 bf 55 1e 3d e8 ab 50 bd 00 c5 12 3a cf 72 ab bc
       0.038655993 -0.050945193 0.00055988133 -0.020928768
000060 b8 32 8b 3a d0 a1 04 bd 40 bc ee 3b 74 61 1a bd
       0.0010619974 -0.03238088 0.0072856247 -0.037690595
000070 59 a7 3c bd 62 b0 83 bc 65 21 c0 3c c0 2a 18 bc
       -0.046058033 -0.016075317 0.023453424 -0.009287536
000080 8d 5a 4b 3d ab 82 8a 3c 86 cf a5 bb 31 5e dd 3c
       0.049646903 0.01690801 -0.005060139 0.027022453
000090 20 46 84 bc 35 c6 06 bd 00 a2 cd bc 35 b4 40 3b
       -0.01614672 -0.03290387 -0.025101662 0.0029404287
0000a0 35 f8 9c 3c 1f 51 5e 3c 4d 9e a4 3b ab 7e 2a bc
       0.019161323 0.013569145 0.0050237537 -0.010406177
0000b0 98 42 fd 3b 8f 0d ff bc 17 32 df 3c ce 44 f9 3b
       0.007728886 -0.031134395 0.027245564 0.007607079
0000c0 9b e3 31 bd f7 9a 1f bc 7c b0 18 bd c4 2d 6e bb
       -0.043429952 -0.009741536 -0.037277684 -0.0036343196
0000d0 dc d5 35 bd ed 28 46 3d 7a b7 68 bc 2f 71 17 bd
       -0.044393405 0.048378874 -0.0142039005 -0.036973175
0000e0 05 6e 0a 3d 73 5e 32 bc ab f0 ff bb e9 40 41 bc
       0.03379633 -0.010886776 -0.0078106723 -0.011795261
0000f0 cc 4b 47 bd 16 35 07 bd 73 bb f2 3c 08 f0 95 bc
       -0.04865627 -0.03300961 0.029630398 -0.018302932
000100 9f c8 4e 3d 34 e0 8a 3d 5e 51 23 3d b1 30 11 bd
       0.050484296 0.067810446 0.03987252 -0.035446826
000110 d0 36 91 3c b0 b7 99 3c f4 d8 1c 3c 9d 55 07 3c
       0.017726332 0.018764347 0.00957321 0.008260158
000120 4c 21 10 bd 8e 43 00 3d 46 a6 73 bb d6 6e a7 bc
       -0.035188004 0.031314425 -0.0037177964 -0.020438593
000130 0f 21 6a 3b 41 70 ee 3c d6 1b 55 3c b8 c2 21 3d
       0.003572527 0.029106261 0.013007125 0.03949234
000140 e2 69 2e 3b d7 d3 c3 3c 4d 2f 0a 3d 56 a1 25 bd
       0.0026613404 0.023904724 0.033736516 -0.040437065
000150 ea 51 b7 bb d9 5b af 36 0b 1e 3e 3d 5d 11 7e 3b
       -0.0055944817 5.226099e-06 0.04641537 0.0038767674
000160 9b e6 53 3c 5d 14 52 3d 54 2d ca 3c 1b 55 27 3d
       0.012933399 0.05128895 0.024679817 0.040852647
000170 3f e4 f8 3c b0 68 1c bc f7 4e 63 3d ec aa f0 3b
       0.030382274 -0.009546444 0.05549523 0.007344594
000180 01 67 4a bc 0e 7f 9a bc 5c 98 66 bc 6a 0e ee 3c
       -0.01235366 -0.018859413 -0.014074411 0.029059608
000190 26 ca 0d bd 75 a2 35 bc 93 b8 37 3d d7 81 7d bc
       -0.034616612 -0.011086096 0.044853758 -0.015472851
0001a0 8e c8 fd bc fc f3 42 3d 59 21 84 bc b5 43 2e 3d
       -0.030979421 0.047595963 -0.016129183 0.04254504
0001b0 a2 91 b9 3c 5f d2 fc bc ba 88 d4 bc 5e fd 6e bd
       0.022652451 -0.030862032 -0.025944103 -0.0583471
0001c0 4c 03 c7 3c 4d 7a 10 bd d6 5c 95 3c 36 0a ee bc
       0.024293564 -0.035272885 0.018232744 -0.029057603
0001d0 87 5b 80 3d 29 c8 c6 3c cd 04 71 bb c9 1f ba 3c
       0.062674575 0.024265366 -0.0036776543 0.022720234
0001e0 ab 34 e3 bc 59 0a fa bc 6c 5e ae 3c 07 e8 00 bd
       -0.027735075 -0.030522512 0.021285258 -0.03147128
0001f0 26 db 8a 3d 44 08 2f 3c 40 ba b0 bc 83 37 d9 3c
       0.067800805 0.010683123 -0.021573186 0.026515728

deconv1.weight f4 [128, 64, 3, 3]
000000 2d 02 4f ba 98 6c 46 bc fc 54 16 3c ed a6 42 bc
       -0.00078967476 -0.012110852 0.009175535 -0.0118806185
000010 e4 96 a3 3c a0 a2 c5 3c 16 72 41 3d 02 18 cc 3c
       0.019969411 0.024125397 0.04722794 0.024913792
000020 2a da 63 bb e2 b0 e6 3c 31 eb 11 3d 7a 5c 0b 3c
       -0.0034767487 0.028160516 0.035624687 0.008505935
000030 27 b1 34 3d 27 95 8a bc 57 75 24 bb 5b 12 b7 3c
       0.04411426 -0.016916825 -0.0025094354 0.02234762
000040 55 32 c0 3c b0 07 0e 3d 0d 16 90 bd 56 34 03 bd
       0.0234615 0.0346753 -0.07035456 -0.032032333
000050 e4 ec 02 bd b5 69 a1 bc c8 bc 25 bc 23 70 68 bc
       -0.031964198 -0.019703725 -0.01011581 -0.014186892
000060 fe b5 02 bd 7d 0d 86 bd 7d 85 33 bd e9 40 2a 3d
       -0.031911843 -0.065455414 -0.043828476 0.04156581
000070 58 38 6b bc 29 3b 28 3d 9a 4c 0b bd 3c 0a e6 3b
       -0.014356695 0.041072045 -0.0340086 0.007020263
000080 3c 6f d1 bc 6d 22 cd bc ff 07 27 bd 82 ed 09 bd
       -0.025565736 -0.02504083 -0.04077911 -0.03367377
000090 2c bc 94 3b e4 bb c0 bc 32 c3 6e 3c 15 6d 5d 3d
       0.0045390334 -0.023527093 0.014572905 0.054059107
0000a0 ed 09 3a 3d c4 c1 9f bc b2 93 fe b8 2e 33 4e 3c
       0.045419622 -0.019501574 -0.00012139174 0.012585444
0000b0 a9 0e d9 ba 10 89 05 3c 20 31 31 3c 66 87 eb 3c
       -0.0016560155 0.008150354 0.010814935 0.028751086
0000c0 f5 0f 3d 3d 1a 7e 1b 3c e3 46 20 bd 0b 44 b2 bc
       0.046157796 0.009490514 -0.039130103 -0.021760961
0000d0 da 28 a5 bb d5 69 6d bc 07 f2 14 bd f9 3f 9c 3c
       -0.0050402703 -0.014490564 -0.036363628 0.019073473
0000e0 18 74 48 bd c5 23 09 bd d4 af e4 bc a1 db 5e bd
       -0.04893884 -0.033481378 -0.027915873 -0.054408673
0000f0 ae b6 12 3c 2c de 95 bb 22 23 67 3c 36 54 12 3b
       0.008954687 -0.004573604 0.014107497 0.0022328026
000100 e1 35 53 bc 52 45 49 3a 9a ad ca 3c 62 a2 b3 3b
       -0.012891264 0.0007677871 0.024740983 0.005482004
000110 67 7b 2f 3d dc 73 65 3d 8a d8 b2 bc 49 8e c0 bc
       0.042842295 0.056018695 -0.02183177 -0.023505347
000120 27 26 fe bb 4e 27 08 3a 20 5d 90 bc ea 46 9b 3c
       -0.007756013 0.0005193845 -0.01762253 0.018954713
000130 38 4b bc bc 87 71 99 3c 52 6c f3 3c 25 95 fd 3c
       -0.022985086 0.018730892 0.029714737 0.030954907
000140 be 3d 14 bd a9 3e af 3c cb 23 a2 bc 86 97 ca bc
       -0.036191694 0.021392183 -0.019792458 -0.024730455
000150 d8 da 1a bb 04 ce e6 3c 89 1f 1d 3d fd 38 85 bc
       -0.0023628976 0.028174408 0.038360152 -0.016262526
000160 77 df e9 3c 24 42 1b 3d a2 a7 16 3b e4 81 32 3c
       0.02854894 0.037904873 0.00229881 0.010895226
000170 ff 4d 39 bd 18 89 2a 3c d0 cc 01 3d 40 64 0e bd
       -0.0452404 0.010408662 0.031689465 -0.034763575
000180 13 f4 1b 3d 6c e1 cc 3c 20 d9 17 bd ab e0 1a bc
       0.038074564 0.025009833 -0.0370723 -0.009452979
000190 00 da 25 3c f3 c1 23 3d 92 7d 94 3c 9d 13 67 3c
       0.010122776 0.039979886 0.018126283 0.014103797
0001a0 a2 c9 87 bc 96 99 b5 3b 52 f4 b5 3c 77 19 b0 bc
       -0.016575638 0.0055419905 0.022211228 -0.021496518
0001b0 16 13 d9 3c cc 1c e1 3b be d0 18 3d 53 0d b9 bc
       0.026498359 0.006869888 0.037308447 -0.022589361
0001c0 13 0e 02 bd bd 8c dc bc 76 60 d2 bc ec 19 5a 3c
       -0.031751703 -0.026922578 -0.025680762 0.013311844
0001d0 35 98 5f 3c 72 63 79 39 44 d9 09 3d 47 2b 11 bd
       0.013647129 0.00023783537 0.033654466 -0.035441663
0001e0 fb c0 26 bd 95 db 14 3d 67 06 96 bc a8 ea 27 bd
       -0.040711384 0.036342222 -0.0183136 -0.04099527
0001f0 e1 d6 3b 3d 67 31 94 bd 3d a3 4c bd 62 17 a2 bd
       0.04585922 -0.07235985 -0.049960364 -0.07914616
000200 77 3a f9 3b 51 60 25 bd 4f 0f 5f bd bd 0c 40 bd
       0.0076058465 -0.040375058 -0.05445796 -0.04688715
000210 a1 5d 3e bd a5 3c dd bc cc 1c d8 bc df 7d 60 bd
       -0.04647601 -0.027006457 -0.026380919 -0.05480754
000220 87 99 e3 bc 77 23 19 bc fe 7b 0e bd 0e d3 16 bd
       -0.027783168 -0.009346834 -0.034786217 -0.03682237
000230 bc b9 24 3c 95 d8 d2 bb 40 d6 4a bc f8 20 0b 3c
       0.010054048 -0.00643451 -0.012380183 0.008491747
000240 cf 27 7b bb b3 2c 98 ba a0 ee 9a ba d3 05 3b 3d
       -0.0038323288 -0.0011610001 -0.0011820383 0.04565985
000250 c9 b3 d6 bc bd 69 eb 3b a5 cd 34 3d 4b 06 dc 3c
       -0.026208775 0.007184236 0.04414143 0.02685847
000260 49 11 03 bc 97 03 65 bd 79 29 fc 3b 62 07 9d bc
       -0.007999727 -0.055911627 0.0076953736 -0.01916856
000270 39 ea ea bc dc 0f 1a bd 0a 1b f5 bc 0d e2 64 bd
       -0.02867614 -0.03761278 -0.02992012 -0.05587964
000280 75 6f 3b 3c 85 10 61 bc 21 87 42 bd f9 fa 95 bd
       0.011440148 -0.013736849 -0.04749215 -0.0732326
000290 a8 5b d4 bc 9e 24 1a 3b 2d 2c 6a bc 9f 28 32 3c
       -0.025922611 0.002352036 -0.014292759 0.010873943
0002a0 ce 03 53 3d 18 47 81 3d 75 7b 72 3d 91 54 82 3d
       0.0515173 0.06312388 0.05919977 0.06363786
0002b0 01 95 7c 3d 33 40 83 3d 09 db 0e 3c fa 2e 5e 3d
       0.06166554 0.064087294 0.008719214 0.05424402
0002c0 73 df 2c 3b 7b 78 e6 3a 32 4b d3 bc e9 30 22 3d
       0.0026378303 0.0017583513 -0.025792692 0.039597426
0002d0 3b 15 ef 3a 3e 8f 87 3b 1f 81 d0 ba a2 0a 73 bd
       0.001824058 0.004136949 -0.0015907622 -0.059336312
0002e0 71 e7 58 bd 5a 8c bf bc 85 0f 3c bd 4f 6c 06 bd
       -0.052955095 -0.023382355 -0.045913238 -0.032818135
0002f0 59 53 44 bb 68 38 57 3c 4e f0 04 3c a0 f5 53 bb
       -0.0029956906 0.013136007 0.008113934 -0.0032342449
000300 a5 80 e5 3b 88 88 66 bc 2b 82 67 bc 35 13 f3 3a
       0.007003861 -0.0140706375 -0.014130156 0.0018545153
000310 24 b7 c7 bc f4 07 f3 bc 18 8a 6a 3b 41 94 c6 3c
       -0.02437932 -0.029666878 0.0035787877 0.024240615
000320 dd fd 91 3c 71 ae 00 bd 9b 6f 55 3c d4 ae 04 3c
       0.017821247 -0.03141636 0.013027097 0.008098323
000330 74 61 7c bc df 5b 95 bc 20 0c ca bc c0 e8 ef bb
       -0.015404094 -0.018232284 -0.024663985 -0.007321447
000340 36 cd d6 3c 68 c7 c8 3c e7 87 75 3c ef 62 83 b9
       0.0262209 0.024509147 0.014986015 -0.00025059978
000350 81 34 22 bd 9a da 39 bc e6 d4 50 3c 8e cc 03 3d
       -0.039600853 -0.011343623 0.012746071 0.0321775
000360 d7 e0 ae b9 cc 04 cb bc 42 c5 30 3d 59 87 8c 3c
       -0.00033355385 -0.02478256 0.04315687 0.017154383
000370 cd a6 69 3c 53 9c 59 bc 7f e6 c5 3c 37 18 3a bc
       0.01426096 -0.0132818995 0.02415776 -0.011358312
000380 fe c0 03 bc b3 09 2c 3b 8a 6f 76 3b f2 63 7a bd
       -0.008041618 0.0026250898 0.0037603104 -0.06113047
000390 9d 95 8b 3c 0a f9 25 bd 5a d8 59 bd 2c 83 19 bd
       0.017039115 -0.040520705 -0.053184845 -0.03747861
0003a0 f6 bb e3 bc 1e a5 03 bd 16 6d b0 3c dc 78 f1 bc
       -0.027799588 -0.03213989 0.021536391 -0.029476576
0003b0 28 a2 c3 39 b2 12 5f bc 13 74 25 3d 56 64 0d 3d
       0.00037314114 -0.013615297 0.0403939 0.034519516
0003c0 5f f4 54 bc 94 dc ea bc d0 ae 04 bd d8 32 18 bc
       -0.012997716 -0.028669633 -0.032393277 -0.009289466
0003d0 08 43 c1 bc 04 53 c4 3c d9 ae 2f bc b8 00 b5 3c
       -0.023591533 0.023965366 -0.010722839 0.02209507
0003e0 41 24 e3 3c d4 8c bc bc 8c 7e b3 3c 66 b8 d5 3b
       0.027727248 -0.02301637 0.021910928 0.006522226
0003f0 db 7a ab bd eb 9f 18 bd 17 48 30 bd 63 b6 45 3d
       -0.08373042 -0.037261885 -0.0430375 0.04826964

deconv1.bias f4 [64]
000000 9b b6 85 bb 73 80 6c 3d 93 cd 5f 3d 82 65 89 bc
       -0.004080606 0.057739686 0.05463941 -0.016772036
000010 56 bf a7 bb be 10 ba 3c 15 00 54 3d e6 50 17 3c
       -0.0051192446 0.022713061 0.05175789 0.009235596
000020 79 68 87 3c 81 48 66 3d b8 4c a9 3c 28 11 0a 3d
       0.016529309 0.05622149 0.020666465 0.033707768
000030 06 b9 2d 3d 73 09 e9 bc b9 67 db 3c 55 10 69 3d
       0.04241278 -0.028446889 0.026782857 0.05690034
000040 89 52 37 3d a8 f4 36 bd 39 c9 db 3c 0c 03 0c 3d
       0.044756446 -0.044666916 0.026829349 0.034182593
000050 d0 ca 17 3c a0 51 82 3d b5 fd 64 3c 08 61 9d bc
       0.009264663 0.06363225 0.013976504 -0.019211307
000060 e9 5b 0b 3d f6 11 78 bb b0 cd 98 bc e7 fb 7c 3d
       0.0340232 -0.0037852502 -0.018652767 0.06176367
000070 9c a3 0b 3d 56 54 13 bd ab 1a 65 3d 72 89 86 bc
       0.034091577 -0.0359691 0.055933636 -0.01642296
000080 04 22 a9 3b 46 30 c9 3c e8 bf fa 3c d5 54 2c 3d
       0.0051615257 0.024559151 0.030609086 0.04207309
000090 e3 d1 84 3d ef 7b 93 3d af 59 f8 3c dd d9 e7 3c
       0.06485345 0.07201373 0.030316202 0.028302127
0000a0 55 3b 7a 3c fa a3 a9 bc 11 43 79 3d e6 ef 38 bb
       0.015272935 -0.020708073 0.060854975 -0.0028219162
0000b0 59 2a 53 3d 81 c7 c2 3b 23 ab 1c bb 69 49 8c 3d
       0.051554058 0.005944193 -0.0023905716 0.068499394
0000c0 8e 8b 44 3d a5 f3 3e 3d 58 a2 74 3d ca 49 51 3d
       0.047984652 0.046619076 0.059725136 0.05109576
0000d0 84 91 06 3c 94 3d db ba d6 22 07 3d 60 38 31 3d
       0.008213405 -0.0016726726 0.032992207 0.043266654
0000e0 c4 63 73 3d e8 86 e3 3c 08 2b 6a bc 24 03 b7 bc
       0.059421316 0.02777429 -0.014292486 -0.022340365
0000f0 a1 ba 18 bd 72 6b 0f ba 59 0b a0 bb 86 54 0e bc
       -0.03728736 -0.00054710277 -0.0048841652 -0.008687144

deconv2.weight f4 [64, 64, 3, 3]
000000 6d 71 46 bb 1a ba c5 bc dd 4c 28 3d 6d 12 8e 3a
       -0.003028001 -0.024136592 0.041088928 0.0010839232
000010 da 03 31 bc d0 5b 57 3c 13 ac a6 3c db a9 a3 bc
       -0.010804141 0.013144448 0.020345723 -0.019978454
000020 67 43 7f ba dc 60 d3 3c 05 18 db bc 8a c4 5c 3d
       -0.0009737522 0.025803022 -0.026744852 0.05389837
000030 71 1e 94 bc e7 ce b2 bb 46 f5 d6 b9 98 ee 2c 3d
       -0.018080922 -0.0054567936 -0.00041000004 0.04221973
000040 b3 47 27 3d ad 0f bf 3c 0d 49 6a bc 46 48 21 3c
       0.040839862 0.023322904 -0.014299643 0.0098438915
000050 86 81 47 bc a5 4d 5e bb eb a3 54 3d 95 45 f4 bc
       -0.012176877 -0.0033920791 0.051914137 -0.029818336
000060 45 cd ef bb 9f ee 34 3d eb 2a 0d 3c 55 5d 34 bb
       -0.007318171 0.04417288 0.0086161895 -0.002752145
000070 2c e5 05 3c 62 3b 8f 3c 8c 1a 2b bb 06 6d c1 bc
       0.008172315 0.01748437 -0.0026108352 -0.023611557
000080 0c 37 15 3d 61 5a f3 bc 98 5c 2d bd 47 e8 eb bc
       0.03642945 -0.029706182 -0.042324632 -0.028797282
000090 fa cd ab 3b f3 75 a0 3b ef 67 6a 3d d4 2a 46 3d
       0.00524306 0.004896873 0.057228025 0.048380688
0000a0 06 83 6e 3c a3 c4 2f 3d 17 92 79 3d e3 1d e3 3c
       0.014557606 0.042912137 0.060930338 0.027724212
0000b0 48 49 79 3d cf e9 42 3c a8 46 90 3b 7d e5 fc bc
       0.060860902 0.011896565 0.004402954 -0.030871147
0000c0 f5 9f e4 bb 01 89 8c 3c 50 57 60 3c 8c 9e 05 bd
       -0.006977076 0.017155172 0.013692692 -0.032621905
0000d0 3f 2b 18 bd 53 30 60 bc 78 c4 c8 bc 9f 89 be bc
       -0.037150618 -0.013683396 -0.024507746 -0.023258982
0000e0 5f c2 05 bd 50 6f d4 3c b2 5d 6f 3c 10 da 3c 3c
       -0.03265607 0.025931984 0.014609741 0.0115265995
0000f0 7a 94 7a bd 21 e4 dc bc d7 a2 1c bd 3f b5 f1 3b
       -0.061176755 -0.02696425 -0.038241234 0.0073763425
000100 74 ed 0f bd 2d ba a6 bc 98 40 0d 3d 61 c2 d3 bc
       -0.035138562 -0.020352447 0.03448543 -0.025849523
000110 fe d5 b8 bc 13 21 d6 bc 87 f2 0d bd 25 d8 c5 3c
       -0.022562977 -0.026138818 -0.03465512 0.024150917
000120 f0 6f 9b 3c 5d 01 38 bc 03 72 1c 3d e0 91 1e 3c
       0.018974274 -0.011230794 0.038194668 0.009678334
000130 2a fd 86 3c 5f 88 49 3d 75 7e 36 3d 81 b2 6f 3d
       0.01647814 0.04920232 0.044554193 0.058519844
000140 0a 1c 38 3c 38 3e 2f 3c 30 04 24 3c 52 c0 63 3d
       0.011237154 0.010695986 0.010010764 0.055603333
000150 40 a9 db 3c 85 83 6b bb 56 4c 59 bc 1a 87 8c 3d
       0.026814103 -0.0035936546 -0.013262829 0.06861706
000160 78 4a a1 3c b0 8c 35 3d 19 8e 85 3d 6a ca 40 3d
       0.01968883 0.044323623 0.065212436 0.047068037
000170 41 33 cf 3c c6 75 25 3d 43 48 c1 ba 41 c4 91 3c
       0.025292994 0.04039552 -0.0014746267 0.017793776
000180 0c b5 e4 3c 6a be 8a 3d 91 3e 89 3d 2b 18 95 3c
       0.027918361 0.067746 0.06701387 0.0182
000190 ae f1 43 bd a5 11 bc 3c bb 16 91 3a 53 13 fa ba
       -0.047837906 0.022957632 0.0011069396 -0.0019079245
0001a0 fe 05 c1 ba eb 2f 62 bc f1 f6 8f 3c 8a 45 bf 3c
       -0.0014726517 -0.01380537 0.017573806 0.023348588
0001b0 dc b6 96 bc 0a 03 38 bd 93 70 db bc 10 4a 05 bc
       -0.018397741 -0.044924773 -0.026787078 -0.008135334
0001c0 5c 1c 54 bb 92 bd d0 bc 19 79 81 3c f0 a2 64 bc
       -0.0032365536 -0.02548102 0.015804814 -0.013954863
0001d0 b4 06 b2 bc 2b 87 d6 3c 73 fe bf 3a a0 68 1e 3d
       -0.021731712 0.0261875 0.0014647975 0.038673997
0001e0 28 1c 03 bc 36 6a a8 bc 54 fe e6 bc 6f 37 92 bc
       -0.008002318 -0.020558458 -0.028197445 -0.017848698
0001f0 33 11 56 3c ee 20 4a 3d fb 64 89 bc 75 6b 23 bd
       0.013065624 0.04934781 -0.016771784 -0.0398974
000200 88 d7 c9 3c 46 18 e9 3c 11 de 73 bc fa 23 a8 bc
       0.024638906 0.028453957 -0.014884488 -0.020524967
000210 df 74 c5 3c f7 bc 91 bc 1e 10 ec bc 00 b1 1d bb
       0.02410358 -0.0177903 -0.028816279 -0.00240618
000220 87 c3 c2 3c e8 b2 9c 3b c0 db 61 3d 47 2d 0c bb
       0.023774875 0.0047820695 0.05514121 -0.0021389292
000230 0b 28 9b 3b c0 83 ad bc 19 b3 d3 bc 9d 06 9f bc
       0.004734998 -0.021180987 -0.025842236 -0.019412333
000240 e4 51 a2 bc 20 10 ab bc b8 39 22 bd 92 9f 30 bd
       -0.01981444 -0.020881712 -0.039605826 -0.043120928
000250 82 21 1c 3a 7e dd a7 bc 18 a0 88 bc 00 7f 4a bd
       0.0005955921 -0.020491358 -0.016677901 -0.049437523
000260 e5 50 d5 bc 45 71 63 3c ec 6f 56 3d cd 27 0a 3d
       -0.02603955 0.013881986 0.05235283 0.033729363
000270 e0 84 b5 3b 56 58 35 bb e4 1a 31 bb d3 83 74 3d
       0.0055395216 -0.002767106 -0.0027024085 0.05969603
000280 e9 29 3f 3c 23 64 33 3d 0e f1 18 3d 0e 0f 1c 3d
       0.011667707 0.04379667 0.037339263 0.038100295
000290 cf 00 1b 3c cc 54 ba bc eb 85 0e bd 29 26 08 3d
       0.009460642 -0.022745512 -0.034795683 0.033239517
0002a0 b7 78 ed 3c 58 94 29 3d 77 5e 83 bc bb 35 5d 3c
       0.028988225 0.041401237 -0.016036255 0.01350158
0002b0 ad 8e e7 bc df ad e0 bc 1b 91 13 bd ba 03 4e bd
       -0.028266275 -0.027426658 -0.036027055 -0.050296523
0002c0 e2 1a 4b bd 29 bd 5c bd e6 a3 d2 bc 72 a9 80 3c
       -0.049586184 -0.053891335 -0.025712918 0.015705798
0002d0 22 9b 57 bd eb 90 8d bc 44 e3 e8 bb df 62 b2 3c
       -0.05263818 -0.017281016 -0.0071071703 0.021775661
0002e0 14 41 a5 3c 73 ef 05 bd de 25 8a 3c e0 a2 6d 3c
       0.020172633 -0.03269906 0.01686376 0.014504164
0002f0 88 b2 01 bd 02 d9 ae bc 68 c1 50 3c d2 e2 4f bc
       -0.0316644 -0.021343712 0.012741424 -0.0126883555
000300 18 f0 93 3c b0 cb 5b bd 76 37 e4 bc 1d 63 3b 3c
       0.018058822 -0.05366105 -0.027858477 0.011437205
000310 52 05 18 3b 3a 2c dc bb 8d f1 1b bc 19 7f df 3a
       0.002319653 -0.0067191394 -0.009518039 0.0017051428
000320 d2 fe 92 3c 37 32 1e bd 59 a2 49 3b 01 cf 10 3c
       0.017943773 -0.038622107 0.0030766933 0.008838416
000330 61 0d 05 bc d9 12 7c bc 4d 40 99 bc 98 8c ec 3c
       -0.008120866 -0.015385353 -0.018707419 0.028875634
000340 19 2f c9 3c 70 a9 1f bd 00 6f 18 bc e3 19 42 bd
       0.02455859 -0.038979948 -0.009303808 -0.04738797
000350 30 95 b2 bb 21 d3 08 bd af bd 47 3b e1 9c ef 3b
       -0.0054499134 -0.033404473 0.003047805 0.0073124026
000360 46 5a 49 3b f9 64 a5 ba 0d bd 0e 3c 9a 33 1f bd
       0.0030723973 -0.0012618593 0.008712065 -0.03886757
000370 6e 84 3c bc 1d 9a b3 3c 10 83 a2 3c 03 49 9e 3c
       -0.011506183 0.021924073 0.019837886 0.019321924
000380 8f 12 ed ba 93 e4 46 3d 1a ee e1 3c aa 56 45 3d
       -0.0018087196 0.04855783 0.027579356 0.048178352
000390 02 62 7f 3c 0d 48 a5 3c db 15 58 3a 32 5b 89 3d
       0.015587332 0.020175958 0.0008243003 0.06706847
0003a0 e6 5d f4 3c 04 6b 9e 3c ce 17 7b 3d 15 9d 65 3d
       0.02982993 0.019338138 0.061302 0.05605801
0003b0 2e 8b 30 3d 30 5b cb 3c 58 f2 85 3d f8 89 7e 3d
       0.043101482 0.024823755 0.06540364 0.062143296
0003c0 77 82 91 3d 92 6c 64 3d 1d 20 b2 3c bf 73 29 3c
       0.07104962 0.055767603 0.021743828 0.010342537
0003d0 24 21 26 bd cf c5 4e bc 64 b8 c4 bc a0 51 56 bd
       -0.04055895 -0.012620403 -0.024013706 -0.052323937
0003e0 87 af 4f bd 39 ea d3 bc 4f ee ce bc ac fa 62 bd
       -0.050704505 -0.025868522 -0.025260119 -0.05541484
0003f0 21 3e 37 3d 43 d5 6a bc 9b 01 4a 3d 80 28 1a 3d
       0.044736985 -0.014333072 0.049317937 0.03763628

deconv2.bias f4 [64]
000000 bd a1 90 bc 20 3a ac bd df 42 dd bc b5 c1 c7 bd
       -0.017655248 -0.08409524 -0.027009426 -0.097537436
000010 a8 cf 87 3c a9 30 50 bd c9 7e 58 3d 81 11 56 bd
       0.01657851 -0.050827656 0.052855287 -0.052262787
000020 17 9f 63 bd 39 42 87 bd 02 c1 96 bd 8a f3 a2 3c
       -0.05557164 -0.06604428 -0.07361032 0.01989152
000030 27 39 d8 3c 15 ad 99 bd 30 de 17 bc f6 b7 17 be
       0.02639444 -0.07503716 -0.009269282 -0.1481627
000040 8f 0b 9d 3b 8e 4b bd bd 14 e1 22 3d cc ac ad 3a
       0.0047926377 -0.092429265 0.039765432 0.001325035
000050 42 c8 a3 3d 89 0f c6 bd 41 9d 15 3e c2 c7 54 bc
       0.079971805 -0.09670932 0.14610769 -0.012987079
000060 94 8a 3e bd 35 37 10 be 7c dc 27 3d fb f6 0d 3e
       -0.046518877 -0.1408356 0.040981755 0.13863747
000070 b1 7c 92 bd 9d 36 9f 37 4e d7 42 bd 3e fe 4e 3d
       -0.07152689 1.8979708e-05 -0.04756861 0.050535433
000080 96 66 c1 bc 89 48 d9 bc aa 71 23 be 43 c6 cc 3d
       -0.023608487 -0.026523845 -0.15961328 0.09998753
000090 2e ca 94 bd e1 7b 3f bd bc 5b 11 be 2f d2 ba bd
       -0.07265125 -0.046749 -0.1419515 -0.091221206
0000a0 63 a1 3e bd 20 7f 8b 3d cd 6d 82 bd 8d 7c e0 3d
       -0.04654063 0.068113565 -0.06368599 0.10961256
0000b0 53 c8 7f 3d d5 8f 25 bd dc 0d 8b bd a0 d0 8a bd
       0.062446903 -0.040420372 -0.06789753 -0.06778073
0000c0 9d 01 72 bd 81 4e b3 bd 27 1f a5 3b 88 94 b2 3d
       -0.05908357 -0.08755208 0.005039114 0.08719736
0000d0 b9 15 bc 3d 40 93 be bd 35 b5 fb ba 9c 24 80 3d
       0.09183831 -0.093054295 -0.0019203784 0.06256983
0000e0 5c 7a 12 3e 3d 76 83 bc 15 02 a0 3d 4f 5a e4 3d
       0.14304489 -0.016047591 0.07812897 0.111500375
0000f0 1e 26 23 3d 79 aa a3 3d fc da 30 3d 24 6f c7 3c
       0.039831273 0.079914995 0.04317759 0.024344988
