contrastive_save/contrastive_weights_epoch_0.pt (torch, 749104 bytes, 8 tensors)

conv1.weight f4 [64, 3, 3, 3]
0	0xbdc4fc26	-0.09618406
1	0xbde9eaaf	-0.114217155
2	0x3e3d2dbf	0.18474482
3	0xbd0282f9	-0.031863187
4	0x3d943b4b	0.07237872
5	0xbe11c477	-0.14235102
6	0x3e013313	0.1261714
7	0x3e294b2e	0.16532585
8	0xbd979619	-0.07401676
9	0xbe12803c	-0.1430673
10	0xbe10c06c	-0.14135903
11	0x3d4307c1	0.047614817
12	0x3e3492a7	0.17634068
13	0x3e242030	0.16027904
14	0xbda2c529	-0.079477616
15	0x3bf3caa7	0.0074399295
16	0xbd08b0e9	-0.03337184
17	0xbe2db51b	-0.16963618
18	0xb7602cdf	-1.3361888e-05
19	0x3dad24f9	0.084543176
20	0x3cdae18c	0.026718877
21	0x3d983642	0.07432224
22	0xbde72f02	-0.11288263
23	0xbc16ff8a	-0.009216199
24	0x3d8ae3ed	0.06781755
25	0xbd2c0efd	-0.04200648
26	0x3e238d18	0.15971792
27	0x3e169676	0.14705834
28	0x3e160153	0.14648943
29	0xbd44f74e	-0.04808741
30	0x3e2368df	0.15957974
31	0xbe04c98c	-0.12967509
32	0xbc12cb43	-0.008959594
33	0x3e1b799a	0.15183106
34	0xbd1206f9	-0.03565118
35	0x3c9bff64	0.019042678
36	0x3e1ce8e4	0.15323216
37	0xbe2fd538	-0.1717118
38	0xbdc6ae86	-0.097012565
39	0xbe071637	-0.13192068
40	0xbdef4a34	-0.11684075
41	0x3e34a164	0.1763969
42	0x3dbc255c	0.09186813
43	0x3de566be	0.11201237
44	0x3e076aeb	0.1322438
45	0xbe3f9125	-0.18707712
46	0x3cecdaa2	0.028912846
47	0xbd5c8a40	-0.053842783
48	0xbe1351e4	-0.14386708
49	0xbd7a6e99	-0.06114063
50	0x3d619bfa	0.05508039
51	0x3e2cc370	0.16871428
52	0xbde86a47	-0.11348396
53	0x3dba40fb	0.09094425
54	0x3e41c963	0.18924479
55	0xbd45d00d	-0.048294116
56	0xbe1940db	-0.14966147
57	0xbddde9df	-0.10835623
58	0x3defe630	0.11713827
59	0x3d454cf7	0.048169103
60	0x3da27884	0.07933143
61	0x3db8ae77	0.090176515
62	0x3e2c0df7	0.16802202
63	0xbd3fdf7d	-0.046843994
64	0xbe0e077c	-0.13870043
65	0xbe215cd5	-0.15758069
66	0xbd95fb5a	-0.07323332
67	0xbe19eb58	-0.15031183
68	0xbd252d77	-0.04032656
69	0x3e3c6ee3	0.18401675
70	0x3e428f40	0.18999958
71	0xbd8798ec	-0.066209644
72	0x3b2bbfdb	0.0026206884
73	0xbe3a2f98	-0.18182218
74	0x3d18027b	0.03711174
75	0x3c261e8f	0.010139122
76	0xbda70dd7	-0.081569366
77	0xbe32296c	-0.17398614
78	0xbd3552c5	-0.04426839
79	0xbc31089c	-0.010805275
80	0xbe2029f5	-0.15641005
81	0xbd83df17	-0.064390354
82	0x3d80f278	0.06296247
83	0x3e2e1a31	0.17002179
84	0x3d5a43bc	0.053287253
85	0xbda623d6	-0.08112304
86	0x3cc915ac	0.024546467
87	0x3e3770de	0.17914149
88	0x3e1569ea	0.14591184
89	0xbdeeecbc	-0.11666247
90	0xbd69b7a8	-0.057059914
91	0xbe1cc077	-0.15307795
92	0x3e11800f	0.14209007
93	0x3cbfd0f9	0.023415076
94	0x3c38e80a	0.011285791
95	0x3d2fccca	0.04291991
96	0x3dfc7efc	0.12328908
97	0x3d6805c6	0.05664613
98	0x3ce1389f	0.02749282
99	0x3d0ec684	0.034857288
100	0xbdf69e24	-0.12041882
101	0xbc93d3c5	-0.018045316
102	0x3e10baa3	0.14133696
103	0xbd887027	-0.06662016
104	0xbccdd946	-0.025128018
105	0xbd5fe619	-0.054662798
106	0x3e1ab8ee	0.15109608
107	0x3e3f2ac8	0.18668664
108	0xbe2b57b0	-0.16732669
109	0xbe2b2a77	-0.16715418
110	0xbe2bc12c	-0.16772908
111	0xbe314b64	-0.17313915
112	0x3e3f09bf	0.18656062
113	0x3df34084	0.1187754
114	0x3b21533c	0.0024616262
115	0x3e4442b5	0.19166072
116	0x3e07acf5	0.13249572
117	0x3cf00c0a	0.029302616
118	0x3e05a79b	0.13052218
119	0xbdcb3828	-0.0992282
120	0x3dc749bc	0.097308606
121	0xbd898831	-0.067154296
122	0x3da8707e	0.08224581
123	0x3dbf83f4	0.0935134
124	0x3e2fae35	0.17156298
125	0x3daa5ea9	0.08318836
126	0xbdb8c55b	-0.090220176
127	0xbe00b806	-0.125702
128	0xbc8c8240	-0.017151952
129	0x3d8e5536	0.069498464
130	0xbdbb6894	-0.09150806
131	0xbda31507	-0.07962995
132	0xba29a338	-0.000647116
133	0xbdbee932	-0.09321822
134	0xbca4a250	-0.020096928
135	0xbe2c65d7	-0.16835724
136	0x3cd0e388	0.02549912
137	0xbe3a4eeb	-0.18194167
138	0xbe1454bd	-0.1448545
139	0x3d9be065	0.07611159
140	0x3e1746e2	0.14773133
141	0x3d387a38	0.045038432
142	0x3d97a6c7	0.07404857
143	0x3dbb8d94	0.09157863
144	0xbcab278c	-0.02089288
145	0xbd7b9f7a	-0.061431386
146	0xbdca4041	-0.09875537
147	0xbe22a9b8	-0.15885055
148	0x3d622480	0.05521059
149	0x3e273dfe	0.16332242
150	0xbdb2c0b9	-0.08728165
151	0xbe3cc542	-0.18434623
152	0xbd2b67e5	-0.04184713
153	0xbd8c6c4e	-0.06856595
154	0xbe2822d6	-0.16419539
155	0x3d7462a9	0.059664402
156	0xbd261f49	-0.04055718
157	0xbd8ce90d	-0.068803884
158	0xbd41fa11	-0.047357623
159	0xbd7f76ae	-0.06236904
160	0xbdf46c46	-0.11934714
161	0x3d885f41	0.06658793
162	0xbd05734f	-0.03258067
163	0xbe012c58	-0.12614572
164	0xbe3ef981	-0.18649866
165	0x3d6193d3	0.055072617
166	0x3c9aae6f	0.018882005
167	0x3dfe902f	0.124298446
168	0xbe2f9b70	-0.17149138
169	0x3cfba5f2	0.030718777
170	0x3d7650fe	0.060135834
171	0xbc6ea4e6	-0.014565682
172	0x3d9d01c4	0.076663524
173	0xbe353cf8	-0.17699039
174	0x3dc65c4a	0.096855715
175	0x3d6885f2	0.056768365
176	0xbd5a16e1	-0.053244475
177	0xbe2df626	-0.1698843
178	0xbe42c2ce	-0.19019625
179	0xbd7a8449	-0.061161313
180	0xbd8c214f	-0.068422906
181	0xbe16bac1	-0.14719678
182	0x3e21ad97	0.15788876
183	0xbe16013f	-0.14648913
184	0xbd17c0bf	-0.03704905
185	0x3dca68ab	0.09883245
186	0xbe21196b	-0.15732352
187	0xbdcbbef7	-0.09948533
188	0x3d8318e1	0.0640123
189	0x3dca4ac7	0.09877544
190	0x3d9de271	0.07709206
191	0x3e06f45f	0.13179158
192	0x3d58023d	0.05273651
193	0xbdf578c5	-0.119859256
194	0xbd21eea9	-0.039534245
195	0x3d1132e5	0.035448927
196	0xbdaed5cf	-0.085368745
197	0xbdeff3cd	-0.11716423
198	0x3e02a6f4	0.12759
199	0xbcab563a	-0.02091514
200	0xbd20e025	-0.03927626
201	0x3e358d26	0.17729625
202	0x3e1b6552	0.1517537
203	0x3ddedb7c	0.10881707
204	0x3e056648	0.13027298
205	0xbd3110c3	-0.043228876
206	0xbdfca088	-0.123353064
207	0x3e2b7d06	0.16746911
208	0x3cff24c3	0.031145459
209	0x3d8cd1bd	0.06875942
210	0xbc942441	-0.018083693
211	0xbdf2eb1e	-0.11861251
212	0x3e01d904	0.12680441
213	0x3c30c8e5	0.0107900845
214	0x3e3a9eae	0.18224594
215	0x3ddba123	0.10724094
216	0x3da402b5	0.08008329
217	0xbc0d8922	-0.008638652
218	0xbd86f186	-0.06589036
219	0xbb8a15b6	-0.004214014
220	0xbd77d427	-0.06050506
221	0xbe28763e	-0.16451356
222	0x3b98bdeb	0.004661312
223	0x3dc2e9c6	0.09517245
224	0x3d5340cb	0.051575463
225	0x3d2f2d95	0.04276808
226	0x3e0c00a1	0.13672115
227	0x3e0a1943	0.13486199
228	0xba8b7595	-0.00106399
229	0xbd99cf72	-0.0751027
230	0xbd59f353	-0.053210568
231	0xbd0d32ab	-0.03447215
232	0xbe2281a1	-0.15869762
233	0xbdf959e1	-0.12175346
234	0x3e2d520f	0.16925834
235	0xbceb1ff9	-0.02870177
236	0xbda86811	-0.08222974
237	0xbe16d008	-0.14727795
238	0xbd205c96	-0.039150797
239	0xbd094519	-0.033513162
240	0x3dc2202f	0.09478795
241	0xbe3f5de9	-0.18688168
242	0x3e1d15bd	0.15340324
243	0x3e0fbf86	0.14037904
244	0xbd8281df	-0.06372427
245	0x3d6e9d8f	0.05825573
246	0xbd45a63a	-0.04825423
247	0xbd0f8517	-0.035039034
248	0x3e3011e8	0.1719433
249	0x3e004a19	0.12528266
250	0xbb81714c	-0.0039502736
251	0xbdc2fc65	-0.09520797
252	0xbd862fc0	-0.06552076
253	0x3d8a4aa9	0.067525215
254	0x3db1c9d7	0.08681076
255	0xbd1a1b10	-0.037623465

conv1.bias f4 [64]
0	0x3dffe2f4	0.1249446
1	0xbe253639	-0.16133966
2	0x3cb41f68	0.021987632
3	0xbc9cf7bf	-0.019161103
4	0xbd614aee	-0.0550031
5	0xbe4153b6	-0.1887959
6	0xbd74748e	-0.059681468
7	0x3d5b5eba	0.053557135
8	0xbe261db5	-0.1622227
9	0x3ce1ce04	0.027564056
10	0x3cb382a5	0.021912882
11	0x3bbab6c1	0.0056980555
12	0xbda36d9a	-0.07979889
13	0xbe217fcd	-0.15771408
14	0xbe38d6f9	-0.18050756
15	0x3d1cba16	0.038263403
16	0x3e14a0ab	0.14514415
17	0x3de892fa	0.113561586
18	0xbdd64fe8	-0.1046446
19	0xbd6b503b	-0.05744956
20	0x3de9b1e7	0.11410885
21	0xbcd0c762	-0.025485698
22	0xbe2818c9	-0.16415705
23	0xbe24b15a	-0.16083279
24	0xbdf9620b	-0.12176903
25	0xbcc4b648	-0.0240127
26	0xbde306b5	-0.11085264
27	0xbd48c9bf	-0.049020525
28	0x3e1f25ea	0.15541807
29	0x3d4881f9	0.048952077
30	0xbe28822c	-0.16455907
31	0x3d39e0fe	0.045380585
32	0xbc90b8a2	-0.017666165
33	0x3db20ea6	0.086942
34	0x3e211ef8	0.1573447
35	0x3e0873d5	0.13325436
36	0x3e41461e	0.18874404
37	0xbba1705f	-0.0049267258
38	0x3cb02497	0.021501822
39	0xbe221e92	-0.15831974
40	0xbda2722a	-0.07931931
41	0x3ccb9f39	0.024856197
42	0x3d594981	0.053048614
43	0x3cc07081	0.023491146
44	0x3bc2e5b0	0.005947791
45	0xbdd8b081	-0.105805404
46	0xbe125013	-0.14288358
47	0x3e2cf3e8	0.16889918
48	0xba862665	-0.0010234831
49	0xbbbefa73	-0.0058281957
50	0x3e284172	0.16431215
51	0xbd96901b	-0.07351705
52	0xbe020094	-0.12695533
53	0xbd581366	-0.052752875
54	0x3d67d3fb	0.056598645
55	0xbdd4d771	-0.10392655
56	0x3d92db8d	0.07170782
57	0xbd1193a7	-0.035541203
58	0x3e26db49	0.16294588
59	0x3dfe8b4b	0.12428912
60	0xbdd419a2	-0.103564516
61	0xbdfaee41	-0.122524746
62	0x3e317584	0.17329985
63	0x3de44ace	0.1114708

conv2.weight f4 [128, 64, 3, 3]
0	0xbc98dd4c	-0.01866021
1	0x3ab0a6b7	0.0013477419
2	0xbd153cb9	-0.036434863
3	0xbcac7523	-0.021051949
4	0xbcd7871b	-0.02630954
5	0xbd0be12d	-0.03415029
6	0xbbbddd8c	-0.0057942327
7	0x3c1eff71	0.009704457
8	0x3c9f9516	0.01948027
9	0xbd206b09	-0.039164577
10	0xbc87c942	-0.01657546
11	0xbcd4b392	-0.025964532
12	0x3c40f9ad	0.011778277
13	0xbc017286	-0.00790084
14	0xbca6680f	-0.02031329
15	0x3d1731fa	0.036912896
16	0xbd1b9183	-0.037980568
17	0xbb9a59c4	-0.004710408
18	0x3c9b7f42	0.01898158
19	0x3c23ba25	0.009993111
20	0xbd274263	-0.040834796
21	0xbc477fc1	-0.012176455
22	0x39b10423	0.00033763153
23	0x3cac0fc1	0.021003606
24	0x3a0289de	0.000497965
25	0x3cded82e	0.027202692
26	0xbd02ed5d	-0.03196465
27	0xbd26702d	-0.040634323
28	0x3cd707cf	0.02624884
29	0x3c670cf3	0.014102208
30	0x3ce1ef5b	0.027579954
31	0xbcad0208	-0.021119133
32	0x3d00804e	0.03137236
33	0x3c8ff49e	0.017572697
34	0x3c8c478d	0.017123962
35	0xbd20e9c3	-0.039285433
36	0xbc86ad75	-0.016440133
37	0xbcd28bdf	-0.025701461
38	0xbc82c31b	-0.015962174
39	0x3b9fa8f1	0.0048724343
40	0xbc6c358b	-0.0144170625
41	0x3d09934b	0.033587735
42	0xbd183c56	-0.037166916
43	0xbb816597	-0.003948878
44	0xbc322a22	-0.010874303
45	0xbd2a549e	-0.041584603
46	0xbca708a3	-0.02038986
47	0x3d022ca8	0.03178087
48	0xbc894226	-0.016755175
49	0x3c840566	0.016115855
50	0x3cf5fa6b	0.030026635
51	0xbc960f78	-0.018317923
52	0xbd189a30	-0.03725642
53	0x3d11084a	0.035408296
54	0x3c8c5b56	0.017133396
55	0xbd20ecd0	-0.039288342
56	0x3cb62400	0.022233963
57	0xbd00037c	-0.031253323
58	0xbbef1bc0	-0.007297009
59	0x3d20f170	0.039292753
60	0x3ce82046	0.028335702
61	0x3c723930	0.014784142
62	0x3c652136	0.013984969
63	0x3d15e462	0.036594756
64	0x3ca00c0c	0.019536994
65	0x3ba14fd4	0.0049228463
66	0xbc64c8bf	-0.013963877
67	0xbcb40f7d	-0.021980042
68	0x3ceade95	0.028670589
69	0xbd104d2f	-0.035229858
70	0xbcdb4832	-0.026767824
71	0xbc186d6e	-0.009303434
72	0xbd246fd7	-0.04014572
73	0xbd06ba4e	-0.032892518
74	0xbb43d117	-0.0029879266
75	0x3d248b4e	0.040171914
76	0x3cd654f8	0.026163563
77	0x3ce27418	0.027643248
78	0x3cdc22f8	0.026872143
79	0x3cfa3e06	0.030547153
80	0x3c362846	0.011118
81	0xbd178964	-0.03699626
82	0x3cda523b	0.026650539
83	0xb9d53263	-0.00040664067
84	0x3824675b	3.9196904e-05
85	0x3d172548	0.03690079
86	0x3c9830db	0.018577984
87	0x3b92dbfc	0.0044817906
88	0xbccbe7f3	-0.024890875
89	0xbce328dd	-0.027729446
90	0x3c638281	0.013886095
91	0xbc1b2c9d	-0.009471086
92	0x3bd37dcc	0.006454205
93	0x3ca9e629	0.020739632
94	0x3c8a7960	0.01690358
95	0x3c777421	0.015103371
96	0x3cada803	0.021198278
97	0x3be8246f	0.0070844213
98	0x3ca5e61f	0.020251332
99	0xbc25072f	-0.0100725135
100	0xbcf846eb	-0.030307254
101	0xbb6effd6	-0.0036468408
102	0x3b24b380	0.0025131404
103	0xbcbb8e79	-0.022895085
104	0x3c09b943	0.008405986
105	0x3ca55766	0.020183276
106	0xbd153426	-0.036426686
107	0x3d1e8e06	0.038709663
108	0xbd08ab8b	-0.03336672
109	0xbb6e20d6	-0.003633549
110	0xbc6bd788	-0.014394648
111	0x3c77d1e8	0.015125729
112	0xbd00a61c	-0.031408414
113	0x3c91c1c8	0.017792597
114	0x3c5aea90	0.013361588
115	0x3b7437a1	0.0037264603
116	0x3ae0c4df	0.0017148516
117	0x3bfd9593	0.007738778
118	0x3d206397	0.039157476
119	0x3ce073c3	0.02739895
120	0x3c63ee6b	0.013911824
121	0x3c1caed3	0.009563166
122	0xbcdc2e6d	-0.026877606
123	0xbd05a8b2	-0.032631584
124	0x3cd02df0	0.02541253
125	0x3ce973a1	0.028497519
126	0x3cbe3242	0.023217324
127	0x3ca52ded	0.0201635
128	0xbbf8b1b4	-0.0075895432
129	0xbc5a8d1f	-0.01333931
130	0xbcde0f8c	-0.027107023
131	0xbc8a0336	-0.016847234
132	0xbbcf0c99	-0.0063186404
133	0xbd269e97	-0.040678587
134	0x3c880fcd	0.016609097
135	0x3c2b5b18	0.01045873
136	0xbc072029	-0.008247414
137	0x3cd350d8	0.025795385
138	0x3d1d4b32	0.03840179
139	0xbbbf8f2a	-0.005845924
140	0xbd25570b	-0.040366214
141	0xbce49895	-0.027904788
142	0x3cdbe735	0.026843647
143	0x3d25c5a0	0.040471673
144	0xbd03b142	-0.032151468
145	0x3c66f446	0.014096325
146	0xbc8d056a	-0.017214496
147	0x3c4de5ee	0.012567027
148	0x3ce955a9	0.028483229
149	0xbceb424c	-0.028718136
150	0x3d2587b2	0.040412612
151	0x3d027193	0.031846594
152	0x3b9d8ac0	0.0048078
153	0x3c63a883	0.013895157
154	0x3c908fdc	0.017646722
155	0x3c5cbcf4	0.013472784
156	0x3c970726	0.018436026
157	0x3c3552a8	0.01106707
158	0xbd0458de	-0.032311313
159	0x3b8892eb	0.0041679046
160	0x3cc52718	0.024066493
161	0x3c255593	0.010091203
162	0xbc202181	-0.009773613
163	0x3d06dc21	0.032924775
164	0xbd1fc287	-0.039003875
165	0xbd103fa0	-0.035216928
166	0xbc586241	-0.013207019
167	0xbcdb1793	-0.02674464
168	0x3d002468	0.03128472
169	0xbd20fca1	-0.039303426
170	0xbd177a4d	-0.03698187
171	0x3ce68194	0.02813796
172	0xbcc0dd8d	-0.023543144
173	0xbb81ddca	-0.003963207
174	0xbc797053	-0.015224534
175	0x3c00c4f0	0.007859454
176	0x3c3d7658	0.01156386
177	0x3cc0df80	0.023544073
178	0x3cc22bc2	0.023702506
179	0xbb30a2d8	-0.0026952531
180	0x3b204bd0	0.002445925
181	0xbd0065e9	-0.03134719
182	0x3d0404e1	0.032231215
183	0xbcaa6422	-0.0207997
184	0x3d26858e	0.04065471
185	0xbc8b41be	-0.016999122
186	0xbbc8a8ac	-0.006123623
187	0xbd12aa54	-0.03580697
188	0x3cf949f9	0.03043078
189	0xbc038030	-0.008026168
190	0x3d2a1681	0.041525368
191	0x3c42a844	0.011880938
192	0x3c9ebb9f	0.019376574
193	0xbc56568b	-0.013082157
194	0x3cf6e7ea	0.030139882
195	0xbcb42475	-0.02199004
196	0x3c03c806	0.008043295
197	0xbb819406	-0.0039544133
198	0x3b01a100	0.0019779801
199	0xbcc02a78	-0.02345775
200	0x3bb53796	0.005530308
201	0xbcf7c80e	-0.03024676
202	0xbcbeb6ee	-0.023280587
203	0x3bd554e0	0.006510362
204	0x3c83318b	0.016014835
205	0x3c9fadf0	0.01949212
206	0x3c836350	0.016038567
207	0xb81056df	-3.441318e-05
208	0xbcd19316	-0.025582831
209	0xbcb6e0d7	-0.022324009
210	0x3cbd66a9	0.023120241
211	0xbcec1446	-0.02881826
212	0x3b85b268	0.0040801056
213	0x3c77a11b	0.015114094
214	0xbd215a0f	-0.039392527
215	0xbafc1a41	-0.0019233898
216	0x3bd4c1f4	0.0064928476
217	0x3bf3513a	0.0074254544
218	0xbc3876d9	-0.011258804
219	0x3cdddd76	0.02708314
220	0xbceb9ad8	-0.028760359
221	0x3cf0c190	0.029389173
222	0xbc13c825	-0.009019886
223	0x3c4bd288	0.012440331
224	0x3d0478f2	0.032341905
225	0xbd148d2d	-0.03626745
226	0x3cb997bd	0.022655362
227	0x3d0593fe	0.03261184
228	0xbc957986	-0.018246423
229	0xbd056238	-0.03256437
230	0x3cf09894	0.02936963
231	0xbcb51f9b	-0.022109797
232	0x3d243a31	0.04009456
233	0xbc918637	-0.017764194
234	0x3d1968e1	0.037453536
235	0x3c222d9e	0.009898571
236	0xbcee4a65	-0.029088208
237	0x3d28ba9b	0.041193586
238	0xbc55162f	-0.013005777
239	0x3d14775b	0.03624664
240	0x3ca6bada	0.02035277
241	0x3c4981d4	0.01229902
242	0x3bf0758d	0.007338232
243	0x3d1204d9	0.035649154
244	0x3bc422a3	0.0059855743
245	0x3c0bd24a	0.008534024
246	0xbb70a3bc	-0.0036718687
247	0x3cee60c8	0.029098883
248	0x3cc7bebc	0.024382941
249	0x3c46b25e	0.012127487
250	0x3a81dafd	0.0009907183
251	0xbcc999cc	-0.024609469
252	0x3cfe420f	0.031037359
253	0xbce894a3	-0.028391188
254	0x3cc02f08	0.023459926
255	0x3cd658bf	0.026165364

conv2.bias f4 [128]
0	0xb9e3ab91	-0.0004342464
1	0xbd1fe237	-0.039034095
2	0x3d0486dd	0.03235518
3	0x3c965e22	0.018355433
4	0x3ceb64a0	0.028734505
5	0xbc16f3c6	-0.009213394
6	0x3d01f76f	0.03173011
7	0x3d2894fc	0.041157708
8	0x3d035ea9	0.032072697
9	0x3d0bf95c	0.034173355
10	0x3ae9ae1a	0.0017828376
11	0xbd00c277	-0.031435456
12	0x39470e93	0.00018983548
13	0xbb8c05f9	-0.004273173
14	0x3c421138	0.011844926
15	0xbd09ca3f	-0.033640143
16	0x3a5b630f	0.0008368948
17	0x3bb0598f	0.00538177
18	0x3c846cea	0.016165216
19	0x3ca95245	0.020669112
20	0xbd20ae2e	-0.03922861
21	0xbd1ff95c	-0.039056167
22	0xbcb65029	-0.02225502
23	0x3cecd482	0.028909925
24	0xbc9d0d2a	-0.019171316
25	0x3bebbb0b	0.007193928
26	0xbbc48474	-0.005997235
27	0xbb85836d	-0.004074505
28	0x3d15db3d	0.036586035
29	0xbd251a92	-0.040308543
30	0xbd08df0f	-0.03341585
31	0xbcb43a15	-0.022000352
32	0xbb85dcae	-0.004085145
33	0x3c3c6db1	0.011500762
34	0x3c7f5eea	0.015586594
35	0xbcd0bc9d	-0.025480563
36	0x3d163583	0.036672127
37	0x3c83d6cc	0.016093634
38	0x3d272ea1	0.040815953
39	0xbc4dfb47	-0.012572116
40	0xbc1c6a4d	-0.009546828
41	0x3ca7e63d	0.020495528
42	0xbd1713bc	-0.036884055
43	0xbca95110	-0.020668536
44	0xbc335a20	-0.01094678
45	0xbc644509	-0.013932475
46	0xbd08d46b	-0.033405703
47	0x3ca5dc49	0.020246642
48	0xbc1240a3	-0.008926543
49	0x3d0d60a6	0.034516
50	0x3ccf9e4f	0.025344042
51	0x3d27879d	0.040900815
52	0x3c93a455	0.018022696
53	0x3b42dcc5	0.002973364
54	0x3c8d46ff	0.017245768
55	0x3d218070	0.03942913
56	0xbd1c4b5f	-0.038157817
57	0xbc51853b	-0.012788112
58	0x3c573607	0.01313544
59	0xbcd06dc5	-0.025442967
60	0xbc93e3b8	-0.01805292
61	0xbd0546fd	-0.032538403
62	0x3c6a02d1	0.014282898
63	0xbd25f9d6	-0.040521465
64	0x3c581468	0.013188459
65	0xbc893f6a	-0.016753871
66	0xbc2a8c58	-0.010409437
67	0xbc9f8f02	-0.019477371
68	0xbd1226a9	-0.0356814
69	0x3bbfe3c3	0.0058560087
70	0x3b816cf6	0.0039497567
71	0x3befd8d3	0.0073195486
72	0x38bce027	9.00629e-05
73	0xbca51b21	-0.020154538
74	0xbc0dc3b1	-0.0086526135
75	0xbce28a2d	-0.027653778
76	0xbcf5a35c	-0.029985122
77	0xbcbeca67	-0.023289872
78	0xbbae0da0	-0.005311683
79	0x3c8b58a5	0.017010042
80	0x3c950068	0.01818867
81	0x3d0515b1	0.03249139
82	0xbc0ec42a	-0.008713761
83	0x3cf01e0f	0.029311208
84	0xbc417ee0	-0.0118100345
85	0x3c1f4965	0.009722088
86	0x3d29f989	0.04149774
87	0x3d1caaca	0.038248815
88	0xbd01904e	-0.03163176
89	0xbd1245f2	-0.035711236
90	0x3c6225cf	0.01380296
91	0x3d203e65	0.039122004
92	0x3c2c5466	0.010518169
93	0x3cc656a2	0.024211232
94	0xbaca98a0	-0.0015456863
95	0x3cb5b343	0.022180205
96	0x3d12c092	0.03582818
97	0xbd29dc01	-0.041469578
98	0x3d0184df	0.031620856
99	0xbbc2901f	-0.0059375907
100	0xbcc9f2d7	-0.024651928
101	0xbce70b79	-0.028203713
102	0x3cec3566	0.028834056
103	0xbbdc97ce	-0.0067319637
104	0x3cd3af79	0.025840508
105	0x3a82cfaf	0.0009980107
106	0x3a595d2e	0.0008291778
107	0x3c7baf5e	0.015361635
108	0x3ce623e6	0.02809329
109	0xbd23e5e3	-0.04001416
110	0x3d2134d1	0.03935701
111	0xbcf5c0a7	-0.02999909
112	0x3b6dddd2	0.0036295545
113	0xbc993e0d	-0.018706346
114	0x3cf3258d	0.029680992
115	0x3cae81a9	0.021302061
116	0x3ca22996	0.01979522
117	0x3cbad18d	0.022805
118	0x3b4b252a	0.0030997493
119	0xbc886030	-0.016647428
120	0x3cf6f3ba	0.030145515
121	0xbc8f3a60	-0.01748389
122	0xbd12944d	-0.035785962
123	0x3d101968	0.03518048
124	0xbca90a47	-0.020634783
125	0x3c3d3016	0.011547109
126	0xbca446dd	-0.020053321
127	0xbc43c671	-0.011949168

deconv1.weight f4 [128, 64, 3, 3]
0	0x3ce1eea3	0.027579611
1	0xbcbf3f84	-0.023345716
2	0xbcee66b9	-0.029101716
3	0x3c95995a	0.0182616
4	0x3c9fa618	0.01948838
5	0xbc9dcffd	-0.019264216
6	0xbcd459fb	-0.025921812
7	0x3c595af0	0.01326631
8	0xbcca4575	-0.024691323
9	0xbc43895a	-0.011934603
10	0x3cc25a94	0.023724832
11	0xbce69f15	-0.028152028
12	0xbc5d88f0	-0.013521418
13	0xbc8a9ba7	-0.016919924
14	0xbbdb82ba	-0.0066989334
15	0x3abd9998	0.001446533
16	0x3a8401c8	0.0010071332
17	0x3bb8e963	0.0056430562
18	0x3ce40f7d	0.027839417
19	0xbc53dd91	-0.0129312435
20	0xbbb8ad12	-0.005635866
21	0xbcb8294c	-0.02248063
22	0xbd15d7f3	-0.0365829
23	0x3cd43550	0.025904328
24	0x3cfaa1f9	0.030594813
25	0xbc0e4a1c	-0.008684661
26	0x3c97dab8	0.01853691
27	0xbd1c3c8b	-0.038143676
28	0xbd04a819	-0.032386873
29	0x3cd7667b	0.026293984
30	0x3c70c2f6	0.01469492
31	0xbcaa04b7	-0.020754201
32	0xbc06d338	-0.008229069
33	0x3ca1d63c	0.019755475
34	0x3ceeced7	0.029151363
35	0x3c293bfa	0.010329241
36	0xbc025320	-0.007954389
37	0xbb2e195b	-0.0026565406
38	0x3d06a691	0.032873694
39	0xbd121ec9	-0.03567389
40	0xbd2670a3	-0.040634762
41	0xbd2272c5	-0.039660234
42	0x3ceb9555	0.02875773
43	0xbceaba28	-0.02865322
44	0x3c0c30c8	0.008556552
45	0x3c89baa0	0.016812623
46	0xbcd02b75	-0.025411347
47	0xbccb7785	-0.024837265
48	0xbc96cd51	-0.01840845
49	0xbcef2568	-0.029192641
50	0x3d0c1d3c	0.034207568
51	0x3d27473c	0.04083942
52	0xba9edbb0	-0.0012119915
53	0xbb1e5829	-0.0024161434
54	0x3cede84f	0.029041437
55	0xbb6009f9	-0.0034185632
56	0xbcc0f110	-0.023552448
57	0xbc8b5061	-0.017006101
58	0x3bd5bfd0	0.00652311
59	0x3ceb770b	0.028743288
60	0xbc55c7df	-0.013048141
61	0xbcd5f31e	-0.026116904
62	0xbc802b43	-0.015645629
63	0xbd274e60	-0.04084623
64	0xbca452f2	-0.020059083
65	0xbd198e8a	-0.03748945
66	0xbc04383a	-0.008070046
67	0xbb8cddb7	-0.0042988914
68	0x39a5fd13	0.00031659807
69	0x3c1ca90f	0.009561791
70	0x3c5dfe9a	0.013549471
71	0x398564a1	0.0002544271
72	0xbca65472	-0.020303939
73	0x3d039543	0.03212477
74	0xbc9d0707	-0.01916839
75	0x3d1ac4f6	0.037785493
76	0x3d1a0853	0.037605595
77	0x3d269a6f	0.040674623
78	0x3ae0e796	0.0017158862
79	0xbd149649	-0.036276136
80	0x3c86eb7b	0.016469708
81	0x3b598799	0.0033192395
82	0xbacf476a	-0.001581413
83	0xbd25b69e	-0.04045736
84	0x3cc6b46e	0.024255957
85	0xb9f5aee0	-0.00046860334
86	0x3c006df5	0.007838716
87	0x3ca5f959	0.0202605
88	0xbc06cd31	-0.008227632
89	0xbcedbd0d	-0.02902081
90	0xbc89e29a	-0.016831685
91	0x3cb466a2	0.022021595
92	0xbc061f21	-0.008186133
93	0x3c32ee1d	0.010921028
94	0xbd0bd9f0	-0.03414339
95	0x3bb90d7b	0.005647359
96	0xbcc0a618	-0.0235167
97	0x3bf94244	0.0076067764
98	0xbcb03b31	-0.0215126
99	0x3a24b3d2	0.0006282899
100	0x3c989031	0.018623443
101	0xbc6adf15	-0.014335413
102	0xbd04a10e	-0.032380156
103	0xbcb52a48	-0.022114888
104	0xbc3d4d7e	-0.01155412
105	0x3cdc8dcd	0.026923085
106	0xbd16f379	-0.036853287
107	0x3c3e9909	0.011633166
108	0x3d087de9	0.033323202
109	0x3d1b3a4f	0.037897404
110	0xbb496604	-0.0030730972
111	0x3c4fb426	0.012677228
112	0x3c72bb40	0.014815152
113	0x3d0f5d10	0.03500086
114	0xbb5f5f36	-0.003408385
115	0x3c9d89bf	0.019230722
116	0x3cd4eb91	0.025991233
117	0x3c5a3880	0.013319135
118	0x3cf50f8b	0.029914638
119	0xbb9cf200	-0.004789591
120	0x3a5b65ab	0.0008369337
121	0x3befabcb	0.0073141805
122	0x3d28200a	0.04104618
123	0xbc5c0bab	-0.013430516
124	0xbd1271f7	-0.035753217
125	0x3d112316	0.03543385
126	0xbd0c135c	-0.03419815
127	0x3d279278	0.040911168
128	0x3d087217	0.03331193
129	0x3cbfbf03	0.023406511
130	0x3d22a427	0.03970733
131	0xbc8eac4e	-0.017416146
132	0x3b822f49	0.003972922
133	0xbd103b30	-0.035212696
134	0xbd09e3ec	-0.03366463
135	0x3d123c3a	0.035701968
136	0x3d1f918f	0.038957175
137	0xbd27275c	-0.04080902
138	0x3caf8c7e	0.021429297
139	0x3c08f934	0.008360196
140	0x3c7989f2	0.015230643
141	0x3d0201be	0.031739943
142	0x3ca318b7	0.019909246
143	0xbbb05c0e	-0.0053820675
144	0x3d1f703e	0.038925402
145	0x3b9f742c	0.0048661437
146	0x3cfa40c4	0.03054846
147	0xbcba3417	-0.022729916
148	0x3bdcae02	0.0067346105
149	0xbc920eef	-0.017829387
150	0x3cd1fa37	0.025632007
151	0xbd0e5212	-0.034746237
152	0x3beab50e	0.0071626967
153	0x3cf17915	0.029476682
154	0x3d060b63	0.032725703
155	0xbc0e73a1	-0.00869456
156	0xbcd4931e	-0.025949057
157	0xbcd61050	-0.026130825
158	0xbc629dc4	-0.01383156
159	0xbbe2fe34	-0.006927276
160	0xbd17fea7	-0.03710809
161	0x3cf6db94	0.030134
162	0x3c80ab5b	0.015706709
163	0x3c74749b	0.014920379
164	0xbb838176	-0.0040132357
165	0xbd133663	-0.03594054
166	0xbc571ea6	-0.013129866
167	0x3c6d8730	0.014497563
168	0x3b65392b	0.0034976702
169	0xbc606370	-0.013695583
170	0xbcbeb23b	-0.023278346
171	0x3c6429f6	0.01392602
172	0x3a58bd9a	0.0008267999
173	0xbcec07ff	-0.028812407
174	0x3ab759f0	0.0013988595
175	0x3d0a5638	0.03377363
176	0xbc1ecc11	-0.009692208
177	0x3c7348e7	0.014848924
178	0x3d28bb44	0.041194215
179	0xbc1e6eb7	-0.009669951
180	0x3c510e21	0.012759716
181	0x3c72440b	0.0147867305
182	0x3cffb148	0.031212464
183	0x3d19910a	0.037491836
184	0x3c0b0486	0.008484965
185	0x3ca3e05d	0.020004446
186	0x3d188be1	0.037242774
187	0x3c9c72ee	0.019097771
188	0x3d2247aa	0.039619125
189	0x3bb774eb	0.0055986545
190	0xbad0590e	-0.0015895681
191	0x3c4bcf5f	0.012439578
192	0xbc911d96	-0.017714303
193	0xbcc5e421	-0.024156632
194	0xbd19865f	-0.037481662
195	0xbbcee45c	-0.0063138437
196	0x3c86d67f	0.016459702
197	0xbd1afa73	-0.037836503
198	0x3cfe5d3f	0.031050323
199	0x3d0b252f	0.033971008
200	0xbca8fa6e	-0.020627227
201	0xbd290940	-0.041268587
202	0xbc08b8df	-0.008344858
203	0xbca0a7ef	-0.019611327
204	0x3c53c162	0.012924524
205	0x3cf4f5d1	0.02990237
206	0x3d224574	0.039617017
207	0xbc81af8b	-0.015830776
208	0xbcb061c7	-0.021530999
209	0xbd1c6892	-0.038185664
210	0x3d1a70df	0.0377053
211	0x3cf15adf	0.029462276
212	0x3d259cb3	0.040432643
213	0x3b7117b0	0.00367878
214	0xbd13f88a	-0.036125697
215	0x3b822a5a	0.003972334
216	0xbc149b53	-0.009070235
217	0x3d0087cc	0.031379506
218	0x3b818902	0.0039531
219	0x3c783c76	0.015151134
220	0x3cbead99	0.023276137
221	0xbcf66306	-0.030076515
222	0x39b9e285	0.0003545472
223	0xbc3a8585	-0.011384373
224	0xbcf5a9c3	-0.029988175
225	0xbb2ed08c	-0.0026674597
226	0xbcd6e4f5	-0.026232222
227	0xbb060119	-0.0020447432
228	0x3bfeade1	0.007772193
229	0x3ca28bad	0.019841993
230	0x3ca77b31	0.020444484
231	0xbc9ad44c	-0.01890006
232	0x3b816fd7	0.0039501
233	0x3c89b694	0.016810693
234	0xbc6308dc	-0.013857093
235	0x3ca6f0c7	0.020378483
236	0xbca30fe1	-0.019905033
237	0xbc1ddf77	-0.009635798
238	0x3c458571	0.012055741
239	0x3bc5db6b	0.0060381196
240	0xbcd35f13	-0.02580217
241	0x3bf99873	0.0076170503
242	0xbc18197d	-0.009283421
243	0xbd225089	-0.039627586
244	0xbbac84ef	-0.0052648704
245	0xbd26843d	-0.040653456
246	0x3d07fe88	0.033201724
247	0x3d25f9b0	0.040521324
248	0x3d19a2b0	0.037508667
249	0xbb990bd4	-0.0046705995
250	0xbc4b6477	-0.012414089
251	0x3c4e51eb	0.012592773
252	0xbc1b690f	-0.009485497
253	0x3c6a5ec6	0.014304822
254	0x3cda9e3f	0.026686786
255	0x3c456fa8	0.012050547

deconv1.bias f4 [64]
0	0x3c19a29e	0.00937715
1	0x3d143b00	0.03618908
2	0x3c910061	0.017700376
3	0xb93cc875	-0.00018003753
4	0xbc6703b9	-0.014100009
5	0x3c8649f1	0.01639268
6	0xbcaf20be	-0.021377917
7	0x3c9aec2a	0.01891144
8	0xbcd6fe37	-0.026244266
9	0x3c887ca6	0.016661
10	0x3b82a3f7	0.0039868313
11	0xbcdbff80	-0.02685523
12	0xbb95d683	-0.004572691
13	0xbc8b3eab	-0.016997656
14	0xbb5bcccd	-0.0033538819
15	0xbcd2bdc4	-0.025725253
16	0xbd0d9f63	-0.03457583
17	0x3cc1df8a	0.023666162
18	0xbd06373a	-0.032767512
19	0x3bd5edec	0.0065286066
20	0xbc9d5d23	-0.01920945
21	0xbc8f63bb	-0.01750361
22	0xbbe187fc	-0.0068826657
23	0x3ccc0175	0.024903039
24	0x3cd5e1b2	0.026108596
25	0xbc4d728a	-0.012539515
26	0x3d030ea3	0.03199638
27	0xbce1d154	-0.027565636
28	0xbd166f4d	-0.03672724
29	0x3c2f86c4	0.010713283
30	0xbbc1d8e7	-0.0059157494
31	0x3c243ea9	0.010024705
32	0xbcb02b30	-0.021504968
33	0xbbecb201	-0.007223368
34	0xbcc9ceed	-0.024634803
35	0x3d0fbfc6	0.035095
36	0xbc4d5f68	-0.012534954
37	0x3ce842ed	0.028352225
38	0xbd2859b9	-0.04110119
39	0xbc42ee28	-0.011897601
40	0x3d1d549d	0.03841077
41	0x3cd1c222	0.025605265
42	0xbc9e35e5	-0.019312808
43	0xbcb22b30	-0.021749109
44	0xbc5bb7ad	-0.013410491
45	0x3c93435a	0.017976452
46	0x3d03465f	0.032049533
47	0x3c09d9fe	0.00841379
48	0xbd10d421	-0.035358552
49	0xbbedf138	-0.0072614215
50	0xbc8a2365	-0.01686258
51	0xbcde01ae	-0.02710041
52	0xbbb0b71e	-0.005392923
53	0xbba75a58	-0.0051072054
54	0xbd0486fb	-0.03235529
55	0x3c937e10	0.018004447
56	0xbcf0bdaf	-0.029387323
57	0x3cb8759e	0.022517022
58	0xbbfd4c81	-0.0077300672
59	0x3ca4ae93	0.020102775
60	0xbcadec88	-0.021230951
61	0xbd0ba425	-0.034092087
62	0xbcbe5f7d	-0.023238892
63	0xbd26092c	-0.04053609

deconv2.weight f4 [64, 64, 3, 3]
0	0xbbcc2f16	-0.006231199
1	0x3d233e35	0.039854247
2	0x3d163215	0.036668856
3	0x3cc3b2f0	0.023889035
4	0x3d0fca03	0.035104763
5	0xbcc6654d	-0.024218226
6	0x3d1d26d5	0.03836711
7	0x3ccbe8a7	0.02489121
8	0x3c5e35c0	0.01356262
9	0xbca7bc52	-0.02047554
10	0x3c441e72	0.011970149
11	0x3ba73ee0	0.005103931
12	0xbc213946	-0.009840315
13	0x3d279ad0	0.040919125
14	0x3ce5d825	0.028057167
15	0x3c5eec35	0.013606121
16	0x3cb7b1fe	0.02242374
17	0xbcd40c09	-0.025884645
18	0xbd07d623	-0.0331632
19	0xbd294afe	-0.041331284
20	0x3d02a56e	0.031896047
21	0x3cecdee4	0.028914876
22	0xbc64a475	-0.013955225
23	0x3cce3e42	0.025176171
24	0xbbc9f498	-0.006163191
25	0xbd0b8c35	-0.03406926
26	0x3d0fb30b	0.035082858
27	0x3bb26c16	0.0054450138
28	0x3ba25832	0.0049543614
29	0x3bf6ca4e	0.007531441
30	0x3c6746a9	0.014115968
31	0xbcb65fed	-0.022262538
32	0x3cc3f2ea	0.023919541
33	0xbd170725	-0.036872048
34	0xbc399f76	-0.011329522
35	0xbc9e9d15	-0.019362012
36	0x3d0f2c23	0.0349542
37	0x3cfdfd3e	0.031004544
38	0xbd1ad792	-0.03780324
39	0xbc209ea4	-0.009803448
40	0x3c715e4d	0.014731956
41	0x3d1748a9	0.03693453
42	0xbc1c5816	-0.009542486
43	0xbd215d1b	-0.039395433
44	0xbc940564	-0.018068977
45	0xbb929996	-0.0044738753
46	0x3c85b0b9	0.01631962
47	0xbd2564f9	-0.0403795
48	0xbc9bd237	-0.019021137
49	0xbd23246c	-0.039829656
50	0xbbf6b47b	-0.007528839
51	0x3c96c92c	0.018406473
52	0xbd2348c7	-0.039864328
53	0xbcc5b675	-0.024134854
54	0x3d146c01	0.036235813
55	0xbccfbc01	-0.025358202
56	0xbcbc342a	-0.022974093
57	0x3c8ba58b	0.01704671
58	0xbb49dd41	-0.0030802044
59	0xbcf8366a	-0.030299384
60	0xbc2f28f7	-0.010690919
61	0x3aaac72a	0.0013029326
62	0x3d21164f	0.039327916
63	0x3b8ee5bd	0.004360883
64	0x3cc8d85c	0.02451723
65	0xbce880a5	-0.028381655
66	0x3b19ec21	0.002348669
67	0xbc594022	-0.013259919
68	0x3b7dde55	0.0038737257
69	0xbcaacd1f	-0.020849762
70	0xbd0d851c	-0.03455077
71	0x3ccce75c	0.025012664
72	0x3cad1fa3	0.02113325
73	0x3d12dae7	0.035853293
74	0xbca6fddf	-0.020384727
75	0x3d230089	0.039795432
76	0xbbd9c227	-0.006645459
77	0x3c81d705	0.0158496
78	0xbce5151f	-0.027964173
79	0x3bc2a4a5	0.0059400373
80	0x3cec536b	0.02884837
81	0xbcef314b	-0.02919831
82	0xbc1ab2c6	-0.009442037
83	0x3c26dde9	0.010184743
84	0x3c351250	0.011051729
85	0x3ccaf674	0.024775721
86	0x3c26c36a	0.010178426
87	0x3c022f77	0.007945887
88	0x3c8dbc3b	0.01730167
89	0x3c976535	0.018480876
90	0xbb228ba1	-0.0024802464
91	0x3d272738	0.040808886
92	0x3c925172	0.017861102
93	0xbcbda5bd	-0.02315032
94	0x3c92196e	0.017834391
95	0xbc7436b3	-0.014905619
96	0xbd225831	-0.039634887
97	0x3c1bd6f3	0.009511697
98	0x3c21c998	0.009874724
99	0xbd141b25	-0.0361587
100	0x3d0a5533	0.03377266
101	0xbcee011c	-0.029053263
102	0x3c8ec7a8	0.017429188
103	0x3bffbdf2	0.0078046257
104	0xbd03df05	-0.03219511
105	0x3d05c171	0.032655183
106	0xbc70bae7	-0.0146929985
107	0xbb9e7163	-0.004835294
108	0xbceda37d	-0.029008621
109	0x3ccc71fa	0.024956692
110	0x3d2237ec	0.039604113
111	0xbbd83edd	-0.0065992908
112	0xbbbe8efd	-0.0058153854
113	0x3ca43cc1	0.020048501
114	0xbcc3327c	-0.023827784
115	0x3d27ac98	0.040936083
116	0xbc2fef4c	-0.010738205
117	0x3bf419db	0.0074493713
118	0xbd08eca1	-0.033428792
119	0xbcc5658c	-0.024096273
120	0xbd1d26ff	-0.038367268
121	0x3cd22718	0.025653407
122	0xbd0d91eb	-0.034562986
123	0x3cd86210	0.026413947
124	0xbd164461	-0.036686305
125	0x3c2a9fd7	0.010414085
126	0xbcb1153e	-0.021616574
127	0x3b9b1bb4	0.004733527
128	0xbcf9f51c	-0.030512385
129	0x3d1edfc7	0.03878763
130	0xbd069888	-0.03286031
131	0x3c98651d	0.018602902
132	0xbc269534	-0.010167409
133	0x3c27cb62	0.010241361
134	0xba5408ec	-0.00080884877
135	0xbc3ed375	-0.011647095
136	0x3ce497f2	0.027904484
137	0x3c723daf	0.014785214
138	0xbd02cbb1	-0.031932537
139	0x3c9e70f1	0.019340964
140	0x3a819585	0.0009886479
141	0x3c90f66e	0.017695632
142	0xbcb471ce	-0.022026923
143	0x3c39560e	0.011312021
144	0xbc4de9c3	-0.01256794
145	0xbb5830e3	-0.0032988123
146	0x3baa7d3d	0.005202918
147	0x3d1c1b31	0.03811187
148	0x3d2a03dc	0.041507587
149	0x3bff8acf	0.0077985297
150	0x3c801b17	0.015637917
151	0x3c9b163f	0.018931506
152	0x3ca37856	0.019954842
153	0x3cb827a7	0.022479845
154	0xbc6478d6	-0.013944825
155	0x3c62e238	0.01384788
156	0xbc3f7a94	-0.01168694
157	0xbcb6622b	-0.022263607
158	0xbc1af067	-0.00945673
159	0x3d1d82e9	0.038454924
160	0x3d02037d	0.031741608
161	0x3ce427cc	0.027851008
162	0xbb2003d5	-0.0024416347
163	0x3d1330ed	0.03593533
164	0x3cfb4686	0.030673277
165	0xbd02f9a4	-0.031976357
166	0xbc35a807	-0.011087424
167	0xbd278160	-0.040894866
168	0x3cdaa845	0.026691565
169	0x3ba5db98	0.005061578
170	0xbb6111af	-0.0034342816
171	0x3d0e433d	0.034732092
172	0xbd1d0e22	-0.038343556
173	0xbc370688	-0.011170991
174	0xbcd8095f	-0.026371656
175	0x3cecb932	0.028896902
176	0x3ccb747a	0.024835814
177	0xbc86a10f	-0.01643422
178	0x3d0ba9c8	0.034097463
179	0x3b5e3fba	0.0033912496
180	0x3d025f59	0.03182921
181	0xbbc0b4cc	-0.0058809277
182	0xbc1f5016	-0.009723684
183	0x3ce42752	0.02785078
184	0x3ccabc3c	0.02474796
185	0xbcdbfb26	-0.026853155
186	0x3c8e476a	0.017368037
187	0x3cddc827	0.02707298
188	0x3cd1d639	0.025614845
189	0xbced9118	-0.02899985
190	0xbbb22793	-0.0054368465
191	0xbce3cd28	-0.027807787
192	0xbc3bf26b	-0.011471371
193	0xbccb7422	-0.02483565
194	0x3c1cc922	0.009569438
195	0xbc4e3c58	-0.012587629
196	0xbcbedf90	-0.023299962
197	0xbc40f2ff	-0.011776685
198	0x3c3c913d	0.011509237
199	0x3c3e8cba	0.0116302315
200	0x3be24cb5	0.006906117
201	0xbd29dba0	-0.041469216
202	0xbb0b7953	-0.0021282032
203	0xbc84cf42	-0.01621211
204	0xbcb92a07	-0.022603048
205	0x3d185071	0.03718609
206	0xbcb17434	-0.021661855
207	0xbd0e4710	-0.03473574
208	0xbc8a2e34	-0.016867734
209	0xbcc2b7bf	-0.023769258
210	0xbca69425	-0.020334313
211	0x3c9af738	0.018916711
212	0xbb947a4e	-0.0045311814
213	0xbc7aa867	-0.015298939
214	0x3c2cd5c5	0.0105490135
215	0x3c8025e5	0.01564307
216	0x3b7914e9	0.0038006848
217	0xbd007209	-0.031358752
218	0xbcf4f2e5	-0.029900977
219	0x3b01e955	0.0019822915
220	0xbc0b65d6	-0.008508166
221	0xbd1a4106	-0.037659667
222	0xbc8d7912	-0.017269645
223	0x3ba071cf	0.0048963795
224	0xbbd5642f	-0.006512187
225	0x3d04384f	0.032280263
226	0xbc603c9f	-0.013686328
227	0x3c80951e	0.015696105
228	0xbcba7509	-0.022760885
229	0xbd2236c1	-0.039603
230	0xbd151f2a	-0.036406673
231	0xbca284ac	-0.019838654
232	0xbc9ea4c2	-0.019365672
233	0xbd1fb40b	-0.03899006
234	0x3d0a3163	0.033738505
235	0x3c3f4fa7	0.011676705
236	0xbd01b0f8	-0.03166291
237	0x3cf52206	0.02992345
238	0x3d012c94	0.031536654
239	0xbc11ab06	-0.008890873
240	0x3b073837	0.0020632872
241	0x3cd79f2d	0.026321018
242	0x3c72c713	0.014817971
243	0xbbb8b59f	-0.0056368853
244	0xbcc28880	-0.023746729
245	0x3cca7f91	0.024719032
246	0x3d130ac1	0.035898928
247	0x3c6d4561	0.014481873
248	0xbcf05396	-0.029336732
249	0xbc56d0c6	-0.013111299
250	0xbc3b25db	-0.0114226
251	0x3ccccd84	0.025000341
252	0xbc2b8f29	-0.010471144
253	0xbd02f08b	-0.03196768
254	0x395c8dd7	0.00021033674
255	0xbccfb905	-0.025356779

deconv2.bias f4 [64]
0	0xbc564c9c	-0.013079789
1	0x3c9df806	0.019283306
2	0xbc2be0f0	-0.010490641
3	0x3be0d339	0.006861117
4	0x3d23cc63	0.03998984
5	0xbcc0d07c	-0.023536913
6	0xbca5a27e	-0.020219084
7	0x3ceb36d2	0.028712664
8	0xbc1afd98	-0.0094598755
9	0xbd07e19c	-0.033174142
10	0xbd0c3f23	-0.0342399
11	0xbc632a7a	-0.013865108
12	0xbcd32234	-0.025773145
13	0xbca47df7	-0.020079596
14	0x3ae6c960	0.0017607622
15	0xbcca8fa4	-0.024726696
16	0xbd0b0f4e	-0.033950143
17	0xbcd9a256	-0.026566666
18	0xbcd5fd73	-0.02612183
19	0x3cb5e1d9	0.02220242
20	0x3ce63d38	0.028105363
21	0xbd0a4d52	-0.033765145
22	0x3d1076df	0.035269614
23	0x3cacf4c5	0.021112809
24	0x3c00b7ce	0.007856322
25	0x3d0ce784	0.034400478
26	0xbcbb02ca	-0.022828478
27	0x3ca1a544	0.019732125
28	0x3c39b45c	0.011334505
29	0x3ba8073e	0.0051278165
30	0xbb93bc54	-0.0045085344
31	0xbce3d4d1	-0.02781144
32	0xbd286a4b	-0.041116994
33	0xbcd89454	-0.026437916
34	0x3d201d67	0.03909054
35	0x3ce1da80	0.02757001
36	0x3d1cd2f4	0.038287118
37	0x3bbf8b69	0.0058454764
38	0x3c3a622c	0.011375945
39	0xbc94dd41	-0.018171908
40	0x3ccfbda7	0.025358988
41	0xbca90cf4	-0.02063606
42	0x3c0b1cf6	0.008490792
43	0x3b6fd1cb	0.0036593552
44	0x3cd44e60	0.025916278
45	0xbc1f3d1d	-0.00971916
46	0x3d125caf	0.03573292
47	0x3c115bc1	0.0088719735
48	0xbcb55b73	-0.022138333
49	0xbc84039d	-0.016115004
50	0xbbcd4efc	-0.006265519
51	0x3b42d776	0.0029730476
52	0x3cb0c05c	0.0215761
53	0xbc8fff80	-0.017577887
54	0xbd017acc	-0.03161125
55	0x3cab73a8	0.020929173
56	0x3d234535	0.039860923
57	0xbcb49fe4	-0.022048898
58	0xbc5d0df4	-0.013492096
59	0xbc72dd03	-0.014823201
60	0xbcd7f918	-0.026363894
61	0x3c0f9a7d	0.00876486
62	0x3b592e25	0.0033139077
63	0xbd08156e	-0.033223562
