contrastive_save/contrastive_weights_epoch_10.pt (torch, 749116 bytes, 8 tensors)

conv1.weight f4 [64, 3, 3, 3]
0.07847962 -0.103159174 0.03902529 0.07044436 0.0800715 -0.11116981 0.14516017 -0.11121374
-0.17708692 0.077203594 -0.15030777 0.086171255 -0.16301298 -0.05978639 0.19336799 0.054626066
0.11039227 0.17523837 -0.1688367 0.0020327633 -0.14835827 -0.0037884142 -0.21036512 0.007876426
-0.035312355 -0.11250602 -0.09622399 -0.13016395 0.0038554694 -0.13004285 0.029802205 0.030777156
0.023539368 -0.16699214 0.15532109 0.122315235 -0.19183776 0.15487951 0.115931146 -0.024630971
0.020669399 -0.14820896 -0.19661127 -0.20200346 -0.17726284 0.10157373 -0.12888885 -0.0051388876
0.1632879 0.12036191 0.14057918 -0.16419685 0.021900835 0.1597108 -0.16813132 0.0057807723
-0.08108928 -0.07062248 0.009448129 -0.06961113 -0.09708059 0.08674702 -0.051451102 0.004344539
0.11020368 0.05477125 -0.16807203 0.18161394 0.16936783 0.17751953 0.017175332 0.004261739
-0.09610975 -0.1516109 -0.040228773 0.1161775 0.118244305 -0.023195468 0.09937506 0.017746277
-0.0061301333 -0.19676301 -0.042713422 0.16862087 -0.011733767 0.006061037 0.09379886 -0.16718036
0.16898456 -0.015188141 -0.12983322 -0.007039342 0.10036743 -0.018338433 -0.13034004 0.07273237
-0.020734832 0.08336565 -0.15011935 0.087880656 0.056589562 -0.14106572 -0.073792696 0.008335713
0.14192767 -0.16920346 0.1657541 -0.10111697 -0.03388338 -0.03230366 0.018452635 0.06672257
-0.11209504 -0.18108845 -0.11161729 0.03327952 -0.081519805 -0.032176103 -0.150844 -0.1166202
0.17975543 0.08230217 0.15453964 -0.16996704 -0.07555544 -0.14292496 -0.11916095 -0.111951336
-0.11156696 -0.181185 -0.0795889 0.03177989 0.087803856 0.004324105 -0.08058439 -0.028832832
0.15492098 -0.15942319 0.08401648 -0.11337203 -0.20795582 0.1416023 0.056895453 0.06889304
-0.18087365 0.10160234 0.12698463 0.17680255 0.118004695 -0.20579025 -0.08456339 -0.17078723
0.024063518 0.026875291 -0.027391197 0.10834769 -0.18159837 0.067038074 -0.017891794 0.17334326
0.12913622 -0.10781263 -0.0750422 0.096506536 -0.08533261 0.0015123314 0.17116763 -0.0997247
-0.0033095349 0.044877682 -0.106902115 0.053991213 -0.027774407 0.02176519 0.0584928 0.039735153
-0.10954597 -0.14802884 0.006502973 -0.11650832 0.0206052 -0.08506772 -0.1648602 -0.026640324
-0.09915561 -0.17460069 0.064353235 -0.0009966068 0.110987216 -0.14483933 -0.13892567 -0.16523068
-0.07331616 -0.16114302 0.063288376 0.03207488 -0.20653887 -0.048085675 -0.08196621 -0.03629927
0.08145532 0.18511094 -0.09159759 -0.17689194 0.0022667777 0.08152781 -0.07147095 -0.09437245
0.094948456 0.058658876 0.19774537 0.022322752 0.06906624 0.031829335 -0.08845904 -0.05676471
-0.1439545 0.16132541 -0.098764144 -0.08144765 -0.16223122 0.18119822 -0.12414256 -0.19946183
0.08585209 0.03921163 0.13814148 0.11051216 0.09754047 -0.14157994 0.14764175 0.090465724
0.099803194 -0.15816195 0.16191435 0.10808161 0.05451395 -0.108790934 0.027132567 0.044099722
0.0690567 -0.10922145 -0.1937468 -0.031001432 -0.13313517 0.041448537 -0.14622228 0.1325815
-0.0784488 -0.14392945 -0.060588066 -0.09734373 -0.047275964 -0.20147263 -0.040122565 -0.0023329188
00000000: ecb9 a03d 1e45 d3bd fcd8 1f3d 2245 903d
00000010: 87fc a33d ffac e3bd dea4 143e 08c4 e3bd
00000020: 4656 35be eb1c 9e3d 48ea 19be 8e7a b03d
00000030: e0ec 26be 93e2 74bd 4202 463e 95bf 5f3d
00000040: 5815 e23d b071 333e 87e3 2cbe 1c38 053b
00000050: 3beb 17be 0b47 78bb f469 57be 200c 013c
00000060: b0a3 10bd 8e69 e6bd 1511 c5bd b349 05be
00000070: 0bac 7c3b f429 05be c123 f43c 6020 fc3c
00000080: a2d5 c03c fdff 2abe 7e0c 1f3e 6980 fa3d
00000090: 1e71 44be bc98 1e3e 4f6d ed3d e4c6 c9bc
000000a0: df52 a93c 17c4 17be 7754 49be ffd9 4ebe
000000b0: 6484 35be e305 d03d 70fb 03be 1d64 a8bb
000000c0: f134 273e 4e80 f63d fdf3 0f3e 3823 28be
000000d0: 6169 b33c 3a8b 233e 9e2a 2cbe a26c bd3b
000000e0: 2312 a6bd 85a2 90bd 53cc 1a3c 4890 8ebd
000000f0: 30d2 c6bd 6ca8 b13d 64be 52bd a25c 8e3b
00000100: 78b2 e13d d157 603d 131b 2cbe 01f9 393e
00000110: c36e 2d3e aec7 353e 48b3 8c3c 0fa6 8b3b
00000120: 30d5 c4bd e33f 1bbe edc6 24bd 78ee ed3d
00000130: 122a f23d 6c04 bebc 2785 cb3d a460 913c
00000140: 49df c8bb 3e7c 49be 45f4 2ebd f3aa 2c3e
00000150: fc3e 40bc aa9b c63b 9e19 c03d 5431 2bbe
00000160: 4a0a 2d3e aed7 78bc 00f3 04be 48aa e6bb
00000170: 708d cd3d 7b3a 96bc dc77 05be b5f4 943d
00000180: 18dc a9bc 9cbb aa3d e3b8 19be c6fa b33d
00000190: 75ca 673d 8873 10be a020 97bd 8492 083c
000001a0: 7d55 113e ac43 2dbe 71bb 293e 6a16 cfbd
000001b0: 4dc9 0abd d850 04bd fb29 973c d8a5 883d
000001c0: 1692 e5bd 406f 39be 9b97 e4bd 1b50 083d
000001d0: dbf3 a6bd 17cb 03bd d976 1abe 92d6 eebd
000001e0: cf11 383e 0a8e a83d a43f 1e3e d70b 2ebe
000001f0: cfbc 9abd ec5a 12be a80a f4bd be46 e5bd
00000200: 387d e4bd 9088 39be 81ff a2bd a12b 023d
00000210: 82d2 b33d 39b1 8d3b 6e09 a5bd d532 ecbc
00000220: 9ba3 1e3e d53f 23be d510 ac3d 982f e8bd
00000230: 5ff2 54be 3100 113e 350b 693d cb17 8d3d
00000240: f136 39be e314 d03d 4208 023e ba0b 353e
00000250: 72ac f13d aeba 52be 922f adbd d9e2 2ebe
00000260: db20 c53c 9229 dc3c 8163 e0bc 65e5 dd3d
00000270: ecf4 39be 424b 893d d091 92bc e580 313e
00000280: 493c 043e decc dcbd baaf 99bd 38a5 c53d
00000290: ddc2 aebd 6c39 c63a 9146 2f3e 773c ccbd
000002a0: c8e4 58bb a9d1 373d 7fef dabd e425 5d3d
000002b0: 2787 e3bc e94c b23c 2596 6f3d 54c1 223d
000002c0: a359 e0bd df94 17be e416 d53b ea9b eebd
000002d0: 3dcc a83c fc37 aebd 1dd1 28be cf3c dabc
000002e0: 1912 cbbd 86ca 32be a1cb 833d 93a0 82ba
000002f0: 444d e33d c350 14be 8842 0ebe 3b32 29be
00000300: c826 96bd ad02 25be 569d 813d f360 033d
00000310: ed7e 53be 7cf5 44bd e6dd a7bd 8bae 14bd
00000320: 0cd2 a63d b98d 3d3e 8497 bbbd 2923 35be
00000330: 388e 143b 0df8 a63d 5d5f 92bd 5846 c1bd
00000340: 5674 c23d 4a44 703d c37d 4a3e 34de b63c
00000350: 9a72 8d3d 7a5f 023d 032a b5bd 1d82 68bd
00000360: cf68 13be 7d32 253e db44 cabd 07ce a6bd
00000370: f11f 26be 078c 393e 743e febd b93f 4cbe
00000380: 38d3 af3d 609c 203d f674 0d3e 3354 e23d
00000390: 4cc3 c73d 55fa 10be 662f 173e 1846 b93d
000003a0: 9e65 cc3d 35f5 21be e0cc 253e e459 dd3d
000003b0: 054a 5f3d c8cd debd 1e45 de3c e9a1 343d
000003c0: 996d 8d3d 7faf dfbd 9065 46be b7f6 fdbc
000003d0: 9654 08be f1c5 293d 4bbb 15be 72c3 073e
000003e0: c4a9 a0bd 3e62 13be 312b 78bd 265c c7bd
000003f0: 71a4 41bd d74e 4ebe 8f57 24bd e2e3 18bb

conv1.bias f4 [64]
0.060877137 -0.040291965 -0.068167105 0.07051686 -0.038853712 -0.048086993 -0.12533031 0.0067047025
-0.055911276 0.07502083 -0.10917433 -0.07657289 0.026927209 0.12702054 0.06852855 0.117661074
-0.043678246 -0.0077748504 -0.14539985 -0.00021088377 0.044777133 -0.070939355 0.11777616 -0.08832498
-0.04703167 0.10821729 -0.17085475 -0.029018132 0.0055063316 0.16336603 0.002157636 -0.12715483
-0.12324663 -0.109831415 -0.19365391 -0.11148086 -0.02182601 0.12547493 -0.07831513 0.18936718
-0.0006510349 0.039655626 -0.08958212 0.1183972 -0.15129474 -0.12733135 -0.12045356 -0.069746345
0.03188626 0.02436492 -0.043331012 0.06701373 0.17009564 0.004298475 0.073525116 -0.091616124
-0.011194235 -0.03276772 0.049777023 -0.05757454 0.07555903 0.07142589 -0.0013819918 0.0645884
00000000: 4e5a 793d 3009 25bd 329b 8bbd 256b 903d
00000010: 1225 1fbd def6 44bd 9756 00be 1fb3 db3b
00000020: 3903 65bd 85a4 993d cb96 dfbd 3fd2 9cbd
00000030: 7396 dc3c ac11 023e b258 8c3d 4af8 f03d
00000040: f6e7 32bd 2cc4 febb b3e3 14be ae20 5db9
00000050: 3a68 373d a748 91bd a134 f13d bae3 b4bd
00000060: 48a4 40bd 07a1 dd3d 8cf4 2ebe 6fb7 edbc
00000070: 756e b43b 6d49 273e 2067 0d3b e034 02be
00000080: bb68 fcbd 4bef e0bd 364d 46be 1450 e4bd
00000090: 76cc b2bc 807c 003e af63 a0bd 78e9 413e
000000a0: 36aa 2aba f06d 223d d576 b7bd 3b7a f23d
000000b0: 02ed 1abe 2663 02be 5bb0 f6bd 2cd7 8ebd
000000c0: 2b9b 023d f198 c73c dc7b 31bd 7f3e 893d
000000d0: 8d2d 2e3e 39da 8c3b 5694 963d 3ca1 bbbd
000000e0: 0668 37bc 7237 06bd fee2 4b3d 48d3 6bbd
000000f0: b1be 9a3d bd47 923d f323 b5ba ec46 843d

conv2.weight f4 [128, 64, 3, 3]
-0.0010213398 0.0283197 0.030985551 -0.043344464 0.031083941 -0.015067016 -0.0004680106 -0.03219179
0.008567734 0.027672797 -0.01649934 -0.01561875 -0.033500765 -0.021536974 -0.03482379 0.018242022
-0.033412736 0.042022247 -0.02346246 -0.022154398 -0.013506813 0.0042044446 0.03191878 0.011553231
-0.017128251 0.028912492 -0.02039942 -0.009107741 0.014666434 0.022371765 0.04224957 -0.019592825
0.014076409 0.02905576 0.04061961 -0.008097119 0.009919711 -0.030967131 0.0059103514 0.0412634
-0.011997057 0.046875652 0.0013887527 -0.029783633 0.035901174 0.030236697 0.036900442 0.009476686
0.020121068 0.005292597 0.035514656 -0.028393079 -0.03630009 0.020391535 0.027351355 -0.05707401
-0.023147963 -0.028273901 0.005232326 -0.022751402 -0.02280083 0.017811878 -0.016388644 0.012374948
0.00093590224 0.016951174 -0.00833133 -0.042663563 -0.041201722 0.012941272 -0.046153877 -0.039091676
-0.02315808 -0.013683372 0.0012701645 0.045592077 0.042450152 0.011365596 -0.009161755 -0.020911919
0.011929442 -0.017070295 -0.024192574 0.008372917 -0.041484915 -0.040928666 -0.04787302 -0.046981387
0.023479838 -0.043704428 0.021227257 -0.021988576 0.012106208 -0.0061753006 0.029064335 -0.014939658
0.022627654 0.01239638 -0.0122738015 -0.03171876 -0.009232073 -0.007452742 -0.023101188 -0.031253226
-0.0020379666 -0.03235792 0.014940713 0.0016959 0.03985111 0.023405667 0.056413315 0.004890138
0.04174424 0.05674779 0.044829264 0.020706931 -0.009245395 0.015481241 0.03731884 0.035364512
0.030862033 0.004654911 0.021539003 -0.0032062358 -0.043294158 -0.039608944 -0.0029787207 -0.007533208
0.013268264 0.031313807 0.021526007 0.006540812 0.053179324 0.028385524 0.028512236 0.046402395
0.03782841 -0.0059528803 -0.0018785767 0.016876014 0.01453367 -0.012823729 0.036106754 0.0030690168
0.047992855 0.07346524 0.07899654 0.04178164 0.07427531 0.0703986 0.06419384 -0.008549682
0.014797109 0.025918858 0.010581076 0.058124855 -0.0019608696 -0.02358568 0.047808576 0.04428352
0.033122074 -0.008314247 0.04995386 0.04920769 -0.024295496 0.007487078 -0.021592114 0.014456489
0.061808567 0.0008025116 -0.018990709 0.04035817 0.046481963 0.05990217 0.0017899356 0.027930113
0.048590273 0.017444639 0.059821922 0.044077527 0.036266744 0.025319302 0.0044378843 -0.012118285
0.016779771 -0.0043628365 0.041244112 0.043115765 0.06408515 -0.02393617 -0.028453162 -0.033497203
0.027889162 0.0068040346 0.038234357 -0.001153532 -0.030574603 0.039025452 0.03778731 0.021784063
-0.028503858 0.033689946 -0.00642251 0.031655204 0.034641925 0.0029458094 0.027427988 -0.05023565
-0.039909538 0.015192516 -0.030460896 -0.037860863 -0.0018804393 -0.0048996867 0.013916911 0.029724728
-0.009203021 0.050799564 0.041828755 0.030645695 -0.022505863 0.016285006 0.016497072 -0.02511508
0.013891379 0.008937373 0.04395796 -0.01547301 0.0013629965 0.012681375 -0.022896532 -0.0041879755
0.024789996 -0.0022282465 -0.0044496506 -0.020225072 -0.040250245 0.0085404515 0.026224919 -0.020421969
0.023675898 0.012444014 -0.037627816 0.007087836 0.0029420666 -0.02448546 -0.009981972 0.0026330051
-0.01695032 0.01734707 -0.019028246 -0.0018007391 -0.056798358 -0.050175294 0.0037559147 -0.02722413
00000000: 7ade 85ba b7fe e73c 69d5 fd3c f789 31bd
00000010: c0a3 fe3c a5db 76bc 525f f5b9 8adb 03bd
00000020: ae5f 0c3c 10b2 e23c a029 87bc c9e5 7fbc
00000030: 1938 09bd 4f6e b0bc 64a3 0ebd 4b70 953c
00000040: cbdb 08bd 851f 2c3d 5834 c0bc 247d b5bc
00000050: ae4b 5dbc 70c5 893b 44bd 023d c349 3d3c
00000060: 8c50 8cbc e4d9 ec3c af1c a7bc a238 15bc
00000070: 7c4b 703c fe44 b73c e30d 2d3d 2281 a0bc
00000080: bda0 663c 5806 ee3c c060 263d c7a9 04bc
00000090: 4986 223c c8ae fdbc 9fab c13b d003 293d
000000a0: 4e8f 44bc af00 403d cf06 b63a cefc f3bc
000000b0: 1c0d 133d f3b2 f73c eb24 173d 1a44 1b3c
000000c0: f0d4 a43c 866d ad3b d177 113d 9a98 e8bc
000000d0: 67af 14bd 260c a73c f30f e03c 70c6 69bd
000000e0: cca0 bdbc ab9e e7bc ef73 ab3b 2661 babc
000000f0: cec8 babc 37ea 913c 7a41 86bc 4bc0 4a3c
00000100: 5657 753a 30dd 8a3c 2180 08bc fdbf 2ebd
00000110: 23c3 28bd a107 543c d90b 3dbd 981e 20bd
00000120: 04b6 bdbc 3930 60bc a67b a63a c2be 3a3d
00000130: 36e0 2d3d c436 3a3c 301b 16bc 794f abbc
00000140: b573 433c 01d7 8bbc 812f c6bc 8f2e 093c
00000150: 16ec 29bd d1a4 27bd 8016 44bd 8e6f 40bd
00000160: ca58 c03c 6a03 33bd c9e4 ad3c 6321 b4bc
00000170: 1e59 463c 2d5a cabb 5418 ee3c 78c5 74bc
00000180: a15d b93c 301a 4b3c 0e18 49bc 88eb 01bd
00000190: 1f42 17bc 2236 f4bb b43e bdbc 6203 00bd
000001a0: 688f 05bb bd89 04bd e4c9 743c f648 de3a
000001b0: eb3a 233d 3ebd bf3c a611 673d 733d a03b
000001c0: 02fc 2a3d 5f70 683d e49e 373d 95a1 a93c
000001d0: ff79 17bc 08a5 7d3c a4db 183d 61da 103d
000001e0: 60d2 fc3c 3988 983b 9072 b03c b61f 52bb
000001f0: 3755 31bd fd3c 22bd a436 43bb 21d9 f6bb
00000200: 2263 593c e842 003d 4f57 b03c 4f54 d63b
00000210: 90d2 593d c288 e83c 7e92 e93c 7010 3e3d
00000220: f6f1 1a3d 6110 c3bb 933a f6ba 913f 8a3c
00000230: a11e 6e3c 9e1a 52bc ade4 133d 8f21 493b
00000240: 2894 443d f274 963d f0c8 a13d 3a23 2b3d
00000250: a71d 983d 242d 903d 0f78 833d f713 0cbc
00000260: 936f 723c c953 d43c 405c 2d3c 5414 6e3d
00000270: ef81 00bb c236 c1bc edd2 433d a362 353d
00000280: 03ab 073d 7b38 08bc 6b9c 4c3d 018e 493d
00000290: 5907 c7bc 2a56 f53b f2e1 b0bc e9da 6c3c
000002a0: fb2a 7d3d a45f 523a 6792 9bbc 9c4e 253d
000002b0: df63 3e3d fa5b 753d 469c ea3a b1cd e43c
000002c0: 9806 473d 0fe8 8e3c d507 753d a38a 343d
000002d0: 708c 143d 6d6a cf3c ac6b 913b c58b 46bc
000002e0: bb75 893c 20f6 8ebb 96ef 283d 289a 303d
000002f0: 133f 833d c915 c4bc 9b16 e9bc 5d34 09bd
00000300: d077 e43c 61f4 de3b a19b 1c3d 1c32 97ba
00000310: 9777 fabc 27d9 1f3d dec6 1a3d 7e74 b23c
00000320: ec80 e9bc 78fe 093d eb73 d2bb e3a8 013d
00000330: b1e4 0d3d 7b0e 413b a9b0 e03c e6c3 4dbd
00000340: 2f78 23bd 08ea 783c 2189 f9bc fe13 1bbd
00000350: 1379 f6ba 8d8d a0bb c103 643c 4681 f33c
00000360: 45c8 16bc 3413 503d a154 2b3d ae0c fb3c
00000370: 375e b8bc 2268 853c de24 873c 24be cdbc
00000380: ab98 633c 0f6e 123c 430d 343d 8282 7dbc
00000390: 93a6 b23a 8bc5 4f3c 8291 bbbc 493b 89bb
000003a0: 6414 cb3c c607 12bb 60ce 91bb 0daf a5bc
000003b0: 71dd 24bd 40ed 0b3c a4d5 d63c f94b a7bc
000003c0: f5f3 c13c fae1 4b3c a01f 1abd 1441 e83b
000003d0: b0cf 403b bb95 c8bc 6d8b 23bc 7f8e 2c3b
000003e0: 66db 8abc 711b 8e3c 20e1 9bbc c706 ecba
000003f0: 65a5 68bd 9c84 4dbd cb25 763b 2405 dfbc

conv2.bias f4 [128]
-0.031878885 -0.012142373 0.012784829 -0.00051890675 -0.0045712464 -0.0155429505 0.04994037 0.0017440137
-0.0007026538 0.012217025 0.047357213 -0.0045659197 -0.014608583 -0.0091331005 0.0047390377 0.0419345
0.024934178 0.027315984 -0.017150478 0.04527938 0.03145633 -0.039201576 0.008264075 -0.01490272
0.002070834 -0.022176044 0.021214157 -0.032756235 -0.043806408 -0.01728251 0.010358823 -0.0034618415
0.04431791 0.019925646 0.002955653 0.024376187 -0.008719697 -0.02347062 -0.038213994 0.00446994
0.024241528 0.020609522 -0.009229784 -0.0007869621 0.005376634 -0.016539708 0.031737488 0.009386832
-0.043313928 -0.0057901163 -0.034759972 -0.0074361786 -0.03690141 0.035370987 -0.008715301 -0.03638198
0.037432447 -0.0062531484 -0.015370134 -0.016829038 -0.023081344 -0.026708882 0.020981684 -0.01838131
0.046704773 0.05199273 0.03550983 -0.03437804 0.016256498 0.030306375 0.02206803 0.0044323695
-0.037209935 0.025016759 -0.0048861564 -0.019311877 -0.005139333 0.014857262 0.010597298 0.030458912
1.268009e-05 0.017118428 0.03873583 -0.028546274 0.014362249 -0.006063664 0.04184246 0.008707386
0.011104443 0.04510494 0.0068049403 0.028160868 0.026519464 -0.014691474 0.049004097 0.014874899
-0.025597202 -0.020478198 -0.023560943 0.020726029 -0.031754706 -0.01722857 0.036197178 -0.023642823
-0.03146637 0.04862735 -0.019118534 0.042455588 0.02224257 -0.03413218 -0.0070918878 -0.04356018
0.016080497 -0.009839535 0.019887581 -0.031554557 0.055793677 0.022958336 -0.0025522301 0.026464142
-0.027244927 -0.034655113 0.01698913 -0.021772787 0.053921204 0.0072197756 -0.024163622 0.02893459
00000000: 6f93 02bd cef0 46bc 7677 513c 3e07 08ba
00000010: 65ca 95bb dca7 7ebc 468e 4c3d 6497 e43a
00000020: 4c32 38ba eb29 483c a3f9 413d b69d 95bb
00000030: d758 6fbc 00a3 15bc ee49 9b3b 83c3 2b3d
00000040: c342 cc3c c5c5 df3c 297f 8cbc df76 393d
00000050: 5ad8 003d d591 20bd 0b66 073c 8a2a 74bc
00000060: d4b6 073b 89aa b5bc 50c9 ad3c 672b 06bd
00000070: 596e 33bd 0d94 8dbc 0eb8 293c 10e0 62bb
00000080: b286 353d 1c3b a33c a1b3 413b 92b0 c73c
00000090: 0fdd 0ebc 7545 c0bc 4786 1cbd 9378 923b
000000a0: 2b96 c63c 4dd5 a83c 8538 17bc 224c 4eba
000000b0: 7a2e b03b 487e 87bc 2bff 013d 3acb 193c
000000c0: f269 31bd 04bb bdbb 7960 0ebd 30ab f3bb
000000d0: ef25 17bd 2be1 103d 9fca 0ebc 4505 15bd
000000e0: c452 193d 36e7 ccbb 04d3 7bbc 0ddd 89bc
000000f0: 1615 bdbc 96cc dabc c8e1 ab3c 6794 96bc
00000100: 814d 3f3d 54f6 543d c172 113d fdcf 0cbd
00000110: 592c 853c 1345 f83c 03c8 b43c 693d 913b
00000120: 7269 18bd f2ef cc3c 0d1c a0bb f133 9ebc
00000130: da67 a8bb e06b 733c 4aa0 2d3c f884 f93c
00000140: 92bc 5437 f23b 8c3c 76a9 1e3d e0d9 e9bc
00000150: a34f 6b3c b3b1 c6bb 0063 2b3d 6da9 0e3c
00000160: 69ef 353c f5bf 383d fafb de3b 9fb1 e63c
00000170: 593f d93c 82b4 70bc 85b8 483d d9b5 733c
00000180: 39b1 d1bc e5c1 a7bc e102 c1bc a2c9 a93c
00000190: 3911 02bd ee22 8dbc 7e43 143d 98ae c1bc
000001a0: e1e2 00bd 792d 473d 799e 9cbc e9e5 2d3d
000001b0: 0d36 b63c 2fce 0bbd 1163 e8bb 296c 32bd
000001c0: 3fbb 833c 0036 21bc 48eb a23c 5a3f 01bd
000001d0: e987 643d 1f13 bc3c 5143 27bb 54cb d83c
000001e0: c130 dfbc 85f2 0dbd ca2c 8b3c d85c b2bc
000001f0: 7bdc 5c3d de93 ec3b caf2 c5bc 3c08 ed3c

deconv1.weight f4 [128, 64, 3, 3]
-0.02259801 -0.031544313 -0.010719949 -0.029942373 0.0041743265 0.00792774 0.028636305 0.008065808
-0.020675479 0.023277473 0.031345792 0.00049847993 0.04227679 -0.018234877 -0.0073190825 0.01708373
0.018286528 0.02569402 -0.04169794 -0.0052911383 -0.00500059 0.011373225 0.01895563 0.015168947
0.0009400272 -0.03459563 -0.012747554 0.03978771 -0.014514335 0.03915798 -0.024184795 0.010264405
-0.022982668 0.019989697 0.004586496 0.014501008 -0.0064876196 -0.0329299 0.0031333168 0.04527866
0.03783983 -0.029182343 -0.010413268 0.0034539993 -0.012472387 -0.014218571 0.00010487576 0.028605238
0.03440686 0.00605411 -0.035932466 -0.032546103 -0.008808751 -0.011016093 -0.038174044 0.015652942
-0.0482514 -0.038925044 -0.034984805 -0.05708658 0.0020890965 -0.012986632 0.010380721 -0.022518486
-0.03317503 -0.018405765 0.0017193453 -0.0129525885 0.02562353 0.03418471 -0.038981512 -0.03938585
-0.027415235 -0.013389507 -0.026936254 0.005025901 -0.03128064 0.014649395 0.020863345 0.026823144
-0.037295427 0.012327518 -0.027280422 -0.027490936 -0.009756779 0.02246554 0.037596047 -0.019073457
0.027133439 0.041999705 0.000687606 0.0147097185 -0.033020608 -0.0070024123 0.016950509 -0.04558094
0.01007501 -0.00074503064 -0.058419675 -0.02087829 0.0017271006 0.031007802 0.012933158 0.011780233
-0.019537948 0.0007264967 0.020228237 -0.023966715 0.014879722 -0.0033378992 0.027327565 -0.032276213
-0.04001281 -0.035032526 -0.035909284 0.0043102237 0.0038282112 0.021203436 -0.0012870543 -0.0015261985
-0.019888207 0.0012858913 0.025439277 -0.01921196 0.015274651 -0.025202537 -0.015082622 -0.050492246
0.026969077 0.0008119481 -0.027970096 -0.03648162 0.0051971576 0.0049613398 -0.013139177 -0.047629915
-0.020947002 0.0035558038 -0.03153234 -0.03395945 0.019490356 -0.00069736404 -0.0071284994 0.021060636
-0.003210765 0.00030049734 0.002231336 0.04424911 -0.026376871 0.008719175 0.041786384 0.025865898
-0.007269305 -0.038736828 0.023953058 -0.0038876461 -0.014384406 -0.023942694 -0.017372789 -0.0424606
0.024302565 -0.0023221448 -0.044641677 -0.070772216 -0.020582153 -0.013934821 -0.030274764 -0.0012229449
0.029031891 0.042731285 0.044094376 0.054121573 0.053633194 0.053928867 0.0036038945 0.050531898
-0.0029481177 -0.006406881 -0.032801747 0.030543867 -9.49944e-05 -0.00072892354 -0.0048891334 -0.06508719
-0.06185246 -0.03035401 -0.050116137 -0.04051468 -0.008195896 0.012632013 0.004220808 -0.0066953343
0.0019755377 -0.022674557 -0.022410152 -0.003680633 -0.033503994 -0.03842814 -0.000281306 0.023415383
0.018069219 -0.031841677 0.015528451 0.011560882 -0.013943932 -0.014010711 -0.019597862 -0.020650478
0.013118368 0.013720663 0.0023163469 -0.012667255 -0.049826138 -0.023783494 0.00052325556 0.022035412
-0.007048122 -0.02997736 0.042221464 0.014689456 0.013403393 -0.009887821 0.021960635 -0.01217015
-0.00461594 0.019278616 0.019722162 -0.042993534 0.032313935 -0.0256759 -0.03567228 -0.01761616
-0.008324697 -0.0095218215 0.01908791 -0.033140175 -0.0020237772 -0.019273056 0.03319326 0.028720872
-0.01901265 -0.03613052 -0.03847797 -0.022960668 -0.033781298 0.014217988 -0.020499729 0.016034903
0.02187566 -0.029351095 0.019136714 0.0036892246 -0.033577356 -0.0036812082 -0.023402585 0.040908623
00000000: 761f b9bc 9c34 01bd baa2 2fbc b549 f5bc
00000010: cac8 883b 5ae3 013c af96 ea3c 7326 043c
00000020: 9f5f a9bc 66b0 be3c 7264 003d 6cac 023a
00000030: 6d2a 2d3d 4f61 95bc ead4 efbb 2ef3 8b3c
00000040: a1cd 953c 447c d23c 76cb 2abd 4961 adbb
00000050: fddb a3bb c356 3a3c d648 9b3c 2d87 783c
00000060: 286c 763a 26b4 0dbd 1edb 50bc 70f8 223d
00000070: 89cd 6dbc 1e64 203d 311f c6bc 092c 283c
00000080: 2646 bcbc 6fc1 a33c 514a 963b a395 6d3c
00000090: 1996 d4bb 81e1 06bd 5558 4d3b 1e76 393d
000000a0: f0fd 1a3d cf0f efbc 699c 2abc 7e5c 623b
000000b0: fc58 4cbc 02f5 68bc bff0 db38 8855 ea3c
000000c0: 35ee 0c3d 8e61 c63b ec2d 13bd 104f 05bd
000000d0: 9452 10bc d87c 34bc 635c 1cbd 993a 803c
000000e0: 43a3 45bd de6f 1fbd 3a4c 0fbd 9ed3 69bd
000000f0: 39e9 083b e2c5 54bc e613 2a3c b078 b8bc
00000100: 8ae2 07bd b0c7 96bc a85b e13a 1837 54bc
00000110: 70e8 d13c 4405 0c3d 14ab 1fbd 0f53 21bd
00000120: ea95 e0bc aa5f 5bbc 6ba9 dcbc 50b0 a43b
00000130: 2120 00bd 0404 703c 9be9 aa3c 36bc db3c
00000140: 17c3 18bd 5cf9 493c 317b dfbc ac34 e1bc
00000150: e6da 1fbc a709 b83c 50fe 193d f03f 9cbc
00000160: f246 de3c e207 2c3d 7540 343a 0801 713c
00000170: 9e40 07bd 7e74 e5bb cbdb 8a3c 14b3 3abd
00000180: a811 253c 294e 43ba 7849 6fbd f308 abbc
00000190: e15f e23a 1304 fe3c 99e5 533c e101 413c
000001a0: 0c0e a0bc 5e72 3e3a b0b5 a53c d855 c4bc
000001b0: 14ca 733c a8c0 5abb 0fde df3c 1034 04bd
000001c0: 79e4 23bd 447e 0fbd 9d15 13bd c73c 8d3b
000001d0: bae2 7a3b d4b2 ad3c 60b2 a8ba b90a c8ba
000001e0: 98ec a2bc 5a8b a83a 0866 d03c 6662 9dbc
000001f0: 8842 7a3c 8d75 cebc 1a1d 77bc f5d0 4ebd
00000200: 41ee dc3c ead8 543a 8b21 e5bc c06d 15bd
00000210: eb4c aa3b bc92 a23b b445 57bc 9617 43bd
00000220: 0c99 abbc 7d08 693b 0e28 01bd 1019 0bbd
00000230: 3daa 9f3c 4fcf 36ba 3096 e9bb 5b87 ac3c
00000240: b36b 52bb 128c 9d39 9b3b 123b 8e3e 353d
00000250: 4f14 d8bc dfda 0e3c 3328 2b3d b8e4 d33c
00000260: 5a33 eebb 82aa 1ebd 3439 c43c e1c7 7ebb
00000270: 92ac 6bbc 7823 c4bc 6151 8ebc 2beb 2dbd
00000280: 2c16 c73c 202f 18bb 31da 36bd 06f1 90bd
00000290: e79b a8bc e04e 64bc c802 f8bc 394b a0ba
000002a0: 4ad4 ed3c 0007 2f3d 4e9c 343d 95ae 5d3d
000002b0: 7bae 5b3d 84e4 5c3d 512f 6c3b 89fa 4e3d
000002c0: 3535 41bb d0f0 d1bb 205b 06bd 2237 fa3c
000002d0: bb37 c7b8 3b15 3fba 0635 a0bb 6f4c 85bd
000002e0: 0159 7dbd f9a8 f8bc 9446 4dbd b9f2 25bd
000002f0: 1448 06bc 81f6 4e3c b44e 8a3b 8964 dbbb
00000300: 0678 013b febf b9bc 7f95 b7bc c636 71bb
00000310: 7c3b 09bd d366 1dbd 417c 93b9 9ed1 bf3c
00000320: e605 943c 6b6c 02bd 0b6b 7e3c db69 3d3c
00000330: 1775 64bc 2e8d 65bc b28b a0bc 312b a9bc
00000340: 6cee 563c a2cc 603c dacd 173b 518a 4fbc
00000350: 7e16 4cbd 9ad5 c2bc 162b 093a 9c83 b43c
00000360: eff3 e6bb 1593 f5bc 6af0 2c3d 0bac 703c
00000370: e899 5b3c 8700 22bc cae6 b33c 4f65 47bc
00000380: 5041 97bb 30ee 9d3c 5f90 a13c fd19 30bd
00000390: 9e5b 043d 4456 d2bc 191d 12bd c44f 90bc
000003a0: 4f64 08bc 6a01 1cbc 405e 9c3c febd 07bd
000003b0: 59a1 04bb 87e2 9dbc a8f5 073d 0948 eb3c
000003c0: 6bc0 9bbc 99fd 13bd 139b 1dbd 0318 bcbc
000003d0: 425e 0abd 90f2 683c 0cef a7bc a15b 833c
000003e0: 9634 b33c b571 f0bc 99c4 9c3c ebc6 713b
000003f0: 6988 09bd 6d40 71bb c7b6 bfbc cd8f 273d

deconv1.bias f4 [64]
-0.017543627 0.043644145 0.043951273 -0.038220115 -0.019157361 -0.004855433 0.04772545 0.008709355
0.01353648 0.038665082 -0.004173687 0.019289095 0.024696317 -0.03915268 0.01097413 0.047968496
0.033851724 -0.035894126 0.014113229 0.0122972615 -0.0067227962 0.056291237 0.0055652587 -0.01698122
0.026250636 -0.014387038 -0.024438921 0.05276524 0.0051443363 -0.03708495 0.048100017 -0.016073545
-0.012822259 0.0051776976 0.017290697 0.022009002 0.051700514 0.057027437 0.024039462 0.014339675
0.016405284 -0.03661968 0.050390005 -0.01811817 0.038245924 -0.013252785 -0.01201433 0.05672955
0.033356108 0.037044305 0.043951996 0.042561732 0.003402122 -0.012429996 0.027007937 0.018716661
0.041976254 0.009849551 -0.028005967 -0.02226091 -0.035924442 -0.029507464 -0.008178305 -0.017742585
00000000: a7b7 8fbc 34c4 323d 4006 343d b28c 1cbd
00000010: e6ef 9cbc 531a 9fbb c37b 433d afb1 0e3c
00000020: 1dc8 5d3c 475f 1e3d 6dc3 88bb 2a04 9e3c
00000030: ee4f ca3c 905e 20bd d6cc 333c 9d7a 443d
00000040: 1ba8 0a3d b805 13bd 2c3b 673c 747a 493c
00000050: e74a dcbb a491 663d c65c b63b 331c 8bbc
00000060: 930b d73c 9cb7 6bbc 2234 c8bc 5d20 583d
00000070: d291 a83b 63e6 17bd 8604 453d abac 83bc
00000080: 7414 52bc ada9 a93b 38a5 8d3c 394c b43c
00000090: ebc3 533d 9a95 693d 68ee c43c f5f0 6a3c
000000a0: 6064 863c 84fe 15bd c065 4e3d 8e6c 94bc
000000b0: c2a7 1c3d 3622 59bc c1d7 44bc 3f5d 683d
000000c0: 6aa0 083d c5bb 173d 0207 343d 3655 2e3d
000000d0: 23f6 5e3b 2fa7 4bbc c03f dd3c af53 993c
000000e0: 4bef 2b3d 0360 213c c56c e5bc 835c b6bc
000000f0: 8225 13bd a3b9 f1bc 4cfe 05bc e658 91bc

deconv2.weight f4 [64, 64, 3, 3]
0.002367117 -0.020225301 0.043449678 0.008632853 -0.005226185 0.017095229 0.026931344 -0.01588964
0.0012806649 0.024254309 -0.019112872 0.05448467 -0.01235883 0.0096055055 0.007816287 0.03691968
0.044435803 0.02023622 -0.021423168 0.0019606692 -0.016813952 -0.01246093 0.042159207 -0.036190897
-0.012101491 0.038769454 0.0068247495 0.0015642715 0.0072802375 0.022834364 4.9977963e-05 -0.026766034
0.039415978 -0.017269755 -0.03604474 -0.016747745 -0.0062931087 0.0018269155 0.047387768 0.04274681
0.017854895 0.03962872 0.045136284 0.020711308 0.047530286 0.015152553 0.015172736 -0.025924318
0.0029371905 0.03450092 0.025320133 -0.031974547 -0.02967918 -0.011961262 -0.01688659 -0.02479335
-0.0277984 0.027609445 0.006836033 0.009973727 -0.048178878 -0.023063358 -0.02822876 0.00880568
-0.0254052 -0.01744473 0.042808704 -0.009181022 -0.012573413 -0.029008886 -0.029628597 0.022577424
0.010177999 -0.010600139 0.03193382 0.007572291 0.024053484 0.050081834 0.030902231 0.05416244
0.00035715933 -0.008292282 -0.001098214 0.039133657 0.0139100505 -0.008343747 -0.023080902 0.049206868
0.007972343 0.028011302 0.04477603 0.031113148 0.005918492 0.021992117 -0.015706588 0.0002457879
0.004544775 0.047796372 0.044192594 0.021802552 -0.036401168 0.026595846 0.011453496 0.016498685
0.009305389 -0.014984935 0.024234718 0.022568474 -0.0145855425 -0.045431156 -0.020543573 -0.009585394
-0.0087202145 -0.024351206 0.023389198 -0.009757351 -0.0112065105 0.016529858 -0.006969528 0.030640248
-0.016562577 -0.02819592 -0.03522202 -0.025651852 0.005736275 0.043030825 -0.013592099 -0.042807624
0.028981317 0.025228506 -0.02450062 -0.023112973 0.02970442 -0.018498823 -0.022902519 -0.008960948
0.017072184 0.0015585662 0.050778512 -0.0072064274 0.0033454017 -0.01845009 -0.024505222 -0.014185775
-0.0054739905 -0.012480536 -0.026361564 -0.033773147 0.0035487406 -0.0129469745 -0.0022565762 -0.041311584
-0.013644611 0.0011277574 0.049202044 0.023409205 -0.00042539558 0.0011417749 -0.005754222 0.04202818
0.0033658782 0.028765611 0.031583343 0.033740602 0.0026716476 -0.028699134 -0.039335355 0.026185323
0.018533101 0.032234013 -0.027698228 0.021736866 -0.020132216 -0.018130977 -0.024969311 -0.03908755
-0.036998253 -0.039970294 -0.011311991 0.031561818 -0.048880428 -0.022873234 -0.0059141256 0.01838895
0.0072989087 -0.039004333 0.024692487 0.013322785 -0.02646088 -0.021064568 0.01702341 -0.014669118
0.02802171 -0.040346723 -0.020667879 0.0153588215 0.008486142 -0.0064961356 -0.0017991181 0.002295802
0.023637317 -0.038649466 -0.0034009935 0.0071441536 -0.0010800763 -0.013676434 -0.012650413 0.03728306
0.031909738 -0.030091764 -0.0030038347 -0.04242237 0.0008509089 -0.027048014 0.007885644 0.01309851
0.007975862 0.0007013685 0.01152047 -0.027029345 -0.0029439072 0.03138059 0.03761059 0.033709105
0.013246613 0.020043846 0.0072904904 0.024760552 -0.0076996386 0.00510478 -0.017160403 0.03603499
0.0060216216 -0.0071893516 0.03893636 0.0361486 0.019403154 0.0030458602 0.046534963 0.039490554
0.04406584 0.031780533 -0.005768442 0.025847815 -0.029408572 0.0014055464 -0.013538077 -0.04575574
-0.041398387 -0.012157292 -0.014417468 -0.04209469 0.04648445 -0.0037311562 0.05291194 0.0471716
00000000: a221 1b3b 88af a5bc 4af8 313d cf70 0d3c
00000010: 6b40 abbb 4b0b 8c3c 1f9f dc3c fe2a 82bc
00000020: fcdb a73a f9b0 c63c 9992 9cbc 512b 5f3d
00000030: b17c 4abc 6960 1d3c e20f 003c 1739 173d
00000040: 5102 363d 6ec6 a53c a47f afbc 927e 003b
00000050: 6abd 89bc ee28 4cbc 22af 2c3d e83c 14bd
00000060: 5545 46bc b8cc 1e3d 26a2 df3b 3e08 cd3a
00000070: 0f8f ee3b 220f bb3c 6e9f 5138 7144 dbbc
00000080: a672 213d 4d79 8dbc a6a3 13bd 9132 89bc
00000090: 6c36 cebb 1d75 ef3a ad19 423d 4717 2f3d
000000a0: 6e44 923c ba51 223d d3e0 383d c3aa a93c
000000b0: 1eaf 423d 6a42 783c 1197 783c 3c5f d4bc
000000c0: e17d 403b d650 0d3d 2b6c cf3c bef7 02bd
000000d0: c021 f3bc 2bf9 43bc bf55 8abc 6c1b cbbc
000000e0: 78b9 e3bc 342d e23c cd00 e03b d868 233c
000000f0: 3757 45bd 5eef bcbc 0040 e7bc b345 103c
00000100: 911e d0bc 40e8 8ebc 2e58 2f3d ff6b 16bc
00000110: b700 4ebc 0ba4 edbc acb7 f2bc 4af4 b83c
00000120: 9fc1 263c 35ac 2dbc 0acd 023d fb20 f83b
00000130: d00b c53c 9c22 4d3d ad26 fd3c 6fd9 5d3d
00000140: 1d41 bb39 5adc 07bc f2f1 8fba 9d4a 203d
00000150: fbe6 633c 36b4 08bc 2914 bdbc 248d 493d
00000160: 6e9e 023c f577 e53c 1267 373d 00e1 fe3c
00000170: e9ef c13b d028 b43c 1aab 80bc 18dd 8039
00000180: 56ec 943b 21c6 433d 4b03 353d 449b b23c
00000190: 6419 15bd 88df d93c 72a7 3b3c 4028 873c
000001a0: a175 183c 5f83 75bc e387 c63c 85e1 b83c
000001b0: 33f8 6ebc 0516 3abd ff4a a8bc 0e0c 1dbc
000001c0: 3bdf 0ebc 2e7c c7bc b49a bf3c 4cdd 1fbc
000001d0: 839b 37bc a069 873c a360 e4bb 4201 fb3c
000001e0: 3eae 87bc 21fb e6bc f744 10bd d523 d2bc
000001f0: 5df7 bb3b 1741 303d 65b1 5ebc 0c57 2fbd
00000200: 3a6a ed3c 03ac ce3c 86b5 c8bc 6b57 bdbc
00000210: af56 f33c d88a 97bc 109e bbbc f1d0 12bc
00000220: f7da 8b3c ce48 cc3a 21fd 4f3d e523 ecbb
00000230: 873e 5b3b a524 97bc 2dbf c8bc 746b 68bc
00000240: 295f b3bb 297b 4cbc 35f4 d7bc b655 0abd
00000250: fd91 683b 8c1f 54bc 11e3 13bb 5636 29bd
00000260: a68d 5fbc 42d1 933a 1588 493d a9c4 bf3c
00000270: a107 dfb9 9ca7 953a ea8d bcbb be25 2c3d
00000280: 1196 5c3b dca5 eb3c 895d 013d 9633 0a3d
00000290: cf16 2f3b 721a ebbc 1c1e 21bd 9a82 d63c
000002a0: bbd2 973c d007 043d 65e7 e2bc 8311 b23c
000002b0: 51ec a4bc 6a87 94bc 718c ccbc 441a 20bd
000002c0: 7b8b 17bd e4b7 23bd ee55 39bc f746 013d
000002d0: d836 48bd a660 bbbc 48cb c1bb 6ca4 963c
000002e0: af2b ef3b 02c3 1fbd e647 ca3c cf47 5a3c
000002f0: 7dc4 d8bc 9a8f acbc ae74 8b3c be56 70bc
00000300: c98d e53c 9b42 25bd af4f a9bc 91a3 7b3c
00000310: 7609 0b3c 89dd d4bb 63d0 ebba 2b75 163b
00000320: 0ca3 c13c e74e 1ebd 34e3 5ebb 8119 ea3b
00000330: 5991 8dba 1f13 60bc ae43 4fbc 1fb6 183d
00000340: c9b3 023d 0183 f6bc fcdb 44bb 14c3 2dbd
00000350: 880f 5f3a cc93 ddbc ca32 013c 229b 563c
00000360: 31ad 023c 0bdc 373a 5ac0 3c3c a56c ddbc
00000370: 91ee 40bb ef88 003d 900d 1a3d 8f12 0a3d
00000380: 5208 593c fe32 a43c 11e5 ee3b a4d6 ca3c
00000390: 404d fcbb 0046 a73b f993 8cbc 6d99 133d
000003a0: 0651 c53b a794 ebbb bc7b 1f3d 8e10 143d
000003b0: 5df3 9e3c 0e9d 473b 729b 3e3d d9c0 213d
000003c0: 627e 343d 4e2c 023d 3305 bdbb ccbe d33c
000003d0: 3fea f0bc 503a b83a cfce 5dbc 5f6a 3bbd
000003e0: 5b91 29bd 612f 47bc 3e37 6cbc 7b6b 2cbd
000003f0: 7b66 3e3d 6a86 74bb 31ba 583d 0237 413d

deconv2.bias f4 [64]
-0.015097727 -0.07699603 -0.013037079 -0.04040614 0.0028109823 -0.042310268 0.053286944 -0.05265623
-0.0551394 -0.043275796 -0.0496385 3.8399085e-05 0.022982726 -0.048915878 0.0021654738 -0.058278147
0.0078206165 -0.08291144 0.013644606 0.0059137614 0.07320421 -0.052929185 0.09672443 -0.018172838
-0.012730839 -0.10273566 0.024709102 0.09207337 -0.062037554 -0.0073062233 -0.03795117 0.026309349
-0.016928164 -0.023762068 -0.09002828 0.046043 -0.03677742 -0.032583784 -0.08681702 -0.08428215
-0.03810666 0.06966453 -0.06204681 0.07114935 0.021383906 -0.042688437 -0.03582441 -0.061431095
-0.045844764 -0.059864897 -0.0061562415 0.06469156 0.061080962 -0.071979366 0.0033815287 0.037479132
0.08625411 -0.0075319074 0.061866477 0.059747446 0.04182012 0.043172076 0.03569691 0.027501218
00000000: 755c 77bc 18b0 9dbd 7999 55bc e980 25bd
00000010: 7538 383b 884d 2dbd 6943 5a3d 0fae 57bd
00000020: dad9 61bd f641 31bd bd51 4bbd b40e 2138
00000030: 4546 bc3c 045c 48bd 9fea 0d3b 11b5 6ebd
00000040: 0b22 003c 79cd a9bd a08d 5f3c 3ac8 c13b
00000050: 17ec 953d 46cc 58bd 7517 c63d 34df 94bc
00000060: 0295 50bc 1367 d2bd be6a ca3c f790 bc3d
00000070: 171b 7ebd 0b69 efbb b072 1bbd b486 d73c
00000080: efac 8abc aba8 c2bc bf60 b8bd 9697 3c3d
00000090: eca3 16bd 9376 05bd 1fcd b1bd 1f9c acbd
000000a0: bb15 1cbd 47ac 8e3d cc24 7ebd c0b6 913d
000000b0: 4d2d af3c 12da 2ebd 9ebc 12bd 2c9f 7bbd
000000c0: b8c7 3bbd e534 75bd 4cba c9bb 027d 843d
000000d0: 0830 7a3d eb69 93bd a39c 5d3b b883 193d
000000e0: ffa5 b03d 38ce f6bb b467 7d3d bdb9 743d
000000f0: 934b 2b3d 34d5 303d ec36 123d 3c4a e13c
