contrastive_big_save_archive/contrastive_weights_last.pt (torch, 749068 bytes, 8 tensors)

conv1.weight f4 [64, 3, 3, 3]
000000 50 5f ec 3c 2d 4c 23 bd 89 f5 1e be 2a 78 93 3d
       0.028854042 -0.03986757 -0.15523352 0.07200654
000010 55 60 06 be c8 99 38 bd ea ab 1b bd 42 91 1e bd
       -0.13122685 -0.045068532 -0.038005747 -0.038712747
000020 83 e4 3a 3e 7c 82 25 be 04 9b 01 be c0 d4 dd 3c
       0.18251233 -0.16163057 -0.1265679 0.027078986
000030 65 07 2c be de 69 ab bd c1 0a 0f bd 2f 58 0e be
       -0.16799696 -0.08369802 -0.034922365 -0.13900827
000040 3a 83 3f 3e 9f ae 52 bd 3b 6b 86 bb 62 cb 36 be
       0.18702403 -0.051436063 -0.0041021383 -0.17851022
000050 f3 e1 9f bc 2a a8 82 3d 94 f7 f9 3b d1 84 30 3e
       -0.01951692 0.06379731 0.0076283906 0.17238165
000060 9a d7 cb bd 34 16 c6 bd da 3b 24 be 64 22 f1 3c
       -0.09953232 -0.09672204 -0.16038457 0.029435344
000070 29 b7 09 be e0 27 12 be 0b 8b 8a bd 97 91 c5 bd
       -0.13448776 -0.14273024 -0.067648016 -0.0964691
000080 d5 ec 38 be 70 85 7e 3d 71 b1 bb bd 18 cc 48 3d
       -0.18059094 0.062138975 -0.09164704 0.049022764
000090 e3 53 73 3d 39 95 cc 3d 34 fc 90 bd 60 b1 12 be
       0.059406172 0.099893995 -0.07079354 -0.14325476
0000a0 a3 87 37 3e 34 93 f2 3c 1c d5 18 3e 77 93 c8 bd
       0.17922835 0.029611208 0.14925045 -0.09793752
0000b0 fe 09 d8 3b 8e 88 ec bc 7d ea e6 3d 6f f6 76 bd
       0.006592988 -0.028873708 0.11275194 -0.06029361
0000c0 db 18 59 bb a2 54 ba 3d 1c 4e ae 3d af 84 8b bd
       -0.0033126387 0.09098174 0.08510992 -0.06812417
0000d0 9a 57 3b 3e 5f 5e cb bd 9e c8 d5 bc 60 45 c8 3c
       0.18295136 -0.09930109 -0.026096638 0.024447143
0000e0 e1 9e 56 bd 51 3d 33 3e 90 43 37 be c5 60 a8 3d
       -0.052397612 0.17503859 -0.17896867 0.08221582
0000f0 c0 4e 03 3d bc e1 2e 3e d0 7a b9 3d 6a c9 42 be
       0.032057524 0.17078298 0.09056628 -0.19022146
000100 5f 93 1a be 12 cd 84 3d 30 4b e9 3d 7f 79 ef bd
       -0.1509528 0.064844266 0.11391294 -0.116930954
000110 bf 93 0b 3e f9 2a 02 3d be 66 1a 3e 89 37 cd 3d
       0.1363058 0.031779263 0.15078256 0.10020358
000120 13 1b e0 3d 9e c7 ed bc 60 b7 26 bd e2 a3 1f bc
       0.10942664 -0.029025849 -0.040702224 -0.009743663
000130 50 83 e9 3d 4c f4 db 3d b7 78 d6 bc c1 5e 4b 3b
       0.11401999 0.10739955 -0.026180608 0.003103182
000140 10 43 ab 3d 60 76 d4 bd 32 8f fa 3d f6 cf 20 be
       0.083624005 -0.10374141 0.122343436 -0.15704331
000150 98 2c b2 bd 30 c6 09 be 17 54 26 be eb 22 32 be
       -0.08699912 -0.13454509 -0.16243015 -0.17396133
000160 a1 23 20 3e 8b 63 96 3d 5d 70 0d be 80 f0 90 3d
       0.15638591 0.07343205 -0.13812394 0.07077122
000170 b9 86 da bc a9 23 b1 bd dc c2 9e bd 23 fd 39 bd
       -0.026675569 -0.0864938 -0.0775201 -0.045407426
000180 90 2b 9e bd 8d 61 26 bc 4e 36 13 3e 5c 06 96 bd
       -0.07723153 -0.010155094 0.14376184 -0.07325432
000190 ae 04 a1 bd f2 f7 1e 3e 02 42 d8 3d 6b a1 dc 3d
       -0.07862221 0.15524271 0.10559465 0.107729755
0001a0 91 ea 35 be 9b c1 76 3d 23 d4 0d bd 25 60 01 bc
       -0.17765261 0.06024323 -0.034626137 -0.007896458
0001b0 30 a2 8b bd 0e 78 b1 3d 9f 1f 02 be 8c 83 14 be
       -0.06818044 0.08665477 -0.12707375 -0.14503306
0001c0 bf f5 fb 3d a9 57 98 bc e3 e5 06 be 6e 17 9c bd
       0.12302732 -0.018596487 -0.13173632 -0.07621656
0001d0 b3 7f c1 bd 73 7c 04 be ce 2e 29 be 01 d4 b2 bc
       -0.09448185 -0.12938099 -0.16521761 -0.021829607
0001e0 9e b4 35 bd e4 d4 a9 3d 0b 95 62 3d c6 1f bc bc
       -0.044361703 0.08292559 0.05531792 -0.02296437
0001f0 8b 0d c1 bd 27 f4 c0 bc 19 22 2d be 7b d9 c4 bd
       -0.09426411 -0.02355392 -0.16907538 -0.096117936
000200 55 f9 dd 3c 34 f6 4c bc 5a b1 00 3e 6f 79 94 3d
       0.02709643 -0.012509871 0.12567654 0.07249724
000210 c9 cc ca bd 40 17 a9 bd cf 60 9b 3c be 46 0d 3e
       -0.09902341 -0.08256388 0.01896706 0.13796517
000220 0b 74 1f 3e fa 56 43 be 38 6b 83 3d 9b 7b 81 bc
       0.1557161 -0.19076148 0.06416935 -0.01580601
000230 2f 36 44 3e c3 94 cb bb 31 fe 3f 3d c6 09 c0 3d
       0.19161294 -0.006212802 0.046873275 0.09376864
000240 c5 99 3b 3e 32 3d 96 3d 39 41 4d 39 40 77 79 3c
       0.18320377 0.07335891 0.00019574621 0.015226185
000250 b1 85 c7 3d 75 b8 ab 3c 1c da 55 bc cb 3c 2c bd
       0.097422965 0.02096198 -0.01305249 -0.042050164
000260 7e 1d af bc 91 23 4c bd 83 90 2f 3e d6 41 c0 3d
       -0.021376368 -0.049838606 0.1714497 0.09387557
000270 b4 1a 6e bd 80 6e fd bd fa 86 95 3b f4 3b 67 3b
       -0.058130935 -0.12374592 0.0045632096 0.0035283538
000280 a1 1a 25 be 02 1c b4 bd ac 66 25 bd fe 56 83 bd
       -0.1612344 -0.087944046 -0.04038112 -0.06413077
000290 48 ae 21 3e 8b 9f 05 3e 95 01 b6 bd da 45 65 bc
       0.1578914 0.13049142 -0.088870205 -0.013993705
0002a0 b9 38 01 3e 18 a1 8e bc b4 25 1f 3e f4 a3 ee bd
       0.12619294 -0.0174108 0.15541726 -0.11652365
0002b0 5f 2f e7 3d 58 b6 13 3e 87 1e 2d be ff 03 0b 3e
       0.11288332 0.14425027 -0.16906177 0.13575743
0002c0 5b 82 c2 bd 8e f9 f7 bd 83 d3 0a 3e ad 52 2c 3e
       -0.094975196 -0.12108146 0.13557248 0.16828413
0002d0 12 80 40 3e 98 25 a7 3d 8d 97 6b 38 9f 97 d7 3d
       0.18798855 0.08161467 5.616951e-05 0.10526966
0002e0 2c 6c 9a bd ed bc 1f be a8 cc 8a bd 41 09 d1 bc
       -0.075401634 -0.15599413 -0.06777316 -0.025517108
0002f0 0a 89 20 3e a8 de 84 bc ed ef e2 bb c7 da 6e bd
       0.15677276 -0.016219452 -0.006925574 -0.05831411
000300 d9 f3 95 3b f7 f2 2b bd 2f bf 4d bd 56 34 25 3e
       0.004576188 -0.041979756 -0.050231155 0.16133246
000310 0a 50 33 3e b1 16 1a be 54 d4 43 be 2a 46 4b 3c
       0.17511001 -0.15047719 -0.19123966 0.012406865
000320 80 e8 a3 3d 06 f1 3f 3e 97 21 14 3e 7f 9c bc bc
       0.0800333 0.18744287 0.14465939 -0.023023842
000330 b6 8a f4 3d 69 38 00 bc 4f c5 96 bd da 95 2f 3e
       0.119405195 -0.007825949 -0.073618524 0.17147008
000340 5f 33 40 3e 86 8c 58 3d 74 18 50 bd 1e 90 65 bc
       0.18769597 0.05286839 -0.05080457 -0.014011411
000350 e5 f4 ac bd a2 8c e8 bd 9c d1 3d 3e 62 8b 94 bd
       -0.084451474 -0.113549486 0.18536991 -0.07253148
000360 a1 d5 0b be 19 e6 c8 3d 2a 82 06 bd e7 e2 1a be
       -0.13655712 0.09809513 -0.032838978 -0.15125619
000370 b2 09 e0 bb 8e 0c 2a 3c 8e 33 1a be e0 59 2c be
       -0.0068370933 0.01037897 -0.15058729 -0.1683116
000380 a2 3e 40 3e 48 5a aa bd 0e f9 c2 bd eb 1a 67 3d
       0.18773893 -0.08318001 -0.0952016 0.056422155
000390 55 fa b0 3d aa 53 67 3d ea 4c 3d 3e 5f 73 13 bd
       0.08641497 0.056476273 0.18486372 -0.0359987
0003a0 7c b5 cc bc 04 75 81 bd a5 96 e2 3d 3f 19 ab 3c
       -0.024988882 -0.06321147 0.110638894 0.020886062
0003b0 37 4a 0e 3e f0 af fa bd 42 e3 b3 bd 6c ed 83 bd
       0.13895498 -0.12240589 -0.0878358 -0.06441769
0003c0 77 bd 0c be af 9a 82 3d 47 65 2e be 52 99 62 3d
       -0.1374415 0.0637716 -0.17030822 0.055322
0003d0 e2 57 de bd e6 15 14 be 01 17 08 be 28 38 77 3d
       -0.10856606 -0.14461479 -0.13290025 0.06035629
0003e0 f0 ca 15 be 32 2a f1 3d 0f 9d 58 3d 07 a4 a9 bd
       -0.14628196 0.11775626 0.052884158 -0.08283239
0003f0 6d 9e d4 bc 81 41 a8 3d 93 ee db 3d 81 f4 31 3e
       -0.02595445 0.08215619 0.10738864 0.17378427

conv1.bias f4 [64]
000000 de ae 28 bd 8b 4c a5 3d 43 bc 12 3e a8 aa b0 3d
       -0.04118239 0.0807124 0.14329629 0.086263
000010 36 cb 35 3e 00 51 1c 3d 3f 74 39 be c7 e0 1f bd
       0.177533 0.038163185 -0.1811075 -0.039032724
000020 19 91 19 3e 2a 68 88 bd c7 b2 2c 3c d8 f2 43 be
       0.14996757 -0.06660493 0.010540671 -0.19135606
000030 94 c9 e3 bc d6 39 8d 3d 29 b5 ff 3d bf c0 d9 bc
       -0.02780608 0.06895797 0.124857254 -0.026581166
000040 9b da f4 3d e3 49 02 3e 35 c7 2d be d8 08 44 be
       0.11955758 0.12723498 -0.16970523 -0.19143999
000050 61 27 2c be 9c 84 5e 3c 83 a5 a3 3d a5 44 1d 3e
       -0.16811897 0.013581421 0.07990553 0.15358217
000060 ca ab 6f bd c8 42 84 3d 33 b0 0b bc c1 b1 1c 3e
       -0.05851344 0.0645805 -0.008525896 0.15302183
000070 60 26 55 3d 78 5f 8f 3c db bc 04 3d 81 f9 06 3e
       0.05203855 0.017501578 0.03240667 0.13181116
000080 92 a6 3a bd 88 bb 33 3e 83 9f 37 3e df 3a 00 3e
       -0.04556901 0.17552006 0.17931943 0.12522458
000090 a6 56 f1 3c fb 98 0f be 18 16 10 3e 9f d4 36 be
       0.029460263 -0.14023201 0.14070928 -0.17854546
0000a0 ed 8b d5 bc 33 ff 0f be b4 7d 1a bd 17 ac 3c 3e
       -0.026067698 -0.14062195 -0.037717536 0.18425022
0000b0 b9 2f da bd 98 21 16 3d 80 0b 0c 3e c7 b8 5e 3d
       -0.106536336 0.03665313 0.13676262 0.054375436
0000c0 ed 6d a0 bc 4c 16 6e bd 0d 0b da 3d c6 59 32 3b
       -0.019583667 -0.058126733 0.10646639 0.0027214154
0000d0 2a a2 29 bc 5d 19 0b 3e f8 a7 e6 bd 64 4d a2 3d
       -0.010353604 0.13583894 -0.11262506 0.07924917
0000e0 d7 fb b7 3d aa ab 3d be 61 02 f9 bd 19 3d 5d bd
       0.089835815 -0.18522516 -0.12158657 -0.054013345
0000f0 81 18 04 3e 3e f4 91 bd e3 28 41 3e 71 4a 2c be
       0.12899972 -0.071266636 0.18863253 -0.16825272

conv2.weight f4 [128, 64, 3, 3]
000000 00 8a f2 3a e8 35 92 bc 3b e0 7c 3c 56 75 21 3c
       0.0018504262 -0.01784797 0.01543432 0.009854635
000010 ab c0 92 bb 16 fe 57 bb 9b 43 a5 3c 2c d3 08 bd
       -0.004478534 -0.0032957844 0.020173838 -0.033404514
000020 d6 48 06 3c 94 38 21 3d 6f b3 b9 3b 9d 24 d4 bc
       0.008196076 0.039360598 0.005667142 -0.025896365
000030 84 3f 9b bc 04 fe 07 bd 58 81 84 3b 65 16 bb bc
       -0.018951185 -0.033201233 0.0040437393 -0.022837827
000040 0b bd 70 3c 6f ac 25 bd a1 0b d3 3c 4e d9 39 3c
       0.014693509 -0.04044765 0.025762381 0.011343313
000050 56 06 d7 bb 37 42 d9 bc 4e 33 03 bd d0 6b be bc
       -0.0065620346 -0.026520832 -0.03203135 -0.023244768
000060 b4 e1 f4 bc 57 38 bc bc 7d 19 9c bb 66 0b d3 bc
       -0.02989278 -0.022976084 -0.0047637806 -0.025762271
000070 97 7d c4 bc af 66 da bc c6 48 af 3c 87 32 24 38
       -0.023985667 -0.026660291 0.021397006 3.9147704e-05
000080 38 ed 99 bb e0 62 99 bc 6d 71 66 bc 76 8c b9 3c
       -0.004697468 -0.018723905 -0.014065129 0.022649985
000090 64 09 88 3b 9c eb e3 3c aa e3 63 bc bf 7e 06 3d
       0.00415151 0.027822308 -0.01390926 0.03283572
0000a0 7e 11 b8 3c 54 63 4c 3b 8f a8 cd ba 6f 16 65 bb
       0.022469278 0.0031187134 -0.0015690493 -0.0034955998
0000b0 ba 96 ab 3b f2 85 05 bd c6 8c c5 ba db f6 f5 3c
       0.005236474 -0.032598443 -0.0015071861 0.030024936
0000c0 c8 c1 31 bd 7c 7a e4 bc 1e 17 d8 3b 5a 43 e3 3a
       -0.043397695 -0.027890436 0.0065945527 0.0017338798
0000d0 c9 68 bd 3a f3 11 41 3c a8 40 5f 3c 90 1b af 3c
       0.0014450784 0.011784065 0.013626255 0.021375448
0000e0 10 6c 12 bd 9f 7b f9 bc 59 dd 9b bc 0b 74 ba 3b
       -0.035747588 -0.030454455 -0.019026445 0.005690103
0000f0 fa 09 a4 bc e7 2d a1 3a 98 cd fb bc 90 e5 52 bc
       -0.020024288 0.0012297005 -0.030737683 -0.012872115
000100 1d 65 95 3c 71 de 1d 3d 78 fc 10 bd f8 07 7b 3c
       0.018236691 0.038542215 -0.035397023 0.015321724
000110 19 eb de bc 3c 71 39 3c 56 da 76 3c e9 c9 e6 3b
       -0.027211713 0.011318501 0.015066704 0.0070431125
000120 e7 f6 33 bd 9e a5 41 bb a2 25 af bc b3 2e d0 3b
       -0.043936636 -0.0029548178 -0.02138025 0.006353223
000130 3e 7b e4 bc 2e a6 2d bd ae f5 80 ba 1d d7 88 3c
       -0.027890798 -0.04239481 -0.0009838843 0.016704137
000140 03 1f 5f bc 94 5a 2f 3c cc 08 20 bb da 7b 93 bc
       -0.013618234 0.010702748 -0.0024419306 -0.018003393
000150 62 d2 2c 3c e4 b7 ba 3b 34 45 20 bc ad a7 f3 bc
       0.010548206 0.005698191 -0.009782124 -0.02974304
000160 c7 a0 af bc 97 69 07 bc 95 45 21 bd 82 fc 02 bd
       -0.02143897 -0.008264921 -0.039373 -0.03197909
000170 5f 52 bc 3c d6 72 0b 3c f9 71 b6 3c 8e c9 27 bc
       0.022988496 0.008511266 0.022271143 -0.0102409255
000180 5e e2 58 bb 9b 53 c1 3c f3 a1 a0 bc 8e 04 c1 bc
       -0.003309391 0.023599437 -0.019608473 -0.023561742
000190 30 fe 8e bc d9 1d 5d 3d c5 1b 46 3c 86 86 b4 3a
       -0.01745519 0.053983543 0.012091582 0.0013773001
0001a0 6f 28 05 3d fd c0 47 bc 46 3d 95 bc ee ee d5 3c
       0.032509264 -0.012192008 -0.018217694 0.026114907
0001b0 b1 2b 0f bd 2d e7 fc 3c da b5 16 3c 43 0a b5 bc
       -0.034953777 0.030871952 0.00919863 -0.02209962
0001c0 9b c5 ae bc 22 5c ff bb 51 e0 77 bc 00 e4 f9 bc
       -0.02133446 -0.0077929655 -0.015129165 -0.030504227
0001d0 58 20 50 bc 12 62 4f 3c b6 14 8c bb f0 99 3b 3d
       -0.012703024 0.012657659 -0.00427493 0.045801103
0001e0 46 13 d8 bc 86 71 55 3b 6b db 5d 3b f2 bd b9 3c
       -0.026376378 0.0032568886 0.0033852707 0.02267358
0001f0 2e 6b da bc 88 46 f9 3b 67 71 1a 3c c3 a5 ee 39
       -0.026662435 0.007607285 0.009426451 0.000455184
000200 21 27 1e bd 3a ce 66 3c d0 96 88 3c 9f 70 db bc
       -0.038611535 0.014087254 0.016673476 -0.0267871
000210 3f 05 4d 3a 9b a4 8e 3c 63 0c 0d 3d 36 e2 02 bd
       0.0007820911 0.017412474 0.03443564 -0.031954013
000220 01 d5 2c 3d 66 ea f4 3c 72 ae 96 3c c1 a7 0e bc
       0.042195324 0.029896926 0.018393729 -0.008706988
000230 b5 d8 5a 3c 24 42 39 3d 4a fd a5 bc 53 35 f7 bc
       0.013357331 0.045229092 -0.02026238 -0.030176794
000240 34 bd 15 3d 19 96 bd 3c 14 ac b4 3c d8 80 c8 3b
       0.03655739 0.023142861 0.02205471 0.006118875
000250 25 dc dc bc 27 ea e8 bc 66 7c b8 3c 6a f6 95 bc
       -0.026960442 -0.028431965 0.022520255 -0.018305976
000260 06 ec e1 bc 9c e4 09 3d b5 ed 96 bb 2b e2 86 3c
       -0.027578365 0.033665285 -0.0046059736 0.016465267
000270 e9 5b 1d 3d e3 64 0e bd 2e 4b 24 3b 06 ef 26 3c
       0.03841773 -0.03476418 0.0025069225 0.010188824
000280 09 9c dc bb 8e 61 96 bc 68 9e aa 3c 3d 4b 28 bd
       -0.006732468 -0.018357065 0.020827487 -0.041087378
000290 d3 33 01 3d dd 12 13 3b 25 a5 81 3b 2a 8f 26 bc
       0.031543564 0.0022441663 0.0039564543 -0.010165969
0002a0 42 56 8b bc d0 63 10 bc f6 fc b5 3c 08 41 f5 3c
       -0.017008904 -0.00881286 0.022215348 0.029938236
0002b0 7b d1 bf bc 5e 85 98 3c 60 c5 bc bb 8b 29 12 bc
       -0.023415318 0.018618282 -0.0057608336 -0.008921037
0002c0 60 65 fd 3c 4b 75 b6 bc d6 f3 47 3b 70 86 6c bc
       0.030932128 -0.022272727 0.0030510328 -0.014436349
0002d0 a6 87 b0 bc 56 84 30 3d 05 9f a2 3b ea fc 78 3c
       -0.021549057 0.043094955 0.0049628043 0.015197018
0002e0 c9 66 01 3d b8 d9 05 3d 65 dc 74 bb 5f 62 14 3d
       0.031592164 0.032678336 -0.003736281 0.036226626
0002f0 06 41 f8 3c 59 d7 a8 3c 8e d2 8d 3c 0e 91 d8 3c
       0.030304443 0.020610498 0.017312314 0.026436355
000300 39 29 6f 3c 55 a8 db 3c 2e e1 92 ba 39 0b b2 3c
       0.014597231 0.026813665 -0.0011206025 0.021733867
000310 3d c7 eb 3c 60 ff c5 3c f0 14 ca bc af f0 03 bd
       0.028781528 0.024169624 -0.024668187 -0.032211956
000320 2a 8a b6 bc 15 e3 23 bd 04 f2 b9 3c c1 3f 21 3d
       -0.022282679 -0.040011484 0.02269841 0.03936744
000330 e2 18 13 bd a8 07 19 bd bc 4e 65 bc 50 85 cb 3c
       -0.035912402 -0.037360817 -0.0139958225 0.024843842
000340 00 a9 1c bc 03 1b 73 3a e1 5b 86 3b 55 7b de 3c
       -0.009561777 0.00092737394 0.0041003083 0.027158419
000350 62 91 b5 3c 34 83 32 bc b2 0d e6 3b 6c 65 49 3a
       0.02216405 -0.010895539 0.0070206756 0.00076826545
000360 64 fb 9d 3b 13 64 fe 3c a7 e5 cc 3c 5a 48 e9 3c
       0.004821228 0.031053578 0.02501185 0.028476883
000370 14 86 5a 3c 80 81 0e 3d cc ef ec 3c df 8d 93 3c
       0.013337631 0.03479147 0.028922938 0.018011985
000380 64 07 d4 3c be 7c 11 3d 87 68 00 bb d7 40 1b 3c
       0.02588243 0.035519354 -0.0019593553 0.009475908
000390 7f 05 15 3d 29 e3 d2 bc 1e c1 67 bc 64 aa 19 3d
       0.036382195 -0.025743084 -0.014145164 0.037516013
0003a0 8d a6 6f bc 30 da 24 3c df 28 bf bc 4b 0f 07 bd
       -0.014627111 0.010061786 -0.023334919 -0.03297357
0003b0 fe 6a da bc e1 e2 2f 3c 72 7e d0 bc 24 0f 17 bd
       -0.026662346 0.0107352445 -0.025450919 -0.036879674
0003c0 55 cd 15 3c 5b cf 1d bc 4e 28 2b 3d 47 99 3d bd
       0.009143193 -0.009631957 0.041786484 -0.046288755
0003d0 16 fc 86 3c 5d 7b c4 3b eb 81 8e bb 04 0e f1 3c
       0.016477626 0.0059961514 -0.0043489835 0.029425628
0003e0 8d 40 5e bc 04 1f bb bc c7 a7 bb 3c 3d 19 5a bc
       -0.013565195 -0.022841938 0.02290715 -0.013311681
0003f0 15 9b cc bc 63 64 cc bb 63 18 47 bc 39 89 93 bc
       -0.024976293 -0.006237553 -0.01215181 -0.018009769

conv2.bias f4 [128]
000000 d9 00 9f bb ef 60 23 bd e9 50 b5 bc 5e da 8d 3c
       -0.004852396 -0.039887365 -0.022133308 0.01731604
000010 9a 74 e5 bc 35 e8 0d 3d 22 d3 27 bd f7 8b da 3c
       -0.028009702 0.034645278 -0.040972836 0.026678069
000020 fb 59 bc 3c 11 f3 5e bc e6 40 f9 3b 81 15 19 3d
       0.022992125 -0.013607756 0.0076066134 0.037374023
000030 34 c2 cc bc f5 e8 f8 bb 25 af ef ba 73 f5 26 3d
       -0.024994947 -0.00759613 -0.001828645 0.040761422
000040 66 92 e5 3c 22 c2 eb 3c b9 a0 9d 3c f3 c3 40 3c
       0.02802391 0.028779093 0.019241678 0.011765468
000050 40 3d 8a bc 11 0d 83 3c fe 5f a5 3c 85 05 32 bc
       -0.01687491 0.015997441 0.020187374 -0.010865574
000060 c1 5f 93 bc d9 50 2f 3b 5c 5a a7 3c 9a 3b 44 bc
       -0.017989995 0.002675107 0.020428829 -0.011977101
000070 d3 40 84 bc 0b 84 15 3d 3b 42 ac 3c c8 62 c2 b9
       -0.016144192 0.03650288 0.021027675 -0.0003707616
000080 05 31 e8 bc 55 94 cc 3c 0a 71 8c bc 2e 53 1f 3d
       -0.028343687 0.024973074 -0.017143745 0.038897686
000090 8f 9c fd bc 2d 4b 36 bb df 7e 61 3b e4 f8 56 bc
       -0.030958442 -0.0027815804 0.0034407896 -0.013120864
0000a0 ad f2 08 3c bc 05 9a 3c 19 d7 33 3b 3e 78 5b 3c
       0.00835864 0.018801562 0.002744144 0.013395367
0000b0 ac d2 5a 3c 5c b4 89 bc 83 2d 07 bd aa 0a e1 bc
       0.013355892 -0.016809635 -0.033002388 -0.027470905
0000c0 bc 2e e1 3c 3a 62 29 3d 97 64 8c bc 9e bb bd bc
       0.027488105 0.04135344 -0.017137809 -0.023160752
0000d0 1f 10 02 3d 76 26 08 bd e2 36 f7 3c cf 31 8e 3c
       0.031753656 -0.033239804 0.030177537 0.017357735
0000e0 d6 ea 33 3c 2f 25 36 3d 03 56 7e 3c 54 1f 87 bb
       0.010981282 0.044469055 0.0155234365 -0.0041236077
0000f0 aa 13 18 bc 6f 96 13 bd ae 1f ae bc d2 35 dd 3c
       -0.009282032 -0.036032137 -0.02125534 0.027003203
000100 22 ab f5 bb c1 e8 14 bd 10 3f a9 3c ba a9 19 3d
       -0.0074972073 -0.036354784 0.020659953 0.03751538
000110 bf 4e 1c 3c bd a8 29 3d 45 9c 57 3b 66 26 dc bc
       0.009540259 0.041420687 0.003289954 -0.026873779
000120 fd 26 48 bb 6b 8a 2b 3d dc e8 0d bd 03 73 97 bc
       -0.0030540817 0.041880053 -0.0346459 -0.018487459
000130 5e fc 5c bc 5c 2e fd bc 2f cc 04 bd 06 4a ae bc
       -0.013487903 -0.030905895 -0.032421287 -0.021275532
000140 43 43 b0 3c d1 3b 1b bd 78 b7 12 3d 3f b6 7c ba
       0.021516448 -0.037898842 0.0358195 -0.0009640194
000150 46 0f 12 bc 40 8a 28 bd 5d f8 34 3c 3f 9c 0e 3c
       -0.008914774 -0.04114747 0.011045543 0.008704244
000160 58 f6 dc bc cd 07 11 bc ee 3e 00 bc 99 49 1d 3c
       -0.026972935 -0.0088519575 -0.007827504 0.009600067
000170 ca 33 21 bd 6c 77 44 3c 4b 3c 21 3d c1 d8 18 3d
       -0.03935603 0.011991363 0.03936414 0.037316088
000180 65 40 5f 3c ab fa be 3c 72 e0 86 bb 65 d2 06 3d
       0.013626193 0.023312887 -0.0041161114 0.03291549
000190 ae 72 a0 3c 13 da bd 3c c6 59 ab 3b 90 ce a5 3c
       0.019585934 0.023175275 0.0052292077 0.020240098
0001a0 db a0 ee bc 4f 2d 67 bc 23 68 b1 39 62 0b 31 3d
       -0.029129436 -0.0141099235 0.0003383766 0.043223746
0001b0 dd ab 32 3d fd c4 f5 bc 56 08 f4 bc f3 8c 20 bb
       0.043620933 -0.030001158 -0.029789131 -0.0024498075
0001c0 6e 32 4c bb 45 ff d4 3c 3c 94 08 3d 96 81 b7 bc
       -0.0031157988 0.026000628 0.033344492 -0.022400659
0001d0 88 5e db bc 27 02 7a bc d4 21 db 3c b4 0d ff 3b
       -0.026778474 -0.015259302 0.026749529 0.007783616
0001e0 68 98 10 bd 87 10 29 ba c9 24 15 3d e0 c6 e4 bc
       -0.035301596 -0.0006449301 0.036412034 -0.027926862
0001f0 77 2c 66 3b 74 01 c5 3c 1f 37 f1 bc a6 59 b4 bc
       0.0035121718 0.024048544 -0.02944523 -0.022015404

deconv1.weight f4 [128, 64, 3, 3]
000000 66 b4 b7 bc 98 e6 c5 3c a2 fe 22 3d 1e d9 5c bc
       -0.022424888 0.024157807 0.039793618 -0.013479499
000010 e5 94 a7 3c 36 ba c6 3b 87 f1 8b 3b ea 69 23 bc
       0.02045674 0.0060646785 0.0042707357 -0.009973982
000020 b8 48 a9 3c 7d 3b 18 3d b2 51 05 bd b9 70 28 3d
       0.020664558 0.037166107 -0.032548614 0.041123126
000030 e3 f5 3c 3c 94 c9 d7 bc 04 e7 94 3c 6e 87 0a bd
       0.011533233 -0.026341237 0.018176563 -0.033820562
000040 55 82 0c 3d e5 42 79 bc f8 64 01 3d ab a2 1a bc
       0.03430398 -0.015213703 0.031590432 -0.009438197
000050 17 6f 11 3d fe 75 d2 bb 0f bd 58 3c 73 78 d3 bc
       0.035506334 -0.006422757 0.013228669 -0.02581427
000060 62 74 c6 bc bc ff 19 bc 13 29 0f bd c4 16 94 bc
       -0.024225418 -0.009399351 -0.03495128 -0.018077262
000070 62 6f 7b bc 23 78 9c 3c c8 2a cc bc b0 d3 10 3d
       -0.01534638 0.019100254 -0.024922743 0.03535813
000080 5f d4 0d 3d 49 b8 15 3d 4d bb d6 bc ed 2a 05 3b
       0.03462636 0.0365527 -0.026212359 0.0020319775
000090 35 69 c7 bc b5 12 bf 3b 4b 4c 2c 3d 14 2a b1 3c
       -0.024342159 0.0058310875 0.042064946 0.02162651
0000a0 e4 4d c1 3b 46 ae 45 3c b0 c2 93 bc 57 a6 d9 3c
       0.005899178 0.012065476 -0.01803717 0.026568575
0000b0 8b a1 ab bc 43 d0 42 3b 8e 62 5c bc 28 38 27 3c
       -0.020951053 0.0029726184 -0.013451232 0.01020626
0000c0 c4 bd 2c 3d 99 28 09 3d a1 31 27 bb 4f 0c 14 3d
       0.042173162 0.033485983 -0.002551176 0.03614455
0000d0 fe 9c 4c 3c f4 50 93 bc bf 6b 9c 3c 56 27 de ba
       0.012488602 -0.017982937 0.019094346 -0.0016948979
0000e0 2c 3f 6d bb 53 4a e8 3c 88 3e d5 3b 25 bb 11 bd
       -0.0036200983 0.028355753 0.0065076984 -0.035578866
0000f0 64 d2 16 bd a0 5c 9b bc 66 8f 0c 3d 0a 62 36 3c
       -0.036821738 -0.018965065 0.034316443 0.011131773
000100 2f e1 85 3c 46 0a b8 3c 11 88 ff bc 02 9b 5e bc
       0.016342727 0.022465836 -0.031192811 -0.013586761
000110 fb 01 1f 3d 5c 7d 3d ba c9 6d 19 3d c4 d0 80 bc
       0.038820248 -0.0007228458 0.037458215 -0.015724547
000120 a4 9c f5 bc 36 3b 52 3a 7f 4d 3d bc c7 88 80 3c
       -0.029981919 0.00080196874 -0.011554121 0.01569022
000130 da 45 14 3d e4 55 2c 3d 1b ec bd bc 39 5b eb 3c
       0.03619943 0.0420741 -0.023183873 0.028730022
000140 1f db 2c 3d 8e 80 15 bd 78 cc b6 3c 1c 5a fb 3c
       0.042201158 -0.036499552 0.022314295 0.030682616
000150 d3 2a 8d bc 2c 25 1a 3d 4f 70 4e bc 09 bf 0d bd
       -0.017232334 0.037633106 -0.012600019 -0.034606013
000160 55 04 c2 3a d3 c0 16 3d 32 37 63 ba 39 09 47 bc
       0.0014802316 0.036804985 -0.00086675875 -0.012148195
000170 c1 03 05 3b 0d 1a 0b bd 79 f6 ad bc 09 7d 75 3c
       0.0020296427 -0.03396039 -0.021235691 0.014983424
000180 92 81 f9 3b b2 28 69 bc 8c 4c e3 3b 2b c1 8a 3c
       0.007614323 -0.014230894 0.0069366153 0.016937813
000190 5a 2e ac bc 77 15 23 bc 3b 61 6e ba 76 5c 0b bd
       -0.021018196 -0.009953848 -0.0009093468 -0.034023724
0001a0 ca c0 35 3c 94 da d7 3c 46 ce 91 3b 0f 4d 31 3d
       0.011093328 0.026349343 0.0044496385 0.04328638
0001b0 72 57 59 3c 3b 6c 94 bc 61 87 1f 3d ae b4 6a bb
       0.0132654775 -0.018118015 0.038947467 -0.003581326
0001c0 6f 5d 85 bc 40 37 33 bd 11 39 09 3d b6 ed 01 ba
       -0.016279904 -0.043753862 0.03350169 -0.0004956381
0001d0 71 a6 0d 3d c2 3a 1a 3d 17 32 b9 bc b6 96 1b 3d
       0.03458256 0.037653692 -0.022606893 0.037985526
0001e0 3d 64 2c 3d 59 36 b6 bb 15 3b 17 39 ea 8f 3c 3d
       0.042087782 -0.005560678 0.00014422492 0.046035685
0001f0 51 65 b4 3b 71 6f 62 3a 11 f6 dc bc 50 2b 07 bc
       0.005505242 0.0008637822 -0.026972802 -0.008250073
000200 0a 28 5c 3c 7f 55 2a 3a d8 c5 26 3d c8 e0 7e bc
       0.01343728 0.0006497725 0.040716022 -0.015556522
000210 b4 0b 4c bc fe d4 6d 3c 9a 97 31 3d ba 70 18 3d
       -0.012453962 0.014516113 0.04335747 0.03721688
000220 dc c3 0d bc 80 6b b1 bc be 08 b1 3c e2 b0 53 bc
       -0.008652654 -0.021657705 0.021610614 -0.01292059
000230 9c 03 dd bb bc a6 0b bd ca c2 c4 bc 27 75 c3 bc
       -0.006744815 -0.034094557 -0.024018664 -0.023859574
000240 21 55 7b bc 34 a7 b3 3b 94 84 e6 3c 1a ad fb bb
       -0.0153401205 0.0054825787 0.02813939 -0.0076805474
000250 6b e3 61 bc be c0 14 bd 4c 79 5c 3c 8d b8 9d bc
       -0.013787131 -0.036316626 0.013456654 -0.01925304
000260 ac d1 31 3c 6b fb 60 3c a8 23 e4 39 e8 1e 16 3d
       0.010853212 0.013731818 0.00043514115 0.03665057
000270 8c 6c 1e bd 48 c7 2a bc 28 0a c0 3c 39 ba e6 bc
       -0.038677737 -0.010423489 0.023442343 -0.02816497
000280 47 8f 3a bc ea 37 65 bc 5d d3 52 bb dc 74 9e 3c
       -0.011386699 -0.013990382 -0.003216944 0.019342832
000290 23 d5 ad 39 82 36 8d bc cb 7a e4 bc 3f 64 bf bc
       0.0003315593 -0.017237905 -0.027890584 -0.02336323
0002a0 28 c8 f1 bc 39 98 8a bb e7 84 25 bd 25 30 29 3d
       -0.029514387 -0.004229572 -0.04040995 0.04130568
0002b0 46 ff 0c 3d c5 38 f6 bb ca 7e 7b bc 2e 24 1c 3c
       0.034423135 -0.0075140917 -0.015350053 0.00953011
0002c0 59 44 b1 bb d1 1c 9f bc 5d 17 98 3c 98 2a 5c 3c
       -0.005409759 -0.01942292 0.018565828 0.0134378895
0002d0 25 f9 b6 bb db 38 89 3b df ff 24 3d fc f2 4a bc
       -0.0055838996 0.004187686 0.04028308 -0.012387034
0002e0 65 e1 6a 3b e7 b0 d8 bc 94 57 18 3d c2 8c 50 3c
       0.0035839912 -0.026451541 0.037192896 0.012728872
0002f0 54 e4 3b 3d 94 b1 95 3c 2d ab 1f 3d dd 24 6b bc
       0.045872048 0.018273152 0.038981605 -0.014352051
000300 c6 6c 86 bc e0 a9 bd 3b 5b e4 35 bc 93 90 77 bc
       -0.01640929 0.005788073 -0.0111018075 -0.015110153
000310 a8 25 03 bd 3a 2f 01 bd 3a fe b7 bb 25 1c 05 3b
       -0.032018334 -0.03153918 -0.005615023 0.0020310965
000320 c7 65 0f 3d 4c aa e0 bc 93 50 04 bd 14 32 f3 ba
       0.03500917 -0.027424954 -0.032303404 -0.0018554353
000330 2b 80 fb bc 36 23 87 3c e1 85 b8 3c 36 c3 4d 3c
       -0.030700764 0.016496282 0.022524776 0.012558749
000340 f0 12 a8 bc a7 12 40 3c 81 14 74 3c 6f e6 aa bc
       -0.020516843 0.011723197 0.014897467 -0.020861832
000350 c0 6b ee bc b3 2e 89 3c 95 86 dd bc 9c 95 23 3d
       -0.029104114 0.0167459 -0.027041713 0.0399376
000360 7f 2b 08 bc 8e 40 4a bb 7e 19 8f 3b 70 0f b8 3b
       -0.0083111515 -0.0030861231 0.0043670526 0.0056170747
000370 36 e7 0b 3d 7f ba 11 3d b1 c5 30 bc 59 51 1d 3c
       0.034156047 0.035578247 -0.010789321 0.009601914
000380 b5 49 65 bc 89 93 2b 3b fb 90 82 3c 1f 13 bb bc
       -0.013994624 0.0026180467 0.015938273 -0.022836266
000390 eb 6d 2a 3d 0d 71 19 bd fc 6b c5 3c ed 19 83 3c
       0.041608732 -0.03746133 0.024099343 0.016003573
0003a0 20 c3 2e 3c ce ed d0 bc d5 a0 1e 3d 1b 56 3e bc
       0.010666639 -0.02550402 0.0387276 -0.011617209
0003b0 0f 81 07 bc a8 ed c7 b9 8a dc 96 bb 50 34 50 bc
       -0.008270516 -0.00038133305 -0.004603927 -0.012707785
0003c0 e2 22 1e bd 79 f6 9c 3b 6c ab 9f 3c 2a d4 41 3c
       -0.038607486 0.004790124 0.01949092 0.011830369
0003d0 eb bf bc 3c 68 1b 9c bb fd 2c cf 3b 40 d7 2a bc
       0.023040732 -0.0047640093 0.0063225017 -0.010427296
0003e0 ec 5b 25 3b ab bd 29 bd a2 e3 24 bc 6c 98 a3 bc
       0.0025231792 -0.041440647 -0.0100640375 -0.019970141
0003f0 5c 01 c0 3c 0c cb d0 3c 5c 72 0c 3d f8 2a 7f 3c
       0.023438148 0.025487445 0.03428875 0.015574209

deconv1.bias f4 [64]
000000 77 23 00 bd 77 7d 32 bd 43 3a 88 3c f9 03 07 3c
       -0.031283822 -0.043576684 0.016629344 0.008240693
000010 e5 a9 77 3b 1f 76 31 3d ee de ae 3c f6 f5 17 3d
       0.0037790474 0.04332554 0.021346536 0.0370998
000020 4d 5a 13 bd 89 c0 0c 3d 37 da bd 3c b9 e7 73 bc
       -0.03597479 0.034363303 0.023175342 -0.01488679
000030 fc 08 ab 3c 57 1c e6 3c 05 b1 a5 ba 59 9b 5a bc
       0.020878308 0.028089685 -0.0012641257 -0.013342702
000040 2c 67 07 bd e4 db a9 bc 2d 6e d1 3c 70 9c 92 bc
       -0.033057377 -0.020734735 0.025565231 -0.01789686
000050 3e 10 f7 bb 95 01 5e 3c 2f 75 35 3b eb b5 a7 bc
       -0.007539778 0.013550182 0.0027688255 -0.020472487
000060 e1 74 a1 3b 23 c7 1f bd df 4e b0 bc 75 c5 d5 3c
       0.004927263 -0.03900827 -0.021521984 0.026095131
000070 ba 7d b3 3b f7 9c 49 3d f3 59 8b 3b a4 c1 28 3b
       0.0054776343 0.04922196 0.004252666 0.0025750184
000080 f7 5c 1d 3d ec 87 3f 3d 89 1a 2c bd 66 28 1b bd
       0.038418736 0.046760485 -0.042017493 -0.037880324
000090 15 ec 52 ba d6 e3 b4 3c 7a 2d 0f 3b b4 e3 e8 bc
       -0.0008046043 0.022081297 0.0021847175 -0.02842889
0000a0 04 bc 1d 3d 47 37 30 bd cb 6f 38 3c 6d ce 9c 3b
       0.038509384 -0.043021467 0.011257122 0.00478535
0000b0 2a 4e ec bb 7c 42 ce bb 74 81 08 3d 39 36 45 3d
       -0.0072114663 -0.0062945466 0.03332658 0.048147414
0000c0 d3 58 eb bc 80 d2 a3 3b 2a c7 7d 3b d5 47 25 3d
       -0.028728878 0.004999459 0.0038723447 0.040351707
0000d0 f2 f7 20 bc c4 1c 5f bb 9f 9a ba 3c 2a a5 58 bc
       -0.00982474 -0.0034044245 0.022778807 -0.013222972
0000e0 04 8d 15 3d f2 33 1a 3d 6a 46 21 bd 18 75 86 bc
       0.036511436 0.037647195 -0.039373793 -0.016413257
0000f0 f5 81 48 bb b1 65 a5 3c c8 85 11 3c 69 15 93 3c
       -0.0030595039 0.020190092 0.008881994 0.017954545

deconv2.weight f4 [64, 64, 3, 3]
000000 e3 a6 90 bc d7 fa 5c bc a5 5e aa 3b 42 f9 8c 3c
       -0.017657703 -0.013487539 0.005199271 0.0172087
000010 28 4a fa bc a9 48 92 bc b6 e6 df 3c e8 b5 72 bb
       -0.030552939 -0.017856913 0.027331691 -0.0037034694
000020 6a 51 14 bd 32 22 1a 3d 13 ce 86 3a 10 c7 44 3b
       -0.036210455 0.037630267 0.0010284804 0.0030025877
000030 3d 3a 17 3d 96 49 07 bd d3 65 25 bd 8f 9c 39 bc
       0.036920775 -0.03302916 -0.04038031 -0.01132883
000040 c3 61 9d 3c 54 74 89 3c 78 eb ff ba d7 9c 91 3c
       0.019211655 0.016779102 -0.0019525131 0.017774982
000050 fe 2b f3 bc 8b b8 75 3b e5 e4 84 3c d3 b9 13 bd
       -0.029684063 0.003749403 0.016222427 -0.036065888
000060 0c 68 08 3c 78 c4 84 bc e5 81 b6 bc c6 9a bd 3c
       0.008325588 -0.016206965 -0.022278735 0.02314509
000070 4a 71 9f bc 13 bd 93 bc b7 85 bc bc 2b e8 c9 3c
       -0.0194632 -0.018034494 -0.023012979 0.02464684
000080 33 37 03 bd 1d 85 dd 3c f8 6a 2e 3d 42 2a 83 ba
       -0.032035064 0.027041012 0.042582482 -0.0010007101
000090 cd 97 2d bb f1 ad 9a ba 4b 4b c8 3c 39 28 36 bb
       -0.0026488185 -0.0011801106 0.024449965 -0.002779497
0000a0 5b 02 c6 3b d9 62 54 3c 3a b3 1a 3d 3e c8 30 3c
       0.0060427613 0.01296302 0.03776858 0.010789929
0000b0 c8 55 6f bc c7 fe 81 3c 6e ca 91 3b 70 a5 a7 bc
       -0.014607854 0.015868558 0.0044491803 -0.020464629
0000c0 67 16 b7 3c dc 8b bf 3c f5 0f ae bc 26 e5 16 3c
       0.02234955 0.02338212 -0.021247843 0.009209907
0000d0 db 88 8d 3b f8 e1 3f 3c 87 03 da bc 73 9c 49 bc
       0.004319293 0.01171159 -0.02661301 -0.012305367
0000e0 c8 71 7f bc 53 ed 16 3d 18 66 12 bd a3 7e 11 bc
       -0.015591092 0.036847424 -0.035741895 -0.00888029
0000f0 78 4d 00 bd 26 84 d9 bc 56 ee 71 bc e0 1e c3 3c
       -0.03132388 -0.026552271 -0.014766296 0.023818433
000100 65 5b e3 bc 03 f2 03 bd 97 db 93 bc 63 69 0c 3d
       -0.027753541 -0.032213222 -0.018049045 0.034280192
000110 ee ef 07 bc e1 44 0f 3c 70 3b 23 3d 46 72 d9 3c
       -0.00829695 0.008744449 0.039851606 0.026543748
000120 a5 3e 10 3d 1d c2 77 3b 4c 3d 15 bd 8f 7f 1a 3d
       0.035215992 0.003780491 -0.03643541 0.037719306
000130 8f b4 0a bd e7 10 01 ba c8 2a ad bc bd bd d8 3c
       -0.0338636 -0.0004923478 -0.021138564 0.026457662
000140 ca ed a1 3c 5e ac 9f 3b 89 bc 46 bc 2f 16 86 3c
       0.019766707 0.0048728427 -0.012129911 0.016368
000150 44 4b b1 ba 9f 0d fa 3a c8 0d 1a 3d 00 13 78 3c
       -0.0013526459 0.0019077546 0.0376108 0.015141249
000160 57 cf 96 3b 79 36 9f bc 3f d9 ba bb 05 8d 90 3c
       0.0046023536 -0.019435154 -0.0057021673 0.017645368
000170 c6 48 9e 3c 1e 51 eb 3c f1 c3 11 3d bc e2 b0 bc
       0.01932181 0.028725203 0.035587255 -0.02159249
000180 8a cd a0 3b b9 f7 d0 3c 7a 42 66 3c 43 20 eb bc
       0.0049073147 0.025508748 0.014053935 -0.028701907
000190 85 2f cb ba b1 6e b9 3c 38 e7 dd bc 18 12 23 3b
       -0.0015501833 0.02263579 -0.027087793 0.002488261
0001a0 d8 c4 b1 3c 00 af d0 bb ff 6e b0 3c 4f d2 17 3d
       0.021700308 -0.006368518 0.021537302 0.0370658
0001b0 2e 59 ec 3c 63 97 29 3c e3 f3 1a bc b1 8c 98 bc
       0.028851118 0.010351035 -0.009457561 -0.018621774
0001c0 57 65 2f 3c 4c 41 d9 3c c2 9f 53 bc 34 ca 55 3b
       0.010705314 0.026520394 -0.012916507 0.0032621743
0001d0 75 67 21 3d 96 b3 9b bc 1a 5c bc bb a5 bd d5 bb
       0.039405305 -0.019006532 -0.005748284 -0.0065228515
0001e0 c8 be 10 bd c5 27 ba bc 4b f6 9e 3c 5a a3 80 bc
       -0.035338193 -0.022724042 0.019404551 -0.015702892
0001f0 73 83 89 3c d9 e3 8f 3c 74 ad de 3c f9 81 ff 3c
       0.016786313 0.0175647 0.027182318 0.031189905
000200 43 6d d7 bc e2 e8 ae bc b5 1d dd 3c 85 10 57 bb
       -0.026297217 -0.021351282 0.026991704 -0.0032816243
000210 88 5e 0e bd 21 af 9b 3c 12 c6 87 bc 9c 40 f6 bc
       -0.03475812 0.019004406 -0.01657394 -0.030060105
000220 b8 c0 13 3d 58 82 9f bc e2 1c ce ba 52 8f e0 bc
       0.036072463 -0.019471332 -0.001572516 -0.02741209
000230 80 a9 a9 3c de 9f c6 3c f5 ba 75 3c b6 a8 19 bd
       0.020710707 0.024246152 0.014998187 -0.03751441
000240 ab 05 0a bd 4a 2d 37 bc e5 2a 31 bc 5a 99 95 3c
       -0.03369681 -0.011180231 -0.0108134495 0.0182616
000250 f0 b4 1d bd f3 ae 8c bc c5 25 e4 3c 64 2d 06 bc
       -0.038502634 -0.017173266 0.027850041 -0.008189533
000260 78 f1 1a 3d 38 92 f9 3c 86 66 e9 bc 89 14 31 3b
       0.03782794 0.03046523 -0.02849127 0.0027020297
000270 79 2c 0c bd a2 f0 02 3d 05 45 76 3c 11 6e 31 bc
       -0.0342221 0.031967767 0.015031104 -0.0108294645
000280 f9 3a fa 3c 74 10 00 3d 2b 49 26 bd e2 7f 04 bd
       0.030545698 0.03126569 -0.040597122 -0.03234852
000290 ea 14 5a bc e7 17 1f 3c 97 ee 17 3d 96 fd 0f 3d
       -0.01331065 0.009710289 0.03709277 0.035153948
0002a0 a0 df ab bc 42 e0 fc 3c 5a 8a 8d 3b 0a 4e 1e bc
       -0.020980656 0.030868653 0.0043194713 -0.009662161
0002b0 ca b3 1f 3d cb f8 d7 3b a2 12 5b 3c c9 e1 05 bd
       0.03898982 0.0065909377 0.013371142 -0.03268603
0002c0 09 9e 78 3c 3d a1 00 3d b0 e4 41 3b f2 7e df 3c
       0.015174397 0.03140377 0.0029585771 0.027282212
0002d0 ce 9c 7e 3a e9 f8 8d bc d2 a0 e3 bc e6 cc 4b 3c
       0.0009712697 -0.017330604 -0.027786646 0.012438988
0002e0 83 69 e9 3c 57 92 ae bc 5c bf 05 bd a9 60 20 3d
       0.028492695 -0.021310015 -0.032653198 0.039154682
0002f0 be c1 0a 3d c2 3b cf 3c fa 24 6e 3c 0a 72 1d 3c
       0.033876173 0.02529705 0.014535183 0.009609709
000300 66 c1 da bc 91 60 56 bc da be f2 3c 3d 0f 14 3d
       -0.026703548 -0.013084547 0.02963202 0.036147345
000310 51 27 6a bc cc 13 16 bb b3 63 10 bd a8 f3 06 3c
       -0.0142916 -0.0022899983 -0.03525133 0.008236803
000320 15 0d b5 bb b2 53 1e bd 75 fa 9e 3b e1 fe 03 bc
       -0.005525241 -0.038654037 0.004851634 -0.008056373
000330 53 a6 86 ba 9c e7 d0 3c e2 3f 05 3c 48 c7 cc bc
       -0.0010272957 0.025501065 0.008132907 -0.024997368
000340 fa 7f f7 bc 8e 8e a8 bc 39 c5 be 3c 95 c2 14 bd
       -0.030212391 -0.020575788 0.023287402 -0.03631838
000350 d8 8c 5c 3b 9e 47 a9 bc 77 67 e6 3c 6c f5 e7 3c
       0.0033653285 -0.020664033 0.028125508 0.028315268
000360 4b e0 25 3d e0 40 e9 3a 53 1e 00 bc 90 41 1a 3d
       0.040497106 0.0017795824 -0.00781973 0.03766018
000370 4b 06 86 bc fb 6c 2c bc d5 16 1b 3d 82 8d 1c 3d
       -0.016360423 -0.01052403 0.03786357 0.03822089
000380 96 7c 16 bd e8 5a a7 bc 52 54 96 bc d6 34 cd bb
       -0.03673991 -0.02042909 -0.018350754 -0.006262402
000390 04 a8 03 3d e9 8c 9a 3c 8d e1 23 3c e0 72 57 3b
       0.032142654 0.01886602 0.010002506 0.0032874867
0003a0 ef d6 67 bc 19 d9 c4 3c 76 5e 6a 3b 4f 05 12 bd
       -0.014150365 0.024029301 0.003576187 -0.035649594
0003b0 20 21 00 bd f1 c7 bd ba 0b 10 eb 3c 53 31 16 bd
       -0.03128159 -0.0014479143 0.028694173 -0.036668133
0003c0 90 d8 c9 bc af 3f 25 3d bd 9f 23 3d a6 96 09 bd
       -0.024639398 0.040343937 0.03994726 -0.033590935
0003d0 14 c0 15 3b 29 de b4 bc 5e 88 b6 3b 65 84 87 bb
       0.0022850083 -0.02207859 0.0055704555 -0.0041356557
0003e0 8c e0 05 3d 3f a6 f3 3b 32 62 16 3d a5 8f 61 bc
       0.032684848 0.0074355896 0.03671474 -0.013767158
0003f0 97 b8 01 3c a0 92 70 bc 55 0d cd 3c 98 fb 1b bd
       0.007917545 -0.014683396 0.025030771 -0.038081735

deconv2.bias f4 [64]
000000 f2 32 af bc b0 ce 8b 3b 5d 88 27 3c 48 c0 04 3d
       -0.021386597 0.0042665824 0.010225383 0.032409936
000010 4a 11 03 3d 74 13 53 bc af fb 9a 3a b1 2b 18 3d
       0.03199891 -0.012883056 0.0011824275 0.037151042
000020 6d bc 05 bd 27 5b 96 bc ec 94 00 3d 72 9b c5 3c
       -0.0326504 -0.018354012 0.031392023 0.024121974
000030 b2 b4 29 bd 64 0f ae 3c be 4a 42 bd cf 5e b1 3b
       -0.04143209 0.021247573 -0.04743456 0.0054129134
000040 3d 50 c4 3b 91 e0 51 bc d0 1a e6 3c 87 11 80 3c
       0.0059910105 -0.012809888 0.028088957 0.015633358
000050 15 ae c6 bc aa da 24 bd a4 86 f4 bc a7 4c 73 3c
       -0.02425293 -0.040247597 -0.029849358 0.014849818
000060 51 38 1d 3d 57 f4 2c 3d 0e c9 3f bc a9 8c 13 3c
       0.038383786 0.042225208 -0.01170565 0.009005704
000070 b5 2c 16 bc bf 63 8f 3b 0d 77 85 bc bb d0 cf bc
       -0.009165932 0.0043759043 -0.01629212 -0.025368085
000080 fc 23 20 bc 28 98 03 3d a3 a1 c4 bc 39 86 53 bc
       -0.009774204 0.03212753 -0.024002856 -0.012910419
000090 15 1c 80 bc 4e eb 1a 3c 9b c8 43 3d c6 77 fb 3a
       -0.01563839 0.009455515 0.047798734 0.0019185476
0000a0 da ed c0 3c 39 cf 63 3c 05 33 e4 bc 56 8d 69 bb
       0.023550916 0.013904386 -0.02785636 -0.0035637221
0000b0 47 e4 1e 3d f1 8c 9f b8 4e 27 c9 bc 98 06 94 bc
       0.03879192 -7.607963e-05 -0.024554875 -0.01806955
0000c0 ad 17 d9 3c f7 18 d0 bb 8e c2 d3 3c b9 f3 00 ba
       0.026500547 -0.0063506323 0.025849607 -0.000491913
0000d0 77 d9 41 3d 61 75 ae 3c e6 f5 df 3c 49 5c eb bb
       0.04732653 0.021296205 0.027338933 -0.007182632
0000e0 5f d4 81 bc 07 0a 31 bc 16 db fa 3c 67 b0 dc 3c
       -0.015848337 -0.010805613 0.030622046 0.026939584
0000f0 a0 ed e0 bb 0b 16 a3 3c 97 63 5f bc de 14 26 bc
       -0.0068642646 0.019907972 -0.013634584 -0.010136811
